Plotting/saliencies_live/Multi_Pong/Sequence_Length_3/multi_pong_3__1__1721978543_checkpoint_2280.pt (torch, 91378 bytes, 11 tensors)

critic.0.weight f4 [128, 12]
0.49833006 0.09851712 0.5540728 0.1123733 0.0035020416 -0.048879195 0.62929 -0.023009427
-0.89636433 -0.21491738 0.34598282 0.1051817 -0.07294093 -0.000910027 0.061745115 -0.0013891093
0.04093969 0.0058945124 1.155667 -0.26413524 -0.005074918 -0.019248646 0.83095783 -2.3041244
-0.16061015 0.04123208 0.11270852 0.021352723 -0.037362408 0.02340512 -1.3656081 1.619275
0.07125761 -0.064617015 0.120480224 -0.13381946 -0.39970252 0.01892225 -0.20205593 -0.12954561
-0.07131624 -0.033361547 0.30902335 0.11840095 0.51730824 0.13062789 0.78785497 -0.9403518
0.09149844 0.053986102 -0.022874173 0.018653985 0.15832879 0.05626997 0.74612075 0.19844446
-0.13704072 -0.025996938 -1.2207885 0.9897363 0.100828595 0.008435655 0.009256551 -0.0013251541
-0.0067818468 0.0025189617 0.020348907 -0.03787362 0.0853575 0.10185412 6.143858 6.3820186
0.083012685 0.22606045 0.24130131 -0.27038446 0.07190745 -0.10121407 0.44801944 -0.18072958
-0.2273672 0.03360525 1.2869996 0.4837036 0.09885678 0.015342642 -0.025615286 -0.009975209
0.019541318 0.02005446 0.49290368 0.029298266 0.012797884 -0.010142426 -2.8695772 -0.49411866
-0.13092615 0.006003622 0.09477599 -0.0428153 -0.0007808113 -0.047849316 0.51781386 0.28730586
-0.15869564 0.0014150598 -0.87666607 -0.95580494 -0.25595635 0.32584015 -0.15288097 -0.3831065
0.15041803 -0.0057741045 0.83067393 -0.16155139 0.11467902 -0.0006359462 0.3148806 -0.106308825
0.10955956 0.0071852487 -0.13307902 0.0019238362 0.004592771 0.06828422 1.1081516 3.3608544
0.001619379 0.05880988 0.22399364 3.2132866 -0.05192391 -0.012670367 -0.06929594 -0.0050094277
0.25206473 0.23992659 3.1305313 1.2430106 0.007566117 -0.0266794 0.009667009 -0.16613625
-0.24167638 -0.00079011254 0.16093959 0.011639998 -0.1915755 0.010735543 -2.7658288 -0.002074819
0.20104061 0.0060617668 3.0098746 0.039045412 0.0059738224 0.023616401 0.014464204 0.02407195
0.15507568 -0.14699574 2.5197685 -3.1544201 -0.018845048 -0.028336132 -0.34087822 0.04706061
-0.06258829 0.0028156035 0.074989244 -0.003924726 -0.010264064 -0.019006735 -0.6257946 -1.6630573
-0.0062488634 0.027428728 -0.06915155 2.2522516 -0.08536038 -0.0042546648 0.004152755 -0.0017884648
-0.12732616 0.16625102 -1.7935492 0.7395665 -0.048807167 0.01682507 0.6885863 0.042916447
-0.21261758 0.012746049 0.17520824 -0.019507313 0.02479458 0.1347321 0.08364788 -0.11481738
0.02711273 -0.13968493 -0.032607753 0.12339853 0.23932752 0.01250756 0.0020022593 -0.017788988
0.037675038 -0.089333266 -0.28828067 -2.4077053 0.042316694 -0.021010842 0.61104226 -0.82136786
0.192983 0.0036688019 -0.05979935 -0.0004093345 -0.021144336 -0.027416006 -2.6966927 -1.194422
0.011141264 -0.023583675 0.20821106 -1.0335867 -0.023418343 0.0016204261 0.116685845 0.021818826
-0.14070559 -0.009352462 -1.306005 0.045345064 0.14506544 -0.0147481235 1.7458283 0.13282177
-0.18295062 -0.03801826 0.08124889 -0.067668 0.02495336 -0.09974521 0.40535504 -1.0183111
-0.033156198 -0.023204431 -0.10806481 -1.2625093 -0.004224047 0.0049706004 -0.08013447 -0.0002858591
00000000: 1e25 ff3e 58c3 c93d b7d7 0d3f f923 e63d
00000010: 8282 653b 8d35 48bd 2619 213f 447e bcbc
00000020: 2278 65bf 4d13 5cbe a924 b13e 8169 d73d
00000030: 0e62 95bd e18e 6eba 72e8 7c3d c612 b6ba
00000040: 60b0 273d c126 c13b e5ec 933f bc3c 87be
00000050: 7f4b a6bb 56af 9dbc a7b9 543f c676 13c0
00000060: fd76 24be f8e2 283d b9d3 e63d e8eb ae3c
00000070: 5309 19bd 18bc bf3c 3fcc aebf 6744 cf3f
00000080: 83ef 913d ed55 84bd 56be f63d f807 09be
00000090: cfa5 ccbe d602 9b3c c0e7 4ebe 9ba7 04be
000000a0: 400e 92bd 1ea6 08bd 4f38 9e3e 337c f23d
000000b0: 506e 043f 51c3 053e ddb0 493f e5ba 70bf
000000c0: 8963 bb3d 8820 5d3d 9e62 bbbc 3ed0 983c
000000d0: f120 223e 577b 663d c501 3f3f 0635 4b3e
000000e0: 6754 0cbe 88f7 d4bc cc42 9cbf 5c5f 7d3f
000000f0: 397f ce3d b435 0a3c caa8 173c cbb0 adba
00000100: 413a debb 2a15 253b c0b2 a63c 5e21 1bbd
00000110: eacf ae3d e598 d03d 7c9a c440 7f39 cc40
00000120: 8e02 aa3d 647c 673e b117 773e d56f 8abe
00000130: 3744 933d 5349 cfbd ce62 e53e 2d11 39be
00000140: f3d2 68be a9a5 093d 67bc a43f 00a8 f73e
00000150: 6c75 ca3d b45f 7b3c 26d7 d1bc 0f6f 23bc
00000160: 1d15 a03c 4049 a43c df5d fc3e eb02 f03c
00000170: 37ae 513c 6b2c 26bc 27a7 37c0 1ffd fcbe
00000180: 8111 06be 08ba c43b ea19 c23d 195f 2fbd
00000190: 5caf 4cba a5fd 43bd 738f 043f c119 933e
000001a0: 1c81 22be 8779 b93a 306d 60bf a2af 74bf
000001b0: b60c 83be 85d4 a63e d48c 1cbe 8926 c4be
000001c0: 2f07 1a3e b334 bdbb 0ca7 543f ba6d 25be
000001d0: d6dc ea3d a1b5 26ba 0838 a13e 71b8 d9bd
000001e0: c360 e03d 3c72 eb3b de45 08be 3b29 fc3a
000001f0: f57e 963b 99d8 8b3d e9d7 8d3f 3d18 5740
00000200: 5841 d43a a1e2 703d 975e 653e 7da6 4d40
00000210: 2aae 54bd 5f97 4fbc 08eb 8dbd 2026 a4bb
00000220: a10e 813e 51af 753e a05a 4840 f91a 9f3f
00000230: 31ed f73b c28e dabc 6062 1e3c 9f1f 2abe
00000240: 037a 77be 8e1f 4fba 59cd 243e b1b5 3e3c
00000250: 5e2c 44be 22e4 2f3c 5703 31c0 b0f9 07bb
00000260: 97dd 4d3e c9a1 c63b c9a1 4040 15ee 1f3d
00000270: 0ec0 c33b 2f77 c13c 45fb 6c3c 8a32 c53c
00000280: 29cc 1e3e 0d86 16be e343 2140 05e2 49c0
00000290: ee60 9abc 2d21 e8bc 9787 aebe a0c2 403d
000002a0: 4a2e 80bd fd85 383b f693 993d fd9a 80bb
000002b0: 9b2a 28bc 03b4 9bbc 1334 20bf 10df d4bf
000002c0: 44c3 ccbb 36b2 e03c 549f 8dbd e424 1040
000002d0: 6cd1 aebd b76a 8bbb d513 883b ec6a eaba
000002e0: ca61 02be b53d 2a3e 0593 e5bf 3b54 3d3f
000002f0: 06ea 47bd bbd4 893c 3147 303f 28c9 2f3d
00000300: 6cb8 59be ced4 503c ca69 333e cdcd 9fbc
00000310: 011e cb3c 36f7 093e 944f ab3d 6025 ebbd
00000320: 841b de3c 9109 0fbe b58f 05bd 5eb8 fc3d
00000330: 4612 753e 82ec 4c3c 5638 033b 36ba 91bc
00000340: 2451 1a3d 5cf4 b6bd 8699 93be d817 1ac0
00000350: 4554 2d3d ee1e acbc 446d 1c3f 2a45 52bf
00000360: 569d 453e 4870 703b 2af0 74bd f29b d6b9
00000370: e336 adbc 8897 e0bc 9d96 2cc0 d2e2 98bf
00000380: d989 363c 8d32 c1bc 4835 553e 924c 84bf
00000390: d3d7 bfbc 7a64 d43a fdf8 ee3d 65bd b23c
000003a0: 2015 10be 123b 19bc 2c2b a7bf bfbb 393d
000003b0: 098c 143e 1da2 71bc 4d77 df3f 6e02 083e
000003c0: 6857 3bbe 09b9 1bbd d165 a63d 8595 8abd
000003d0: fd6a cc3c 3747 ccbd b28a cf3e 0558 82bf
000003e0: cbce 07bd 3817 bebc 1551 ddbd e899 a1bf
000003f0: e069 8abb 6be0 a23b 8a1d a4bd 5cdf 95b9

critic.0.bias f4 [128]
0.39703968 -0.045179762 0.04221887 -0.13417964 -0.020703776 0.010034098 0.040972024 0.19793062
-0.0504549 -0.014292608 -0.028594617 0.06582396 -0.09340605 -0.08455121 -0.060166143 -0.015700232
-0.05003165 0.12490697 -0.053099535 -0.05618801 0.021449313 0.028436255 -0.07861606 -0.20707197
-0.057904307 -0.089735456 0.041829858 -0.03557251 -0.1878214 -0.07930921 -0.044257276 -0.1296702
0.07090957 -0.0039724037 -0.17355251 0.13406453 -0.025462206 0.08888212 -0.02663792 0.06825552
-0.038292754 0.0921479 -0.033238415 -0.16092485 0.80657417 -0.04475467 0.0028992393 -0.030374631
-0.13186371 0.45987368 0.039686568 -0.021579184 0.005147358 -0.025827143 0.022709582 -0.040423192
0.014966022 -0.029928947 -0.059651855 0.15787067 -0.19650953 0.19779213 -0.13703145 -0.14596735
0.02053764 0.0053688684 -0.034194857 0.035583887 -0.04337002 0.04059895 -0.10401735 0.010881102
0.10555424 0.3508627 -0.05926406 0.042926706 -0.02120871 0.061638523 -0.033950012 -0.021805985
-0.06427889 0.20570335 0.12916547 -0.07802302 -0.18940291 0.08430479 0.05342905 -0.14198245
0.000796828 -0.0015871582 0.023270383 0.46579322 0.023070967 0.02607 -0.0037574745 0.21512865
0.05398083 0.04528828 -0.6875705 -0.0146476235 0.021636685 0.052948028 -0.16712962 -0.008845444
0.0820307 -0.32996812 -0.051096108 -0.031152157 0.14047422 0.032350894 -0.08146797 0.47705582
0.07420122 -0.02905514 0.009204522 -0.06828118 0.010707858 0.08276023 0.045688532 0.021685978
0.07782626 0.06643932 -0.21989392 0.007833086 -0.019155785 -0.042407773 -0.43724102 0.10300745
00000000: c948 cb3e 6a0e 39bd b2ed 2c3d 6366 09be
00000010: f79a a9bc 0f66 243c 48d2 273d 53ae 4a3e
00000020: cca9 4ebd 8b2b 6abc 423f eabc b6ce 863d
00000030: ac4b bfbd 2f29 adbd c670 76bd c69d 80bc
00000040: fded 4cbd 3acf ff3d e67e 59bd 6625 66bd
00000050: 78b6 af3c 26f3 e83c 7501 a1bd ad0a 54be
00000060: 112d 6dbd 39c7 b7bd c955 2b3d 7bb4 11bd
00000070: 4154 40be de6c a2bd 1e47 35bd 44c8 04be
00000080: 0939 913d f02a 82bb c0b7 31be 3648 093e
00000090: 1e96 d0bc d407 b63d c437 dabc 8dc9 8b3d
000000a0: ddd8 1cbd 0ab8 bc3d 0125 08bd 7cc9 24be
000000b0: a57b 4e3f ac50 37bd 2a01 3e3b 38d4 f8bc
000000c0: 4807 07be 9074 eb3e 628e 223d d4c6 b0bc
000000d0: 2bab a83b 7293 d3bc 7209 ba3c ca92 25bd
000000e0: 0c34 753c 8d2d f5bc 8155 74bd d9a8 213e
000000f0: cb39 49be 058a 4a3e f951 0cbe 7778 15be
00000100: 8e3e a83c 55ed af3b e80f 0cbd 69c0 113d
00000110: c3a4 31bd 164b 263d 0c07 d5bd a646 323c
00000120: d22c d83d 47a4 b33e dfbe 72bd ead3 2f3d
00000130: e3bd adbc ad78 7c3d 2b0f 0bbd 77a2 b2bc
00000140: a7a4 83bd e6a3 523e f443 043e 88ca 9fbd
00000150: d6f2 41be fda7 ac3d 6bd8 5a3d d963 11be
00000160: 39e2 503a 3108 d0ba 88a1 be3c 737c ee3e
00000170: 53ff bc3c c190 d53c f63f 76bb af4a 5c3e
00000180: 011b 5d3d 3480 393d 9f04 30bf 96fc 6fbc
00000190: 6b3f b13c 08e0 583d 0724 2bbe 7bec 10bc
000001a0: b6ff a73d 95f1 a8be 274a 51bd cf32 ffbc
000001b0: 79d8 0f3e 5f82 043d aed8 a6bd a940 f43e
000001c0: cff6 973d 0c05 eebc 90ce 163c 01d7 8bbd
000001d0: 0370 2f3c 327e a93d e623 3b3d cba6 b13c
000001e0: 6063 9f3d 5711 883d df2b 61be 5856 003c
000001f0: 98ec 9cbc c6b3 2dbd 0ede dfbe 92f5 d23d

critic.2.weight f4 [64, 128]
-0.5000472 0.010654886 0.31790984 0.09776614 -0.08021761 0.03539181 0.07542317 -0.5008437
-0.14328767 -0.048386857 0.17878026 -0.9888942 -0.23278852 -0.31620726 -0.54922414 0.23406743
-0.08848778 0.46973857 -0.27776426 -0.4128476 0.011310251 0.26894265 -0.53051364 0.6249465
1.2004658 0.013249136 0.35193086 -0.21545279 -1.0093626 -0.34658134 0.08821303 -0.052425116
0.42373177 0.20799507 0.03529469 0.054484118 0.23169166 -0.0047052363 -0.24925674 -0.21454018
0.06646497 -1.1235658 -0.0026550465 0.05048663 -0.91907376 -0.089333564 0.03303725 -0.29189962
0.15957838 -0.026186736 0.04635794 0.08653618 -0.5790372 -0.20781435 -0.6404276 -0.89699763
0.007645821 -0.06280157 0.03862928 -0.09257896 0.007454602 -0.54942447 -0.039151464 0.026743371
0.18181399 -0.28833848 -0.57443607 0.2900726 0.11548833 0.38847136 0.16694176 0.12674455
-0.1620284 -0.050625566 0.40915325 0.9137356 1.3142523 0.1920609 0.23525937 0.06288571
0.36974663 -0.16834453 0.061999977 0.095891126 -0.24870528 0.1872191 -0.36088145 -0.5596891
-0.81905293 -0.07912019 -0.2320703 1.0544834 0.27530816 -0.25741473 0.4649952 0.62718296
-0.9879618 0.29184753 0.1249995 0.118221655 -0.44628373 0.2791272 -0.43889618 -0.16743748
-0.34703532 0.35244253 0.24402946 -0.67288214 0.037527725 0.022536814 0.075449914 -0.82881576
-0.1615377 -0.28220868 -0.035271302 -0.022452448 -0.7472498 0.9662387 0.6895678 -0.6405779
0.28945753 0.055213816 0.60971946 -0.00754641 0.41073257 -0.41454074 0.73797697 0.8150181
0.034112096 -0.41157946 0.0059597045 0.1265209 0.21601239 -0.42610013 -0.06250362 -0.17310897
0.048382763 0.021073962 0.66663086 -0.00759064 -0.303572 0.20840289 -0.019677255 0.6274082
-0.018270547 0.06742708 -0.70542324 -0.13939553 -0.090236455 0.8857072 1.9071025e-05 -0.007234291
0.026855772 -0.115104586 -0.7752167 -0.038619224 0.044290513 0.061707173 -0.77984005 0.24084611
-0.36441 -0.10821065 0.048881017 0.0769815 -0.6214068 0.06060141 0.11878238 0.13088588
-0.3695241 -0.16339265 0.031831477 0.0623984 0.20804317 0.29447994 0.072681025 0.13295324
-0.13255316 -0.25435013 0.04368352 0.10826652 -0.17020757 0.13810031 0.28690386 0.037219528
0.3668304 -0.24236703 0.0008970694 -0.07047028 -0.0053518196 0.0031966504 0.13332008 -0.080694675
0.23866113 0.31147966 0.13280718 -0.2574936 0.19524924 -0.48123267 -0.22828598 -0.07761745
0.12961067 0.20578083 -1.3506663 0.05044079 -0.500564 0.44334617 -0.052529823 0.10887762
0.06101445 -0.11795954 -0.101074286 -0.06586404 0.14513631 -0.2268396 0.23110907 0.19205798
0.011882235 0.072854444 -0.17498264 0.16429771 -0.13139372 0.68276 -0.1291296 0.11583457
0.5487228 0.05601237 0.16374144 0.6488285 -0.022523172 0.07256824 0.913551 0.49533656
-0.13725634 -0.01827594 0.05446507 0.47674063 -0.06618862 0.33736876 0.35977817 -0.3949216
0.057264637 -0.2658538 0.58332986 -1.2565159 0.23846248 -0.17589879 -1.5811234 0.40615037
0.90145457 0.3039431 -0.10672967 -0.22668953 -0.35954237 0.3549652 -0.03513727 -0.038059022
00000000: 1803 00bf d591 2e3c 14c5 a23e 9d39 c83d
00000010: 2149 a4bd 01f7 103d 7777 9a3d 4b37 00bf
00000020: 01ba 12be 4c31 46bd 2c12 373e 2c28 7dbf
00000030: 1d60 6ebe ebe5 a1be f499 0cbf 5faf 6f3e
00000040: 1539 b5bd 9381 f03e 1e37 8ebe c360 d3be
00000050: a24e 393c dab2 893e becf 07bf 7efc 1f3f
00000060: dda8 993f e712 593c 4830 b43e a89f 5cbe
00000070: cb32 81bf 1c73 b1be 08a9 b43d b8bb 56bd
00000080: 5ff3 d83e a9fc 543e 2a91 103d bd2a 5f3d
00000090: 9440 6d3e 622e 9abb 293d 7fbe 6cb0 5bbe
000000a0: c91e 883d 01d1 8fbf 4a00 2ebb 12cb 4e3d
000000b0: 6b48 6bbf 84f4 b6bd 1152 073d de73 95be
000000c0: 8468 233e 9185 d6bc d3e1 3d3d e139 b13d
000000d0: c83b 14bf 49cd 54be 10f3 23bf a3a1 65bf
000000e0: cc89 fa3b 1c9e 80bd bc39 1e3d 0a9a bdbd
000000f0: bc45 f43b 15a7 0cbf 495d 20bd ea14 db3c
00000100: 722d 3a3e 1aa1 93be 3e0e 13bf 6584 943e
00000110: 2585 ec3d b8e5 c63e c8f2 2a3e 53c9 013e
00000120: c6ea 25be c15c 4fbd 897c d13e 94ea 693f
00000130: 6b39 a83f 9dab 443e d5e7 703e 39ca 803d
00000140: 6e4f bd3e 8262 2cbe b0f3 7d3d 9162 c43d
00000150: 99ac 7ebe 5db6 3f3e 74c5 b8be c947 0fbf
00000160: 74ad 51bf c409 a2bd d6a3 6dbe 50f9 863f
00000170: 31f5 8c3e ddcb 83be da13 ee3e 108f 203f
00000180: 11eb 7cbf 0a6d 953e bdff ff3d 321e f23d
00000190: 4d7f e4be c3e9 8e3e 00b7 e0be bb74 2bbe
000001a0: 9dae b1be 5973 b43e dce2 793e 0142 2cbf
000001b0: acb6 193d 209f b83c 7c85 9a3d 452d 54bf
000001c0: 246a 25be a87d 90be a478 10bd 32ee b7bc
000001d0: c34b 3fbf 6b5b 773f 8487 303f eafc 23bf
000001e0: c733 943e e227 623d 9316 1c3f e047 f7bb
000001f0: 8a4b d23e af3e d4be 0fec 3c3f 07a5 503f
00000200: 20b9 0b3d 8bba d2be a049 c33b b28e 013e
00000210: 5a32 5d3e cc29 dabe e601 80bd 7a43 31be
00000220: 012d 463d 4da3 ac3c 52a8 2a3f e7ba f8bb
00000230: ca6d 9bbe 9167 553e 3232 a1bc d39d 203f
00000240: 1dac 95bc 3517 8a3d 9e96 34bf b4bd 0ebe
00000250: e4cd b8bd b5bd 623f b7fa 9f37 a20d edbb
00000260: a300 dc3c f4bb ebbd 9a74 46bf 312f 1ebd
00000270: f869 353d a9c0 7c3d 99a3 47bf 5da0 763e
00000280: f393 babe 8c9d ddbd 7637 483d 7aa8 9d3d
00000290: 8414 1fbf 2f39 783d 2d44 f33d f306 063e
000002a0: 4332 bdbe 6750 27be b961 023d 7795 7f3d
000002b0: 4509 553e 13c6 963e cad9 943d e524 083e
000002c0: 04bc 07be 2e3a 82be 7eed 323d d6ba dd3d
000002d0: e54a 2ebe 2b6a 0d3e 10e5 923e 8173 183d
000002e0: 32d1 bb3e 102f 78be 4f29 6b3a b952 90bd
000002f0: 515e afbb e57e 513b 0f85 083e 4043 a5bd
00000300: 9563 743e 437a 9f3e 9bfe 073e 33d6 83be
00000310: 6bef 473e 2164 f6be cdc3 69be e6f5 9ebd
00000320: a9b8 043e 36b8 523e a2e2 acbf 009b 4e3d
00000330: f624 00bf 45fe e23e 8329 57bd 3bfb de3d
00000340: 4aea 793d c594 f1bd 0900 cfbd bae3 86bd
00000350: 9d9e 143e a448 68be dba7 6c3e d9aa 443e
00000360: b5ad 423c b634 953d a62e 33be a93d 283e
00000370: 138c 06be 5cc9 2e3f 8d3a 04be ad3a ed3d
00000380: 1979 0c3f 3a6d 653d d6ab 273e a019 263f
00000390: 8482 b8bc a89e 943d 7ade 693f c19c fd3e
000003a0: ed8c 0cbe 6db7 95bc c416 5f3d 5917 f43e
000003b0: e68d 87bd 99bb ac3e d834 b83e 2a33 cabe
000003c0: 538e 6a3d fd1d 88be 1b55 153f 83d5 a0bf
000003d0: 822f 743e d01e 34be 4062 cabf f1f2 cf3e
000003e0: bac5 663f 6e9e 9b3e 1695 dabd 4d21 68be
000003f0: f015 b8be 00be b53e 19ec 0fbd c7e3 1bbd

critic.2.bias f4 [64]
0.025556535 -0.36393437 -0.0253638 0.08201548 -0.03309182 -0.2007285 -0.3237639 0.12978286
0.26750538 -0.08739822 -0.50084305 0.25830325 0.38219184 0.00095064845 0.09044796 -0.14819854
-0.35295305 0.7023073 -0.24832119 0.060769893 0.32467484 0.47041884 0.01950215 0.0031241816
0.5317309 -0.41493255 0.22108857 -0.24083985 0.29775026 0.023054384 0.050665833 0.108421415
-0.5566771 -0.28500158 -0.23844941 -0.3414029 -0.5916796 -0.45290184 0.30836445 0.40409395
-0.43399516 -0.20359422 -0.095834844 -0.39569396 -0.60709244 0.1296815 -0.0028570683 0.25290006
0.24098854 0.33669552 0.14733276 -0.3684174 0.95630443 0.044031415 -0.08070154 -0.059187245
0.08153677 -0.24940963 0.22272955 0.27015808 0.29102632 0.04575142 -0.18261445 -0.43908778
00000000: f05b d13c 9b55 babe bec7 cfbc bbf7 a73d
00000010: 4a8b 07bd c68b 4dbe 62c4 a5be cce5 043e
00000020: 77f6 883e d7fd b2bd 4037 00bf 5340 843e
00000030: a6ae c33e f034 793a c83c b93d 5cc1 17be
00000040: 43b6 b4be 69ca 333f e947 7ebe dae9 783d
00000050: c83b a63e bdda f03e f9c2 9f3c 12bf 4c3b
00000060: 841f 083f 0a72 d4be 0b65 623e b99e 76be
00000070: b972 983e 8cdc bc3c fa86 4f3d 0c0c de3d
00000080: 6482 0ebf baeb 91be 152c 74be 5ccc aebe
00000090: 5078 17bf c0e2 e7be f2e1 9d3e 67e5 ce3e
000000a0: 9d34 debe 017b 50be 0f45 c4bd 6698 cabe
000000b0: 696a 1bbf 3acb 043e a73d 3bbb 1e7c 813e
000000c0: b3c5 763e 5b63 ac3e 66de 163e 35a1 bcbe
000000d0: 5ed0 743f 495a 343d d946 a5bd 536e 72bd
000000e0: c0fc a63d 3d65 7fbe 3713 643e 2952 8a3e
000000f0: 6701 953e d765 3b3d 48ff 3abe 1dd0 e0be

critic.4.weight f4 [1, 64]
0.2731997 -0.17312026 0.3076882 -0.31156713 -0.22893271 0.5613175 -1.0399171 0.15992284
0.15820336 -0.28256223 -0.13232295 0.36139148 0.21983263 -0.23975718 0.31367287 0.26728207
-0.23497045 1.9157019 -0.2812592 0.2870951 0.25085795 0.21383627 0.35860214 -0.17092876
0.3328901 -0.302853 -1.9180783 -0.48884356 -0.60149366 0.33771402 -0.33126733 0.35917145
-0.36320612 -0.21884157 -1.1143665 -0.34930912 -0.21857908 -0.37287998 0.22521369 0.23829435
-0.3365876 -0.12115683 -0.1735786 -0.45476195 -0.64466876 0.20081335 -0.5571281 0.24349523
0.2295752 0.41804275 0.27807948 -0.18147461 0.63266593 -0.38577265 -0.10476057 -0.20676857
0.115588486 -0.14217637 0.37368196 0.18462647 0.25020403 0.5317014 -0.27684343 -0.30823144
00000000: d5e0 8b3e 7046 31be 4f89 9d3e ba85 9fbe
00000010: 566d 6abe 81b2 0f3f 011c 85bf d0c2 233e
00000020: 1000 223e ffab 90be ab7f 07be 4e08 b93e
00000030: ce1b 613e e882 75be bb99 a03e 32d9 883e
00000040: 189c 70be b835 f53f 3501 90be 21fe 923e
00000050: 7470 803e e5f7 5a3e b39a b73e f307 2fbe
00000060: 9270 aa3e 8c0f 9bbe 9783 f5bf b449 fabe
00000070: 7dfb 19bf dae8 ac3e df9b a9be 52e5 b73e
00000080: 27f6 b9be 0118 60be 90a3 8ebf a5d8 b2be
00000090: 32d3 5fbe 20ea bebe 6b9e 663e 6f03 743e
000000a0: 3655 acbe 1221 f8bd 97be 31be 8fd6 e8be
000000b0: 0309 25bf 04a2 4d3e f29f 0ebf d056 793e
000000c0: c315 6b3e b309 d63e 6f60 8e3e 7bd4 39be
000000d0: 65f6 213f fe83 c5be b68c d6bd 24bb 53be
000000e0: a8b9 ec3d af96 11be 3e53 bf3e b90e 3d3e
000000f0: be1a 803e 951d 083f 6cbe 8dbe 83d0 9dbe

actor.0.weight f4 [128, 19]
-0.5164868 0.34491304 0.008070449 -0.08759153 0.07435666 0.53495353 0.5263401 -0.327092
0.57340074 0.0883226 -0.5933509 -0.108557954 -0.3476442 -0.042308733 -0.27839428 -0.20605576
0.26486495 -0.06989443 -0.5930822 0.38683483 -0.11888322 0.43760058 -0.17934942 0.8452331
-0.39686581 0.39161283 -0.32867393 0.21529105 1.0734574 0.48544326 -0.41358393 0.3765813
-0.42826244 0.15457778 0.34529886 0.01897317 0.6261721 0.1673688 -0.23535265 -0.19368173
-0.384691 0.3778669 0.22253722 -1.0688403 0.021264229 0.12334212 0.7811167 -0.8909557
-0.20131467 -0.15288368 0.24670787 -0.20620504 0.041256793 0.08839091 -0.69434094 0.2601208
-0.035420705 0.11569773 -0.040505633 -0.3768369 0.25572693 1.0732992 1.6513706 0.06231502
0.22679797 -0.40392324 -0.3821785 0.51977974 -0.2709774 -0.0014657202 0.18394575 0.5267049
-0.17296149 -0.21238694 -0.26222172 0.46294367 0.19243045 -0.058820914 -0.33473986 -0.086912885
-3.2066503 0.53196645 0.076450765 -0.040917076 -0.029660564 -0.48083574 0.060745478 -0.11363344
0.13297094 0.11386122 -0.010726866 -0.08685112 0.13345438 0.04794943 0.21337593 -0.31354058
0.3147054 -0.09379632 -0.22805706 0.19484839 -1.7968705 -0.17507401 0.109361224 1.6291101
-0.028806528 -0.19682321 0.5577407 -0.91711867 -0.35420206 -0.34566006 -0.04395677 -0.54254204
0.52387595 -0.2540046 0.07442028 0.736662 -0.2901721 0.15673329 -0.39696497 0.057660654
0.15682635 -0.5224888 -0.05941413 -0.5445863 -0.46722275 0.81656075 -0.25078726 0.07927596
-0.20482413 0.09853556 -0.431381 0.87093246 0.09651642 -0.02362071 0.055227663 0.30396366
0.24815667 0.3688663 1.9236361 0.06486111 -0.006145591 0.5171043 0.23799165 -0.090452015
0.36728734 -0.22344276 -0.09616374 -0.39189515 0.4208753 -0.3373338 0.6824565 -0.16041842
0.16737987 -0.31294402 0.72350097 -0.38000104 -0.022551676 1.4569997 -0.061534256 -0.15384683
0.37800637 -0.08932346 -0.2823972 0.39395198 -0.0141050685 0.009853259 0.18560444 -0.19460738
-0.097128354 0.21620065 0.01819553 -0.18877025 -0.40969574 -0.2481966 -0.10969394 0.89704096
0.43362787 0.39418373 -0.09140495 0.4579682 0.55230635 0.3606832 -1.4117124 0.47153765
-0.49789733 0.42428154 -0.59976035 0.44603783 -1.0528013 -0.07926792 -0.3026827 0.3922096
-0.10173295 0.006427149 1.0938196 -0.08557962 -0.03358942 -0.30957332 1.6577889 -0.85768414
0.33260095 -0.47671407 0.18921508 0.64203376 -0.8544665 0.121071465 -0.15377742 -0.4640711
0.44212773 -0.42776367 -0.21925475 0.43034604 -0.026346577 0.33923888 0.2750829 0.10451146
-0.16770267 -1.1215789 0.30300662 -0.6100619 0.3934951 -0.11155549 0.1692717 -0.47063175
-0.31855902 0.555695 -0.23666655 -0.7465664 -0.36521232 -0.6924808 0.1386997 -0.052928913
0.13256373 0.79145056 0.31255135 0.6173981 0.17557463 0.7010733 -0.03779104 -0.20093223
-0.14624009 0.2987652 -0.17332494 -0.45403996 -0.034061737 -0.023679322 -0.1948714 -0.07809686
0.07610302 0.3605765 -0.47958574 -0.36334348 -0.17945117 0.696716 0.34256512 -0.24949604
00000000: 7b38 04bf 7198 b03e eb39 043c 3063 b3bd
00000010: 4e48 983d b7f2 083f 3abe 063f 9a78 a7be
00000020: 64ca 123f 7be2 b43d d8e5 17bf a253 debd
00000030: 6cfe b1be ec4b 2dbd b289 8ebe 4800 53be
00000040: 619c 873e d024 8fbd 3cd4 17bf 370f c63e
00000050: 0c79 f3bd 2f0d e03e 60a7 37be 3261 583f
00000060: ff31 cbbe 7a81 c83e f347 a8be 4275 5c3e
00000070: 0d67 893f 058c f83e 46c1 d3be 44cf c03e
00000080: 3745 dbbe a349 1e3e 03cb b03e 9f6d 9b3c
00000090: d14c 203f ba62 2b3e 4900 71be 8154 46be
000000a0: 38f6 c4be c577 c13e cce0 633e c2cf 88bf
000000b0: 5232 ae3c cb9a fc3d 44f7 473f ac15 64bf
000000c0: 6f25 4ebe 8a8d 1cbe fda0 7c3e 6a27 53be
000000d0: e2fc 283d 4b06 b53d 54c0 31bf 8e2e 853e
000000e0: 4d15 11bd eef2 ec3d 3ce9 25bd c4f0 c0be
000000f0: a4ee 823e de61 893f 1d60 d33f 093e 7f3d
00000100: ba3d 683e 07cf cebe e6ac c3be 4910 053f
00000110: 8dbd 8abe 691d c0ba 465c 3c3e 22d6 063f
00000120: d11c 31be f67b 59be ed41 86be f406 ed3e
00000130: 7d0c 453e 33ee 70bd 0663 abbe 62ff b1bd
00000140: c239 4dc0 f42e 083f 3892 9c3d aa98 27bd
00000150: b6fa f2bc 1a30 f6be 40d0 783d a6b8 e8bd
00000160: 8929 083e 1230 e93d bdbf 2fbc 00df b1bd
00000170: 44a8 083e 9f66 443d 387f 5a3e 6488 a0be
00000180: 1121 a13e 4918 c0bd ca87 69be 5686 473e
00000190: daff e5bf 9a46 33be c7f8 df3d ae86 d03f
000001a0: abfb ebbc 068c 49be 18c8 0e3f 4ac8 6abf
000001b0: f959 b5be 5bfa b0be 040c 34bd 09e4 0abf
000001c0: bc1c 063f e40c 82be a969 983d e195 3c3f
000001d0: 7091 94be b17e 203e fe3e cbbe 942d 6c3d
000001e0: 1697 203e d3c1 05bf 3b5c 73bd 026a 0bbf
000001f0: d237 efbe 200a 513f 3067 80be 6f5b a23d
00000200: 6bbd 51be 03cd c93d f8dd dcbe 6ef5 5e3f
00000210: 67aa c53d 3880 c1bc 6736 623d 20a1 9b3e
00000220: c81c 7e3e 0bdc bc3e b539 f63f e7d5 843d
00000230: f460 c9bb f360 043f 15b4 733e e83e b9bd
00000240: 160d bc3e 2ece 64be 7ff1 c4bd 7ba6 c8be
00000250: f87c d73e 04b7 acbe 78b5 2e3f ba44 24be
00000260: a165 2b3e 333a a0be 5c37 393f 7f8f c2be
00000270: 4bbe b8bc f77e ba3f 580b 7cbd 068a 1dbe
00000280: 0d8a c13e 38ef b6bd 5e96 90be 13b4 c93e
00000290: f218 67bc 906f 213c 170f 3e3e 2847 47be
000002a0: 3beb c6bd b463 5d3e cb0e 953c fd4c 41be
000002b0: a4c3 d1be 4027 7ebe 37a7 e0bd 7aa4 653f
000002c0: 7904 de3e 73d2 c93e 8532 bbbd cf7a ea3e
000002d0: f363 0d3f 78ab b83e feb2 b4bf 626d f13e
000002e0: 66ec febe 6e3b d93e e589 19bf 125f e43e
000002f0: 31c2 86bf 3857 a2bd 3af9 9abe b2cf c83e
00000300: 5d59 d0bd d59a d23b 4802 8c3f 5e44 afbd
00000310: 0f95 09bd 6580 9ebe 6d32 d43f 3091 5bbf
00000320: ac4a aa3e de13 f4be 99c1 413e 535c 243f
00000330: 51be 5abf 51f4 f73d d477 1dbe ba9a edbe
00000340: 915e e23e d703 dbbe 5184 60be 5156 dc3e
00000350: c7d4 d7bc b8b0 ad3e aad7 8c3e 1b0a d63d
00000360: 40ba 2bbe e68f 8fbf af23 9b3e 042d 1cbf
00000370: 3178 c93e 3477 e4bd 8f55 2d3e a5f6 f0be
00000380: 2b1a a3be 0742 0e3f b758 72be fa1e 3fbf
00000390: 1cfd babe 6c46 31bf 4b07 0e3e fdcb 58bd
000003a0: c9be 073e 819c 4a3f bb06 a03e cd0d 1e3f
000003b0: d6c9 333e 8a79 333f c7ca 1abd 2ec1 4dbe
000003c0: f6bf 15be c1f7 983e 187c 31be ed77 e8be
000003d0: 5284 0bbd 23fb c1bc 5e8c 47be 3ff1 9fbd
000003e0: e6db 9b3d 7c9d b83e 438c f5be 2808 babe
000003f0: 0cc2 37be fb5b 323f b264 af3e e47b 7fbe

actor.0.bias f4 [128]
-0.37807205 0.2029044 -0.15050918 0.089044705 0.13264981 -0.21648286 0.016995214 -0.0027683661
0.005261531 -0.2684926 -0.08303675 -0.21750902 -0.09221874 -0.084176384 -0.003133007 0.48031467
-0.14794153 0.15907899 0.16760819 0.03037684 -0.12789816 0.06394697 0.2587328 0.07954711
0.14976199 -0.26327243 -0.2675478 -0.008799552 0.07283294 -0.23470552 0.0029484793 -0.012928512
-0.086092904 -0.38091585 -0.15707569 -0.3363484 0.0995839 -0.07288925 0.29007816 0.112437084
0.031369593 -0.1195994 -0.1925797 -0.12273907 -0.10928591 -0.21199845 0.3748652 -0.11522883
0.50070524 -0.12563634 -0.2101478 -0.2846409 -0.047663454 0.26849848 0.14501093 -0.37846866
-0.40910414 -0.28369787 -0.14387606 0.2872461 0.052630607 0.29925236 -0.05804771 0.06745958
0.0463998 0.20392197 -0.3883935 -0.005869982 -0.2250657 0.055707492 0.23446088 0.18089783
0.15084781 0.048071295 -0.059243787 -0.040463086 0.0013719867 0.027808407 -0.16524038 0.046356678
0.08435853 -0.034285076 0.039084688 -0.27401638 -0.039238703 -0.13375774 -0.32756338 -0.15813863
0.24478315 0.11004556 0.114353746 0.2001941 -0.094030626 -0.057302818 0.19019035 0.34174752
0.10741776 0.16213492 0.2697779 0.2821907 0.24480894 -0.08009909 -0.035716448 -0.065851375
-0.0881305 -0.39552692 -0.057816822 0.032416526 0.09723886 -0.33364707 0.0030507245 -0.26722842
-0.09520177 0.14216714 -0.0054001864 0.12456891 0.103900194 -0.22726497 0.1644665 -0.01968484
-0.08313771 0.16324273 0.23964413 -0.3208324 -0.08780604 -0.012245226 -0.009692156 -0.42830512
00000000: a992 c1be 2cc6 4f3e 141f 1abe 125d b63d
00000010: 5ad5 073e afad 5dbe 8c39 8b3c 7a6d 35bb
00000020: ec68 ac3b dd77 89be 2c0f aabd afba 5ebe
00000030: 2edd bcbd ab64 acbd 2353 4dbb ceeb f53e
00000040: fc7d 17be 9ae5 223e 7ba1 2b3e dad8 f83c
00000050: bcf7 02be a1f6 823d a078 843e 98e9 a23d
00000060: 355b 193e a5cb 86be 06fc 88be ff2b 10bc
00000070: 7029 953d a556 70be 463b 413b 1cd2 53bc
00000080: 7a51 b0bd 6707 c3be 73d8 20be dc35 acbe
00000090: a5f2 cb3d f646 95bd 2085 943e 6a45 e63d
000000a0: 677d 003d 88f0 f4bd 9d33 45be 9f5e fbbd
000000b0: 4bd1 dfbd 1f16 59be 55ee bf3e 18fd ebbd
000000c0: 382e 003f d0a6 00be fc30 57be 74bc 91be
000000d0: c13a 43bd a278 893e bf7d 143e a5c6 c1be
000000e0: 1976 d1be d940 91be 3f54 13be ec11 933e
000000f0: 3193 573d 9b37 993e 70c3 6dbd 4028 8a3d
00000100: b70d 3e3d ecd0 503e 83db c6be fa58 c0bb
00000110: 9f77 66be 8a2d 643d 8316 703e 483d 393e
00000120: d977 1a3e 68e6 443d 9da9 72bd 9fbc 25bd
00000130: 3cd4 b33a 75ce e33c c634 29be 80e0 3d3d
00000140: 2ac4 ac3d 826e 0cbd 4417 203d e04b 8cbe
00000150: c3b8 20bd caf7 08be 63b6 a7be 18ef 21be
00000160: 6fa8 7a3e 915f e13d 4c32 ea3d afff 4c3e
00000170: 2193 c0bd 5cb6 6abd 42c1 423e 88f9 ae3e
00000180: d8fd db3d b206 263e 5420 8a3e 4d7b 903e
00000190: 32af 7a3e fe0a a4bd 694b 12bd 16dd 86bd
000001a0: c37d b4bd 8182 cabe 55d1 6cbd 31c7 043d
000001b0: 2b25 c73d cad3 aabe aaee 473b 2ad2 88be
000001c0: 25f9 c2bd 4394 113e 0cf4 b0bb fc1d ff3d
000001d0: a0c9 d43d 26b8 68be e869 283e 1a42 a1bc
000001e0: 1b44 aabd 1a29 273e 4565 753e 2544 a4be
000001f0: a7d3 b3bd 33a0 48bc d9cb 1ebc cf4a dbbe

actor.2.weight f4 [64, 128]
0.147921 0.1342207 -0.40740278 0.24986963 -0.08646136 0.56478375 -0.28389814 -0.08777636
0.18509229 0.20382036 -0.15302065 0.07345418 -0.051467832 0.11903512 0.041316245 -0.30160013
0.19137704 -0.15537138 -1.0867223 -0.039123412 -0.455495 -0.07232716 0.051265277 0.017699363
-0.11388857 0.080111325 0.32067633 0.28469953 -0.63641566 0.47067836 0.049844347 0.6537818
0.6217593 -1.0264137 0.28374892 0.24928337 -0.3388889 0.030626591 -0.09915446 0.5231044
0.081617504 0.17952156 0.5778835 -0.083628625 0.35743207 0.6288957 -0.51544595 0.08296802
0.072853684 0.3614444 0.2007846 0.2309011 -0.1312141 0.2538367 -0.63491803 -0.07563086
-0.18808267 0.4727176 -0.13566186 -0.21939903 -0.23119918 -0.0033068846 -0.35385028 -0.11697654
-0.7810009 -0.084647104 0.3210132 -0.51150864 -0.5656389 0.15951611 -0.020431401 -0.047214195
-0.2485381 -0.23060402 -0.047988746 0.18253195 -0.118707426 0.4106805 0.29024363 -0.25471854
-0.24077629 -0.3001432 -0.54441696 -0.06429857 -0.22801587 -0.13291357 -0.2978674 0.1836841
0.21663195 0.47680673 0.2017673 0.15765828 -0.4596802 0.10854414 -0.0012835691 -0.5211947
-0.36957398 0.0019178295 0.14567003 -0.20120673 -0.47217122 -0.4597767 -0.11725529 0.32436678
0.097137265 -0.0116025265 0.12769993 0.10686712 0.19146784 0.75244576 -0.2917557 0.3252913
-0.22900116 -0.21902883 0.2940552 -0.5252187 0.04092708 -0.050135694 -0.19187276 -0.4047647
0.06919181 0.19431306 0.0045312783 -0.030358395 0.047672134 -0.06820758 0.38858745 0.8651998
-0.63967735 0.38914633 -0.41706732 -0.09910369 0.49876124 -0.40128613 0.3217141 0.6453566
-0.32232493 0.2545912 -0.27582955 -0.8747827 0.070428714 -0.000874517 0.22684161 0.22836998
-0.587895 0.18201527 -0.0788069 -0.18604583 0.41190478 -0.13013358 0.077681884 0.0066846358
0.22120833 -0.41202265 -0.15533713 0.41527462 -0.5494718 -0.13800566 -0.048932515 -0.039029513
-0.5704045 -0.21432139 -0.6681045 -0.6638714 0.18374974 -0.57426125 -0.11918373 -0.3305022
-0.157351 -0.08250209 0.15425588 -0.41895488 -0.6127349 0.053205986 -0.012602916 -0.30186445
-0.052557718 -0.23271711 -0.19753923 0.4013332 0.1407417 0.5812287 0.22096291 -0.38489074
-0.4226315 -0.3402652 -0.5326335 -0.07757938 -0.12053892 0.19385287 0.071192615 0.27790156
-0.16886565 0.6991613 -0.10589437 0.35272273 -0.49128973 -0.1406964 0.03177886 0.25688317
0.6904939 0.34239113 -0.56141406 -0.050047286 0.07112018 -0.034338545 -0.3358133 -0.46751815
-0.025142143 0.28251824 0.20921527 0.19950151 1.1346271 0.041054443 -0.917761 -0.3321951
-0.085763305 -0.08496732 -0.05848633 -0.049860895 0.5004336 0.029559897 0.22659265 -0.13619867
-0.25246826 -0.16538097 -0.019703146 0.83136165 0.14606959 -0.95299935 0.08806449 -1.0545813
0.36895016 0.19062465 -0.100728504 0.22875966 0.17191187 0.004391009 -0.14349937 -0.23875158
0.30141255 0.21438088 -0.40877026 0.5985762 0.34077784 -0.29821905 -0.06126609 0.07219209
-0.1567308 0.24282117 -0.38725382 -0.08319915 0.01814439 0.14896214 0.27853125 0.28404647
00000000: 9a78 173e 2771 093e 1997 d0be d3dd 7f3e
00000010: a712 b1bd ab95 103f 195b 91be 18c4 b3bd
00000020: d588 3d3e 49b6 503e 72b1 1cbe 256f 963d
00000030: efcf 52bd afc8 f33d 393b 293d 556b 9abe
00000040: 58f8 433e ad19 1fbe b719 8bbf df3f 20bd
00000050: a436 e9be 4320 94bd 8afb 513d 41fe 903c
00000060: 693e e9bd 6811 a43d b02f a43e 23c4 913e
00000070: 23ec 22bf c1fc f03e 9629 4c3d 3e5e 273f
00000080: 9e2b 1f3f 8661 83bf 8a47 913e 2444 7f3e
00000090: d982 adbe 9ee4 fa3c 7e11 cbbd 2cea 053f
000000a0: 1427 a73d 80d4 373e 2cf0 133f 7c45 abbd
000000b0: 5601 b73e 4fff 203f 44f4 03bf 23eb a93d
000000c0: 5034 953d 3e0f b93e 7a9a 4d3e 5771 6c3e
000000d0: fd5c 06be e2f6 813e fd89 22bf 5ae4 9abd
000000e0: be98 40be 0b08 f23e f1ea 0abe 24aa 60be
000000f0: 7abf 6cbe 51b8 58bb dd2b b5be 6591 efbd
00000100: adef 47bf 765b adbd d85b a43e 3bf2 02bf
00000110: b6cd 10bf 3158 233e c15f a7bc ac63 41bd
00000120: c680 7ebe 7623 6cbe d98f 44bd a8e9 3a3e
00000130: e11c f3bd b744 d23e d09a 943e 786a 82be
00000140: 0f8e 76be 5fac 99be e95e 0bbf f8ae 83bd
00000150: fe7c 69be 7f1a 08be 1382 98be af17 3c3e
00000160: c4d4 5d3e 0320 f43e 169c 4e3e 2c71 213e
00000170: 345b ebbe 644c de3d 6f3d a8ba 046d 05bf
00000180: cd38 bdbe ae5f fb3a 862a 153e 2309 4ebe
00000190: 6dc0 f1be da67 ebbe 8b23 f0bd 6713 a63e
000001a0: e7ef c63d 8618 3ebc c5c3 023e 26dd da3d
000001b0: 2510 443e 49a0 403f 0161 95be 958c a63e
000001c0: 487f 6abe 1849 60be 678e 963e bc74 06bf
000001d0: 27a3 273d 165b 4dbd 4b7a 44be 523d cfbe
000001e0: 70b4 8d3d 01fa 463e 1e7b 943b 2bb2 f8bc
000001f0: db43 433d 6ab0 8bbd eff4 c63e bc7d 5d3f
00000200: e5c1 23bf 303e c73e d989 d5be e0f6 cabd
00000210: a25d ff3e 6075 cdbe b6b7 a43e 1736 253f
00000220: c607 a5be c759 823e 8839 8dbe c2f1 5fbf
00000230: ee3c 903d d83f 65ba 2b49 683e d2d9 693e
00000240: 4980 16bf 3662 3a3e 8365 a1bd cc82 3ebe
00000250: 2fe5 d23e bd41 05be ae17 9f3d ca0a db3b
00000260: 7084 623e a2f4 d2be b210 1fbe e09e d43e
00000270: 2faa 0cbf 5b51 0dbe 766d 48bd 69dd 1fbd
00000280: 0806 12bf 1177 5bbe e608 2bbf 7af3 29bf
00000290: e428 3c3e c902 13bf 9916 f4bd 9637 a9be
000002a0: 9f20 21be dbf6 a8bd 41f5 1d3e 4181 d6be
000002b0: 32dc 1cbf 85ee 593d 767c 4ebc fa8d 9abe
000002c0: c346 57bd 654d 6ebe b947 4abe 8c7b cd3e
000002d0: 981e 103e 67cb 143f 1a44 623e 6610 c5be
000002e0: 2863 d8be 3e37 aebe ab5a 08bf f0e1 9ebd
000002f0: 1cdd f6bd 5e81 463e 6fcd 913d 1d49 8e3e
00000300: 1eeb 2cbe 3cfc 323f 26df d8bd 1398 b43e
00000310: 548a fbbe b812 10be 8d2a 023d 3186 833e
00000320: 35c4 303f e44d af3e d5b8 0fbf 62fe 4cbd
00000330: 75a7 913d 93a6 0cbd b9ef abbe 8a5e efbe
00000340: e5f6 cdbc 3ba6 903e 873c 563e 204a 4c3e
00000350: 763b 913f b428 283d 63f2 6abf 7a15 aabe
00000360: aca4 afbd 5903 aebd 5d8f 6fbd f03a 4cbd
00000370: 6b1c 003f 9927 f23c e707 683e aa77 0bbe
00000380: 8543 81be a159 29be 7e68 a1bc 1ed4 543f
00000390: 4493 153e c4f7 73bf 285b b43d 85fc 86bf
000003a0: 09e7 bc3e 1c33 433e bf4a cebd f93f 6a3e
000003b0: aa09 303e 74e2 8f3b 80f1 12be 4b7b 74be
000003c0: bf52 9a3e a986 5b3e 564a d1be 4a3c 193f
000003d0: 6f7a ae3e 2bb0 98be 27f2 7abd 72d9 933d
000003e0: 0a7e 20be 1da6 783e 2246 c6be 5164 aabd
000003f0: 8ba3 943c 8889 183e a69b 8e3e 8a6e 913e

actor.2.bias f4 [64]
-0.22422971 0.16014454 -0.4628156 0.16762277 0.7098873 -0.08260352 -0.24528511 -0.5607537
-0.23491421 -0.15001622 -0.10983523 0.050444327 -0.11551353 0.3648941 -0.06719226 -0.25338444
-0.23807496 0.24770238 -0.021899905 -0.12384187 0.0035663722 -0.040991314 -0.05200241 -0.14138077
0.13543046 -0.35756105 0.3288559 -0.31431004 -0.022865523 -0.19433933 -0.4862247 -0.33368465
0.023145923 0.42203027 0.13460226 0.460615 0.2861758 -0.26617175 0.0027768828 -0.414822
-0.037636526 -0.07500967 0.2180315 0.36722648 0.091374956 -0.08766948 0.05946733 0.17742316
-0.29666504 0.0208371 0.24579062 -0.3430574 -0.033822678 -0.040154453 -0.0007930392 -0.18049389
0.03308243 0.115649015 -0.23779595 0.27602208 -0.03852214 -0.113529 -0.03745494 0.11990305
00000000: 799c 65be eefc 233e 2bf6 ecbe 4ea5 2b3e
00000010: 2dbb 353f 092c a9bd 052c 7bbe 8e8d 0fbf
00000020: 5a8d 70be da9d 19be 4bf1 e0bd b69e 4e3d
00000030: 5c92 ecbd 66d3 ba3e 189c 89bd 9bbb 81be
00000040: ecc9 73be b1a5 7d3e 6e67 b3bc cea0 fdbd
00000050: ccb9 693b 82e6 27bd 7b00 55bd 1fc6 10be
00000060: 48ae 0a3e 3e12 b7be cd5f a83e 3fed a0be
00000070: 7a50 bbbc e400 47be 72f2 f8be b7d8 aabe
00000080: 859c bd3c 5a14 d83e 2dd5 093e bbd5 eb3e
00000090: a285 923e aa47 88be 5dfc 353b 8d63 d4be
000000a0: c228 1abd ab9e 99bd a643 5f3e 1c05 bc3e
000000b0: cb22 bb3d 0e8c b3bd 0494 733d 6bae 353e
000000c0: 7be4 97be 91b2 aa3c 89b0 7b3e 38a5 afbe
000000d0: a689 0abd ff78 24bd f6e3 4fba 64d3 38be
000000e0: 7181 073d 64d9 ec3d c880 73be c452 8d3e
000000f0: 64c9 1dbd e481 e8bd 5a6a 19bd bb8f f53d

actor.4.weight f4 [12, 64]
-0.2764033 -0.39088875 -0.9326363 0.119855836 -0.12325434 -0.16832174 -0.6321955 -0.2641419
0.050312243 -0.061242234 -0.027922062 -0.022225542 0.05568326 -0.017563574 -0.010530917 -0.08303147
0.2688591 -0.11053171 -0.010363894 -0.18138306 -0.0028756636 0.04178927 -0.07349744 0.021115612
0.035119012 -0.10907744 0.09072952 0.11238175 0.20135811 -0.04430719 0.0049970928 0.22011757
0.088591754 0.18996307 0.026320493 0.41838923 -0.27343208 0.068119414 -0.10541664 -0.31245133
0.10379639 -0.022723166 -0.1206784 -0.17992361 0.019890731 0.010943243 -0.055704854 0.2062389
-0.07202091 0.0737305 -0.042170197 0.07888634 0.12143808 -0.25892967 0.044555224 0.1704616
-0.103872694 0.022102816 -0.055764683 0.006494732 0.09361749 0.09939877 0.022287875 0.073406346
-0.16399379 0.21553025 1.7406012 0.14801754 -0.7365364 0.84585875 -0.8847019 1.2796353
-0.038165223 -0.1521503 -0.0062574977 0.0017565577 -0.05568941 -0.9695401 -0.09312674 -0.11974795
-0.04986122 -0.15296091 -0.1726175 0.3616315 -0.054899666 0.10408979 0.17002596 -0.009910291
0.47252607 -0.73589754 0.11236025 0.14550664 -0.7430334 0.04558491 -1.1689086 0.30271426
-0.04569242 1.0065397 0.03935143 -1.107856 -0.4059162 -0.5539553 0.28921106 -0.47185835
-0.017044097 0.362803 0.400379 0.2806454 -0.31082737 -0.21910015 -0.0091691995 0.41344476
-0.14139958 0.28634188 -0.3510949 0.16273351 -0.13610707 -0.32856447 0.1068737 -0.15666997
-0.031549472 -0.09074394 0.22501096 -0.5460803 -0.07533404 -0.5291905 -0.009410133 0.47213584
0.4296118 0.27054837 -0.73290443 -0.28023705 0.90617603 -0.64625204 1.5595698 -0.9856748
-0.08487243 0.19678752 0.0606007 0.017052898 -0.046190634 1.0039022 0.11035165 0.21202284
-0.27771887 0.28997853 0.16769063 -0.13977328 0.020970386 -0.1641475 -0.07889731 0.0013449143
-0.49987686 0.8363846 -0.15673846 -0.29099604 0.46846715 0.00045708293 1.1410471 -0.59266657
-0.07810516 -1.1656877 -0.047427922 0.6587852 0.7258999 0.4438838 -0.19949897 0.7792033
-0.11201236 -0.3423761 -0.21525718 -0.03774229 0.22854508 0.17235877 0.07236787 -0.60343075
0.18241306 -0.36062247 0.38147765 -0.2997163 0.036938306 0.61980605 -0.14447819 -0.091056935
0.104992285 0.07309774 -0.16987813 0.49821874 -0.006772818 0.36130837 -0.014572382 -0.51994324
0.26079434 -0.1526562 -0.07474781 -0.020716818 0.41448763 -0.00793592 0.03957193 -0.1314011
-0.07851331 0.15776886 0.016823146 -0.014895734 0.11483071 -0.02541719 -0.085934535 0.06376814
0.08661329 0.04848024 0.012521871 0.015039107 0.08093836 -0.031717394 -0.106503114 -0.028634723
0.15043956 -0.46142867 0.03936584 0.120840386 -0.016826782 -0.09417583 -0.06771489 0.21889476
0.044203587 0.10144859 -0.105806805 -0.11727315 -0.0136691565 0.20566249 -0.079212174 -0.037919387
-0.13987522 0.01223506 0.0021747905 0.26045433 0.023647293 0.037247397 -0.18105473 0.082849085
-0.18748206 -0.028567618 -0.04453108 0.30459595 0.052519403 0.07657944 0.045928366 -0.21239203
-0.011030436 0.050646298 -0.012413504 -0.020384952 0.012664467 -0.03612791 0.12815766 0.048153825
00000000: bc84 8dbe 9222 c8be 41c1 6ebf fa76 f53d
00000010: c56c fcbd 895c 2cbe 90d7 21bf 9b3d 87be
00000020: 3614 4e3d 23d9 7abd cfbc e4bc 5712 b6bc
00000030: 2114 643d 7ce1 8fbc de89 2cbc 670c aabd
00000040: e6a7 893e 735e e2bd 52cd 29bc 7bbc 39be
00000050: a175 3cbb 3a2b 2b3d d385 96bd a6fa ac3c
00000060: f4d8 0f3d fe63 dfbd 66d0 b93d 6728 e63d
00000070: d230 4e3e 757b 35bd a7be a33b 8066 613e
00000080: 986f b53d ae85 423e 139e d73c 1d37 d63e
00000090: 4aff 8bbe 3182 8b3d aee4 d7bd 9ff9 9fbe
000000a0: 3493 d43d ef25 babc 3d26 f7bd e53d 38be
000000b0: e3f1 a23c 4a4b 333c c62a 64bd 4a30 533e
000000c0: b37f 93bd 0400 973d a8ba 2cbd 298f a13d
000000d0: 87b4 f83d 6e92 84be 8a7f 363d 7c8d 2e3e
000000e0: 35bb d4bd f710 b53c 8269 64bd c3d1 d43b
000000f0: 87ba bf3d 9591 cb3d 1095 b63c 1156 963d
00000100: fded 27be f6b3 5c3e 05cc de3f e991 173e
00000110: a68d 3cbf 338a 583f d37b 62bf 17cb a33f
00000120: 2353 1cbd 4acd 1bbe b20b cdbb 4c3c e63a
00000130: 941a 64bd c833 78bf 3bb9 bebd 6a3e f5bd
00000140: 473b 4cbd c9a1 1cbe a4c2 30be c427 b93e
00000150: 79de 60bd 072d d53d 491b 2e3e c65e 22bc
00000160: f0ee f13e c863 3cbf 211d e63d b1ff 143e
00000170: 7037 3ebf 3eb7 3a3d cc9e 95bf 5dfd 9a3e
00000180: fa27 3bbd 4bd6 803f f72e 213d 3ace 8dbf
00000190: 40d4 cfbe 04d0 0dbf 7913 943e 6b97 f1be
000001a0: 10a0 8bbc 51c1 b93e 7afe cc3e c1b0 8f3e
000001b0: c424 9fbe ca5b 60be 693a 16bc 08af d33e
000001c0: 0dcb 10be 679b 923e b6c2 b3be 9da3 263e
000001d0: a75f 0bbe 9a39 a8be 99e0 da3d 186e 20be
000001e0: 053a 01bd f5d7 b9bd 4669 663e ebcb 0bbf
000001f0: bc48 9abd 0779 07bf f52c 1abc cabb f13e
00000200: 14f6 db3e 5185 8a3e a09f 3bbf 3b7b 8fbe
00000210: 27fb 673f c670 25bf fc9f c73f 2f55 7cbf
00000220: 99d1 adbd ab82 493e 7138 783d 85b2 8b3c
00000230: 6432 3dbd de7f 803f 0c00 e23d 841c 593e
00000240: 2b31 8ebe 1178 943e 18b7 2b3e ba20 0fbe
00000250: 16ca ab3c 4816 28be ea94 a1bd d647 b03a
00000260: dcef ffbe 4d1d 563f 0c80 20be 6ffd 94be
00000270: edda ef3e a2a4 ef39 d50d 923f ffb8 17bf
00000280: 99f5 9fbd 4135 95bf c843 42bd 26a6 283f
00000290: 93d4 393f bd44 e33e 7549 4cbe de79 473f
000002a0: bc66 e5bd ec4b afbe 616c 5cbe a997 1abd
000002b0: b907 6a3e d17e 303e 9b35 943d 707a 1abf
000002c0: 7dca 3a3e 82a3 b8be 0a51 c33e 6a74 99be
000002d0: 9f4c 173d 9cab 1e3f 17f2 13be 0f7c babd
000002e0: 3206 d73d 45b4 953d 88f4 2dbe 8716 ff3e
000002f0: 84ee ddbb 69fd b83e 00c1 6ebc 001b 05bf
00000300: d686 853e e851 1cbe 6115 99bd 51b6 a9bc
00000310: b937 d43e a905 02bc 2d16 223d 038e 06be
00000320: 96cb a0bd 298e 213e b2d0 893c 3d0d 74bc
00000330: 5d2c eb3d b637 d0bc 72fe afbd df98 823d
00000340: 4f62 b13d 3793 463d 8928 4d3c 9666 763c
00000350: 03c3 a53d 19ea 01bd 4e1e dabd 5e93 eabc
00000360: d40c 1a3e 6140 ecbe 133e 213d 2a7b f73d
00000370: 52d8 89bc 42df c0bd 1bae 8abd f325 603e
00000380: d20e 353d 47c4 cf3d 3db1 d8bd e82c f0bd
00000390: 99f4 5fbc 3099 523e fe39 a2bd 5c51 1bbd
000003a0: 733b 0fbe 9075 483c ee86 0e3b 455a 853e
000003b0: f8b7 c13c ba90 183d 6966 39be c8ac a93d
000003c0: 4cfb 3fbe a306 eabc 3966 36bd 00f4 9b3e
000003d0: 961e 573d aed5 9c3d 621f 3c3d 4c7d 59be
000003e0: 00b9 34bc 7e72 4f3d 0262 4bbc 58fe a6bc
000003f0: a07e 4f3c dcfa 13bd c33b 033e f23c 453d

actor.4.bias f4 [12]
-0.59621316 0.42129293 0.27778345 -0.0807532 0.087548144 0.03190697 -0.19245495 0.18907379
0.04806078 0.022101596 0.16561879 -0.14309733
00000000: 6da1 18bf b5b3 d73e a239 8e3e ef61 a5bd
00000010: 714c b33d e2b0 023d e912 45be 8f9c 413e
00000020: 61db 443d 680e b53c f997 293e 1b88 12be
