Plotting/saliencies_live/Multi_Pong/Sequence_Length_3/multi_pong_3__1__1721978543_checkpoint_1976.pt (torch, 91378 bytes, 11 tensors)

critic.0.weight f4 [128, 12]
0.48747447 0.0677109 0.54321545 0.0953054 -0.009238373 -0.04285727 0.7601465 0.0030893036
-0.85601115 -0.23112962 0.40775838 0.068232745 -0.07876769 0.010296541 0.05591661 -0.013355188
0.025986347 0.0013129548 1.1766173 -0.26915097 -0.015927497 -0.019506732 0.80170673 -2.2550378
-0.1646617 0.05317104 0.10866333 0.03173388 -0.06270842 0.0065502133 -1.3218697 1.5520802
0.093071915 -0.051708315 0.064219 -0.11887747 -0.4057452 0.024601854 -0.20809557 -0.11338613
-0.05230752 0.014108271 0.32838416 0.15464586 0.5177841 0.11819146 0.76206785 -1.014886
0.10324665 0.08960838 -0.011125021 0.007895013 0.1281744 0.06853137 0.5770571 0.28039706
-0.11567536 -0.0060950373 -1.1408391 0.93495035 0.10212401 0.009118576 0.010551022 0.007008688
-0.014877605 -0.0075614057 0.061852664 -0.04958024 0.09142155 0.11630435 5.927068 6.123703
0.078662425 0.22077946 0.23694924 -0.26259327 0.037586216 -0.10996644 0.40958044 -0.079682894
-0.2508054 -0.006160157 1.233137 0.71104944 0.10785806 0.0053525 -0.016613273 -0.002532286
0.029264512 0.0049199243 0.4958302 0.03394946 0.008533234 -0.0075389883 -2.8751514 -0.47562134
-0.12331833 -0.011840674 0.10238531 -0.0472604 -0.0015102831 -0.043261245 0.49517277 0.21934941
-0.1409181 0.004037992 -0.890554 -0.91677755 -0.25977385 0.3486567 -0.15668848 -0.3573201
0.15868342 -0.011316876 0.89149964 -0.07600476 0.11460209 0.018843492 0.39900044 -0.053919688
0.10966821 -0.013533486 -0.13297276 -0.0030237143 0.0010407044 0.061332483 1.0701865 3.1325696
0.0042728274 0.06579351 0.21061818 3.0972629 -0.053638518 0.007616149 -0.071011245 -0.015118719
0.24384706 0.23947316 3.1162076 1.029355 0.030447565 -0.019976398 0.07639509 -0.20152573
-0.23512334 0.014625859 0.16749263 0.01272881 -0.19338056 0.0022015553 -2.7160726 -0.0003297407
0.20596066 0.0008743984 2.9960902 0.036964845 0.004564182 0.027263809 0.013054851 0.002630427
0.150525 -0.12666328 2.4677134 -3.104042 -0.019478 0.00060795865 -0.41412258 0.0348279
-0.059927262 -0.012073431 0.07765191 0.0020594911 -0.009487829 0.0012833342 -0.6473281 -1.5772439
-0.0041414374 0.01647902 -0.07244977 2.243795 -0.09744367 -0.0046976204 -0.007928494 -0.011382534
-0.09484899 0.14342503 -1.8127753 0.7134005 -0.03473532 0.0027389068 0.759503 0.03847073
-0.2132775 0.019731766 0.17454831 -0.018487856 0.036662057 0.12031865 0.00053216435 -0.063964635
0.029796377 -0.13404039 -0.09622414 0.07434398 0.23825938 0.0019800973 0.00093752774 -0.008333984
0.054616045 -0.0953128 -0.27941015 -2.315169 0.061607134 -0.021799041 0.59061044 -0.8640717
0.19337364 0.018523173 -0.059411645 -0.010513811 -0.025555758 -0.030749297 -2.7000332 -1.1722996
0.016982716 -0.028628098 0.15554672 -0.9967118 -0.03123119 -0.010048097 0.10887288 -0.0072582806
-0.12898602 -0.013204507 -1.3276019 0.077962145 0.17273405 0.0016043719 1.7145047 0.15017574
-0.20227453 -0.048311986 0.061923794 -0.05738396 0.009902641 -0.15239708 0.38741523 -0.9300704
-0.009461499 -0.062233713 -0.2042285 -1.0683762 -0.023443954 0.010310305 -0.099353656 0.004196674
00000000: 4196 f93e 03ac 8a3d 2b10 0b3f 7a2f c33d
00000010: 8b5c 17bc 1b8b 2fbd f698 423f ea75 4a3b
00000020: 8c23 5bbf 3ead 6cbe b5c5 d03e 9cbd 8b3d
00000030: f450 a1bd d3b2 283c d108 653d b8cf 5abc
00000040: 52e1 d43c 7417 ac3a 659b 963f 28ce 89be
00000050: 627a 82bc 95cc 9fbc a73c 4d3f 8a52 10c0
00000060: 149d 28be e0c9 593d e18a de3d 63fb 013d
00000070: 466d 80bd 2ca3 d63b 0733 a9bf 90aa c63f
00000080: 7d9c be3d 19cc 53bd 4085 833d 0876 f3bd
00000090: d6bd cfbe d489 c93c 0117 55be fd36 e8bd
000000a0: 6940 56bd 6126 673c f821 a83e 7c5b 1e3e
000000b0: 808d 043f 5d0e f23d e116 433f c9e7 81bf
000000c0: fb72 d33d 9984 b73d b845 36bc 165a 013c
000000d0: 2640 033e 2d5a 8c3d 04ba 133f 3490 8f3e
000000e0: 34e7 ecbd e1b8 c7bb 0407 92bf e858 6f3f
000000f0: 6526 d13d 1466 153c 32de 2c3c 23a9 e53b
00000100: 33c1 73bc abc5 f7bb 3859 7d3d a614 4bbd
00000110: 393b bb3d fa30 ee3d 8baa bd40 60f5 c340
00000120: c419 a13d 0314 623e d2a2 723e a072 86be
00000130: 01f4 193d 1636 e1bd 87b4 d13e c930 a3bd
00000140: 9169 80be 24db c9bb 6fd7 9d3f 5607 363f
00000150: b0e4 dc3d 0664 af3b 8f18 88bc b6f4 25bb
00000160: 21bc ef3c 5137 a13b 75dd fd3e 970e 0b3d
00000170: face 0b3c 9e09 f7bb 7b02 38c0 a484 f3be
00000180: 528e fcbd 63ff 41bc 64af d13d 1f94 41bd
00000190: b1f4 c5ba b432 31bd 4987 fd3e 229d 603e
000001a0: d64c 10be 2251 843b 59fb 63bf efb1 6abf
000001b0: 1401 85be 2283 b23e f272 20be a9f2 b6be
000001c0: e87d 223e 6b6a 39bc 5239 643f 62a8 9bbd
000001d0: 80b4 ea3d ab5d 9a3c c949 cc3e e4da 5cbd
000001e0: ba99 e03d 8ebb 5dbc 032a 08be 8229 46bb
000001f0: 3f68 883a c537 7b3d dffb 883f 057c 4840
00000200: 1303 8c3b bfbe 863d 4bac 573e 8e39 4640
00000210: 10b4 5bbd e390 f93b 586e 91bd 81b4 77bc
00000220: 0bb3 793e 7438 753e f26f 4740 e8c1 833f
00000230: 2c6d f93c 8ba5 a3bc 0775 9c3d c35c 4ebe
00000240: 2cc4 70be 4da1 6f3c 3083 2b3e 808c 503c
00000250: 8e05 46be f847 103b 22d4 2dc0 0ce1 acb9
00000260: 5ae7 523e e237 653a f1bf 3f40 7368 173d
00000270: 228f 953b 5a58 df3c 04e4 553c 3e63 2c3b
00000280: 3a23 1a3e 05b4 01be 04ef 1d40 a0a8 46c0
00000290: 5490 9fbc 6a5f 1f3a e007 d4be b3a7 0e3d
000002a0: 4a76 75bd a4cf 45bc f707 9f3d 87f8 063b
000002b0: d772 1bbc 8d35 a83a 4bb7 25bf 21e3 c9bf
000002c0: e5b4 87bb 02ff 863c 8c60 94bd 569a 0f40
000002d0: 8c90 c7bd 7fee 99bb 84e6 01bc cf7d 3abc
000002e0: 3040 c2bd 03de 123e 0509 e8bf 6aa1 363f
000002f0: 9f46 0ebd 3b7f 333b ca6e 423f 7c93 1d3d
00000300: 6b65 5abe 83a4 a13c cbbc 323e d873 97bc
00000310: f42a 163d a069 f63d f280 0b3a e4ff 82bd
00000320: 8817 f43c e241 09be 2911 c5bd a841 983d
00000330: 44fa 733e 85c4 013b 6cc4 753a 438b 08bc
00000340: 13b5 5f3d 5b33 c3bd d90e 8fbe bb2b 14c0
00000350: c357 7c3d e793 b2bc 3f32 173f ce33 5dbf
00000360: bd03 463e e9bd 973c a059 73bd 1f42 2cbc
00000370: 4f5a d1bc f3e5 fbbc 58cd 2cc0 ea0d 96bf
00000380: 561f 8b3c 7985 eabc a447 1f3e 8128 7fbf
00000390: 8dd8 ffbc c6a0 24bc bff8 de3d dfd6 edbb
000003a0: e914 04be b757 58bc dcee a9bf 9eaa 9f3d
000003b0: 32e1 303e ca49 d23a e474 db3f abc7 193e
000003c0: 0e21 4fbe cae2 45bd cea3 7d3d 710b 6bbd
000003d0: b03e 223c fb0d 1cbe 4a5b c63e 1819 6ebf
000003e0: 6704 1bbc c7e8 7ebd 4721 51be 8dc0 88bf
000003f0: 890d c0bc 8eec 283c ee79 cbbd 4184 893b

critic.0.bias f4 [128]
0.38582516 -0.05079576 0.038310498 -0.13995148 -0.009284574 0.0112809865 0.035701208 0.20706725
-0.042886086 -0.018016504 -0.028564293 0.064137034 -0.0869039 -0.08595754 -0.057542767 -0.027117895
-0.050789725 0.123587884 -0.05273605 -0.06405863 0.002622361 0.009950282 -0.083744615 -0.21533456
-0.058736224 -0.0932884 0.03924456 -0.03973621 -0.18454668 -0.07242018 -0.048319202 -0.12863044
0.06649313 0.0049378136 -0.19172195 0.13349468 -0.026566219 0.078169964 -0.026143964 0.06777417
-0.03609018 0.09478719 -0.04149081 -0.16309066 0.7743469 -0.044903226 0.0010637793 -0.027697764
-0.11464886 0.41002044 0.04201459 -0.027657248 0.0008894201 -0.026909279 0.018301658 -0.02932495
0.013899826 -0.03072913 -0.05998546 0.14849684 -0.18556072 0.19386849 -0.13689601 -0.13270001
0.022242863 0.0063835327 -0.048108887 0.032241788 -0.04142396 0.03996691 -0.09054998 0.0012072376
0.09396204 0.33472416 -0.05935602 0.04502155 -0.020476623 0.06305968 -0.027952662 -0.015333179
-0.068749204 0.21942188 0.12784255 -0.07909537 -0.19993675 0.06903931 0.0557652 -0.12672931
0.0009283371 -0.0010076079 0.020278715 0.46508276 0.025551764 0.027957078 -0.009587457 0.20781976
0.05184433 0.037375946 -0.6790769 -0.018739218 0.0199579 0.062056374 -0.16470207 -0.0017717183
0.0846809 -0.32071996 -0.03660046 -0.023810895 0.1339063 0.030378962 -0.08243912 0.4667215
0.06640233 -0.029919785 -0.0007627612 -0.06977156 0.014898491 0.0769731 0.04403602 0.013737067
0.07726415 0.048927467 -0.21532159 0.008719569 -0.012877242 -0.045197297 -0.42621738 0.09546573
00000000: e08a c53e 370f 50bd 78eb 1c3d 714f 0fbe
00000010: 531e 18bc e3d3 383c 6e3b 123d 7009 543e
00000020: 52a9 2fbd 5997 93bc aaff e9bc 475a 833d
00000030: acfa b1bd 820a b0bd f7b1 6bbd 5926 debc
00000040: e308 50bd a51b fd3d c201 58bd 2c31 83bd
00000050: ebdb 2b3b 8206 233c 4c82 abbd aa80 5cbe
00000060: 6595 70bd fd0d bfbd e7be 203d 70c2 22bd
00000070: cef9 3cbe 0851 94bd 5bea 45bd b3b7 03be
00000080: 8d2d 883d 62cd a13b c252 44be d4b2 083e
00000090: 66a1 d9bc 9317 a03d de2b d6bc 2fcd 8a3d
000000a0: 4cd3 13bd c91f c23d 45f2 29bd 3d01 27be
000000b0: 993b 463f 72ec 37bd 836e 8b3a 6ce6 e2bc
000000c0: 06cd eabd 33ee d13e 7e17 2c3d 7491 e2bc
000000d0: f927 693a d970 dcbc 5ced 953c e13a f0bc
000000e0: 19bc 633c a8bb fbbc 50b3 75bd 8e0f 183e
000000f0: a103 3ebe 7685 463e 782e 0cbe 83e2 07be
00000100: aa36 b63c f42c d13b d30d 45bd f70f 043d
00000110: 2cac 29bd 58b4 233d 4572 b9bd 2c3c 9e3a
00000120: 2c6f c03d f760 ab3e 4c1f 73bd 8468 383d
00000130: 97be a7bc 6f25 813d fbfc e4bc 0438 7bbc
00000140: 62cc 8cbd 21b0 603e 28e9 023e c1fc a1bd
00000150: 38bc 4cbe 7b64 8d3d 0d6a 643d 54c5 01be
00000160: a65b 733a b611 84ba 8c1f a63c 541f ee3e
00000170: ef51 d13c 3e06 e53c b614 1dbc b4ce 543e
00000180: b85a 543d 8517 193d fcd7 2dbf fd82 99bc
00000190: c07e a33c d32e 7e3d a9a7 28be 0039 e8ba
000001a0: 2e6d ad3d 6835 a4be 5dea 15bd 110f c3bc
000001b0: bc1e 093e 4ddd f83c d7d5 a8bd 1ff6 ee3e
000001c0: f2fd 873d 561a f5bc 0af4 47ba 64e4 8ebd
000001d0: cd18 743c 13a4 9d3d 1d5f 343d 6f11 613c
000001e0: ab3c 9e3d 2b68 483d 437d 5cbe 86dc 0e3c
000001f0: 11fb 52bc cd20 39bd 2a39 dabe 8983 c33d

critic.2.weight f4 [64, 128]
-0.47052264 0.021799007 0.23970528 0.15165111 -0.1393481 0.04904882 0.06821652 -0.46244624
-0.08005387 -0.046371903 0.21886268 -0.9369061 -0.27927125 -0.30048183 -0.50539684 0.303173
-0.09196263 0.4597407 -0.28441578 -0.32084975 -0.011782175 0.18856496 -0.51524895 0.5439113
1.2714112 -0.06990024 0.28065708 -0.17743301 -0.93775254 -0.23734796 0.1049215 -0.03739334
0.31636506 0.15604806 0.020255731 0.06934057 0.27188033 -0.032348715 -0.1739079 -0.134677
0.107896455 -1.0739564 -0.041529067 -0.009555247 -0.9004708 -0.07109605 0.0713616 -0.28254688
0.18682419 -0.009961107 -0.06512441 0.05273914 -0.5824164 -0.24427667 -0.6535378 -0.8599037
-0.025374841 -0.09397129 -0.036870062 -0.06633442 0.047549527 -0.5098704 -0.106679104 0.01930121
0.26586682 -0.27453253 -0.47920364 0.35670698 0.08483963 0.4394722 0.168905 0.094211824
-0.08416485 -0.046384227 0.3060052 0.88920593 1.2998254 0.1848059 0.22176313 0.13106088
0.41142586 -0.17092076 0.03833334 0.09134359 -0.2129535 0.17421104 -0.27864316 -0.5689166
-0.7698481 -0.011854236 -0.13119918 0.99772257 0.24731904 -0.28357592 0.39817095 0.6415848
-0.97610664 0.29394245 0.092015095 0.20591383 -0.38879535 0.23961784 -0.4305582 -0.17138612
-0.37320283 0.37326562 0.21425119 -0.72605985 0.0011560562 0.094098814 0.037650097 -0.83593845
-0.16344154 -0.25285548 -0.027628317 -0.08386191 -0.83978117 0.95785403 0.7207251 -0.5520386
0.24346985 0.022337714 0.6133885 0.016634908 0.39399433 -0.49102223 0.6700365 0.7587212
0.045421414 -0.48412937 0.035719205 0.10729709 0.2380756 -0.31637827 -0.021888522 -0.16577794
0.06698275 0.078578345 0.53448117 0.029359926 -0.22388968 0.16868219 0.014649058 0.72011894
0.040735453 0.073660165 -0.65037936 -0.19915934 -0.15173422 0.9731825 0.031368636 -0.037644956
0.106309906 -0.08188136 -0.7332807 -0.08037831 0.08579204 0.028421145 -0.89782864 0.31550848
-0.37502882 -0.116961166 0.05894317 0.08559513 -0.5922486 0.09795594 0.025667364 0.18980817
-0.34140375 -0.1130288 0.036540803 0.074580945 0.23027793 0.35433105 0.08379521 0.06350161
-0.14305584 -0.24128395 0.11922617 0.07469749 -0.22233254 0.13602148 0.27623618 -0.03629263
0.33897492 -0.18175048 -0.00935827 -0.013736506 -0.02966817 0.014079146 0.06532499 -0.062089685
0.1430407 0.2783404 0.07285615 -0.21915254 0.1904241 -0.51819426 -0.16778407 -0.022205196
0.06827878 0.22165544 -1.2463975 -0.02938666 -0.41638714 0.43684363 -0.067626685 0.115120046
0.03413208 -0.09474253 -0.095096834 -0.1324907 0.0905578 -0.25176418 0.24332808 0.20268029
0.10193077 0.03567118 -0.22999974 0.14792344 -0.025689878 0.64613664 -0.19491574 0.09419083
0.4548442 0.045674324 0.17414436 0.6429267 -0.04004994 -0.0038445217 0.8841309 0.50080925
-0.12217859 0.012311074 0.085765764 0.45719323 -0.059714783 0.3206317 0.28358388 -0.42163673
0.17142943 -0.23504041 0.5883642 -1.2528707 0.21904954 -0.18411003 -1.4371849 0.30742806
0.863095 0.27560055 -0.058185764 -0.297811 -0.3718688 0.32160777 -0.052508466 -0.054440636
00000000: 58e8 f0be d593 b23c 4d75 753e 6e4a 1b3e
00000010: 45b1 0ebe 6ae7 483d 1ab5 8b3d c1c5 ecbe
00000020: 49f3 a3bd 77f0 3dbd 8a1d 603e 14d9 6fbf
00000030: a4fc 8ebe c1d8 99be b061 01bf 7e39 9b3e
00000040: e756 bcbd 2263 eb3e f29e 91be 6b46 a4be
00000050: 060a 41bc 2c17 413e 5be7 03bf c53d 0b3f
00000060: 9abd a23f db27 8fbd 49b2 8f3e 00b1 35be
00000070: 8d10 70bf 580b 73be 15e1 d63d c229 19bd
00000080: 9afa a13e 10cb 1f3e 59ef a53c 6e02 8e3d
00000090: e633 8b3e 1680 04bd ea14 32be c4e8 09be
000000a0: d1f8 dc3d 6777 89bf 621a 2abd 9c8d 1cbc
000000b0: 4185 66bf ce9a 91bd 0826 923d fca9 90be
000000c0: d74e 3f3e e933 23bc f25f 85bd ff04 583d
000000d0: 3e19 15bf aa23 7abe 414e 27bf a622 5cbf
000000e0: e6de cfbc 0574 c0bd 1005 17bd 57da 87bd
000000f0: 4bc3 423d de86 02bf 937a dabd 921d 9e3c
00000100: b21f 883e 878f 8cbe 2e5a f5be 4ca2 b63e
00000110: 66c0 ad3d 8002 e13e 6ff5 2c3e 21f2 c03d
00000120: 9f5e acbd 63fd 3dbd b7ac 9c3e 00a3 633f
00000130: ae60 a63f c23d 3d3e e015 633e d334 063e
00000140: 69a6 d23e da05 2fbe 6c03 1d3d 5912 bb3d
00000150: 7b10 5abe 6164 323e 51aa 8ebe 85a4 11bf
00000160: c414 45bf 4538 42bc 1459 06be bf6a 7f3f
00000170: 3441 7d3e dd30 91be 10dd cb3e e73e 243f
00000180: 20e2 79bf a07f 963e 6972 bc3d 13db 523e
00000190: 2f10 c7be 615e 753e 2072 dcbe d87f 2fbe
000001a0: 7114 bfbe ac1c bf3e aa64 5b3e 0fdf 39bf
000001b0: cf86 973a e1b6 c03d fd36 1a3d 1000 56bf
000001c0: 385d 27be 4676 81be c854 e2bc cbbf abbd
000001d0: e6fb 56bf ec35 753f 7181 383f 6752 0dbf
000001e0: 2950 793e 95fd b63c 0707 1d3f ee45 883c
000001f0: a0b9 c93e 4467 fbbe 8387 2b3f 8d3b 423f
00000200: ce0b 3a3d cedf f7be 4d4e 123d 94be db3d
00000210: 17ca 733e 55fc a1be 8f4f b3bc b1c1 29be
00000220: 412e 893d afed a03d c2d3 083f 3a84 f03c
00000230: 5643 65be 06bb 2c3e 9a02 703c b759 383f
00000240: 38da 263d 24db 963d 437f 26bf 6df0 4bbe
00000250: 3760 1bbe 7d22 793f 667c 003d 9931 1abd
00000260: 02b9 d93d 6ab1 a7bd 49b8 3bbf 629d a4bd
00000270: bdb3 af3d 76d3 e83c 19d8 65bf 548a a13e
00000280: c703 c0be 5689 efbd 656e 713d 804c af3d
00000290: 9b9d 17bf 209d c83d 5d44 d23c 135d 423e
000002a0: 79cc aebe a57b e7bd cfab 153d e5bd 983d
000002b0: facd 6b3e e16a b53e d39c ab3d 220d 823d
000002c0: 3b7d 12be 2413 77be da2c f43d fffa 983d
000002d0: 24ab 63be 3749 0b3e d46e 8d3e 95a7 14bd
000002e0: 1f8e ad3e cc1c 3abe 6e53 19bc 150f 61bc
000002f0: a90a f3bc 38ac 663c 1cc9 853d c151 7ebd
00000300: 4379 123e a282 8e3e 9b35 953d 8669 60be
00000310: 89fe 423e 61a8 04bf 96cf 2bbe ace7 b5bc
00000320: bfd5 8b3d a5f9 623e f489 9fbf 4bbc f0bc
00000330: b230 d5be f8a9 df3e dc7f 8abd 0fc4 eb3d
00000340: 14ce 0b3d 5f08 c2bd 21c2 c2bd a4ab 07be
00000350: 5e76 b93d 3ce7 80be ff2a 793e 6c8b 4f3e
00000360: 14c1 d03d f11b 123d 0d85 6bbe 3e79 173e
00000370: 9473 d2bc 3669 253f fe97 47be 1fe7 c03d
00000380: 57e1 e83e 0015 3b3d e652 323e d896 243f
00000390: 680b 24bd 5ff4 7bbb 6756 623f 0935 003f
000003a0: c538 fabd 63b4 493c f6a5 af3d 3b15 ea3e
000003b0: 7d97 74bd d729 a43e e831 913e c5e0 d7be
000003c0: 328b 2f3e 6fae 70be 099f 163f 115e a0bf
000003d0: 864e 603e 5787 3cbe adf5 b7bf 3667 9d3e
000003e0: cbf3 5c3f 841b 8d3e 3254 6ebd af7a 98be
000003f0: 9665 bebe c6a9 a43e 1e13 57bd 25fd 5ebd

critic.2.bias f4 [64]
0.042081885 -0.3466901 -0.0023448719 0.09455652 -0.0456657 -0.21111856 -0.26443985 0.12617633
0.2647287 -0.07679478 -0.48102856 0.2846777 0.3465522 -0.0008538181 0.08625632 -0.15564713
-0.32957274 0.67812586 -0.26320896 0.06436216 0.33480403 0.4615852 0.010254242 -0.0119133685
0.5327128 -0.39387646 0.17291991 -0.2657 0.28569075 0.003249858 0.05815416 0.14671606
-0.51397914 -0.31657827 -0.22839175 -0.3479338 -0.58226496 -0.43387035 0.30711713 0.41367623
-0.42775017 -0.17817964 -0.09760255 -0.39720112 -0.57121956 0.11212212 -0.0027164945 0.24036695
0.24791133 0.31129527 0.1458084 -0.3585179 0.9092428 0.025617357 -0.08510518 -0.036543127
0.10765789 -0.23172028 0.22242689 0.27437955 0.259085 0.051141653 -0.16207142 -0.43091553
00000000: 0e5e 2c3d 5d81 b1be 6cac 19bb d9a6 c13d
00000010: f50b 3bbd 772f 58be a964 87be 5e34 013e
00000020: 858a 873e 9546 9dbd 6049 f6be 47c1 913e
00000030: 4a6f b13e c3d2 5fba 27a7 b03d f661 1fbe
00000040: c2bd a8be a899 2d3f 53c3 86be 4fd0 833d
00000050: 6f6b ab3e e554 ec3e 6901 283c 4a30 43bc
00000060: de5f 083f 2daa c9be eb11 313e d509 88be
00000070: 0f46 923e 92fb 543b 0e33 6e3d bc3c 163e
00000080: 2394 03bf 8c16 a2be 87df 69be 6124 b2be
00000090: 510f 15bf 4124 debe 753e 9d3e 5fcd d33e
000000a0: 1202 dbbe b974 36be d9e3 c7bd f25d cbbe
000000b0: 723b 12bf 48a0 e53d 3707 32bb c122 763e
000000c0: 78dc 7d3e 1862 9f3e cc4e 153e a88f b7be
000000d0: 23c4 683f 7edb d13c a04b aebd 3fae 15bd
000000e0: bd7b dc3d 1548 6dbe e0c3 633e 7a7b 8c3e
000000f0: caa6 843e e979 513d 0df6 25be f6a0 dcbe

critic.4.weight f4 [1, 64]
0.29477787 -0.19069664 0.31772882 -0.31771293 -0.21854445 0.53975207 -0.99817514 0.18770085
0.17664827 -0.2773939 -0.158831 0.37304255 0.23879234 -0.26764667 0.3457415 0.2696634
-0.26614186 1.8824226 -0.28113836 0.28497383 0.26702318 0.21825057 0.3488162 -0.19692512
0.33864525 -0.2802134 -1.9243691 -0.47100464 -0.61135745 0.3616973 -0.33435622 0.3665805
-0.35801527 -0.23118027 -1.0751888 -0.3829247 -0.23459792 -0.3745906 0.23943023 0.23050071
-0.34163803 -0.15100423 -0.18329318 -0.43308204 -0.65903544 0.20659216 -0.61270213 0.2623238
0.2568886 0.42509407 0.29484203 -0.1960831 0.7166402 -0.39717093 -0.13961886 -0.22040392
0.15089346 -0.1483073 0.38269705 0.1862408 0.2725131 0.5519764 -0.29167244 -0.29340625
00000000: 20ed 963e fb45 43be 5aad a23e 45ab a2be
00000010: 1eca 5fbe 312d 0a3f 6888 7fbf a734 403e
00000020: 49e3 343e 9306 8ebe 98a4 22be 6fff be3e
00000030: fb85 743e fc08 89be 0805 b13e 5211 8a3e
00000040: bf43 88be 39f3 f03f 5ef1 8fbe 17e8 913e
00000050: 43b7 883e 147d 5f3e 0998 b23e bda6 49be
00000060: e962 ad3e 2178 8fbe ba51 f6bf 8527 f1be
00000070: ec81 1cbf 6330 b93e bd30 abbe 70b0 bb3e
00000080: c74d b7be 85ba 6cbe c99f 89bf b50e c4be
00000090: 703a 70be 57ca bfbe 332d 753e 6108 6c3e
000000a0: 2eeb aebe daa0 1abe 35b1 3bbe eebc ddbe
000000b0: 8cb6 28bf e58c 533e 0cda 1cbf 4e4f 863e
000000c0: e786 833e eea5 d93e 89f5 963e 02ca 48be
000000d0: bb75 373f fd59 cbbe 3ff8 0ebe 91b1 61be
000000e0: d183 1a3e dedd 17be def0 c33e e9b5 3e3e
000000f0: d686 8b3e 534e 0d3f 1756 95be 5839 96be

actor.0.weight f4 [128, 19]
-0.50240016 0.27081105 -0.023693077 -0.08681871 -0.17777798 0.4705377 0.51377374 -0.33571085
0.7407713 -0.039820906 -0.5343095 -0.046963144 -0.4383347 -0.0786179 -0.25482702 -0.16726694
0.21676996 0.025432948 -0.6243073 0.40337512 0.068188086 0.33199006 -0.35720387 0.7867117
-0.44093198 0.3435388 -0.2395973 0.1445208 1.1120576 0.23789987 -0.25024068 0.4644887
-0.49166808 0.32921833 0.22997639 0.03539585 0.7661779 0.062427167 -0.21511444 -0.16572815
-0.34064275 0.40891647 0.2264877 -0.93350774 0.13015021 0.072247475 0.7492672 -0.7733988
-0.1446559 -0.17125534 0.21360289 -0.37692428 0.088635474 0.21007663 -0.62442 0.06713731
0.12806924 0.03956013 -0.13272887 -0.29013875 0.23225378 1.0508554 1.6474192 0.104377024
0.23949692 -0.41230035 -0.33084086 0.51250136 -0.33744913 -0.03594354 0.11234761 0.6315044
-0.33914286 -0.06525297 -0.34923482 0.27857575 0.18897863 -0.0182006 -0.2700218 -0.082775004
-3.187931 0.4437111 -0.034964733 0.011677704 -0.03832818 -0.4488203 -0.00013792017 -0.019672105
0.08864922 -0.058946706 0.1243159 -0.10587075 0.22773567 0.10095345 0.07082569 -0.31563988
0.27922428 -0.0865563 -0.24813385 0.22256917 -1.8099798 -0.16316487 0.13813788 1.5334471
-0.01693704 -0.21479017 0.5132481 -0.82897943 -0.47978333 -0.33243963 0.035718575 -0.71240383
0.593249 -0.24125996 0.034178186 0.6246053 -0.19229935 0.1033916 -0.33714312 -0.030615157
0.2613055 -0.60807353 -0.117841326 -0.6462555 -0.4035254 0.6213809 -0.19058847 0.16884126
-0.17534825 -0.106367365 -0.5003124 0.8665872 0.07964568 0.020349136 0.07062347 0.29266593
0.27037814 0.21690308 1.9604563 0.036697093 -0.041475385 0.5226517 0.15755337 -0.0061817546
0.29388064 -0.1474328 0.11794703 -0.2765935 0.20263746 -0.3591478 0.6366183 -0.021152036
0.19346704 -0.23089944 0.6175782 -0.36794057 -0.12008947 1.5427701 -0.094067425 -0.17425464
0.45098606 -0.146785 -0.2847712 0.33125213 0.090822645 0.025450356 0.15751679 -0.13545491
-0.0824807 0.15103468 0.13009107 -0.1942009 -0.41526607 -0.108569674 -0.06459135 0.9754372
0.23587777 0.36276233 -0.15998422 0.50391585 0.5677248 0.33572033 -1.3642727 0.42744058
-0.44562876 0.2593504 -0.5028671 0.343856 -1.0313828 -0.0035388393 -0.29031613 0.3694257
-0.05132606 -0.033053935 1.1037261 -0.004882521 -0.18316981 -0.2377285 1.5736241 -0.89752316
0.46265182 -0.6506018 0.24894053 0.75308377 -0.83160794 0.00055322115 -0.17963475 -0.49149558
0.50686413 -0.5488168 -0.17809997 0.2858301 0.010242587 0.30412447 0.109730154 0.12861058
-0.11914623 -0.9936712 0.19400243 -0.46293405 0.19853292 -0.22761467 -0.010221142 -0.5150039
-0.34216097 0.3295031 -0.36871734 -0.5975065 -0.37417138 -0.6969969 0.11156974 -0.01747326
-0.017183334 0.6971009 0.32389572 0.6257479 0.17481305 0.58585966 -0.0917002 -0.12182782
-0.16954918 0.2571741 -0.16822691 -0.40832937 -0.027816877 -0.032492515 -0.20096643 -0.03462315
0.20817317 0.33938593 -0.50612235 -0.45625117 -0.32865447 0.5326763 0.42704538 0.15301651
00000000: 4c9d 00bf bfa7 8a3e fc17 c2bc 02ce b1bd
00000010: 6e0b 36be 51ea f03e ad86 033f 4be2 abbe
00000020: 30a3 3d3f 3f1b 23bd 82c8 08bf 6d5c 40bd
00000030: 686d e0be 6c02 a1bd b078 82be 0648 2bbe
00000040: f2f8 5d3e c258 d03c 9ad2 1fbf 2f87 ce3e
00000050: 32a6 8b3d 9afa a93e 6de3 b6be f065 493f
00000060: d6c1 e1be 51e4 af3e ff58 75be 43fd 133e
00000070: e757 8e3f 069c 733e 8c1f 80be 76d1 ed3e
00000080: ebbb fbbe 4e8f a83e ee7e 6b3e 3dfb 103d
00000090: 3c24 443f a1b3 7f3d f646 5cbe a4b4 29be
000000a0: ba68 aebe 805d d13e 64ec 673e 5dfa 6ebf
000000b0: 1946 053e 7cf6 933d facf 3f3f 77fd 45bf
000000c0: ad20 14be 8f5d 2fbe b7ba 5a3e 38fc c0be
000000d0: 8486 b53d 541e 573e fdd9 1fbf 497f 893d
000000e0: 9524 033e ce09 223d 14ea 07be 118d 94be
000000f0: efd3 6d3e 6e82 863f a2de d23f 9fc3 d53d
00000100: ae3e 753e 0819 d3be f963 a9be 4a33 033f
00000110: 22c6 acbe 8939 13bd 8116 e63d 46aa 213f
00000120: 22a4 adbe 59a3 85bd e8ce b2be 7ba1 8e3e
00000130: 9d83 413e 6d19 95bc 4c40 8abe f185 a9bd
00000140: 1007 4cc0 1a2e e33e 2e37 0fbd d753 3f3c
00000150: 02fe 1cbd c6cb e5be aa9e 10b9 6527 a1bc
00000160: b98d b53d 1a72 71bd 5699 fe3d c4d2 d8bd
00000170: 8a33 693e afc0 ce3d 0f0d 913d 8d9b a1be
00000180: 7cf6 8e3e 6e44 b1bd cd16 7ebe 2ce9 633e
00000190: 6bad e7bf b114 27be 0474 0d3e ff47 c43f
000001a0: 8cbf 8abc f4f1 5bbe 3a64 033f ff37 54bf
000001b0: 29a6 f5be 8735 aabe a44d 123d 1960 36bf
000001c0: 2bdf 173f da0c 77be 6dfe 0b3d 22e6 1f3f
000001d0: 1fea 44be fabe d33d 069e acbe a3cc fabc
000001e0: d6c9 853e b5aa 1bbf cb56 f1bd 0071 25bf
000001f0: e29a cebe d212 1f3f a029 43be b9e4 2c3e
00000200: 7e8e 33be 22d7 d9bd 7914 00bf a9d8 5d3f
00000210: 461d a33d 3bb3 a63c 0aa3 903d 4fd8 953e
00000220: 016f 8a3e d71b 5e3e 3bf0 fa3f b14f 163d
00000230: 18e2 29bd 80cc 053f ac55 213e 5190 cabb
00000240: 8677 963e a0f8 16be 368e f13d aa9d 8dbe
00000250: 3280 4f3e 38e2 b7be 6bf9 223f 0947 adbc
00000260: 391c 463e e770 6cbe 9b19 1e3f b562 bcbe
00000270: 78f1 f5bd 7e79 c53f 6ca6 c0bd cf6f 32be
00000280: a5e7 e63e cf4e 16be 88cd 91be e199 a93e
00000290: 3901 ba3d 447d d03c 154c 213e b1b4 0abe
000002a0: a4eb a8bd d6a8 1a3e 9836 053e 9adc 46be
000002b0: c19d d4be c759 debd 7848 84bd 41b6 793f
000002c0: f189 713e fcbb b93e e7d2 23be a100 013f
000002d0: 6a56 113f 89e3 ab3e 7da0 aebf 7ed9 da3e
000002e0: 7429 e4be 93c9 843e e6bb 00bf e50d b03e
000002f0: 5a04 84bf dfeb 67bb 51a4 94be 5e25 bd3e
00000300: 463b 52bd 9063 07bd e646 8d3f 8efd 9fbb
00000310: de90 3bbe 1a6f 73be 846c c93f 14c4 65bf
00000320: b3e0 ec3e d78d 26bf 44ea 7e3e 19ca 403f
00000330: 42e4 54bf 0b06 113a 2cf2 37be 4fa5 fbbe
00000340: d9c1 013f 427f 0cbf d75f 36be 5358 923e
00000350: 86d0 273c 34b6 9b3e 34ba e03d 7eb2 033e
00000360: f002 f4bd 3c61 7ebf 93a8 463e b105 edbe
00000370: 374c 4b3e d213 69be 9476 27bc 4cd7 03bf
00000380: b92f afbe a1b4 a83e 85c8 bcbe 30f6 18bf
00000390: 6493 bfbe 646e 32bf ad7e e43d 1524 8fbc
000003a0: 10c4 8cbc 3475 323f a9d5 a53e 0431 203f
000003b0: 3102 333e e6fa 153f 51cd bbbd dd80 f9bd
000003c0: 4d9e 2dbe 53ac 833e ad43 2cbe 8c10 d1be
000003d0: 38e0 e3bc df16 05bd 25ca 4dbe 01d1 0dbd
000003e0: 592b 553e fec3 ad3e 3c91 01bf c199 e9be
000003f0: 6645 a8be 795d 083f b1a5 da3e 5cb0 1c3e

actor.0.bias f4 [128]
-0.36399135 0.2191819 -0.13030171 0.013324136 0.12922463 -0.21857788 -0.023014294 0.041022502
0.031139748 -0.27386674 -0.07071463 -0.33744466 -0.101161055 -0.04117485 -0.013662085 0.45603964
-0.18973187 0.08319647 0.15304184 -0.02367262 -0.09461635 0.060081333 0.24135283 0.22470832
0.13695556 -0.23329611 -0.26201507 -0.01377397 0.054271143 -0.26608747 0.045537107 -0.051546328
-0.11561524 -0.359342 -0.16329575 -0.28706816 0.06406168 -0.16683333 0.24330273 0.10125986
0.09485524 -0.17050986 -0.053274088 -0.04772302 -0.08968001 -0.17552744 0.36416447 -0.18819632
0.4315381 -0.05610002 -0.23927544 -0.240603 -0.00137853 0.16510372 0.1113863 -0.3728704
-0.3608758 -0.33935726 -0.07993318 0.34193045 0.024283607 0.41663766 -0.052107837 0.10445231
0.077340305 0.17002931 -0.38381776 -0.0690678 -0.12099994 0.01849219 0.15101656 0.3320054
0.119203284 0.031205514 -0.1260931 0.013848688 0.093886904 0.012429609 -0.17554052 -0.05764095
0.0768146 -0.015979981 0.17370047 -0.2527385 -0.029492931 -0.15430544 -0.31080443 -0.13936743
0.33394557 0.13047686 0.077544756 0.13813081 -0.096828535 -0.015148612 0.15578686 0.31590304
0.18527867 0.10395379 0.32677922 0.30513853 0.16528688 -0.10228163 0.066730745 -0.09532517
-0.13501914 -0.3685992 -0.03598958 0.028480358 0.081567764 -0.30582586 0.018858524 -0.32819697
-0.21151738 0.09996905 -0.056464795 0.14370243 0.08894073 -0.18697913 0.16281375 -0.04028425
-0.089397095 0.09118187 0.24003716 -0.2818237 -0.032567557 -0.016578598 0.028518828 -0.4358707
00000000: 135d babe 3871 603e d06d 05be 7a4d 5a3c
00000010: 7653 043e e1d2 5fbe 7988 bcbc 3607 283d
00000020: c918 ff3c 4338 8cbe d5d2 90bd 8cc5 acbe
00000030: 872d cfbd f6a6 28bd f0d6 5fbc 077e e93e
00000040: 1249 42be e962 aa3d 00b7 1c3e 15ed c1bc
00000050: 38c6 c1bd d817 763d 3225 773e f019 663e
00000060: 143e 0c3e 2de5 6ebe d726 86be 38ac 61bc
00000070: 6b4b 5e3d 9e3c 88be 1e85 3a3d 3e22 53bd
00000080: afc7 ecbd adfb b7be 0037 27be 99fa 92be
00000090: c532 833d 5bd6 2abe 5a24 793e 5461 cf3d
000000a0: 7743 c23d 239a 2ebe ee35 5abd 3779 43bd
000000b0: 27aa b7bd 77bd 33be c473 ba3e 89b6 40be
000000c0: 90f2 dc3e 22c9 65bd 9f04 75be a260 76be
000000d0: cbaf b4ba f310 293e 801e e43d dee8 bebe
000000e0: b6c4 b8be 3cc0 adbe 02b4 a3bd 8211 af3e
000000f0: 6aee c63c 8851 d53e 076f 55bd 18eb d53d
00000100: 9864 9e3d 2a1c 2e3e c383 c4be 6b73 8dbd
00000110: d1ce f7bd ef7c 973c 16a4 1a3e 9dfc a93e
00000120: da20 f43d b5a2 ff3c 8d1e 01be 9ce5 623c
00000130: c747 c03d 8fa5 4b3c e5c0 33be eb18 6cbd
00000140: f950 9d3d 73e8 82bc 89de 313e f166 81be
00000150: 299b f1bc 3f02 1ebe c221 9fbe 56b6 0ebe
00000160: eafa aa3e ba9b 053e c9cf 9e3d 2a72 0d3e
00000170: 0a4e c6bd e231 78bc 9786 1f3e 0bbe a13e
00000180: b1b9 3d3e bae5 d43d 9b4f a73e 1e3b 9c3e
00000190: f740 293e 0879 d1bd 21aa 883d d839 c3bd
000001a0: 7542 0abe 09b9 bcbe cf69 13bd a44f e93c
000001b0: 000d a73d 3595 9cbe 317d 9a3c 6f09 a8be
000001c0: 0398 58be 93bc cc3d a147 67bd bb26 133e
000001d0: 8f26 b63d 7577 3fbe a6b8 263e 1901 25bd
000001e0: d315 b7bd 8fbd ba3d 4dcc 753e 324b 90be
000001f0: 8f65 05bd d7cf 87bc 51a0 e93c 722a dfbe

actor.2.weight f4 [64, 128]
0.16909505 0.1692714 -0.4078081 0.45846236 -0.13937405 0.52201676 -0.23012924 -0.081657335
0.22623177 0.18041426 -0.12381199 0.006453799 -0.011344191 0.056697696 0.109951146 -0.23406148
0.10516719 -0.07869897 -1.0939591 -0.05986164 -0.43642893 0.026191803 0.038845394 0.07878749
0.08613153 0.06116246 0.2521338 0.3773674 -0.5664349 0.47109267 0.053606063 0.55387783
0.5561413 -0.90480226 0.23085901 0.21036533 -0.33995444 -0.014940829 -0.04209901 0.40175357
0.08148874 0.15778248 0.584031 -0.114269696 0.2673054 0.5743888 -0.44144395 0.060333904
0.055101927 0.39002144 0.1894962 0.24959071 -0.35975835 0.36188456 -0.65299 -0.17464179
-0.13835004 0.38497844 -0.15308732 -0.17858428 -0.21198814 0.03980195 -0.4175553 -0.058032423
-0.76745695 0.015556473 0.3304053 -0.55432963 -0.5971334 0.16004863 -0.023532737 0.010758247
-0.1954821 -0.26845384 -0.032581486 0.034783587 -0.0862385 0.40089247 0.3381821 -0.3237435
-0.27402672 -0.30246025 -0.56231356 -0.08804431 -0.1498917 -0.16781943 -0.24333254 0.22812507
0.19665357 0.39633167 0.2187391 0.060469475 -0.45146072 0.30139756 0.08433652 -0.40307057
-0.30190292 0.059579264 0.17057902 -0.16176769 -0.50423604 -0.51284647 -0.044150624 0.36042988
0.19164836 0.019217705 0.0155470995 0.15587766 0.17715788 0.7151609 -0.2467114 0.29094028
-0.23165186 -0.13464043 0.18435156 -0.57499033 0.0015979814 -0.09133933 -0.11819758 -0.43332413
-0.05543391 0.11197071 -0.027847962 -0.032708805 0.045698542 -0.08334941 0.36257318 0.76947135
-0.68515164 0.36614814 -0.3024305 0.00041398185 0.4054353 -0.3485523 0.38848588 0.7473794
-0.39459133 0.021857414 -0.27600077 -0.776828 -0.19887349 -0.009559713 0.3297002 0.34419453
-0.64125687 0.2663439 -0.11139942 -0.12584378 0.30861378 -0.110482305 0.00064661284 0.023499727
0.3122528 -0.34709364 -0.16755868 0.3462315 -0.3916973 -0.17726453 -0.052723534 0.20740815
-0.5305744 -0.20058675 -0.7556676 -0.6557278 0.12796034 -0.5806882 -0.11579638 -0.23311922
0.04519722 0.019099593 0.020063944 -0.4606335 -0.6176419 0.08374842 0.0040517505 -0.054463044
0.032708634 -0.19065736 -0.21942544 0.43264017 0.13543014 0.61170286 0.3076997 -0.36194423
-0.5044036 -0.488931 -0.47566968 -0.091032475 -0.18280013 0.17026816 0.11924311 0.23996086
-0.29900765 0.6322665 -0.273214 0.2653008 -0.37062246 0.05339384 0.031988733 0.45714006
0.60838085 0.3723529 -0.5425999 0.007877837 0.012680972 0.04345723 -0.26632535 -0.46651947
0.009235734 0.21250442 0.22790383 0.2037258 0.9685466 -0.0064816223 -0.9474951 -0.30342996
0.05624182 -0.011155088 -0.008138477 -0.1264053 0.48015884 0.07010958 0.2040486 -0.1200134
-0.21050479 -0.10001362 0.100042105 0.8548211 0.10574268 -0.9744987 0.057633817 -0.71681124
0.3609788 0.054427598 -0.12630638 0.21448717 0.18030906 0.03836363 -0.060443226 -0.23311861
0.13679238 0.17168228 -0.40595546 0.7162857 0.26173517 -0.26339057 -0.05562398 -0.010726423
-0.255003 0.38240275 -0.3664074 -0.10995991 0.07610854 -0.03923897 0.34581268 0.32377332
00000000: 4127 2d3e 7b55 2d3e 39cc d0be 94bb ea3e
00000010: 12b8 0ebe e4a2 053f 00a7 6bbe f63b a7bd
00000020: 4da9 673e 84be 383e 2491 fdbd 647a d33b
00000030: fcdc 39bc d83b 683d 112e e13d d0ad 6fbe
00000040: e561 d73d ed2c a1bd da06 8cbf 7b31 75bd
00000050: 9d73 dfbe 3190 d63c 591c 1f3d 565b a13d
00000060: ba65 b03d 7d85 7a3d ae17 813e 4d36 c13e
00000070: e101 11bf 0f33 f13e 0892 5b3d f0ca 0d3f
00000080: 475f 0e3f 1fa1 67bf 4e66 6c3e 026a 573e
00000090: 820e aebe 61ca 74bc 0370 2cbd a5b2 cd3e
000000a0: 92e3 a63d bb91 213e 0e83 153f 3b06 eabd
000000b0: 41dc 883e 250b 133f f104 e2be af20 773d
000000c0: 8fb2 613d e4b0 c73e 4b0b 423e b594 7f3e
000000d0: 3f32 b8be ef48 b93e 5a2a 27bf 4cd5 32be
000000e0: a2ab 0dbe e51b c53e ecc2 1cbe ccde 36be
000000f0: 6b13 59be 5f07 233d cfc9 d5be 68b3 6dbd
00000100: 0f78 44bf 94e0 7e3c e22a a93e 8ce8 0dbf
00000110: bcdd 18bf cae3 233e bac7 c0bc 5c43 303c
00000120: 762c 48be c872 89be 2a74 05bd 3c79 0e3d
00000130: d09d b0bd c741 cd3e 3426 ad3e b5c1 a5be
00000140: 3b4d 8cbe 12dc 9abe c8f3 0fbf 9350 b4bd
00000150: 367d 19be dbd8 2bbe 2a2c 79be 9e99 693e
00000160: 8e5f 493e fceb ca3e 25fd 5f3e d7ae 773d
00000170: dc25 e7be c850 9a3e a0b8 ac3d 445f cebe
00000180: 0593 9abe 6309 743d 44ac 2e3e 6ea6 25be
00000190: 9d15 01bf e849 03bf 49d7 34bd 448a b83e
000001a0: 783f 443e 736e 9d3c 43b9 7e3c 659e 1f3e
000001b0: e068 353e c914 373f eaa1 7cbe 20f6 943e
000001c0: 2536 6dbe 2edf 09be a8c6 3c3e 9132 13bf
000001d0: 5c73 d13a 1d10 bbbd 9311 f2bd a9dc ddbe
000001e0: ab0e 63bd e650 e53d 6921 e4bc abf9 05bd
000001f0: 652e 3b3d 18b3 aabd 31a3 b93e 13fc 443f
00000200: 1966 2fbf c577 bb3e 2cd8 9abe b40b d939
00000210: 3795 cf3e 7275 b2be 9fe7 c63e 4254 3f3f
00000220: e007 cabe 520e b33c f94f 8dbe 33de 46bf
00000230: 7ea5 4bbe 58a0 1cbc 77ce a83e 443a b03e
00000240: 6929 24bf 3a5e 883e 6125 e4bd 31dd 00be
00000250: a002 9e3e 8c44 e2bd 7481 293a 8082 c03c
00000260: 99df 9f3e 42b6 b1be 8194 2bbe 4145 b13e
00000270: 8c8c c8be d584 35be a2f4 57bd cd62 543e
00000280: b9d3 07bf 9d66 4dbe 6f73 41bf c7dd 27bf
00000290: 0908 033e fba7 14bf a726 edbd ceb6 6ebe
000002a0: b820 393d c076 9c3c 245d a43c 27d8 ebbe
000002b0: c81d 1ebf 4b84 ab3d 8cc4 843b a414 5fbd
000002c0: 7df9 053d af3b 43be 10b1 60be 0383 dd3e
000002d0: 33ae 0a3e 8f98 1c3f d18a 9d3e c150 b9be
000002e0: 9820 01bf 2a55 fabe fa8a f3be 3c6f babd
000002f0: f52f 3bbe c75a 2e3e bb35 f43d 4db8 753e
00000300: 8817 99be 38dc 213f b5e2 8bbe 82d5 873e
00000310: 3ac2 bdbe 80b3 5a3d 9e06 033d 430e ea3e
00000320: d9be 1b3f 0aa5 be3e d4e7 0abf 0b12 013c
00000330: dac3 4f3c 3500 323d cc5b 88be a4db eebe
00000340: 7a51 173c c29a 593e 9f5f 693e 7f9d 503e
00000350: acf2 773f ca63 d4bb 0a8f 72bf 2c5b 9bbe
00000360: d35d 663d d5c3 36bc 3f57 05bc 6470 01be
00000370: 61d7 f53e 9d95 8f3d 1ef2 503e 96c9 f5bd
00000380: 918e 57be f1d3 ccbd e0e2 cc3d 8ed5 5a3f
00000390: 9e8f d83d bf78 79bf 7011 6c3d f180 37bf
000003a0: 37d2 b83e 79ef 5e3d 7656 01be 86a2 5b3e
000003b0: f0a2 383e 2f23 1d3d 5193 77bd a5b6 6ebe
000003c0: 4d13 0c3e 7bcd 2f3e 65d9 cfbe 805e 373f
000003d0: 2702 863e 21db 86be f8d5 63bd e1bd 2fbc
000003e0: c18f 82be 4bca c33e c099 bbbe a932 e1bd
000003f0: cbde 9b3d 0bb9 20bd 5c0e b13e 9ec5 a53e

actor.2.bias f4 [64]
-0.18279906 0.14646742 -0.4536293 0.20832853 0.69488746 -0.07867953 -0.23793927 -0.5414982
-0.20181149 -0.120913595 -0.04039278 0.033861704 -0.02627197 0.33531356 0.053339083 -0.27430952
-0.1769844 0.18719609 0.010826169 -0.14500162 -0.038967002 -0.06369899 -0.07286131 -0.10977585
0.18331851 -0.3784325 0.40101066 -0.2534118 -0.04420579 -0.23399544 -0.47523284 -0.26129586
-0.016226592 0.44939113 0.15536435 0.44099313 0.25417414 -0.27307698 -0.025682578 -0.41103774
-0.07266264 -0.08178866 0.0971342 0.3652687 0.096019894 -0.07548848 0.005911624 0.14668474
-0.31814855 -0.028413542 0.2243223 -0.25211215 -0.039999124 -0.07474154 1.8906996e-05 -0.1711179
0.05939158 0.012005168 -0.22559592 0.25524324 -0.14737014 -0.12155959 -0.09321966 0.11571033
00000000: ad2f 3bbe 8efb 153e 1a42 e8be 1354 553e
00000010: 25e4 313f bc22 a1bd 5aa6 73be a09f 0abf
00000020: aca7 4ebe 8ca1 f7bd e672 25bd 92b2 0a3d
00000030: 5038 d7bc 38ae ab3e 157a 5a3d 4c72 8cbe
00000040: 663b 35be 55b0 3f3e 3e60 313c 4e7b 14be
00000050: dd9b 1fbd 9e74 82bd 4f38 95bd 29d2 e0bd
00000060: d9b7 3b3e e8c1 c1be 4551 cd3e 31bf 81be
00000070: 2111 35bd 809c 6fbe b851 f3be 92c8 85be
00000080: a1ed 84bc 9816 e63e d517 1f3e dac9 e13e
00000090: 1d23 823e bfd0 8bbe 4564 d2bc 8a73 d2be
000000a0: 26d0 94bd d080 a7bd 4cee c63d 8004 bb3e
000000b0: 14a6 c43d b499 9abd 4cb6 c13b 8634 163e
000000c0: 5ee4 a2be 84c3 e8bc bfb4 653e d814 81be
000000d0: 1fd6 23bd 1812 99bd 779a 9e37 8839 2fbe
000000e0: 9644 733d 53b1 443c 9e02 67be 3eaf 823e
000000f0: 33e8 16be 3cf4 f8bd f3e9 bebd 8af9 ec3d

actor.4.weight f4 [12, 64]
-0.2803135 -0.3660479 -0.86859334 0.034731742 -0.12315409 -0.19698544 -0.56749916 -0.24951667
0.066907965 0.01939223 0.030577002 0.04127706 0.099401794 -0.013631721 -0.050220918 -0.026695417
0.23183464 -0.112440646 0.031139672 -0.13671902 -0.0688124 0.00904402 -0.06902853 0.024105147
0.051552683 -0.14209151 0.08559542 0.019290432 0.18373863 -0.062395554 -0.11069222 0.22819479
0.17413765 0.1454637 0.008968579 0.3751138 -0.24739954 0.06271919 -0.15893818 -0.26935193
0.10261921 0.02394087 -0.13931689 -0.24189809 0.059950676 0.04871936 -0.108314924 0.15444471
-0.08426643 -0.02372922 -0.06456869 -0.036887597 0.11362648 -0.21472314 0.031051222 0.20109631
-0.18755007 0.08736019 -0.053734582 -0.020028915 0.12513189 0.10012881 0.042070363 0.00931053
-0.2050137 0.2054316 1.6414467 0.107877225 -0.71233124 0.91609377 -0.8571937 1.2413765
-0.032080363 -0.22939773 0.003401997 -0.003933616 -0.043679275 -0.953037 -0.022287432 -0.09193216
-0.052007474 -0.12471527 -0.2300416 0.40752488 -0.047534365 0.1417786 0.1976232 0.004727009
0.45606366 -0.666203 0.14752313 0.20898259 -0.6779218 0.11406967 -1.0622092 0.29019833
-0.14806896 0.9849435 0.07796506 -1.0575439 -0.4349544 -0.48350152 0.3245578 -0.5452633
-0.040452596 0.27191064 0.34900525 0.299109 -0.29780307 -0.26581278 -0.08038942 0.45712942
-0.1526431 0.3043529 -0.42809168 0.23762582 -0.13021582 -0.331121 0.080464855 -0.1717505
0.04366059 -0.16058229 0.21062532 -0.48446894 -0.0049252994 -0.44908944 -0.052381855 0.47631758
0.48292622 0.24855094 -0.6961782 -0.1435672 0.87670946 -0.6872156 1.4679112 -0.958425
-0.10249205 0.18774407 -0.020628007 -0.045518674 -0.097949095 0.97808397 0.08492686 0.11926666
-0.23044859 0.25514936 0.17718694 -0.22895615 0.088953905 -0.16782843 -0.11135855 -0.014419533
-0.496995 0.8066457 -0.1927678 -0.24884592 0.42522538 -0.05056579 1.1633922 -0.5827937
-0.066109926 -1.1034188 -0.07069327 0.64945346 0.72120345 0.3851241 -0.1737843 0.81468284
-0.08744477 -0.30192992 -0.14664501 0.0051028887 0.17439884 0.17840794 0.20019342 -0.595367
0.21364914 -0.27242368 0.48507446 -0.24332532 0.033774838 0.5714632 -0.105715945 -0.10385949
0.123703405 0.07072812 -0.15238078 0.45715874 -0.11831912 0.28744772 0.002474575 -0.45815533
0.2450397 -0.15090422 -0.09058412 -0.027130736 0.37905556 -0.0038077745 -0.007443415 -0.100839294
-0.15332691 0.10429141 -0.07451275 -0.07463691 0.115290076 -0.06036455 -0.15739068 0.118646465
0.070054054 0.09500646 0.054678086 0.11697168 0.12024457 0.042632177 -0.0440429 -0.103365704
0.090309426 -0.4420625 0.04536672 0.102608085 0.038004074 -0.044104192 -0.13703936 0.2394263
-0.06649395 0.13568582 -0.12218196 -0.18373303 0.0754877 0.18634805 -0.116355985 -0.045280933
-0.090195954 0.037204538 -0.04768734 0.1994224 0.016565831 0.05365727 -0.14682092 0.1088792
-0.20122209 -0.053385068 0.0036108478 0.23115057 0.17865235 0.06130275 -0.03824709 -0.16730955
0.062015492 0.05258464 0.057308566 -0.009730699 -0.011548374 -0.0027368604 0.07951861 -0.02240953
00000000: 4085 8fbe a16a bbbe 225c 5ebf df42 0e3d
00000010: 3638 fcbd 8db6 49be a047 11bf 4c81 7fbe
00000020: 0b07 893d 74dc 9e3c 9f7c fa3c 2212 293d
00000030: 2b93 cb3d 9557 5fbc 73b4 4dbd 59b0 dabc
00000040: 0f66 6d3e 4847 e6bd a018 ff3c 1200 0cbe
00000050: 84ed 8cbd 5f2d 143c d45e 8dbd 2878 c53c
00000060: e828 533d 7080 11be a74c af3d f806 9e3c
00000070: fb25 3c3e 7b92 7fbd 9ab2 e2bd e5ab 693e
00000080: 2451 323e 70f4 143e f2f0 123c ea0e c03e
00000090: 4e56 7dbe eb72 803d b1c0 22be 7fe8 89be
000000a0: 052a d23d a51f c43c 16a9 0ebe 22b4 77be
000000b0: d78e 753d f48d 473d 37d4 ddbd c126 1e3e
000000c0: e193 acbd c863 c2bc 973c 84bd 7317 17bd
000000d0: 00b5 e83d 62e0 5bbe 225f fe3c 31ec 4d3e
000000e0: 200d 40be e6e9 b23d cb18 5cbd ae13 a4bc
000000f0: 9322 003e 5510 cd3d f951 2c3d 318b 183c
00000100: 1def 51be a95c 523e ed1a d23f bcee dc3d
00000110: 575b 36bf 1f85 6a3f 0c71 5bbf 6de5 9e3f
00000120: b366 03bd 3de7 6abe 0af4 5e3b 90e5 80bb
00000130: 0ae9 32bd 3cfa 73bf 2294 b6bc ee46 bcbd
00000140: ca05 55bd b86a ffbd 0690 6bbe 1aa7 d03e
00000150: 65b3 42bd 692e 113e bc5d 4a3e 07e5 9a3b
00000160: 2d81 e93e 488c 2abf 4e10 173e 88ff 553e
00000170: 488c 2dbf 5c9d e93d 79f6 87bf e094 943e
00000180: 649f 17be 4225 7c3f 25ac 9f3d 995d 87bf
00000190: 58b2 debe 838d f7be 712c a63e 6096 0bbf
000001a0: 9fb1 25bd df37 8b3e d1b0 b23e d124 993e
000001b0: a579 98be 9d18 88be 35a3 a4bd de0c ea3e
000001c0: 794e 1cbe 25d4 9b3e d52e dbbe 2f54 733e
000001d0: 4c57 05be b188 a9be c2ca a43d 5ddf 2fbe
000001e0: 72d5 323d af6f 24be 2aae 573e 500c f8be
000001f0: 6864 a1bb 0def e5be 5b8e 56bd e6df f33e
00000200: 1b42 f73e 2384 7e3e bc38 32bf 4803 13be
00000210: 0870 603f 5ded 2fbf 84e4 bb3f 575b 75bf
00000220: 5ae7 d1bd fb3f 403e 11fc a8bc ca71 3abd
00000230: 8999 c8bd b663 7a3f 22ee ad3d 1442 f43d
00000240: b7fa 6bbe f0a2 823e 7e70 353e 7b73 6abe
00000250: 772d b63d 37db 2bbe f40f e4bd e83f 6cbc
00000260: 2176 febe 5580 4e3f ec64 45be 77d1 7ebe
00000270: 24b7 d93e 131e 4fbd 09ea 943f f831 15bf
00000280: a464 87bd d43c 8dbf a2c7 90bd 9542 263f
00000290: caa0 383f fc2e c53e 83f4 31be 0e8f 503f
000002a0: 3e16 b3bd 8f96 9abe 1c2a 16be 2236 a73b
000002b0: 9c95 323e 92b0 363e 81ff 4c3e f969 18bf
000002c0: d7c6 5a3e 1e7b 8bbe ae5b f83e 462a 79be
000002d0: 7c57 0a3d 6a4b 123f 9a81 d8bd 49b4 d4bd
000002e0: 3658 fd3d e8d9 903d b509 1cbe b610 ea3e
000002f0: 4b51 f2bd 592c 933e 7b2c 223b 5693 eabe
00000300: b0eb 7a3e a386 1abe 2b84 b9bd 4741 debc
00000310: 9213 c23e db8b 79bb e4e7 f3bb d584 cebd
00000320: bb01 1dbe bc96 d53d 249a 98bd 3cdb 98bd
00000330: 341d ec3d d240 77bd 062b 21be ebfc f23d
00000340: 8078 8f3d bf92 c23d 21f6 5f3d d98e ef3d
00000350: c942 f63d 149f 2e3d 5466 34bd 66b1 d3bd
00000360: 26f4 b83d 0456 e2be 74d2 393d 3024 d23d
00000370: 29aa 1b3d 99a6 34bd 0c54 0cbe 2b2c 753e
00000380: fb2d 88bd 39f1 0a3e 893a fabd 8324 3cbe
00000390: 4c99 9a3d 06d2 3e3e 0c4c eebd 8078 39bd
000003a0: a8b8 b8bd c963 183d cd53 43bd 6335 4c3e
000003b0: 11b5 873c bac7 5b3d 3958 16be 0ffc de3d
000003c0: 2a0d 4ebe 4daa 5abd f9a3 6c3b bcb2 6c3e
000003d0: a4f0 363e 9818 7b3d fba8 1cbd 3253 2bbe
000003e0: f503 7e3d fe62 573d 63bc 6a3d 826d 1fbc
000003f0: 6435 3dbc e65c 33bb a7da a23d 3194 b7bc

actor.4.bias f4 [12]
-0.5616386 0.38379988 0.27273986 -0.08530517 0.03376228 0.08561378 -0.19325651 0.15395725
0.0785033 0.038683295 0.119924694 -0.11988375
00000000: 8cc7 0fbf 6b81 c43e 8fa4 8b3e 7ab4 aebd
00000010: 514a 0a3d 4756 af3d 09e5 45be f8a6 1d3e
00000020: 57c6 a03d 6072 1e3d 149b f53d 9d85 f5bd
