Plotting/saliencies_live/Multi_Pong/Sequence_Length_3/multi_pong_3__1__1721978543_checkpoint_4408.pt (torch, 91378 bytes, 11 tensors)

critic.0.weight f4 [128, 12]
0	0x3f0971b2	0.5368911
1	0x3dce045d	0.10059426
2	0x3f17b72a	0.5926386
3	0x3dfdbbec	0.12389359
4	0x3a908d2b	0.00110284
5	0xbd04bca3	-0.03240646
6	0x3f0e7761	0.5565091
7	0x3cf9fa3d	0.03051483
8	0xbf75e255	-0.9604848
9	0xbe5fde4f	-0.21862148
10	0x3e78c634	0.24294358
11	0x3e62516c	0.22101372
12	0xbd9aeeb7	-0.075650625
13	0xbb678abf	-0.0035330502
14	0x3d71cc83	0.05903293
15	0x3a397c5b	0.00070757204
16	0x3d08c955	0.03339513
17	0x3b3f820f	0.0029221808
18	0x3f939e01	1.1532594
19	0xbe8409ed	-0.25788823
20	0xbbdd91bd	-0.006761758
21	0xbcc3c2fd	-0.023896689
22	0x3f74914a	0.95534194
23	0xc012d1c0	-2.2940521
24	0xbe2334ba	-0.15938082
25	0x3d03c0aa	0.03216616
26	0x3de95a7e	0.11394213
27	0x3cb3a902	0.021931175
28	0xbd3392b5	-0.043841083
29	0x3c5809b8	0.013185911
30	0xbfbd6e0c	-1.4799209
31	0x3fd3878a	1.6525738
32	0x3d785b4b	0.06063394
33	0xbd3ff28d	-0.046862174
34	0x3d2898f3	0.04116149
35	0xbd1f652f	-0.038914856
36	0xbecc4ed3	-0.39903888
37	0x3c6f40c4	0.014602844
38	0xbe4e3c6f	-0.20140241
39	0xbde71e8b	-0.112851225
40	0xbd27809d	-0.04089414
41	0xbafe8867	-0.0019419313
42	0x3e37d011	0.17950465
43	0x3e07f4a5	0.13276918
44	0x3f01cf06	0.5070652
45	0x3e12829a	0.14307633
46	0x3f5fa954	0.8736775
47	0xbf4ffc9a	-0.81244814
48	0x3da82992	0.08211054
49	0x3d6642eb	0.05621616
50	0xbd041f71	-0.032256547
51	0x3bb41db2	0.005496704
52	0x3e11f373	0.14253025
53	0x3d839b6a	0.06426127
54	0x3f31c7f4	0.6944573
55	0x3e4ae2ca	0.19813076
56	0xbdd61239	-0.104526944
57	0xbcd3e203	-0.025864607
58	0xbf9839e0	-1.1892662
59	0x3f701ae3	0.93791026
60	0x3dd21906	0.10258679
61	0x3be10c64	0.006867932
62	0x3c345679	0.011006945
63	0xb8883fb4	-6.496851e-05
64	0xbc10f8da	-0.008848393
65	0xbb8e49b6	-0.004342283
66	0xbc5bc2df	-0.01341316
67	0xbd1323fc	-0.03592299
68	0x3db849b0	0.0899843
69	0x3dd28a6d	0.10280309
70	0x40d5644d	6.6684937
71	0x40dae5d2	6.840554
72	0x3de184b9	0.11011643
73	0x3ecbb919	0.39789656
74	0x3e89687c	0.26837528
75	0xbead9d16	-0.3390891
76	0xbd8595b4	-0.06522694
77	0xbdd7f5b7	-0.10544913
78	0x3f9efd53	1.2421058
79	0x3d49c5d6	0.049260937
80	0xbe2085ff	-0.15676115
81	0x3d30eea0	0.04319632
82	0x3f9d5438	1.2291327
83	0x3d0d6cd4	0.034527615
84	0x3db3a879	0.08772368
85	0x3b1d91ee	0.002404328
86	0xbd16834e	-0.036746316
87	0xbc2a1fca	-0.010383556
88	0x3cb54c87	0.022131218
89	0x3c286057	0.010276875
90	0x3f106678	0.56406355
91	0xbba62050	-0.00506977
92	0x3c477c8a	0.0121756885
93	0xbb4ec35c	-0.0031549549
94	0xc0363f9a	-2.847632
95	0xbf1b0ce1	-0.60566527
96	0xbdfbb0fe	-0.12289618
97	0xbc053b17	-0.008131764
98	0x3dd28c7e	0.10280703
99	0xbca26dd7	-0.019827766
100	0x3c0dc935	0.0086539285
101	0xbd1fd484	-0.03902103
102	0x3f157b5d	0.5839136
103	0x3e878619	0.26469496
104	0xbdeb257e	-0.114817604
105	0xbc48da14	-0.012259025
106	0xbf8e6942	-1.1125872
107	0xbf90323d	-1.1265332
108	0xbe73cf84	-0.2380963
109	0x3ea86698	0.32890773
110	0xbe0a43ec	-0.13502473
111	0xbeac8557	-0.3369548
112	0x3e1877ad	0.14889403
113	0xbc682f0a	-0.014171371
114	0x3f007b47	0.50188106
115	0xbe1faec6	-0.15594015
116	0x3dde57fd	0.10856626
117	0xbc0bf705	-0.008542781
118	0x3e902ee5	0.28160778
119	0xbc9de863	-0.01927585
120	0x3dd9e28b	0.10638913
121	0x39954751	0.0002847263
122	0xbe0b80bb	-0.13623326
123	0xbb5fbfbd	-0.0034141385
124	0x3c382e52	0.011241512
125	0x3d91bf87	0.07116609
126	0x3f9e609e	1.2373235
127	0x407684ae	3.8518481
128	0x3bce5ae0	0.0062974542
129	0x3d83df5f	0.06439089
130	0x3e136214	0.14392883
131	0x406e515d	3.723716
132	0xbd050fca	-0.03248576
133	0x3bbcf184	0.0057660956
134	0xbd4c387f	-0.049858566
135	0x3badeb99	0.0053076264
136	0x3e7a430a	0.24439636
137	0x3e784f03	0.2424889
138	0x404b2347	3.1740282
139	0x3fd7f0ad	1.6870323
140	0x3c013b43	0.007887664
141	0xbbb555a1	-0.0055338894
142	0x3c921e53	0.017836725
143	0xbdf378e8	-0.118882954
144	0xbe792d03	-0.24333577
145	0x3c3b7f91	0.011443988
146	0x3e231a15	0.15927918
147	0x3b0bc2ae	0.0021325755
148	0xbe5d20c5	-0.21594532
149	0xbaa28cdc	-0.0012401599
150	0xc036f1d8	-2.858511
151	0xbd7291cf	-0.059221085
152	0x3e5e953c	0.21736616
153	0x3b0f243e	0.002184167
154	0x4049b3e6	3.1516051
155	0x3a73bccd	0.0009297848
156	0x3b7e6bce	0.003882158
157	0x3c08b2db	0.008343424
158	0x3c4ab48e	0.012372149
159	0x3c3d426c	0.011551481
160	0x3e334143	0.17505364
161	0xbe106d23	-0.14104132
162	0x40228cc0	2.5398407
163	0xc04daa5a	-3.2135224
164	0xbcae86cf	-0.021304516
165	0xbc1c3d76	-0.009536138
166	0xbea4ef21	-0.3221369
167	0x3c910944	0.017704614
168	0xbd7c090d	-0.06153207
169	0xbbdb8d71	-0.0067002107
170	0x3d9bbd94	0.076045185
171	0xba999f64	-0.0011720476
172	0xbbe766cc	-0.007061815
173	0xbc6e6d78	-0.014552467
174	0xbefcdcd7	-0.49387237
175	0xbfe047ba	-1.7521889
176	0xbb7153bb	-0.003682359
177	0x3cb72949	0.022358553
178	0xbddb6cb2	-0.10714091
179	0x40143c0c	2.316165
180	0xbdb9d963	-0.09074666
181	0x3b826302	0.003979088
182	0xbaa1747a	-0.0012318038
183	0xbc56fd10	-0.013121858
184	0xbe03403c	-0.12817472
185	0x3e254306	0.16138849
186	0xbfe8c21e	-1.818424
187	0x3f42b433	0.7605621
188	0xbd05dcf3	-0.032681417
189	0xbb9154c3	-0.004435153
190	0x3f39ee03	0.726288
191	0xbd874316	-0.066045925
192	0xbe5645d4	-0.20925075
193	0x3c277d73	0.0102227805
194	0x3e36dc62	0.17857507
195	0xba9b9dac	-0.0011872551
196	0x3cdae023	0.026718205
197	0x3df165e5	0.11787013
198	0x3d443cdf	0.047909614
199	0xbe00bba6	-0.12571582
200	0x3c9b5031	0.018959137
201	0xbdfe7bfa	-0.124259904
202	0x3c918366	0.017762851
203	0x3dc18978	0.09450048
204	0x3e7203ed	0.2363431
205	0xbaf2a104	-0.0018511121
206	0xba8101dc	-0.0009842473
207	0xbc084133	-0.008316326
208	0x3d52be0e	0.05145078
209	0xbdbf5953	-0.09343209
210	0xbe8c46d9	-0.27397802
211	0xc016bfaa	-2.3554482
212	0x3d2461fb	0.040132504
213	0xbc658fc1	-0.014011324
214	0x3f166d2e	0.58760345
215	0xbf266252	-0.64993775
216	0x3e439688	0.19100392
217	0x3b804d19	0.0039154408
218	0xbd7d0fd9	-0.06178269
219	0xbc357902	-0.011076214
220	0xbcc73ee0	-0.024321973
221	0xbcfe4fd1	-0.031043919
222	0xc0264846	-2.5981612
223	0xbfab1c15	-1.3367945
224	0x3b6c818a	0.0036087953
225	0xbcdb00f0	-0.026733845
226	0x3e7eacce	0.24870607
227	0xbf8f32e5	-1.1187407
228	0xbd0f961e	-0.035055272
229	0xba8ddc55	-0.001082311
230	0x3dd72635	0.10505334
231	0x3c1359b7	0.008993558
232	0xbe1c743f	-0.1527872
233	0xbc9b1658	-0.018931553
234	0xbfa9d8e7	-1.3269318
235	0x3cb12ad6	0.021626871
236	0x3e0eb77b	0.1393718
237	0x3b0fc769	0.0021938926
238	0x3fe9077c	1.8205409
239	0x3ded0c00	0.115745544
240	0xbe479468	-0.19490206
241	0x3b5e6554	0.0033934908
242	0x3d8de42b	0.06928285
243	0xbcb4e92d	-0.022083843
244	0x3d30f864	0.043205634
245	0xbde718f0	-0.11284053
246	0x3f09b5d9	0.537931
247	0xbfa91ba3	-1.3211559
248	0xbd18d982	-0.037316807
249	0xbd2d1512	-0.042256422
250	0xbe125618	-0.14290655
251	0xbfa20b2e	-1.2659662
252	0xbc4c4565	-0.012467717
253	0x3ba397e2	0.004992471
254	0xbdb4fda8	-0.088374436
255	0xbb690369	-0.003555501

critic.0.bias f4 [128]
0	0x3edfb933	0.43695983
1	0xbd45bf2c	-0.04827802
2	0x3d312b3d	0.043254126
3	0xbe0949a5	-0.13407
4	0xbcf4bd13	-0.029875314
5	0x3c40767e	0.011747001
6	0x3d9692bf	0.07352208
7	0x3e3de94f	0.18546031
8	0xbd2fd5ad	-0.042928386
9	0x3b489938	0.0030608904
10	0xbcfeed2d	-0.031118954
11	0x3dae2465	0.085030355
12	0xbdc2cdfc	-0.09511945
13	0xbdb15cd8	-0.08660287
14	0xbd72a14b	-0.059235852
15	0xbcb56103	-0.022140985
16	0xbd3e9c36	-0.046535693
17	0x3dfb525a	0.12271567
18	0xbd625359	-0.055255268
19	0xbd88a932	-0.066728964
20	0x3c1cfd58	0.009581886
21	0x3c9de8dd	0.019276077
22	0xbd99d37d	-0.07511041
23	0xbe410a85	-0.18851669
24	0xbd6c440f	-0.057682093
25	0xbde64470	-0.11243522
26	0x3d227b13	0.039668154
27	0xbd1939c6	-0.037408613
28	0xbe4aa511	-0.1978953
29	0xbda5484b	-0.080704294
30	0xbd59b280	-0.053148746
31	0xbe0ea0d2	-0.13928536
32	0x3dc13d6d	0.09435544
33	0x3c591952	0.013250666
34	0xbe20dfd1	-0.15710379
35	0x3dff5cbd	0.1246886
36	0xbd041b14	-0.032252386
37	0x3da8736c	0.0822514
38	0xbcfd27a5	-0.030902693
39	0x3d8723c7	0.06598621
40	0xbd3bf3e3	-0.045886885
41	0x3dbebe7d	0.093136765
42	0xbd395c6f	-0.045254167
43	0xbe18fbb8	-0.14939773
44	0x3f618946	0.8810009
45	0xbd3fc07e	-0.046814434
46	0x3bc7680d	0.006085402
47	0xbcb8f8a8	-0.022579506
48	0xbe150538	-0.14552772
49	0x3f09cfa7	0.5383248
50	0x3d43b4f3	0.04777999
51	0xbc54903b	-0.01297384
52	0x3c2fdc33	0.010733652
53	0xbcb59bef	-0.022169081
54	0x3cef9238	0.029244527
55	0xbd6d27bb	-0.057899218
56	0x3c61d486	0.01378358
57	0xbd0bcd9b	-0.034131628
58	0xbd3b6cc0	-0.04575801
59	0x3e21b15b	0.15790312
60	0xbe580794	-0.21096641
61	0x3e5acf4b	0.21368138
62	0xbdd2d1af	-0.102939
63	0xbe2a6271	-0.16639115
64	0x3cb8d1ee	0.02256104
65	0x3ba0fbb9	0.00491282
66	0xbd47882a	-0.04871384
67	0x3d070abf	0.032969233
68	0xbd454133	-0.048157882
69	0x3d30c7e7	0.04315939
70	0xbdcaef15	-0.099088825
71	0x3d0a2319	0.033724878
72	0x3db6784e	0.08909665
73	0x3eabf76a	0.335872
74	0xbd784c0e	-0.060619406
75	0x3d0d863a	0.034551837
76	0xbc3d297f	-0.011545538
77	0x3d8214ab	0.06351598
78	0xbd345e83	-0.044035446
79	0xbcb5bd91	-0.022185119
80	0xbd86c166	-0.065798566
81	0x3e61a5a5	0.22035845
82	0x3e18a690	0.14907289
83	0xbda0097a	-0.078143075
84	0xbe4acb14	-0.1980403
85	0x3d94d347	0.072668605
86	0x3d5f6bb3	0.05454607
87	0xbe2489cf	-0.16068195
88	0xbba024fc	-0.0048872214
89	0xbb0bc6ca	-0.0021328204
90	0x3ccede88	0.025252596
91	0x3ef37bf6	0.47555512
92	0x3b3614cb	0.002778339
93	0x3cb8f643	0.022578364
94	0xbb9e24f4	-0.0048261825
95	0x3e782918	0.24234426
96	0x3d5db31c	0.05412589
97	0x3d5bcd3f	0.053662535
98	0xbf38ed0b	-0.722367
99	0xbc61f9d1	-0.013792471
100	0x3cda2772	0.026630137
101	0x3d65ef8b	0.05613665
102	0xbe26acbf	-0.16276835
103	0x3ba44ac9	0.005013798
104	0x3dafd2b8	0.08585113
105	0xbec8e723	-0.39238843
106	0xbd25b7ee	-0.040458612
107	0xbcf3d47b	-0.029764405
108	0x3e02ec74	0.12785512
109	0x3ca8fb00	0.020627499
110	0xbd9ae5ef	-0.075633876
111	0x3ef0f07c	0.47058475
112	0x3d92e225	0.0717204
113	0xbcee9c82	-0.029127363
114	0x3c242527	0.010018623
115	0xbd861633	-0.06547203
116	0x3c597640	0.013272822
117	0x3d9f6c39	0.07784314
118	0x3d2fcf81	0.0429225
119	0x3cf76af5	0.030202368
120	0x3da8758d	0.08225546
121	0x3d8c5e98	0.0685398
122	0xbe68c23c	-0.22730345
123	0x3bb6566b	0.005564501
124	0xbcb95e78	-0.022628054
125	0xbd17ca11	-0.03705794
126	0xbef344d7	-0.47513458
127	0x3de32847	0.11091667

critic.2.weight f4 [64, 128]
0	0xbf17389c	-0.59070754
1	0xbd3ddaf0	-0.046351373
2	0x3eeaa2ae	0.4582724
3	0x3d9cbfee	0.07653795
4	0xbe03ddfd	-0.1287765
5	0x3cb3d4d9	0.02195208
6	0xbd5f07c8	-0.05445078
7	0xbeefaf0e	-0.46813244
8	0xbe5ecd94	-0.2175811
9	0xbd6563d9	-0.056003425
10	0x3e0918da	0.13388386
11	0xbf8baa60	-1.0911369
12	0xbe8ca2e6	-0.27468032
13	0xbea547b4	-0.32281268
14	0xbf0ed83d	-0.55798703
15	0x3e55a229	0.2086264
16	0xbd1d8431	-0.038456146
17	0x3f1094ce	0.5647706
18	0xbe9039a0	-0.28168964
19	0xbefbbfb9	-0.4916971
20	0x3d6bc858	0.05756411
21	0x3ebf899c	0.37409675
22	0xbf157445	-0.5838054
23	0x3f4e58dd	0.80604345
24	0x3f76322a	0.96170294
25	0x3d518569	0.05115262
26	0x3eb01880	0.34393692
27	0xbeaf9559	-0.3429363
28	0xbf998243	-1.1992878
29	0xbeb7746f	-0.3583102
30	0xbc04db54	-0.0081089325
31	0x3dd57837	0.1042332
32	0x3f1ae2a4	0.60502076
33	0x3e68e590	0.22743821
34	0x3c05fbf2	0.008177744
35	0xbe1988a6	-0.14993533
36	0x3d90953c	0.07059714
37	0xbe5faa9b	-0.21842425
38	0xbea94cd4	-0.33066428
39	0xbea16e10	-0.31529284
40	0xbe2cf084	-0.16888624
41	0xbf8cd78e	-1.1003282
42	0xbda4c387	-0.080451064
43	0xbd706baa	-0.058696426
44	0xbf4c3872	-0.7977363
45	0xbe34df82	-0.17663386
46	0xbe001e8d	-0.12511654
47	0xbe90408a	-0.2817424
48	0x3e0643d8	0.13111818
49	0xbd5bae7a	-0.05363319
50	0x3e5029b6	0.20328411
51	0xbc0d2d0a	-0.008616695
52	0xbf095316	-0.53642404
53	0x3dfa0958	0.122088134
54	0xbf1f3ff3	-0.62206954
55	0xbf86bcea	-1.0526402
56	0x3b2e5253	0.0026599362
57	0xbdc534b2	-0.096291915
58	0xbd81d911	-0.0634023
59	0xbd80002b	-0.06250032
60	0xbd3531c6	-0.04423692
61	0xbf266eb7	-0.6501269
62	0xbda79d17	-0.081842594
63	0x3d6d62c7	0.05795553
64	0xbcf1cabe	-0.02951562
65	0xbec9eb03	-0.39437112
66	0xbf32c952	-0.6983844
67	0x3e44706b	0.19183509
68	0x3e217d60	0.15770483
69	0x3df3d8b3	0.119065665
70	0x3e1d6c60	0.15373373
71	0x3d39b719	0.04534063
72	0xbe714c9a	-0.23564377
73	0xbe29f035	-0.16595538
74	0x3f09221e	0.53567684
75	0x3f758159	0.95900494
76	0x3faf58b5	1.3698946
77	0x3e8d44b4	0.2759148
78	0x3d182e7f	0.037153717
79	0x3d83892d	0.064226486
80	0x3ed382d2	0.41310745
81	0xbea05bb2	-0.31319958
82	0x3d1e00a1	0.03857482
83	0x3dec2195	0.11529843
84	0xbe7507b8	-0.23928726
85	0x3df4d570	0.119547725
86	0xbeb4d49a	-0.35318452
87	0xbf0891e0	-0.5334759
88	0xbf679a10	-0.90469456
89	0xbca9ec60	-0.020742595
90	0xbea8633f	-0.3288822
91	0x3fa91b98	1.3211546
92	0x3e8434a7	0.2582142
93	0xbeae9f45	-0.34105888
94	0x3f1dbd1d	0.6161669
95	0x3f172c48	0.5905194
96	0xbf76bd6a	-0.9638277
97	0x3e556999	0.20841064
98	0x3e536533	0.20644073
99	0x3dec3278	0.11533064
100	0xbefaa895	-0.48956743
101	0x3e866136	0.2624604
102	0xbe80fdd3	-0.25193653
103	0xbdcb68b3	-0.09932079
104	0xbe7fc577	-0.2497767
105	0x3e8b408b	0.2719768
106	0x3eb5259e	0.35380262
107	0xbf3a3941	-0.7274361
108	0xbe00c2ac	-0.12574261
109	0x3d0b2adf	0.033976432
110	0x3de7c7f9	0.11317439
111	0xbf283a10	-0.65713596
112	0xbd97b759	-0.07408018
113	0xbe14ad2c	-0.14519185
114	0x3d2f9c4d	0.04287367
115	0xbd508691	-0.050909583
116	0xbf1a4ca7	-0.6027321
117	0x3f539699	0.8265167
118	0x3f233781	0.6375657
119	0xbf7c225e	-0.9848994
120	0x3e56cb7b	0.20976059
121	0x3e45e9d2	0.19327477
122	0x3f31f25a	0.69510424
123	0x3db11a25	0.08647565
124	0x3ed91a6b	0.42402968
125	0xbebcb975	-0.36860242
126	0x3f59966f	0.8499517
127	0x3f7b5bfe	0.98187244
128	0x3dfed8a4	0.12443665
129	0xbe40c950	-0.18826795
130	0x3bdef019	0.006803524
131	0x3e0b8a7c	0.13627046
132	0x3e94142a	0.28921634
133	0xbf1583ca	-0.5840422
134	0x3caed727	0.021342827
135	0xbe915119	-0.28382185
136	0xbcf6cc1b	-0.030126622
137	0x3d338469	0.043827448
138	0x3f0d7b20	0.55266
139	0xbdf6ae75	-0.12044994
140	0xbe970438	-0.29495406
141	0x3e63d98c	0.22250956
142	0xbd6c2cb4	-0.05765982
143	0x3f078cba	0.52949107
144	0xbe2510be	-0.16119668
145	0x3e416af4	0.18888456
146	0xbf577e0e	-0.8417672
147	0xbdaecc98	-0.08535117
148	0xbe1963dc	-0.149795
149	0x3f3d9a9b	0.74064034
150	0x3b95e5b2	0.004574501
151	0x3d3f755a	0.046742775
152	0x3dc81abd	0.09770725
153	0xbd8a8954	-0.067644745
154	0xbf6c5237	-0.9231295
155	0xbdf67e68	-0.12035829
156	0xbd895236	-0.067051336
157	0x3d18e400	0.037326813
158	0xbf172f01	-0.590561
159	0x3e9ad4be	0.30240434
160	0xbf1765ed	-0.591399
161	0xbdcf5f7b	-0.10125633
162	0x3bd0c76c	0.006371429
163	0x3d4ca164	0.0499586
164	0xbf0f4538	-0.55964994
165	0xbe0bb760	-0.13644171
166	0x3e44d81f	0.19223069
167	0x3dbb36d9	0.09141321
168	0xbec14e11	-0.37754872
169	0xbe23df2e	-0.16003105
170	0x3d01403f	0.03155541
171	0x3d261896	0.04055079
172	0x3c863d99	0.016386794
173	0x3e9041c0	0.28175163
174	0xbd26eded	-0.040754247
175	0x3e21fb25	0.1581846
176	0xbdfbc8fa	-0.122941926
177	0xbe86e487	-0.26346228
178	0xbd27b22a	-0.040941395
179	0x3e0c0155	0.13672383
180	0x3d5ff17c	0.054673657
181	0xbcba3ab6	-0.022733074
182	0x3ed39999	0.41328123
183	0x3de8e655	0.11372057
184	0x3eda2345	0.42605034
185	0xbe572800	-0.21011353
186	0x3b51f645	0.0032037657
187	0xbd2fc1db	-0.042909484
188	0x3d56c09b	0.052429777
189	0x3c5308d1	0.01288052
190	0x3de95846	0.1139379
191	0xbdddb0c1	-0.10824729
192	0x3e8207c8	0.25396562
193	0x3e861fe9	0.2619622
194	0x3e548cef	0.20756887
195	0xbecc9cbe	-0.39963335
196	0x3e8efbd7	0.27926514
197	0xbeb2ffb9	-0.34960726
198	0xbe0453eb	-0.12922637
199	0xbdb416e1	-0.08793426
200	0x3d56b5d7	0.05241951
201	0x3e1bdc6c	0.15220803
202	0xbfebe8cd	-1.843042
203	0x3e2db06e	0.16961834
204	0xbf1a1c00	-0.60198975
205	0x3f01f3c5	0.5076259
206	0xbd0f6c0f	-0.035015162
207	0x3da3ccfa	0.079980806
208	0x3c30765c	0.010770407
209	0xbe384127	-0.17993604
210	0xbe03fba6	-0.12888965
211	0xbe170bcd	-0.14750595
212	0x3dd2d605	0.10294727
213	0xbe19f9ef	-0.15036748
214	0x3ea37e26	0.3193218
215	0x3e866018	0.2624519
216	0xbe067d9a	-0.1313385
217	0x3da4e7d0	0.08052027
218	0xbdd45e14	-0.103695065
219	0x3df1ce83	0.11806967
220	0xbec544e9	-0.38529137
221	0x3f4c6f4b	0.7985732
222	0x3e02b8b3	0.1276577
223	0x3d774b54	0.060374573
224	0x3f0b4711	0.54405314
225	0x3bc9b2a0	0.006155327
226	0x3dfbafb2	0.122893706
227	0x3f2a9732	0.66636956
228	0xbd547a54	-0.051874474
229	0x3e0c1f52	0.13683823
230	0x3f5d9772	0.8655921
231	0x3f0da315	0.5532697
232	0xbe0e0519	-0.13869132
233	0x3c0fbaed	0.008772594
234	0x3d7d69d4	0.061868504
235	0x3f4cf9e9	0.8006883
236	0x3d233040	0.039840937
237	0x3e902406	0.28152484
238	0x3eb2b9d6	0.34907407
239	0xbe961921	-0.29316047
240	0x3dc13b2e	0.09435116
241	0xbe889112	-0.2667318
242	0x3ec89d66	0.39182585
243	0xbfa73811	-1.3063985
244	0x3f02d427	0.5110497
245	0xbe2a6b48	-0.16642487
246	0xbfe20163	-1.7656673
247	0x3f039a29	0.51407105
248	0x3f602b1e	0.8756579
249	0x3eba510e	0.36389965
250	0xbdffd4e7	-0.1249178
251	0xbe68fcbf	-0.22752665
252	0xbead2771	-0.33819154
253	0x3e7ef8c2	0.24899581
254	0xbde2fa81	-0.11082936
255	0xbd695369	-0.05696431

critic.2.bias f4 [64]
0	0xbb32dd24	-0.0027292455
1	0xbec14804	-0.37750256
2	0xbd951436	-0.072792456
3	0x3d89303a	0.066986516
4	0x3c95fbf8	0.018308625
5	0xbe3165b5	-0.17323954
6	0xbee813c3	-0.45327577
7	0x3dd85c31	0.10564459
8	0x3e348229	0.17627777
9	0xbdde6eb8	-0.10860962
10	0xbf0cea39	-0.55044895
11	0x3e626056	0.22107062
12	0x3eedec21	0.46469215
13	0xbbb874fa	-0.005629179
14	0x3ddeed50	0.108851075
15	0xbe122e85	-0.14275558
16	0xbed2f54e	-0.41202778
17	0x3f47aa56	0.77994287
18	0xbe57577e	-0.2102947
19	0x3d685ff0	0.056732118
20	0x3e8f600d	0.28002968
21	0x3f0103dc	0.50396514
22	0x3d22ae55	0.039717037
23	0xbce1f46d	-0.027582372
24	0x3efd2035	0.49438635
25	0xbedb4e99	-0.42833403
26	0x3ec23b29	0.3793576
27	0xbd987031	-0.07443274
28	0x3eaa0ff1	0.33215287
29	0x3d4c0b4b	0.049815457
30	0x3db59ea2	0.088681474
31	0x3d597627	0.053091194
32	0xbf2f9376	-0.6858438
33	0xbe9b4b4c	-0.30330884
34	0xbe772c2a	-0.24137941
35	0xbeb37b6f	-0.3505511
36	0xbf1e6a3a	-0.6188084
37	0xbef589a6	-0.4795658
38	0x3e7720fb	0.24133675
39	0x3ef457d3	0.47723255
40	0xbee2c5a6	-0.4429142
41	0xbe5e74a0	-0.21724176
42	0xbdb3c9de	-0.087787375
43	0xbeb59fc2	-0.35473448
44	0xbf276bd9	-0.6539894
45	0x3e0eca5a	0.13944378
46	0xbc4fe16b	-0.012688021
47	0x3e92b36c	0.28652513
48	0x3e43f2c5	0.19135578
49	0x3ecfafc0	0.40563774
50	0x3df15495	0.11783711
51	0xbea4b42b	-0.32168707
52	0x3f8adefd	1.0849301
53	0x3d9e8ea3	0.077420495
54	0x3b3c5325	0.0028736081
55	0xbde548ce	-0.11195527
56	0x3d574aa4	0.052561417
57	0xbe92f3e7	-0.28701708
58	0x3deaf84e	0.114731416
59	0x3e80c310	0.2514882
60	0x3e8acfc6	0.27111644
61	0x3cd1e521	0.025621952
62	0xbe17f67b	-0.14840119
63	0xbf0aaf3d	-0.5417364

critic.4.weight f4 [1, 64]
0	0x3e997440	0.29971504
1	0xbe3b3fcd	-0.18286057
2	0x3e9c8344	0.30568898
3	0xbe8970d5	-0.26843897
4	0xbe6f1e9b	-0.23351519
5	0x3f177311	0.5915995
6	0xbf9d937a	-1.2310631
7	0x3e19cce4	0.15019566
8	0x3e2b194c	0.16708869
9	0xbe95bce5	-0.29245678
10	0xbe1641bb	-0.14673512
11	0x3ed97511	0.42472127
12	0x3e815a12	0.2526403
13	0xbe86560c	-0.26237524
14	0x3ea728bf	0.32648274
15	0x3ea95e09	0.33079556
16	0xbe75b604	-0.23995215
17	0x40005ef3	2.0057952
18	0xbeaee252	-0.34157044
19	0x3ea07f92	0.31347328
20	0x3e853e48	0.2602408
21	0x3e59cd88	0.2126981
22	0x3ee4a661	0.44658187
23	0xbe3634d1	-0.17793585
24	0x3eb2247a	0.34793454
25	0xbebfea9e	-0.37483686
26	0xc005e8c4	-2.092332
27	0xbf181509	-0.594071
28	0xbf1c5207	-0.61062664
29	0x3eb17f44	0.34667408
30	0xbea0ca15	-0.31404176
31	0x3ec60fad	0.38683835
32	0xbed01736	-0.4064271
33	0xbe570281	-0.20997049
34	0xbf9a87cd	-1.2072693
35	0xbe991ac6	-0.2990324
36	0xbe750782	-0.23928645
37	0xbee34435	-0.44387975
38	0x3e5c71de	0.21527812
39	0x3e6f4413	0.23365812
40	0xbea6feca	-0.32616264
41	0xbe211d69	-0.15733875
42	0xbe3a05ed	-0.18166323
43	0xbf0fe03f	-0.5620155
44	0xbf2816de	-0.6565989
45	0x3e6260da	0.22107258
46	0xbf05acea	-0.5221697
47	0x3e7b161f	0.24520157
48	0x3e852ea1	0.26012138
49	0x3ef6e19c	0.48219
50	0x3ea259d5	0.3170916
51	0xbe42b1f5	-0.19013198
52	0x3f2aa1fb	0.6665341
53	0xbed50491	-0.41605046
54	0xbdfa73d0	-0.12229121
55	0xbe465392	-0.19367817
56	0x3dfafe44	0.122555286
57	0xbe18907f	-0.14898871
58	0x3ebf7e00	0.37400818
59	0x3e31e2f1	0.17371728
60	0x3e841429	0.2579663
61	0x3f1298b2	0.57264245
62	0xbe88653d	-0.2663974
63	0xbea742af	-0.32668063

actor.0.weight f4 [128, 19]
0	0xbf135248	-0.57547426
1	0x3ead0ee8	0.33800435
2	0xbd480e16	-0.04884156
3	0x3c3d98fa	0.011572117
4	0xbe5f4639	-0.21804132
5	0x3ecf9ef2	0.40550953
6	0x3f2e82ad	0.68168145
7	0xbe7cd8be	-0.24692056
8	0x3ec5ab6b	0.38607344
9	0x3e28a49c	0.16469043
10	0xbed3bc5b	-0.4135464
11	0xbe9e7465	-0.30948177
12	0xbee6c472	-0.4507175
13	0xbe17b4ea	-0.14815107
14	0xbf07fc41	-0.53119284
15	0x3b0d796f	0.0021587273
16	0x3dda7fac	0.10668883
17	0xbe8aa384	-0.27077878
18	0xbead763d	-0.3387927
19	0x3f16d8eb	0.5892474
20	0xbe2c5596	-0.16829523
21	0x3e679ce5	0.22618444
22	0xbdeb5f4b	-0.11492785
23	0x3f7dcde2	0.9914228
24	0x3d1f052d	0.038823295
25	0x3e98cd9e	0.29844373
26	0xbe953f21	-0.29149726
27	0x3e8fdc26	0.28097647
28	0x3f858488	1.043107
29	0x3eccd570	0.4000659
30	0xbe9bc813	-0.30426082
31	0x3f3b846c	0.73248935
32	0xbe0a67bc	-0.13516134
33	0x3e2b8fa9	0.16754021
34	0x3e9b037c	0.30276096
35	0xbe53155c	-0.20613617
36	0x3f68a1e2	0.90872014
37	0x3ef6a9b0	0.48176336
38	0xbe09dbdb	-0.13462774
39	0xbe8df7bb	-0.27728066
40	0xbead105b	-0.3380154
41	0x3eb22e46	0.3480093
42	0x3ec2edde	0.38072103
43	0xbf8179b3	-1.0115265
44	0xbc7a4c81	-0.015277029
45	0x3c329882	0.0109006185
46	0x3f6a9d8c	0.9164665
47	0xbfb07e6d	-1.3788582
48	0xbd3d1f09	-0.046172176
49	0xbb84d49c	-0.0040536653
50	0x3dfa6ad4	0.12227407
51	0xbe7430c9	-0.23846735
52	0x3ec33310	0.38124895
53	0xbda56dc4	-0.08077577
54	0xbf11b03e	-0.5690955
55	0x3ebec253	0.37257633
56	0xbd691e75	-0.05691381
57	0x3e79ecd0	0.24406743
58	0x3df0f27b	0.117649995
59	0xbed25ab3	-0.41084823
60	0x3ec4013a	0.38282186
61	0x3f9b1802	1.2116702
62	0x3fc3143c	1.524055
63	0xba716f18	-0.00092099747
64	0x3dd46c86	0.10372262
65	0xbdb63bb2	-0.08898105
66	0x3ce6f6d8	0.028193876
67	0x3f332a0c	0.69986033
68	0xbda7e8e6	-0.08198719
69	0xbe242f3f	-0.16033648
70	0x3ed61786	0.41814822
71	0x3ef0e83a	0.47052175
72	0xbe182823	-0.14859061
73	0x3d2096cf	0.039206322
74	0xbe36e92c	-0.17862386
75	0x3ebb8344	0.36623585
76	0x3e36781b	0.17819254
77	0xbe025729	-0.12728561
78	0xbebb5338	-0.36586928
79	0xbddd019c	-0.107913226
80	0xc05ca252	-3.4474072
81	0x3eba53e3	0.36392125
82	0x3d386858	0.045021385
83	0xbd634593	-0.055486273
84	0x3b7eb5a9	0.0038865602
85	0xbec47432	-0.383699
86	0x3d0b6162	0.03402842
87	0x3c4456c1	0.011983574
88	0x3dccf64b	0.10007914
89	0xbd8a1443	-0.06742146
90	0x3dda618b	0.10663136
91	0x3ca598cd	0.020214463
92	0x3d972a02	0.07381059
93	0x3d056d3f	0.03257489
94	0x3ea27274	0.31727946
95	0xbeae6ed8	-0.34068942
96	0x3ebe0ed6	0.37120694
97	0x3c58eda7	0.0132402545
98	0xbe969950	-0.29413843
99	0x3d437352	0.0477174
100	0xbfeeefc0	-1.8666916
101	0xbd036990	-0.032083094
102	0x3d83f52b	0.064432465
103	0x3fd377a3	1.6520885
104	0xb9ab3d9c	-0.00032661564
105	0xbe9713b3	-0.29507217
106	0x3eeffef3	0.46874198
107	0xbf3d367a	-0.7391125
108	0xbe2ecc02	-0.1707001
109	0xbf067256	-0.5251821
110	0xbdb32484	-0.08747199
111	0xbf0ec7d3	-0.5577366
112	0x3efbba47	0.49165556
113	0xbe883ad6	-0.26607388
114	0x3d25cb31	0.04047698
115	0x3f5a0102	0.8515779
116	0xbe930119	-0.28711775
117	0x3de256e5	0.1105173
118	0xbef392b2	-0.47572857
119	0x3dddaddd	0.108241774
120	0x3e058cec	0.13042039
121	0xbea84d61	-0.32871535
122	0x3dd105f6	0.10206215
123	0xbf53a205	-0.826691
124	0xbf111055	-0.56665546
125	0x3f35d684	0.7103045
126	0xbd9294f2	-0.07157315
127	0xbd840e80	-0.06448078
128	0xbd22eed1	-0.039778534
129	0x3d40aa54	0.047037438
130	0xbf008444	-0.5020182
131	0x3f75faa9	0.960856
132	0x3d34ae68	0.04411164
133	0x3ca8260d	0.020525957
134	0x3e42cdfe	0.19023892
135	0x3ea91751	0.33025602
136	0x3e8b2f61	0.27184585
137	0x3f1ae20f	0.6050119
138	0x3ff7d472	1.9361708
139	0x3d31b993	0.043389868
140	0xbd016167	-0.03158703
141	0x3ed7741a	0.42080766
142	0x3e90eb44	0.28304493
143	0xbb00ca1a	-0.0019651712
144	0x3ef7a8d4	0.48370993
145	0xbeb682c2	-0.35646635
146	0x3e20efde	0.15716502
147	0xbefe479c	-0.4966401
148	0x3eb5b878	0.354923
149	0xbe4dd872	-0.20102099
150	0x3f3d6f07	0.7399754
151	0xbe972814	-0.29522765
152	0x3e3c1d68	0.18370593
153	0xbe671fce	-0.22570726
154	0x3f3f9bfd	0.74847394
155	0xbef196df	-0.47185418
156	0x3cf598bf	0.029980062
157	0x3fca1770	1.5788403
158	0xbe08d79b	-0.13363497
159	0x3d35ecf6	0.044415437
160	0x3ed22a92	0.41048104
161	0xbdba3db0	-0.09093797
162	0xbe853004	-0.26013196
163	0x3ea77fed	0.32714787
164	0x3da475ec	0.08030304
165	0xbea3dcc6	-0.32004374
166	0x3dc945b8	0.09827751
167	0x3e8b6ce6	0.2723152
168	0xbdeb4885	-0.114884414
169	0x3e8d8e02	0.27647406
170	0x3cb817b1	0.022472234
171	0xbe4e93cf	-0.20173572
172	0xbedadb03	-0.42745218
173	0xbddb488e	-0.10707198
174	0xbd71800b	-0.058960002
175	0x3f402589	0.75057274
176	0x3e2dd14d	0.16974373
177	0x3ec46a24	0.3836223
178	0xbe45ce3b	-0.19316952
179	0x3f3abda5	0.72945625
180	0x3f35a062	0.7094785
181	0x3e2e035d	0.1699347
182	0xbfa27f71	-1.2695142
183	0x3f068059	0.52539593
184	0xbf070e2a	-0.5275599
185	0x3f1791b7	0.5920672
186	0xbf538a6f	-0.8263311
187	0x3f000c7f	0.5001907
188	0xbf8219a9	-1.0164081
189	0xbe4ab8e0	-0.19797087
190	0xbe988f9a	-0.2979706
191	0x3ea69155	0.32532755
192	0xbd8bf194	-0.06833187
193	0xbd2b5f30	-0.041838825
194	0x3f575075	0.8410714
195	0xbe6eaa68	-0.23307192
196	0x3d024256	0.031801544
197	0xbe398cbe	-0.18120095
198	0x3ffccd09	1.9750072
199	0xbf9b80bb	-1.214866
200	0x3e0cfcfc	0.13768381
201	0xbee5f02d	-0.44909802
202	0x3eb9dffc	0.363037
203	0x3f0d6baa	0.5524241
204	0xbf173ae1	-0.5907422
205	0xbd8b519d	-0.06802676
206	0x3c25a87b	0.01011097
207	0xbeecc97e	-0.46247476
208	0x3ea63c64	0.3246795
209	0xbef88472	-0.48538548
210	0xbe86fb4c	-0.263636
211	0x3ec93c75	0.39303938
212	0x3d7c3ede	0.061583392
213	0x3de11830	0.109909415
214	0x3e83dd61	0.25754836
215	0x3dcbab44	0.09944776
216	0xbe28b22e	-0.1647422
217	0xbfa18afd	-1.2620541
218	0x3f2ed374	0.682914
219	0xbf14977e	-0.5804366
220	0x3ed32989	0.41242626
221	0xbe995be5	-0.29952922
222	0x3e489296	0.19587168
223	0xbee6d1f5	-0.4508206
224	0xbf05ca8d	-0.5226219
225	0x3e68157d	0.22664447
226	0xbe4acf8f	-0.1980574
227	0xbf0eff98	-0.55858755
228	0xbed25b81	-0.41085437
229	0xbf3232a7	-0.6960854
230	0x3d85f31e	0.065405115
231	0x3d418f0a	0.047255553
232	0x3d4a4ece	0.04939156
233	0x3f66f89d	0.90223104
234	0x3ea514ea	0.3224252
235	0x3f294e98	0.6613555
236	0x3e56253d	0.20912643
237	0x3f565dd1	0.837369
238	0xbdd76d15	-0.105188526
239	0xbe9a621d	-0.3015298
240	0xbd948d96	-0.07253568
241	0x3dfad843	0.1224828
242	0xbe769e74	-0.24083883
243	0xbea4a047	-0.32153532
244	0xbdb0ae07	-0.08626943
245	0xbc839904	-0.016064174
246	0xbe6a57dc	-0.22885078
247	0xbe0fd4e4	-0.14046055
248	0x3e286659	0.16445293
249	0x3e8a048d	0.26956597
250	0xbf004c67	-0.5011658
251	0xbee3d533	-0.44498596
252	0xbf0975fe	-0.53695667
253	0x3f0e00ba	0.5546986
254	0x3f1948f3	0.59876937
255	0xbe0ad576	-0.13557991

actor.0.bias f4 [128]
0	0xbedfaec9	-0.43688038
1	0x3ecdff5c	0.40233886
2	0xbd4eab0a	-0.050456084
3	0x3e5de59a	0.21669617
4	0x3df27f3b	0.118406735
5	0xbe7973bb	-0.24360554
6	0xbc8985f1	-0.016787501
7	0x3d28b549	0.041188512
8	0x3cb1aa1f	0.021687565
9	0xbe901d45	-0.2814733
10	0xbda0784e	-0.07835446
11	0xbe8cb7cd	-0.2748398
12	0xbe0cf85f	-0.13766621
13	0xbe157640	-0.1459589
14	0xbc5aacde	-0.013346879
15	0x3f0a6048	0.54053164
16	0xbe0b27e9	-0.13589443
17	0x3e4ff0d1	0.20306708
18	0x3e2c7549	0.16841616
19	0xbce06c58	-0.027395412
20	0xbe3b1e23	-0.18273215
21	0x3d424813	0.047432017
22	0x3e74fa6a	0.2392365
23	0x3e90f0d8	0.2830875
24	0x3dfbc1b7	0.122928075
25	0xbea611a8	-0.32435346
26	0xbeb7ddbf	-0.35911366
27	0xbd96dcf5	-0.07366363
28	0x3bc93d61	0.00614135
29	0xbe8eaa7b	-0.2786444
30	0x3d82364d	0.06358013
31	0xbc1a5625	-0.0094199525
32	0xbdf93fa8	-0.121703446
33	0xbee8877a	-0.4541586
34	0xbe1dc702	-0.15407947
35	0xbecf1459	-0.40445212
36	0x3e060a40	0.13089848
37	0xbe2eb618	-0.17061651
38	0x3ea4941e	0.32144254
39	0x3e209df6	0.15685257
40	0x3e16595c	0.14682525
41	0xbe1099e6	-0.14121208
42	0xbe59deec	-0.21276444
43	0xbe19de4f	-0.1502621
44	0xbdc14358	-0.09436673
45	0xbe95ea4d	-0.2928032
46	0x3e8a8c82	0.27060324
47	0xbe4439a4	-0.19162613
48	0x3f04f9bd	0.5194357
49	0xbe48ad7b	-0.19597428
50	0xbe3672d8	-0.17817247
51	0xbe9acedb	-0.30235943
52	0xbca2cac1	-0.019872071
53	0x3e4c029b	0.19922869
54	0x3d9cf703	0.07664301
55	0xbee2b715	-0.44280306
56	0xbef76771	-0.48321107
57	0xbed09da3	-0.40745267
58	0xbd8af494	-0.06784931
59	0x3ed484a9	0.41507462
60	0x3e3043c2	0.17213348
61	0x3ec3d64d	0.38249436
62	0x3bdf743b	0.0068192757
63	0x3e6ffcd6	0.23436293
64	0x3bf8b693	0.007590124
65	0x3e9497b5	0.29021993
66	0xbee6c694	-0.45073378
67	0x3a048c21	0.0005056281
68	0xbe8dc937	-0.27692577
69	0x3d83fe71	0.06445015
70	0x3e8c7a20	0.27436924
71	0x3ea0563a	0.31315786
72	0x3e27317d	0.16327472
73	0x3d514ca7	0.051098492
74	0xbdf04679	-0.117321916
75	0xbd393e73	-0.04522557
76	0x3c0316fd	0.008001086
77	0x3d1af218	0.037828535
78	0xbe617464	-0.22017056
79	0x3c060a2f	0.008181139
80	0x3d4bc595	0.049748976
81	0xbccb7019	-0.024833726
82	0x3d7972d8	0.06090054
83	0xbeae826e	-0.34083885
84	0xbc9be054	-0.019027866
85	0x3cb57441	0.02215016
86	0xbedc5f47	-0.4304144
87	0xbd85acbe	-0.065270886
88	0x3e605a2f	0.21909402
89	0x3e09aebb	0.1344556
90	0x3da3f834	0.08006325
91	0x3e2c6c02	0.16838077
92	0xbda84e5b	-0.0821807
93	0x3bbae011	0.0057029803
94	0x3e907570	0.28214598
95	0x3ec7dcdd	0.39035693
96	0x3dd2863e	0.10279511
97	0x3e0bf5b5	0.13667949
98	0x3e131928	0.14365065
99	0x3e97b738	0.29631972
100	0x3e9a4aa6	0.30135077
101	0xbe15aef0	-0.14617515
102	0x3dc8cda4	0.09804848
103	0x3ca5fb8d	0.02026155
104	0xbe17d1ad	-0.14826079
105	0xbedbc538	-0.42923903
106	0xbcc39d85	-0.023878822
107	0x3d8179a0	0.06322026
108	0x3e60632a	0.21912828
109	0xbeac426e	-0.33644432
110	0x3ce9757f	0.02849841
111	0xbec27a30	-0.37983847
112	0xbe4bcd0a	-0.19902435
113	0x3e160471	0.14650132
114	0xbd6e8f08	-0.058241874
115	0x3e5d4a94	0.2161048
116	0x3db7491b	0.08949491
117	0xbe9c11a3	-0.30482206
118	0x3ea3e919	0.32013777
119	0xbbe8d100	-0.007104993
120	0xbe82454a	-0.25443488
121	0x3e26b49a	0.16279832
122	0x3e5e7c6e	0.21727154
123	0xbea7dea7	-0.32787058
124	0xbe46508a	-0.1936666
125	0x3da26d97	0.07931059
126	0x3c371e36	0.011176636
127	0xbefe15de	-0.49626058

actor.2.weight f4 [64, 128]
0	0x3e0d1c07	0.13780223
1	0x3dcc9e01	0.09991074
2	0xbefd789d	-0.49506083
3	0x3ed22f9c	0.41051948
4	0xbdf3d8be	-0.11906575
5	0x3f3c58bf	0.73572916
6	0xbe886ff1	-0.26647905
7	0xbcb0794f	-0.02154222
8	0x3e18215b	0.14856474
9	0x3e187c1a	0.14891091
10	0x3c01d8d0	0.007925227
11	0x3d67da93	0.056604933
12	0xbda6caa3	-0.08144119
13	0xbdb5f432	-0.08884467
14	0x3e005ec6	0.12536153
15	0xbea58540	-0.32328224
16	0x3daa7ebb	0.08324953
17	0xbe6f2b15	-0.23356278
18	0xbf79db07	-0.97599834
19	0xbc8924b8	-0.016741142
20	0xbf163c51	-0.58685786
21	0x3e08b60a	0.13350692
22	0xbc1ac250	-0.009445742
23	0xbafbc46a	-0.0019208316
24	0xbe2cd57b	-0.16878311
25	0x3da4eaec	0.0805262
26	0x3ec62684	0.3870126
27	0x3e914c38	0.28378463
28	0xbf212b6a	-0.6295687
29	0x3f0232fd	0.5085905
30	0x3c6d7bf6	0.014494887
31	0x3f0c274d	0.5474747
32	0x3f0fa9b6	0.56118333
33	0xbf7fdd97	-0.99947494
34	0x3e4d08c3	0.20022874
35	0x3e6ca6c3	0.2311049
36	0xbeeca18a	-0.46216995
37	0x3d39bcce	0.045346074
38	0xbde80985	-0.11329941
39	0x3f391f84	0.72313714
40	0xbd6fae8b	-0.058516067
41	0x3dedf38a	0.11618717
42	0x3f382639	0.71933323
43	0xbd80ba58	-0.06285542
44	0x3ecd280f	0.40069625
45	0x3f13f021	0.5778828
46	0xbeb4b834	-0.35296786
47	0x3d9192ab	0.07108053
48	0x3d3f4faf	0.04670685
49	0x3e45afaa	0.19305292
50	0x3e27ca65	0.16385801
51	0x3ea028cd	0.3128113
52	0xbe90b8d2	-0.28266007
53	0x3ea0df65	0.31420437
54	0xbf4869ab	-0.78286237
55	0xbce6817a	-0.028137911
56	0xbdef01db	-0.11670276
57	0x3ed95984	0.42451108
58	0xbe4efafc	-0.2021293
59	0xbe841040	-0.25793648
60	0xbe4c1a19	-0.1993183
61	0xbd339a98	-0.043848604
62	0xbec14e74	-0.37755167
63	0xbca9536a	-0.020669658
64	0xbf8222a2	-1.0166819
65	0xbc899f34	-0.016799547
66	0x3e986c3f	0.29770085
67	0xbeb9d9ff	-0.3629913
68	0xbf057262	-0.5212766
69	0x3e3c318c	0.18378276
70	0xbd630b3b	-0.055430632
71	0xbe14dac2	-0.14536574
72	0xbceb2272	-0.028702948
73	0xbe85edab	-0.2615789
74	0xbdd3b181	-0.103365906
75	0x3daee3fc	0.08539578
76	0xbbf57636	-0.0074908985
77	0x3f0ea4d1	0.5572024
78	0x3eb01ea9	0.34398392
79	0xbd85a876	-0.06526272
80	0xbe436928	-0.19083083
81	0xbe9b720d	-0.3036045
82	0xbedb41b2	-0.4282356
83	0xbdd5b213	-0.104343556
84	0xbe2219fc	-0.15830225
85	0xbdf2a8c1	-0.118485935
86	0xbeb093ab	-0.34487662
87	0x3e558257	0.20850502
88	0x3e96e608	0.29472375
89	0x3ef35c52	0.47531372
90	0x3e01ed44	0.12688166
91	0x3e2e52c1	0.17023756
92	0xbf0e394a	-0.55556166
93	0xbc9c1471	-0.019052716
94	0xbcad2c3c	-0.021139257
95	0xbf0ddd8c	-0.5541618
96	0xbec4cb07	-0.38436148
97	0x3d570074	0.052490667
98	0x3cc26286	0.02372862
99	0xbdfefca6	-0.124505326
100	0xbf05ffd4	-0.5234349
101	0xbf0ef611	-0.5584422
102	0xbe1c15ae	-0.15242645
103	0x3e526ef4	0.20550138
104	0x3db61553	0.08890786
105	0xbd158b5f	-0.036509868
106	0x3cf69dde	0.030104574
107	0x3e3d27ec	0.1847226
108	0x3db94043	0.0904546
109	0x3f631048	0.8869672
110	0xbe9558a1	-0.2916918
111	0x3eaf56bb	0.34245858
112	0xbe457164	-0.19281536
113	0xbcea0585	-0.028567085
114	0x3df2c633	0.1185421
115	0xbf0004bd	-0.5000723
116	0x3dba4adc	0.090963095
117	0xbd04cd93	-0.032422613
118	0xbe80e363	-0.25173482
119	0xbf0e60f3	-0.5561668
120	0x3d92da86	0.07170586
121	0x3e7d593e	0.24741074
122	0xbc5e18b4	-0.013555694
123	0x3d25fca0	0.040524125
124	0x3dd00912	0.1015798
125	0xbca58f97	-0.02021007
126	0x3e8b6d97	0.27232048
127	0x3f82c6d4	1.0216928
128	0xbf5eabe1	-0.86981016
129	0x3ed47aed	0.41500035
130	0xbebd6650	-0.3699212
131	0xbd11f1c2	-0.03563095
132	0x3eb6e45d	0.35721102
133	0xbecf5e2c	-0.40501535
134	0x3f03e0df	0.51515
135	0x3f3cf093	0.7380459
136	0xbea34806	-0.31890887
137	0x3dc46e23	0.095913194
138	0xbee0186d	-0.43768635
139	0xbf5fcf58	-0.87425756
140	0xbbadabb7	-0.005300011
141	0x3e081ab2	0.13291433
142	0x3ec631b4	0.38709795
143	0x3e79acd3	0.24382333
144	0xbf25dbee	-0.6478871
145	0x3e6b6da3	0.22991042
146	0xbe6b8ac0	-0.23002148
147	0xbd496d57	-0.04917654
148	0x3e98a2c4	0.2981168
149	0xbe49dd8d	-0.19713421
150	0xbe3b92b1	-0.18317677
151	0x3cf4f024	0.029899664
152	0x3ec854e2	0.3912726
153	0xbe56c3c3	-0.20973115
154	0xbde2dcd3	-0.11077275
155	0x3ea3ba04	0.31977856
156	0xbf2018ab	-0.6253764
157	0xbe81a0f9	-0.25318125
158	0xbe1d0d98	-0.15337217
159	0xbd95d53d	-0.073160626
160	0xbf1eab60	-0.6198025
161	0xbe8a24d1	-0.26981214
162	0xbf28e251	-0.6597033
163	0xbf664fb2	-0.89965355
164	0x3e17da68	0.14829409
165	0xbf181eef	-0.594222
166	0xbd90f1d7	-0.07077377
167	0xbeb4ab60	-0.35287
168	0xbe4baa33	-0.19889145
169	0x3d1007da	0.035163738
170	0x3dfc3d57	0.12316387
171	0xbf0a57e6	-0.5404037
172	0xbf3b29be	-0.7311057
173	0xbc70418a	-0.014664063
174	0x3d8345a9	0.06409771
175	0xbea8a9ad	-0.32941952
176	0xbb9c7e8b	-0.0047758273
177	0xbe688375	-0.22706397
178	0xbe8bbdd4	-0.27293265
179	0x3ea836f0	0.32854414
180	0x3dfcfa36	0.123524114
181	0x3efae3f9	0.49002054
182	0x3e7c6c2a	0.24650636
183	0xbe8f7e4f	-0.28026053
184	0xbf1314c1	-0.5745354
185	0xbf12ac79	-0.5729442
186	0xbe92903e	-0.28625673
187	0xbd4851a8	-0.048906
188	0xbdcfcdba	-0.10146661
189	0x3e211c41	0.15733434
190	0x3e6dc327	0.23218976
191	0x3e2a3c6f	0.16624616
192	0xbdb77e95	-0.089596905
193	0x3f2e97fb	0.68200654
194	0xbe685714	-0.22689468
195	0x3e9c2645	0.30497947
196	0xbf0275ce	-0.50961006
197	0x3c82b366	0.015954684
198	0x3d48fcd7	0.049069252
199	0x3e9a6f08	0.30162835
200	0x3f52c092	0.8232509
201	0x3ec31229	0.38099793
202	0xbf19abc1	-0.600277
203	0xbc1442b3	-0.009049105
204	0x3e0aed68	0.13567126
205	0xbd829989	-0.06376941
206	0xbea38a4c	-0.3194145
207	0xbf35c672	-0.7100593
208	0x3da07f42	0.078367725
209	0x3eb99d51	0.36252835
210	0x3d9498d2	0.07255711
211	0x3e88cccc	0.26718748
212	0x3f90ac29	1.1302539
213	0xbe0f62ce	-0.14002535
214	0xbf97ee25	-1.1869551
215	0xbedff42d	-0.4374098
216	0xbe0e6d1a	-0.13908806
217	0x3c756195	0.014976879
218	0xbdf0f8dc	-0.11766216
219	0x3dbd7d86	0.09252457
220	0x3ecb1151	0.3966165
221	0x3e7143a9	0.23560967
222	0x3e3909ba	0.18070117
223	0xbe863e69	-0.2621949
224	0xbe33b2a8	-0.1754862
225	0xbd37eca1	-0.0449034
226	0x3d60cb79	0.054881547
227	0x3f2e77be	0.6815146
228	0x3e421622	0.18953755
229	0xbf6b800f	-0.91992277
230	0x3e0e9ccc	0.13927001
231	0xbf8fe6f7	-1.124236
232	0x3e99a4a4	0.30008423
233	0x3e7d23a4	0.24720627
234	0xbe26eaca	-0.16300502
235	0x3dc3893a	0.09547658
236	0x3e50a3fd	0.20375057
237	0x3c6a739b	0.014309789
238	0xbe394bff	-0.18095396
239	0xbe6a48f2	-0.22879389
240	0x3e8abadf	0.27095696
241	0x3e19ebba	0.15031329
242	0xbf031419	-0.5120254
243	0x3eb775b4	0.35831988
244	0x3f148422	0.5801412
245	0xbeafedb4	-0.3436104
246	0x3d19e928	0.03757587
247	0x3da8f649	0.082501
248	0xbe269f4d	-0.16271706
249	0x3ed9a649	0.42509678
250	0xbec07d9f	-0.3759584
251	0x3e3d1813	0.18466215
252	0x3de2a2c9	0.11066205
253	0x3dbc421c	0.09192297
254	0x3eb349d2	0.35017258
255	0x3e92884c	0.2861961

actor.2.bias f4 [64]
0	0xbe878534	-0.26468813
1	0x3e41daf9	0.18931188
2	0xbeeba70b	-0.4602588
3	0x3e04bf61	0.1296363
4	0x3f483a37	0.7821383
5	0xbe0b63b1	-0.13612248
6	0xbe95cf5a	-0.2925976
7	0xbf0dac13	-0.5534069
8	0xbe63b70a	-0.22237793
9	0xbe173c6d	-0.14769144
10	0xbdede3a4	-0.11615685
11	0x3b397dbf	0.002830371
12	0xbe451779	-0.19247235
13	0x3ebbf1ab	0.36707816
14	0xbda5a41d	-0.08087943
15	0xbe34e70c	-0.17666262
16	0xbe94327a	-0.2894476
17	0x3e949e46	0.29027003
18	0x3e0998da	0.13437214
19	0xbe36bd4e	-0.17845652
20	0xbe4f7a88	-0.20261586
21	0xbdd03719	-0.10166759
22	0xbda7e6ef	-0.08198344
23	0x3d86b13e	0.06576775
24	0x3e82a2cb	0.25514826
25	0xbecd6778	-0.40118003
26	0x3ecd74a6	0.40128058
27	0xbe9d9f63	-0.30785665
28	0xbc7142a0	-0.014725357
29	0x3dbbbfe6	0.09167461
30	0xbefbd3f0	-0.49185133
31	0xbebd6103	-0.36988077
32	0xbdbd980d	-0.09257517
33	0x3ee9cf00	0.4566574
34	0x3e297075	0.16546805
35	0x3f066333	0.52495116
36	0x3eab1081	0.3341103
37	0xbe897cc6	-0.26853007
38	0x3b2762ea	0.0025541135
39	0xbeed2d59	-0.4632366
40	0xbdc34fb2	-0.09536685
41	0xbd8f7926	-0.07005529
42	0x3e451fd7	0.19250427
43	0x3ec9cb35	0.39412847
44	0x3dadae9e	0.08480571
45	0xbe0a6d4f	-0.1351826
46	0x3d9fa9c6	0.077960536
47	0x3e888a8d	0.26668206
48	0xbea1034f	-0.31447837
49	0xbd141eca	-0.036162175
50	0x3e8a361e	0.26994413
51	0xbecde493	-0.4021345
52	0x3d4e3bea	0.050350107
53	0xbd145a33	-0.036218833
54	0xbda1740c	-0.07883462
55	0xbe747f39	-0.23876657
56	0xbb200707	-0.002441825
57	0x3ebbccfb	0.36679825
58	0xbe8e257b	-0.2776297
59	0x3eae8b65	0.34090725
60	0xbe1adc1b	-0.15123026
61	0xbdc0328f	-0.09384643
62	0xbc7baa10	-0.01536037
63	0x3d9ebf6b	0.07751354

actor.4.weight f4 [12, 64]
0	0xbed21865	-0.41034237
1	0xbeae63d9	-0.34060553
2	0xbf80f26f	-1.0073985
3	0x3d80a320	0.062811136
4	0xbc999f2f	-0.018752662
5	0xbd597f5f	-0.053099986
6	0xbf4885a8	-0.78328943
7	0xbe8e760d	-0.2782444
8	0x3d7ccbf1	0.06171793
9	0xbd83c2ca	-0.064336374
10	0xba32f620	-0.00068268366
11	0x3c86c879	0.016453015
12	0x3b8139a0	0.003943637
13	0xbdc73892	-0.09727587
14	0xbd79d219	-0.06099138
15	0xbc47cda5	-0.012195026
16	0x3e90623d	0.2819995
17	0xbda85ac4	-0.08220437
18	0xbdd5c069	-0.1043709
19	0xbdb4ddc9	-0.08831365
20	0xbc5b9281	-0.0134016285
21	0xbcde1fb8	-0.027114734
22	0xbc563227	-0.013073481
23	0x3d3b652d	0.045750786
24	0x3dce23eb	0.100654446
25	0xbde3c3a4	-0.111213
26	0xbc848c75	-0.016180256
27	0x3de65caa	0.11248143
28	0x3e8dff04	0.27733624
29	0xbbc1c0f1	-0.005912893
30	0x3e08eef9	0.13372411
31	0x3e42bd17	0.19017445
32	0x3d1f4d30	0.03889197
33	0x3ea75cec	0.3268808
34	0xbb14fbe5	-0.0022733149
35	0x3f14440f	0.5791635
36	0xbe921c42	-0.28537184
37	0x3d52aebe	0.05143618
38	0xbd0a0ef8	-0.03370568
39	0xbe857dc4	-0.26072514
40	0x3c62e998	0.013849638
41	0xbd58737e	-0.052844517
42	0xbc83c2cf	-0.016084103
43	0xbe123a84	-0.14280134
44	0x3db19fec	0.08673081
45	0x3c8a30ca	0.016868968
46	0xbc9d7f3d	-0.019225711
47	0x3e1080a8	0.14111578
48	0xbe07d340	-0.13264179
49	0xbd0aa5b4	-0.033849433
50	0xbc1a6418	-0.009423278
51	0x3d2a99ca	0.04165057
52	0x3d4b7589	0.049672637
53	0xbe92f2d6	-0.28700894
54	0xbd069661	-0.032858256
55	0x3e3a133c	0.181714
56	0xbda45d2d	-0.08025584
57	0xbd438777	-0.04773661
58	0xbda4c3be	-0.08045147
59	0x3dd29035	0.102814116
60	0x3cbd0642	0.023074273
61	0x3dc3bf1d	0.09557936
62	0x3c694a99	0.014238977
63	0x3d08e8bf	0.03342509
64	0xbe5067e8	-0.20352137
65	0x3e4a34fe	0.19746777
66	0x3ff10f80	1.8832855
67	0x3e447540	0.19185352
68	0xbf734359	-0.9502464
69	0x3f2c5b22	0.6732656
70	0xbf714aab	-0.9425456
71	0x3faee336	1.3663089
72	0xbe0a3380	-0.13496208
73	0xbdeaae4e	-0.11459027
74	0xbd89ca1f	-0.06728005
75	0xba6cb523	-0.0009029677
76	0xbe3a2916	-0.18179736
77	0xbf8370cf	-1.0268801
78	0xbd7ececa	-0.06220893
79	0xbdacd3cd	-0.08438835
80	0xbdceb032	-0.100922
81	0xbd94d3ce	-0.07266961
82	0xba995df6	-0.0011700976
83	0x3eb6461e	0.3560037
84	0xbd18cd23	-0.03730501
85	0x3d92bf47	0.071653895
86	0x3dde1d7d	0.10845468
87	0xbcada78a	-0.021198053
88	0x3e741f15	0.23839982
89	0xbf723c7b	-0.94623536
90	0x3e60afa8	0.21942008
91	0x3e0ed156	0.13947043
92	0xbf64c715	-0.89366275
93	0x3d48533b	0.0489075
94	0xbfb92b12	-1.4466269
95	0x3ed29b68	0.4113419
96	0x3be61f32	0.0070227617
97	0x3f8a3033	1.0795959
98	0x3dc59569	0.09647638
99	0xbfabf12d	-1.3432976
100	0xbeca81a8	-0.39552045
101	0xbf1c25fd	-0.60995466
102	0x3e7f0687	0.24904834
103	0xbeef0710	-0.46685076
104	0x3d338e6e	0.043837003
105	0x3e67a510	0.2262156
106	0x3e8b6ffd	0.27233878
107	0x3e979f14	0.29613554
108	0xbe8b4998	-0.27204585
109	0xbe0d7308	-0.13813412
110	0xbd3f172c	-0.046652958
111	0x3e904ae1	0.28182128
112	0xbc8eec77	-0.01744674
113	0x3e720e02	0.23638156
114	0xbe6bb3c6	-0.23017797
115	0x3e93e579	0.2888601
116	0xbdd2ed31	-0.10299147
117	0xbe6ced24	-0.23137337
118	0x3d6d33ec	0.057910845
119	0xbe5482a1	-0.20752956
120	0xbda96655	-0.082714714
121	0xbdb44996	-0.08803098
122	0x3dfd5d16	0.1237127
123	0xbf413323	-0.75468653
124	0x3c101c06	0.008795744
125	0xbf2ca889	-0.67444664
126	0xbc6fd495	-0.014638086
127	0x3f247061	0.64233977
128	0x3f17612a	0.59132636
129	0x3e863e71	0.26219514
130	0xbf532b8c	-0.8248832
131	0xbe916772	-0.28399235
132	0x3f84bc0a	1.0369885
133	0xbf1848f2	-0.59486306
134	0x3fe07298	1.7534971
135	0xbf8b5d74	-1.0887895
136	0xbce1963b	-0.027537456
137	0x3e1c9d5f	0.15294407
138	0x3dc95a11	0.09831632
139	0xbcdef73f	-0.027217505
140	0x3de30f0c	0.11086854
141	0x3f96fb0c	1.1795363
142	0x3e00839b	0.12550204
143	0x3dd5f43c	0.10446975
144	0xbe8a0525	-0.2695705
145	0x3e4a560a	0.19759384
146	0x3df78f3b	0.12087866
147	0xbe74f496	-0.23921427
148	0xbb4e7fc6	-0.0031509264
149	0xbda5f521	-0.08103395
150	0xbdb2b1d8	-0.08725327
151	0xbc081e8d	-0.008308065
152	0xbeaee7b1	-0.34161142
153	0x3f8313e5	1.0240446
154	0xbdeee5c9	-0.11664922
155	0xbe9ee005	-0.31030288
156	0x3f01ecd3	0.5075199
157	0xbd01d345	-0.031695623
158	0x3fa0ced9	1.2563125
159	0xbf32f978	-0.6991191
160	0xbd975ed2	-0.073911324
161	0xbfae4d8c	-1.3617415
162	0xbd4b7e79	-0.04968116
163	0x3f3ff9dd	0.74990636
164	0x3f418e21	0.75607497
165	0x3ef8f838	0.48626876
166	0xbe84bdb0	-0.2592597
167	0x3f3164be	0.69294345
168	0xbd980315	-0.07422463
169	0xbe32b92c	-0.1745345
170	0xbe3ccb1e	-0.18436858
171	0xbd85dfa5	-0.065367974
172	0x3dcaa239	0.09894223
173	0x3d8b4f94	0.06802288
174	0x3da24efd	0.07925222
175	0xbebf681d	-0.3738412
176	0x3dc1be7a	0.09460159
177	0xbe559ac8	-0.20859826
178	0x3e6aedb4	0.22942239
179	0xbed1b5da	-0.40959054
180	0x3dd6cbbd	0.10488079
181	0x3f133aad	0.5751141
182	0xbc795bc4	-0.015219633
183	0xbda519b5	-0.08061544
184	0x3dcb7730	0.099348426
185	0x3e2eade2	0.17058519
186	0xbd8ed218	-0.06973666
187	0x3f20c9b6	0.62807786
188	0xbb19fdb4	-0.0023497166
189	0x3ef6033f	0.48049352
190	0x3aa0b86f	0.0012261997
191	0xbf1e0d45	-0.61739
192	0x3e05cef6	0.1306723
193	0xbc4e01c8	-0.012573667
194	0xbdabeeea	-0.083951786
195	0x3d9a3dd7	0.07531326
196	0x3ef0fe28	0.47068906
197	0x3d57954d	0.05263262
198	0x3ced0af3	0.028935885
199	0xbb8435c5	-0.00403473
200	0xbc1d0bb8	-0.0095853135
201	0xbb38424a	-0.0028115683
202	0xbd50415f	-0.050843593
203	0x3d8a3421	0.06748224
204	0x3de37f98	0.11108321
205	0xbd8d45a0	-0.068980455
206	0x3c3118b6	0.010809114
207	0xbae48dd4	-0.0017437288
208	0x3cb34e93	0.021888053
209	0x3d8436e6	0.064557835
210	0x3db39a66	0.087696835
211	0x3cfe02aa	0.03100713
212	0x3d8cbdd7	0.068721466
213	0xbcb1770f	-0.021663217
214	0xbce3b8f3	-0.027798152
215	0xbd11c812	-0.035591193
216	0x3dad4cab	0.08461889
217	0xbee32e9a	-0.44371492
218	0x3be37569	0.0069414866
219	0x3dc77d9c	0.09740755
220	0x3c8678c8	0.016415015
221	0xbc73a040	-0.01486975
222	0xbd92b33f	-0.07163095
223	0x3de1d80c	0.11027536
224	0x3d98000e	0.074218854
225	0x3ddcd72a	0.10783227
226	0xbd03a00c	-0.032135054
227	0xbdc90425	-0.09815244
228	0xbd12951b	-0.03578673
229	0x3e3e0637	0.18557058
230	0xbd3d8765	-0.0462717
231	0x3d6b0a8d	0.05738311
232	0xbd19b90a	-0.037529983
233	0xbd4e08ca	-0.05030135
234	0x3d21c1d8	0.039491504
235	0x3e8f6fb3	0.28014907
236	0xbd2d459f	-0.042302724
237	0xbce98fd5	-0.028510967
238	0xbd251004	-0.040298477
239	0x3c9edcdb	0.019392421
240	0xbe855d46	-0.26047724
241	0xbd561e69	-0.052275095
242	0x3b8b163d	0.0042445944
243	0x3eb6408c	0.3559612
244	0x3df056cf	0.117353074
245	0x3d5f050e	0.05444818
246	0x3c520bfc	0.01282024
247	0xbeadc546	-0.3393957
248	0xbc08b625	-0.008344208
249	0x3d931779	0.071822114
250	0x3d959205	0.07303242
251	0x3cd10de4	0.025519319
252	0xbbf57652	-0.0074909115
253	0x3dc957b5	0.09831182
254	0x3d9edcd3	0.077569626
255	0xbda2b01a	-0.07943745

actor.4.bias f4 [12]
0	0xbf281589	-0.6565786
1	0x3ef41568	0.47672582
2	0x3ea271af	0.3172736
3	0xbbee81df	-0.0072786654
4	0x3df0a7a4	0.11750725
5	0xbd3daeb4	-0.046309188
6	0xbe59085b	-0.21194594
7	0x3e87fdfd	0.26560965
8	0x3ca9ca52	0.020726357
9	0x3b96d9cf	0.0046036015
10	0x3e3fedda	0.18743077
11	0xbdfe3efa	-0.124143556
