Plotting/saliencies_live/Multi_Pong/Sequence_Length_3/multi_pong_3__1__1721978543_checkpoint_1216.pt (torch, 91378 bytes, 11 tensors)

critic.0.weight f4 [128, 12]
00000000: 2626 d93e a167 f53d a6b1 f53e c6ad d53d
00000010: e2d1 523c a252 67bd d4fb 223f 2383 0cbb
00000020: c900 3cbf b04a 60be cc78 8e3e e17d 843d
00000030: 4ed2 adbd 2572 3bbc 0e07 4c3d 920d 11bc
00000040: e605 023d 8292 93ba 0d27 9b3f 7259 b3be
00000050: e5ed 0c3b cca6 dabc 9079 313f 8e18 09c0
00000060: 348b 27be bebd 243d 65ac e03d f29f 633d
00000070: 3392 31bd b41b a13c 2351 91bf ea4d b63f
00000080: 4e4c ad3d 2d99 7fbd 13bb 283e 9a68 38be
00000090: 4ad2 cdbe 8613 2c3d d740 51be ffe2 aebd
000000a0: 1b31 54bd 96df bb3b 9cf0 d93e fa60 363e
000000b0: 9ac9 053f 7aa5 7f3d 8a42 393f 5164 6ebf
000000c0: 1781 cb3d c408 ad3d d5c8 75bc 08c9 ff3c
000000d0: defa 193e df3c 523d 0092 d63e 94d3 893e
000000e0: c51c dabd a0ad 0abd 40b3 70bf cbbe 4a3f
000000f0: 3295 c53d f6ce 14bc 6eaa a03b cdf1 8b3c
00000100: e7be 45bc d2e3 b1bb 8844 bb3c 2230 8abd
00000110: 2a74 ab3d ace6 d13d 3aba 9f40 2620 a540
00000120: 1fa1 393d 6c9b f33d 3d7e 503e 0d69 1fbe
00000130: 9016 563d 7a39 8fbd 78fa 043d d7b2 59be
00000140: a2e4 36be 52a0 d03c 8a9d bf3f 1a68 813f
00000150: f2d0 a53d 3b93 9bbc d631 32bd a74f 843c
00000160: ef1e 093d 507e a43c 0a63 a83e 3a76 a03d
00000170: 225e 0b3c ca81 8c3b 7567 3ec0 196a e6be
00000180: 5b11 0ebe 1c3c 853c 1619 b23d 246a 44bd
00000190: 23af ccbb d8de 97bd d79b 013f 2934 403e
000001a0: 3a62 1fbe 32ce 0c3c d441 4ebf d324 08bf
000001b0: 0d58 93be 04db cf3e 8a20 3dbe 92a8 d0be
000001c0: 491b 163e 5e11 813c 616c 933f f5dc 343c
000001d0: 6f94 023e 78fc 8abc dc08 073f 66dd 39be
000001e0: 4308 f63d 5233 5a3c 76e6 fabd 199a 7bbc
000001f0: 9e29 153c b717 863d aeca 923f 8dba 2540
00000200: 3da4 27bc 4630 8c3d 0575 4a3e 9b61 2640
00000210: 6811 5fbd 8e36 a43b e21d 93bd c615 313c
00000220: 4d85 733e 8be6 4b3e 743e 2540 98d3 2d3f
00000230: df32 543c 8c8d 88bb 9c61 8cbd b96d 8bbd
00000240: 4cbf 77be 7c74 61bb fe87 243e 2acb f33c
00000250: e150 39be 40bd 123c a1e8 25c0 6d7c 52bc
00000260: a85b 493e 6580 613b 07ae 3240 1ded f33a
00000270: bc7b c93b 2a8a 0a3d d8d8 6f3c 187c 643c
00000280: d2df 253e 6f1e 13be a1d9 1740 2bc7 39c0
00000290: b370 9abc ecca b7bc c6fb 09bf 0080 b53d
000002a0: d2ac 78bd 5f6b 863a c86b 9d3d 6b6e f9ba
000002b0: 02c9 73bc 4ef3 86bc 77f4 34bf 769c c5bf
000002c0: 77e1 81bc 1347 9f3c df0d f2bc ed0c 0a40
000002d0: 0ce9 c1bd a583 e2bc 0a67 a9bb aa38 3a3b
000002e0: d9fd d6bd 43e8 c23d 0875 debf c71a 0f3f
000002f0: e019 35bd 16e4 b93b be3e 363f 780a 473d
00000300: f608 59be 4c56 853b 4019 343e a3b7 84bc
00000310: 92a0 0a3d 65dc 1f3e de1c dc3b 0a19 eabc
00000320: 3792 323d ae74 15be d3a8 ffbd 1e6b 8dbd
00000330: 8b4b 6f3e 4988 543c 0c15 6ebb 5e1e 80bc
00000340: eb66 073d adcc 46bd 4e85 09be 0d87 06c0
00000350: 225b 3a3d e395 48bd 27ae ee3e 47eb 92bf
00000360: 310d 4e3e e974 c33b c533 53bd a43e b0ba
00000370: 543f 16bd bc64 a8bc 3c47 21c0 8624 88bf
00000380: 993a e33b 4bf5 eebc 23be d23d b2b0 71bf
00000390: 85f2 a8bc 7473 953c 70b2 f43d 788f 6a3c
000003a0: 4b3b afbd fb13 40bc a87e 8cbf 19c9 4a3e
000003b0: 3f44 253e 0c09 89bc 6fda ca3f 7ba6 5e3e
000003c0: 92c3 59be 2a45 e6bd 2f19 533d 5ebb b2bd
000003d0: 6665 f0bc c2c9 e0bd 6c78 b03e 23a3 6ebf
000003e0: 86a3 acbc 5ba5 49bc 4a8f 5fbe f206 4cbf
000003f0: bec0 9abc 7bed 043d 8928 c2bd 1b43 4bbc
0.42411917 0.11982656 0.47987098 0.10433535 0.012867423 -0.05647529 0.6366551 -0.0021440468
-0.734387 -0.21903491 0.27826536 0.06469322 -0.08487378 -0.011440788 0.049811415 -0.008853333
0.031743906 -0.0011258873 1.2121292 -0.3502918 0.00215041 -0.026690863 0.69326115 -2.1421237
-0.16361696 0.040220015 0.10970382 0.055572458 -0.043352317 0.01966653 -1.1352886 1.4242527
0.084618196 -0.06240194 0.16477613 -0.18008652 -0.401995 0.042010807 -0.2043489 -0.0853939
-0.051804643 0.0057334406 0.42566383 0.17810431 0.52260745 0.06241367 0.72367156 -0.9312182
0.09936731 0.084489375 -0.015001495 0.031223789 0.15037104 0.051327582 0.41908264 0.26919234
-0.106500186 -0.033856988 -0.94023514 0.79197377 0.096475974 -0.009082546 0.0049031293 0.017083073
-0.01206944 -0.0054287696 0.022859827 -0.06747462 0.08371766 0.10249075 4.9914827 5.1601744
0.045319673 0.11894879 0.20360656 -0.15567417 0.05226761 -0.06993385 0.032465428 -0.21259628
-0.17860654 0.025467072 1.4969952 1.0109894 0.08096494 -0.018991103 -0.04350456 0.016151262
0.033476766 0.020079762 0.3288806 0.0783505 0.00850633 0.004287933 -2.9750645 -0.4500282
-0.13873808 0.016264014 0.08696191 -0.047952786 -0.006246464 -0.07415551 0.5062842 0.18769898
-0.15564814 0.008594083 -0.80569196 -0.5318119 -0.28778115 0.40596783 -0.18469444 -0.4075361
0.14658846 0.015755352 1.151745 0.011039008 0.12751935 -0.01696609 0.52747893 -0.18150863
0.120132945 0.0133179 -0.12250988 -0.015356564 0.009104161 0.06547492 1.1468103 2.5895112
-0.010232029 0.06845145 0.19771202 2.5997074 -0.05445996 0.0050113862 -0.07183434 0.010808414
0.23781319 0.19912164 2.5819368 0.6790099 0.012951582 -0.0041672643 -0.06854555 -0.06808037
-0.24194068 -0.0034401705 0.16067502 0.029759962 -0.18097259 0.0089562535 -2.5923235 -0.012847048
0.1966387 0.0034408804 2.7918718 0.0018610094 0.0061487835 0.03382317 0.014639102 0.013945602
0.16198662 -0.14367078 2.372658 -2.9027812 -0.018852567 -0.022435628 -0.538998 0.08862305
-0.06071169 0.0010255388 0.07686573 -0.00190301 -0.014879467 -0.016473439 -0.70685524 -1.5438373
-0.01585458 0.01944307 -0.02954763 2.157039 -0.09468278 -0.027650664 -0.005169754 0.0028415122
-0.10497636 0.09516957 -1.7379465 0.55900234 -0.04421413 0.005672942 0.71189487 0.04859397
-0.21194825 0.0040691253 0.17587757 -0.016200846 0.033844538 0.15611418 0.0067173084 -0.028576393
0.043596473 -0.14595291 -0.124833725 -0.069051966 0.23368661 0.012971946 -0.0036328463 -0.01563948
0.033057135 -0.048535038 -0.13429758 -2.1019928 0.045497067 -0.048971068 0.46617243 -1.1478051
0.2012222 0.0059648645 -0.051563043 -0.0013446403 -0.03668149 -0.020555846 -2.5199728 -1.0636146
0.0069344756 -0.0291697 0.10290172 -0.9441024 -0.020623455 0.018243529 0.11948097 0.014316432
-0.08556231 -0.011723514 -1.0976152 0.19803275 0.16139315 -0.016727947 1.5847911 0.21743195
-0.2126601 -0.11243661 0.05153769 -0.08727144 -0.029345226 -0.10975982 0.34466875 -0.93217677
-0.021074068 -0.01230749 -0.21832004 -0.796981 -0.018890735 0.03245304 -0.09480388 -0.012406136

critic.0.bias f4 [128]
00000000: ad47 a53e 935b 67bd f633 223d 6d41 0bbe
00000010: 50ef 58bc d943 bb3b 0f0b d939 352c 3a3e
00000020: 7b66 6abd dc17 3abd 669a 98bc e57e 813d
00000030: 44b3 bfbd 7ea3 acbd e493 6ebd 0629 bebc
00000040: d79f 4cbd b48c f23d 24fe 37bd 1c46 5dbd
00000050: cb1e eabb 75de 763c 87b3 91bd 8f2d 5fbe
00000060: 0efc 59bd 2a18 aabd eead 1e3d d05f 2abd
00000070: 23cd 2dbe 3fe1 9dbd 56b0 05bd 2996 d9bd
00000080: e452 023d f0e9 d93b b3ec 54be e53f 063e
00000090: c660 17bd 2b83 9b3d 0ea5 06bd 18aa 783d
000000a0: 23ce b2bc 1aa1 d23d 78cd 1cbd ff04 2dbe
000000b0: f5c3 263f afbb 18bd e637 43ba b41b dbbc
000000c0: 723f b6bd 54d4 9c3e 1ce7 b63c 84ee a3bc
000000d0: 2864 b1bb 8f7a bdbc d8aa ab3c 2b64 fbbc
000000e0: 52eb 053c a935 16bd b46a 72bd db7e 053e
000000f0: 851d 30be 28bf 4e3e 8c6d 06be f8d9 05be
00000100: 3aa6 a93c e4c6 8cba 7879 01bd a279 173d
00000110: 0d5d 60bd 723e c03c 5535 aabd ed0c f6bc
00000120: bc3a e43d 101e b43e ceb3 79bd 7186 3d3d
00000130: eb54 083c 3d29 693d fd7b d1bc faaa 8ebc
00000140: cecd 89bd 557d 2b3e 3e36 b83d 0190 a2bd
00000150: 57dc 42be 06a2 873d 4f7f 573d 4bda c6bd
00000160: a94e d53a 8407 733c 6d25 c73c 5132 e13e
00000170: e7ee dd3c b1c2 063d 55ab 6abb 28b1 333e
00000180: 59aa 5f3d e45c 1c3d 1ff5 23bf e61c 95bc
00000190: 5eb0 993c 86cd 763d 4827 2cbe d7b2 113c
000001a0: b76a c23d 5445 8bbe a63c 0cbd 5a1d 9abc
000001b0: 3b54 0d3e 95b3 063d 11b9 81bd 1ddb dc3e
000001c0: b56a 893d c810 e8bc 0939 253c fa90 97bd
000001d0: fccb dd3c 15f6 823d 9ac7 343d 0bb9 c63c
000001e0: 915d 8f3d 137d 643d 972e 75be b670 273b
000001f0: f9e6 06bc d63a 3ebd 5e87 c0be b741 b53d
0.32281247 -0.056483816 0.039600335 -0.13599177 -0.01324065 0.005714875 0.00041397705 0.18180926
-0.05722664 -0.04543291 -0.01862831 0.06323031 -0.09360364 -0.08429621 -0.05824651 -0.02321292
-0.049957123 0.11843243 -0.0449201 -0.05402194 -0.007144784 0.015067686 -0.0711432 -0.21794723
-0.053218894 -0.0830539 0.03874009 -0.04159528 -0.16972785 -0.07708978 -0.03263887 -0.10624344
0.031817332 0.006650202 -0.20793419 0.13110311 -0.036957525 0.07593378 -0.032872252 0.06070909
-0.02182681 0.10284634 -0.038281888 -0.16896437 0.65142757 -0.037288364 -0.0007446989 -0.026746608
-0.0889882 0.30630744 0.022326998 -0.020011194 -0.005413551 -0.02312973 0.020955488 -0.030687412
0.0081737805 -0.036672268 -0.05918379 0.13036673 -0.17198761 0.20190108 -0.13127726 -0.1307143
0.020709146 -0.0010740426 -0.031609982 0.036981232 -0.05477624 0.023467276 -0.083109535 -0.03003546
0.11144015 0.35179186 -0.06096249 0.04627079 0.008321027 0.056924094 -0.025571818 -0.017415512
-0.06728707 0.16747029 0.08994721 -0.07937623 -0.19029365 0.066227004 0.052611645 -0.09709605
0.0016274053 0.014833335 0.024309838 0.439837 0.027091457 0.032900516 -0.0035807688 0.17548048
0.054605816 0.038174525 -0.640459 -0.018202256 0.018760856 0.060254596 -0.1681186 0.008892736
0.094930105 -0.2720133 -0.034237526 -0.018812824 0.13801663 0.032886107 -0.06334127 0.4313592
0.06709806 -0.028328314 0.010084399 -0.07400699 0.027074806 0.06394593 0.044135667 0.024258157
0.07000268 0.055783343 -0.23943554 0.0025549359 -0.008233779 -0.04644283 -0.37603277 0.08850425

critic.2.weight f4 [64, 128]
00000000: deed 80be e819 82ba 8b00 da3d 037d 063e
00000010: 961a 9abe 91b0 cd3d 5f03 673c 7cf7 e4be
00000020: de46 99bd 64ad 4b3e 5631 a03e f3b8 2cbf
00000030: 3b12 28be 1b84 a2be 7d76 93be 36a1 813e
00000040: 2d9f 82bd 320a c43d 5088 07be 58b2 5ebe
00000050: f675 20bd 0405 273e 3e35 e1be 1e0a c13e
00000060: 25d7 a83f 020c d5bd 0ac8 fa3d 1e0f f3bc
00000070: f6b2 4fbf 201a 2dbd 1647 c63d 2744 18be
00000080: 17d3 4d3e e057 2b3e 526b 1c3d 50e2 823d
00000090: 8da1 ee3e f6eb e4bd 3287 433d e87a fcbc
000000a0: b55f 693e 006c 84bf 7321 6ebd 4ea0 6a3c
000000b0: 13bf 43bf 438d 003e f136 bf3d e202 2bbe
000000c0: 25d6 bf3d baea b63c e68e 28be 6e2d d33d
000000d0: 0778 0dbf 611c 43be 9ace 30bf 94f9 1dbf
000000e0: 929f 44bd 9656 a1bd ef52 9e3b ee37 1dbe
000000f0: bacf 1f3e d3cf e1be a7cf dcbd f15c 0b3e
00000100: 3284 af3e dc37 2bbe d71f bbbe 82f4 b63e
00000110: 4694 99bc 3f88 023f 557e 823e d924 2a3e
00000120: a4cc fbbb fffb 4bbe 1740 153e ea06 543f
00000130: bda0 8b3f 3d71 0a3e 0bd4 503e b1c9 bd3d
00000140: 5f23 5a3e 4cb5 34bc 78b8 3d3d 1336 673e
00000150: dfe5 06bd cea0 a43d ef27 a9bd 79bd 10bf
00000160: f154 11bf 48aa 8cbc a27d 943b 48ba 493f
00000170: 78f9 973d 3640 b3be b6cf a23e fd70 0f3f
00000180: 66d2 4cbf bd49 933e 03e5 6ebd 2f2e b53e
00000190: 1eb3 a7be e1b0 e23e a592 b0be 9791 0bbe
000001a0: abfd 4ebe 7264 9c3e 083e 933e 011f 3abf
000001b0: a8f4 5fbb 386f ed3d a8fb 023e 906a 3fbf
000001c0: 542d 2fbe 717b 0ebe 544d b0bd 328a 61bd
000001d0: ef94 31bf 9314 713f c208 1f3f c6c2 9bbe
000001e0: bc33 1b3e 35ec 71bd 28e6 e43e dfa8 71bd
000001f0: 6218 853e df4a 0ebf 6236 bc3e dca4 0e3f
00000200: 7166 b3bc 01fe 14bf 95af f9bc b210 503d
00000210: dcba ba3d 5aa8 15be c70f 0b3c 0e68 49be
00000220: e5bf 1f3d 3b1b 113e 5bcb 583e 570d a63d
00000230: 460c 74be 7f93 153e 2a8a b8bb 751c 163f
00000240: 074b 60bb b5ae 8cbd 6d56 cabe ea07 12be
00000250: 1ddd 06bd 8733 5f3f 3570 703e 00a6 813d
00000260: e40d 533d e897 0ebd 92f2 0cbf a74f a3bd
00000270: c98d 5ebd 9b3a 823d 6988 5fbf 27fc 973e
00000280: ab27 eabd b506 85bd 00e8 333d 0bfc 4f3e
00000290: cd17 f6be ad7c e73d 4ad1 093e 08db 043e
000002a0: 42b4 cbbe 3bef 83bd 7933 e53c e4e2 3b3d
000002b0: d423 9a3e 8982 023e 9716 3e3e c715 923d
000002c0: 546d 81be 577b 3abe dcca 113e de0a c93d
000002d0: ea0e a3be 4100 933e fe17 b73d 7b3d 81bd
000002e0: 72d6 3b3e f646 7cbe 2de2 a0bc 5358 b8bc
000002f0: 6b98 c0bd 10ac d63d ae8e 373d 7a36 afbd
00000300: 3bb4 b43d 9b54 563e 2323 0cbd 5cdb 6cbe
00000310: d2aa 84bd cc18 09bf c1e3 4ebe ab84 a7bd
00000320: 80ce 8c3c b069 2c3e ea06 59bf 403d 4bbe
00000330: 9d52 89be 01d4 cc3e a49d 223d da72 103d
00000340: a7b8 27bc 7968 3dbe 8f22 f1bd 2f9a 00be
00000350: 43d2 d83c 7c02 4fbe 1c0c 903e 1285 0a3e
00000360: 7654 463e 1068 c03c 1dbf 47be cfd3 913d
00000370: d96c 253e 7763 e93e 6f0b b2be 9a63 a7bb
00000380: 5e6c b73e dd0b 0ebd d96c 143e 5400 0a3f
00000390: 39bb f5bc 3668 ddbd 2402 4e3f 35b8 c73e
000003a0: 013c 88bd d905 493d 6bf3 d93d 680b c13e
000003b0: 0bef 6ebd df3d 023f 3a21 a73e 7451 ccbe
000003c0: 40a8 3a3d 8a24 8dbe eba5 073f 4a11 b5bf
000003d0: df17 763d 2131 cfbd a9ab 80bf be62 113e
000003e0: 2ee2 4a3f 1dbd 5c3e e750 6b3c 7427 15bf
000003f0: b5ff 7fbe 0800 5c3e 6b3b 42bd 6452 8cbd
-0.25181478 -0.0009925934 0.10644635 0.13133626 -0.30098408 0.10043443 0.014099925 -0.44720066
-0.0748422 0.19890362 0.3128764 -0.6746971 -0.16413204 -0.31741413 -0.28801337 0.25318307
-0.063780166 0.09572257 -0.13235593 -0.2174772 -0.039174996 0.16310507 -0.43985933 0.3770303
1.3190657 -0.10402681 0.12245186 -0.029670294 -0.8113245 -0.042261243 0.09681527 -0.14869748
0.20100056 0.1673274 0.038188286 0.06390822 0.46607628 -0.111778185 0.047736354 -0.030820325
0.22790416 -1.0345459 -0.05813737 0.014320446 -0.7646343 0.12553887 0.09336651 -0.16700318
0.09367017 0.022328723 -0.16460761 0.103113994 -0.5526127 -0.19053794 -0.6906525 -0.6170895
-0.04800374 -0.07877843 0.004831664 -0.15353367 0.15606585 -0.4410387 -0.10781794 0.13609673
0.34280545 -0.16720527 -0.3654773 0.3573342 -0.01874746 0.50989145 0.2548701 0.16615619
-0.007684307 -0.19920348 0.1457523 0.8282305 1.0908428 0.1351976 0.20393388 0.09266985
0.21302556 -0.011029553 0.0463185 0.22579221 -0.032934066 0.080384836 -0.0825957 -0.5653911
-0.56770235 -0.01717104 0.004531578 0.7879987 0.07420629 -0.35009927 0.31799096 0.5603178
-0.8000854 0.28767195 -0.05832387 0.35386798 -0.32753843 0.44275573 -0.3448688 -0.13629757
-0.20213954 0.30545384 0.28758264 -0.7270356 -0.0034172926 0.11593479 0.12791312 -0.74771976
-0.17107135 -0.13914277 -0.08608499 -0.055063434 -0.6936788 0.9417202 0.6212274 -0.30422038
0.15156454 -0.059063155 0.44706845 -0.05899894 0.25995165 -0.55582994 0.3676024 0.55720305
-0.021899434 -0.5820008 -0.030479232 0.050797172 0.09117672 -0.14615002 0.008487648 -0.196686
0.039001364 0.14170544 0.21171324 0.08108013 -0.23832807 0.14607047 -0.005631705 0.5863717
-0.0034224407 -0.0686926 -0.39519063 -0.14260831 -0.032925714 0.87188 0.23480304 0.0633049
0.05152692 -0.034812838 -0.5505763 -0.07974177 -0.054334436 0.06358834 -0.8731752 0.29684564
-0.11433347 -0.0649542 0.043922424 0.2031099 -0.48065034 0.11303077 0.13458744 0.12974179
-0.39785963 -0.06442114 0.027978646 0.045870677 0.3010546 0.12745108 0.18563305 0.0713306
-0.25278723 -0.18211113 0.14237541 0.09816526 -0.31847316 0.2871113 0.08940123 -0.063105546
0.18343523 -0.24636444 -0.019639099 -0.022503054 -0.094040714 0.10482037 0.044813804 -0.085553125
0.08823439 0.20930712 -0.034213196 -0.23130554 -0.06477894 -0.5355346 -0.20204069 -0.08179601
0.01718831 0.16837192 -0.84776175 -0.19847584 -0.2682084 0.40005496 0.03970112 0.03526578
-0.010236896 -0.18496884 -0.1177417 -0.12558816 0.026467448 -0.20215791 0.2813424 0.13527325
0.19368157 0.02348712 -0.19506498 0.071204774 0.16154803 0.45583698 -0.34774348 -0.005108309
0.35824865 -0.034679282 0.14494647 0.5390675 -0.029996501 -0.10810892 0.80472016 0.39007726
-0.0665207 0.049077842 0.106421314 0.37704015 -0.058333438 0.5087566 0.32642537 -0.39905894
0.045570612 -0.2756694 0.52987546 -1.4145901 0.06008136 -0.101167925 -1.0052387 0.14197823
0.7925137 0.21556516 0.01436255 -0.58263326 -0.24999888 0.21484387 -0.047419947 -0.06851652

critic.2.bias f4 [64]
00000000: d45d 983d 2964 8cbe 1817 033e b1bd b63d
00000010: da7c c9bd 66c1 52be ef56 06be 6fad 083e
00000020: f606 813e 53d6 f2bd 9bf0 bdbe 8c2a 993e
00000030: af4f 873e 43a8 1c3b 90d9 9b3d 1a62 11be
00000040: 8f09 6ebe c3f1 1d3f 2eb6 88be 9231 2f3d
00000050: 4797 9e3e 5f46 c83e ad99 0fbd 6d95 04bd
00000060: 5a73 e23e 6e3e c3be de77 493d 3a6f 5bbe
00000070: 00f4 1e3e 870c c93c ef34 de3c 6367 373e
00000080: 62a7 cdbe 8ed3 9ebe 367c 40be f327 a7be
00000090: 61e6 eebe 306e bdbe 4e83 633e a27b b03e
000000a0: 8423 bbbe 9fc6 e0bd 127c d5bd 9aba bebe
000000b0: e21b ebbe 5361 293d 898a 413c 25c8 1b3e
000000c0: 57b2 473e b1f3 983e a8ce 313e 87cb bfbe
000000d0: 4a5d 3a3f c615 68bd 6883 dfbd 02ac 9dba
000000e0: ffe5 2d3e ba2b 15be 223e 803e fb76 833e
000000f0: dd63 463e 824c 6d3d b6a4 24be baaa a3be
0.07439771 -0.27420166 0.12801778 0.089228995 -0.09838267 -0.20581588 -0.131191 0.1334741
0.25200623 -0.11857285 -0.3709763 0.29915273 0.2642798 0.0023904003 0.07609856 -0.14197579
-0.23245834 0.61697024 -0.26701492 0.042771883 0.3097479 0.3911619 -0.035058666 -0.032369066
0.4422863 -0.38133568 0.04918658 -0.21429148 0.15522766 0.024542106 0.02712485 0.17910533
-0.40166765 -0.31020778 -0.18797383 -0.32647666 -0.4666014 -0.3699813 0.22218058 0.34469324
-0.36550534 -0.10975384 -0.10424055 -0.3725174 -0.4591971 0.04135258 0.0118128145 0.15213068
0.19501625 0.29873422 0.1736399 -0.37459967 0.727986 -0.05666139 -0.10913736 -0.0012029412
0.16982268 -0.14567462 0.25047404 0.25676712 0.19374032 0.05793429 -0.16078457 -0.31966192

critic.4.weight f4 [1, 64]
00000000: 74c6 bb3e d0b7 64be bb5d aa3e c200 c1be
00000010: c2b6 68be cf57 133f d072 6bbf 97ac 453e
00000020: 7960 363e be60 97be c021 36be e23a f53e
00000030: e702 7f3e 147d 80be 3df0 c33e a4df 873e
00000040: 8e58 8bbe 877a f13f 8d7c a9be f006 a63e
00000050: 14fe 873e 7d0d 893e c303 963e f579 58be
00000060: 9e42 a93e 6680 90be f30d e7bf fe33 b9be
00000070: 7c53 1cbf 21f4 ad3e 2903 debe cedd f33e
00000080: d77b bebe c4b6 98be d16c 4ebf b564 dbbe
00000090: 5ccd 82be eb81 babe 4681 933e 1b48 8c3e
000000a0: e637 a4be 826f 2cbe 490d 54be b56b d2be
000000b0: 4828 52bf 7621 653e a474 40bf fcb7 963e
000000c0: 5eec 9c3e 9b9a cd3e 91aa ae3e 4d56 57be
000000d0: 4415 4b3f 8240 cbbe ad55 21be 4c73 86be
000000e0: ba61 3c3e 59aa 23be 2f42 ce3e 5791 3d3e
000000f0: 3040 a73e 26ac 0d3f 1e64 a8be c423 97be
0.36674845 -0.22335744 0.33274636 -0.3769589 -0.22725967 0.5755586 -0.91972065 0.19304119
0.17810239 -0.29565996 -0.17786312 0.47896487 0.24903451 -0.25095427 0.38269225 0.26537812
-0.27216 1.8865517 -0.33102837 0.32427168 0.26561034 0.26768103 0.29299745 -0.21140273
0.33058637 -0.2822296 -1.8051132 -0.3617248 -0.6106489 0.33975318 -0.43361786 0.4763016
-0.37203857 -0.2982694 -0.8063479 -0.4285027 -0.25547302 -0.36427245 0.28809565 0.27398762
-0.32073897 -0.16839412 -0.20708193 -0.410978 -0.82092714 0.22376046 -0.7517798 0.29437244
0.30649084 0.40157017 0.34114507 -0.21029015 0.79329324 -0.39697653 -0.15755339 -0.2625984
0.18396655 -0.15982951 0.4028487 0.18512474 0.3266616 0.553408 -0.32888883 -0.29519475

actor.0.weight f4 [128, 19]
00000000: 29a4 d3be c8e1 763e 3e15 5d3d 9db1 b03d
00000010: e6ed aebd 434d cf3e 1be5 d43e 8060 9ebe
00000020: f289 563f a985 bdbe 3f35 04bf 9293 26bc
00000030: a225 91be fb71 95bd e9e2 9ebe b618 bcb9
00000040: 4c8d f63d f6f2 613e 1fa3 10bf 532b bc3e
00000050: 5455 2f3e 628f 693e f086 19be 9f8f 833f
00000060: 7ab6 0cbf 1a8a 6c3e 8499 2dbe c816 153e
00000070: 94dc 7c3f 1e0e 133e 1025 debd 85de a63e
00000080: e6dc 00bf eb0a 5c3e 5ba8 a83e 9ff4 9fbe
00000090: 130e 443f 13a8 b83e 207b b0bd ce5b 3dbe
000000a0: bde3 9fbe f2e3 b23e f077 983e a3f6 8cbf
000000b0: 1fe3 9abd 250e 993d ddb3 d03e 4626 3cbf
000000c0: c56b 843d 0831 98bc 59d0 d63d 367b c1be
000000d0: 90a6 1c3e efff b53e ed81 e0be e145 533e
000000e0: 4a76 993c dc76 c13d 7d9b c3bd ee42 e3be
000000f0: 29bd 3b3d 62cb 8c3f da8f 8f3f 8e03 04bc
00000100: 946d c83e 2679 84be bdd4 103e df59 0b3f
00000110: b423 c1be a75b 083d 7b54 8f3e fcd6 ee3e
00000120: ccbe 67be 52ef 363d e42c 24be 15f8 803d
00000130: e1ff 163e ba3e ecbd 34d2 96be c348 bebd
00000140: 2018 2fc0 d40a eb3e 5f5e 353d 41f6 91bc
00000150: aa17 96b8 8ba3 d1be 9ca0 063d e5d1 1dbe
00000160: de3c 5f3d 2ce3 93bc 1202 b83c 62c9 30be
00000170: 3b81 013e 0936 cb3c cbb3 e63d 0cc3 81be
00000180: 2240 953e 5b9d 25be ee26 87be 1f3d 823c
00000190: 13bc dcbf 770f 593c e201 843c 3dc2 953f
000001a0: 9705 0dbe b0ce c9be 3e24 353f 8c3d 43bf
000001b0: 925b bf3b dba7 26bf 2ffc 5d3d f203 32bf
000001c0: 75b5 0d3f ba63 94bc 9a50 713d 384b c13e
000001d0: 67f0 36be 957e 793e a03d 2abf 1ed2 c43e
000001e0: 7add bf3e 7f92 ffbe 9c1a d9be dc7e 53bf
000001f0: 701f a0be 5218 923e ffe6 983d b6c8 c5bb
00000200: e44e a1bd 5e66 d139 e4cc a4bd 36b1 fb3e
00000210: 051f bc3d bfba 5a3c 1089 1fbd 924f ab3e
00000220: 6fc9 a53e 7bbb 203e d894 de3f 71b4 0dbe
00000230: 0101 633c d04e cf3e 82b3 463e 050c 2c3d
00000240: 53fe 7a3e ebe0 24be a188 d43e 494f 6abe
00000250: 2305 22be 0377 dabe 8f75 303f 1120 19bd
00000260: 4007 5a3e fe27 c83c b1b6 e73e dbfc 9ebe
00000270: 9886 1dbe 8cb6 b33f bfeb 79bb 1f3d d73c
00000280: ccea 533f 847d 04be 049d 96bc 92d6 423e
00000290: 65c8 20bd 25e2 82bd 84f6 b73e 46cf 7ebe
000002a0: eba2 103d f2d7 6b3e 1072 d5bc 635e 17be
000002b0: 2609 eabe bcbd 13be 92e8 2a3c 3c71 803f
000002c0: a885 2abd 08c0 e23e 3fbc c5bd 62ef 733e
000002d0: fd17 063f 8e96 bb3e 32e8 91bf 71c0 743e
000002e0: d084 02bf 43b5 363e 2268 94be fab4 273e
000002f0: 195c 34bf 35fb 3ebc a182 8cbe 1c86 de3e
00000300: 71f5 ebbc f84e 9a3d 6e2e 863f 5d2f ea3d
00000310: 6dff a1bd a0a1 89be 7068 9e3f a1d0 14bf
00000320: 7d48 063f d385 29bf 438a 8c3e 71da 573f
00000330: 4744 59bf 594d 13bd 2e0f dabd 902e b0be
00000340: ced7 ac3e 4796 cdbe 8e01 25be b528 bc3e
00000350: 2273 13bd 56aa 9e3e b838 203e 9f6b 573e
00000360: 8519 70be 7384 33bf 08c4 a6bd 323e bbbe
00000370: 6602 9c3e cac0 30be 3a2b debd 54e0 88be
00000380: d182 6bbe 36dd 0a3f caa4 f4be 3bd0 e6be
00000390: 93e2 adbe 8ffc 1ebf 54e0 343d a2ef 91bc
000003a0: f916 883c 878e f93e 4c09 8d3e e404 263f
000003b0: 9965 2d3e 359e 223f 5e02 b4bd 5b1d ec3b
000003c0: 3674 4cbe aba8 d13d 15f4 28bd d9ff a2be
000003d0: 6862 23bd 0c05 c8bc 7c55 1ebe 65ae 7abd
000003e0: 0e37 9c3e 95d2 053d a898 dfbe 14fd acbe
000003f0: c818 70be 988c a13e f54f 0d3f 8d81 8c3d
-0.41336182 0.24109566 0.053975336 0.08627627 -0.08541469 0.40488634 0.41581044 -0.30933
0.8380424 -0.37016037 -0.5164375 -0.010167019 -0.28349024 -0.07297131 -0.31032494 -0.00035876565
0.12038669 0.22065338 -0.56498903 0.36751804 0.17122394 0.22808602 -0.14992881 1.0278205
-0.5496594 0.23099557 -0.16953093 0.14559472 0.98774076 0.14360854 -0.10846913 0.32591644
-0.50337064 0.2148854 0.32940945 -0.3124132 0.76583976 0.3606573 -0.08617234 -0.18492052
-0.31228438 0.34939533 0.29779005 -1.1012768 -0.07562851 0.07473401 0.40762225 -0.734959
0.06465868 -0.018578067 0.10488958 -0.37789315 0.15297914 0.35546824 -0.43849126 0.20632125
0.018733162 0.09446499 -0.095511414 -0.44387 0.045834694 1.0999568 1.1215775 -0.008057488
0.391461 -0.2587368 0.14143653 0.5443401 -0.37722552 0.03329053 0.2799414 0.46648395
-0.22631377 0.044661827 -0.1603275 0.06297318 0.14746048 -0.11535402 -0.29457247 -0.09291222
-2.7358475 0.459067 0.044279452 -0.017817618 -7.156965e-05 -0.40945086 0.032868013 -0.154121
0.054501407 -0.01805266 0.022461925 -0.17264321 0.12646954 0.02480604 0.112647615 -0.2534412
0.29150492 -0.16173308 -0.26396888 0.015898285 -1.7244896 0.013248316 0.016114179 1.1699902
-0.13771664 -0.39415503 0.70758426 -0.7626579 0.0058397735 -0.6509988 0.05419558 -0.6953727
0.55355006 -0.01811396 0.05891476 0.377527 -0.17865144 0.24364693 -0.6650028 0.38441557
0.3747366 -0.49916455 -0.42403114 -0.8261545 -0.31273985 0.2853418 0.07465934 -0.0060358895
-0.07876375 0.00039939856 -0.08046892 0.4915864 0.09185604 0.013350188 -0.038949072 0.33459145
0.32380244 0.15696518 1.7389174 -0.13838364 0.01385522 0.40489817 0.19404414 0.04200365
0.2451108 -0.16101424 0.4151049 -0.22881807 -0.15822272 -0.42668924 0.6892938 -0.037384097
0.21291828 0.024433132 0.4525657 -0.31052288 -0.15383375 1.4040084 -0.00381349 0.026274262
0.82780147 -0.12938505 -0.018385418 0.19027165 -0.03925361 -0.0639079 0.35930264 -0.24883756
0.03531162 0.23031595 -0.026055366 -0.147821 -0.45710105 -0.14427847 0.010431426 1.0034556
-0.04163137 0.44287133 -0.09655046 0.23821786 0.52380353 0.36638302 -1.1398985 0.23901536
-0.50983906 0.17842583 -0.28985697 0.16377631 -0.7045303 -0.011656572 -0.27443412 0.43461692
-0.028803559 0.07534593 1.0482919 0.11434815 -0.07910047 -0.26881123 1.2375622 -0.5813084
0.5245436 -0.66219825 0.27449235 0.8431769 -0.8486981 -0.035962436 -0.106474265 -0.34410524
0.33758396 -0.40153715 -0.16113874 0.36749807 -0.03599847 0.3098933 0.15646636 0.21037148
-0.23447235 -0.70123976 -0.08142859 -0.3657089 0.3047058 -0.17261043 -0.108480886 -0.2673365
-0.22999121 0.5424379 -0.47781974 -0.45080742 -0.33961925 -0.62104124 0.04415925 -0.017814461
0.016612517 0.48741552 0.27546155 0.6485121 0.16933288 0.63522655 -0.08789514 0.007205648
-0.19966206 0.10237249 -0.0412484 -0.3183582 -0.03988877 -0.024416469 -0.15462297 -0.06120147
0.30510753 0.03267153 -0.43671155 -0.33786833 -0.23446953 0.31552577 0.5520013 0.06860647

actor.0.bias f4 [128]
00000000: faef 8cbe 75f7 3b3e b3b8 0cbb 6328 8b3d
00000010: 50d4 b33d 2f59 20be efee c53a 9de8 0b3d
00000020: 534a 4e3d c828 69be a2de 60bd 89a8 43be
00000030: b9a8 88bd ff1c 8abd a238 703d 40da cc3e
00000040: 606c 61bd 7d4f 913d 683d b13d 46a9 b4bd
00000050: 022b 5fbc 4406 ba3c f266 9f3e 351f 5f3e
00000060: c00c 2cba 2721 23be ceb6 72be 8fd4 26be
00000070: c1b5 843c bee7 09be c560 5c3c ea39 7d3c
00000080: e89a bcbd 84c1 8dbe 82bc eabd 8919 79be
00000090: 7ec6 cf3d 4dbe 16be 369b 363e 332f d43d
000000a0: a2c3 d5bd bcac 0fbd 3573 b7bd 0aa5 a9bd
000000b0: 5564 cfbd cf38 a9bd 37f3 ae3e 4cbb cabd
000000c0: 6d14 923e 7f92 dc3b 0f8d 1ebe 3fd3 5cbe
000000d0: 2076 133d ab61 1b3e c820 763d 144b 6fbe
000000e0: 1088 8cbe 6507 adbe bcfd aabd dcd3 883e
000000f0: 7aa9 af3d ac71 ff3d 8b8f 0bba 850b 9f3d
00000100: 5f1b 763c 9c28 fc3d bd54 a5be 8dc8 06bd
00000110: 320e 4c3c aee4 8a3e c9fb 263e fe71 2f3e
00000120: 837e 093e af24 593d 9d3f 78bd 9861 5fbd
00000130: f4f2 fa3d 528f e23d 0d3f debd 00b7 363d
00000140: 3003 a63d 2fd4 d6bc cf14 313e bfa7 42be
00000150: f51e 21bc ec05 a8bd 0e90 8ebe 6f01 78bd
00000160: b4b0 473e c838 f13d 269e 683d 8e62 863e
00000170: eb93 44bc 4bb1 1c3e e383 3c3e e977 873e
00000180: 283c 313e a9a0 023e 3e76 9e3e 79fa 663e
00000190: 383c 763e d076 b2bd 41df 5f3d ec8b 84bd
000001a0: 2890 34be 1327 8ebe 290b 9bbd c7ce 6f3c
000001b0: 09bf 72bc e201 80be d112 033c e329 3cbe
000001c0: 33cd ccbd 128e b33c 403e 523c dea6 143e
000001d0: f670 843d a904 0bbe f608 f03d db88 17bd
000001e0: 8fe1 a7bd 86af 0a3e 2815 123e 9364 29be
000001f0: fc5d 69bd e3df b53c 3217 ecbc cdf1 adbe
-0.27526838 0.18356116 -0.0021472394 0.067948125 0.0878073 -0.15659021 0.0015101115 0.034157384
0.05036385 -0.22769463 -0.05489982 -0.1910726 -0.06672806 -0.06743812 0.05864776 0.40010262
-0.055034995 0.07095239 0.086542904 -0.08821349 -0.013621094 0.022708066 0.3113323 0.21789248
-0.0006563179 -0.15930615 -0.23702547 -0.16292022 0.016199948 -0.13467309 0.013450806 0.015455702
-0.092092335 -0.27686703 -0.11461736 -0.24326147 0.10145281 -0.14721031 0.17832646 0.10360565
-0.104377046 -0.03507684 -0.08957521 -0.08283432 -0.10126559 -0.082627885 0.34169933 -0.09899005
0.2853121 0.006731331 -0.15483497 -0.21564959 0.036001325 0.15173976 0.060089856 -0.23368484
-0.27447557 -0.33794704 -0.08349177 0.26724136 0.08577247 0.12472853 -0.0005323819 0.07765869
0.015021174 0.12312433 -0.32291213 -0.032906104 0.012454556 0.27127594 0.16306986 0.17133328
0.13427167 0.0530135 -0.06060754 -0.054536432 0.12253371 0.110624924 -0.1085187 0.044608116
0.08106077 -0.026224224 0.17293094 -0.19009303 -0.009834041 -0.082042545 -0.2784428 -0.060548242
0.19501 0.11778408 0.056791447 0.26247066 -0.011998157 0.15302007 0.18409686 0.26458672
0.17308104 0.127566 0.30949587 0.22556485 0.24046409 -0.08714068 0.05465627 -0.064720005
-0.17633116 -0.27764186 -0.07570488 0.014636702 -0.014816054 -0.25001436 0.008000092 -0.18375354
-0.10000076 0.02191833 0.012832224 0.1451678 0.06466858 -0.13575996 0.11720459 -0.03699575
-0.08197319 0.1354352 0.14265883 -0.16542272 -0.056974396 0.022201484 -0.028819654 -0.33973542

actor.2.weight f4 [64, 128]
00000000: cc9d d03d 2368 813e b8a8 debe 63ef e13d
00000010: 0ad9 54be ea98 f13e 5c1f 57be c510 193d
00000020: 7f8b 543e 81c7 f83d a343 acbd 111a 4b3d
00000030: 47f5 853c 70a3 453d feb9 f03d c1ea 93be
00000040: efdb d73d dcce 0cbe 3ea7 81bf 7fa3 babe
00000050: a855 b4be 9cb3 03be 323c ba3d edf9 bcbd
00000060: 01d4 c3bd e7b7 c0bb 1808 433e f703 f13e
00000070: 9bf9 8cbe 1521 073f 5a0f 0a3d c3ba 1f3f
00000080: 0c6b 1d3f 3e6a 37bf de02 5e3e 3991 223e
00000090: 0c57 68be 4815 a6bd fd9e 163d fa4e d93e
000000a0: 36a4 8d3c 5984 acbd a590 df3e 4ee3 7cbe
000000b0: 9c28 61bd 0494 303f 04d3 c2be de45 0f3e
000000c0: 8244 163d 8aa2 b53e 8367 9d3d 55fc 2a3e
000000d0: 7a02 27be 9983 043e b7b9 0abf c458 2fbe
000000e0: 7e4c 97be 482f ac3e b57a aebd 5865 94bd
000000f0: 2888 03be 54ef a5bd 762e d9be 15ac fabd
00000100: 80ab 01bf dc3f a33c d86d c73e 5041 d1be
00000110: aa56 15bf 5e81 ab3e a0ad 1cbe 9f50 8bbd
00000120: 229a 71be c5cc 43be ae3c 63be 3d81 a23d
00000130: 594e 53bd cb4a 793e 475c db3d 7133 30be
00000140: 2cfd 28be 7fb5 9ebd 5d06 fabe 7ac1 e8bd
00000150: 3836 19be 1bfa 46be 28ed 56be 6df1 b83d
00000160: efae ddbc c07c 3a3e 8d13 7a3e 9dab 14bd
00000170: 3c43 eebe 3dc1 233e 6f80 6c3d cfca 7cbe
00000180: 2577 94be b9cd 063e 3c8d 8a3e 6a52 8dbd
00000190: 37b2 fabe bdce 10bf e3dd 77bc debf a53e
000001a0: 5dde 7f3e 72d3 9b3e 65c3 bcbd fc70 ebbd
000001b0: 9827 c93d 1003 1f3f 565b f0bd 2b89 7a3e
000001c0: add6 53be 62b4 d4bd 222c dc3e f568 d0be
000001d0: c036 c13d 8771 19bd 6660 21bd 94c3 96be
000001e0: a815 87be cf1f d13d c5ae 7b3d 3895 653d
000001f0: 75a3 4a3e 1e94 0cbe 63bb 3f3e f7d5 4e3f
00000200: 7789 0cbf acc9 b73e e102 2bbe b119 b33d
00000210: 7ead bd3e 85b0 b2be 5526 af3e 515d 363f
00000220: b214 dabe e364 493c 1dce b3be 6cce 56bf
00000230: a9cd 1bbe 58f8 263e da1c ba3e 114d 4d3e
00000240: e015 1ebf daf1 a73e cb3d 2fbe 3584 13be
00000250: 4551 823e f48e 4cbe fdb4 033e a24e d0bc
00000260: 5ed2 813e cf5e 92be 68e6 33bc df80 a7bc
00000270: 22f9 f3be d9ba 01be 3261 063e 5559 bc3d
00000280: e280 e2be a01c fdbc 0a01 50bf 94e9 bfbe
00000290: 2521 b2bd d6c1 0dbf e369 cebd 0c85 87be
000002a0: 252f 0cbd d290 913e 7f55 383b e8b3 a0be
000002b0: a9cf b7be 1931 c83d c3a2 083d da37 31be
000002c0: 33c6 c4bc 4d60 06be 0f4a 48be 9e01 ba3e
000002d0: d9b3 3e3c 55fd 1a3f 3777 363e f4a5 adbe
000002e0: bd4e ffbe 955e e2be 31bb a3be f6ef afbd
000002f0: fac5 93be f0f6 6e3d c01a 513d 2562 923e
00000300: 9f32 8abe 25d0 fb3e 4b60 26be 1518 a23e
00000310: 22b1 b7be 6895 313d 5be9 bf3b 2555 993e
00000320: 5a63 d23e 31ce e13e 5f4e e2be 8e0d 183c
00000330: 6449 a33d 8862 893d 9e80 8fbe d985 fabe
00000340: d0f1 1abc 7d6f 7f3e 4139 753e 0fe0 443e
00000350: cb05 6e3f b264 133d 4723 31bf d6cd 61be
00000360: 4000 693d cdb3 99bd 64c4 b6bd 0b71 a2be
00000370: bc24 163f 751c a23e e8a8 083e d571 bebd
00000380: a1c1 a3bd 0d66 b8bd 8b19 60bd 31e2 bb3e
00000390: 3447 07be 389d 0abf 9ca1 4b3d 7751 eabe
000003a0: 240e 9d3e 4f90 ae3d 05d5 8ebe 4dd3 0a3e
000003b0: 0a9f 5d3e 0b3e 9abb 408c bfbd 1418 50be
000003c0: 02c6 013e 23b5 503e b58f c2be 3853 023f
000003d0: 2033 893e 2e3c 55be cfbb eabd aa73 09bd
000003e0: 74b0 56be 1984 b73e 87b5 adbe cd4b 8bbe
000003f0: 80c0 4f3e 7154 09be f1dd 033f 2b86 2f3e
0.10186347 0.25274763 -0.43488097 0.110319875 -0.20785919 0.47186977 -0.21008056 0.03736951
0.20756339 0.12147427 -0.08411338 0.049585406 0.016352309 0.04825157 0.11754225 -0.2889004
0.10539996 -0.13750786 -1.0129163 -0.36452863 -0.352216 -0.12861484 0.090935126 -0.09227357
-0.09561921 -0.005881298 0.19046056 0.47073337 -0.27534184 0.52784854 0.033706047 0.6239435
0.61491466 -0.7164649 0.21680781 0.1587571 -0.22689456 -0.08109528 0.036772717 0.42443067
0.017290216 -0.08423681 0.43665043 -0.24696085 -0.05497037 0.68975854 -0.38051617 0.13991496
0.036686428 0.3547557 0.07685759 0.1669782 -0.16309538 0.12940826 -0.5418963 -0.17123705
-0.29550546 0.33629823 -0.08519498 -0.07245892 -0.12844908 -0.08102289 -0.4241826 -0.12239853
-0.50652313 0.019927911 0.38950992 -0.40870142 -0.58335364 0.33497137 -0.15300608 -0.06802487
-0.23593953 -0.19121082 -0.22191116 0.079348065 -0.05158839 0.24344938 0.1071096 -0.17207123
-0.16502827 -0.077494614 -0.4883298 -0.11365028 -0.14962089 -0.19431345 -0.20988905 0.09030423
-0.027060954 0.18211651 0.2442152 -0.036296476 -0.4653567 0.15991683 0.05773967 -0.2468674
-0.2899715 0.13164414 0.27060878 -0.06900485 -0.48964092 -0.5656546 -0.0151285855 0.32372946
0.24987169 0.30434757 -0.09216956 -0.114961594 0.09822005 0.6211405 -0.11736171 0.24466388
-0.20687361 -0.10385968 0.4300242 -0.40705076 0.09434271 -0.037461784 -0.039398573 -0.2944609
-0.2638371 0.10211145 0.06144597 0.05605051 0.19788916 -0.13728377 0.18723826 0.80795234
-0.54897255 0.3589605 -0.16700317 0.087451346 0.37046427 -0.349003 0.34208933 0.7123614
-0.42593914 0.01229212 -0.3511819 -0.83908725 -0.15215172 0.16305673 0.36350137 0.2004893
-0.6175213 0.32801706 -0.17113416 -0.14405902 0.2545263 -0.19976407 0.1286201 -0.02542812
0.2535581 -0.28587958 -0.010980226 -0.020447193 -0.4765101 -0.12668933 0.13123015 0.09196726
-0.44238955 -0.030897439 -0.81251585 -0.37482893 -0.08697728 -0.55373895 -0.1007879 -0.26468694
-0.034224648 0.28430802 0.0028127132 -0.31387258 -0.3590062 0.0977499 0.033358347 -0.17306462
-0.02402029 -0.13122673 -0.19559501 0.3632936 0.011639559 0.60542804 0.17818914 -0.33915675
-0.4986476 -0.44212785 -0.31978753 -0.08590691 -0.28861982 0.058340967 0.0510509 0.28590503
-0.26991746 0.4918224 -0.1624767 0.31658998 -0.3587733 0.043355376 0.0058566756 0.29947773
0.41091424 0.44102624 -0.44200417 0.009280575 0.079729825 0.067082465 -0.28027815 -0.48930243
-0.009457067 0.24944873 0.23947622 0.19226097 0.9297759 0.035984702 -0.69194454 -0.22051176
0.056885004 -0.075049974 -0.08924177 -0.3172687 0.586498 0.31662336 0.13345683 -0.092990555
-0.07995916 -0.0900384 -0.05471186 0.36696008 -0.13210756 -0.54146147 0.04971467 -0.45765278
0.3067485 0.085236184 -0.27896896 0.13557167 0.216427 -0.004707103 -0.093529224 -0.20321685
0.1267319 0.20381598 -0.38000265 0.5090823 0.26796818 -0.20823738 -0.11461603 -0.03355757
-0.20965749 0.3584297 -0.33927557 -0.2720627 0.20288277 -0.13411118 0.5151053 0.17141025

actor.2.bias f4 [64]
00000000: 8084 a2bd 9531 133e 1203 c0be faf1 cb3d
00000010: daf2 173f 3acb 62bd 64d0 40be db2a e2be
00000020: f40d 31be 6f99 a4bd b3ad 05bd ec02 67bd
00000030: a968 9bbc 4d65 8a3e 894f 88bc 1caa 17be
00000040: e1d2 6fbe d3df 373e b841 e1bc 98f2 adbd
00000050: 93bd 6bbd 4d75 9fbc af62 38bd aad3 eebd
00000060: c250 223e a42e 8ebe 885e bf3e a5a3 01be
00000070: ee92 86bd 6e21 52be 2a68 e5be f73b 56be
00000080: d159 55bd 340e b53e 84c3 cd3d c881 963e
00000090: cf08 5c3e 27ac 5cbe 06a6 423c 9d43 cbbe
000000a0: 367e 44bc 774d ffbd 2380 963b fffd 9e3e
000000b0: 5b84 f1bc 1c6a 99bd 9591 ff3d b46a 513e
000000c0: a20c 5fbe ffdc e93d b092 593e 4808 7ebe
000000d0: 5611 d8bd 7c2f bfbd 76b5 b3bd e0e2 5ebe
000000e0: 9e87 6b3d 485a 0e3e d1dc 3abe 3395 493e
000000f0: 66b5 86bd 67db 8bbd 79f1 4dbd dc2d e93d
-0.079354286 0.14374383 -0.37502342 0.09958263 0.5935494 -0.055369593 -0.18829495 -0.4417332
-0.17290479 -0.08037078 -0.032636356 -0.05639927 -0.018970804 0.2703041 -0.016639488 -0.14810985
-0.23420288 0.17956476 -0.027497157 -0.08493537 -0.05755384 -0.019465113 -0.045015987 -0.116614655
0.15851119 -0.2776996 0.3737681 -0.12660082 -0.06570993 -0.20520565 -0.44806033 -0.20921312
-0.05208761 0.353624 0.10047057 0.2939589 0.21487735 -0.21550046 0.011880403 -0.39700022
-0.011992982 -0.12465947 0.004592912 0.3105316 -0.029482057 -0.07490942 0.124789394 0.2045086
-0.21782163 0.11419105 0.21247363 -0.24807847 -0.105501816 -0.09335229 -0.08774845 -0.21766233
0.05750238 0.13901627 -0.18248297 0.19685821 -0.06577568 -0.06828957 -0.050279114 0.113857

actor.4.weight f4 [12, 64]
00000000: d696 f3bd b69f 5ebe 80d9 38bf 04a1 513b
00000010: 9f11 7ebe 165b 91bc 5a52 ccbe cbfe 4cbe
00000020: e669 bf3d 9274 98bc 2b5e 0abd 1e89 d4bc
00000030: a737 ef3c f576 963d 5f67 ddbd c514 a6bd
00000040: a407 383e 182b 2ebe 3b4d 523d db36 31be
00000050: 49a1 a73d 09f3 983c 58cc 0e3d bcd1 f53a
00000060: 1c09 dc3c 1465 44bd 32a5 323e 69b2 5c3d
00000070: 6a20 273e a228 4cbd 374f 50be aa0b 433e
00000080: 7305 a03d cd47 103e 0364 be3d f6d8 ad3e
00000090: 9d2d d8bd 9351 38bd 4d5d 07be 9f8f 7bbe
000000a0: a140 b43d 04d7 533c 9539 19bd 7585 8dbe
000000b0: ced0 8d3d a220 b73d 6327 c6bc 08bf a93d
000000c0: 0461 c5bd a302 99bd a031 e53c d75a 4a3e
000000d0: e689 74ba 6012 9dbe 2fb2 ae3d 8b4d 853e
000000e0: d0b9 48be 60ca bc3d 5f81 d2bc 3d9e 193e
000000f0: ed07 133d ef06 a73d 6d9c 1cbe 6036 223d
00000100: 901f 84be ae16 2a3e 94ca af3f 0c50 273e
00000110: d40e e0be d87e 3d3f 5447 40bf f38a 893f
00000120: 7a2a 3d3d a289 86be 01c0 2abe 12b0 b83c
00000130: c5fc f6bb 2017 5bbf 510e d73d 395c 4fbd
00000140: 0773 24bc 5831 dfbd 7918 98be d1bf 083f
00000150: 6915 3dbe 534c bb3d 0fdd c93d 3cad 1f3c
00000160: 637a 0b3f a64d 02bf 6b51 513e d3d1 213e
00000170: a629 29bf 57d5 193d 2e54 54bf dc0f 813e
00000180: 74f4 6fbd 1225 473f 135e 0ebd ec3a 58bf
00000190: 9b01 0ebf 2f9e 93be cc7c e93e 666b 2abf
000001a0: 58f3 60bd 52f4 c33e 88ca 833e 0860 5f3e
000001b0: 4a56 cebe 9662 65be cd3a 52bd d623 243f
000001c0: d495 41be 98e8 a93e 23c6 0cbf dc11 0e3e
000001d0: de66 83be 5a2f 57be 13c9 123e 7947 b2bd
000001e0: 1598 8fbc 772f 13be 923b 193e afb7 16bf
000001f0: adca a83c 514d a2be 3f4b e33d 308e eb3e
00000200: 931c bf3e 803a e23d 8bdc 11bf 34de 25be
00000210: e848 383f f808 35bf aa91 983f 305d 54bf
00000220: 3b9b 44be 0c5f 893e d899 5b3e e617 143c
00000230: 771f 3abd c981 443f 98c4 543c e433 093e
00000240: b4e3 4bbe 547d 953e 1717 643e 15dd a2be
00000250: 3ba8 8c3d a44c e7bd 8b8c f3bd b927 c2bb
00000260: d6e6 0dbf c6c3 0f3f b821 babe e464 60be
00000270: c9ce e33e 92db 543c d138 853f 060d f7be
00000280: 3a16 3fbd ec04 68bf da3b 68bd 8c01 ea3e
00000290: 742e 2b3f 89e7 a43e d1d1 a5be 3a66 6c3f
000002a0: c1da 79bd 0cb4 c8be 8680 3cbe 9e23 db3d
000002b0: 6c4c 943e 3685 d63d 93b1 953d 7afe 36bf
000002c0: a74b 8d3e 1076 71be b889 003f 8409 c2be
000002d0: 0a64 8b3e 32a0 093f eec9 6dbe bf56 71be
000002e0: b733 513e f19a 2a3d fcf8 e1bd 0d0f bc3e
000002f0: ce41 22bd da5f 443e e35e 623d 4886 fcbe
00000300: 79c8 593e 88fc 04bd a52c 9bbd a051 1dbc
00000310: d52e 5f3e 42f0 3b3d 3b94 9e3d 7b8d 01be
00000320: 87cc 98bd 6384 413d b514 7f3d 1182 15be
00000330: 338d cc3d 538e 1fbc 453e efbc 86f4 84bc
00000340: 4cd6 0b3d 5c04 a13d 35ab 303d db73 333d
00000350: 8748 b23d 9414 b1bc 832a bfbd 6886 1cbd
00000360: b158 ad3d 1bb0 b8be 2eb9 64bd e6f6 ec3d
00000370: 1981 74bd 0ffc 823d 9c3c d4bd 0eae 873e
00000380: c013 d5bc d751 6b3d 1447 06be 5ee6 6bbe
00000390: 452d 10be 8961 b53e 3a68 30be 30fe 6a3d
000003a0: afb6 e2bc 87bb 7abc fede 07be b16c 4e3e
000003b0: d1ee 9fbd 9917 8bbc 89ad 10bd f116 a0bc
000003c0: 3579 82bd ee2a 1e3e c79f 803a 6601 b93d
000003d0: 7e73 083e 2807 92bc f17a 093e fa4c adbe
000003e0: 2d35 353d d628 efbb 9d7e b2bd 39f7 25bd
000003f0: 9b80 c53d 29aa c7bd b687 353a 5594 013c
-0.11894004 -0.21740612 -0.7220688 0.0031986842 -0.2481141 -0.017743628 -0.3990658 -0.20019071
0.093463704 -0.018610273 -0.03378121 -0.025944289 0.029201342 0.07346908 -0.10810732 -0.0810943
0.17971665 -0.17008626 0.051343184 -0.17306082 0.081850596 0.018670576 0.034862846 0.0018754522
0.026859812 -0.047947958 0.1744583 0.053881083 0.16320959 -0.049843438 -0.20342718 0.19047418
0.07813539 0.1408989 0.092964195 0.3395459 -0.10555575 -0.04499967 -0.13219185 -0.24566506
0.088013895 0.012929682 -0.03740843 -0.27640882 0.06924592 0.08941771 -0.024188703 0.082883894
-0.09637645 -0.07471206 0.027977765 0.19761215 -0.000932841 -0.30678082 0.085300796 0.26035723
-0.19602132 0.092182875 -0.025696455 0.1500177 0.03589623 0.08155619 -0.15294047 0.039602637
-0.2580533 0.16610214 1.3733697 0.16339129 -0.43761313 0.74021673 -0.7510884 1.0745529
0.046183087 -0.2627688 -0.16674806 0.022544894 -0.0075374567 -0.8558216 0.105007775 -0.05062506
-0.01003719 -0.108980834 -0.2970617 0.5341769 -0.18465199 0.09145417 0.09856617 0.009745892
0.5448362 -0.5089973 0.20441215 0.15802698 -0.66079175 0.037556972 -0.8294095 0.25207412
-0.058582738 0.7779094 -0.034757685 -0.8446491 -0.554712 -0.28831622 0.45603025 -0.66570127
-0.05491957 0.3827234 0.25740457 0.21813977 -0.40300208 -0.22400889 -0.051325608 0.6411718
-0.18904811 0.33185267 -0.5498983 0.13874 -0.2566442 -0.21014157 0.14334516 -0.087050386
-0.017528573 -0.14373575 0.1496413 -0.5887403 0.020604456 -0.31699613 0.110983364 0.46006918
0.37326488 0.11046314 -0.56977147 -0.16198045 0.71986246 -0.7071681 1.1919453 -0.8295469
-0.1919984 0.26830328 0.21445405 0.009038901 -0.045440163 0.76760536 0.012986325 0.13398701
-0.1991108 0.2919718 0.22274433 -0.31809297 0.06868025 -0.11293915 -0.11892041 -0.0059251455
-0.5543035 0.561581 -0.3635385 -0.21913487 0.44493702 0.012991803 1.0407964 -0.48252124
-0.046652056 -0.9063251 -0.056697704 0.45704305 0.66867757 0.32207897 -0.3238664 0.92343485
-0.060999636 -0.39199865 -0.18408403 0.10700153 0.28964555 0.10474627 0.0730926 -0.7148205
0.2759678 -0.23580194 0.5021014 -0.37897885 0.2722476 0.53760064 -0.23221561 -0.23568247
0.20429884 0.04165167 -0.11033818 0.36730233 -0.039613537 0.1917719 0.055266272 -0.49321198
0.2126788 -0.032467395 -0.07576875 -0.00960198 0.21795209 0.045883425 0.077431165 -0.12651627
-0.074608855 0.047245394 0.062275607 -0.14600398 0.09987869 -0.009738523 -0.029204497 -0.01622988
0.034139916 0.078621596 0.043132026 0.04381166 0.0870524 -0.021616258 -0.0933428 -0.038214117
0.08464182 -0.36071858 -0.055840664 0.1157053 -0.05969343 0.063957326 -0.10363123 0.2649998
-0.026010394 0.057451095 -0.13113052 -0.23037097 -0.14079769 0.35425976 -0.1722726 0.05737132
-0.027675001 -0.015303499 -0.13268659 0.2015865 -0.078092225 -0.016979026 -0.035321746 -0.01954219
-0.06370775 0.15446064 0.0009813242 0.0903347 0.13325307 -0.017825678 0.13425805 -0.3384779
0.044240166 -0.007298569 -0.08715556 -0.040518973 0.0964367 -0.09749252 0.00069248246 0.0079089

actor.4.bias f4 [12]
00000000: d5eb fabe 1265 933e 9bc3 8b3e f266 c0bd
00000010: 8a84 693c a389 c63d e469 25be 24d3 163e
00000020: 7b29 1f3d 0a87 ff3c 7068 193e 9e3a 21be
-0.4900805 0.28788048 0.27297673 -0.09394635 0.014252791 0.09694221 -0.16153675 0.14728981
0.03885792 0.031192321 0.14981246 -0.15745017
