Plotting/saliencies_live/Multi_Pong/Sequence_Length_3/multi_pong_3__1__1721978543_checkpoint_912.pt (torch, 91362 bytes, 11 tensors)

critic.0.weight f4 [128, 12]
0.39162755 0.11736424 0.44737935 0.14133783 0.0028182308 -0.04298091 0.3475137 0.047929674
-0.6929539 -0.23279555 0.25756294 0.13047811 -0.07627058 -0.015803607 0.05841641 0.0018077893
0.03590105 -0.004891689 1.1830441 -0.36784273 -0.0020887 -0.021597117 0.5917744 -2.0773215
-0.15261436 0.038057316 0.12071145 0.05255086 -0.055124205 0.038135156 -1.1047382 1.3467546
0.08076542 -0.052121732 0.16021928 -0.12303382 -0.40957534 -0.0056312094 -0.21192813 0.020687262
-0.04536569 0.0027866792 0.34394994 0.1412033 0.53156745 0.0063239676 0.66894877 -0.9107103
0.101238236 0.07770986 -0.013130355 0.03340264 0.13842528 0.05121028 0.3820524 0.3107409
-0.11954125 -0.022039132 -0.7906425 0.72085375 0.101650946 -0.0031305403 0.010079004 0.011257372
0.0012332419 -0.010521887 -0.018198103 -0.0064198026 0.09341228 0.11529128 4.5764804 4.653714
0.014582161 0.060426682 0.17286755 -0.118245274 0.06530797 -0.045983292 -0.12458169 -0.068280034
-0.11636237 0.10478764 1.5040869 0.96117723 0.08254733 -0.09354199 -0.04192182 0.07776054
0.011653871 0.03317258 0.20253342 0.081102535 0.02725927 0.004022178 -2.9967911 -0.34724134
-0.13008954 0.0121710235 0.09560404 -0.0137947425 -0.017727159 -0.10451679 0.36467895 0.0684023
-0.15094534 0.036301143 -0.7110302 -0.4371311 -0.30506417 0.4285232 -0.20198084 -0.44172245
0.15382867 -0.005059642 1.2189184 -0.087021984 0.16760664 -0.007340727 0.64222544 -0.081315376
0.11787482 0.013439358 -0.124768056 -0.008203583 0.01834654 0.05996094 1.0957335 2.2877471
-0.0019336011 0.057086986 0.15526651 2.2937036 -0.064701244 0.008288066 -0.082073614 -0.0008811057
0.23240462 0.21204485 2.2007866 0.5002827 0.01165973 0.0006473742 -0.14823759 -0.10618326
-0.23895952 0.0072807926 0.16365618 0.003980849 -0.1635045 0.025278006 -2.5502512 -0.023558542
0.17075223 0.0008866356 2.687214 -0.1510202 0.006593302 0.0043563303 0.015083163 0.011065115
0.1373612 -0.10503941 2.2372046 -2.6954882 -0.017157366 0.0024685657 -0.51825416 0.08755593
-0.055661917 0.003209853 0.0819171 0.00937434 -0.015297028 -0.010909782 -0.74648017 -1.3441743
-0.0050215153 0.015021032 -0.02067885 2.1182983 -0.07606684 0.0056522335 0.013445786 0.006442898
-0.085143834 0.10488326 -1.6409539 0.56366384 -0.017624864 -0.013229733 0.57496166 0.059914954
-0.21250294 -0.009769287 0.17532288 0.004198909 0.019332351 0.1689791 -0.09634495 0.031175623
0.029900681 -0.15293352 -0.27399334 -0.10723702 0.23674648 -0.0050822473 -0.00057107565 0.0054190806
0.026356328 -0.049414665 0.018379958 -2.093411 0.04337523 -0.052436706 0.4733721 -1.0899534
0.19782148 0.0063640424 -0.054968357 -0.0057536815 -0.029441142 -0.02762099 -2.4877336 -1.029072
0.008329508 -0.034652557 0.14128102 -0.9276653 -0.021039428 0.0024655305 0.11906506 0.014982057
-0.10017018 -0.006363188 -1.1086932 0.25003573 0.16038463 -0.010847789 1.4433968 0.23545863
-0.20433536 -0.12882788 0.059863985 -0.091410056 -0.014340314 -0.13006455 0.38164103 -0.6999633
0.0010756467 -0.012548368 -0.060183298 -0.6864017 -0.02833435 0.011532958 -0.10425 -0.014112767
00000000: 6883 c83e aa5c f03d e80e e53e ddba 103e
00000010: 11b2 383b c00c 30bd 51ed b13e e851 443d
00000020: 6d65 31bf f561 6ebe 4adf 833e 0e9c 053e
00000030: c033 9cbd 9176 81bc 0c46 6f3d 58f3 ec3a
00000040: fb0c 133d 764a a0bb fd6d 973f e255 bcbe
00000050: 92e2 08bb 70ec b0bc 877e 173f d6f2 04c0
00000060: f046 1cbe fde1 1b3d 9137 f73d 923f 573d
00000070: ebc9 61bd 9c33 1c3d 1068 8dbf 7462 ac3f
00000080: 5768 a53d 997d 55bd 8610 243e 28f9 fbbd
00000090: dcb3 d1be 0286 b8bb b003 59be 5578 a93c
000000a0: 60d1 39bd b8a0 363b 351a b03e 9997 103e
000000b0: ce14 083f 4939 cf3b 3a40 2b3f 4f24 69bf
000000c0: fe55 cf3d 5926 9f3d b320 57bc 35d1 083d
000000d0: 5bbf 0d3e dfc1 513d 5f9c c33e 6e19 9f3e
000000e0: 0bd2 f4bd 698b b4bc 8c67 4abf df89 383f
000000f0: 5f2e d03d c029 4dbb 6822 253c d770 383c
00000100: bba4 a13a fe63 2cbc 3014 95bc 355d d2bb
00000110: f04e bf3d d61d ec3d 8772 9240 3aeb 9440
00000120: 04ea 6e3c f881 773d 3104 313e 942a f2bd
00000130: 2fc0 853d fa58 3cbd af24 ffbd 67d6 8bbd
00000140: 654f eebd e79a d63d eb85 c03f b60f 763f
00000150: 930e a93d f192 bfbd 37b6 2bbd eb40 9f3d
00000160: e1ef 3e3c f9df 073d ec64 4f3e 1619 a63d
00000170: d54e df3c 79cc 833b 6dcb 3fc0 9ec9 b1be
00000180: 3136 05be f968 473c 0dcc c33d 5803 62bc
00000190: 8c38 91bc e60c d6bd 33b7 ba3e 8116 8c3d
000001a0: 6a91 1abe 82b0 143d 1306 36bf a6cf dfbe
000001b0: 5f31 9cbe 6567 db3e 11d4 4ebe 7229 e2be
000001c0: 4385 1d3e 5acb a5bb 8505 9c3f 9538 b2bd
000001d0: 13a1 2b3e 7b8a f0bb e368 243f ad88 a6bd
000001e0: 5b68 f13d c130 5c3c 6586 ffbd 5268 06bc
000001f0: 7c4b 963c 9a99 753d ff40 8c3f 736a 1240
00000200: e370 fdba 0bd4 693d 2ffe 1e3e 0acc 1240
00000210: 1682 84bd abca 073c 3616 a8bd 01fa 66ba
00000220: 7afb 6d3e 4922 593e b0d9 0c40 8712 003f
00000230: 7408 3f3c 8cb4 293a 98cb 17be 9c76 d9bd
00000240: ceb1 74be b793 ee3b 7c95 273e c871 823b
00000250: b96d 27be d213 cf3c 5137 23c0 d8fd c0bc
00000260: acd9 2e3e 1c6d 683a 50fb 2b40 0aa5 1abe
00000270: a00c d83b 8cbf 8e3b 5f1f 773c 754a 353c
00000280: 6aa8 0c3e e71e d7bd 5c2e 0f40 e182 2cc0
00000290: 9b8d 8cbc a9c7 213b 4eac 04bf 8650 b33d
000002a0: c0fd 63bd 665c 523b 27c4 a73d d596 193c
000002b0: 63a0 7abc f1be 32bc 5319 3fbf e70d acbf
000002c0: 868b a4bb c61a 763c b166 a9bc 3392 0740
000002d0: eec8 9bbd 5f36 b93b b74b 5c3c f21e d33b
000002e0: e45f aebd 09cd d63d c70a d2bf 464c 103f
000002f0: 0562 90bc 86c1 58bc b030 133f 6269 753d
00000300: 5f9a 59be 5c0f 20bc d787 333e 0097 893b
00000310: e15e 9e3c db08 2d3e 8050 c5bd 0564 ff3c
00000320: 46f2 f43c 9b9a 1cbe db48 8cbe 159f dbbd
00000330: ab6d 723e fb88 a6bb 3db4 15ba 8b92 b13b
00000340: 3ae9 d73c 0867 4abd 9191 963c 72fa 05c0
00000350: 3aaa 313d dfc7 56bd d45d f23e 9883 8bbf
00000360: b791 4a3e 7589 d03b 8026 61bd 6189 bcbb
00000370: 8d2e f1bc 6a45 e2bc 0737 1fc0 a2b8 83bf
00000380: 7d78 083c d7ef 0dbd f9ab 103e 797b 6dbf
00000390: e15a acbc bd94 213b 62d8 f33d 4d77 753c
000003a0: 0626 cdbd 4a82 d0bb a9e9 8dbf af04 803e
000003b0: de3b 243e edba 31bc 3ac1 b83f 111c 713e
000003c0: 4a3d 51be 75eb 03be f033 753d 3235 bbbd
000003d0: a3f3 6abc a42f 05be 7466 c33e cb30 33bf
000003e0: b7fc 8c3a ac97 4dbc c382 76bd 06b8 2fbf
000003f0: 701d e8bc bbf4 3c3c 0681 d5bd 3c39 67bc

critic.0.bias f4 [128]
0.29032916 -0.04792187 0.050528225 -0.14332436 -0.011488174 0.010835346 -0.031126538 0.18449369
-0.04866172 -0.062235806 -0.020990439 0.052985847 -0.09064269 -0.08391724 -0.053212695 -0.004700422
-0.050657928 0.12130361 -0.04820776 -0.054451786 0.0012690919 0.006264208 -0.06168184 -0.205041
-0.051251587 -0.07247264 0.038974408 -0.03278525 -0.15943255 -0.07585144 -0.032561146 -0.083437964
0.03550989 -0.008552762 -0.17492779 0.13772799 -0.04517829 0.08803786 -0.02991288 0.06021921
-0.023345746 0.104779795 -0.029352814 -0.18012546 0.5805684 -0.02322197 0.017391155 -0.042091515
-0.07400248 0.22231686 0.028452994 -0.023435265 -0.02077569 -0.03270444 0.024177449 -0.018565748
0.016797703 -0.0459274 -0.057509225 0.124900915 -0.17181903 0.16641667 -0.12185599 -0.11956238
0.014826447 -0.0005573171 -0.029352816 0.03283426 -0.061452504 0.021728273 -0.072759785 -0.04332535
0.11318518 0.35804427 -0.06141911 0.04056803 0.007366851 0.06185386 -0.021204848 -0.018150667
-0.061799135 0.15247802 0.08173571 -0.07880268 -0.17276871 0.056650754 0.048189826 -0.091582626
0.00935614 0.019070365 0.028222723 0.43306586 0.03689446 0.025491795 0.0052913423 0.14598629
0.058027778 0.041234802 -0.59390706 -0.021249846 0.020950181 0.053595383 -0.1632124 0.0060424246
0.094677374 -0.26184854 -0.03695592 -0.013111941 0.14378887 0.03817577 -0.07056492 0.4036751
0.08070211 -0.015033952 0.007121216 -0.0707011 0.02987574 0.06260438 0.04197736 0.023653988
0.081442885 0.04548562 -0.26135993 0.0081214085 -0.013982238 -0.051264737 -0.3379364 0.09110154
00000000: 06a6 943e b949 44bd aff6 4e3d 9fc3 12be
00000010: e538 3cbc bc86 313c 15fd febc eaeb 3c3e
00000020: 8351 47bd f9ea 7ebd 24f4 abbc b007 593d
00000030: e0a2 b9bd cddc abbd 8ef5 59bd ff05 9abb
00000040: b07e 4fbd 076e f83d 8075 45bd d608 5fbd
00000050: a857 a63a fc43 cd3b 19a6 7cbd 45f6 51be
00000060: 2fed 51bd 896c 94bd a1a3 1f3d d449 06bd
00000070: 4942 23be 0058 9bbd d65e 05bd 86e1 aabd
00000080: d272 113d e220 0cbc 4520 33be 9108 0d3e
00000090: df0c 39bd 324d b43d db0b f5bc 6ba8 763d
000000a0: 943f bfbc ca96 d63d 5075 f0bc cf72 38be
000000b0: 21a0 143f 003c bebc e577 8e3c 2768 2cbd
000000c0: 9d8e 97bd 08a7 633e 4116 e93c 50fb bfbc
000000d0: c831 aabc 17f5 05bd c90f c63c 3217 98bc
000000e0: 569b 893c 5f1e 3cbd cb8e 6bbd 0dcc ff3d
000000f0: 54f1 2fbe 2269 2a3e a28f f9bd 1fdd f4bd
00000100: a0ea 723c eb18 12ba 5175 f0bc 387d 063d
00000110: 9fb5 7bbd 7eff b13c 1503 95bd ec75 31bd
00000120: a2cd e73d 9451 b73e 9b92 7bbd aa2a 263d
00000130: a065 f13b 795a 7d3d cab5 adbc b5b0 94bc
00000140: 1721 7dbd 3323 1c3e 0d65 a73d 4d63 a1bd
00000150: 48ea 30be 9f0a 683d b262 453d ac8f bbbd
00000160: 7f4a 193c 7439 9c3c 5733 e73c cfba dd3e
00000170: a51e 173d 2bd4 d03c ff62 ad3b 6e7d 153e
00000180: 89ae 6d3d d3e5 283d 4b0a 18bf 2814 aebc
00000190: b79f ab3c d586 5b3d 2721 27be 88ff c53b
000001a0: 36e6 c13d 0311 86be 175f 17bd 77d3 56bc
000001b0: 643d 133e 325e 1c3d 5784 90bd 81ae ce3e
000001c0: 2647 a53d f750 76bc 1759 e93b bdcb 90bd
000001d0: f8bd f43c ba36 803d 74f0 2b3d 02c6 c13c
000001e0: 87cb a63d 214f 3a3d f8d0 85be a80f 053c
000001f0: c215 65bc f9fa 51bd 0006 adbe 7293 ba3d

critic.2.weight f4 [64, 128]
-0.14034976 -0.027567351 0.04500497 0.083942756 -0.32519513 0.23408057 0.0036635448 -0.46294266
-0.030902611 0.3242503 0.35442236 -0.5119772 -0.14879061 -0.32808045 -0.26255164 0.1843107
0.0471805 0.013193316 -0.19391608 -0.08809852 -0.04455431 0.22873119 -0.37817863 0.29417604
1.2179725 -0.21199323 0.031472273 0.011882533 -0.7424399 -0.0025355907 0.032093763 -0.108962245
0.17239256 0.14587025 0.012336776 -0.02540944 0.33519998 -0.22268587 0.16650762 0.014589543
0.20103018 -0.96580064 -0.04404898 -0.023599718 -0.69144887 0.19693917 0.16840836 -0.11576492
0.12074138 -0.0022185217 -0.15513647 0.1774314 -0.38405824 -0.08398874 -0.67841685 -0.41661033
-0.06156408 0.006140567 -0.039727394 -0.13463499 0.26878583 -0.31835753 -0.10423423 0.14998084
0.3581045 -0.22023405 -0.3265153 0.29669392 -0.04607104 0.5438316 0.29456362 0.24353674
-0.039922167 -0.26209843 0.06943753 0.67605764 0.88612133 0.07126729 0.20563303 0.085863754
0.09100438 0.07161168 0.070846386 0.26284292 0.099231064 -0.0070428425 -0.018883098 -0.5084305
-0.4908568 0.021978183 0.031426363 0.6594033 -0.102748826 -0.35907516 0.27325913 0.5090634
-0.75132 0.27946565 -0.10188691 0.4065822 -0.33418196 0.4798981 -0.17109607 -0.051054824
-0.013976522 0.33615106 0.26523316 -0.7579723 0.027677756 0.22407992 0.18876293 -0.6606121
-0.12924941 -0.08187773 -0.07913921 -0.0034495918 -0.6434078 0.7783368 0.49642786 -0.18216196
0.17268446 -0.0037459382 0.38086647 -0.099323966 0.26940522 -0.49782273 0.2169104 0.46988156
-0.029403694 -0.60408205 0.003229868 0.053253382 0.07898589 -0.11658211 0.07961939 -0.2061478
-0.05398943 0.0384216 0.13571975 -0.005457512 -0.21010302 0.11487083 -0.09759338 0.4620187
0.0105304215 -0.049212698 -0.2035474 -0.057331517 0.0153145185 0.70344406 0.2733922 0.09930368
-0.12401769 -0.07829949 -0.5330535 -0.043937813 -0.11515411 0.08620357 -0.79562753 0.27103975
0.0038198226 -0.07445077 0.09847267 0.13828942 -0.35478237 0.13934876 0.04900098 0.042743195
-0.2050797 -0.03580542 0.06347562 0.023264183 0.31246623 0.018403798 0.14287594 0.089557774
-0.23232457 -0.1440551 0.22115879 0.16285615 -0.2604502 0.30718896 0.13222092 -0.04246364
0.15346079 -0.11168037 0.005778598 -0.008403762 -0.060981046 0.039895605 0.05559961 -0.16852528
0.017487196 0.1523943 -0.09111174 -0.24499795 -0.08113982 -0.51503 -0.11437066 0.028602807
0.028904736 0.1655281 -0.6718807 -0.1219592 -0.21863988 0.31752035 0.06317402 -0.061413858
-0.0032036377 -0.0875491 -0.18170713 -0.15830019 -0.017129442 -0.17608492 0.15735772 0.14922506
0.118253745 0.14034612 -0.1357535 0.056224484 0.2894598 0.4746058 -0.324665 -0.06151912
0.22480951 -0.08525422 0.13906188 0.5363186 -0.005426431 -0.16691524 0.7189097 0.3279106
0.014075624 0.07416206 0.16523948 0.47816858 -0.15815923 0.4154862 0.37639612 -0.37355012
-0.003609853 -0.34019715 0.46355096 -1.423388 0.1418781 -0.08220495 -0.8383706 0.18137991
0.66205 0.07040094 0.021114081 -0.5347452 -0.25256762 0.18069206 -0.024911055 0.06929686
00000000: d9b7 0fbe edd4 e1bc 2257 383d 2eea ab3d
00000010: fa7f a6be d1b2 6f3e 1518 703b d206 edbe
00000020: 7927 fdbc 2304 a63e d976 b53e f010 03bf
00000030: 915c 18be 29fa a7be 2b6d 86be f2bb 3c3e
00000040: 5740 413d c728 583c f091 46be ff6c b4bd
00000050: 957e 36bd 8238 6a3e a1a0 c1be 3e9e 963e
00000060: 86e6 9b3f c114 59be 12e9 003d f5ae 423c
00000070: 8b10 3ebf 272c 26bb c074 033d 9927 dfbd
00000080: ad87 303e 035f 153e 3020 4a3c 7527 d0bc
00000090: 559f ab3e c407 64be f980 2a3e fb08 6f3c
000000a0: dbda 4d3e b63e 77bf b46c 34bd 3254 c1bc
000000b0: cb02 31bf 6caa 493e 3e73 2c3e 2916 edbd
000000c0: 4247 f73d 9e64 11bb 18dc 1ebe 94b0 353e
000000d0: 48a3 c4be 4a02 acbd baac 2dbf f34d d5be
000000e0: 9e2a 7cbd cf36 c93b 31b9 22bd c1dd 09be
000000f0: 4c9e 893e c2ff a2be c278 d5bd 9494 193e
00000100: 7959 b73e 0985 61be 032d a7be 44e8 973e
00000110: fdb4 3cbd 8c38 0b3f 0bd1 963e b261 793e
00000120: 6d85 23bd c431 86be 4435 8e3d 1d12 2d3f
00000130: d9d8 623f 96f4 913d 7791 523e 56d9 af3d
00000140: 8160 ba3d 25a9 923d e917 913d 5993 863e
00000150: a839 cb3d a5c7 e6bb bab0 9abc 8028 02bf
00000160: 9551 fbbe 970b b43c eeb8 003d a8ce 283f
00000170: fa6d d2bd b3d8 b7be 9fe8 8b3e fb51 023f
00000180: 8256 40bf 1f16 8f3e 16aa d0bd 8b2b d03e
00000190: e619 abbe 34b5 f53e cf33 2fbe dd1e 51bd
000001a0: c8fd 64bc fe1b ac3e a4cc 873e 790a 42bf
000001b0: 76bc e23c 3575 653e 124b 413e e01d 29bf
000001c0: f559 04be 83af a7bd bd13 a2bd 8c12 62bb
000001d0: 60b6 24bf 1541 473f cb2b fe3e aa88 3abe
000001e0: 32d4 303e 6a7e 75bb ee00 c33e 5d6a cbbd
000001f0: 7bef 893e 9fe2 febe c31d 5e3e 5194 f03e
00000200: 04e0 f0bc 1fa5 1abf 31ac 533b 3820 5a3d
00000210: 5bc3 a13d 9ac2 eebd 7e0f a33d 6918 53be
00000220: 0524 5dbd f85f 1d3d 1efa 0a3e eed4 b2bb
00000230: 3f25 57be 6641 eb3d 0adf c7bd b78d ec3e
00000240: ca87 2c3c 4193 49bd bb6e 50be 74d4 6abd
00000250: bfe9 7a3c e914 343f 10fa 8b3e ba5f cb3d
00000260: fdfc fdbd 7c5b a0bd 3276 08bf 23f8 33bd
00000270: ebd5 ebbd 7f8b b03d 3fae 4bbf b9c5 8a3e
00000280: fd55 7a3b a579 98bd 0aac c93d be9b 0d3e
00000290: 09a6 b5be 71b1 0e3e 40b5 483d 7d13 2f3d
000002a0: 6a00 52be b4a8 12bd 81ff 813d 8794 be3c
000002b0: 93fb 9f3e 90c3 963c 124e 123e 116a b73d
000002c0: 7ee6 6dbe 2e83 13be 7377 623e c3c3 263e
000002d0: bb59 85be df47 9d3e ec64 073e 5bee 2dbd
000002e0: d324 1d3e aeb8 e4bd 655a bd3b efaf 09bc
000002f0: 43c7 79bd 9369 233d 6bbc 633d e491 2cbe
00000300: 4f41 8f3c 400d 1c3e cb98 babd bee0 7abe
00000310: a22c a6bd 02d9 03bf 2a3b eabd 6f50 ea3c
00000320: a0c9 ec3c 3380 293e 6000 2cbf bfc5 f9bd
00000330: 22e3 5fbe 0792 a23e 6161 813d 198d 7bbd
00000340: 1ff4 51bb f14c b3bd 6f11 3abe 7219 22be
00000350: 0b53 8cbc 9b4f 34be 6222 213e 74ce 183e
00000360: 052f f23d e5b6 0f3e f702 0bbe a54b 663d
00000370: 1334 943e 88ff f23e 7e3a a6be 79fb 7bbd
00000380: 7734 663e c499 aebd 3d66 0e3e 2d4c 093f
00000390: 34d0 b1bb d4eb 2abe 770a 383f e6e3 a73e
000003a0: 729d 663c 47e2 973d 8a34 293e 83d2 f43e
000003b0: 7ef4 21be 9bba d43e feb6 c03e f641 bfbe
000003c0: 4993 6cbb 522e aebe 8d56 ed3e 9431 b6bf
000003d0: 7e48 113e 125b a8bd 759f 56bf a8bb 393e
000003e0: 1c7c 293f 5e2e 903d 70f7 ac3c 10e5 08bf
000003f0: 8b50 81be 5707 393e 4512 ccbc 83eb 8d3d

critic.2.bias f4 [64]
0.050623115 -0.22522981 0.12538077 0.11108176 -0.086298235 -0.19789986 -0.105120525 0.13320331
0.24156979 -0.13673282 -0.29258287 0.25481123 0.22680305 -0.023340838 0.055940963 -0.1594583
-0.1828943 0.5110887 -0.24363354 0.031488534 0.25670105 0.34606555 -0.053801946 -0.032745004
0.39025533 -0.35200274 -0.004737973 -0.17260161 0.1002611 -0.001655692 -0.0074350513 0.17176078
-0.3354435 -0.28391588 -0.15138444 -0.32531738 -0.4249442 -0.32414195 0.21060134 0.26633587
-0.30154344 -0.08554392 -0.090105936 -0.30636007 -0.39402968 -0.009764782 0.031218803 0.10604083
0.17348489 0.2542512 0.14280368 -0.34341657 0.6407466 -0.084412225 -0.108978555 -0.00026600278
0.119165026 -0.111700855 0.261267 0.23663741 0.18490386 0.051303674 -0.16313277 -0.23242867
00000000: 2f5a 4f3d a5a2 66be d163 003e d57e e33d
00000010: 21bd b0bd 43a6 4abe 6e49 d7bd 7366 083e
00000020: 125e 773e b003 0cbe 6ccd 95be 9e76 823e
00000030: 0f3f 683e 4935 bfbc 5a22 653d 0949 23be
00000040: a548 3bbe b6d6 023f 127b 79be 1ffa 003d
00000050: 526e 833e 812f b13e 6e5f 5cbd a01f 06bd
00000060: 8ccf c73e b439 b4be 0041 9bbb 7abe 30be
00000070: b155 cd3d ce03 d9ba bba1 f3bb 0fe2 2f3e
00000080: 40bf abbe 6c5d 91be 8604 1bbe 0090 a6be
00000090: 4992 d9be eff5 a5be e1a7 573e 2d5d 883e
000000a0: e763 9abe a731 afbd 7689 b8bd 3adb 9cbe
000000b0: 42be c9be 77fc 1fbc 93be ff3c ef2b d93d
000000c0: 06a6 313e 372d 823e 213b 123e 4cd4 afbe
000000d0: f807 243f 51e0 acbd 2630 dfbd 4a76 8bb9
000000e0: cb0c f43d 6bc3 e4bd cac4 853e 1451 723e
000000f0: 7057 3d3e cd23 523d 470c 27be c801 6ebe

critic.4.weight f4 [1, 64]
0.43251273 -0.2537305 0.3891547 -0.4047792 -0.24160527 0.6038416 -0.8467847 0.21411248
0.22559093 -0.3259572 -0.21835329 0.56425434 0.24731344 -0.2571342 0.4085194 0.2591427
-0.29544827 1.8420763 -0.39571306 0.36541617 0.25687006 0.2855325 0.3136873 -0.26478964
0.34026366 -0.24334003 -1.7590545 -0.3441475 -0.68706584 0.37218168 -0.46879256 0.5589908
-0.4250369 -0.3780574 -0.6732787 -0.46849132 -0.26272264 -0.38378796 0.31295574 0.30653137
-0.333848 -0.19402589 -0.25054133 -0.42548373 -0.98400146 0.26929379 -0.7816105 0.32084197
0.3638235 0.38878226 0.44763684 -0.23873205 0.8862996 -0.38675582 -0.19166669 -0.2929705
0.22237408 -0.21112347 0.4232944 0.20618363 0.4198373 0.5679619 -0.3813216 -0.33995444
00000000: 4f72 dd3e f7e8 81be 493f c73e 383f cfbe
00000010: 5f67 77be 5d95 1a3f e2c6 58bf 4d40 5b3e
00000020: 4f01 673e dde3 a6be 0198 5fbe f972 103f
00000030: bc3f 7d3e 18a7 83be 7429 d13e 5aae 843e
00000040: ff44 97be 28c9 eb3f e79a cabe d417 bb3e
00000050: 7984 833e 5131 923e 9f9b a03e 8292 87be
00000060: 0a37 ae3e 212e 79be b328 e1bf 1a34 b0be
00000070: 8ce3 2fbf 998e be3e 9405 f0be 051a 0f3f
00000080: 709e d9be bd90 c1be fe5b 2cbf 18de efbe
00000090: 9583 86be db7f c4be bc3b a03e aef1 9c3e
000000a0: 20ee aabe b9ae 46be f446 80be 01d9 d9be
000000b0: 85e7 7bbf e0e0 893e a017 48bf 6645 a43e
000000c0: 1347 ba3e 780e c73e a830 e53e 2d76 74be
000000d0: 88e4 623f dc04 c6be 4644 44be 3b00 96be
000000e0: 08b6 633e c030 58be 0bba d83e cd21 533e
000000f0: eaf4 d63e f365 113f 963c c3be 820e aebe

actor.0.weight f4 [128, 19]
-0.33196813 0.22843939 0.04103413 0.007855974 -0.1776461 0.41211566 0.3563579 -0.28567693
0.94966793 -0.31911612 -0.5033588 0.12676425 -0.2937902 0.056325696 -0.309271 0.022089746
0.10910471 0.18619964 -0.38255557 0.36181557 0.16748518 0.12107431 0.0072731003 0.91618395
-0.61152095 0.1998401 -0.32853857 0.22374557 0.71289474 0.104801185 -0.02512364 0.250261
-0.36468136 -0.04495686 0.42467484 -0.3379688 0.7132523 0.4258446 -0.06432038 -0.099333726
-0.36532697 0.23664807 0.23316121 -0.96590805 -0.09563354 0.18758355 0.3288312 -0.7553836
-0.13435812 -0.0004244871 0.34656468 -0.3636697 0.26920846 0.27125418 -0.2687606 -0.039524097
0.14817809 0.087831594 -0.17594859 -0.40548295 0.046738606 1.1340878 0.96608216 -0.04718253
0.39778918 -0.25700852 0.018909734 0.4896291 -0.29864082 -0.032546856 0.19448222 0.42829126
-0.099688284 0.0223708 -0.2532909 0.16510628 0.12324092 -0.111513846 -0.27050513 -0.08732861
-2.4375122 0.56177443 0.035752635 -0.01522794 -0.10034458 -0.4954395 -0.022035562 -0.25499395
0.15660909 -0.17643327 0.018383127 -0.043647416 0.15194845 0.11896102 -0.047000963 -0.22101834
0.37989178 0.032093175 -0.3464825 -0.16817778 -1.361642 0.010724994 -0.0744852 0.9685141
-0.15373755 -0.45443514 0.79190916 -0.77313715 0.040626343 -0.62381786 0.061136845 -0.70356977
0.42956474 0.19369815 0.1432524 0.26708895 -0.04790693 0.2097893 -0.5915602 0.21684395
0.34662706 -0.5268457 -0.15182814 -0.6904347 0.05413918 0.555279 -0.43576422 -0.05430752
-0.09267143 0.25648147 -0.13379888 0.59031075 0.20418455 0.011484152 -0.038791165 0.2772711
0.3045252 0.11894252 1.5538285 -0.26814842 -0.005675047 0.282498 0.40185177 0.17222859
0.05678597 -0.08478048 0.41376752 -0.25436562 -0.11627386 -0.34753552 0.647037 -0.060683392
0.1652035 0.04704066 0.38806483 -0.28445536 -0.075973 1.2670715 -0.06602394 -0.103967026
0.84497416 -0.11267765 0.16865583 0.013768856 -0.1620561 -0.211578 0.41280574 -0.24649298
0.02350714 -0.024685888 0.112954624 -0.14236248 -0.34457 -0.09951852 -0.016538708 0.91671604
0.08798072 0.54524463 -0.06198562 0.009967909 0.4674973 0.35746872 -1.0792627 0.21765073
-0.3868885 0.059955727 -0.28361177 0.163729 -0.5873998 -0.09185987 -0.27341402 0.4348383
-0.09605007 0.06090555 0.9983909 0.2877441 -0.012041578 -0.1720583 1.177736 -0.45858842
0.58858216 -0.50479066 0.08613747 0.78792864 -0.69157815 -0.14309484 -0.20224847 -0.19926554
0.2755124 -0.29936182 -0.043971956 0.37801868 0.054462984 0.2413078 0.31186408 0.22802316
-0.2711381 -0.3742055 -0.34827048 -0.4819094 0.43109462 -0.009661346 0.1051724 -0.2962812
-0.25604606 0.6841172 -0.57784957 -0.32461143 -0.3406271 -0.5895857 0.017916335 0.03738868
-0.013249929 0.55944806 0.32025948 0.5619238 0.27800947 0.53246677 -0.11311215 -0.0889946
-0.077195525 0.082146406 0.03370789 -0.36700398 -0.016826674 -0.068853326 -0.14241219 -0.02934539
0.42403358 0.024951745 -0.38134095 -0.28917208 -0.14694315 0.2518867 0.49497813 0.11585803
00000000: baf7 a9be 04ec 693e 6713 283d 58b6 003c
00000010: dce8 35be d300 d33e 8b74 b63e 3f44 92be
00000020: 701d 733f 3063 a3be 1fdc 00bf 7dce 013e
00000030: ab6b 96be c6b5 663d c558 9ebe 8ef5 b43c
00000040: 4a72 df3d 1eab 3e3e 53de c3be e43f b93e
00000050: 3c81 2b3e cff5 f73d 3053 ee3b 088b 6a3f
00000060: a38c 1cbf e2a2 4c3e 3536 a8be 8f1d 653e
00000070: 4580 363f 01a2 d63d 18d0 cdbc 3622 803e
00000080: 84b7 babe af24 38bd fb6e d93e 3f0a adbe
00000090: b497 363f 4e08 da3e 67ba 83bd 7b6f cbbd
000000a0: 230c bbbe df53 723e d0c1 6e3e c045 77bf
000000b0: 84db c3bd e715 403e 905c a83e d260 41bf
000000c0: 2d95 09be b28d deb9 ed70 b13e ea32 babe
000000d0: b1d5 893e d4e1 8a3e fd9a 89be 05e4 21bd
000000e0: ffbb 173e 0de1 b33d de2b 34be 769b cfbe
000000f0: fb70 3f3d ca29 913f 2951 773f 7842 41bd
00000100: 06ab cb3e 9f96 83be 96e8 9a3c aab0 fa3e
00000110: 73e7 98be da4f 05bd 5926 473e fe48 db3e
00000120: 5f29 ccbd f842 b73c 58af 81be 9f11 293e
00000130: bc65 fc3d 5f61 e4bd a67f 8abe 58d9 b2bd
00000140: 3300 1cc0 73d0 0f3f 5b71 123d 9c7e 79bc
00000150: 7681 cdbd 3faa fdbe ec83 b4bc 918e 82be
00000160: 225e 203e ecaa 34be 3698 963c a2c7 32bd
00000170: 6098 1b3e d6a1 f33d 1584 40bd a252 62be
00000180: 2d81 c23e 2274 033d 2766 b1be cc36 2cbe
00000190: 494a aebf e3b7 2f3c b28b 98bd 8af0 773f
000001a0: 606d 1dbe b9ab e8be 8fba 4a3f 51ec 45bf
000001b0: cf67 263d 87b2 1fbf a16a 7a3d 261d 34bf
000001c0: e9ef db3e cf58 463e c2b0 123e e2bf 883e
000001d0: 0f3a 44bd 02d3 563e 7d70 17bf 570c 5e3e
000001e0: 1a79 b13e 5cdf 06bf d678 1bbe 54c0 30bf
000001f0: 0bc1 5d3d c426 0e3f 7d1c dfbe 9071 5ebd
00000200: 85ca bdbd 8a51 833e 9302 09be 9b1e 173f
00000210: c115 513e 0628 3c3c 7ce3 1ebd 7af6 8d3e
00000220: baea 9b3e 2398 f33d dae3 c63f c04a 89be
00000230: bff5 b9bb 94a3 903e 84bf cd3e b15c 303e
00000240: 6898 683d 63a1 adbd 56d9 d33e 363c 82be
00000250: fd20 eebd 2df0 b1be 38a4 253f 268f 78bd
00000260: 1b2b 293e b5ad 403d 6fb0 c63e 22a4 91be
00000270: bb97 9bbd 662f a23f 8f37 87bd aaec d4bd
00000280: 3a50 583f 8ac3 e6bd 1db4 2c3e c596 613c
00000290: 09f2 25be e7a7 58be 465b d33e a868 7cbe
000002a0: 0c92 c03c 0f3a cabc c154 e73d 78c7 11be
000002b0: 7b6b b0be 5ed0 cbbd 2f7c 87bc e7ad 6a3f
000002c0: 3c2f b43d 2795 0b3f a2e4 7dbd 7150 233c
000002d0: ce5b ef3e 2406 b73e 4825 8abf d5df 5e3e
000002e0: 4016 c6be 2394 753d 9035 91be 93a8 273e
000002f0: d55f 16bf 0721 bcbd ecfc 8bbe 20a3 de3e
00000300: e6b5 c4bd 1978 793d 8c96 7f3f 3253 933e
00000310: 0a4a 45bc 0d30 30be 0ec0 963f 1acc eabe
00000320: 52ad 163f f639 01bf d868 b03d b1b5 493f
00000330: 440b 31bf 7487 12be 391a 4fbe 440c 4cbe
00000340: f60f 8d3e f445 99be f01b 34bd aa8b c13e
00000350: 9414 5f3d 6419 773e a6ac 9f3e e77e 693e
00000360: 9dd2 8abe dd97 bfbe 8250 b2be d4bc f6be
00000370: 6fb8 dc3e 9f4a 1ebc a164 d73d 2bb2 97be
00000380: 7818 83be 4e22 2f3f f3ed 13bf 7833 a6be
00000390: ad66 aebe 17ef 16bf 47c5 923c df24 193d
000003a0: 3b16 59bc fd37 0f3f 0df9 a33e 3dda 0f3f
000003b0: 4257 8e3e be4f 083f 58a7 e7bd cd42 b6bd
000003c0: b018 9ebd 603c a83d 4911 0a3d f2e7 bbbe
000003d0: 18d8 89bc f902 8dbd 80d4 11be be65 f0bc
000003e0: ee1a d93e 9a67 cc3c 1f3f c3be 5d0e 94be
000003f0: 4478 16be 4bf7 803e c66d fd3e fa46 ed3d

actor.0.bias f4 [128]
-0.19426502 0.17768392 0.0195948 0.061328035 0.06364671 -0.12428919 0.0852611 0.032289732
0.0029775377 -0.22224285 -0.053879164 -0.08956816 -0.06772969 -0.035817325 -0.03912719 0.40644673
-0.091890045 0.10947248 0.06999835 0.059675973 -0.09503903 0.07645213 0.2835173 0.25564963
-0.07308165 -0.14680234 -0.11477569 -0.054042254 0.028535992 -0.19844502 -0.07048923 -0.033078976
-0.13056177 -0.2260027 -0.113274366 -0.2117261 0.08649312 -0.11430162 0.14366898 0.027232708
-0.12624863 -0.13254225 -0.097356305 -0.041638467 -0.07843549 -0.05465959 0.31523517 -0.14094642
0.21317077 -0.0883092 -0.02435612 -0.21926822 -0.036343534 0.13783427 0.11393357 -0.19364977
-0.25484148 -0.25211558 -0.036895905 0.17559017 0.09604191 0.16478929 0.004461211 0.06686073
0.034828763 0.114338614 -0.2757602 -0.014084359 -0.04109515 0.09109544 0.09883397 -0.03917674
0.12013098 0.04539955 -0.081859894 0.06812124 0.1590814 -0.023430675 -0.12041845 -0.018396663
0.10925099 0.005282826 0.14444269 -0.058738124 -0.013611909 -0.018645722 -0.22982934 -0.07166545
0.11594373 0.101893745 0.050790127 0.30492103 0.06624734 0.08781785 0.18472238 0.16441105
0.2343311 0.10701148 0.24664837 0.21698174 0.167557 -0.014642474 0.082464546 -0.05599772
-0.17862773 -0.19812928 -0.055827115 0.07180892 -0.02819805 -0.20760536 0.013386781 -0.2410873
0.049531534 0.056166183 -0.0321647 0.13954723 0.14898334 -0.07598047 0.0035229223 -0.063449174
-0.00034530685 0.119062856 0.14788212 -0.17476699 0.055196945 -0.078153685 0.02682822 -0.28889823
00000000: 69ed 46be c6f2 353e 4685 a03c 1b33 7b3d
00000010: 3559 823d 558b febd 5f9d ae3d 3d42 043d
00000020: cb22 433b a193 63be 66b0 5cbd 836f b7bd
00000030: ddb5 8abd 30b5 12bd d543 20bd c919 d03e
00000040: d930 bcbd 1c33 e03d 4c5b 8f3d cb6e 743d
00000050: d3a3 c2bd ef92 9c3d 2e29 913e 82e4 823e
00000060: d5ab 95bd 5a53 16be 840f ebbd 695b 5dbd
00000070: 50c4 e93c 2c35 4bbe a85c 90bd d27d 07bd
00000080: fcb1 05be 406d 67be 64fc e7bd bace 58be
00000090: 4e23 b13d f816 eabd f61d 133e 2117 df3c
000000a0: 5247 01be 28b9 07be be62 c7bd 198d 2abd
000000b0: c9a2 a0bd bce2 5fbd 8166 a13e 4254 10be
000000c0: 7049 5a3e 74db b4bd 7c86 c7bc d987 60be
000000d0: f5dc 14bd 6d24 0d3e 0156 e93d 204c 46be
000000e0: 957a 82be 4b15 81be 2920 17bd e9cd 333e
000000f0: 9fb1 c43d 86be 283e 5a2f 923b 47ee 883d
00000100: 9ba8 0e3d 5d2a ea3d 7130 8dbe 15c2 66bc
00000110: 6353 28bd 3f90 ba3d 7769 ca3d ca77 20bd
00000120: 3b07 f63d e1f4 393d 29a6 a7bd 2683 8b3d
00000130: 3ce6 223e b0f1 bfbc f39d f6bd 99b4 96bc
00000140: fcbe df3d 8e1b ad3b c9e8 133e 6397 70bd
00000150: 7c04 5fbc eabe 98bc 6258 6bbe 56c5 92bd
00000160: e873 ed3d abad d03d 4f09 503d 9c1e 9c3e
00000170: afac 873d d8d9 b33d dd27 3d3e 5f5b 283e
00000180: 7ef4 6f3e d628 db3d 6491 7c3e 7630 5e3e
00000190: 1094 2b3e fde6 6fbc 2ce3 a83d de5d 65bd
000001a0: 30ea 36be 67e2 4abe f9aa 64bd 8e10 933d
000001b0: 99ff e6bc 8096 54be 3b54 5b3c 97df 76be
000001c0: 94e1 4a3d 830e 663d 22bf 03bd 78e5 0e3e
000001d0: 178f 183e a69b 9bbd d4e0 663b a4f1 81bd
000001e0: 4d0a b5b9 3ad7 f33d 696e 173e 1ef6 32be
000001f0: 3116 623d 0a0f a0bd dbc6 db3c 78ea 93be

actor.2.weight f4 [64, 128]
0.19394861 0.32331863 -0.40531787 0.25680432 -0.33818537 0.39356923 -0.11372475 0.025835717
0.30281094 0.11282443 0.04352246 0.053952634 0.093309656 0.07193382 0.040720843 -0.32389653
0.121272154 0.03940595 -1.0119911 -0.1248319 -0.18999635 -0.05832635 0.21139333 -0.08704038
-0.21085763 -0.042733695 0.18689035 0.3656858 -0.21762276 0.5654132 -0.00033044978 0.418063
0.57786036 -0.691994 0.12443082 0.20994829 -0.13929199 -0.0008075955 0.100944296 0.3562024
-0.03851712 -0.008319074 0.41903132 -0.21833926 0.0915914 0.64735955 -0.38814247 0.13981923
-0.014169498 0.36670965 0.0004142164 0.113784716 -0.26065776 0.056494743 -0.3251991 -0.2480459
-0.25530007 0.34426898 -0.03354494 -0.03567525 -0.0070748306 -0.18911882 -0.43875653 -0.19811864
-0.6373667 0.043146983 0.40056646 -0.42352134 -0.45716128 0.20364933 -0.037600916 -0.12254272
-0.18642601 -0.12330545 -0.1375768 0.17491235 -0.07273138 0.37080467 0.15009007 -0.09189778
-0.281367 -0.044039804 -0.3466281 -0.24364853 -0.10017844 -0.18602185 -0.12184075 0.05626654
-0.0063957446 0.23154321 0.14380045 0.084707074 -0.4925198 0.06403091 0.11609472 -0.055781297
-0.24403448 0.09230965 0.16361707 -0.13837874 -0.45120403 -0.46817014 -0.13586164 0.23802534
0.29160482 0.19420223 0.02280079 -0.04501346 0.2536426 0.4867754 -0.27952328 0.20504864
-0.14149885 -0.14399193 0.5500061 -0.48405966 0.031855423 -0.04690718 -0.023427522 -0.30624804
-0.09327673 0.068261355 -0.04979153 -0.022304965 0.10174386 -0.084601745 0.23769617 0.65951115
-0.4181388 0.4593558 -0.10842972 0.013907508 0.23072119 -0.43420014 0.37046337 0.6465998
-0.4100591 -0.23572332 -0.26810756 -0.606808 0.03699584 -0.007691087 0.34451556 0.32786885
-0.5423483 0.42442188 -0.25701243 -0.3196673 0.16667956 0.03763747 -0.013424093 0.13050902
0.24659115 -0.18308054 -0.041057218 0.19864379 -0.2680891 -0.20364495 0.15038273 0.113886595
-0.33193702 -0.0033900472 -0.6825306 -0.22895193 -0.16038965 -0.6230009 -0.16119994 -0.4166695
0.38469765 0.13390815 0.033452224 -0.15219907 -0.29871404 0.10963975 0.11968144 -0.07702141
-0.06757131 -0.05104604 -0.12728988 0.16920033 0.0049075657 0.73825014 0.14100523 -0.23920229
-0.44951704 -0.508237 -0.36055303 -0.0071199094 -0.2431756 0.0005047561 0.086609274 0.17170046
-0.15656999 0.3955207 -0.21730979 0.13433234 -0.5485521 0.20305975 0.08453781 0.49257094
0.23423672 0.37356347 -0.4117006 -0.12973535 -0.013752634 0.050768845 -0.049837895 -0.52883977
-0.08086566 0.2389399 0.30467302 0.31795862 0.7351111 -0.06883373 -0.4529769 -0.06952063
0.1469155 -0.18662055 -0.059918318 -0.15763398 0.24624005 0.452955 0.24649009 -0.01978233
0.04251989 0.0063492013 0.16133164 0.40206674 -0.09510227 -0.17263207 0.24742709 -0.41751727
0.23026663 0.0408334 -0.3097645 0.16077091 0.17506057 0.114590995 -0.14068326 -0.23351483
0.13393517 0.108608715 -0.3337877 0.70397526 0.21711907 -0.23950957 -0.09780394 -0.2454955
-0.3197311 0.20324454 -0.2749228 -0.1131951 0.23137297 -0.15088558 0.4073075 0.048630714
00000000: 779a 463e 058a a53e d385 cfbe db7b 833e
00000010: a226 adbe e881 c93e 86e8 e8bd 6da5 d33c
00000020: 090a 9b3e 7f10 e73d 9b44 323d 70fd 5c3d
00000030: 2219 bf3d 0a52 933d e6ca 263d c4d5 a5be
00000040: 895d f83d 2268 213d ed88 81bf dea7 ffbd
00000050: 678e 42be 9ce7 6ebd 7e77 583e 3a42 b2bd
00000060: 10eb 57be 8709 2fbd 2f60 3f3e 2b3b bb3e
00000070: 80d8 5ebe ebbe 103f 3840 adb9 5b0c d63e
00000080: a8ee 133f 8526 31bf 96d5 fe3d affc 563e
00000090: 8fa2 0ebe d1b4 53ba e2bb ce3d 2960 b63e
000000a0: 21c4 1dbd ba4c 08bc 468b d63e 5494 5fbe
000000b0: 4694 bb3d 5bb9 253f 9cba c6be c62c 0f3e
000000c0: 2f27 68bc 5ec1 bb3e 2f2b d939 f607 e93d
000000d0: ef74 85be 0867 673d 7f80 a6be bfff 7dbe
000000e0: b1b6 82be 0644 b03e 6b66 09bd 3620 12bd
000000f0: fbd3 e7bb 5da8 41be b2a4 e0be 9ddf 4abe
00000100: 772a 23bf e4ba 303d 0c17 cd3e cad7 d8be
00000110: 0b11 eabe 7389 503e 6b03 1abd adf7 fabd
00000120: 76e6 3ebe 9187 fcbd efe0 0cbe 391c 333e
00000130: 31f4 94bd 1cda bd3e 36b1 193e e734 bcbd
00000140: 560f 90be 1563 34bd 3d79 b1be 007f 79be
00000150: 5b2a cdbd 837c 3ebe a587 f9bd be77 663d
00000160: 6593 d1bb aa19 6d3e 6d40 133e e77a ad3d
00000170: 8e2b fcbe a322 833d 12c3 ed3d ee7a 64bd
00000180: 2de4 79be d70c bd3d 3c8b 273e 28b3 0dbe
00000190: 3704 e7be ffb3 efbe 501f 0bbe eabc 733e
000001a0: 3a4d 953e f3dc 463e b9c8 ba3c 0960 38bd
000001b0: 71dd 813e a03a f93e ad1d 8fbe 45f8 513e
000001c0: 13e5 10be 9f72 13be 33cd 0c3f abd6 f7be
000001d0: d57a 023d be21 40bd 13eb bfbc 8bcc 9cbe
000001e0: df07 bfbd 9ccc 8b3d 34f2 4bbd e7b8 b6bc
000001f0: 165f d03d ae43 adbd a066 733e b9d5 283f
00000200: 4a16 d6be af30 eb3e 6710 debd 51dc 633c
00000210: 2d42 6c3e 7b4f debe 60ad bd3e 9187 253f
00000220: 44f3 d1be 7461 71be 6545 89be c557 1bbf
00000230: f388 173d 8405 fcbb 5864 b03e 6dde a73e
00000240: 57d7 0abf d34d d93e 2297 83be 6fab a3be
00000250: 0cae 2a3e bf29 1a3d baf0 5bbc 28a4 053e
00000260: 6482 7c3e 7779 3bbe 9d2b 28bd 4769 4b3e
00000270: f942 89be 4d88 50be eefd 193e 603d e93d
00000280: a6f3 a9be 8e2b 5ebb 53ba 2ebf 6072 6abe
00000290: 2f3d 24be fd7c 1fbf 9911 25be b455 d5be
000002a0: 17f7 c43e 381f 093e 3305 093d 13da 1bbe
000002b0: 0cf1 98be ce8a e03d 8b1b f53d 67bd 9dbd
000002c0: d462 8abd a715 51bd 4758 02be da42 2d3e
000002d0: a5cf a03b f6fd 3c3f ad63 103e 72f1 74be
000002e0: 1927 e6be d21b 02bf 689a b8be 214e e9bb
000002f0: 0603 79be 9c51 043a 3460 b13d 3fd2 2f3e
00000300: e253 20be b081 ca3e 7586 5ebe 6b8e 093e
00000310: e96d 0cbf e5ee 4f3e 2922 ad3d 4232 fc3e
00000320: c0db 6f3e b643 bf3e 6cca d2be 58d9 04be
00000330: ba52 61bc fef2 4f3d d222 4cbd 0b62 07bf
00000340: e59c a5bd a9ac 743e 1afe 9b3e 79cb a23e
00000350: 3e30 3c3f b3f8 8cbd 97ec e7be d560 8ebd
00000360: 0471 163e 7519 3fbe e96c 75bd cd6a 21be
00000370: 5a26 7c3e b8e9 e73e e667 7c3e 8e0e a2bc
00000380: 5629 2e3d f60c d03b 1f34 253e b1db cd3e
00000390: fbc4 c2bd 76c6 30be 875d 7d3e d3c4 d5be
000003a0: 04cb 6b3e ec40 273d 7499 9ebe 21a1 243e
000003b0: 1443 333e afae ea3d 460f 10be 831e 6fbe
000003c0: 4d26 093e 3f6e de3d 39e6 aabe b937 343f
000003d0: 7654 5e3e ff41 75be 6f4d c8bd 2c63 7bbe
000003e0: cbb3 a3be 561f 503e aec2 8cbe d5d2 e7bd
000003f0: 09ed 6c3e c081 1abe 9c8a d03e 0031 473d

actor.2.bias f4 [64]
-0.042572178 0.22800544 -0.3327749 0.05089026 0.4145231 -0.0735658 -0.1750743 -0.4497618
-0.14914194 -0.08122792 -0.03595972 0.027851922 0.010600253 0.25230584 0.06630174 -0.1350885
-0.15129007 0.15737976 -0.0068187723 0.03726858 0.06784084 -0.0081213545 -0.07512554 -0.1264378
0.097513445 -0.22001256 0.27321556 -0.1356875 -0.07334722 -0.20632489 -0.3820934 -0.14774594
-0.09965078 0.33335873 0.05204026 0.22909643 0.1464051 -0.18408832 0.028742887 -0.32098994
-0.08458528 -0.109441325 0.08450293 0.28893542 -0.04995732 -0.10238421 0.07382295 0.24255857
-0.17063494 0.09305796 0.20461465 -0.21564229 -0.11192582 -0.12824364 -0.07771001 -0.2228946
0.047335424 0.119975135 -0.14110413 0.17815045 -0.04009254 -0.038397115 -0.10930572 0.07617288
00000000: 2a60 2ebd 427a 693e 7961 aabe 4e72 503d
00000010: 5f3c d43e aba9 96bd ad46 33be 2e47 e6be
00000020: aab8 18be d35a a6bd 804a 13bd b729 e43c
00000030: afac 2d3c 3b2e 813e 35c9 873d a454 0abe
00000040: c9eb 1abe 2928 213e 0270 dfbb f0a6 183d
00000050: 23f0 8a3d 6e0f 05bc 6bdb 99bd e978 01be
00000060: 21b5 c73d f94a 61be e9e2 8b3e aaf1 0abe
00000070: 1137 96bd d546 53be bfa1 c3be b64a 17be
00000080: b515 ccbd ffad aa3e 2b28 553d 4198 6a3e
00000090: 38eb 153e a681 3cbe 3476 eb3c cb58 a4be
000000a0: 0c3b adbd c622 e0bd df0f ad3d 58ef 933e
000000b0: 0ca0 4cbd d0ae d1bd 7d30 973d 4661 783e
000000c0: edba 2ebe 2c95 be3d 8186 513e 55d1 5cbe
000000d0: 5d39 e5bd 4d52 03be 6d26 9fbd 7b3e 64be
000000e0: cae2 413d 86b5 f53d 9a7d 10be 126d 363e
000000f0: 1338 24bd 4b46 1dbd addb dfbd 8700 9c3d

actor.4.weight f4 [12, 64]
-0.110837035 -0.19934225 -0.65490246 0.018909957 -0.17218286 -0.0034765576 -0.3039009 -0.17424032
0.080042414 -0.011779113 0.009421091 -0.11227245 -0.020482264 0.06961128 -0.15774815 0.06372817
0.12785614 -0.20857804 0.07759364 -0.12902941 0.07673995 0.075380035 0.020216683 -0.0283718
0.075184755 -0.114123285 0.026342066 0.087384716 0.10235537 -0.044388264 -0.19857405 0.18954888
0.082055025 0.12934746 0.05049447 0.18688221 -0.054735098 -0.06993104 -0.10229518 -0.25803325
-0.0014155568 -0.030461822 -0.023472281 -0.28227958 0.08506353 0.09667206 0.08487469 0.1384682
-0.098330185 -0.015157363 0.05352214 0.24849823 0.020041732 -0.15337013 0.006230477 0.27108064
-0.107243694 0.0067748167 -0.044790775 0.21074384 0.017333675 0.049485065 -0.11908579 0.033320073
-0.2621259 0.20632935 1.1556374 0.19841406 -0.41684988 0.6624266 -0.6514237 1.0257344
0.027146943 -0.38963044 -0.092482485 0.11785416 -0.04103679 -0.7398805 0.1196501 -0.15281117
0.04988239 -0.25686374 -0.37856406 0.45770982 -0.1816118 0.059135176 0.21346237 -0.06967465
0.47480944 -0.4408641 0.32964444 0.20015627 -0.6243182 0.082381144 -0.694194 0.20245323
-0.069657214 0.76925844 0.034341548 -0.7288844 -0.5272628 -0.17228629 0.42613068 -0.6603711
-0.014621348 0.48663798 0.2907027 0.20560034 -0.44155765 -0.21935871 -0.22263716 0.6180451
-0.20814784 0.3040796 -0.66664785 0.07510923 -0.2523913 -0.35409763 0.18763155 -0.08965828
-0.040622532 -0.07778625 0.20811047 -0.71206623 -0.008930504 -0.31018886 0.112134434 0.44965273
0.37195176 0.04536263 -0.4168164 -0.21214733 0.6106232 -0.6428128 0.9906035 -0.802618
-0.15010457 0.39259937 0.0849429 0.009040036 0.048110977 0.64751387 0.050646663 0.08065577
-0.1996302 0.48080006 0.27519116 -0.2859919 0.076782204 -0.13788874 -0.21715716 0.10711105
-0.5329175 0.5702814 -0.33267376 -0.29369923 0.480128 -0.03922031 0.9002713 -0.42728868
-0.029203791 -0.89184624 -0.08403976 0.50115955 0.58314747 0.23154607 -0.32097206 0.93424165
-0.00013829838 -0.44642252 -0.23867957 0.121892616 0.3146041 0.09700534 0.12820233 -0.7556253
0.30569145 -0.2744125 0.5890124 -0.36135146 0.23984435 0.51260465 -0.19103387 -0.24022213
0.13197783 0.05866941 -0.14290105 0.4253946 0.007054521 0.2244448 0.020655608 -0.47981974
0.088402264 -0.08118602 -0.059288114 -0.018573688 0.24324913 0.12636182 0.06364508 -0.13985623
-0.08678817 0.086959824 0.12254386 -0.106589235 0.122686334 -0.07185543 -0.12695955 -0.01966204
-0.012669688 0.08642018 0.054247227 0.015614913 0.09963089 0.021785514 -0.054504793 0.047690894
0.17187682 -0.32311085 -0.056639392 0.0897932 -0.12503597 0.017589295 -0.13834645 0.2465428
-0.0148931565 0.16329929 -0.009148411 -0.14820445 -0.10911284 0.31932682 -0.14104538 -0.060411315
0.03831422 0.004317765 -0.18355456 0.1634258 -0.048782565 -0.09164007 0.01352496 -0.03947501
-0.081299014 0.11688149 0.05156447 0.071315706 0.18657905 -0.054466426 0.1057887 -0.30879855
0.17706104 -0.043273795 -0.02808424 -0.060371988 0.042019974 0.04947543 0.11469666 -0.0057175625
00000000: 87fe e2bd 6020 4cbe b0a7 27bf 0ee9 9a3c
00000010: b450 30be f5d6 63bb e698 9bbe 0e6c 32be
00000020: 47ed a33d 2efd 40bc eb5a 1a3c 19ef e5bd
00000030: 6cca a7bc 5c90 8e3d bb88 21be ea83 823d
00000040: b8ec 023e 7b95 55be 6ae9 9e3d 4920 04be
00000050: d629 9d3d d960 9a3d 759d a53c fa6b e8bc
00000060: 77fa 993d 78b9 e9bd 51cb d73c c2f6 b23d
00000070: b19f d13d 78d0 35bd ff56 4bbe 1a19 423e
00000080: 770c a83d a973 043e 4ad3 4e3d 0d5e 3f3e
00000090: e931 60bd 0138 8fbd 2380 d1bd ef1c 84be
000000a0: 348a b9ba 128b f9bc f148 c0bc f386 90be
000000b0: ca35 ae3d 00fc c53d c8d2 ad3d 9cca 0d3e
000000c0: 5661 c9bd 9756 78bc 083a 5b3d 5276 7e3e
000000d0: 8f2e a43c 0f0d 1dbe 0729 cc3b 15cb 8a3e
000000e0: 95a2 dbbd 48ff dd3b 8876 37bd 3ccd 573e
000000f0: 5aff 8d3c dab0 4a3d 40e3 f3bd a17a 083d
00000100: 5e35 86be 0048 533e edeb 933f 0e2d 4b3e
00000110: 596d d5be ca94 293f b4c3 26bf 444b 833f
00000120: 4463 de3c a47d c7be 7567 bdbd 865d f13d
00000130: 3116 28bd cf68 3dbf 1d0b f53d 887a 1cbe
00000140: 7a51 4c3d a583 83be 26d3 c1be f158 ea3e
00000150: 72f8 39be ba37 723d e195 5a3e 95b1 8ebd
00000160: 391a f33e f0b8 e1be 28c7 a83e c4f5 4c3e
00000170: 51d3 1fbf 72b7 a83d b3b6 31bf e64f 4f3e
00000180: 71a8 8ebd 1fee 443f b9a9 0c3d 2b98 3abf
00000190: b2fa 06bf d16b 30be cd2d da3e 150e 29bf
000001a0: 618e 6fbc 9d28 f93e fcd6 943e e588 523e
000001b0: d813 e2be 929f 60be fffa 63be 3438 1e3f
000001c0: b524 55be 52b0 9b3e 6fa9 2abf ded2 993d
000001d0: 6f39 81be 494c b5be 7c22 403e c39e b7bd
000001e0: d063 26bd 664e 9fbd e91a 553e f949 36bf
000001f0: 4051 12bc 13d1 9ebe bda6 e53d e238 e63e
00000200: 7670 be3e 2ace 393d f668 d5be 263d 59be
00000210: cd51 1c3f 618f 24bf 3198 7d3f 6078 4dbf
00000220: 03b5 19be c902 c93e 8bf6 ad3d a91c 143c
00000230: 0410 453d 78c3 253f e072 4f3d da2e a53d
00000240: dc6b 4cbe 6d2b f63e dbe5 8c3e 886d 92be
00000250: fd3f 9d3d b532 0dbe 725e 5ebe 0a5d db3d
00000260: 486d 08bf f6fd 113f 3754 aabe bf5f 96be
00000270: 56d3 f53e 7aa5 20bd 2e78 663f 95c5 dabe
00000280: ca3c efbc 0950 64bf 0a1d acbd fe4b 003f
00000290: 2749 153f 6a1a 6d3e 7356 a4be 762a 6f3f
000002a0: 3004 11b9 7e91 e4be 6b68 74be d6a2 f93d
000002b0: ca13 a13e bcaa c63d 7947 033e a970 41bf
000002c0: 9783 9c3e cc7f 8cbe 84c9 163f 0f03 b9be
000002d0: c299 753e 0f3a 033f 629e 43be cafc 75be
000002e0: 3225 073e 564f 703d a754 12be 52cd d93e
000002f0: 9c29 e73b dcd4 653e f335 a93c efaa f5be
00000300: 3f0c b53d db44 a6bd 18d8 72bd d927 98bc
00000310: 4d16 793e fe64 013e 5a58 823d 7936 0fbe
00000320: ffbd b1bd fe17 b23d 46f8 fa3d 754b dabd
00000330: f942 fb3d f128 93bd af01 02be 4912 a1bc
00000340: 8694 4fbc 10fd b03d 5732 5e3d b1d5 7f3c
00000350: 480b cc3d 8977 b23c 6b40 5fbd 8757 433d
00000360: 7a00 303e c96e a5be b5fe 67bd 7fe5 b73d
00000370: 6e09 00be 6d17 903c b1aa 0dbe b775 7c3e
00000380: 6d02 74bc ee37 273e 38e3 15bc e8c2 17be
00000390: 8d76 dfbd ce7e a33e 336e 10be db71 77bd
000003a0: 5fef 1c3d 0a7c 8d3b baf5 3bbe 1859 273e
000003b0: 3ad0 47bd caad bbbd cb97 5d3c 8cb0 21bd
000003c0: 1980 a6bd 905f ef3d 4435 533d f80d 923d
000003d0: 940e 3f3e 3018 5fbd bfa7 d83d d81a 9ebe
000003e0: 7d4f 353e dd3f 31bd ec10 e6bc 9e48 77bd
000003f0: 231d 2c3d c0a6 4a3d 15e6 ea3d 645a bbbb

actor.4.bias f4 [12]
-0.42624974 0.25179282 0.23526111 -0.08296198 -0.023047227 0.115895644 -0.106455095 0.07194478
0.05112004 0.03744787 0.119566515 -0.14113276
00000000: 683d dabe fdea 803e 4ae8 703e f8e7 a9bd
00000010: 8acd bcbc b25a ed3d 2105 dabd c957 933d
00000020: 3f63 513d f062 193d 4adf f43d 1b85 10be
