Plotting/saliencies_live/Multi_Pong/Sequence_Length_3/multi_pong_3__1__1721978543_checkpoint_608.pt (torch, 91362 bytes, 11 tensors)

critic.0.weight f4 [128, 12]
0	0x3ebcc8fe	0.36872095
1	0x3dee9d85	0.11651138
2	0x3ed9547e	0.42447275
3	0x3e071db6	0.13194928
4	0xbb44d6d1	-0.0030035267
5	0xbd0d060c	-0.034429595
6	0x3e13ae79	0.14422025
7	0x3e13ea09	0.14444746
8	0xbf272b31	-0.6530028
9	0xbe8c3783	-0.27386102
10	0x3f04d685	0.5188983
11	0x3d435efe	0.047698013
12	0xbd932bf4	-0.07186118
13	0x3bdbc803	0.006707193
14	0x3d80aac8	0.06282574
15	0xbbca0bb8	-0.0061659478
16	0x3d1b1535	0.03786202
17	0xbc42d94e	-0.01189263
18	0x3f96cad6	1.1780651
19	0xbe8e6420	-0.27810764
20	0x3b4d02b3	0.0031282126
21	0xbd0c08f0	-0.03418821
22	0x3f32916a	0.69753134
23	0xbfec3b72	-1.8455641
24	0xbe25f84c	-0.16207999
25	0x3d41a053	0.047272038
26	0x3de3d4df	0.11124586
27	0x3d55c8e0	0.052193522
28	0xbd5a2ad3	-0.053263497
29	0x3cffa053	0.031204378
30	0xbf584763	-0.8448393
31	0x3f9020a4	1.1259961
32	0x3d857e58	0.06518239
33	0xbd7efbcb	-0.062251847
34	0x3e79a0d5	0.24377759
35	0xbe7fd4aa	-0.24983469
36	0xbed602e1	-0.4179907
37	0xbd6f35ca	-0.058400907
38	0xbe61a19a	-0.22034302
39	0x3dceb446	0.10092978
40	0xbc9a9733	-0.018870926
41	0x3c447d26	0.011992728
42	0x3ec45ce6	0.38352126
43	0x3d672153	0.056428265
44	0x3f099c11	0.53753763
45	0xbbf2284e	-0.0073900586
46	0x3f14895c	0.58022094
47	0xbf5dfc03	-0.86712664
48	0x3db5e758	0.08882016
49	0x3d64c1c1	0.05584884
50	0xbcd14b74	-0.025548674
51	0x3ca41663	0.020030206
52	0x3e01c029	0.1267096
53	0x3d8393c9	0.06424672
54	0x3ecb4477	0.39700672
55	0x3e8bc431	0.2729812
56	0xbe131582	-0.14363673
57	0xbcacd2c9	-0.021096604
58	0xbf75e188	-0.9604726
59	0x3f421b86	0.7582325
60	0x3dd2757a	0.10276313
61	0x395abb33	0.00020859837
62	0x3c375940	0.011190712
63	0x3aea5ae8	0.0017879875
64	0xbbded8b6	-0.0068007363
65	0xbbc7318e	-0.0060789054
66	0x3cf20b04	0.029546268
67	0xbb4aa6d2	-0.0030922187
68	0x3db76330	0.089544654
69	0x3ddc4a2c	0.10756335
70	0x4083bded	4.1169343
71	0x40870c43	4.220247
72	0x3a92629c	0.0011168304
73	0x3cb61eff	0.022231577
74	0x3e233a7e	0.15940282
75	0xbcf1db19	-0.02952342
76	0x3cb569da	0.0221452
77	0xbd26fb05	-0.040766735
78	0xbe708253	-0.23487215
79	0x3ddf38d7	0.10899513
80	0xbdaa319e	-0.08310245
81	0x3d901164	0.07034567
82	0x3fc8abdf	1.5677451
83	0x3f305af4	0.68888783
84	0x3db23c75	0.087029375
85	0xbda834fc	-0.08213231
86	0xbd195aea	-0.037440218
87	0x3d8a6c8b	0.06758984
88	0x3ca19eb0	0.019728988
89	0x3c7567d7	0.014978371
90	0xbd5f5849	-0.054527555
91	0x3c1ca39a	0.00956049
92	0x3d1df8dc	0.03856741
93	0x3c3e689d	0.011621621
94	0xc0376977	-2.865812
95	0xbe83dafa	-0.25753003
96	0xbdec59d0	-0.11540568
97	0x3d525669	0.05135194
98	0x3de1e0c2	0.11029197
99	0x3bc22c23	0.0059256717
100	0x3c411c27	0.011786497
101	0xbdc954c2	-0.098306194
102	0x3dff5982	0.12468244
103	0x3ec0af8a	0.37633926
104	0xbe0eb170	-0.13934875
105	0x3c81c99a	0.015843201
106	0xbf673a40	-0.9032326
107	0xbee0c456	-0.43899792
108	0xbe9fa14b	-0.31177744
109	0x3eb06174	0.3444935
110	0xbe55b31f	-0.2086911
111	0xbec4e60c	-0.38456762
112	0x3e1ae04e	0.15124628
113	0x3d05aa9e	0.032633416
114	0x3f833ce9	1.0252963
115	0x3ea153ce	0.3150925
116	0x3e2408bb	0.16018955
117	0xbc1984ab	-0.009370009
118	0x3f132bff	0.5748901
119	0xbe259733	-0.16170959
120	0x3e060b21	0.13090183
121	0x3b77b317	0.0037795955
122	0xbde4da27	-0.11174422
123	0x3ba92b31	0.0051626195
124	0x3c9f5d86	0.019453775
125	0x3d4018a1	0.046898488
126	0x3f64282f	0.89123815
127	0x3ff29f39	1.8954841
128	0x393d0660	0.0001802682
129	0x3d3ce5c0	0.046117544
130	0x3e2c35ee	0.16817448
131	0x3ff6b4fb	1.9273981
132	0xbd7bb9b5	-0.0614564
133	0x3bf0ba45	0.007346424
134	0xbda1707c	-0.07882783
135	0x3aeaee2c	0.0017923764
136	0x3e5e858c	0.21730632
137	0x3e2e10b0	0.16998553
138	0x3fff1076	1.9926898
139	0x3e406dda	0.18791905
140	0xbbadf914	-0.0053092334
141	0x3cb5a41f	0.022172986
142	0x3d1c74bb	0.03819726
143	0xbd5d5a03	-0.05404092
144	0xbe71a2e2	-0.23597291
145	0xbb1c2bea	-0.0023829886
146	0x3e2aa468	0.16664279
147	0x3bd5af5f	0.00652115
148	0xbe232d0e	-0.15935156
149	0x3be900bc	0.0071106832
150	0xc01ec676	-2.480863
151	0xbe0c1790	-0.13680863
152	0x3e344ad9	0.17606677
153	0x3c2e3bc2	0.010634365
154	0x402e0dd3	2.7195938
155	0xbd9ea2b4	-0.07745877
156	0x3ca88e2f	0.02057561
157	0x3cd7ce60	0.026343524
158	0x3cee1a0d	0.029065156
159	0xbbb8eb27	-0.0056432667
160	0x3e04b279	0.12958707
161	0xbdd30acf	-0.10304796
162	0x3ff666b3	1.9250091
163	0xc01fbd58	-2.4959316
164	0xbc15d067	-0.009143925
165	0xbb5181ab	-0.0031968157
166	0xbf089b3b	-0.5336186
167	0x3e1e000e	0.15429708
168	0xbd6b5ff7	-0.057464566
169	0x3c3bd3eb	0.011464099
170	0x3da41331	0.08011473
171	0xbbf8aafd	-0.0075887428
172	0xbc2f20f3	-0.010689008
173	0xbb9ad033	-0.0047245263
174	0xbf3ebda6	-0.7450813
175	0xbfa12372	-1.2588942
176	0xbc71e307	-0.0147636
177	0x3c2e845a	0.010651672
178	0x3d217eae	0.03942745
179	0x4000a1bd	2.0098717
180	0xbdc22a72	-0.09480752
181	0xb99c435b	-0.00029804822
182	0xbbad8ebf	-0.0052965577
183	0xbbe126f5	-0.006871099
184	0xbdb2ad1b	-0.087244235
185	0x3da7f73b	0.08201452
186	0xbfbd66d0	-1.4797001
187	0x3ef2656a	0.47342998
188	0xbcd1ef00	-0.02562666
189	0xbc25b442	-0.010113778
190	0x3f1895ee	0.59603775
191	0x3e78db73	0.24302463
192	0xbe3ebbfe	-0.18626401
193	0x3c3df60f	0.0115943095
194	0x3e4e6638	0.20156181
195	0xbc493d4e	-0.012282683
196	0xbcbe61e5	-0.02324004
197	0x3e259930	0.16171718
198	0xbe0ee175	-0.13953193
199	0x3c5f8033	0.013641405
200	0x3b6b03b4	0.0035860362
201	0xbe092067	-0.13391267
202	0xbee2876a	-0.44243938
203	0xbe324cec	-0.17412156
204	0x3e80679e	0.25079054
205	0xbc0ee073	-0.008720505
206	0x3c5cc025	0.013473545
207	0xbc9c3457	-0.019067926
208	0x3d5ec4d1	0.054386918
209	0xbd992a57	-0.07478779
210	0x3c7085c1	0.014680327
211	0xc002db9f	-2.0446546
212	0x3d8d2559	0.06891889
213	0xbd63b2bd	-0.05559038
214	0x3f076e98	0.5290313
215	0xbfa92c40	-1.3216629
216	0x3e4494ce	0.1919739
217	0xbb0322a0	-0.0020009652
218	0xbd791af9	-0.06081674
219	0xbb5c4a91	-0.003361378
220	0xbcb658d8	-0.02225916
221	0xbcf39202	-0.029732708
222	0xc011df05	-2.279237
223	0xbf73a721	-0.95176893
224	0x3ca7ad90	0.020468503
225	0xbcf68495	-0.030092517
226	0x3ea1020d	0.31446877
227	0xbf83fc5b	-1.0311388
228	0xbcde48a4	-0.027134247
229	0x3b60c7ea	0.0034298846
230	0x3de75cf3	0.112970255
231	0x3c128613	0.008943099
232	0xbde317ea	-0.110885456
233	0x3b5ca269	0.003366614
234	0xbf97e0c9	-1.1865474
235	0x3ecfff42	0.40624434
236	0x3e3b1893	0.18271093
237	0xbcccb055	-0.024986425
238	0x3fb60bae	1.4222314
239	0x3e7e7286	0.24848375
240	0xbe4cc384	-0.19996458
241	0xbd830b70	-0.06398666
242	0x3d838cd8	0.06423348
243	0xbd13c157	-0.036073055
244	0xbbf2c49a	-0.0074086906
245	0xbdc57829	-0.09642059
246	0x3e16a18c	0.14710063
247	0xbe896c63	-0.26840505
248	0xbc080030	-0.008300826
249	0xbdd9ca3f	-0.106342785
250	0x3b35274f	0.0027641838
251	0xbec4154b	-0.38297495
252	0xbce334bb	-0.027735105
253	0x3a247e1c	0.0006274895
254	0xbdd4472d	-0.10365138
255	0x3bb66ea0	0.0055673867

critic.0.bias f4 [128]
0	0x3e88ef1b	0.26744923
1	0xbd327265	-0.043566126
2	0x3d2965f6	0.041357003
3	0xbe1b33ac	-0.1515643
4	0xbcc284f3	-0.023745036
5	0x3c42f01b	0.011898066
6	0xbd37c13a	-0.04486201
7	0x3e4247c8	0.18972695
8	0xbd0b144b	-0.0339549
9	0xbd8d0443	-0.068855785
10	0xbc0684ae	-0.008210344
11	0x3d662675	0.05618902
12	0xbdb38b54	-0.08766809
13	0xbd8f8251	-0.07007278
14	0xbd6169cb	-0.055032533
15	0xbcbac869	-0.022800641
16	0xbccc2dd2	-0.024924193
17	0x3e0a0cc3	0.1348143
18	0xbd5cecb4	-0.053936675
19	0xbd77f6ed	-0.06053822
20	0x3bba4008	0.0056839027
21	0x3bec69ce	0.0072147613
22	0xbd4c1c96	-0.04983195
23	0xbe24c813	-0.16091947
24	0xbd4e6ca1	-0.050396565
25	0xbd7785db	-0.06043039
26	0x3d29ed61	0.041486148
27	0xbce539d8	-0.027981684
28	0xbe1a5a3b	-0.15073483
29	0xbd9eb8c4	-0.07750085
30	0xbcaebe70	-0.021331042
31	0xbd8242b5	-0.063603796
32	0x3c776297	0.015099189
33	0xbc87000e	-0.016479518
34	0xbe444d69	-0.19170155
35	0x3dcc5f11	0.0997907
36	0xbd555edf	-0.05209243
37	0x3d978ac4	0.07399514
38	0xbd12b03d	-0.035812605
39	0x3d5d7c6c	0.054073736
40	0xbc9263dc	-0.017869882
41	0x3dc170b0	0.094453216
42	0xbcce6a3a	-0.025197137
43	0xbe1cd955	-0.1531728
44	0x3ef5735b	0.47939572
45	0xbd13f424	-0.036121503
46	0x3cdc5e74	0.026900508
47	0xbd032767	-0.03202
48	0xbd93feb9	-0.07226319
49	0x3e66ce54	0.22539645
50	0x3c9cef81	0.019157173
51	0xbc99fafe	-0.01879644
52	0xbcd78926	-0.026310515
53	0xbcc4151e	-0.02393585
54	0x3d31dc53	0.04342301
55	0xbcabc2b1	-0.02096686
56	0x3ccb3e58	0.024810001
57	0xbd33ff5c	-0.0439447
58	0xbd80858f	-0.06275474
59	0x3d9b9add	0.07597897
60	0xbe322a6b	-0.17398994
61	0x3e003409	0.1251985
62	0xbe005e88	-0.12536061
63	0xbdd0194d	-0.10161076
64	0x3c84e0bf	0.016220449
65	0xbbe0e853	-0.0068636327
66	0xbc9296b3	-0.017894125
67	0x3d03d748	0.03218773
68	0xbd8e7a45	-0.06956915
69	0x3c35c6e7	0.011094785
70	0xbd7e134e	-0.06203013
71	0xbd498b87	-0.04920533
72	0x3dea4c76	0.11440365
73	0x3eafe751	0.34356168
74	0xbd6c248d	-0.057652045
75	0x3d23e381	0.040011887
76	0x3bb2e2be	0.0054591587
77	0x3d8a2050	0.06744444
78	0xbc93e1d2	-0.018052015
79	0xbc32d5c8	-0.010915227
80	0xbd72a15e	-0.059235923
81	0x3e3f5ccc	0.18687743
82	0x3d3501eb	0.044191282
83	0xbda1267e	-0.0786867
84	0xbe36291e	-0.17789122
85	0x3d59e11f	0.053193208
86	0x3d3e8306	0.046511672
87	0xbda7846e	-0.08179556
88	0xbbc70616	-0.0060737235
89	0x3c13d3ca	0.009022662
90	0x3ce70a04	0.028203018
91	0x3ecfb332	0.40566403
92	0x3d37f41c	0.044910535
93	0x3d2eb53a	0.0426533
94	0xbadfb760	-0.00170682
95	0x3dc2e8fa	0.09517093
96	0x3d3627f6	0.044471703
97	0x3cd895ac	0.026438557
98	0xbf0c16f9	-0.54722553
99	0xbcb5e7e5	-0.022205302
100	0x3ca66d91	0.020315917
101	0x3d45842c	0.048221752
102	0xbe2f82f9	-0.17139806
103	0x3c557339	0.0130279595
104	0x3dd7c005	0.10534672
105	0xbe86de20	-0.26341343
106	0xbd407148	-0.046983033
107	0xbba9bf10	-0.005180247
108	0x3e0ec518	0.13942373
109	0x3cc4a764	0.0240056
110	0xbd9834d6	-0.07431953
111	0x3ec1fcbc	0.37888134
112	0x3d8cf707	0.06883054
113	0xbca8250e	-0.020525482
114	0x3a0a8a94	0.0005284932
115	0xbd880a51	-0.06642593
116	0x3d0bbfd8	0.034118503
117	0x3d817f1f	0.063230745
118	0x3d3a3185	0.04545738
119	0x3cc4dc7d	0.024030918
120	0x3d8feb2e	0.07027279
121	0x3d47af74	0.04875131
122	0xbe6b96b4	-0.23006707
123	0x3c3558b6	0.011068514
124	0xbca0593b	-0.019573798
125	0xbd7557d5	-0.059898216
126	0xbe9639a8	-0.29340863
127	0x3dbb2aba	0.09139009

critic.2.weight f4 [64, 128]
0	0xbd61731f	-0.05504143
1	0xbcb0d809	-0.021587389
2	0x3c017d89	0.007903465
3	0x3e0fbe46	0.14037427
4	0xbea07552	-0.31339508
5	0x3e9a341b	0.30117878
6	0xbd417576	-0.04723116
7	0xbef3ef1e	-0.4764337
8	0xbdb3a6d8	-0.08772057
9	0x3e81414c	0.2524513
10	0x3ec68165	0.38770595
11	0xbe80d07f	-0.2515907
12	0xbe1f57fd	-0.15560909
13	0xbe5a39f5	-0.21311171
14	0xbe66e052	-0.22546509
15	0x3dd2fb46	0.10301833
16	0x3e4542c0	0.19263744
17	0xbd71efc3	-0.059066545
18	0xbe8ec343	-0.27883348
19	0xbd4701ba	-0.04858563
20	0x3dbe742e	0.09299503
21	0x3e47ee8e	0.19524595
22	0xbed2d10c	-0.41175115
23	0x3e1e8fd9	0.15484561
24	0x3f93d149	1.1548244
25	0xbe7ac631	-0.24489667
26	0xbd7e44bd	-0.062077273
27	0xb93a8c11	-0.00017790521
28	0xbf2d6723	-0.677355
29	0xbd2c77bc	-0.042106375
30	0xbe0f3783	-0.1398602
31	0xbdf28689	-0.11842067
32	0x3e0b0936	0.13577732
33	0x3dfaeee8	0.12252599
34	0x3cdff57c	0.027338736
35	0xbe327e33	-0.17430954
36	0x3e8d2596	0.27567738
37	0xbe10e9b7	-0.14151655
38	0x3e1d14f8	0.1534003
39	0x3ded328c	0.11581907
40	0x3d554f91	0.052077834
41	0xbf56d958	-0.8392539
42	0xbe16d43f	-0.14729403
43	0xbd68b0b0	-0.056809127
44	0xbf26d8aa	-0.65174353
45	0x3e520001	0.20507814
46	0x3e6b3858	0.22970712
47	0xbe0545ad	-0.1301486
48	0x3c947f7a	0.018127192
49	0xbd0b948a	-0.034077205
50	0xbe7db9a3	-0.24777846
51	0x3e0c2271	0.13685013
52	0xbe414d30	-0.18877101
53	0xbe10eaa7	-0.14152013
54	0xbf276c64	-0.65399766
55	0xbe5a446f	-0.21315168
56	0xbdb7be18	-0.089718044
57	0x3d965ede	0.07342313
58	0xbdc06a68	-0.093952954
59	0xbe3a29fd	-0.1818008
60	0x3e9ab09f	0.30212876
61	0xbd4341aa	-0.047670044
62	0x3c7f5765	0.015584801
63	0x3dfa585b	0.12223884
64	0x3ecff276	0.4061467
65	0xbd756d4f	-0.059918698
66	0xbea60207	-0.32423422
67	0x3eca6d53	0.39536533
68	0x3cbdab5c	0.023153
69	0x3f086736	0.5328249
70	0x3e4a0f11	0.1973231
71	0x3e459fc9	0.19299234
72	0x3c063049	0.008190223
73	0xbea90516	-0.33011693
74	0x3d6f3168	0.058396727
75	0x3f1879d1	0.5956088
76	0x3f355cc6	0.70844686
77	0x3c7eb10c	0.015545141
78	0x3d989a0f	0.07451259
79	0xbbf76546	-0.0075499145
80	0xbddef6ef	-0.108869426
81	0x3e18c329	0.14918198
82	0xbd3523ea	-0.044223703
83	0x3c7b4f05	0.015338664
84	0x3e3d1ffe	0.18469235
85	0xbdc0ca9b	-0.09413644
86	0x3d5671a0	0.052354455
87	0xbf034cda	-0.5128914
88	0xbec64060	-0.3872099
89	0xbd3a5c31	-0.045498077
90	0x3e23fa15	0.16013367
91	0x3e634f3f	0.22198199
92	0xbe2e1086	-0.1699849
93	0xbeb2027e	-0.34767526
94	0x3e3864be	0.1800718
95	0x3ea2326b	0.3167909
96	0xbf30df1e	-0.6909045
97	0x3e85b7b7	0.26116726
98	0xbe3b8ce4	-0.18315464
99	0x3ed52307	0.41628286
100	0xbee9a3a0	-0.45632648
101	0x3f10f46a	0.56622946
102	0xbe0ad455	-0.1355756
103	0xbe4eab3c	-0.20182508
104	0x3db6d337	0.08927005
105	0x3ef6cd77	0.48203632
106	0x3e5771c0	0.21039486
107	0xbf3d41fb	-0.73928803
108	0x3decfe50	0.11571944
109	0x3d905c01	0.07048798
110	0x3e801134	0.25013125
111	0xbee311b5	-0.44349447
112	0xbdb10026	-0.086426064
113	0x3d101e25	0.035184998
114	0xbda711c8	-0.081576884
115	0x3dc6b277	0.09702008
116	0xbf10ff25	-0.5663932
117	0x3f32f825	0.6990989
118	0x3ed68443	0.41897783
119	0xbe1b45b5	-0.1516331
120	0x3e58f28c	0.21186274
121	0xbd1b9379	-0.037982438
122	0x3eae9f19	0.34105757
123	0xbe1f1ba4	-0.15537888
124	0x3df39fd2	0.11895718
125	0xbf0482c8	-0.51762056
126	0x3e15fef6	0.14648041
127	0x3eafcb91	0.34334996
128	0xbd54951e	-0.05190002
129	0xbf0f9668	-0.56088877
130	0xbd3e4a45	-0.046457548
131	0x3d52ba46	0.051447175
132	0x3d8d8774	0.06910601
133	0xbd77fbb8	-0.060542792
134	0xbd4fd5fd	-0.050741185
135	0xbe801ad2	-0.25020462
136	0xbe1f70d1	-0.1557038
137	0x3dc6a76f	0.09699904
138	0x3de7dec1	0.11321784
139	0xbc8ba1d5	-0.017044941
140	0xbe61e4b6	-0.22059903
141	0x3d1389b1	0.036019985
142	0xbdc97536	-0.09836809
143	0x3eb694af	0.35660312
144	0xbdb8e8c6	-0.09028773
145	0xbdfbd2c7	-0.12296062
146	0xbd2d5dd4	-0.04232581
147	0xbe0ba86d	-0.13638468
148	0x3c20ddae	0.009818478
149	0x3f02a725	0.5103629
150	0x3ed18524	0.4092189
151	0x3e3b0994	0.18265373
152	0xbe8d74d4	-0.27628195
153	0xbd9bf1d8	-0.076144874
154	0xbf122819	-0.57092434
155	0xbd6bc2b1	-0.05755872
156	0xbe88abe1	-0.26693633
157	0x3e15cbbc	0.146285
158	0xbf20d847	-0.62830013
159	0x3e3d23fa	0.18470755
160	0x3d26db46	0.04073646
161	0xbd2ba6c9	-0.041907106
162	0x3dec65fb	0.11542889
163	0x3e0d92ea	0.13825575
164	0xbe5efb52	-0.21775559
165	0x3e5403f3	0.20704632
166	0x3da1c9b6	0.078998014
167	0x3d0dadd4	0.034589604
168	0xbe5982b6	-0.21241269
169	0x3d079281	0.0330987
170	0x3bc4848d	0.0059972466
171	0x3ced9dca	0.029005904
172	0x3eb90c8b	0.36142382
173	0x3d4dbd4e	0.050229363
174	0x3deb5081	0.11489964
175	0x3da9dd92	0.08294214
176	0xbe665bfc	-0.22496027
177	0xbde8fd5d	-0.1137645
178	0x3d1266b4	0.035742477
179	0x3db22224	0.08697918
180	0xbe319b2c	-0.1734435
181	0x3e91132d	0.28334942
182	0x3e034598	0.12819517
183	0xbe20fe1c	-0.15721935
184	0x3dae5eba	0.085141614
185	0x3e009fab	0.12560908
186	0xbc8eea94	-0.01744584
187	0xbd9a0254	-0.07519975
188	0xbd5f1ecd	-0.054472733
189	0x3d23dc07	0.040004756
190	0x3c9637cd	0.018337155
191	0xbe278f7a	-0.16363326
192	0x3d5c0151	0.053712193
193	0x3e4be696	0.1991218
194	0xbe5d6bbc	-0.21623129
195	0xbe85f2f2	-0.26161915
196	0xbc0658de	-0.0081998985
197	0xbee85631	-0.4537826
198	0xbd1ca654	-0.03824456
199	0xbd5879d7	-0.05285057
200	0x3dc889d8	0.097919166
201	0x3dd6bc42	0.10485126
202	0xbebde807	-0.37091085
203	0xbd4cc24b	-0.04998998
204	0xbde08fd5	-0.10964934
205	0x3e8bc63f	0.27299687
206	0x3e9c0fd7	0.30480835
207	0xbdabf31c	-0.08395979
208	0x3cda9b70	0.026685447
209	0xbce0aa09	-0.02742483
210	0xbe610428	-0.21974242
211	0xbe5b522c	-0.21418065
212	0x3cb60d63	0.02222318
213	0xbd9c7493	-0.07639422
214	0x3dd378d6	0.10325782
215	0x3d8d4b1f	0.06899094
216	0x3ceddfc6	0.029037368
217	0x3e0ec4d7	0.13942276
218	0xbd1c66ce	-0.03818398
219	0xbc856164	-0.016281791
220	0x3ebce7d2	0.36895615
221	0x3ef75d7a	0.48313504
222	0xbeb5d3ef	-0.35513255
223	0xbd50e7f4	-0.051002458
224	0x3e466a4f	0.19376491
225	0xbdc6c7e1	-0.097060926
226	0x3dc80f9b	0.097686015
227	0x3f286fc9	0.6579557
228	0x3d3f9542	0.046773203
229	0xbe6ba5e3	-0.230125
230	0x3f048471	0.5176459
231	0x3ec807c1	0.39068416
232	0xbd0871be	-0.033311598
233	0xbcea303f	-0.028587459
234	0x3da66343	0.081244014
235	0x3f0aa4cd	0.54157716
236	0xbe0399cd	-0.12851639
237	0x3eeb2c18	0.45932078
238	0x3eda97c2	0.42693907
239	0xbebce767	-0.36895296
240	0xbd140d71	-0.03614563
241	0xbed347b8	-0.41265655
242	0x3e99b130	0.30017996
243	0xbfb851f6	-1.4400012
244	0x3e430aba	0.1904706
245	0xbdaec3a7	-0.085334115
246	0xbf4d2fd7	-0.8015112
247	0x3e198e71	0.14995743
248	0x3eea6dee	0.45786995
249	0x3e1c7e37	0.15282522
250	0x3c8987f9	0.01678847
251	0xbf0421ed	-0.51614267
252	0xbe90ddfb	-0.28294358
253	0x3e14a97c	0.14517778
254	0x3cf52b65	0.029927919
255	0x3e35eb43	0.17765526

critic.2.bias f4 [64]
0	0x3caed14c	0.021340035
1	0xbe418e06	-0.18901834
2	0x3da56eb1	0.08077753
3	0x3dec3cb9	0.115350194
4	0xbde2c1bc	-0.11072108
5	0xbe3bab8f	-0.18327163
6	0xbd85742e	-0.065163
7	0x3dd894c3	0.10575249
8	0x3e696a26	0.22794399
9	0xbe0e5510	-0.13899636
10	0xbe1f63a9	-0.15565361
11	0x3e730fb3	0.23736458
12	0x3e1ea4cd	0.15492554
13	0xbc1bf497	-0.009518764
14	0x3c638693	0.013887065
15	0xbe2403eb	-0.1601712
16	0xbe37d4f1	-0.17952324
17	0x3ec85c53	0.39132938
18	0xbe5e5ab7	-0.21714292
19	0x3d2e0884	0.04248859
20	0x3e5f8227	0.21826993
21	0x3e9dfc35	0.3085648
22	0xbcfc6621	-0.030810418
23	0x3c4ef58c	0.012631785
24	0x3ecdfa37	0.4022996
25	0xbe87998e	-0.2648434
26	0xbd80d30a	-0.062902525
27	0xbe2a1c21	-0.16612293
28	0x3da69738	0.081343114
29	0xbca560bd	-0.02018773
30	0xbcd5c1b3	-0.02609334
31	0x3e12de57	0.14342628
32	0xbe8689ec	-0.262771
33	0xbe9525cc	-0.291304
34	0xbe15cc81	-0.14628793
35	0xbeb43906	-0.35199755
36	0xbeb4f2f5	-0.35341612
37	0xbe8a884a	-0.27057105
38	0x3e260e30	0.1621635
39	0x3e650c9d	0.22368093
40	0xbe644a84	-0.2229405
41	0xbde30f02	-0.11086847
42	0xbd746d5b	-0.059674602
43	0xbe8ccd68	-0.27500463
44	0xbe9d3d23	-0.30710706
45	0xbcad43de	-0.021150526
46	0x3d10858f	0.03528362
47	0x3d529533	0.05141182
48	0x3e15caa2	0.1462808
49	0x3e63e831	0.22256543
50	0x3e050b65	0.12992628
51	0xbe85ecae	-0.26157135
52	0x3f07224b	0.527867
53	0xbd432180	-0.04763937
54	0xbe0107c4	-0.12600619
55	0xbbbf4c9d	-0.0058379904
56	0x3cd6720d	0.02617743
57	0xbde783ff	-0.11304473
58	0x3e84cc6c	0.25937212
59	0x3e5021e4	0.20325428
60	0x3e3a52a6	0.1819559
61	0x3d2b63d8	0.041843265
62	0xbe1a1752	-0.15047958
63	0xbe378c00	-0.179245

critic.4.weight f4 [1, 64]
0	0x3f16f3b7	0.5896563
1	0xbedf8a35	-0.4366013
2	0x3f10f8b7	0.5662951
3	0xbed692c3	-0.41908845
4	0xbed62789	-0.41827038
5	0x3f4ad5ab	0.7923228
6	0xbf32efca	-0.6989714
7	0x3ea8c5b0	0.32963324
8	0x3e7ef99e	0.24899909
9	0xbf00266a	-0.50058615
10	0xbec4326d	-0.38319722
11	0x3f3f2959	0.74672467
12	0x3eb5125a	0.35365564
13	0xbe91e0f3	-0.28491935
14	0x3f1142b7	0.56742424
15	0x3ea9c96e	0.3316149
16	0xbefce234	-0.4939133
17	0x3fc1bccc	1.5135741
18	0xbf13f2d2	-0.5779239
19	0x3eb4c7cd	0.35308686
20	0x3ec85e2f	0.39134356
21	0x3edadbb2	0.4274574
22	0x3ebc928d	0.3683056
23	0xbecda699	-0.40166166
24	0x3efdc3a7	0.49563333
25	0xbe94d83c	-0.29071224
26	0xbfecfa6f	-1.8513926
27	0xbebc5d41	-0.36789897
28	0xbf6e5649	-0.9310041
29	0x3f00a1ec	0.50247073
30	0xbf16ed10	-0.5895548
31	0x3f42ffad	0.7617138
32	0xbf15c8b2	-0.5850936
33	0xbf28c612	-0.6592723
34	0xbf1d3c6b	-0.61420316
35	0xbf0ed581	-0.5579453
36	0xbeac4bf1	-0.3365169
37	0xbf0cdf5f	-0.5502834
38	0x3efa5167	0.4889023
39	0x3ed6e997	0.4197509
40	0xbee856ef	-0.45378825
41	0xbebe4fab	-0.37170157
42	0xbec4ee71	-0.38463166
43	0xbed79377	-0.42104694
44	0xbfab2c50	-1.3372898
45	0x3ed26957	0.41095993
46	0xbf59fee7	-0.85154575
47	0x3ec362c6	0.38161296
48	0x3f027d9d	0.5097292
49	0x3f017d8e	0.50582206
50	0x3f22004e	0.63281715
51	0xbec4c538	-0.38431716
52	0x3faa8835	1.3322817
53	0xbf064850	-0.5245409
54	0xbea0af3a	-0.31383687
55	0xbec2adfc	-0.38023365
56	0x3ebbb31c	0.36660087
57	0xbeb18aa0	-0.34676075
58	0x3f015572	0.50521004
59	0x3e9f0aeb	0.31063017
60	0x3f1f8fb4	0.6232865
61	0x3f2901ab	0.6601817
62	0xbf1513b0	-0.58233166
63	0xbf0843e2	-0.5322858

actor.0.weight f4 [128, 19]
0	0xbeafbb3e	-0.34322542
1	0x3e1421c8	0.14466012
2	0x3d7426e8	0.059607416
3	0x3d47f362	0.048816092
4	0xbd183cae	-0.037167244
5	0x3f05ac94	0.5221646
6	0x3e8aa31b	0.27077565
7	0xbe5ea111	-0.2174113
8	0x3f58d956	0.8470663
9	0xbeebd1f3	-0.46058616
10	0xbec6ec4b	-0.38852152
11	0xbe414ba3	-0.1887651
12	0xbdc79164	-0.09744528
13	0xbd40e6f1	-0.047095243
14	0xbe1a0098	-0.15039289
15	0xbd7e6903	-0.062111866
16	0x3e3d2503	0.1847115
17	0xbe83abd4	-0.25717032
18	0x3ca26236	0.019822221
19	0x3e356e26	0.177178
20	0x3e325d48	0.17418396
21	0x3e09330f	0.13398384
22	0xbe322638	-0.17397392
23	0x3f183e4c	0.5947006
24	0xbe697f48	-0.2280246
25	0x3e367cf2	0.178211
26	0xbed9a301	-0.42507175
27	0x3e4db2a6	0.2008768
28	0x3f336418	0.70074606
29	0x3ecb3916	0.3969199
30	0xbeb2a046	-0.34887904
31	0x3962f510	0.00021644332
32	0xbdd44478	-0.10364622
33	0xbf0cf965	-0.55068046
34	0x3eab371a	0.33440477
35	0xbecfa5ea	-0.4055627
36	0x3f0fe24c	0.56204677
37	0x3e99b476	0.30020493
38	0xbc9f97b0	-0.01948151
39	0xbe4dbf4c	-0.20092505
40	0xbe9eb5f2	-0.30998188
41	0x3e94a3c0	0.2903118
42	0x3e6514f9	0.22371282
43	0xbf505466	-0.8137878
44	0xbd88e6a3	-0.066846155
45	0x3e18b8ae	0.149142
46	0x3e7bbe00	0.24584198
47	0xbef7732e	-0.48330063
48	0x3dcd54f1	0.10025967
49	0x3e52836d	0.20557947
50	0xbb1fb882	-0.002437145
51	0xbe647f14	-0.22314101
52	0x3e5a7c66	0.21336517
53	0x3e766119	0.24060477
54	0xbdd618ef	-0.104539745
55	0x3dc6da87	0.097096495
56	0xbc9e6f7a	-0.019340266
57	0x3dc04a12	0.09389128
58	0xbe5f66d0	-0.21816564
59	0xbed4679d	-0.414853
60	0x3e4b7753	0.19869737
61	0x3f8d5740	1.1042252
62	0x3f54a6af	0.8306684
63	0x3cba90eb	0.02277418
64	0x3e605631	0.2190788
65	0x3c811d7d	0.015761131
66	0x3e185ee8	0.14879954
67	0x3f1a2b74	0.60222554
68	0xbeb2df63	-0.34936056
69	0xbd5c7334	-0.053820804
70	0x3db06206	0.086124465
71	0x3edef7da	0.4354847
72	0x3c94258f	0.018084316
73	0x3c8a82fa	0.016908158
74	0xbe640085	-0.22265823
75	0x3e208f1d	0.15679593
76	0x3db173f9	0.08664698
77	0xbcec8758	-0.02887313
78	0xbe6a6404	-0.22889715
79	0xbddaeeb9	-0.10690064
80	0xc003691f	-2.053291
81	0x3f262013	0.6489269
82	0x3d80a54a	0.062815264
83	0x3cca1644	0.02466882
84	0x3d0ade2d	0.03390329
85	0xbeeaa1b9	-0.4582651
86	0xbd36783f	-0.04454827
87	0xba02e8c9	-0.0004993794
88	0xbdd3443b	-0.10315748
89	0xbe4de1d7	-0.20105682
90	0xbe5cf821	-0.21579029
91	0x3e0d7b9b	0.13816683
92	0xbdb22a09	-0.08699424
93	0x3e2ac2d6	0.16675887
94	0x3d9de2b8	0.07709259
95	0xbe70101a	-0.23443642
96	0x3eb322ef	0.3498759
97	0x3db16004	0.08660892
98	0xbeb55300	-0.35414886
99	0xbde6e4b4	-0.112740904
100	0xbf7d59b9	-0.9896503
101	0x3d60b3ea	0.05485908
102	0xbe0360ac	-0.12829846
103	0x3f5e2e80	0.86789703
104	0xbf092499	-0.5357147
105	0xbed5ff80	-0.41796494
106	0x3f08ef84	0.5349047
107	0xbef4d59e	-0.47819227
108	0xbdd1e832	-0.10249366
109	0xbec27836	-0.3798234
110	0xbd8881d5	-0.066653885
111	0xbefd8150	-0.4951272
112	0x3e5bb15e	0.21454379
113	0x3e6ffe20	0.23436785
114	0x3e16a746	0.14712247
115	0x3da42a3f	0.0801587
116	0xbe5bdaeb	-0.2147023
117	0x3e8fdb0e	0.28096813
118	0xbed8643e	-0.4226398
119	0x3e7a46d8	0.24441087
120	0x3ec6c8e2	0.38825136
121	0xbeeaeae5	-0.45882335
122	0xbd887733	-0.066633604
123	0xbef3535c	-0.47524536
124	0x3dc33f26	0.09533529
125	0x3ee13280	0.4398384
126	0xbeb84a4b	-0.3599418
127	0x3e00f495	0.125933
128	0xbe7162f8	-0.2357291
129	0x3e62a960	0.22134924
130	0x3d75f62a	0.060049213
131	0x3eb073f5	0.34463468
132	0x3e999e0f	0.30003402
133	0x3da36bd0	0.07979548
134	0x3d53b743	0.051688444
135	0x3e868994	0.2627684
136	0x3e19c617	0.15016972
137	0xbaa9f9f7	-0.0012968172
138	0x3fa6f3f4	1.3043199
139	0xbe3c7e2d	-0.18407507
140	0x3d49d06e	0.04927104
141	0x3ef37e8e	0.4755749
142	0x3ecf400c	0.4047855
143	0x3f00d407	0.5032353
144	0xbd976e0a	-0.07394035
145	0xbe13aedc	-0.14422172
146	0x3f1dfa7b	0.6171033
147	0xbe71478f	-0.23562454
148	0xbe7c799a	-0.24655762
149	0xbe1e94da	-0.1548647
150	0x3ef05d92	0.46946388
151	0x3d31236f	0.043246683
152	0x3e24fba2	0.16111615
153	0x3e0ea2ed	0.13929339
154	0x3e8c1137	0.27356884
155	0xbe3eb2ce	-0.18622896
156	0xbe99f636	-0.30070657
157	0x3f93af2f	1.1537837
158	0xbd7a4fb1	-0.061111156
159	0xbc0ee1ae	-0.008720798
160	0x3f72024d	0.9453476
161	0xbdfdfe76	-0.1240205
162	0x3eb066b8	0.34453368
163	0xbdaaa2d4	-0.08331838
164	0xbe57b7ec	-0.21066254
165	0xbe2fb39a	-0.17158356
166	0x3e974f7f	0.29552838
167	0xbe4cd392	-0.20002583
168	0xbdbb4fe5	-0.09146098
169	0x3dc24d2e	0.09487377
170	0x3d9b5cd2	0.075860634
171	0xbe047529	-0.12935318
172	0xbed06b1d	-0.4070672
173	0x3c0bb8d7	0.008527956
174	0xbc2004cf	-0.009766771
175	0x3f2db8ff	0.67860407
176	0x3e5d401e	0.2160649
177	0x3ed3989f	0.41327378
178	0xbe72dc84	-0.23716933
179	0xbe2124a9	-0.15736641
180	0x3ef7e55e	0.4841718
181	0x3ea615d6	0.32438534
182	0xbf5cd548	-0.8626294
183	0x3d65ff14	0.056151465
184	0xbea9c984	-0.33161557
185	0xbe212def	-0.15740179
186	0xbe0681a0	-0.13135386
187	0xbe908955	-0.28229776
188	0xbe15b1ed	-0.14618655
189	0xbd8c3437	-0.06845897
190	0xbe83e601	-0.25761417
191	0x3e9e4e3b	0.3091906
192	0xbc526d9d	-0.012843517
193	0x3cc08ca1	0.023504557
194	0x3f89ae49	1.0756313
195	0x3e81e7a1	0.2537203
196	0x3da300cb	0.079591356
197	0xbdf12376	-0.11774342
198	0x3f5a0914	0.851701
199	0xbf013fb6	-0.5048784
200	0x3e9f12fc	0.3106917
201	0xbe719236	-0.23590931
202	0x3e0f11d2	0.13971642
203	0x3f1fbf43	0.6240122
204	0xbe8ef31f	-0.27919862
205	0xbecb1c83	-0.3967019
206	0xbe44b6fd	-0.1921043
207	0xbea9679b	-0.33086857
208	0x3ed362d5	0.4128634
209	0xbe937f63	-0.28808126
210	0xbd678233	-0.056520652
211	0x3e26c19e	0.16284797
212	0x3c481bad	0.01221363
213	0x3e5fdf9a	0.21862641
214	0x3edaedf3	0.42759666
215	0x3d0db61f	0.034597512
216	0xbec19a42	-0.37813002
217	0xbdacc3b2	-0.084357634
218	0xbf04176b	-0.51598233
219	0xbea9de00	-0.33177185
220	0x3e8abe0c	0.2709812
221	0x3c45eee2	0.01208088
222	0x3e354718	0.17702901
223	0xbec2204a	-0.3791526
224	0xbe88c52d	-0.26712933
225	0x3ee068de	0.43830007
226	0xbf255bbf	-0.6459312
227	0x3baec656	0.005333702
228	0xbeb57c12	-0.3544622
229	0xbf033474	-0.5125191
230	0x3d37128f	0.044695433
231	0xbd219a58	-0.039453834
232	0x3d877ea7	0.06615954
233	0x3e5f75e0	0.2182231
234	0x3e9e76b6	0.30949944
235	0x3f01898b	0.506005
236	0x3e45d775	0.19320472
237	0x3eb5d93e	0.35517305
238	0xbdadc354	-0.084845215
239	0xbdd9ce17	-0.10635012
240	0xbdceed08	-0.10103804
241	0x3d269ac8	0.040674955
242	0xbe4a63d3	-0.19764642
243	0xbdb471b1	-0.088107474
244	0x3d2c4718	0.042059988
245	0x3da42d48	0.08016449
246	0xbec263f8	-0.37966895
247	0xbd8a77cc	-0.06761131
248	0x3f1c3e67	0.6103272
249	0xbcc66bda	-0.02422135
250	0xbea48bd3	-0.32137927
251	0xbe8f6b8a	-0.28011733
252	0xbe235357	-0.1594976
253	0x3de5b6a2	0.11216475
254	0x3e8dad32	0.276712
255	0x3dd70e00	0.10500717

actor.0.bias f4 [128]
0	0xbe525e18	-0.20543706
1	0xbbaed6d5	-0.0053356686
2	0x3d837ad4	0.06419912
3	0x3d8a000d	0.06738291
4	0x3cde80a5	0.027160952
5	0xbe0cf088	-0.1376363
6	0x3db6821b	0.089115344
7	0x3dcd491f	0.10023712
8	0xba9379cb	-0.0011251507
9	0xbe56472a	-0.20925584
10	0xbd1c345b	-0.038135868
11	0xbda08339	-0.07837529
12	0xbda6ef07	-0.081510596
13	0xbd97481e	-0.07386802
14	0x3becec26	0.0072302995
15	0x3ebc28c7	0.3674986
16	0xbe180c6e	-0.14848492
17	0x3d20eaf9	0.039286587
18	0x3db08d8e	0.086207494
19	0x3d5a37a4	0.05327572
20	0x3cadef59	0.021232294
21	0x3e0c793e	0.13718125
22	0x3e43c7d3	0.19119196
23	0x3dc9f651	0.09861434
24	0xbd02bcdf	-0.031918403
25	0xbd18e39a	-0.037326433
26	0xbde2d4eb	-0.11075767
27	0xbd029c8e	-0.031887583
28	0x3cb2e29d	0.021836573
29	0xbe0a6063	-0.13513331
30	0x3d2190d9	0.039444778
31	0x3d9cb748	0.076521456
32	0xbe3146c3	-0.1731215
33	0xbe57199c	-0.21005863
34	0xbdb8fa45	-0.0903211
35	0xbe3d2942	-0.1847277
36	0x3dafd558	0.08585614
37	0xbe045695	-0.12923653
38	0x3e0466ef	0.12929891
39	0x3c97d65b	0.01853483
40	0xbdbc11e6	-0.09183101
41	0xbce7d9cf	-0.028302101
42	0xbd43f09e	-0.047836892
43	0xbd34fe95	-0.0441881
44	0xbd76ea7b	-0.06028221
45	0xbca4c054	-0.02011124
46	0x3e4b1fa0	0.19836283
47	0xbdfcfbdc	-0.12352726
48	0x3e616943	0.2201281
49	0xbd79de20	-0.06100285
50	0x3d97414b	0.073855005
51	0xbde79ec1	-0.11309577
52	0xbdca1467	-0.09867173
53	0x3e745903	0.2386208
54	0x3d709f5a	0.05874572
55	0xbd31e400	-0.04343033
56	0xbe24c63b	-0.16091244
57	0xbe008cb4	-0.12553674
58	0x3c84d453	0.016214525
59	0x3e4cc982	0.19998744
60	0x3c5a0de2	0.013308974
61	0x3e1b698b	0.1517698
62	0x3d595542	0.053059824
63	0x3ce0cf2a	0.027442534
64	0x3dbc7348	0.09201676
65	0x3e08b285	0.1334935
66	0xbe48a923	-0.1959577
67	0x3cfadd83	0.030623203
68	0x3d3f32ef	0.046679433
69	0x3d8267dd	0.063674666
70	0x3de428ce	0.111405954
71	0x3d47828a	0.048708476
72	0x3de6f49e	0.11277126
73	0x3d199b10	0.037501395
74	0x3c654192	0.013992684
75	0xbb0c37e9	-0.002139563
76	0x3dd6881f	0.10475182
77	0xbc9107b7	-0.017703874
78	0xbdac1336	-0.08402102
79	0xbb53c71d	-0.0032314726
80	0x3dc7491b	0.09730741
81	0xbd92a3a3	-0.071601175
82	0x3dae8092	0.085206166
83	0xbd1cc34e	-0.038272195
84	0x3d76d763	0.060264003
85	0xbcaef1c4	-0.021355517
86	0xbe28c35d	-0.16480775
87	0xbd3136d0	-0.043265164
88	0xbbe940c2	-0.0071183154
89	0x3cee72b9	0.029107438
90	0x3d200019	0.039062593
91	0x3e765ddf	0.24059246
92	0x3d6708e4	0.056404963
93	0xbcb8c6ed	-0.022555793
94	0x3e0b7161	0.1361747
95	0x3e06d7c3	0.13168244
96	0x3e7ba57c	0.24574846
97	0x3d4eaa7b	0.05045555
98	0x3e75dd6c	0.24010247
99	0x3e681999	0.22666015
100	0x3de83b1f	0.113394015
101	0x3d0c322d	0.03422754
102	0xbc0b94aa	-0.008519331
103	0x3cf7b431	0.03023729
104	0xbda8f085	-0.082490005
105	0xbe554dc6	-0.2083045
106	0xbdab1124	-0.08352879
107	0x3cee22ab	0.029069265
108	0x3b99868f	0.00468523
109	0xbe290e92	-0.16509464
110	0x3bf3710d	0.007429248
111	0xbd6623fa	-0.056186654
112	0x3dbb8e94	0.09158054
113	0x3d63a3d1	0.05557615
114	0xbd81883a	-0.06324811
115	0x3d1b430b	0.037905734
116	0x3dda6428	0.106636345
117	0xbd3bcf58	-0.045852035
118	0x3d0e205d	0.034698833
119	0xbd96506b	-0.07339557
120	0xbda3d668	-0.07999879
121	0x3dd5fad0	0.10448229
122	0x3da361fa	0.07977672
123	0xbe089846	-0.13339338
124	0x3e0fceb6	0.14043698
125	0xbd028603	-0.031866085
126	0x3cae4c97	0.021276755
127	0xbe64861c	-0.22316784

actor.2.weight f4 [64, 128]
0	0x3e26b81c	0.1628117
1	0x3e9132fd	0.28359213
2	0xbecadac3	-0.39620027
3	0x3db161d5	0.08661238
4	0xbe848200	-0.25880432
5	0x3ea2710a	0.31726867
6	0xbce8275e	-0.028339084
7	0xbc2d7f97	-0.010589502
8	0x3e810a6e	0.2520327
9	0x3dadd724	0.084883004
10	0x3e030d2e	0.12797996
11	0x3da2913e	0.07937859
12	0x3e85546b	0.26040968
13	0x3e2a0176	0.1660212
14	0x3e1ecc41	0.15507604
15	0xbea29a40	-0.31758308
16	0x3e4a28bb	0.197421
17	0x3d1e96a2	0.038717873
18	0xbf6075d6	-0.87679803
19	0xbd2eba66	-0.042658232
20	0x3e4388fc	0.19095224
21	0xbb9a4892	-0.004708358
22	0xbdcfbe6e	-0.101437435
23	0xbadb941b	-0.0016752513
24	0xbd8cd710	-0.068769574
25	0xbe114b36	-0.14188847
26	0x3d9d7d05	0.07689861
27	0x3e6b76b9	0.22994508
28	0xbe422f38	-0.18963325
29	0x3ebdb269	0.3705018
30	0x3e181be8	0.14854395
31	0x3e4f74bc	0.20259374
32	0x3f126086	0.57178533
33	0xbf10b088	-0.56519365
34	0x3e441e8a	0.19152275
35	0x3dce0a46	0.10060553
36	0xbe0e850b	-0.1391794
37	0xbd5910ae	-0.052994423
38	0x3de57af6	0.112050936
39	0x3ea5e03d	0.32397643
40	0x3dfed270	0.124424815
41	0x3df08472	0.11744012
42	0x3e9fe19e	0.3122682
43	0xbe4bd71c	-0.19906276
44	0x3dbc1a0a	0.09184654
45	0x3f190540	0.59773636
46	0xbea8119e	-0.3282594
47	0x3db7481d	0.089493014
48	0xbe38cb38	-0.18046272
49	0x3e1c8f4b	0.15289037
50	0xbd868df6	-0.06570046
51	0x3debfeb3	0.115231894
52	0xbea1bcb9	-0.31589296
53	0x3c942b3c	0.018087022
54	0xbe9fdfd8	-0.31225467
55	0xbea5acf4	-0.32358515
56	0xbe652395	-0.22376855
57	0x3ec19302	0.3780747
58	0x3d067ec1	0.032835726
59	0xbd00a9c9	-0.03141192
60	0x3dfbaa75	0.122883715
61	0xbe648927	-0.22317944
62	0xbeebb8c1	-0.46039394
63	0xbe2504a5	-0.16115053
64	0xbf09ea12	-0.5387279
65	0xbbcb4478	-0.0062032305
66	0x3f0553c3	0.52080935
67	0xbecd3084	-0.40076077
68	0xbf03b37a	-0.51445735
69	0x3d5da557	0.05411276
70	0xbc9d882d	-0.019229973
71	0xbbce4619	-0.0062949774
72	0xbe047a2c	-0.1293723
73	0xbdd9e16d	-0.106387
74	0xbe5605ea	-0.20900694
75	0x3ddaf6ba	0.106915906
76	0xbde0426d	-0.1095017
77	0x3eb45b30	0.3522582
78	0x3dfba15b	0.122866355
79	0xbd0c731a	-0.034289457
80	0xbec785aa	-0.38969165
81	0xbd44347a	-0.047901608
82	0xbec5ae08	-0.38609338
83	0xbe84570d	-0.25847664
84	0xbd82c6db	-0.06385585
85	0xbdc9cfa0	-0.098540545
86	0xbdb707c5	-0.08937029
87	0x3d714117	0.058899965
88	0xbdd1e1ac	-0.102481216
89	0x3d3caee1	0.046065215
90	0x3e0ce2ce	0.13758394
91	0x3b516de1	0.0031956362
92	0xbf0ed156	-0.5578817
93	0x3d53ea02	0.05173684
94	0x3da41467	0.08011704
95	0x3dbcf5f2	0.09226598
96	0xbdbf4eea	-0.093412235
97	0x3e270b26	0.16312847
98	0x3d8825a6	0.06647806
99	0xbe383979	-0.17990674
100	0xbeac1ea5	-0.3361713
101	0xbe5e281f	-0.21694992
102	0xbe65c980	-0.22440147
103	0x3e90ed4f	0.28306052
104	0x3ea28262	0.317401
105	0x3e5165fc	0.2044906
106	0x3da82b74	0.08211413
107	0x3d5cd3bd	0.053912867
108	0x3d97ca82	0.07411672
109	0x3efdddba	0.49583226
110	0xbebbd54f	-0.3668618
111	0x3e114019	0.14184608
112	0xbe10d355	-0.14143117
113	0xbe37d56d	-0.17952509
114	0x3f0567bf	0.5211143
115	0xbec1c244	-0.37843525
116	0x3e5227fd	0.20523067
117	0xbd419ba8	-0.047267586
118	0x3b75ffba	0.0037536458
119	0xbe521ba3	-0.20518355
120	0xbe549c91	-0.2076285
121	0xbd175e6a	-0.036955275
122	0xbdd533ed	-0.10410295
123	0x3e1654b8	0.14680755
124	0x3e139ff1	0.14416482
125	0xbe24a202	-0.16077426
126	0x3d077142	0.033066995
127	0x3f2f188e	0.6839684
128	0xbeb50cc0	-0.3536129
129	0x3e977421	0.29580787
130	0xbe842f76	-0.2581746
131	0xbe1e371b	-0.15450709
132	0x3e1e4bb9	0.15458573
133	0xbd78166e	-0.060568266
134	0x3e81ffcb	0.25390467
135	0x3f32c710	0.69834995
136	0xbe66b0b1	-0.2252834
137	0xbea8b49b	-0.3295029
138	0xbdcd258f	-0.10016929
139	0xbed7adb9	-0.42124727
140	0x3dae4b45	0.0851045
141	0xbd8430cf	-0.06454622
142	0x3eac054b	0.33597788
143	0x3e812cfb	0.2522963
144	0xbeff4eed	-0.49864903
145	0x3e2e88bc	0.17044348
146	0xbe6ace2f	-0.22930215
147	0xbe153836	-0.14572224
148	0x3d478b9d	0.04871713
149	0xbc4b9691	-0.012426035
150	0xbddbc83d	-0.10731552
151	0x3d796be1	0.060893897
152	0x3e952680	0.29130936
153	0x3d43a9b3	0.04776926
154	0xbce3f767	-0.027827932
155	0x3dd0f6a9	0.10203297
156	0xbe7a1e24	-0.2442556
157	0xbe84b121	-0.2591639
158	0x3ede8bec	0.43466127
159	0x3e6888e9	0.22708477
160	0xbdd0018c	-0.10156545
161	0x3e384898	0.17996442
162	0xbf25ca26	-0.6476158
163	0xbe179c3d	-0.14805694
164	0xbeae0b9f	-0.3399324
165	0xbec6c2f2	-0.38820606
166	0xbe3a4c10	-0.18193078
167	0xbe7442cc	-0.23853606
168	0x3f04d2bc	0.51884055
169	0x3ed108b0	0.4082694
170	0xbe05ca13	-0.13065366
171	0xbd8c8c23	-0.068626665
172	0xbe126924	-0.1429792
173	0x3e276181	0.16345789
174	0x3d3ba5c9	0.045812402
175	0xbc04d761	-0.008107991
176	0xbe31c7ab	-0.17361324
177	0xbe44d93b	-0.19223492
178	0xbdea086c	-0.114273876
179	0x3d077ee8	0.03308001
180	0x3d9760c7	0.07391506
181	0x3f04354b	0.5164382
182	0x3ebf4680	0.37358475
183	0xbd335f4b	-0.04379205
184	0xbed2217d	-0.41041175
185	0xbea056be	-0.3131618
186	0xbe2bc783	-0.16775326
187	0x3ba5cdf3	0.0050599515
188	0xbe77dd43	-0.24205498
189	0x3e4f3e2a	0.20238557
190	0x3dd8711c	0.10568449
191	0x3e050025	0.12988336
192	0xbe920041	-0.2851582
193	0x3f1b95bb	0.60775346
194	0xbe362c56	-0.1779035
195	0xbd08adc2	-0.033368833
196	0xbed61e58	-0.41820025
197	0xbcd300a7	-0.025757147
198	0xbb7691fe	-0.003762364
199	0x3ee2e779	0.44317225
200	0xbc59f760	-0.013303608
201	0x3e1c3a96	0.15256724
202	0xbe7ce430	-0.24696422
203	0xbe679cf2	-0.22618464
204	0x3d7c8aa9	0.061655674
205	0x3e7daf2c	0.24773854
206	0xbdc5daa8	-0.09660846
207	0xbea4a09a	-0.3215378
208	0xbd85139d	-0.064978816
209	0x3ee3b7c0	0.44476128
210	0x3e3de65c	0.18544906
211	0x3e836d8b	0.25669512
212	0x3f10f603	0.56625384
213	0xbe1feff3	-0.15618877
214	0xbe5fbce3	-0.21849398
215	0xbd69eea7	-0.057112362
216	0x3e27a24d	0.16370507
217	0xbe8519d6	-0.25996274
218	0xbdfea2e1	-0.124334104
219	0xbd953d3f	-0.072870724
220	0x3e4355b2	0.19075659
221	0x3edb015d	0.42774478
222	0x3e25d6c9	0.16195215
223	0xbe3b4aa0	-0.18290186
224	0xbdec88a5	-0.115495004
225	0xbe828e99	-0.25499418
226	0x3e2390ce	0.15973207
227	0x3e9de7bd	0.30840865
228	0xbe02489e	-0.12723014
229	0xbe02e982	-0.12784389
230	0xba4418e6	-0.0007480517
231	0xbe656e86	-0.22405443
232	0x3dd508b8	0.104020536
233	0x3d1ee9af	0.038797077
234	0xbdd89665	-0.105755605
235	0xb9d3e5a5	-0.00040416155
236	0x3e9071dd	0.2821187
237	0x3d8d4bee	0.06899248
238	0xbca4b6cd	-0.020106697
239	0xbe201283	-0.15632062
240	0x3c34f4c5	0.011044686
241	0xbbc50bd6	-0.006013374
242	0xbe9f84c2	-0.31155974
243	0x3f1a0de7	0.60177463
244	0x3da6b900	0.08140755
245	0xbe3c8921	-0.18411686
246	0xbe399224	-0.18122154
247	0xbebb9f42	-0.36644942
248	0xbe105ed7	-0.14098679
249	0x3e3e0681	0.18557169
250	0xbe6e4853	-0.23269777
251	0xbd8c8093	-0.06860461
252	0x3e343cf1	0.17601372
253	0xbe9af8ca	-0.30267936
254	0x3f0a27d9	0.5396705
255	0x3e23ce41	0.15996648

actor.2.bias f4 [64]
0	0xbcd0b92d	-0.025478924
1	0x3e0f136a	0.1397225
2	0xbe8b574d	-0.27215043
3	0x3d0cfe8d	0.034422446
4	0x3e9f66b4	0.31133044
5	0xbd416037	-0.0472109
6	0xbde5500d	-0.11196909
7	0xbebf1150	-0.37317896
8	0xbd5d96f2	-0.05409903
9	0xbdad5a59	-0.08464498
10	0x3bc602da	0.0060428204
11	0x3da3c913	0.07997336
12	0x3d084250	0.033266366
13	0x3e3eea2a	0.18644014
14	0x3dd574b0	0.10422647
15	0xbdaa3b33	-0.083120726
16	0xbe3ea80b	-0.18618791
17	0x3da0b7b0	0.078475356
18	0xbcf00e57	-0.029303713
19	0xbcc6f715	-0.02428774
20	0x3d1197c0	0.03554511
21	0xbd9bfe81	-0.07616902
22	0xbd89d57e	-0.067301735
23	0xbe2450c1	-0.1604643
24	0x3d7b4eef	0.061354574
25	0xbe166b94	-0.14689475
26	0x3e5719a9	0.21005882
27	0xbcda087c	-0.026615374
28	0xbda9d2c2	-0.08292152
29	0xbe1a35e7	-0.15059625
30	0xbea2521b	-0.31703267
31	0xbd8480b8	-0.06469864
32	0xbe02cdc6	-0.12773809
33	0x3e8bf09d	0.2733201
34	0x3d9c9067	0.0764473
35	0x3e23bdfe	0.15990445
36	0x3e085ab8	0.13315856
37	0xbe2c95f7	-0.16854082
38	0x3c5574df	0.0130283525
39	0xbe837d69	-0.25681618
40	0xbbd5704e	-0.006513632
41	0xbd33d75e	-0.043906562
42	0x3d258a34	0.040415004
43	0x3e8c9289	0.27455547
44	0xbd193cf1	-0.037411634
45	0xbdcc5869	-0.099778004
46	0x3d2b31b9	0.041795466
47	0x3e3ea981	0.18619348
48	0xbdeae3fb	-0.11469265
49	0x3de234ad	0.11045203
50	0x3e10ab13	0.1412776
51	0xbe820926	-0.25397605
52	0xbdbb1c58	-0.091362655
53	0xbda2e996	-0.07954709
54	0xbd09750b	-0.033558886
55	0xbe5984d6	-0.21242079
56	0x3d1194a6	0.035542153
57	0x3da29d05	0.07940105
58	0xbd8fbcd7	-0.0701844
59	0x3e27cbca	0.16386333
60	0x3d6ebedf	0.058287498
61	0xbd67f8c9	-0.056633744
62	0xbc13da7e	-0.009024261
63	0x3e31d86b	0.17367713

actor.4.weight f4 [12, 64]
0	0xbe2b790b	-0.16745393
1	0xbe29aed9	-0.16570605
2	0xbf0f6347	-0.5601086
3	0xbdf1d93b	-0.118090115
4	0xbe6f4be0	-0.23368788
5	0xbe04ed4a	-0.12981144
6	0xbe574e65	-0.21025999
7	0xbd99bd0d	-0.07506762
8	0x3dc37050	0.09542906
9	0x3d77c9ed	0.060495306
10	0x3b72671b	0.0036987725
11	0xbdd1f6ed	-0.102521755
12	0xbb22e9af	-0.0024858525
13	0x3d0c4e60	0.03425443
14	0xbe59fc75	-0.21287711
15	0x3cbc7aff	0.023007868
16	0x3d55aacd	0.05216484
17	0xbe5e2af7	-0.21696077
18	0x3d73085c	0.059334144
19	0xbe1ca4ab	-0.15297191
20	0x3df0a547	0.11750274
21	0x3e2cc3d1	0.16871573
22	0xbdcab705	-0.098981895
23	0x3da41d81	0.0801344
24	0x3ccdf8ab	0.025142988
25	0xbe02ec61	-0.12785484
26	0x3cbd8504	0.023134716
27	0x3e422281	0.18958475
28	0x3de6d324	0.11270741
29	0xbce90b11	-0.02844766
30	0xbe2b0b88	-0.16703618
31	0x3d878de3	0.066188596
32	0x3dbc41af	0.09192216
33	0x3d694569	0.05695096
34	0x3da16028	0.078796685
35	0x3e0ea878	0.13931453
36	0x3d5bb120	0.053635716
37	0xbca53b5d	-0.020169908
38	0xbdf6206d	-0.120179035
39	0xbe8ef917	-0.27924415
40	0x3d5589a0	0.052133203
41	0xbd9367f5	-0.071975626
42	0x3ba2ed8a	0.0049721645
43	0xbe593d70	-0.21214843
44	0x3d33828f	0.043825682
45	0x3cee0b55	0.029058138
46	0x3d52ba72	0.05144734
47	0x3d5be982	0.053689487
48	0xbd1e93cd	-0.038715173
49	0xbdc3989c	-0.09550592
50	0x3d3b8740	0.04578328
51	0x3e3871c2	0.18012145
52	0x3d0ffcac	0.035153076
53	0xbdc1709b	-0.09445306
54	0xbd7b909b	-0.061417203
55	0x3e4465ea	0.19179502
56	0xbd94dfe7	-0.072692685
57	0x3ddacc20	0.10683465
58	0xbd1a8b4c	-0.0377305
59	0x3e5218fc	0.20517343
60	0xbda7a17b	-0.08185097
61	0xbcb55b11	-0.02213815
62	0xbdd6e81b	-0.10493489
63	0x3d8b87c0	0.06813002
64	0xbeab0817	-0.3340461
65	0x3deaa4fc	0.114572495
66	0x3f68e8f4	0.9098046
67	0x3eaa47f2	0.33258015
68	0xbee55c85	-0.4479715
69	0x3f5427b2	0.8287307
70	0xbf1465a6	-0.57967603
71	0x3f719dc9	0.94381386
72	0xbd1ed156	-0.038773857
73	0xbed4d850	-0.41571283
74	0xbcfa59fa	-0.030560482
75	0x3d96a71b	0.073560916
76	0xbd9f546e	-0.077797756
77	0xbf2354c5	-0.63801223
78	0x3e2561d0	0.16150594
79	0xbdc9762c	-0.098369926
80	0x3d87f656	0.06638782
81	0xbe068b8c	-0.1313917
82	0xbefdbc7c	-0.49557865
83	0x3ef53cff	0.478981
84	0xbe1bd568	-0.15218127
85	0xbd7dc196	-0.061952196
86	0x3eccf713	0.40032253
87	0xbe359e09	-0.17736067
88	0x3f0ecf98	0.5578551
89	0xbebfc488	-0.3745463
90	0x3e6aae78	0.22918117
91	0x3e23912b	0.15973346
92	0xbf19c1d0	-0.6006136
93	0x3da40d58	0.080103576
94	0xbf1f6166	-0.62257993
95	0x3e478577	0.19484507
96	0xbdb912b4	-0.090367705
97	0x3f28835f	0.65825456
98	0x3cf881ef	0.030335395
99	0xbf2cd746	-0.6751598
100	0xbf0666c2	-0.52500546
101	0xbe049c34	-0.12950212
102	0x3eed48cb	0.463446
103	0xbf2462ca	-0.6421324
104	0xbd813189	-0.06308276
105	0x3f131d5f	0.5746669
106	0x3e579a23	0.21054892
107	0x3d910412	0.070808545
108	0xbeeed545	-0.46647087
109	0xbe6b8d3b	-0.23003094
110	0xbe3cbe49	-0.18431963
111	0x3f468c09	0.77557427
112	0xbe70f455	-0.23530705
113	0x3ecc66c5	0.39922157
114	0xbf2c8c47	-0.67401546
115	0x3dbcd860	0.09220958
116	0xbe92763f	-0.2860584
117	0xbeb57960	-0.35444164
118	0x3e81022c	0.2519697
119	0xbcf97658	-0.030451939
120	0xbe258cab	-0.16166942
121	0xbe664a6d	-0.22489329
122	0x3e3e980c	0.18612689
123	0xbf46c6ef	-0.776473
124	0x3dea2755	0.11433283
125	0xbea52806	-0.32257098
126	0x3e6d0532	0.23146513
127	0x3e9dcb2f	0.3081908
128	0x3f039757	0.514028
129	0x3dbe0a73	0.09279337
130	0xbe8cf2f6	-0.27529114
131	0xbe452f16	-0.19256243
132	0x3f337b7a	0.70110285
133	0xbf2aef41	-0.6677132
134	0x3f50cb83	0.81560534
135	0xbf541298	-0.8284087
136	0xbdbb3205	-0.091404
137	0x3ead0a75	0.3379704
138	0x3cb95745	0.022624621
139	0x3d3bf1a6	0.04588475
140	0x3d8d8d6a	0.06911738
141	0x3f14a21d	0.58059865
142	0x3d84fc4b	0.064934336
143	0x3d93c1d7	0.072147064
144	0xbe033ff5	-0.12817366
145	0x3ebaa6e8	0.36455464
146	0x3ed2fc3f	0.41208073
147	0xbe8f650f	-0.2800679
148	0xbac6ef01	-0.001517743
149	0xbdea5854	-0.114426285
150	0xbe8a9f75	-0.2707478
151	0x3dc123a6	0.094306275
152	0xbf0f7c2c	-0.56048846
153	0x3f05d96d	0.5228489
154	0xbe6f7dd2	-0.2338784
155	0xbebbb9bb	-0.3666514
156	0x3ee58f22	0.44835764
157	0xbd54445c	-0.051823005
158	0x3f4c1033	0.7971222
159	0xbe8cdba6	-0.27511328
160	0xbc84cf1e	-0.016212042
161	0xbf34cfd9	-0.7062965
162	0xbde93f19	-0.11388988
163	0x3efef41b	0.49795613
164	0x3ee61a51	0.44941953
165	0x3e09af15	0.13445695
166	0xbeaa3af5	-0.33248106
167	0x3f71290a	0.94203246
168	0xbaf07c46	-0.0018347583
169	0xbef7e888	-0.48419595
170	0xbe44053f	-0.19142626
171	0x3e344199	0.17603149
172	0x3ec6c965	0.38825527
173	0x3e3d4661	0.18483879
174	0x3dffd660	0.12492061
175	0xbf51b333	-0.8191406
176	0x3e8a52f3	0.2701641
177	0xbe9206f0	-0.28520918
178	0x3f1ad841	0.6048623
179	0xbe97ac98	-0.29623866
180	0x3e807340	0.2508793
181	0x3ee17075	0.4403111
182	0xbe3a9942	-0.18222526
183	0xbe4d28b2	-0.20035055
184	0x3e6281ad	0.2211978
185	0x3db60675	0.0888795
186	0xbdfc1be8	-0.1231001
187	0x3efe00cb	0.4960998
188	0xbc02d363	-0.007984969
189	0x3ea627f3	0.32452354
190	0xbdeeb113	-0.11654868
191	0xbec27990	-0.3798337
192	0xbd8cc5c1	-0.06873656
193	0xbc220314	-0.009888429
194	0xbe204498	-0.15651166
195	0x3ce1ecb0	0.027578682
196	0x3e82115d	0.25403872
197	0x3e03a553	0.12856035
198	0x3dcc2500	0.09967995
199	0x3d337c27	0.043819573
200	0xbe064205	-0.13111122
201	0x3b0083c9	0.00196098
202	0x3c90aa84	0.017659433
203	0xbdaf4737	-0.08558505
204	0x3dbe7cd8	0.09301156
205	0xbe2964fb	-0.16542427
206	0xbd1c241f	-0.038120385
207	0xbda8447e	-0.08216189
208	0xbc72dc69	-0.014823058
209	0x3d903978	0.07042211
210	0x3d4ed068	0.05049172
211	0x3d8d810b	0.069093786
212	0x3d80273f	0.062574856
213	0x3db467de	0.088088736
214	0xbde85fce	-0.11346398
215	0x3d97c6d5	0.07410971
216	0x3d629bf0	0.055324495
217	0xbe7e0a7c	-0.24808687
218	0xbd9e40d4	-0.07727209
219	0x3c52124b	0.012821744
220	0xbd76fd0f	-0.06029993
221	0x3dcfeddd	0.10152791
222	0xbd27410e	-0.040833525
223	0x3e1009fe	0.14066312
224	0xbddd7629	-0.10813553
225	0x3e2a211a	0.1661419
226	0xbbf95111	-0.007608541
227	0xbe779080	-0.24176216
228	0xbda05d9c	-0.078303546
229	0x3e809b29	0.25118378
230	0xbd008974	-0.031381086
231	0xbc8e7dd4	-0.017393984
232	0x3e090417	0.13380466
233	0x3d95d7d7	0.07316559
234	0xbdca0627	-0.09864455
235	0x3dddab66	0.10823707
236	0x3d9328be	0.07185505
237	0x3cd92e23	0.026511258
238	0x3de7d46c	0.11319813
239	0xbb2e783a	-0.0026621954
240	0xbd8d05eb	-0.068858944
241	0x3d71f88b	0.05907492
242	0x3d802985	0.06257919
243	0x3ccaf23f	0.024773715
244	0x3bab3139	0.0052243737
245	0xbcaef1fc	-0.021355622
246	0x3c1cf688	0.009580262
247	0xbe97bba8	-0.29635358
248	0x3e1258fb	0.14291756
249	0xbd49d5cd	-0.049276162
250	0xbd6c33f5	-0.057666738
251	0x3db878fa	0.090074494
252	0xbce25ddc	-0.027632646
253	0x3d2c9cd2	0.042141743
254	0x3c72c4ad	0.014817399
255	0xbd93eaa1	-0.07222486

actor.4.bias f4 [12]
0	0xbeb2e408	-0.349396
1	0x3e5de84f	0.2167065
2	0x3e37e4ed	0.17958422
3	0xbd003f08	-0.03131011
4	0xbc8b6bc2	-0.017019156
5	0x3d5bd307	0.05366805
6	0xbd31a981	-0.043374542
7	0x3d725dd6	0.05917152
8	0xbba0c6e2	-0.004906521
9	0x3dce8750	0.100844026
10	0x3dc52a7c	0.09627244
11	0xbe41cf9a	-0.1892685
