Plotting/saliencies_live/Multi_Pong/Sequence_Length_3/multi_pong_3__1__1721978543_checkpoint_3040.pt (torch, 91378 bytes, 11 tensors)

critic.0.weight f4 [128, 12]
00000000: 6fa6 063f 067f e33d e7eb 143f e92d 0a3e
00000010: 794f b3bc 6889 29bd 061a 263f b770 473c
00000020: e56e 6dbf ee33 66be 69f1 7b3e 14ed 4f3e
00000030: 8092 9fbd e846 09bc 3586 683d 3834 b33b
00000040: a4d8 0c3d 80de d338 8de9 963f b901 83be
00000050: e64f b7ba 3c5f 91bc ce63 763f 0d04 13c0
00000060: 56a9 23be 735b df3c b16e e83d 44a6 083d
00000070: 0e8c 49bd 0c9c 6f3c bc78 babf 5668 d03f
00000080: 1509 613d 6efc 52bd a9b0 d83d d3a5 18be
00000090: 87c7 cabe 1ea8 203b bd2b 4bbe 8b3b edbd
000000a0: 761e 38bd 44e2 91bc 345c 723e 0e8c a13d
000000b0: 728f 033f b523 243e 8970 563f 1182 58bf
000000c0: f338 aa3d cf51 533d ba05 00bd 7c70 af3c
000000d0: 094d 1b3e 030d 9e3d a37d 2b3f 9d20 483e
000000e0: 49c2 efbd 82e0 72bc 057d a2bf 6c5b 673f
000000f0: b288 d13d d7db e63a 9ee2 2f3c 018d 9b3b
00000100: 128b 4b3a 850a 593b 00cb f13b 0064 bfbc
00000110: 520d ba3d 2f68 cd3d 0263 d040 3c82 d440
00000120: 62c2 c63d 90ea aa3e 4ebb 823e 7807 9dbe
00000130: c6d9 493c c5a7 ddbd 1eea 673f a352 11bd
00000140: 329c 3abe 06aa 2abc 9748 973f c99c 173e
00000150: 3647 c43d 69e4 663c a586 eabc cd33 e33b
00000160: 128d e23c 6d03 5c3c 3020 fa3e 99bf 853c
00000170: 147e 4d3c 9fa1 91bb d764 37c0 c846 0fbf
00000180: 78b3 febd 9b1f c7bb 4b89 cf3d aaf1 0ebd
00000190: c2c2 2e3c f7d8 2bbd 3126 1d3f e4fe 7e3e
000001a0: 6475 0abe 1389 ebbb 6e8a 81bf 7aa6 87bf
000001b0: c651 78be b72c a93e 87c6 0ebe c78b adbe
000001c0: be86 293e 3440 0c3a 4c78 0f3f 0ce3 ddbd
000001d0: bf8d db3d fee1 3abb 2883 8b3e ec4e 533c
000001e0: 7ebb da3d f6e4 2aba a016 0bbe 0561 283c
000001f0: 6c58 5c3c b82b 973d 6232 963f dc79 6d40
00000200: 2805 ae3b 0853 823d f3ac 3e3e c955 6140
00000210: c06a 0dbd d7fe 9c3b b493 54bd 80f0 3a3c
00000220: 9641 813e 5f9f 753e 06f5 4840 c7f6 c03f
00000230: 14dd 79ba 7d4c 2cbc c988 9f3d b621 17be
00000240: 909d 72be 5850 243c cca9 293e c6fe d23b
00000250: 8d2b 58be 4bf1 bbbb b495 32c0 5469 323c
00000260: 38e4 5e3e 3970 27bb ea1b 4740 0d7e 453d
00000270: eb19 a13b 19d4 f83c d5a5 5b3c d8c9 293c
00000280: f345 2d3e 8141 0fbe 2e5f 2340 736d 4cc0
00000290: 7126 99bc 0ef0 04bc 669e b1be 5e2e ea3c
000002a0: b753 80bd 7a24 8fbb 676e 993d 26ec f23a
000002b0: df01 4abc 4909 25bc 84e4 15bf e6c2 debf
000002c0: d3aa 96bb fbfe a13c 03f9 00be 0371 1240
000002d0: e585 c8bd ae3d b0bb dd97 09bc 2457 87bc
000002e0: f73b f8bd 6a53 1c3e 7620 e8bf 8ed5 393f
000002f0: b616 14bd 9bcf de3b b7c3 363f 4999 b7bd
00000300: b565 5cbe 5c63 a63b 81bc 303e 20ad 2abc
00000310: 0aa9 953c 2144 f63d e0f4 8e3d 332c 1ebe
00000320: bf62 043d 6f53 07be 5e48 993a ac72 373e
00000330: 7dc8 713e 0a00 283c cc98 9eba 9ef8 84bb
00000340: fe47 503d b4d4 a1bd 4800 9fbe d2fd 16c0
00000350: d6d5 1a3d fddb ddbc 5665 083f e372 3cbf
00000360: 7ee8 463e 00d8 bb3a e3c2 6fbd 5110 f2bb
00000370: d6ae ddbc 6775 ebbc 87cd 2ac0 ae84 9fbf
00000380: b702 9e3b 88a0 dcbc 04b3 393e 4faa 8dbf
00000390: 4ee7 0ebd feaf 49bb 037c d73d d485 783b
000003a0: 1e0f 1abe b7b9 82bb 401c adbf 756d c73d
000003b0: a183 203e 3022 93bb d306 ec3f 76ab ff3d
000003c0: b049 46be 2bad cdba 597c 903d 45ec ddbb
000003d0: c38b 123d ad48 f1bd e210 e83e 5ec0 96bf
000003e0: 3e7a bfbc e296 41bd e04f aebd dd7f a8bf
000003f0: ac8a 95bc 6a8a 823c 55d8 c0bd 0a66 80bc
0.5259771 0.11108212 0.5817246 0.13494076 -0.021888481 -0.041390806 0.6488346 0.012172869
-0.92747337 -0.22480747 0.2460381 0.20305282 -0.077916145 -0.008378722 0.056768615 0.0054688714
0.034386292 0.00010102708 1.1790024 -0.25587252 -0.0013985604 -0.017745607 0.9624604 -2.2971222
-0.15982565 0.027265286 0.11349238 0.03336169 -0.049205832 0.014624607 -1.4568095 1.6281841
0.054940302 -0.051510267 0.1058057 -0.14907007 -0.39605352 0.0024514268 -0.19840904 -0.115836225
-0.044950925 -0.017808087 0.23667985 0.078880414 0.51390755 0.16029246 0.83765465 -0.84573466
0.083116435 0.05159169 -0.03125546 0.021415941 0.15166105 0.077173255 0.6698858 0.19543691
-0.11706979 -0.014824035 -1.2694403 0.90373874 0.10231151 0.0017613125 0.010735182 0.0047470336
0.00077645585 0.0033117842 0.007378936 -0.023363113 0.09084572 0.10029637 6.512086 6.6408978
0.09705044 0.33382082 0.25533527 -0.3066976 0.012319988 -0.10823015 0.9059161 -0.0354792
-0.18223646 -0.010416513 1.1819028 0.14805903 0.09583895 0.014092543 -0.028628657 0.0069336654
0.027655158 0.013428551 0.48852682 0.016326712 0.012542266 -0.0044443156 -2.8655298 -0.5596738
-0.12436575 -0.0060767657 0.101336084 -0.034898438 0.010666551 -0.04195496 0.613864 0.2490192
-0.13521343 -0.0071879714 -1.012037 -1.059768 -0.24249944 0.33041927 -0.1394292 -0.33895704
0.16555306 0.0005350143 0.56042933 -0.108343214 0.10720395 -0.002851605 0.27248502 0.012897234
0.106802925 -0.0006519103 -0.1358285 0.0102770375 0.013448816 0.073813856 1.1734126 3.7105627
0.0053106733 0.06363493 0.18620662 3.520861 -0.034525633 0.0047911215 -0.051898673 0.011409879
0.2524535 0.23986576 3.139955 1.507531 -0.00095315394 -0.010516283 0.077897616 -0.14758953
-0.23692918 0.010028921 0.16568679 0.0064390628 -0.21110363 -0.0057355515 -2.7903872 0.01088937
0.21766746 -0.0025549068 3.1110787 0.048215915 0.0049164197 0.030374574 0.013406237 0.010363065
0.16921215 -0.13989832 2.5526843 -3.1941803 -0.018695088 -0.008113874 -0.3469116 0.028586563
-0.06265967 -0.004368362 0.07491761 0.0018533512 -0.012329548 -0.010073015 -0.5855181 -1.7403228
-0.0045980006 0.019774904 -0.1259499 2.2881477 -0.09791163 -0.0053784465 -0.008398023 -0.016521044
-0.121208124 0.15266195 -1.8134906 0.72591484 -0.03615447 0.006799651 0.7139239 -0.08964784
-0.21523173 0.0050777625 0.17259409 -0.010417253 0.01826908 0.12024713 0.069803 -0.15446548
0.032320734 -0.13215421 0.0011694541 0.17914838 0.23611636 0.010253916 -0.001209998 -0.004057958
0.050849907 -0.07901898 -0.31054902 -2.359242 0.037801586 -0.027082438 0.53279626 -0.73612803
0.19424626 0.0014331341 -0.058535468 -0.007387199 -0.027060907 -0.028742505 -2.6687944 -1.2462366
0.004822101 -0.026932016 0.18134695 -1.1067599 -0.034888558 -0.0030775066 0.105217 0.0037921565
-0.15044829 -0.003989424 -1.3524246 0.09737674 0.15675212 -0.0044901595 1.8439583 0.124838755
-0.19364047 -0.0015691867 0.070549674 -0.0067725503 0.03577782 -0.1178144 0.4532538 -1.1777456
-0.02337372 -0.047263034 -0.08511329 -1.3164021 -0.0182546 0.015935142 -0.09416262 -0.015673656

critic.0.bias f4 [128]
00000000: 91b6 d93e 6878 4ebd d764 303d 3be0 05be
00000010: 3f5b edbc 272e 3c3c eb9d 6a3d 68ec 463e
00000020: e93f 35bd 52e4 89ba 14cf febc ca34 aa3d
00000030: 98b9 b5bd 705b afbd b3fa 76bd 1e7d eabc
00000040: 5ae8 56bd f6fd f93d 1cc5 54bd d3f2 88bd
00000050: 4888 323c 66f2 6a3c 721a a4bd 6a61 41be
00000060: 7421 88bd 3a0c d9bd 9c4d 143d 55c1 26bd
00000070: 7ae4 44be 0a3a 9dbd 587a 61bd a7c7 0abe
00000080: eb66 bd3d 7f60 be3b 0d04 27be c59a 0b3e
00000090: 94ea 09bd 69af a03d 586c ffbc d8d1 9b3d
000000a0: 5293 42bd b384 be3d 959b 2dbd dda6 1ebe
000000b0: 09b2 5a3f e514 15bd 5f96 463b aecd c2bc
000000c0: def1 11be a2e7 053f ad63 2a3d 6e20 a2bc
000000d0: 0848 133c 82fb cabc 3055 bb3c b1d6 4bbd
000000e0: 9bcc 383c 57a1 17bd e800 61bd 1936 273e
000000f0: 7eaf 43be e1db 5c3e b35c f6bd 84cb 18be
00000100: 5b38 8e3c 9d8b 04bb 39eb 33bd d37c 183d
00000110: 165a 16bd 8070 3c3d 7c2d cfbd 7c01 893c
00000120: ec26 ce3d fc3c b03e 4805 81bd 4ade 093d
00000130: f45b aebc d911 863d a858 30bd 3b85 98bc
00000140: 48be 9bbd a262 613e 088b 0a3e 98cb a2bd
00000150: fae0 45be cf81 933d 174b 373d 7c0c 28be
00000160: 2a46 34bc d771 d2bb c856 963c c178 f03e
00000170: 11d9 613c d277 ee3c 7217 0ebc b73c 753e
00000180: 7199 713d 7f01 703d be44 35bf b815 4dbc
00000190: 603f b43c 55b6 643d e1ae 26be 3ac6 f4b9
000001a0: 9f94 ad3d 856a b7be 4bcd 5cbd 07ff bebc
000001b0: 2ebb 083e be54 c63c e84c a1bd f994 f33e
000001c0: 4b66 9f3d e3a5 d7bc 8622 e53b 6e58 8abd
000001d0: 1983 843c c4d6 a83d 24ce 373d 8c7a b63c
000001e0: a731 9d3d 785c 863d 536d 57be 3877 223b
000001f0: eb91 87bc b379 24bd 3072 ecbe fd5b de3d
0.425221 -0.050407797 0.04306492 -0.13073818 -0.028974174 0.011485613 0.05727951 0.1942612
-0.044250403 -0.0010520315 -0.031104602 0.0831085 -0.0887329 -0.08562362 -0.06029768 -0.028624114
-0.05246768 0.12206642 -0.05194579 -0.0668694 0.01089675 0.014340019 -0.080128565 -0.18884817
-0.06647006 -0.10598035 0.036206827 -0.04071172 -0.19227782 -0.07677086 -0.055048317 -0.13552724
0.09248146 0.005809843 -0.16310139 0.13633259 -0.033670977 0.07845957 -0.031179592 0.07608384
-0.047503777 0.09302654 -0.042384703 -0.15493341 0.8542791 -0.03639688 0.003030203 -0.023779716
-0.14252421 0.5230657 0.041598964 -0.019790854 0.008989342 -0.024778131 0.022867769 -0.049765293
0.0112792505 -0.0370191 -0.054932505 0.1632923 -0.19109914 0.21568252 -0.120294 -0.14921385
0.017360857 -0.0020224818 -0.043925498 0.037228417 -0.036707006 0.046005726 -0.10116097 0.01672434
0.100660175 0.34421527 -0.062998354 0.033659257 -0.021284081 0.06546373 -0.0430533 -0.018618217
-0.07604653 0.22010282 0.13529599 -0.07948989 -0.19324103 0.072024934 0.044749346 -0.16411012
-0.011003057 -0.006422262 0.018351927 0.46967128 0.013784663 0.02910987 -0.008672582 0.23948942
0.058984224 0.058595177 -0.7080802 -0.012517385 0.022002876 0.055837948 -0.16277649 -0.00046686997
0.08475613 -0.35823455 -0.05390672 -0.023314966 0.13352653 0.02421033 -0.07875997 0.47574595
0.07783183 -0.026324218 0.006992641 -0.06755148 0.016175793 0.08244088 0.044874325 0.022275232
0.07675486 0.06560606 -0.21037798 0.0024790298 -0.016549071 -0.040155124 -0.46180868 0.10857389

critic.2.weight f4 [64, 128]
00000000: aead 0fbf 38ef a6bc e4db c23e 932f a03d
00000010: 500b b9bd f142 4b3d 161e 7f3b 755f 00bf
00000020: 0bed 15be fb75 36bd 2b5e da3d 8112 87bf
00000030: 0cd8 a4be 11a3 a0be f859 0fbf 7d4c 8f3e
00000040: ab8c 4cbd 800c 073f c1a1 92be ca33 f1be
00000050: 275c 6e3d f377 bf3e 1b2c 17bf 94b7 3a3f
00000060: e31c 8b3f 5162 293d 8503 b73e 8e68 a0be
00000070: 3175 94bf f782 bebe 5542 943c d150 e63c
00000080: 2110 023f 0bdb 343e 2eaa 5b3d 1172 b7bc
00000090: bd96 4d3e 9ae5 92bd 2994 91be 99a4 afbe
000000a0: 206b 76bd b6da 8dbf 0a91 f5bc 03eb cd3c
000000b0: f2bd 61bf f7d6 edbd 225b 2bbd 1cf7 9bbe
000000c0: 896d e73d af0f 3dbd 7dec 653e 8e6a 873d
000000d0: 3e25 0ebf c181 54bd c12c 1ebf c4a3 7fbf
000000e0: 4aab 8e3c 87cf 2bbd db29 9bbc f87e 07bd
000000f0: 3ba3 64bd 22cc 16bf f64a 363d 9480 873d
00000100: 6739 753d d5ee d4be 779d 2abf 06c3 633e
00000110: 2810 463e 29cf 753e acbe 003e f032 84ba
00000120: 58c7 57be 8d19 d9bd d7d1 e13e b98d 763f
00000130: 6fdb ac3f db18 833e 5778 1b3e 521b ad3d
00000140: 5156 e23e e2a6 95be ceb8 243d a62f 773d
00000150: a80b 6bbe ab3a 0a3e ecc7 c6be 7868 10bf
00000160: 989f 5bbf 2925 883c a9e6 94be 4198 9c3f
00000170: d40c 933e cfda bbbe f3d9 113f 7da7 1c3f
00000180: 447a 79bf 3d6a 8c3e ec50 2f3e c431 443e
00000190: c502 e4be 80ae 9f3e c128 95be 3422 0bbe
000001a0: 8edb 91be ed98 9e3e cd5c 953e 154d 34bf
000001b0: 6faf bbbc deb9 2b3b 91a7 623d e76f 3abf
000001c0: d74f b1bd 8e99 84be 8b6f 2d3c ad80 0d3d
000001d0: a0a1 39bf 7c40 623f 64f4 293f 9ea0 57bf
000001e0: 88ab 763e d672 143e 04b5 293f 4906 003e
000001f0: df3c d83e 0e03 d1be c9bf 533f 978b 623f
00000200: f143 cd3d 73d7 83be 5b49 2cbd a1de 013e
00000210: aa21 933e c19e 09bf 46e8 a9bb fbd3 2fbe
00000220: e96c 9eba 853c 923c 2c07 1e3f b812 aabc
00000230: 974e 72be dcf3 793e d4e2 68bd 808a 143f
00000240: b06b a5bd e79d ba3d f8ca 41bf 7d8a a4bd
00000250: 70fe b9bd 0c8e 4c3f bc15 5dbb 5e45 933b
00000260: 8585 9c3d 8e43 d0bd 54ce 63bf 90f3 32bd
00000270: 9624 633c 9707 3e3d 72da 23bf bba4 9d3e
00000280: 29e0 05bf ccca f5bd 54fa 2f3d 8aee bc3d
00000290: ca7b 14bf 8e4a 33bd 2118 013e 9ca7 da3d
000002a0: ac88 aabe cad9 64be f63e 113d 39e5 843d
000002b0: 3ff4 e03d be00 793e 4532 1ebd 9afc 533e
000002c0: e959 b3bd 3776 85be a6ab e8bb 8f58 0e3e
000002d0: c434 22bd 0f2b 6f3a 442e d83e bcc8 9a3d
000002e0: 30c9 bb3e eb51 6abe a505 17bd f38a f0bc
000002f0: 72c8 2a3d f30a 5ebc 4c07 fd3d 06e2 8abd
00000300: 16a8 433e ef2e aa3e 7b95 383e be5f aabe
00000310: 7764 7d3e 291b cfbe 85c9 27be 9c28 8bbd
00000320: dd03 3c3d bd4a 2f3e 530d d0bf 1e87 153e
00000330: 7d5c 10bf c923 053f aefa 60bd 52dc c03d
00000340: 7ed5 563d ece4 11be 341b a3bd ba74 1cbe
00000350: f3f9 1f3e f2da 39be 5193 863e 8e72 623e
00000360: ee41 81bd 9682 9b3d e9d1 94bd 5de0 fd3d
00000370: 45a9 76be b009 493f aa59 a4bc 756d 833d
00000380: 58c8 0c3f 1e4c da3c b553 193e 97ef 283f
00000390: 0528 50bd dc03 323e ef19 6a3f b805 f73e
000003a0: ca0d 0dbe e4d1 63bc b7f6 073d abee 343f
000003b0: 6415 a9bc 6151 b33e c1f4 b63e 539e a5be
000003c0: 9fd8 f83d 0a6d 81be e93b f33e 30a9 b4bf
000003d0: 7aa6 e23e ec91 48be 24f6 dcbf 4919 e93e
000003e0: 8f2a 6e3f b575 ad3e 9564 03be d397 4fbe
000003f0: 36cc bdbe e6fd 9a3e 60c8 bebd f831 bebd
-0.5612439 -0.02037774 0.38058388 0.07821574 -0.09035361 0.049624387 0.0038927845 -0.50145656
-0.14641206 -0.04454611 0.10662492 -1.0552522 -0.3219608 -0.3137441 -0.55996656 0.27988043
-0.04993884 0.5275345 -0.28639033 -0.47109824 0.058193352 0.37396201 -0.59051675 0.7293637
1.086819 0.041353527 0.35744873 -0.3132977 -1.1598264 -0.37209293 0.018098036 0.028114708
0.5080586 0.17661683 0.053629093 -0.022393258 0.20077033 -0.07172699 -0.2843335 -0.34305266
-0.060160756 -1.108237 -0.029976387 0.025136476 -0.8818046 -0.11613267 -0.041834958 -0.30461967
0.11300189 -0.046157535 0.22453494 0.066121206 -0.5552558 -0.051881555 -0.6178704 -0.9985926
0.017415661 -0.04194596 -0.018940857 -0.03308007 -0.05581973 -0.5890523 0.044505082 0.06616321
0.059869196 -0.41588464 -0.6664652 0.22242364 0.193421 0.24004807 0.12572736 -0.0010085981
-0.21072137 -0.106005765 0.44105408 0.9631 1.3504466 0.256049 0.15182625 0.084524766
0.4420648 -0.29228884 0.040215306 0.060348175 -0.22953665 0.13498943 -0.38824403 -0.56409407
-0.85790396 0.016619282 -0.2908223 1.2233964 0.28720725 -0.36690375 0.5697319 0.61193067
-0.9745219 0.27424803 0.17120713 0.19159609 -0.44533363 0.3118782 -0.29132655 -0.13587266
-0.2848782 0.30976048 0.29172364 -0.7043012 -0.022910802 0.0026203315 0.055335585 -0.72827
-0.08657806 -0.25898403 0.010585676 0.034546543 -0.72512245 0.88379645 0.66388535 -0.8422946
0.24088871 0.14496931 0.6629183 0.12502398 0.4223394 -0.40822643 0.82714516 0.8849425
0.100227244 -0.25750312 -0.042062145 0.12682582 0.2873662 -0.53757864 -0.00518516 -0.17170708
-0.0012086901 0.017851124 0.61729693 -0.020760879 -0.23662792 0.24409431 -0.056856945 0.58023834
-0.080771804 0.09112149 -0.7570033 -0.08034227 -0.09081733 0.79904246 -0.0033734879 0.004494353
0.07642654 -0.10169135 -0.88986707 -0.04368931 0.013863703 0.046393957 -0.64005196 0.30789742
-0.52295166 -0.12001571 0.04296334 0.09225185 -0.5800139 -0.043772273 0.1260686 0.106765
-0.33307397 -0.22348705 0.035460435 0.06489033 0.10984086 0.2431669 -0.03862216 0.20701829
-0.087573834 -0.26066753 -0.00710054 0.1390097 -0.039601102 0.00091235427 0.42222798 0.07557818
0.3667693 -0.22882812 -0.036870617 -0.029363131 0.041695066 -0.013552415 0.123549074 -0.06781392
0.19107088 0.33238932 0.18025772 -0.3327617 0.24745356 -0.4045041 -0.16385467 -0.06794855
0.04590212 0.17118354 -1.6254066 0.14602324 -0.56391126 0.5200773 -0.054926567 0.09417023
0.052449696 -0.14247483 -0.07964173 -0.15278903 0.15622692 -0.18149927 0.26284268 0.22114012
-0.06311403 0.07593267 -0.072666 0.123963095 -0.24088009 0.78530407 -0.020062286 0.06417362
0.549932 0.026647624 0.14973338 0.65990585 -0.050819416 0.17384285 0.9144582 0.4824655
-0.13774791 -0.013905022 0.03319427 0.7067668 -0.020640083 0.35023025 0.35733607 -0.32347354
0.12150692 -0.25278503 0.47506645 -1.4114132 0.44267637 -0.19586915 -1.7262616 0.45527104
0.9303369 0.33878866 -0.12831338 -0.2027276 -0.37069863 0.30271834 -0.09315562 -0.092868745

critic.2.bias f4 [64]
00000000: 3aff ab3b fa20 bebe 965e 66bd 8874 823d
00000010: 5579 87bb d6ad 3ebe 59a2 d0be 1dac d83d
00000020: 34eb 623e 92f8 c6bd 6535 0dbf de18 7b3e
00000030: ae86 df3e 18bf 51bc f7b9 ce3d 51ea 21be
00000040: 8d50 cabe 5799 413f 98b6 67be b29d 5c3d
00000050: ed04 9b3e a3ef 013f 2a25 053d f021 eabc
00000060: 009f 063f b526 d9be d78e 9c3e 8065 0ebe
00000070: 997e a73e 02d1 323d 384a 943d a841 b93d
00000080: 5cf9 20bf 67d3 9abe 7e95 68be 0a8f b1be
00000090: d8f4 1abf edf7 f5be 43f7 903e adf5 e13e
000000a0: ac13 ddbe 7e60 6cbe 8641 b1bd b1ba bcbe
000000b0: 6a83 21bf d576 013e b012 22bb 7a75 8c3e
000000c0: 79ac 5e3e 0a6e c53e 542e f93d 7822 acbe
000000d0: 8a3e 853f b716 8f3d 5b2e 0ebd 8cb3 b5bd
000000e0: 9ffc 713d 97f9 95be 24ee 2b3e 7e43 853e
000000f0: b0cd 943e d410 053d a07f 2abe 2e93 fcbe
0.0052489312 -0.37134534 -0.056242548 0.06369883 -0.004134337 -0.18621 -0.4074886 0.10579703
0.22160035 -0.0971538 -0.551596 0.24521205 0.4365744 -0.012801908 0.10094064 -0.15812041
-0.3951458 0.75624603 -0.22628248 0.053861327 0.30277196 0.5075628 0.032506146 -0.028580636
0.52586365 -0.42412344 0.30577728 -0.13905907 0.32713774 0.043656357 0.072407186 0.09045726
-0.6288049 -0.30239412 -0.22713277 -0.34679443 -0.6052985 -0.48040715 0.28313646 0.44132748
-0.4317907 -0.23083684 -0.08655076 -0.36861184 -0.63091147 0.12642987 -0.0024730377 0.27433378
0.2174548 0.38560516 0.121670395 -0.33620048 1.040971 0.069867544 -0.034712177 -0.088721365
0.05907881 -0.29291984 0.16790062 0.26028055 0.29063177 0.03248675 -0.16650248 -0.4933104

critic.4.weight f4 [1, 64]
00000000: 40f4 8a3e 4922 37be 7f02 9f3e cdf0 90be
00000010: 917c 72be b3a8 103f ac37 93bf 912a 253e
00000020: ae68 1f3e 38fb 8cbe 4938 12be 1872 c43e
00000030: 22a2 613e ce81 87be fffa aa3e 008f 8f3e
00000040: 4135 78be 85cb f73f 3859 98be 2109 9b3e
00000050: d4dd 823e d719 663e cb5b d13e 9dc5 33be
00000060: a6ac a93e f6fd acbe 2e8b febf a72a 0cbf
00000070: b4cd 1dbf 287f b93e f9e4 a7be fd6a bd3e
00000080: d9dc c4be b236 59be 8f6d 93bf 1286 a3be
00000090: 39eb 73be 775b cfbe ba33 6b3e d464 673e
000000a0: 5307 acbe 5ee2 18be 5ac9 40be b6dc 01bf
000000b0: 5df6 21bf a512 4a3e 0807 07bf 2342 843e
000000c0: 14be 863e 2858 e53e 9e60 903e cb67 49be
000000d0: 5816 2b3f 2664 c4be 276e fbbd 4e1c 3cbe
000000e0: f81d 023e c5f8 12be 770e c73e 999f 373e
000000f0: b975 813e d913 0c3f 4ea5 82be f07f 99be
0.27139473 -0.17884172 0.31056592 -0.28308716 -0.23680331 0.56507415 -1.1501365 0.16129519
0.15567276 -0.27535415 -0.14279284 0.38368297 0.22034505 -0.2646622 0.3339462 0.28038788
-0.24239065 1.9358984 -0.29755569 0.30280402 0.25559866 0.22470795 0.40890345 -0.17555852
0.33139533 -0.33787507 -1.9886224 -0.5475258 -0.61642003 0.36229825 -0.3279188 0.36995688
-0.38449743 -0.21212271 -1.151781 -0.31938225 -0.23820199 -0.4049947 0.22968951 0.22597057
-0.33599338 -0.14930102 -0.1882681 -0.50727403 -0.63266546 0.19733675 -0.52745104 0.25831708
0.26316893 0.4479382 0.28198713 -0.196685 0.6683097 -0.38357657 -0.12276869 -0.18370172
0.12706745 -0.1435271 0.38878223 0.17931975 0.25285128 0.54717785 -0.25516742 -0.2998042

actor.0.weight f4 [128, 19]
00000000: f350 0fbf 9dbb b03e d701 b53c 4ed4 ecbc
00000010: 21ba 6abe d93e 933e e036 233f df3e 97be
00000020: 4640 d53e 7c8a 3b3e 32a1 cdbe 30ec adbe
00000030: ddd6 cdbe 754a 0dbe 716e febe 2bc8 933c
00000040: b421 1c3e 6bdb 71be 4c72 c0be fce3 233f
00000050: 3da2 08be 8809 023e f303 03be 5e7c 663f
00000060: c82c 95bd 83f3 873e a306 63be 50c0 a63e
00000070: 33c8 773f da7b 013f 0b22 68be 79c9 163f
00000080: b4aa 65be 6032 b03e dcdf 9f3e 55e7 49be
00000090: 9d03 7d3f 5322 f33e be37 18be 1f86 57be
000000a0: afea a5be 31d3 ca3e 619c e63e d5ce 8dbf
000000b0: 0ab3 d1bd 610b d03d 5430 733f 8b6d 90bf
000000c0: 72ba eb3c 0057 c7bd 4842 103e 63a3 57be
000000d0: 2b35 613e dfdd 2c3d f7a4 36bf d9e5 be3e
000000e0: 690d 313d ce63 893e fe7c b33d 557c bdbe
000000f0: d223 aa3e 40aa 913f 949f bc3f 4a73 08bd
00000100: 88ef 5b3e 175d 12be ab2f 60bd f079 323f
00000110: 5fbf 32be a470 b9bc 30ba aa3e 33b1 273f
00000120: 3f02 4dbe 7476 403c 0da4 82be babb fc3e
00000130: 4224 383e 7e5e 12be e370 c0be 7f17 12be
00000140: ba8a 56c0 3978 c23e aaec e33c 7fea 3cbd
00000150: 6415 0f3d 85dc e1be e698 01bd d8c0 04bd
00000160: 913c 293e 1abc dd3c 657f a13c a0e8 743c
00000170: c57a f13d a57a 983c a9a9 893e 5512 98be
00000180: d40a ac3e 17a4 cdbc cdf5 aebe 6a34 303d
00000190: 150b f1bf 095e 22bd a759 6f3d 33b9 d53f
000001a0: 16c3 a7bd 50b4 66be 761c 023f 7071 49bf
000001b0: 12c8 6abe 7c44 c2be 7f35 90bd 12ec 02bf
000001c0: 4731 0c3f 5e13 84be 73a5 b23d ef2a 5a3f
000001d0: 23e0 9fbe 72f0 8f3c 3154 f4be af0a 3c3e
000001e0: 3253 423e 3693 a2be 139a bc3d 4b36 26bf
000001f0: 0c79 15bf 8f5c 463f 66de 81bd 2c3e d0bc
00000200: 9d42 9bbd 40a4 f83d f288 07bf 2182 8a3f
00000210: f7ff 0d3b 41ee fa3c 9f37 383e b82e 8b3e
00000220: e2fd 7a3e 41cc 183f b221 ff3f 684d b6bc
00000230: 9186 99bc f832 f83e 9da4 123e fbdc 30bd
00000240: bf2f df3e cbba 88be dbf0 473e 4f7d e3be
00000250: d6ae 8e3e de45 3abe e62e 353f f08a 8cbe
00000260: 4016 3f3e 2b66 4ebe 4e7f 483f 3ea0 e4be
00000270: 8e39 233c 1ecb c33f 854e 05be f193 343a
00000280: f05c 943e e262 12bd 169a 59be 18cb d43e
00000290: 300e 35bd 760f 9bbe 6cce 8c3e c48f 9c3d
000002a0: 612a 43bc 105e 9a3e 7a2c acbd 96c8 44be
000002b0: e7e7 bbbe c1a1 19be 4bf7 f4bd faec 543f
000002c0: a5f5 a33e efde ff3e b8f4 c9bd 36e3 063f
000002d0: 9395 203f a411 363e 4e72 a4bf 7aa9 083f
000002e0: ec0e debe 2b6d 053f 2ccf 52bf db8f 113f
000002f0: e54e 8abf a24f 40be f4f6 8dbe 2380 b03e
00000300: 990d dcbd f550 f5bc fcc9 803f 8ef4 babd
00000310: b1ec b9bd d535 40be fa06 ef3f 43de 8fbf
00000320: 7bba 903e c5c6 c7be d891 4c3e cbdf 263f
00000330: 479a 3fbf 9287 1c3d d998 10bc d401 13bf
00000340: f3cf ea3e 392f dfbe 540a 85be 2f32 e93e
00000350: 78a7 9b3d b661 353e 1329 0e3e 2365 053e
00000360: 7bfa c3bd 23a4 b2bf 6194 f33e b850 1abf
00000370: 3fa1 d53e acd8 44be afdb 8f3e 2199 febe
00000380: 8992 e6be a2de a73e bdad 93be 4851 f7be
00000390: 8988 ddbe 3fd2 2abf 7af5 203e e9c9 52bc
000003a0: 0a1d a6bd 11ca 473f 11da ad3e c0f3 1d3f
000003b0: f9bb 293e b1d3 523f e490 c9bd aaba bdbe
000003c0: 44c3 06bd 2c46 413e 9f4e a7be 4913 abbe
000003d0: 60b7 32be 24df 8e3d 5f2d 8cbe 32e4 d5bd
000003e0: 829f 283e ea57 8a3e f2d9 08bf 70bb b3be
000003f0: 1ab4 b7be af94 153f 247e 033f 85a3 9cbd
-0.55982894 0.34518138 0.022095604 -0.028909829 -0.22922565 0.28758886 0.6375561 -0.29540154
0.416506 0.18314546 -0.40162045 -0.3396926 -0.4020299 -0.13797934 -0.49693635 0.018039783
0.15247232 -0.23618858 -0.37587202 0.6401975 -0.13343139 0.12698948 -0.12794475 0.9003352
-0.07283932 0.26552972 -0.221705 0.32568598 0.96789855 0.5057961 -0.22669236 0.5890117
-0.224284 0.34413433 0.3122548 -0.19717152 0.9883364 0.47487125 -0.14865014 -0.21047257
-0.32405612 0.3961425 0.45041183 -1.1078745 -0.10239227 0.1015842 0.9499562 -1.128343
0.028775427 -0.09733391 0.14087784 -0.21058421 0.21992938 0.04220378 -0.71345466 0.37284735
0.04322568 0.26833957 0.08764075 -0.3700892 0.33230454 1.1380081 1.4736199 -0.033313073
0.21478093 -0.14293323 -0.05473296 0.6971731 -0.17455815 -0.022636719 0.33345175 0.6550476
-0.20020388 0.011746991 -0.25515786 0.49361974 0.17982581 -0.14293858 -0.37586126 -0.14266776
-3.3522172 0.37982348 0.027822811 -0.04612207 0.03493251 -0.44113556 -0.031639956 -0.032410473
0.1652701 0.027067233 0.019714067 0.01494804 0.117909946 0.018613169 0.26887253 -0.29701486
0.3360201 -0.025102658 -0.34171906 0.043018736 -1.8831507 -0.03964046 0.05843511 1.6697143
-0.081915066 -0.22529721 0.5082468 -0.78688717 -0.22927883 -0.37942874 -0.070414536 -0.51141465
0.5476269 -0.25796026 0.08722963 0.8522176 -0.3122569 0.017570708 -0.47720483 0.1836345
0.18977049 -0.31752938 0.09209075 -0.64926594 -0.5838783 0.77484983 -0.06341247 -0.02542027
-0.07581065 0.12140703 -0.52943337 1.0820962 0.002166746 0.030631186 0.17989968 0.2718408
0.24510911 0.59686667 1.9932158 -0.022253707 -0.018740924 0.48476386 0.14320607 -0.043179493
0.43591115 -0.26705012 0.19525473 -0.4443154 0.27867764 -0.18190715 0.70774686 -0.2744975
0.18660831 -0.20156161 0.7831925 -0.44653505 0.009962453 1.5296361 -0.13018234 0.00068885
0.28977156 -0.035738833 -0.21250185 0.41561198 -0.044202983 -0.30285233 0.27501237 0.076446086
-0.011911959 0.3014989 -0.08406921 -0.19217142 -0.36700365 -0.1500311 -0.1196123 0.831741
0.3202335 0.49974772 -0.098611295 0.52690446 0.6272823 0.17780167 -1.2847383 0.533836
-0.4337076 0.521197 -0.8234737 0.5686013 -1.0805327 -0.18780378 -0.27727473 0.3447276
-0.10744781 -0.02994583 1.0061641 -0.09128676 -0.090783484 -0.18770535 1.8674004 -1.1239704
0.28267273 -0.39018837 0.1997751 0.6518523 -0.74844784 0.038215227 -0.008825504 -0.57424664
0.45861778 -0.43590716 -0.25984442 0.455461 0.076003015 0.17713055 0.13882856 0.13026862
-0.0956926 -1.395634 0.47574142 -0.6027942 0.41724584 -0.19223279 0.28097293 -0.49726203
-0.45033672 0.32787043 -0.2884349 -0.483042 -0.4326823 -0.6672706 0.15718642 -0.012865522
-0.081110075 0.78042704 0.33955434 0.6170006 0.16575612 0.82354265 -0.09842089 -0.37056476
-0.032901064 0.18874425 -0.3267717 -0.3341315 -0.17452765 0.069761544 -0.27378365 -0.104439154
0.16467097 0.27020198 -0.5345756 -0.3510394 -0.35879594 0.5843 0.5136435 -0.076483764

actor.0.bias f4 [128]
00000000: f3b0 d7be 299e e63e 51d3 83bd 3699 763e
00000010: 2ae1 f53d d4e1 4cbe 1a09 f33c 8602 523d
00000020: 85d5 c83c 0637 8bbe dd5d 6cbd 970a 67be
00000030: 5344 23be 82d6 e1bd 4bc8 f9bc f355 043f
00000040: 9ebd e7bd bee3 503e 1515 2d3e 9b67 3fbd
00000050: a575 16be d23a 863d 8c68 8b3e 2d5e 6b3e
00000060: 86b4 133e f381 99be 1345 babe d0e9 d8bc
00000070: c109 60bb 9198 8cbe 0f99 2a3d b601 8cbd
00000080: 5d90 e4bd 4a6d d7be 1f91 2abe 65cd bbbe
00000090: b221 063e 498c 06be 7cff 853e 4f5b 203e
000000a0: bc0d c93d aef5 f3bd a3a3 0ebe f3b3 11be
000000b0: 9a2d edbd df3a 82be 725a aa3e ee1a 4abe
000000c0: 4ac8 0a3f 8e6b 33be 4137 1dbe e95b 80be
000000d0: 3cfe 0f3c 388f 153e b5c0 e53d 9e99 d6be
000000e0: eac4 eebe f9c1 c8be dbf6 ecbd 0a96 8f3e
000000f0: c931 2e3e 671e a33e 6652 0fbd 75be 0b3e
00000100: e90b 823d 2955 9a3e a3ec d6be 1d39 63bd
00000110: 4495 30be 9be7 c63d eb70 843e 4c5b 813e
00000120: 7ea2 303e b65e 033d c823 a8bd e6d7 8b3d
00000130: 1076 563d 35fa 043d 4db4 3ebe 0ad2 b03d
00000140: 7187 9e3d 3d2b 7abc f2be 513d 4dbf b5be
00000150: c857 80bd e93f 85bd 8095 cbbe 8ae2 aabc
00000160: 2ee5 9a3e e7c7 af3d affe cd3d f362 6d3e
00000170: 0ca8 e8bc 8ace 85bd 5d7e 9c3e 6b5b ae3e
00000180: 6e6a 4d3c b964 073e 23e3 133e af74 733e
00000190: 9095 913e 8fac 43bc a8b3 64bc 7031 353d
000001a0: 32c8 eabd fa24 d9be c92b 75bd 6c7c 863d
000001b0: c926 143e 3971 b1be e9dd df3c e2a5 a9be
000001c0: 8b98 d2bd 54f6 0c3e 24fa d8bd 7d7b 5b3e
000001d0: d782 bd3d a85a 70be 92a5 883e c554 c0bc
000001e0: 9895 2cbe dd77 223e 1306 673e f673 aebe
000001f0: 9716 7ebe b04c 753b 18c9 efba 40e7 eebe
-0.4212719 0.45042542 -0.0643679 0.24081883 0.12005837 -0.20008022 0.029667426 0.051271938
0.024515877 -0.27190417 -0.057706703 -0.22562633 -0.15944032 -0.11027242 -0.030491015 0.5169365
-0.113154635 0.20399377 0.16902573 -0.046729665 -0.14693315 0.06554188 0.272282 0.22985144
0.14424333 -0.29981956 -0.36380824 -0.026478678 -0.0034185501 -0.2746015 0.041649874 -0.06836264
-0.111603476 -0.42075568 -0.16656922 -0.3668014 0.13098791 -0.13139452 0.26171482 0.15659831
0.09817073 -0.11912094 -0.1392961 -0.14228801 -0.115809634 -0.2543554 0.3327213 -0.19736835
0.54211867 -0.17521498 -0.15353109 -0.25070122 0.008788642 0.14605415 0.112183966 -0.41914076
-0.46634609 -0.3921049 -0.115705214 0.28044158 0.17011179 0.31859133 -0.03499069 0.13646872
0.06349928 0.30143097 -0.41977414 -0.05547439 -0.1724444 0.09712144 0.258674 0.25264966
0.17249486 0.032072745 -0.0820995 0.06828289 0.052358687 0.03246518 -0.18623467 0.08633812
0.07740677 -0.015269098 0.05120749 -0.35497513 -0.06266743 -0.065063305 -0.39762497 -0.020859975
0.30252975 0.0858305 0.10058343 0.23182277 -0.028400443 -0.06533535 0.30565158 0.3405412
0.012537582 0.13222016 0.14442115 0.2377498 0.2843442 -0.011942997 -0.013958849 0.0442366
-0.114639655 -0.42411023 -0.05985621 0.065667 0.1446792 -0.34656695 0.027327495 -0.3313437
-0.102830015 0.13765842 -0.105945855 0.21433826 0.09253471 -0.23472083 0.2668882 -0.023477921
-0.1685394 0.15866037 0.22560911 -0.34072846 -0.24813305 0.0037429743 -0.0018294184 -0.46660805

actor.2.weight f4 [64, 128]
00000000: ca2b 2d3e e8b4 d53d 500c d8be b893 da3e
00000010: 6684 71bd 5e73 2c3f 93a2 71be bb33 ebbc
00000020: 2471 123e e2db bb3d 9376 50bd ba40 b2bc
00000030: 58cc 3e3d b902 a7bd a741 ee3d 48eb 95be
00000040: b392 8b3d 26f9 69be 973d 89bf c8da 7239
00000050: 8dd6 f1be 84e5 ca3d dc76 84bd cc2b 453c
00000060: db8c dcbd 1211 a63d b074 c63e 1201 873e
00000070: 85f6 14bf 1743 133f 10f2 373d eabd 073f
00000080: 57b6 013f 42f5 75bf 7cf0 5b3e 924a 7c3e
00000090: d605 f2be bd89 173e 9e67 d8bd 2544 193f
000000a0: 32b0 5dbd 7e8a dd3d 3414 173f 1c51 bfbd
000000b0: cef6 c63e 50ed 193f 0336 f0be 0fd2 f03d
000000c0: 2194 483d f331 a03e 77b6 6c3e 7045 9f3e
000000d0: a17e 97be bda3 8d3e 885f 55bf fd2d 83bd
000000e0: 5e82 00be 125b d23e f7b6 90bd 03a2 80be
000000f0: 9ad0 17be d9f5 f73c 17af a1be 200c 01bc
00000100: 24b4 58bf a749 c13c 5a7b ac3e 6975 d4be
00000110: ffa8 06bf 7d0f 6a3e 189a 80bd 0c22 f3bd
00000120: dc00 46bc aada 6dbe ef7f 76bd 8fdf 123d
00000130: 7bf9 ffbc 53c8 003f c819 bb3e 0002 19be
00000140: 0d22 8abe 1adb a9be f78d e3be f88b debd
00000150: 5001 23be 3f36 0dbe cccd 8dbe aaf8 653e
00000160: ccd7 a23e 921b c33e 3c46 353e 8291 3a3e
00000170: ef6f 0bbf 5d63 a63c 5298 3dbc c5cb 0abf
00000180: aa9d e2be fc6e 253d 8663 d0bb b27a 5dbe
00000190: 1096 02bf 328b 19bf b423 44be 967f 5e3e
000001a0: 227a 043e fba4 3dbd 851d cf3d dc32 353e
000001b0: 6bff fa3d 0200 5f3f 042c 88be 7a0c a43e
000001c0: 5f7f 2ebe 2c8e c2bd 0eb5 033e fab2 10bf
000001d0: a8b6 a53d 663f 0dbd 0729 95be eb23 04bf
000001e0: 2b56 b03c cacd 543e be30 9fbd 4e9f f3bb
000001f0: 409f 283e fb84 113d 2a61 993e 93ec 7b3f
00000200: 21db 5ebf fc03 d13e fc19 9cbe b902 acbd
00000210: 83ae d43e 78a9 e7be 41c7 f23e 9584 363f
00000220: 6f52 b6be dbfe 623e df16 b8be 5fb5 72bf
00000230: cadd a5bc 69b9 cb3d c414 923e 2101 a03e
00000240: ee97 24bf c288 113e 50a7 66be dd86 23be
00000250: d7d5 b13e 1fc2 8cbd 0870 fdbd 97ac a83c
00000260: e86d bf3e 18f7 79be a542 ddbd a6be 833e
00000270: 2d12 0cbf fc36 6bbe 49d0 f3bd cbf1 cb3b
00000280: 716e 1bbf ed41 4abe eca5 21bf 872e 5cbf
00000290: 76f2 6c3d d35c fdbe 6194 a0bd 9f9a d0be
000002a0: e4e5 71be 551a 773d 3104 db3d 1169 07bf
000002b0: 911f 10bf 9dfa 84bc bfed 0d3d b684 84be
000002c0: 4951 fabc d803 66be 717f 92be dd3e b13e
000002d0: f3c5 873d 82e2 f83e 2210 a43e f9df 92be
000002e0: d6d8 13bf 0dc8 12bf 8673 c1be 43e3 5bbd
000002f0: 5598 68be 5ec1 293e f50a 293e 11ff 803e
00000300: f086 02be 12c8 353f 4b60 73be 00bf a13e
00000310: 9f8b 05bf 1d22 233d 3c63 343d 8066 593e
00000320: a8aa 553f 2be5 913e b1dc 19bf 0d28 aabd
00000330: d964 453d e945 d2bd cf30 92be c05b 12bf
00000340: d20e eb3d 6f20 843e 264e 2d3e a663 923e
00000350: 908e 823f 3db7 57bd a37f 8fbf ff3e 0abf
00000360: d1b3 dbbd 9698 b2bd 6396 29bd eb42 f33c
00000370: 28f9 dc3e 666e 1c3e 5c29 093e cf8f 89be
00000380: a0de 39be 5cc0 2dbe 5a0f c2bc c515 3d3f
00000390: b079 1a3e 4e40 65bf 2eaf ef3d 72c1 a6bf
000003a0: bca0 9b3e 1cb3 4e3e 66b5 3abe 7768 413e
000003b0: 7f68 173e 1882 d23d 474c 8fbd c30c 75be
000003c0: e184 bb3e c72b 7d3e b80f e5be faec e43e
000003d0: 10ec bb3e d761 a9be 28db 663c ef3a 993d
000003e0: b319 25be b93d 003f 7315 c9be a36e 9e3d
000003f0: 7ea4 103e 3973 053e 5d6c ca3e 6c80 933e
0.16911235 0.10434896 -0.42196894 0.42690825 -0.058964156 0.67363536 -0.23597173 -0.02871119
0.14300972 0.09172799 -0.05089433 -0.02175938 0.046581596 -0.08154816 0.11633616 -0.29281068
0.0681509 -0.22848949 -1.0721921 0.00023160421 -0.47234002 0.09907058 -0.06467983 0.012034368
-0.107690535 0.08108725 0.387609 0.26368004 -0.5818866 0.57524246 0.044908583 0.5302416
0.50668854 -0.9607736 0.21478456 0.24637821 -0.47270077 0.14798637 -0.105666384 0.59869605
-0.05412311 0.10817431 0.590152 -0.09341642 0.38860172 0.60127735 -0.46916208 0.117588155
0.04896939 0.31288108 0.2311648 0.31107664 -0.29588798 0.27663985 -0.83348894 -0.06405256
-0.12549731 0.41085106 -0.07066148 -0.25123605 -0.14825669 0.030268596 -0.31578895 -0.007876426
-0.8464987 0.02359469 0.3368786 -0.41495827 -0.5260162 0.22857471 -0.06279391 -0.11871728
-0.012085166 -0.23227945 -0.0601806 0.035857733 -0.031246891 0.5030567 0.36543107 -0.14942169
-0.26979104 -0.33174974 -0.44444248 -0.10866541 -0.1591847 -0.13790224 -0.27696073 0.22458139
0.31805265 0.38106972 0.17702574 0.1821957 -0.5446767 0.020311052 -0.0115719605 -0.5421718
-0.44260913 0.040389046 -0.0063595204 -0.21628836 -0.5101023 -0.5997802 -0.19154245 0.21728358
0.12937215 -0.046299916 0.10113052 0.17695183 0.12255748 0.87109387 -0.2659608 0.3204077
-0.17040776 -0.094997734 0.12862036 -0.56523097 0.080914795 -0.03448429 -0.29132864 -0.51617306
0.021525463 0.20781627 -0.07772969 -0.007434762 0.16466999 0.03552721 0.29956943 0.9840786
-0.87053114 0.40823352 -0.30488575 -0.08398957 0.41539392 -0.45246482 0.47417644 0.71296054
-0.35609767 0.22167532 -0.3595495 -0.94808 -0.020247359 0.099474736 0.28531468 0.3125086
-0.64294326 0.14212325 -0.22524762 -0.15969415 0.3473346 -0.06872963 -0.12374884 0.02059011
0.3738854 -0.24410665 -0.10803727 0.2573139 -0.54715234 -0.22970194 -0.119049616 0.0062238923
-0.60715395 -0.19751711 -0.631438 -0.86008495 0.057848416 -0.49484882 -0.07840801 -0.40742967
-0.23622853 0.060327847 0.10694159 -0.52894694 -0.56298167 -0.016232783 0.03465056 -0.258825
-0.030556338 -0.22462404 -0.28612855 0.34618273 0.06629553 0.48610312 0.32043558 -0.28686503
-0.5775274 -0.57336503 -0.3778345 -0.05368353 -0.2271436 0.1657767 0.16508086 0.251946
-0.12746787 0.7100841 -0.23767202 0.31591034 -0.5216617 0.039827455 0.04403995 0.21230507
0.83463526 0.28495154 -0.60102373 -0.0830842 0.04819188 -0.102672406 -0.28552863 -0.5717125
0.11477436 0.25805995 0.16924343 0.2859165 1.0199757 -0.052664984 -1.1210827 -0.54002374
-0.10727657 -0.0872051 -0.041403186 0.029694995 0.4315884 0.15276489 0.13394684 -0.2686753
-0.18151331 -0.1696791 -0.02368896 0.7386134 0.15085483 -0.89551246 0.11703335 -1.3027785
0.30396068 0.20185512 -0.1823326 0.18887506 0.14785956 0.1027872 -0.069969706 -0.2393065
0.36624816 0.24723731 -0.44738555 0.4471205 0.3670354 -0.33082458 0.014090337 0.07481944
-0.16123085 0.5009418 -0.39274177 0.07735946 0.14125249 0.13032235 0.395358 0.28808916

actor.2.bias f4 [64]
00000000: e123 83be 7b00 3d3e 182a e4be a735 193e
00000010: e124 3f3f 9aa3 e0bd 627c 92be 4e90 08bf
00000020: 3438 28be 807c 2dbe f0a4 20be b71f efbd
00000030: ec14 30be fa39 c03e d2c1 6abd 1c89 73be
00000040: 9782 6bbe 63fb 8c3e e5dc 623d 69b7 4bbe
00000050: 5b6a 9ebd f735 b0bd 748b 2abd 4a85 883d
00000060: 9346 553e ad80 c2be 2f35 bc3e b607 babe
00000070: 047b f9bc 0f51 233d a7c3 00bf d014 b4be
00000080: 0b98 8ebd bb96 e63e 2e06 543e 54ba fd3e
00000090: 457d b23e bdd9 8cbe fe96 02bc 94bc e2be
000000a0: 9d9b 07bd 6b41 9dbd 1ab7 003e 297d c53e
000000b0: 39bc 003e 4349 ddbd 2ca4 c23c abc8 843e
000000c0: c3e0 9fbe 003b 26bc 8c65 8f3e 6866 b0be
000000d0: 6bda 653d 591a b7bd 7a1c 69bd a152 47be
000000e0: 13cc 5a3c 813f b43e e4e5 7fbe 3be1 b13e
000000f0: d6f1 f8bd e3d0 bbbd 27c2 07be e474 c13d
-0.2561331 0.18457215 -0.44563365 0.14961873 0.7466565 -0.109687045 -0.28610522 -0.5334519
-0.1642769 -0.16942024 -0.15687919 -0.11675971 -0.17195481 0.37544233 -0.057313748 -0.23782772
-0.22999035 0.27535543 0.055386443 -0.19894184 -0.077351294 -0.08604043 -0.0416369 0.06666048
0.20827703 -0.37988797 0.36759326 -0.36334008 -0.030454166 0.039872225 -0.5029854 -0.3517213
-0.06962594 0.45036873 0.20705482 0.4955622 0.34861198 -0.2750987 -0.00797057 -0.442845
-0.03310739 -0.07678493 0.12569848 0.38572052 0.12571801 -0.10804989 0.023759924 0.25934348
-0.31226167 -0.010145903 0.28007162 -0.3445313 0.056116503 -0.08940572 -0.056911923 -0.19465114
0.013354319 0.352047 -0.2499004 0.3474215 -0.121555015 -0.09170701 -0.13257657 0.09446123

actor.4.weight f4 [12, 64]
00000000: 500f aabe 66ab d0be 08e0 71bf 90af 9d3d
00000010: 9156 abbd 922c 9dbd 9ea0 3fbf 5978 9cbe
00000020: ce77 0c3d 21ab babd 69a3 40bd 683f 893d
00000030: 2d4e 83bc 9771 32bd e684 8bbc 362d 4e3b
00000040: 690f 833e b4d8 f1bc 382c 38bd 1d50 c7bd
00000050: 4081 163d 7563 113d aaa9 e8bc 35ac 123c
00000060: 56ba c63d 53f1 e2bd 8d7d d53c 48ab 203e
00000070: baa1 553e 7f48 d43c 6c8b 1c3d 66f0 633e
00000080: ba57 003e 886f 7e3e 576a 0ebd 1fed 043f
00000090: d5c5 77be 0122 643c bde4 4ebd 762b 8cbe
000000a0: 1ee5 f23c 1aa8 32bd 7f08 57bd 80fa 42be
000000b0: ee8d 793d 172b 3dbb 0fd5 a73c 9b15 3f3e
000000c0: 3077 00be 046a efbb c3e8 2bbd 8cdb c13d
000000d0: 0c75 cd3c 2edf 94be e5cb 0abc 9541 133e
000000e0: 1458 54bd 39f3 4ebd bbc2 bcbd 884c 3c3d
000000f0: f839 103d 294a a83d 411e 94bc 6aed 313d
00000100: 2c15 1abe 2283 763e bbb0 e63f 03a9 413e
00000110: f1d2 5bbf 58a1 473f da18 66bf ee53 ac3f
00000120: 411a d7bd 2c33 1fbe 0f20 a13c 0126 9bbd
00000130: bde0 dabd 4155 81bf a1da f8bd 7f84 f7bd
00000140: 961c b3bd 8a54 f4bd c67a 22bd 5958 ce3e
00000150: 83f1 63bd 336a a63d 38c6 213e 5d4c 8e3c
00000160: b0e9 993e 4d33 5dbf d87e 403e 6a92 023e
00000170: a1d9 55bf ddd9 b93c 2a75 a4bf 563f c63e
00000180: ed12 85bd 52ca 853f e62e d83d cdba 9fbf
00000190: 839d d6be 7153 09bf 50f5 993e 6784 02bf
000001a0: 3545 fa3b 634f 553e d2d7 873e 0a8f a33e
000001b0: 9815 96be 8b97 02be b03e d2bd 80fa a43e
000001c0: e967 49bd 2532 963e becc 8fbe 7f6d 583e
000001d0: 5432 a6bd 5bba 66be ac3b 493d 4582 2abe
000001e0: ce5a d8bd 7953 68bd c167 113e 4cb8 2cbf
000001f0: ec97 81bb e503 17bf c6e1 9cbc 78d3 0e3f
00000200: 29d0 ee3e 3490 8d3e 3c90 4bbf 3a43 92be
00000210: f8cd 7f3f 3d5a 2dbf a400 d83f bfd9 82bf
00000220: 6c3e 4fbc 00fd 663e bd81 593d c894 b4bb
00000230: d020 903d 9f57 8b3f 5b3e 0f3e 472a f53d
00000240: 9f99 75be ae6d 353e 6def aa3d 9d06 8dbe
00000250: b162 f5bc 382c 11be 9fd1 f0bd b2cb 60bc
00000260: c564 ccbe a5d1 743f 097b 16be e0bf aabe
00000270: bce3 093f 3eb4 51bd 7924 9b3f efee 31bf
00000280: c02b c4bd 68ba a0bf a6fa 15bd 7bf8 333f
00000290: faa6 373f 9209 f13e 3c75 90be 80aa 433f
000002a0: 79e8 64bd 54d1 27be 4479 18be e51f 57bd
000002b0: ebb5 203e 2877 b03d 6913 af3d 33f7 f4be
000002c0: a421 093e cd34 92be 81b6 9f3e 0168 c0be
000002d0: ba41 c73d c70f 103f cfa3 fabc 16f0 82bd
000002e0: 1e88 df3d 1e96 013e 4baf 75bd 3479 183f
000002f0: 6749 93bb 6fb7 da3e bb14 333d 4738 0fbf
00000300: d233 4d3e 37f3 aabd fafd a7bd 9c51 023d
00000310: 2e5b ec3e 165d 20bc 6c00 3d3d 6b1c 9cbd
00000320: 2fa6 063d f3e6 54bd d105 7ebc 35bf 9f3d
00000330: 688c aa3d 67e0 b5bd 0adc 40bd 268b 003d
00000340: c3ef 6f3d dfcc efbb ea56 fc3c 94ff 5e3d
00000350: fdd4 643d cecd a93d 3b88 63bd ba9d 65bd
00000360: 150b eb3d 8737 03bf ccc1 16bc bc81 c93d
00000370: 4fb5 213c e3f3 31bc 1c8a 62bd 3edb 0d3e
00000380: a972 c63d e3dd 983d 18f9 85bd 73d5 aabd
00000390: 3da2 8bbd c9b5 233e c0b9 b2bd d6b8 733d
000003a0: d8c9 97bc a164 09be 3246 653d a2f7 b03e
000003b0: 4b37 a0bd a3d1 cabc e5b6 793c 8d8b a93d
000003c0: 83d0 7fbe 30fb 62bd 4fbc 08bd 1968 c73e
000003d0: 03bd f53d e485 973d 59a4 b43d d509 a4be
000003e0: 4ede 8f3c 5d6f 963d 3060 5f3d c727 2cbc
000003f0: 30ba 3c3c 3b27 893d 330d 323e bdd0 01bc
-0.33214808 -0.40755767 -0.9448247 0.076995015 -0.083661206 -0.07674517 -0.7485446 -0.30560568
0.034293942 -0.091146715 -0.04703084 0.06701547 -0.016028488 -0.04356536 -0.017031144 0.0031460053
0.25597695 -0.029522277 -0.044964045 -0.09732077 0.036744356 0.03549524 -0.028401215 0.00895219
0.097035095 -0.11081185 0.026060844 0.15690339 0.20862475 0.025913475 0.0382189 0.22259673
0.12533465 0.24847233 -0.034769382 0.5192432 -0.2419656 0.013924123 -0.05051111 -0.27376908
0.029650267 -0.043617345 -0.052498337 -0.1904087 0.06092637 -0.0028864795 0.020487336 0.18660586
-0.12545466 -0.007306339 -0.041970026 0.09465703 0.025080226 -0.29076523 -0.008471464 0.14380486
-0.05184181 -0.050524924 -0.092168294 0.045971423 0.035211533 0.0821727 -0.018080832 0.043439306
-0.15047139 0.2407346 1.8022684 0.18912129 -0.85868746 0.77980566 -0.8988167 1.3463113
-0.105030544 -0.15546864 0.019668607 -0.07575608 -0.10687397 -1.0104142 -0.12151075 -0.120858185
-0.08745687 -0.11930187 -0.039667867 0.4030178 -0.055650245 0.08125725 0.1579827 0.017370397
0.30061102 -0.86406404 0.18798387 0.12751165 -0.835352 0.022686893 -1.2848256 0.38720196
-0.064977504 1.0452368 0.1055582 -1.2478882 -0.41917047 -0.53642946 0.3006997 -0.5098328
0.0076376447 0.20831065 0.26531845 0.31945068 -0.2931335 -0.12753122 -0.10265863 0.32222366
-0.049171362 0.29335132 -0.28085893 0.2113552 -0.08115068 -0.22532026 0.049129173 -0.16651256
-0.105641946 -0.05672023 0.14199735 -0.67468715 -0.003954878 -0.5899032 -0.019150626 0.55791426
0.4664319 0.2764908 -0.7951696 -0.28566915 0.9992366 -0.6771582 1.6875196 -1.0222701
-0.01264916 0.2255745 0.053102244 -0.0055109 0.070375085 1.0886115 0.1398863 0.119709544
-0.23984383 0.1771762 0.08346448 -0.27544108 -0.029954286 -0.14177024 -0.11758732 -0.01372044
-0.3992063 0.9563239 -0.14695372 -0.33349514 0.5386312 -0.051197283 1.2120506 -0.6950521
-0.09578657 -1.2556887 -0.03661599 0.70301026 0.7173916 0.47077614 -0.28214443 0.7643204
-0.055885766 -0.16388446 -0.14890009 -0.05252065 0.15694396 0.08616477 0.08548624 -0.47844848
0.13391739 -0.2855591 0.31193927 -0.3757935 0.09729333 0.56274074 -0.030595688 -0.06393449
0.10914634 0.12654921 -0.059981626 0.5955994 -0.004494834 0.42718074 0.043720942 -0.5594525
0.20039299 -0.08347171 -0.08202739 0.03181611 0.46163315 -0.009787818 0.04614298 -0.07622608
0.03287333 -0.051978063 -0.015504316 0.07800142 0.083275616 -0.08880692 -0.047084846 0.031382702
0.058578264 -0.0073181237 0.030803163 0.054442957 0.055867184 0.08291207 -0.05554984 -0.056058623
0.11476723 -0.51256603 -0.009201478 0.09839198 0.0098698875 -0.01086137 -0.055307493 0.13853166
0.096898384 0.074641965 -0.065416515 -0.083414935 -0.06818054 0.15987314 -0.08726835 0.059502445
-0.018528864 -0.13417293 0.055975147 0.3456393 -0.07823046 -0.024758166 0.015241359 0.0827857
-0.24981885 -0.055415332 -0.03338271 0.38946608 0.11998942 0.073985845 0.08820409 -0.3203875
0.017562058 0.073454596 0.05453509 -0.0105075305 0.011519 0.06696936 0.17387848 -0.007923302

actor.4.bias f4 [12]
00000000: e383 23bf 2a78 e93e c9e6 9a3e a2d0 debc
00000010: 2b3e c93d a02d a8bc f382 4abe 30ef 763e
00000020: afe2 753c ae7d fbbc 927d 4c3e 16a9 e7bd
-0.6387312 0.4559949 0.302542 -0.027199093 0.09826311 -0.020529568 -0.19776516 0.2411468
0.015007659 -0.030699577 0.19969776 -0.113115475
