Plotting/saliencies_live/Multi_Pong/Sequence_Length_3/multi_pong_3__1__1721978543_checkpoint_1368.pt (torch, 91378 bytes, 11 tensors)

critic.0.weight f4 [128, 12]
0.44093603 0.082997784 0.49668777 0.0935155 -0.0021146585 -0.038085382 0.68289566 0.06330149
-0.7647242 -0.18638103 0.24550705 0.061179362 -0.08323783 -0.0072017647 0.051449057 0.005870137
0.038327906 -0.00047590793 1.1799502 -0.31873983 -0.0022882328 -0.032465167 0.7626879 -2.159755
-0.16614974 0.05024474 0.10717146 0.045204554 -0.04270523 0.027225334 -1.2142024 1.4543464
0.08043273 -0.042975113 0.105052896 -0.12507538 -0.41390565 0.012215332 -0.21626285 -0.07930113
-0.062633306 0.0020464803 0.42497137 0.1550016 0.52328086 0.067463934 0.76628786 -0.9396658
0.092725255 0.07610832 -0.021645695 0.01430016 0.14313294 0.053868517 0.4417739 0.27637324
-0.10959662 -0.023203654 -0.9063684 0.8131549 0.100509144 0.0049210493 0.008935887 0.010755014
-0.007502966 -0.0136549715 0.0021863654 -0.017396213 0.096088186 0.11025605 5.2496934 5.3805666
0.0448293 0.1930364 0.20311488 -0.28912407 0.042587467 -0.0971777 0.058258537 -0.15926632
-0.20766513 0.055197 1.4907895 0.9212476 0.092347726 0.0015879008 -0.032121137 0.016969278
0.023329144 0.016018776 0.43531093 0.04760898 0.017368343 -0.0057971757 -2.9383776 -0.43893445
-0.12907021 0.0050194664 0.096631676 -0.06308477 -0.012018275 -0.067208014 0.5945635 0.13860556
-0.13125958 -0.014797597 -0.8048964 -0.5715721 -0.27341214 0.3858224 -0.17033151 -0.37873027
0.13939047 -0.00841175 1.1217716 -0.1110716 0.11873159 -0.017566934 0.47016194 -0.15674187
0.113540724 0.016137145 -0.1290994 -0.018476127 0.0036923431 0.05813888 1.1446154 2.7701316
0.0010316125 0.065259814 0.22462207 2.6728208 -0.066150464 0.003710165 -0.083523914 -0.023710508
0.24669807 0.21847655 2.7446752 0.7490226 0.032702927 -0.003012498 -0.064114094 -0.12837668
-0.23835275 0.014682754 0.16426322 0.008318113 -0.18267238 0.0066289124 -2.644534 -0.017386692
0.21129736 0.003201872 2.782574 0.039810736 0.005939858 0.012854689 0.014430352 0.011103765
0.17011331 -0.14055994 2.3965962 -2.9834778 -0.032034177 -0.020941757 -0.48470694 0.035251617
-0.058859594 0.0012603968 0.0787191 0.0048935045 -0.0102548795 -0.011274354 -0.71025944 -1.5437964
-0.001399912 0.01932901 0.044203646 2.1687956 -0.08659662 -0.011778949 0.002917021 -0.013258152
-0.09405814 0.1173146 -1.821037 0.607801 -0.031291712 0.0067583323 0.6873426 0.060301863
-0.21314305 -0.0025666065 0.17468277 0.004487566 0.035578344 0.16019964 0.014601846 -0.027219746
0.027281785 -0.16423024 -0.13037612 -0.059503295 0.24163805 0.0193174 0.004318759 -0.0103284465
0.0461425 -0.055838704 -0.17405711 -2.1757693 0.050026365 -0.046038922 0.54356873 -1.0704619
0.20203458 0.0011751268 -0.05074813 0.01110547 -0.021183942 -0.02476903 -2.5672352 -1.0972931
0.0015019457 -0.02736421 0.088525094 -0.87689483 -0.028162213 0.0032761996 0.111940615 -0.007715215
-0.100324206 -0.0041535106 -1.1885387 0.21409085 0.15077382 -0.0023077114 1.5508108 0.21440847
-0.20050398 -0.07165988 0.06369658 -0.07427274 -0.017565431 -0.16796713 0.3919094 -0.7891141
0.00016951881 -0.013049004 -0.35167348 -0.8169067 -0.021409614 0.01807615 -0.09732219 -0.007098764
00000000: 5ec2 e13e befa a93d dc4d fe3e 0e85 bf3d
00000010: 1596 0abb 6bff 1bbd 40d2 2e3f 36a4 813d
00000020: f7c4 43bf abda 3ebe 3366 7b3e 3697 7a3d
00000030: 9878 aabd c8fc ebbb 3fbc 523d 475a c03b
00000040: b9fd 1c3d 4883 f9b9 9c08 973f de31 a3be
00000050: 2df6 15bb 32fa 04bd 843f 433f 6d39 0ac0
00000060: 2823 2abe 6ecd 4d3d b67c db3d 6928 393d
00000070: aeeb 2ebd aa07 df3c fc6a 9bbf 0628 ba3f
00000080: eab9 a43d ac06 30bd f925 d73d c313 00be
00000090: 71eb d3be d122 483c 0274 5dbe a168 a2bd
000000a0: e445 80bd 3e1e 063b d995 d93e bdb8 1e3e
000000b0: bcf5 053f 882a 8a3d 712b 443f f08d 70bf
000000c0: bde6 bd3d aede 9b3d 5052 b1bc 384b 6a3c
000000d0: 7191 123e 3ca5 5c3d 3030 e23e cb80 8d3e
000000e0: 3174 e0bd 9715 bebc c207 68bf eb2a 503f
000000f0: bdd7 cd3d c140 a13b d467 123c cc35 303c
00000100: 71db f5bb 1ab9 5fbc 2049 0f3b 8182 8ebc
00000110: e2c9 c43d edcd e13d 7dfd a740 9a2d ac40
00000120: ee9e 373d 56ab 453e 59fd 4f3e 1208 94be
00000130: 3270 2e3d 1a05 c7bd 81a0 6e3d b616 23be
00000140: 2ba6 54be 4016 623d 31d2 be3f e2d6 6b3f
00000150: ce20 bd3d 1c21 d03a 7491 03bd 2803 8b3c
00000160: c31c bf3c cf39 833c 13e1 de3e a201 433d
00000170: 0e48 8e3c 3cf6 bdbb 610e 3cc0 04bc e0be
00000180: fb2a 04be 567a a43b d4e6 c53d 9732 81bd
00000190: 4de8 44bc 5ba4 89bd 5035 183f 9eee 0d3e
000001a0: e968 06be 9f71 72bc b10d 4ebf 8d52 12bf
000001b0: adfc 8bbe 838a c53e 626b 2ebe efe8 c1be
000001c0: 60bc 0e3e 70d1 09bc 3696 8f3f 8279 e3bd
000001d0: 8c29 f33d 88e8 8fbc 11b9 f03e f180 20be
000001e0: 0a88 e83d 0c32 843c a232 04be 3f5b 97bc
000001f0: 3dfb 713b 0923 6e3d c282 923f d649 3140
00000200: 2c37 873a f0a6 853d 5403 663e 7f0f 2b40
00000210: e579 87bd 3d26 733b 960e abbd 8a3c c2bc
00000220: 6b9e 7c3e 51b8 5f3e c2a8 2f40 f2bf 3f3f
00000230: 81f3 053d 546d 45bb 404e 83bd 2d75 03be
00000240: be12 74be ef8f 703c 9e34 283e b248 083c
00000250: 780e 3bbe 5937 d93b 0c40 29c0 896e 8ebc
00000260: 565e 583e 80d6 513b b115 3240 9510 233d
00000270: 24a3 c23b 799c 523c 486d 6c3c 91ec 353c
00000280: 2f32 2e3e f2ee 0fbe d561 1940 4df1 3ec0
00000290: 4536 03bd 0c8e abbc 822b f8be 0064 103d
000002a0: c216 71bd e633 a53a 7b37 a13d b159 a03b
000002b0: 1504 28bc 11b8 38bc 90d3 35bf 1f9b c5bf
000002c0: 417d b7ba df57 9e3c e20e 353d 8ccd 0a40
000002d0: 9259 b1bd 7efc 40bc 7e2b 3f3b b838 59bc
000002e0: 8ea1 c0bd a342 f03d be17 e9bf d998 1b3f
000002f0: bd2b 00bd 0075 dd3b aff5 2f3f 16ff 763d
00000300: 2c42 5abe 8334 28bb 0ae0 323e 6f0c 933b
00000310: 99ba 113d 600b 243e 953c 6f3c f2fb debc
00000320: 0d7e df3c f92b 28be 5181 05be bab9 73bd
00000330: f76f 773e 863f 9e3c 6084 8d3b a538 29bc
00000340: ebff 3c3d 20b7 64bd 073c 32be ce3f 0bc0
00000350: 72e8 4c3d 4f93 3cbd 5227 0b3f e504 89bf
00000360: 27e2 4e3e b606 9a3a 45dd 4fbd b8f3 353c
00000370: f289 adbc 6ce8 cabc 954d 24c0 1a74 8cbf
00000380: efdc c43a e82a e0bc a54c b53d 2e7c 60bf
00000390: 71b4 e6bc 82b5 563b 1f41 e53d eacf fcbb
000003a0: c776 cdbd 2c1a 88bb 0922 98bf a23a 5b3e
000003b0: 7464 1a3e f93c 17bb f880 c63f e58d 5b3e
000003c0: ea50 4dbe 6ac2 92bd 5a73 823d 4e1c 98bd
000003d0: 61e5 8fbc 93ff 2bbe 59a8 c83e 6203 4abf
000003e0: dcc0 3139 7dcb 55bc 8c0e b4be cc20 51bf
000003f0: 3763 afbc 6f14 943c db50 c7bd c09c e8bb

critic.0.bias f4 [128]
0.33944058 -0.054963797 0.0370897 -0.14782962 -0.019671686 0.009727086 0.00047087285 0.19257873
-0.048015326 -0.031324588 -0.025034282 0.05167418 -0.0900734 -0.08451816 -0.056446105 -0.015668157
-0.050970346 0.12633723 -0.044124227 -0.061342634 0.004542291 0.012545772 -0.076469384 -0.22456282
-0.05361526 -0.086718835 0.035010867 -0.030514114 -0.1712233 -0.081167504 -0.03484251 -0.11975702
0.04065903 0.023480447 -0.1808147 0.14812008 -0.033266682 0.079606004 -0.024638519 0.057985287
-0.027096324 0.09855192 -0.03522775 -0.16993959 0.6793246 -0.034076855 0.0009800888 -0.03775902
-0.10027509 0.36587077 0.04022152 -0.01791795 -0.008034087 -0.029673731 0.014100593 -0.019458592
0.0068966793 -0.029328495 -0.05345744 0.1313754 -0.17301597 0.20379514 -0.13201953 -0.12924108
0.020428823 0.0044800383 -0.030086664 0.032029428 -0.050727956 0.028612195 -0.093503885 -0.02899248
0.09941925 0.34529528 -0.056485694 0.041429944 -0.004898876 0.055196572 -0.02394986 -0.017893463
-0.07638447 0.16886428 0.09555643 -0.07559124 -0.20058507 0.06618303 0.060929008 -0.101949364
0.007866651 0.008581481 0.028020458 0.45187697 0.039730545 0.025808813 0.0036386785 0.1760786
0.048545767 0.028907867 -0.643992 -0.021526655 0.015096911 0.05543872 -0.16594295 0.0024578408
0.09447643 -0.2861619 -0.039136376 -0.016616842 0.14859357 0.032770827 -0.0722552 0.44929156
0.06506631 -0.03404851 0.010638858 -0.07108149 0.031334847 0.06809734 0.044527583 0.022831507
0.07472946 0.04364706 -0.2331034 0.007520157 -0.008454064 -0.04579247 -0.3852614 0.08983744
00000000: 28cb ad3e b821 61bd 5feb 173d a660 17be
00000010: 8426 a1bc 5b5e 1f3c 7cdf f639 5c33 453e
00000020: b8ab 44bd 364e 00bd b214 cdbc 4ea8 533d
00000030: 6778 b8bd db17 adbd 0834 67bd 825a 80bc
00000040: 48c6 50bd 8c5e 013e 9bbb 34bd 6a42 7bbd
00000050: 80d7 943b c88c 4d3c fb9b 9cbd ccf3 65be
00000060: ad9b 5bbd a599 b1bd 8e67 0f3d bcf8 f9bc
00000070: 2955 2fbe 263b a6bd 05b7 0ebd 2b43 f5bd
00000080: 158a 263d 115a c03c 7d27 39be caac 173e
00000090: a542 08bd 7908 a33d b8d6 c9bc fb81 6d3d
000000a0: 1cf9 ddbc 97d5 c93d f94a 10bd a504 2ebe
000000b0: 38e8 2d3f 2c94 0bbd 5376 803a 34a9 1abd
000000c0: 075d cdbd 6a53 bb3e 52bf 243d aac8 92bc
000000d0: 67a1 03bc 5316 f3bc 2c06 673c a067 9fbc
000000e0: 8afd e13b 5042 f0bc 30f6 5abd 4687 063e
000000f0: 192b 31be acaf 503e 2130 07be c657 04be
00000100: 595a a73c 49cd 923b 4f78 f6bc 4a31 033d
00000110: 1ec8 4fbd 1f64 ea3c f77e bfbd a381 edbc
00000120: 529c cb3d 8bca b03e 8b5d 67bd 72b2 293d
00000130: c086 a0bb cd15 623d 7f32 c4bc 5095 92bc
00000140: 766f 9cbd c2ea 2c3e 17b3 c33d 94cf 9abd
00000150: 2c66 4dbe f88a 873d b290 793d d4ca d0bd
00000160: 20e3 003c 5799 0c3c 298b e53c 6b5c e73e
00000170: 7fbc 223d 016d d33c e576 6e3b f34d 343e
00000180: edd7 463d 31d0 ec3c a9dc 24bf ab58 b0bc
00000190: 0959 773c b613 633d f3ec 29be ba13 213b
000001a0: dc7c c13d d083 92be 774d 20bd 0b20 88bc
000001b0: ea28 183e b43a 063d 89fa 93bd 8b09 e63e
000001c0: 7c41 853d 7376 0bbd 9b4e 2e3c 2c93 91bd
000001d0: f858 003d 9e76 8b3d 8e62 363d 2409 bb3c
000001e0: c20b 993d 42c7 323d a8b2 6ebe a66b f63b
000001f0: ea82 0abc e390 3bbd fb40 c5be b1fc b73d

critic.2.weight f4 [64, 128]
-0.30870834 0.02380126 0.12896438 0.164547 -0.28979114 0.06371868 0.052647926 -0.40496993
-0.05271248 0.14557517 0.339447 -0.7419431 -0.20017457 -0.29633957 -0.3551229 0.26206258
-0.119111456 0.19684388 -0.19598147 -0.19281125 -0.040848743 0.14034382 -0.4949114 0.42234027
1.2743211 -0.08095597 0.16986257 -0.049052306 -0.78296214 -0.091162294 0.07276926 -0.08220295
0.19803543 0.10753515 0.005031493 0.013903049 0.46017906 -0.09491979 -0.04170751 -0.078292504
0.20756865 -1.0955963 -0.051805396 0.03603827 -0.79281735 0.096248865 0.0854195 -0.18680276
0.12819321 0.019734358 -0.1602443 0.10473792 -0.54742545 -0.26715833 -0.6921206 -0.6945836
0.006797106 -0.03951531 -0.0109651005 -0.15419959 0.0848127 -0.4471994 -0.06207561 0.12036625
0.31673068 -0.16853644 -0.42530313 0.4051069 0.03448106 0.5284996 0.26417765 0.14761846
0.03521625 -0.12274515 0.16652746 0.87006897 1.1600788 0.1584905 0.21888974 0.12908554
0.23010676 -0.06320252 0.041393172 0.124171674 -0.08458278 0.14457276 -0.10559277 -0.5284374
-0.6422476 -0.01001384 -0.0006355615 0.82856864 0.09149444 -0.3645597 0.3615838 0.56847554
-0.86462176 0.24859305 -0.033536565 0.36237693 -0.33216473 0.40263864 -0.40090376 -0.11939495
-0.26936215 0.340669 0.3003184 -0.74225575 0.021843523 0.118553296 0.08165704 -0.7875884
-0.14367723 -0.1870163 -0.06264572 -0.063800074 -0.75051564 0.97057533 0.64974594 -0.355786
0.19820566 -0.054265186 0.4885391 -0.08555168 0.2865331 -0.48383707 0.44606268 0.55934304
-0.038427815 -0.59592885 0.0057434887 0.054382637 0.1142743 -0.18122987 -0.03461181 -0.17740434
-0.045424126 0.09182953 0.24144319 0.068478905 -0.23314108 0.14524989 0.0432578 0.65967447
0.04353925 -0.03172301 -0.49479824 -0.23336133 -0.009648701 0.9708783 0.16100855 0.07420747
0.08704634 -0.08658717 -0.5648186 -0.09976067 0.022057623 0.1287 -0.8837792 0.30368924
-0.15940294 -0.08870998 0.060590066 0.15480934 -0.48075017 0.15044172 0.18785334 0.18341373
-0.43074238 -0.06785006 0.0035641203 0.0788706 0.28083533 0.19234958 0.09909699 0.06281012
-0.25329491 -0.20476772 0.2028143 0.11961063 -0.32405323 0.25006866 0.08525858 -0.01299366
0.23408188 -0.2569437 -0.019105196 0.015954131 -0.06832182 0.11349045 0.024154129 -0.064140595
0.09646805 0.21313645 0.011984681 -0.2070574 -0.0031407687 -0.50377953 -0.19565742 -0.056936935
0.05363086 0.20410366 -0.92968476 -0.09172055 -0.29145232 0.35235623 -0.0006396643 0.06057862
0.030264437 -0.10284196 -0.06911776 -0.096894406 0.027829353 -0.22351524 0.32491308 0.1501162
0.2199006 -0.03373261 -0.26242042 0.08322864 0.13549192 0.52420723 -0.3720326 0.029936196
0.4109448 -0.05245265 0.15600803 0.55506015 -0.03514859 -0.060893115 0.8522341 0.40257823
-0.07599982 0.038105898 0.08373283 0.40609935 -0.08004108 0.4170861 0.3102027 -0.43224087
0.071460746 -0.25906017 0.6103814 -1.4025834 0.11022647 -0.13573344 -1.1143668 0.19587867
0.7943995 0.31431887 -0.008768159 -0.4568338 -0.2699719 0.21035421 -0.0166671 -0.04593413
00000000: 050f 9ebe dcfa c23c 3d0f 043e 027f 283e
00000010: 815f 94be f07e 823d 5aa5 573d 3858 cfbe
00000020: 0be9 57bd a811 153e ffcb ad3e fcef 3dbf
00000030: 90fa 4cbe d2b9 97be abd2 b5be 112d 863e
00000040: b5f0 f3bd 7191 493e 5eaf 48be 5070 45be
00000050: 0351 27bd 4ab6 0f3e 0765 fdbe fc3c d83e
00000060: f41c a33f 3ecc a5bd 74f0 2d3e 12eb 48bd
00000070: 3570 48bf 4cb3 babd 0d08 953d 055a a8bd
00000080: cdc9 4a3e 643b dc3d 39df a43b 9dc9 633c
00000090: 979c eb3e 4f65 c2bd 7ed5 2abd d257 a0bd
000000a0: e08c 543e 803c 8cbf e531 54bd dd9c 133d
000000b0: 14f6 4abf 201e c53d 6bf0 ae3d 3949 3fbe
000000c0: 1545 033e f3a9 a13c 1517 24be d680 d63d
000000d0: 1324 0cbf fac8 88be d12e 31bf 3bd0 31bf
000000e0: 42ba de3b ceda 21bd f7a6 33bc 7fe6 1dbe
000000f0: 48b2 ad3d 52f7 e4be ff42 7ebd 9582 f63d
00000100: 862a a23e d194 2cbe 55c1 d9be 2c6a cf3e
00000110: 033c 0d3d c04b 073f 4b42 873e 4b29 173e
00000120: ea3e 103d cf61 fbbd 2d86 2a3e d7bc 5e3f
00000130: 767d 943f 554b 223e a224 603e 002f 043e
00000140: 1ba1 6b3e 5370 81bd e38b 293d b84d fe3d
00000150: bd39 adbd e20a 143e 0641 d8bd ac47 07bf
00000160: 576a 24bf 1711 24bc cf9b 26ba 131d 543f
00000170: 7061 bb3d 92a7 babe 8321 b93e 9d87 113f
00000180: da57 5dbf 2d8f 7e3e a35d 09bd 7889 b93e
00000190: 7f11 aabe a726 ce3e 4243 cdbe 5785 f4bd
000001a0: d6e9 89be 2b6c ae3e 55c3 993e 7904 3ebf
000001b0: 30f1 b23c 12cc f23d ce3b a73d 659f 49bf
000001c0: 2020 13be 3381 3fbe 664c 80bd 9da9 82bd
000001d0: cb21 40bf a077 783f c055 263f 9529 b6be
000001e0: 6df6 4a3e 2c45 5ebd cc21 fa3e b835 afbd
000001f0: 77b4 923e 7eb9 f7be 5462 e43e 1b31 0f3f
00000200: 7c66 1dbd cb8e 18bf e033 bc3b 54c0 5e3d
00000210: a508 ea3d 5394 39be 1dc5 0dbd 7ca9 35be
00000220: a60e 3abd 1f11 bc3d e23c 773e ab3e 8c3d
00000230: 89bc 6ebe 63bc 143e 172f 313d 6de0 283f
00000240: 3656 323d fdef 01bd 3256 fdbe 46f6 6ebe
00000250: 9615 1ebc 7b8b 783f 6ddf 243e 16fa 973d
00000260: 5a45 b23d 9d54 b1bd f497 10bf 524f ccbd
00000270: 30b2 b43c efc9 033e 5b3f 62bf 287d 9b3e
00000280: 863a 23be 94ad b5bd 4a2d 783d 5786 1e3e
00000290: e324 f6be 650d 1a3e a05c 403e cfd0 3b3e
000002a0: 448a dcbe f9f4 8abd 0494 693b e986 a13d
000002b0: a6c9 8f3e 4af7 443e 5df3 ca3d 98a2 803d
000002c0: dfaf 81be a1ae 51be 8dae 4f3e 6bf6 f43d
000002d0: 4eea a5be 0009 803e 0d9c ae3d 5ce3 54bc
000002e0: 29b3 6f3e 208e 83be 8082 9cbc 3db2 823c
000002f0: 4fec 8bbd ae6d e83d e1de c53c 255c 83bd
00000300: 0a91 c53d 7140 5a3e 655b 443c db06 54be
00000310: 5bd5 4dbb b2f7 00bf 6b5a 48be b436 69bd
00000320: 08ac 5b3d 8d00 513e d2ff 6dbf fcd7 bbbd
00000330: 3d39 95be 0968 b43e 25af 27ba 4921 783d
00000340: 20ed f73c ce9e d2bd 9d8d 8dbd 9370 c6bd
00000350: 62fa e33c 2ee1 64be 025b a63e 10b8 193e
00000360: 9f2d 613e 352b 0abd f85b 86be c773 aa3d
00000370: 65be 0a3e 7232 063f 0f7b bebe c13c f53c
00000380: 5b67 d23e 97d8 56bd 92c0 1f3e 6c18 0e3f
00000390: f8f7 0fbd 0f6b 79bd 042c 5a3f bc1e ce3e
000003a0: cba5 9bbd ee14 1c3d 1e7c ab3d 41ec cf3e
000003b0: 94ec a3bd 4f8c d53e e3d2 9e3e ad4e ddbe
000003c0: 035a 923d 89a3 84be f541 1c3f da87 b3bf
000003d0: 6abe e13d b5fd 0abe 92a3 8ebf 6b94 483e
000003e0: c45d 4b3f 67ee a03e 53a8 0fbc 1fe6 e9be
000003f0: c239 8abe 1867 573e 7189 88bc 6d25 3cbd

critic.2.bias f4 [64]
0.07187185 -0.29828054 0.09948535 0.08500601 -0.084881224 -0.21670778 -0.14386263 0.14450617
0.27570164 -0.08855001 -0.3963962 0.28121883 0.2834602 0.014472814 0.08063708 -0.14782462
-0.25338474 0.6234144 -0.29230967 0.048983287 0.30751827 0.40396574 -0.02691701 -0.027798384
0.47470924 -0.3888664 0.06690205 -0.23188278 0.1803948 0.012100409 0.032393873 0.1560356
-0.42214584 -0.3022426 -0.18124318 -0.33298585 -0.47813967 -0.38231006 0.2444422 0.36869782
-0.3775213 -0.10340249 -0.112152174 -0.39262307 -0.47284764 0.057596035 0.0032399436 0.16895932
0.21792622 0.31068274 0.17806081 -0.37032372 0.77215105 -0.0500857 -0.12645046 -0.022042006
0.15346153 -0.1646681 0.24501339 0.2832283 0.21562211 0.07029471 -0.1697365 -0.34524205
00000000: 8c31 933d 3ab8 98be fabe cb3d a217 ae3d
00000010: 35d6 adbd a5e8 5dbe ba50 13be 6df9 133e
00000020: c428 8d3e b559 b5bd 71f4 cabe eafb 8f3e
00000030: b221 913e 621f 6d3c 0e25 a53d 565f 17be
00000040: a5bb 81be 1698 1f3f 9da9 95be b3a2 483d
00000050: 0973 9d3e 99d4 ce3e 1081 dcbc 70b9 e3bc
00000060: 170d f33e 7f19 c7be f103 893d ae72 6dbe
00000070: 6ab9 383e cb40 463c 70af 043d ccc7 1f3e
00000080: 8023 d8be 8bbf 9abe d097 39be 1f7d aabe
00000090: b9ce f4be 25be c3be 0e4f 7a3e f6c5 bc3e
000000a0: 794a c1be afc4 d3bd 0ab0 e5bd e405 c9be
000000b0: 1619 f2be d2e9 6b3d 3c55 543b ac03 2d3e
000000c0: 0d28 5f3e cf11 9f3e 9355 363e 129b bdbe
000000d0: b1ab 453f aa26 4dbd 3b7c 01be 7091 b4bc
000000e0: 0525 1d3e c19e 28be cae4 7a3e 4d03 913e
000000f0: 0bcc 5c3e acf6 8f3d 68cf 2dbe 91c3 b0be

critic.4.weight f4 [1, 64]
0.33639494 -0.22084609 0.32739937 -0.36806443 -0.21027541 0.5809622 -0.92366815 0.19355004
0.1737863 -0.27824664 -0.16026142 0.44211066 0.24892698 -0.26083326 0.37213904 0.26785114
-0.2740329 1.885606 -0.30284834 0.28852683 0.26840395 0.22849083 0.30415937 -0.2188987
0.34431788 -0.28190756 -1.8096724 -0.3473581 -0.5924242 0.32481652 -0.39598328 0.4432582
-0.3912834 -0.28525397 -0.87007266 -0.39399126 -0.21800219 -0.36397028 0.26182202 0.25414613
-0.3373408 -0.14113373 -0.19305474 -0.42342058 -0.76141125 0.22425334 -0.70163167 0.2902934
0.28399563 0.412195 0.33929068 -0.19521967 0.77026105 -0.39550933 -0.15797544 -0.2485161
0.16292287 -0.15317683 0.40458503 0.1799821 0.3166484 0.5323148 -0.32199565 -0.30064636
00000000: f53b ac3e 7a25 62be e4a0 a73e f172 bcbe
00000010: 7052 57be f0b9 143f 8475 6cbf fb31 463e
00000020: 09f5 313e 5876 8ebe 921b 24be 545c e23e
00000030: b7e6 7e3e f08b 85be 0289 be3e c923 893e
00000040: 0a4e 8cbe 8a5b f13f f00e 9bbe cab9 933e
00000050: 3e6c 893e 80f9 693e c7ba 9b3e fb26 60be
00000060: 6f4a b03e 3056 90be 58a3 e7bf ecd8 b1be
00000070: 1da9 17bf 5a4e a63e 52be cabe bdf2 e23e
00000080: 4c56 c8be cf0c 92be 15bd 5ebf 39b9 c9be
00000090: f73b 5fbe 505a babe 890d 863e 711f 823e
000000a0: efb7 acbe 5c85 10be 24b0 45be 95ca d8be
000000b0: d9eb 42bf aba2 653e 229e 33bf 56a1 943e
000000c0: e067 913e 390b d33e 82b7 ad3e aae7 47be
000000d0: d42f 453f 3380 cabe 50c4 21be 017b 7ebe
000000e0: 41d5 263e 63da 1cbe c525 cf3e 3a4d 383e
000000f0: bd1f a23e c845 083f 9ddc a4be 52ee 99be

actor.0.weight f4 [128, 19]
-0.42361683 0.2839224 0.009625023 0.02901373 -0.06391459 0.4963651 0.40344238 -0.3299511
0.7547342 -0.39278334 -0.5672757 -0.041879643 -0.23418461 -0.027754225 -0.31988916 -0.058314707
0.05139806 0.29923952 -0.5872807 0.33159828 0.2182926 0.2530155 -0.05138009 1.06652
-0.61346704 0.23329376 -0.12214579 0.20812982 1.0392091 0.32464677 -0.32037067 0.35754284
-0.6622476 0.2423575 0.41738904 -0.35698217 0.7836084 0.34430185 -0.09784181 -0.14183637
-0.29294053 0.37686825 0.23810267 -1.1311466 -0.028742423 0.08877194 0.67930263 -0.6382553
-0.12541519 0.08333365 0.15382051 -0.48052025 0.26745263 0.2888473 -0.4114957 0.2791521
-0.10777185 -0.021002142 -0.15945889 -0.34921053 0.13476466 1.1147455 1.3027074 -0.039300494
0.4184209 -0.36341116 0.07845709 0.55713004 -0.50353056 -0.04756713 0.20783861 0.35624883
-0.23713697 -0.03425036 -0.24535874 0.010570419 0.16320579 -0.08932358 -0.28707176 -0.054631364
-2.8575125 0.4463012 0.008255021 -0.018072426 -0.06847493 -0.41278404 0.07740779 -0.23522027
0.109198466 0.0067478083 -0.014178525 -0.11213999 0.23933354 -0.08210572 0.13724744 -0.2819735
0.3198467 -0.13463144 -0.24101368 0.0940122 -1.6461239 0.009027209 0.0655887 1.3291584
-0.06248957 -0.4155765 0.70623523 -0.79159486 -0.29293284 -0.4775426 0.091271035 -0.7395482
0.6231788 -0.14932828 0.018954564 0.54652166 -0.29712716 0.27904898 -0.6340305 0.22353426
0.28292456 -0.41174218 -0.39753467 -0.7233161 -0.24238434 0.26036853 -0.040663555 0.13359909
-0.22055028 -0.030554142 -0.14894645 0.5483371 0.05182694 -0.012736369 -0.012031034 0.36594698
0.36764583 0.15413319 1.7143626 -0.012803292 -0.012919807 0.43559417 0.15706865 0.0010319854
0.3542756 -0.28577694 0.26386875 -0.17729454 -0.10717582 -0.41273233 0.6894822 -0.10033256
0.2065438 -0.06986795 0.5098574 -0.29217738 -0.0452748 1.3947533 0.029647628 0.050741017
0.7854754 -0.08212434 -0.31990704 0.24416609 0.20713495 -0.052671183 0.28024957 -0.19880766
0.06690223 0.17290303 -0.016785683 -0.19802426 -0.50492513 -0.17997327 -0.034278482 1.0771239
0.014976185 0.33198935 -0.15508021 0.2327845 0.41207156 0.3175925 -1.1616212 0.22123277
-0.5889144 0.10567945 -0.22270252 0.2111466 -0.88491195 0.04512381 -0.2400585 0.41493294
-0.027588336 -0.024208916 1.0651827 0.15197295 -0.09638474 -0.22631258 1.3959465 -0.7163785
0.4273586 -0.72676027 0.48741668 0.81775105 -0.7713913 -0.04122282 -0.12075204 -0.4043229
0.44598362 -0.38510704 -0.16170873 0.45694393 0.04225286 0.4845203 -0.07523071 0.21902175
-0.16690853 -0.7260339 0.0091160005 -0.42538404 0.2803449 -0.07646485 0.040804695 -0.35125798
-0.2691472 0.3979344 -0.33087796 -0.44743964 -0.35115227 -0.6322623 0.041949607 -0.0475948
-0.043698315 0.59660167 0.30504876 0.66716295 0.09770041 0.46713147 -0.07020332 -0.108571604
-0.1310574 0.06908423 -0.12142511 -0.23159815 -0.16170484 0.013689517 -0.09583279 -0.10685537
0.22017485 0.087395355 -0.55955225 -0.45375597 -0.05149204 0.21057647 0.5259788 0.093634285
00000000: 4ee4 d8be 475e 913e 46b2 1d3c 34ae ed3c
00000010: a7e5 82bd 9123 fe3e 0090 ce3e 5aef a8be
00000020: 4336 413f e61a c9be fb38 11bf fd89 2bbd
00000030: 17ce 6fbe d45c e3bc 83c8 a3be 67db 6ebd
00000040: c686 523d ec35 993e 0758 16bf 40c7 a93e
00000050: 1888 5f3e 3f8b 813e ee73 52bd ba83 883f
00000060: 2d0c 1dbf 8fe4 6e3e 9227 fabd fc1f 553e
00000070: ce04 853f 1a38 a63e a007 a4be db0f b73e
00000080: 0f89 29bf 912c 783e 04b4 d53e 5ec6 b6be
00000090: 8f9a 483f 5548 b03e 4961 c8bd 8e3d 11be
000000a0: 4dfc 95be e0f4 c03e 30d1 733e 69c9 90bf
000000b0: 3b75 ebbc 10ce b53d c7e6 2d3f b364 23bf
000000c0: d76c 00be d5aa aa3d 2083 1d3e c006 f6be
000000d0: 8def 883e cbe3 933e 90af d2be 06ed 8e3e
000000e0: 7db7 dcbd af0c acbc 3149 23be b9cb b2be
000000f0: bfff 093e fbaf 8e3f 1ebf a63f 8ef9 20bd
00000100: 443b d63e 0711 babe 1cae a03d 13a0 0e3f
00000110: 61e7 00bf c0d5 42bd a5d3 543e 3f66 b63e
00000120: 09d4 72be 1b4a 0cbd 523f 7bbe 8d2f 2d3c
00000130: 6b1f 273e 48ef b6bd 12fb 92be 23c5 5fbd
00000140: 7ce1 36c0 9781 e43e 1140 073c a00c 94bc
00000150: 963c 8cbd 6e58 d3be fa87 9e3d 95dd 70be
00000160: 72a3 df3d b81c dd3b 0b4d 68bc a7a9 e5bd
00000170: da13 753e 0b27 a8bd 988a 0c3e d55e 90be
00000180: f2c2 a33e d3dc 09be 4acc 76be 7889 c03d
00000190: 30b4 d2bf dce6 133c 5e53 863d dd21 aa3f
000001a0: 10f5 7fbd 71c6 d4be d5cb 343f f6a5 4abf
000001b0: 4bfb 95be 7780 f4be 4fec ba3d 0853 3dbf
000001c0: a588 1f3f 83e9 18be 9a46 9b3c d8e8 0b3f
000001d0: 0d21 98be 82df 8e3e d34f 22bf 2ae6 643e
000001e0: 7ddb 903e dfcf d2be aa89 cbbe 3e2b 39bf
000001f0: 9a33 78be 064f 853e d48e 26bd 33ce 083e
00000200: efd7 61be ae4c fabc 6b85 18be d25f 0c3f
00000210: 7c48 543d 34ac 50bc d01d 45bc 675d bb3e
00000220: 133c bc3e 17d5 1d3e 3c70 db3f e6c4 51bc
00000230: 99ad 53bc 3306 df3e 9bd6 203e af43 873a
00000240: 9d63 b53e 5b51 92be ce19 873e b38c 35be
00000250: ff7e dbbd a751 d3be e881 303f 287b cdbd
00000260: 3880 533e ee16 8fbd 0486 023f 4698 95be
00000270: 1272 39bd 4787 b23f 95df f23c d0d5 4f3d
00000280: ea14 493f ce30 a8bd dbca a3be ad06 7a3e
00000290: 2f1b 543e bdbd 57bd df7c 8f3e 3c94 4bbe
000002a0: 0904 893d 7e0d 313e 2182 89bc dfc6 4abe
000002b0: c642 01bf ea4a 38be 9867 0cbd 32df 893f
000002c0: ac5e 753c 82fa a93e 59cd 1ebe 0f5f 6e3e
000002d0: 0bfb d23e 7c9b a23e 01b0 94bf d88a 623e
000002e0: 18c3 16bf 786e d83d 210c 64be d036 583e
000002f0: 9789 62bf bfd3 383d e5d1 75be 1772 d43e
00000300: ef00 e2bc c751 c6bc e857 883f cc9e 1b3e
00000310: 5d65 c5bd 7cbe 67be 60ae b23f 9564 37bf
00000320: bfce da3e f60c 3abf ae8e f93e 2258 513f
00000330: e679 45bf 42d9 28bd d84c f7bd 6903 cfbe
00000340: f757 e43e c02c c5be f996 25be 8ef4 e93e
00000350: 5611 2d3d 0b13 f83e 8f12 9abd 3d47 603e
00000360: 12ea 2abe 5cdd 39bf 475b 153c f0cb d9be
00000370: 5e89 8f3e 9a99 9cbd d322 273d 16d8 b3be
00000380: a9cd 89be 0fbe cb3e d668 a9be cf16 e5be
00000390: 3bca b3be f1db 21bf 5ad3 2b3d c4f2 42bd
000003a0: 01fd 32bd e3ba 183f 5a2f 9c3e 31cb 2a3f
000003b0: 2717 c83d db2b ef3e c2c6 8fbd ca5a debd
000003c0: e933 06be 087c 8d3d baad f8bd 1128 6dbe
000003d0: f495 25be ff49 603c fb43 c4bd fdd6 dabd
000003e0: 8475 613e 56fc b23d d13e 0fbf b452 e8be
000003f0: 51e9 52bd 5ca1 573e 8ca6 063f 55c3 bf3d

actor.0.bias f4 [128]
-0.28551665 0.14809178 -0.013766321 -0.04697822 0.103517376 -0.18500936 -0.0381568 0.008170201
0.04408552 -0.27768523 -0.020625005 -0.17477679 -0.078227386 -0.11274187 0.06616751 0.41577226
-0.07553714 0.14185335 0.06912717 -0.05141632 -0.027197829 0.004587097 0.201753 0.17881496
0.105823584 -0.17870381 -0.31889412 -0.15136613 0.016656313 -0.164874 -0.048077077 -0.08486671
-0.110096894 -0.28935748 -0.15235038 -0.27099487 0.09740894 -0.124593474 0.22118923 0.09634029
0.0045782663 -0.09690336 0.012281787 -0.057345174 -0.089785084 -0.1573218 0.38012633 -0.12257943
0.32506818 -0.022912739 -0.25952104 -0.16498566 0.02314189 0.12461917 0.11204919 -0.2764163
-0.2970599 -0.392457 -0.046157844 0.27687165 0.097609974 0.18503067 0.0022349586 0.09615834
0.065121435 0.14041902 -0.34161696 -0.034389965 -0.024796357 0.21074924 0.13202016 0.15458381
0.12940204 0.05845441 -0.019920817 -0.06868769 0.16076025 0.067940004 -0.09854801 -0.019417727
0.04788437 -0.05543962 0.10595574 -0.22865903 -0.03908851 -0.06897947 -0.2902713 -0.12427518
0.2581467 0.08322886 0.087094106 0.22245838 -0.04854802 0.19036397 0.26418158 0.26482362
0.114288546 0.10535271 0.2666214 0.20852241 0.2307473 -0.12514685 0.036228783 -0.054335956
-0.2975296 -0.30462742 -0.05816983 -0.0082297325 -0.002905573 -0.26187527 0.0009875818 -0.1376994
-0.008490243 0.069311306 -0.035177507 0.09080228 0.0680313 -0.19579162 0.18771152 -0.05632722
-0.12309359 0.13092738 0.21020572 -0.20344527 -0.034003396 -0.00345004 0.01285686 -0.36094648
00000000: 3d2f 92be 5fa5 173e 238c 61bc 3c6c 40bd
00000010: eb00 d43d 1873 3dbe 4e4a 1cbd 4fdc 053c
00000020: 0593 343d c22c 8ebe c5f5 a8bc b0f8 32be
00000030: ae35 a0bd 36e5 e6bd d582 873d 1ae0 d43e
00000040: 37b3 9abd 0142 113e 8c92 8d3d eb99 52bd
00000050: fbcd debc 5c4f 963b 5798 4e3e 451b 373e
00000060: 09ba d83d 22fe 36be 1746 a3be b9ff 1abe
00000070: d272 883c bbd4 28be 78ec 44bd 99ce adbd
00000080: 7b7a e1bd aa26 94be bd01 1cbe d7bf 8abe
00000090: 577e c73d dd2a ffbd 6e7f 623e 0f4e c53d
000000a0: 4805 963b 4575 c6bd 8c39 493c c6e2 6abd
000000b0: 3ee1 b7bd f718 21be eb9f c23e ed0a fbbd
000000c0: 566f a63e 7fb3 bbbc f1df 84be 00f2 28be
000000d0: 1094 bd3c 5638 ff3d 0c7a e53d 7086 8dbe
000000e0: 3c18 98be 20f0 c8be 0210 3dbd 1fc2 8d3e
000000f0: bde7 c73d ae78 3d3e 6278 123b aaee c43d
00000100: 635e 853d 01ca 0f3e 6be8 aebe 7edc 0cbd
00000110: bb21 cbbc a6ce 573e 4b30 073e 384b 1e3e
00000120: f881 043e e46d 6f3d fb30 a3bc 22ac 8cbd
00000130: 569e 243e 2124 8b3d 8ad3 c9bd ed11 9fbc
00000140: 6722 443d a814 63bd 53ff d83d 9825 6abe
00000150: 461b 20bd 1c45 8dbd 719e 94be fc83 febd
00000160: ce2b 843e e473 aa3d 655e b23d 21cc 633e
00000170: 4ada 46bd c6ee 423e cf42 873e f696 873e
00000180: 1d10 ea3d 29c3 d73d 9a82 883e e686 553e
00000190: 0549 6c3e 7f26 00be a264 143d 618f 5ebd
000001a0: cd55 98be 20f8 9bbe 7d43 6ebd 00d6 06bc
000001b0: 6d6b 3ebb 8414 86be bf71 813a 1201 0dbe
000001c0: a91a 0bbc 16f3 8d3d 4a16 10bd 8cf6 b93d
000001d0: ff53 8b3d 997d 48be 7337 403e 5fb7 66bd
000001e0: 7e18 fcbd d411 063e 2b40 573e f553 50be
000001f0: 2547 0bbd 111a 62bb 94a5 523c facd b8be

actor.2.weight f4 [64, 128]
0.14962581 0.23374632 -0.3914465 0.12307492 -0.20117502 0.43825468 -0.2927544 0.043763388
0.21315923 0.16126794 -0.09141599 0.031813856 0.040900666 -0.04039558 0.034655944 -0.31963572
0.041967828 -0.119721435 -1.0732629 -0.2410308 -0.446935 -0.07307216 0.084409386 0.0216645
-0.041525856 -0.037348945 0.22161925 0.39933696 -0.42905822 0.6029548 0.06317679 0.6087211
0.55275464 -0.8273439 0.16432112 0.24360536 -0.21210177 -0.013151287 0.0059262114 0.40410373
0.019610655 0.11537581 0.530464 -0.13533416 0.1199065 0.6352409 -0.40245843 0.14803627
0.027822375 0.31524011 0.0859481 0.14259423 -0.27643722 0.15149456 -0.5111804 -0.16309011
-0.24966939 0.39336038 -0.10690353 -0.11842095 -0.09136241 -0.08597208 -0.46371377 -0.044589873
-0.5577235 0.09907888 0.3687667 -0.45933133 -0.52495587 0.2332053 -0.108035944 -0.1811217
-0.16424523 -0.27142498 -0.17824227 0.038135152 -0.04125754 0.31234324 0.12643377 -0.13777763
-0.19153115 -0.19137947 -0.5005472 -0.10202137 -0.15910506 -0.19066097 -0.24291897 0.15430737
0.07363117 0.3006859 0.16801691 0.033576366 -0.45532328 0.15575707 0.065485016 -0.31068686
-0.37348208 0.0015757044 0.17031722 -0.115575485 -0.5000271 -0.5355258 -0.07271445 0.4157585
0.22761044 0.27515456 0.014866044 0.017410632 0.032048464 0.5788506 -0.16115248 0.26075888
-0.1529289 -0.11630899 0.36436674 -0.48079494 0.0038454768 -0.051413517 -0.0952797 -0.3261983
-0.17463069 0.10993826 -0.039029844 -0.0824733 0.11587482 -0.111528106 0.2903065 0.81896627
-0.5540939 0.36338833 -0.077858455 0.00037518714 0.3408125 -0.37137407 0.39199013 0.81871784
-0.38322026 0.061553296 -0.35845706 -0.6707982 -0.19520716 0.0928477 0.4235451 0.24211599
-0.6135357 0.4237435 -0.20840287 -0.2275081 0.35329598 -0.08110408 0.14519072 0.009138937
0.24934533 -0.29302892 -0.010586585 0.08351969 -0.44120163 -0.035117947 0.13719898 0.039634872
-0.47512868 0.103628874 -0.81726533 -0.39712968 -0.12140214 -0.59857726 -0.13294269 -0.41971275
-0.035978112 0.22436985 0.0163139 -0.30316263 -0.35545278 0.1131332 0.04602777 -0.05075205
0.039544474 -0.22052461 -0.22667868 0.44052714 -0.03944152 0.6067143 0.13578326 -0.21829128
-0.42994297 -0.43183774 -0.34208778 -0.0769243 -0.33379486 0.0738921 0.068414 0.2623497
-0.26872566 0.49858528 -0.17545696 0.37355164 -0.29306218 0.07559606 0.010122673 0.28232032
0.5526065 0.5120796 -0.4491164 -0.0707756 0.0326645 0.11224043 -0.17672804 -0.44461817
0.030662114 0.21034622 0.2813908 0.22362454 0.94853425 0.0022964403 -0.6407415 -0.3426531
0.09011894 -0.20728965 -0.06022254 -0.35453802 0.57959306 0.27561375 0.15134726 -0.14276135
-0.019779103 -0.10245346 0.034538656 0.48970458 -0.14450926 -0.5091438 0.09018786 -0.41622108
0.29648787 0.16678137 -0.23821323 0.2321765 0.18950707 0.114240974 0.009939956 -0.26896128
0.101405695 0.06807097 -0.35741785 0.5563802 0.34484214 -0.21813285 -0.09641771 0.05073867
-0.26984972 0.41082162 -0.4106183 -0.28429365 0.14192013 -0.20935154 0.50351644 0.2988933
00000000: 8237 193e 325b 6f3e ad6b c8be b40e fc3d
00000010: d300 4ebe eb62 e03e e8e3 95be 3d41 333d
00000020: 6a46 5a3e 6c23 253e 4e38 bbbd 3f4f 023d
00000030: 7587 273d d675 25bd 64f3 0d3d 4ba7 a3be
00000040: 75e6 2b3d 8330 f5bd ae60 89bf c7d0 76be
00000050: aad4 e4be dba6 95bd d4de ac3d c079 b13c
00000060: 0417 2abd 35fb 18bd 28f0 623e e575 cc3e
00000070: 85ad dbbe 3f5b 1a3f d562 813d 25d5 1b3f
00000080: 5481 0d3f cfcc 53bf cc43 283e af73 793e
00000090: 3531 59be 7f78 57bc aa30 c23b afe6 ce3e
000000a0: 86a6 a03c 274a ec3d 7dcc 073f 0a95 0abe
000000b0: 8a91 f53d 269f 223f 080f cebe d296 173e
000000c0: c0eb e33c 2767 a13e 8f05 b03d 3904 123e
000000d0: 2e89 8dbe 6421 1b3e b8dc 02bf 1801 27be
000000e0: 55a9 7fbe 8866 c93e 3df0 dabd af86 f2bd
000000f0: 371c bbbd 2112 b0bd e46b edbe dfa3 36bd
00000100: f8c6 0ebf dee9 ca3d fdce bc3e 7a2d ebbe
00000110: 8263 06bf 5fcd 6e3e f341 ddbd f877 39be
00000120: e72f 28be 37f8 8abe 2485 36be 9b33 1c3d
00000130: abfd 28bd 74eb 9f3e db77 013e 9415 0dbe
00000140: be20 44be fbf8 43be dc23 00bf 94f0 d0bd
00000150: 70ec 22be a13c 43be c0bf 78be c002 1e3e
00000160: f0cb 963d 81f3 993e a00c 2c3e 5f87 093d
00000170: 2220 e9be c87e 1f3e 021d 863d 5912 9fbe
00000180: 0b39 bfbe de87 ce3a a367 2e3e d7b2 ecbd
00000190: c701 00bf 3818 09bf 50eb 94bd 4cde d43e
000001a0: b612 693e 0fe1 8c3e b590 733c bea0 8e3c
000001b0: 4045 033d 8e2f 143f 2805 25be 3082 853e
000001c0: 6599 1cbe 6833 eebd 478e ba3e c12a f6be
000001d0: 6504 7c3b fb96 52bd 0122 c3bd 7703 a7be
000001e0: 63d2 32be 4f27 e13d c2dd 1fbd c3e7 a8bd
000001f0: c74f ed3d d968 e4bd 0ea3 943e c6a7 513f
00000200: 19d9 0dbf 090e ba3e 4174 9fbd c4b4 c439
00000210: fa7e ae3e be24 bebe eeb2 c83e 7e97 513f
00000220: 7235 c4be 4f1f 7c3d af87 b7be 6eb9 2bbf
00000230: 63e4 47be ef26 be3d e7da d83e 41ed 773e
00000240: ad10 1dbf e8f4 d83e 9067 55be e2f7 68be
00000250: 36e3 b43e e519 a6bd e0ac 143e 7bbb 153c
00000260: 6254 7f3e e307 96be 5b73 2dbc 5f0c ab3d
00000270: 2ee5 e1be d6d7 0fbd e47d 0c3e 2d58 223d
00000280: 1144 f3be 603b d43d 4d38 51bf 9554 cbbe
00000290: afa1 f8bd 5c3c 19bf 2122 08be 97e4 d6be
000002a0: c95d 13bd 36c1 653e baa4 853c 2238 9bbe
000002b0: e8fd b5be 61b2 e73d 9d87 3c3d 62e1 4fbd
000002c0: 63f9 213d 34d1 61be 751e 68be c68c e13e
000002d0: 6e8d 21bd a151 1b3f c40a 0b3e c087 5fbe
000002e0: 7c21 dcbe d619 ddbe 2126 afbe 7d8a 9dbd
000002f0: 29e7 aabe be54 973d a41c 8c3d b352 863e
00000300: 6996 89be 9246 ff3e fdaa 33be 2942 bf3e
00000310: 3f0c 96be 1bd2 9a3d 91d9 253c 4a8c 903e
00000320: 9f77 0d3f a617 033f 96f2 e5be ccf2 90bd
00000330: 36cb 053d 50de e53d 32f8 34be fea4 e3be
00000340: 1d2f fb3c 0065 573e 7412 903e d5fd 643e
00000350: 24d3 723f e07f 163b a307 24bf 3a70 afbe
00000360: 4790 b83d bd43 54be e9ab 76bd 0286 b5be
00000370: 3660 143f 3f1d 8d3e c7fa 1a3e 0830 12be
00000380: c907 a2bc 1fd3 d1bd 6878 0d3d 8fba fa3e
00000390: 3cfa 13be 4057 02bf 6ab4 b83d ee1a d5be
000003a0: 42cd 973e bcc8 2a3e 2bee 73be adbf 6d3e
000003b0: 240e 423e 2cf7 e93d 32db 223c 4bb5 89be
000003c0: caad cf3d cb68 8b3d 79ff b6be ef6e 0e3f
000003d0: 268f b03e 385e 5fbe a676 c5bd 5ad3 4f3d
000003e0: be29 8abe 3657 d23e 903c d2be f08e 91be
000003f0: 8353 113e 4060 56be 74e6 003f 8b08 993e

actor.2.bias f4 [64]
-0.123634346 0.15666197 -0.37382686 0.17145523 0.612448 -0.056371644 -0.20687048 -0.46374908
-0.1988987 -0.077036284 -0.030132713 -0.08985384 0.01649577 0.28855366 0.0020819898 -0.22076556
-0.2531856 0.2383213 0.0025378736 -0.12501034 -0.056912255 0.029163457 -0.14178365 -0.08901141
0.14617494 -0.3037775 0.2966132 -0.16332662 -0.07356373 -0.21956761 -0.4598893 -0.27800423
-0.02714566 0.38822803 0.084347926 0.35096905 0.22874074 -0.26673305 0.038386535 -0.37851015
-0.1265565 -0.16120379 -0.04214128 0.3567181 -0.0010305701 -0.13458772 0.14040717 0.21493025
-0.24078494 0.110677555 0.20613319 -0.2543808 -0.08962544 -0.067940675 -0.03469923 -0.23250665
-0.01470131 0.09291993 -0.22509097 0.2257949 -0.10508595 -0.07709717 -0.042288706 0.100004315
00000000: 0134 fdbd ff6b 203e 3c66 bfbe f691 2f3e
00000010: 64c9 1c3f f4e5 66bd dbd5 53be 8570 edbe
00000020: 1aac 4bbe 33c5 9dbd e1d8 f6bc 4a05 b8bd
00000030: 2322 873c 4ebd 933e fe71 083b 5e10 62be
00000040: 8ba1 81be 800a 743e 7452 263b b602 00be
00000050: d31c 69bd 34e8 ee3c bc2f 11be 9d4b b6bd
00000060: e2ae 153e b988 9bbe afdd 973e 183f 27be
00000070: 95a8 96bd 55d6 60be 9c76 ebbe 9256 8ebe
00000080: 9360 debc d3c5 c63e 9bbe ac3d 37b2 b33e
00000090: 033b 6a3e 3c91 88be 333b 1d3d 15cc c1be
000000a0: 0798 01be 9b12 25be 569c 2cbd c1a3 b63e
000000b0: 3214 87ba 5dd1 09be e6c6 0f3e ad16 5c3e
000000c0: 5490 76be eaaa e23d 9414 533e 333e 82be
000000d0: 8b8d b7bd 7b24 8bbd c820 0ebd 3916 6ebe
000000e0: c3dd 70bc ce4c be3d 3f7e 66be c736 673e
000000f0: 4d37 d7bd 1fe5 9dbd ec36 2dbd 10cf cc3d

actor.4.weight f4 [12, 64]
-0.16554652 -0.2079772 -0.78114325 0.04940866 -0.22229668 -0.033276226 -0.43069628 -0.22634737
0.10385255 -0.018078133 -0.061679315 -0.050099023 0.027516995 0.027268436 -0.112327784 -0.056743015
0.20629156 -0.16075562 -0.039303303 -0.15440686 0.06687294 -0.008407026 -0.011226928 0.067740805
0.021756127 -0.069623016 0.17254995 0.031175738 0.13553387 0.011299834 -0.17606473 0.19577436
0.102701075 0.19468646 0.04931101 0.32913855 -0.11533232 -0.019250352 -0.13118193 -0.2802139
0.112717636 0.09924764 -0.033796463 -0.2583771 0.061169732 0.10813546 -0.02961462 0.103160396
-0.0982041 -0.13240738 0.07670646 0.15862767 0.03202292 -0.2741991 0.15656869 0.29280657
-0.26063332 0.16940211 -0.04065405 0.07708041 0.003922824 0.061898906 -0.07770134 0.03935709
-0.27036777 0.17691581 1.4360496 0.14290045 -0.51891184 0.6605086 -0.7664912 1.1183543
-0.0062805167 -0.29079714 -0.10988966 -0.002622905 0.008854244 -0.868005 0.08336667 -0.067939065
-0.013212957 -0.106361106 -0.18510717 0.5056379 -0.19866648 0.1290537 0.14189903 0.053213213
0.5312371 -0.5312842 0.2100474 0.15298162 -0.64790416 0.040662702 -0.87415415 0.24385904
-0.068728104 0.86315584 -0.03278165 -0.8541991 -0.56645274 -0.36363694 0.37197214 -0.5962609
-0.014615856 0.35028836 0.21939898 0.25649798 -0.40798795 -0.21769977 -0.055878196 0.57653314
-0.15488747 0.35639873 -0.55077356 0.11820012 -0.20540959 -0.26868072 0.08317709 -0.20110346
-0.01749372 -0.16663735 0.16666351 -0.6147229 -0.053963326 -0.33026406 0.093937606 0.4621277
0.43266505 0.09249051 -0.5746273 -0.19142957 0.777176 -0.6080578 1.2367061 -0.8499348
-0.15536597 0.29662296 0.1893363 0.060073283 -0.06359891 0.83408225 0.039230358 0.12502223
-0.2292453 0.28373617 0.20522243 -0.30726764 0.09675211 -0.124664195 -0.114868864 -0.11740484
-0.53756875 0.6019538 -0.36432242 -0.19413647 0.45798257 -0.057891157 1.052356 -0.4838741
-0.063916095 -1.0450448 -0.010197395 0.4819289 0.69607085 0.3677143 -0.2426413 0.88876593
-0.12843713 -0.4546495 -0.14870493 0.054644555 0.29942992 0.072791725 0.07980588 -0.6698865
0.24165168 -0.19758962 0.4515566 -0.32169715 0.18574172 0.56243896 -0.24610488 -0.15999259
0.27098095 -0.013847381 -0.11445081 0.47178623 0.0653839 0.22274503 -0.0077017457 -0.49029872
0.13925861 -0.13583137 -0.047335472 -0.0039725774 0.26527777 0.017460747 0.039593436 -0.095781446
-0.1378765 0.004746895 0.018072145 -0.08499585 0.08287124 -0.050636016 -0.030423025 -0.08493014
0.067504406 0.09048785 0.10075899 -0.009227826 0.10076983 -0.07096232 -0.13593674 -0.0064582666
0.05471682 -0.35958773 -0.08127521 0.12490648 0.026913255 0.015132022 -0.11119823 0.25212246
-0.057290867 0.09798224 -0.10668579 -0.27463606 -0.14727053 0.40479892 -0.061605506 0.06341537
-0.011832314 0.0133886775 -0.10398834 0.16940573 -0.08867629 0.012016653 -0.05152601 0.0809734
-0.093643814 0.15033114 0.0123876035 0.0964853 0.1264994 0.010179165 0.102214925 -0.24584419
0.0024175926 -0.01907882 -0.012130073 0.042093497 -0.010799923 -0.059798338 0.013072306 -0.015944151
00000000: 0785 29be faf7 54be 01f9 47bf bc60 4a3d
00000010: bea1 63be a74c 08bd 3984 dcbe 9bc7 67be
00000020: a5b0 d43d 9818 94bc 73a3 7cbd a234 4dbd
00000030: 526b e13c 0e62 df3c 1c0c e6bd 5d6b 68bd
00000040: 183e 533e 1f9d 24be 80fc 20bd d51c 1ebe
00000050: aef4 883d 9fbd 09bc 26f1 37bc b1bb 8a3d
00000060: e839 b23c 8396 8ebd efb0 303e 4364 ff3c
00000070: 64c9 0a3e f022 393c 504a 34be 1379 483e
00000080: f154 d23d e35b 473e 57fa 493d d984 a83e
00000090: 5a33 ecbd eab2 9dbc 8e54 06be 3278 8fbe
000000a0: 81d8 e63d 5942 cb3d 296e 0abd 014a 84be
000000b0: 1d8d 7a3d 2076 dd3d 5c9a f2bc c245 d33d
000000c0: 3b1f c9bd cd95 07be 4718 9d3d 4b6f 223e
000000d0: 772a 033d d363 8cbe 8b53 203e beea 953e
000000e0: bb71 85be bf77 2d3e dc84 26bd 56dc 9d3d
000000f0: 088b 803b b589 7d3d e121 9fbd e634 213d
00000100: a56d 8abe 6b29 353e 79d0 b73f 7f54 123e
00000110: 68d7 04bf 1717 293f c438 44bf 3c26 8f3f
00000120: cbcc cdbb 5de3 94be d40d e1bd 0be5 2bbb
00000130: 6411 113c 9335 5ebf 25bc aa3d a323 8bbd
00000140: 297b 58bc dad3 d9bd bc8c 3dbe 7c71 013f
00000150: 3a6f 4bbe a726 043e fb4d 113e 19f6 593d
00000160: 28ff 073f 3e02 08bf aa16 573e 37a7 1c3e
00000170: 0cdd 25bf ef8d 263d 91c8 5fbf 2fb6 793e
00000180: 52c1 8cbd c8f7 5c3f 0d46 06bd cbac 5abf
00000190: 0c03 11bf 9f2e babe 2273 be3e 8ea4 18bf
000001a0: 5877 6fbc ff58 b33e 20aa 603e b453 833e
000001b0: cce3 d0be b0ec 5ebe 89e0 64bd ad97 133f
000001c0: d29a 1ebe e579 b63e 7fff 0cbf e812 f23d
000001d0: e456 52be 8590 89be c058 aa3d 11ee 4dbe
000001e0: fd4e 8fbc fba2 2abe d7a9 2a3e 7b5e 1dbf
000001f0: a608 5dbd 5f18 a9be 5c62 c03d 009c ec3e
00000200: 4686 dd3e aa6b bd3d c61a 13bf 1d06 44be
00000210: 02f5 463f ada9 1bbf 634c 9e3f 5495 59bf
00000220: 4218 1fbe f7de 973e 60e1 413e 670f 763d
00000230: 2540 82bd 6a86 553f 03b0 203d d405 003e
00000240: 48bf 6abe de45 913e d425 523e 2f52 9dbe
00000250: f825 c63d f14f ffbd 5e40 ebbd f371 f0bd
00000260: 1b9e 09bf a519 1a3f 7888 babe b6cb 46be
00000270: b17c ea3e 471f 6dbd 9ab3 863f 59be f7be
00000280: 71e6 82bd 07c4 85bf fa12 27bc 63bf f63e
00000290: b331 323f 0c45 bc3e f676 78be 2a86 633f
000002a0: 0685 03be d2c7 e8be 1b46 18be f8d2 5f3d
000002b0: e14e 993e d413 953d 4471 a33d af7d 2bbf
000002c0: 8a73 773e ef54 4abe 6d32 e73e 7db5 a4be
000002d0: 1433 3e3e 00fc 0f3f eb02 7cbe 19d5 23be
000002e0: 04be 8a3e 20e0 62bc 3065 eabd f78d f13e
000002f0: ffe7 853d 4617 643e ed5e fcbb 6f08 fbbe
00000300: cf99 0e3e 6117 0bbe d7e2 41bd 652c 82bb
00000310: 7dd2 873e d709 8f3c ba2c 223d 1029 c4bd
00000320: 7f2f 0dbe d78b 9b3b 090c 943c 4e12 aebd
00000330: 66b8 a93d b667 4fbd b539 f9bc daef adbd
00000340: c03f 8a3d b251 b93d bb5a ce3d 4f30 17bc
00000350: 6a60 ce3d b154 91bd 0033 0bbe de9f d3bb
00000360: bf1e 603d e21b b8be 9e73 a6bd f8ce ff3d
00000370: 3079 dc3c 4dec 773c e6bb e3bd 3216 813e
00000380: d4a9 6abd eaaa c83d 147e dabd 199d 8cbe
00000390: 16ce 16be ce41 cf3e 0e56 7cbd ebdf 813d
000003a0: 52dc 41bc 2f5c 5b3c d7f7 d4bd b278 2d3e
000003b0: ea9b b5bd 7fe1 443c f00c 53bd 62d5 a53d
000003c0: 54c8 bfbd 68f0 193e 60f5 4a3c 169a c53d
000003d0: 0f89 013e 83c6 263c 0f56 d13d 94be 7bbe
000003e0: 7970 1e3b 2f4b 9cbc 37bd 46bc 3b6a 2c3d
000003f0: 29f2 30bc 1aef 74bd 3a2d 563c 4f9d 82bc

actor.4.bias f4 [12]
-0.50658023 0.31855494 0.26437142 -0.11892875 0.044612303 0.095476404 -0.18549453 0.15103394
0.061286833 0.01317951 0.16543496 -0.15143986
00000000: 3eaf 01bf a219 a33e b15b 873e eb90 f3bd
00000010: 64bb 363d 2289 c33d 47f2 3dbe a4a8 1a3e
00000020: e707 7b3d dfee 573c c867 293e 0d13 1bbe
