Plotting/saliencies_live/Multi_Pong/Sequence_Length_3/multi_pong_3__1__1721978543_checkpoint_4256.pt (torch, 91378 bytes, 11 tensors)

critic.0.weight f4 [128, 12]
0.5372524 0.11061539 0.59299994 0.120441586 0.0057992525 -0.03500915 0.56149244 0.033695776
-0.9585771 -0.215372 0.24192598 0.21476752 -0.07472271 -0.0015454915 0.059960492 -0.0065966784
0.035191823 -0.003255765 1.1455922 -0.26236928 -0.016154498 -0.019712755 0.95672035 -2.294951
-0.16364138 0.037925754 0.10967935 0.020502754 -0.048155874 0.022372507 -1.4963188 1.641091
0.054759577 -0.048883874 0.037528656 -0.06107687 -0.3973268 0.0024564276 -0.19969079 -0.1114607
-0.042456828 -0.0019079717 0.16839933 0.12544045 0.5081347 0.14810002 0.8722248 -0.8140067
0.08193053 0.057042807 -0.032435767 0.008488463 0.142945 0.0778485 0.6971762 0.19328305
-0.10818427 -0.023650376 -1.1805499 0.9456918 0.10370206 0.008892755 0.012123696 0.0059237247
-0.002408281 -0.003763718 -0.0009888303 -0.03640368 0.088651106 0.09643397 6.6837873 6.818884
0.11601966 0.39518967 0.27427837 -0.33594012 -0.063810796 -0.10723199 1.2270116 0.026684558
-0.1632408 0.029095806 1.2296402 0.028315533 0.086013585 -0.0007531099 -0.038458377 -0.008700671
0.030685944 0.01798368 0.5613863 0.012109378 0.011506226 0.00021019537 -2.8498046 -0.5905244
-0.124196775 -0.007796533 0.10150616 -0.020286094 0.006186313 -0.039801612 0.6026387 0.25956026
-0.11441425 -0.0067232354 -1.1126119 -1.1206849 -0.24182402 0.32830545 -0.13875245 -0.3334491
0.15604775 -0.021745805 0.50209075 -0.1507577 0.10279939 -0.007576484 0.26923653 -0.0103650885
0.10282225 -0.0046752677 -0.13980049 0.00515853 0.012248628 0.075115494 1.2278479 3.8637204
0.009792739 0.063263774 0.14681901 3.7044806 -0.03206526 -0.0018935493 -0.049438164 0.00042435253
0.24036884 0.23508671 3.1768284 1.6882566 0.0030503918 -0.010344565 0.0179706 -0.13526082
-0.24047627 0.0053097857 0.16213869 0.00040641066 -0.21528132 -0.0022450574 -2.8483734 -0.059323817
0.22029129 -0.0019565902 3.1590693 0.020708894 0.006733367 0.007441608 0.015223331 0.012018058
0.17909268 -0.14974636 2.5320876 -3.214733 -0.020241555 -0.016725961 -0.32061324 0.025596041
-0.060095474 0.0010025296 0.07748145 -0.0031200063 -0.0045402646 -0.018897934 -0.49639016 -1.7520666
-0.0060398276 0.023501884 -0.10819544 2.3256924 -0.09417734 0.0025801668 -0.0046623275 -0.017081007
-0.1310743 0.16562642 -1.8071202 0.7515024 -0.046421852 0.006447798 0.72786343 -0.079363234
-0.20971942 0.013192214 0.1781064 -0.0071230712 0.018277705 0.11558173 0.04649128 -0.10926693
0.016897818 -0.12204319 0.032365035 0.107443094 0.23180749 0.00017699234 -0.005519846 -0.0140856765
0.055345245 -0.09371273 -0.27885184 -2.354898 0.042236567 -0.022169545 0.58769345 -0.6406214
0.18983294 0.0050303815 -0.06295438 -0.007176447 -0.024302155 -0.035516202 -2.5911674 -1.3384538
0.00863911 -0.030029789 0.2440554 -1.1454242 -0.036847696 -0.004756649 0.1032589 0.010953502
-0.14781855 -0.016998352 -1.3214364 0.008897882 0.14357407 6.16131e-05 1.8243566 0.12202469
-0.19292898 0.00082216284 0.07125994 -0.020388927 0.04104354 -0.118012846 0.5451777 -1.3119314
-0.03089647 -0.04363217 -0.14684531 -1.2866074 -0.009714954 0.0065494985 -0.085621685 -0.0031162482
00000000: 6089 093f 528a e23d d8ce 173f 14aa f63d
00000010: a807 be3b c165 0fbd f8bd 0f3f 9504 0a3d
00000020: 4f65 75bf 7a8a 5cbe 72bb 773e 04ec 5b3e
00000030: 3808 99bd 1792 caba 2299 753d f328 d8bb
00000040: 4d25 103d ac5e 55bb c4a2 923f 4455 86be
00000050: 7056 84bc a57c a1bc a0eb 743f 7ae0 12c0
00000060: 9b91 27be 0958 1b3d 919f e03d 64f5 a73c
00000070: 183f 45bd 8c46 b73c 6087 bfbf 450f d23f
00000080: 944b 603d 753a 48bd a6b7 193d bd2b 7abd
00000090: 6b6e cbbe 04fc 203b be7b 4cbe 8245 e4bd
000000a0: 36e7 2dbd e814 faba e070 2c3e 7673 003e
000000b0: 1e15 023f 88a7 173e 204a 5f3f be62 50bf
000000c0: 32cb a73d b8a5 693d 5edb 04bd 3213 0b3c
000000d0: 2d60 123e 096f 9f3d 247a 323f feeb 453e
000000e0: b78f ddbd 6fbe c1bc 421c 97bf dc18 723f
000000f0: bf61 d43d ebb2 113c 77a2 463c ce1b c23b
00000100: 40d4 1dbb b6a8 76bb a49b 81ba 061c 15bd
00000110: b68e b53d 2c7f c53d 96e1 d540 4c34 da40
00000120: b79b ed3d 4d56 ca3e 376e 8c3e 5800 acbe
00000130: 3caf 82bd 729c dbbd b70e 9d3f 9399 da3c
00000140: 9928 27be 545a ee3c da64 9d3f faf5 e73c
00000150: e427 b03d 5a6c 45ba 8886 1dbd 428d 0ebc
00000160: 1761 fb3c 8352 933c 03b7 0f3f 6a66 463c
00000170: 9c84 3c3c e467 5c39 3363 36c0 9b2c 17bf
00000180: e15a febd 0f7a ffbb 76e2 cf3d 062f a6bc
00000190: 8eb6 ca3b 0407 23bd 8846 1a3f 15e5 843e
000001a0: 0552 eabd 964e dcbb 116a 8ebf 9a72 8fbf
000001b0: b7a0 77be a717 a83e 1f15 0ebe d7b9 aabe
000001c0: fbca 1f3e 4224 b2bc 0589 003f 3a60 1abe
000001d0: 7d88 d23d 2744 f8bb 5fd9 893e 55d2 29bc
000001e0: 7994 d23d fd32 99bb dc27 0fbe e308 a93b
000001f0: 78ae 483c 27d6 993d 1f2a 9d3f 3247 7740
00000200: b971 203c 7090 813d b957 163e 3616 6d40
00000210: dd56 03bd f930 f8ba ac7f 4abd a27b de39
00000220: 4023 763e 92ba 703e 2851 4b40 cb18 d83f
00000230: 15e9 473b 407c 29bc 1437 933c d081 0abe
00000240: 693f 76be b6fd ad3b af07 263e 8413 d539
00000250: b572 5cbe d021 13bb c04b 36c0 88fd 72bd
00000260: 0a94 613e 233a 00bb 312e 4a40 b3a5 a93c
00000270: 94a3 dc3b bbd8 f33b 476b 793c 64e7 443c
00000280: 1264 373e 1c57 19be b90d 2240 2fbe 4dc0
00000290: 9ed1 a5bc e204 89bc 6b27 a4be caae d13c
000002a0: ac26 76bd 5067 833a 98ae 9e3d 0579 4cbb
000002b0: 80c6 94bb d7cf 9abc da26 febe b843 e0bf
000002c0: bfe9 c5bb 0687 c03c 9295 ddbd 25d8 1440
000002d0: 0de0 c0bd 0418 293b 70c6 98bb 78ed 8bbc
000002e0: 5738 06be f999 293e b74f e7bf 7662 403f
000002f0: d724 3ebd 0d48 d33b 4255 3a3f 3189 a2bd
00000300: b0c0 56be 2824 583c 8661 363e a768 e9bb
00000310: 20bb 953c 1db6 ec3d a46d 3e3d 57c7 dfbd
00000320: 4b6d 8a3c c8f1 f9bd 3391 043d 200b dc3d
00000330: f15e 6d3e 0597 3939 d3df b4bb 9cc7 66bc
00000340: b2b1 623d 76ec bfbd abc5 8ebe a6b6 16c0
00000350: 4000 2d3d e89c b5bc 1473 163f c4ff 23bf
00000360: 9163 423e e6d5 a43b 3aee 80bd 6728 ebbb
00000370: 5015 c7bc 7079 11bd b0d5 25c0 7452 abbf
00000380: 0e8b 0d3c 0801 f6bc a9e9 793e 439d 92bf
00000390: 9ced 16bd aadd 9bbb 6779 d33d 5176 333c
000003a0: bf5d 17be 2140 8bbc d424 a9bf 6cc8 113c
000003b0: 1505 133e 4836 8138 8484 e93f 15e8 f93d
000003c0: 2d8f 45be 6a86 573a bbf0 913d ae06 a7bc
000003d0: 451d 283d b8b0 f1bd c490 0b3f 5eed a7bf
000003e0: 981a fdbc a5b7 32bd 9e5e 16be 8daf a4bf
000003f0: 782b 1fbc 2d9d d63b 6c5a afbd f839 4cbb

critic.0.bias f4 [128]
0.43730322 -0.047347542 0.03905843 -0.13235293 -0.03004521 0.01285513 0.07908899 0.18379949
-0.044196833 -0.0006331575 -0.034640335 0.08546134 -0.092275284 -0.08378294 -0.057832044 -0.025526932
-0.047000006 0.1182654 -0.056411285 -0.06850322 0.011529148 0.021969998 -0.07696306 -0.19154498
-0.05895122 -0.11471479 0.037442155 -0.039666772 -0.19861892 -0.07780777 -0.05255139 -0.13966805
0.09232248 0.017506137 -0.15702662 0.12702347 -0.026067413 0.07997424 -0.031171946 0.06427351
-0.048711378 0.09404237 -0.042704187 -0.14960998 0.87722033 -0.04537241 0.0076035233 -0.025260288
-0.1491706 0.5418005 0.048690654 -0.011519952 0.0075715617 -0.020635283 0.031480886 -0.062036395
0.012426323 -0.033449616 -0.04735081 0.15740995 -0.2121167 0.21065749 -0.105999246 -0.1631265
0.022515943 0.0041167163 -0.04997023 0.037128333 -0.045953915 0.045101166 -0.10291469 0.030893896
0.096477866 0.33564505 -0.059196822 0.037443966 -0.011639256 0.06640077 -0.043430608 -0.022830546
-0.06935803 0.21838641 0.14936204 -0.077471584 -0.19999681 0.067433335 0.052143116 -0.15862632
-0.0044101602 -0.0011302495 0.018525524 0.4765377 0.001969621 0.024478436 -0.0069188927 0.2450369
0.060814768 0.050235186 -0.72475684 -0.013004181 0.023701506 0.053341735 -0.16011931 0.0048880223
0.08993328 -0.38706136 -0.05003472 -0.032078218 0.12957533 0.017815745 -0.07785217 0.46800792
0.07417948 -0.038256288 0.008010575 -0.065015405 0.014752909 0.08175249 0.041928623 0.03024769
0.07533499 0.07372798 -0.22404774 0.0070513785 -0.0278618 -0.037382446 -0.4744091 0.11205545
00000000: 35e6 df3e 7fef 41bd bbfb 1f3d 8787 07be
00000010: 5f21 f6bc 539e 523c 69f9 a13d ef35 3c3e
00000020: bd07 35bd 7bfa 25ba 06e3 0dbd 5b06 af3d
00000030: d3fa bcbd 6496 abbd 4be1 6cbd db1d d1bc
00000040: 1483 40bd 2135 f23d 850f 67bd 6b4b 8cbd
00000050: c0e4 3c3c 6dfa b33c cf9e 9dbd 5e24 44be
00000060: d676 71bd 96ef eabd f25c 193d a079 22bd
00000070: c262 4bbe ae59 9fbd 2040 57bd 2405 0fbe
00000080: 9213 bd3d 0869 8f3c 96cb 20be 7112 023e
00000090: 548b d5bc 89c9 a33d 4f5c ffbc d4a1 833d
000000a0: 9585 47bd 4999 c03d 96ea 2ebd 5c33 19be
000000b0: 8391 603f 6cd8 39bd fa26 f93b aaee cebc
000000c0: 2ec0 18be 70b3 0a3f da6f 473d 2ebe 3cbc
000000d0: dd1a f83b 530b a9bc 1af2 003d e019 7ebd
000000e0: c797 4b3c 7702 09bd ecf2 41bd 1330 213e
000000f0: 1f35 59be 99b6 573e 2216 d9bd a20a 27be
00000100: 5b73 b83c 85e5 863b 95ad 4cbd e113 183d
00000110: 2c3a 3cbd 00bc 383d f0c4 d2bd 3215 fd3c
00000120: 3096 c53d abd9 ab3e 5e78 72bd d85e 193d
00000130: 94b2 3ebc 20fd 873d 4be4 31bd 2007 bbbc
00000140: 950b 8ebd b0a0 5f3e 5df2 183e 6ca9 9ebd
00000150: f7cb 4cbe 7d1a 8a3d 0594 553d f06e 22be
00000160: 1b83 90bb e124 94ba d7c2 973c c0fc f33e
00000170: c214 013b 0087 c83c e1b7 e2bb f4ea 7a3e
00000180: e818 793d 69c3 4d3d aa89 39bf 7d0f 55bc
00000190: a929 c23c dd7c 5a3d 51f6 23be b42b a03b
000001a0: f12e b83d e82c c6be 35f1 4cbd 7364 03bd
000001b0: 65af 043e 53f2 913c f570 9fbd bc9e ef3e
000001c0: 69eb 973d a0b2 1cbd c93e 033c cc26 85bd
000001d0: 2fb6 713c d96d a73d 59bd 2b3d 01ca f73c
000001e0: 3b49 9a3d b2fe 963d c56c 65be 400f e73b
000001f0: 6e3e e4bc 561e 19bd c0e5 f2be 547d e53d

critic.2.weight f4 [64, 128]
-0.5948968 -0.038326442 0.44939432 0.07801872 -0.13268185 0.030906543 -0.057427622 -0.46110794
-0.21624717 -0.05526797 0.11692281 -1.0896913 -0.27876222 -0.32043523 -0.5657364 0.20774035
-0.040759675 0.5642376 -0.2767005 -0.49062875 0.055544656 0.3750427 -0.5850327 0.8080984
0.96271217 0.05444791 0.35758278 -0.34168324 -1.1872873 -0.36158416 -0.0071127824 0.08753438
0.6048807 0.22152604 0.0022301013 -0.14125295 0.077837974 -0.2204854 -0.32903707 -0.31478035
-0.16023813 -1.1041478 -0.09283047 -0.051883943 -0.8075492 -0.16989924 -0.115509614 -0.28490987
0.13381083 -0.05828246 0.20110632 -0.012341544 -0.5210536 0.115265585 -0.6175455 -1.0536981
-0.0011412015 -0.099868804 -0.05621477 -0.061274596 -0.03759485 -0.65929425 -0.0805767 0.051866606
-0.027521804 -0.39343306 -0.70523006 0.20224032 0.16397654 0.12605703 0.15691233 0.059635174
-0.24069834 -0.17391357 0.52647746 0.9524337 1.366616 0.28764006 0.046659604 0.057634998
0.419742 -0.31905457 0.036257137 0.10591083 -0.22934756 0.13001794 -0.35786185 -0.5311744
-0.90664536 -0.009562817 -0.33092105 1.3095316 0.24898472 -0.34596854 0.60632074 0.58361053
-0.9648312 0.21748303 0.20994356 0.13187787 -0.4771418 0.26386735 -0.24239585 -0.08833087
-0.24238601 0.27735808 0.34989455 -0.729457 -0.120329365 0.02750841 0.11438959 -0.6650703
-0.081538126 -0.13717197 0.03648053 -0.037355363 -0.6036949 0.8354703 0.6474489 -0.97692484
0.2147581 0.19682692 0.69757557 0.09418153 0.42520717 -0.3769123 0.85703546 0.97567046
0.11841816 -0.19650239 0.0054777083 0.14192069 0.28945044 -0.584797 0.014170318 -0.28326824
-0.02829195 0.04844087 0.56058395 -0.13447051 -0.29988265 0.21443374 -0.05175728 0.532076
-0.1595625 0.17887348 -0.84347296 -0.08179641 -0.14287838 0.7354447 0.013459619 0.045649253
0.09563306 -0.06912256 -0.91942155 -0.12432074 -0.06932743 0.042268757 -0.5926256 0.30508724
-0.5923471 -0.10192904 0.014214826 0.056144174 -0.56667894 -0.13157688 0.18915592 0.094374776
-0.3738808 -0.160551 0.032290235 0.034574557 0.015823165 0.27802566 -0.043093905 0.16423707
-0.124022126 -0.26842496 -0.03828452 0.13339747 0.04349197 -0.020704368 0.41688436 0.12392327
0.4198884 -0.21703102 0.0009436138 -0.04669411 0.05280092 0.01713927 0.10317609 -0.10612804
0.24886315 0.25752178 0.20230664 -0.3977039 0.2807939 -0.35624632 -0.12832057 -0.082361355
0.04620735 0.14927918 -1.8363763 0.17186329 -0.59926647 0.51041096 -0.02924891 0.079553016
0.004963492 -0.18523642 -0.121569455 -0.13975938 0.094690904 -0.1533117 0.31954587 0.26457736
-0.13216108 0.07110768 -0.103456706 0.11441901 -0.37647063 0.80567884 0.12453691 0.0516934
0.5550299 0.00095775723 0.12693596 0.65757 -0.046685953 0.13968965 0.86331475 0.5478761
-0.14285874 0.010314316 0.058633696 0.79867136 0.024836596 0.28030372 0.3514736 -0.29988232
0.100973375 -0.2659172 0.39258432 -1.327346 0.5165433 -0.16773365 -1.7574359 0.50918484
0.87639284 0.35816053 -0.118200816 -0.22858763 -0.34322095 0.26328164 -0.105692446 -0.06508719
00000000: 284b 18bf 30fc 1cbd 0317 e63e 47c8 9f3d
00000010: c0dd 07be b82f fd3c 3a39 6bbd 5716 ecbe
00000020: e66f 5dbe ab60 62bd 3a75 ef3d 017b 8bbf
00000030: ecb9 8ebe 1610 a4be 1ad4 10bf e3b9 543e
00000040: 9ef3 26bd e071 103f b0ab 8dbe b133 fbbe
00000050: cb82 633d 9905 c03e b4c4 15bf 89df 4e3f
00000060: 4e74 763f c604 5f3d 1715 b73e 1bf1 aebe
00000070: 08f9 97bf 8f21 b9be 5812 e9bb 3a45 b33d
00000080: 76d9 1a3f b9d7 623e e426 123b 9da4 10be
00000090: 8469 9f3d edc6 61be 8c77 a8be e42a a1be
000000a0: 7715 24be b754 8dbf e71d bebd 4284 54bd
000000b0: 8bbb 4ebf 11fa 2dbe 4e90 ecbd b5df 91be
000000c0: b505 093e 97b9 6ebd d1ee 4d3e 3034 4abc
000000d0: c563 05bf 5d10 ec3d 7617 1ebf 94df 86bf
000000e0: 5e94 95ba 0488 ccbd 7541 66bd 12fb 7abd
000000f0: 0ffd 19bd 82c7 28bf 6605 a5bd 1472 543d
00000100: 6875 e1bc 0f70 c9be f589 34bf 1618 4f3e
00000110: 77e9 273e 1815 013e a0ad 203e 0344 743d
00000120: a079 76be 6616 32be 3ac7 063f b2d2 733f
00000130: 46ed ae3f 8f45 933e 241e 3f3d ad12 6c3d
00000140: 6ce8 d63e 1f5b a3be 5d82 143d c7e7 d83d
00000150: 16da 6abe 6c23 053e ab39 b7be 0cfb 07bf
00000160: e919 68bf 5dad 1cbc 7c6e a9be bb9e a73f
00000170: daf5 7e3e ca22 b1be d637 1b3f 8067 153f
00000180: 2dff 76bf dfb3 5e3e 72fb 563e fe0a 073e
00000190: ee4b f4be 9f19 873e 9e36 78be d1e6 b4bd
000001a0: 0a34 78be e101 8e3e 6125 b33e b2bd 3abf
000001b0: 3e6f f6bd 5159 e13c 1745 ea3d 0c42 2abf
000001c0: 76fd a6bd cf76 0cbe 9c6c 153d f001 19bd
000001d0: c08b 1abf 62e1 553f 36bf 253f bf17 7abf
000001e0: 8ce9 5b3e ff8c 493e 5094 323f 3fe2 c03d
000001f0: c1b4 d93e a6fa c0be ad66 5b3f 8ac5 793f
00000200: 3885 f23d ec37 49be 597e b33b a853 113e
00000210: d932 943e 42b5 15bf 9f2a 683c 8908 91be
00000220: 85c4 e7bc ef69 463d 6e82 0f3f a3b2 09be
00000230: 388a 99be 8594 5b3e 71ff 53bd 2236 083f
00000240: 5a64 23be 9c2a 373e d8ed 57bf e084 a7bd
00000250: b64e 12be 1b46 3c3f bc85 5c3c b6fa 3a3d
00000260: 44db c33d 2190 8dbd 365f 6bbf df9b febd
00000270: 8afb 8dbd 0122 2d3d 50b6 17bf 6534 9c3e
00000280: 0fa4 17bf 2cc0 d0bd 4de5 683c 6ff7 653d
00000290: df11 11bf 17bc 06be 17b2 413e 9047 c13d
000002a0: 4e6d bfbe 7b67 24be c442 043d 0d9e 0d3d
000002b0: 959f 813c 6159 8e3e 3c83 30bd c32d 283e
000002c0: 50ff fdbd ff6e 89be 3bd0 1cbd 5999 083e
000002d0: a324 323d 359c a9bc de71 d53e 7ccb fd3d
000002e0: 9dfb d63e 613d 5ebe da5c 773a 5342 3fbd
000002f0: c745 583d a867 8c3c fc4d d33d a859 d9bd
00000300: fbd5 7e3e e5d9 833e 7929 4f3e d89f cbbe
00000310: 38c4 8f3e eb65 b6be 7866 03be 12ad a8bd
00000320: eb43 3d3d a4dc 183e 610e ebbf eefc 2f3e
00000330: 8769 19bf 4baa 023f 699b efbc b1ec a23d
00000340: caa4 a23b 9eae 3dbe 68f9 f8bd 151d 0fbe
00000350: 4eed c13d befd 1cbe 849b a33e af76 873e
00000360: 3c55 07be e7a0 913d 1ce1 d3bd 8454 ea3d
00000370: c2c0 c0be f840 4e3f 350d ff3d 75bc 533d
00000380: 7116 0e3f 0012 7b3a 80fb 013e 8256 283f
00000390: c539 3fbd ce0a 0f3e 3202 5d3f 9c41 0c3f
000003a0: 9049 12be 60fd 283c e329 703d ba75 4c3f
000003b0: 1e76 cb3c f883 8f3e 59f4 b33e 2d8a 99be
000003c0: 21cb ce3d 4d26 88be d000 c93e 79e6 a9bf
000003d0: 2f3c 043f 5fc2 2bbe a9f3 e0bf f059 023f
000003e0: 485b 603f d160 b73e 4513 f2bd e012 6abe
000003f0: a8ba afbe dacc 863e 4875 d8bd 6f4c 85bd

critic.2.bias f4 [64]
-0.0073669283 -0.38259742 -0.07184258 0.06255444 0.014611611 -0.17242818 -0.4558816 0.10693585
0.18186417 -0.106953606 -0.55248743 0.22121464 0.46463394 -0.002704498 0.11273695 -0.14164312
-0.41336307 0.78015566 -0.2095123 0.0594723 0.28161842 0.50655 0.03928291 -0.02438147
0.49382776 -0.42800587 0.3743518 -0.07849724 0.33282837 0.04375606 0.0904453 0.056005422
-0.6845997 -0.30576074 -0.24161983 -0.3505402 -0.6195358 -0.47762153 0.24322426 0.4772236
-0.44301358 -0.22326222 -0.084098816 -0.35513893 -0.6542348 0.14083013 -0.012679151 0.28617412
0.18683171 0.404923 0.117206104 -0.32224667 1.0820615 0.07672202 0.00805791 -0.109749325
0.04963608 -0.28778175 0.11745754 0.2491371 0.27087742 0.023935309 -0.15219654 -0.54171026
00000000: 4666 f1bb cfe3 c3be 3422 93bd 8b1c 803d
00000010: 8a65 6f3c 0391 30be 5069 e9be 2f01 db3d
00000020: 9a3a 3a3e 7e0a dbbd d16f 0dbf 1786 623e
00000030: 80e4 ed3e f23d 31bb a1e2 e63d e50a 11be
00000040: 53a4 d3be 48b8 473f 648a 56be 3a99 733d
00000050: 4a30 903e 43ad 013f 1ee7 203d a6bb c7bc
00000060: fed6 fc3e 9623 dbbe 0aab bf3e 29c3 a0bd
00000070: 7b68 aa3e 8e39 333d 633b b93d f165 653d
00000080: ed41 2fbf ac8c 9cbe 306b 77be 017a b3be
00000090: e699 1ebf cf8a f4be c80f 793e a756 f43e
000000a0: add2 e2be da9e 64be 003c acbd c5d4 b5be
000000b0: ef7b 27bf c635 103e 37bc 4fbc 6a85 923e
000000c0: d050 3f3e 1152 cf3e c109 f03d 84fd a4be
000000d0: fe80 8a3f 6f20 9d3d 5305 043c 41c4 e0bd
000000e0: 344f 4b3d 2158 93be 948d f03d cc1d 7f3e
000000f0: 72b0 8a3e fb13 c43c 69d9 1bbe 86ad 0abf

critic.4.weight f4 [1, 64]
0.3009631 -0.18404761 0.29307 -0.2716656 -0.23221421 0.5923876 -1.2290177 0.14720917
0.16231422 -0.29076883 -0.14855213 0.4214918 0.25295445 -0.26303288 0.32040343 0.32823628
-0.2406904 2.00439 -0.33778068 0.3167042 0.25766066 0.21166806 0.44610685 -0.17594329
0.34496698 -0.36579427 -2.0838084 -0.5864834 -0.6169671 0.34719703 -0.31444657 0.38709038
-0.4009718 -0.1995707 -1.1980524 -0.3020319 -0.23251179 -0.44210336 0.21960849 0.23599893
-0.32311922 -0.15520617 -0.17739859 -0.5539605 -0.654779 0.21573979 -0.5163285 0.24308893
0.25880897 0.4798478 0.31278706 -0.18882775 0.6672592 -0.413611 -0.12167715 -0.18828492
0.120763175 -0.14620002 0.38037282 0.17380413 0.25317723 0.5688023 -0.25292578 -0.32702342
00000000: d617 9a3e fa76 3cbe 450d 963e c117 8bbe
00000010: 90c9 6dbe b7a6 173f 7450 9dbf 00be 163e
00000020: b335 263e a7df 94be 0d1e 18be c6cd d73e
00000030: 3f83 813e 3fac 86be eb0b a43e 960e a83e
00000040: 8b77 76be ed47 0040 97f1 acbe 0e27 a23e
00000050: 19ec 833e 83bf 583e 1e68 e43e 7a2a 34be
00000060: 839f b03e 6349 bbbe 1e5d 05c0 c723 16bf
00000070: 8ef1 1dbf cfc3 b13e 24ff a0be b630 c63e
00000080: 2d4c cdbe 435c 4cbe c859 99bf eda3 9abe
00000090: 9217 6ebe 5f5b e2be 0ce1 603e b4a9 713e
000000a0: e26f a5be 5eee 1ebe faa7 35be 5bd0 0dbf
000000b0: 999f 27bf e4ea 5c3e 1b2e 04bf 4eec 783e
000000c0: 9c82 843e 9cae f53e a025 a03e 105c 41be
000000d0: 80d1 2a3f d2c4 d3be df31 f9bd c3cd 40be
000000e0: af52 f73d 75b5 15be 3ac0 c23e b6f9 313e
000000f0: 72a0 813e 079d 113f 7d7f 81be 9d6f a7be

actor.0.weight f4 [128, 19]
-0.5725687 0.33518583 -0.057079658 0.0059677516 -0.22647443 0.4075184 0.68177956 -0.24784173
0.397159 0.16780041 -0.39390236 -0.3160933 -0.45914897 -0.13746524 -0.5320676 -0.0005872987
0.0964311 -0.2684838 -0.32418695 0.581813 -0.177511 0.23173234 -0.108106114 1.0049518
0.05442607 0.29839414 -0.2967299 0.27286005 1.0537659 0.39912856 -0.319532 0.7407181
-0.13262324 0.15257882 0.30547607 -0.20731382 0.91157246 0.46743774 -0.13436128 -0.27331817
-0.3434538 0.33704048 0.38131484 -1.0150836 -0.01701206 0.01071538 0.9166034 -1.3864119
-0.04760711 -0.008962182 0.12882908 -0.24820986 0.39245716 -0.08533522 -0.5835049 0.3639896
-0.034917504 0.23777808 0.09790204 -0.42111778 0.38528815 1.2140405 1.5287411 -0.0027345621
0.09817629 -0.092297144 0.031271845 0.6961567 -0.0913272 -0.15722665 0.40926734 0.46912685
-0.14787914 0.030204069 -0.172939 0.35752976 0.17416725 -0.12945825 -0.37516117 -0.10693916
-3.4430196 0.3761013 0.04281872 -0.05150595 0.0016375219 -0.38891315 0.042316116 0.008163986
0.08938821 -0.061045107 0.10237529 0.010567115 0.06565275 0.033450786 0.3168173 -0.34067973
0.36749393 0.008950767 -0.2961703 0.04601097 -1.8788556 -0.023387976 0.05925696 1.6450888
0.0002292116 -0.29620376 0.47203094 -0.74637187 -0.17580645 -0.52513444 -0.08458948 -0.5464296
0.48483595 -0.2654867 0.037669584 0.86749905 -0.28484905 0.12116118 -0.47508454 0.09853653
0.12758772 -0.3156569 0.09513524 -0.8249595 -0.56848055 0.7052244 -0.06827458 -0.06395337
-0.04087455 0.045559786 -0.5055684 0.9585564 0.046626948 0.024063544 0.18702024 0.3411541
0.2620449 0.6055793 1.9346433 0.044021733 -0.027074343 0.4257794 0.27014065 0.0058235484
0.48578608 -0.36063048 0.16911098 -0.49911872 0.3540425 -0.1928908 0.74667615 -0.30560642
0.16770135 -0.21732381 0.7522198 -0.48421723 0.0158464 1.5808694 -0.1306974 0.045537055
0.39759007 -0.10099177 -0.26892093 0.33704394 0.054190893 -0.33554974 0.094589226 0.26453754
-0.1286687 0.2718128 0.014324583 -0.20873442 -0.4252872 -0.11894044 -0.05968351 0.7370997
0.1800124 0.3754362 -0.19028613 0.72068936 0.7238292 0.1603425 -1.269778 0.5226014
-0.5283072 0.59178406 -0.8357485 0.49734363 -1.0171393 -0.20335318 -0.29668623 0.3210884
-0.07587664 -0.048154544 0.8413051 -0.22795214 0.03105402 -0.18364908 1.9730498 -1.2048564
0.13806486 -0.4513019 0.36865324 0.5640885 -0.6022005 -0.0655959 0.0035628912 -0.45824993
0.32854274 -0.4684087 -0.27761665 0.41134274 0.059901576 0.11906669 0.26114672 0.1048241
-0.1843194 -1.2666684 0.6761435 -0.56642485 0.41972995 -0.29267657 0.20724757 -0.4347658
-0.5210372 0.24133043 -0.1887581 -0.5533317 -0.41590205 -0.6988475 0.06928646 0.029145764
0.035270214 0.8966589 0.31272513 0.65680593 0.21391143 0.85455406 -0.11790321 -0.2982823
-0.07101282 0.111816004 -0.2410031 -0.31835377 -0.089449525 -0.021902593 -0.22715825 -0.15250878
0.16514622 0.26361924 -0.5026238 -0.45505556 -0.52669704 0.553536 0.59535885 -0.1598703
00000000: dd93 12bf 7a9d ab3e 5ccc 69bd 218d c33b
00000010: eae8 67be 40a6 d03e 1b89 2e3f 39ca 7dbe
00000020: 6d58 cb3e dfd3 2b3e 92ad c9be fbd6 a1be
00000030: 9315 ebbe b0c3 0cbe 9535 08bf f3f4 19ba
00000040: ab7d c53d b576 89be d5fb a5be b2f1 143f
00000050: 72c5 35be 3e4b 6d3e bd66 ddbd 43a2 803f
00000060: dfed 5e3d 1ec7 983e fbec 97be 50b4 8b3e
00000070: cde1 863f 945a cc3e b399 a3be b49f 3d3f
00000080: 63ce 07be 9f3d 1c3e 5c67 9c3e 134a 54be
00000090: d05c 693f 0054 ef3e 0196 09be 5cf0 8bbe
000000a0: 2dd9 afbe 9290 ac3e b33b c33e 42ee 81bf
000000b0: e05c 8bbc 908f 2f3c 85a6 6a3f f275 b1bf
000000c0: acff 42bd 1ed6 12bc c5eb 033e ba2a 7ebe
000000d0: 25f0 c83e 3bc4 aebd 9460 15bf d85c ba3e
000000e0: a805 0fbd 197c 733e dd80 c83d c09c d7be
000000f0: 7d44 c53e ae65 9b3f caad c33f 5736 33bb
00000100: a710 c93d 4906 bdbd e816 003d 5337 323f
00000110: c109 bbbd 0600 21be 7d8b d13e 6531 f03e
00000120: a16d 17be 866e f73c ec16 31be 240e b73e
00000130: e658 323e b490 04be 2015 c0be eb02 dbbd
00000140: 6f5a 5cc0 5990 c03e af62 2f3d e7f7 52bd
00000150: 1ea2 d63a a01f c7be aa53 2d3d 3dc2 053c
00000160: 2a11 b73d 6f0a 7abd 23aa d13d b121 2d3c
00000170: f374 863d b103 093d e135 a23e 936d aebe
00000180: 2a28 bc3e 3da6 123c a2a3 97be 0076 3c3d
00000190: 577e f0bf 2498 bfbc 6db7 723d 4592 d23f
000001a0: 8558 7039 05a8 97be 0aae f13e 3a12 3fbf
000001b0: 9b06 34be 366f 06bf 403d adbd cfe2 0bbf
000001c0: 6b3c f83e dfed 87be 6c4b 1a3d 6b14 5e3f
000001d0: bcd7 91be 5a23 f83d 483e f3be 85cd c93d
000001e0: 5ba6 023e c89d a1be 44d6 c23d 8c30 53bf
000001f0: f187 11bf 9689 343f 8bd3 8bbd fcf9 82bd
00000200: 126c 27bd e69c 3a3d ee6c 01bf f463 753f
00000210: e6fb 3e3d e920 c53c 3c82 3f3e c0ab ae3e
00000220: c02a 863e 3f07 1b3f 64a2 f73f 2250 343d
00000230: 03cb ddbc c2ff d93e e04f 8a3e 77d3 be3b
00000240: f4b8 f83e 8fa4 b8be 6e2b 2d3e 7d8c ffbe
00000250: 0f45 b53e 2a85 45be 2b26 3f3f 7278 9cbe
00000260: e7b9 2b3e 228a 5ebe 7a91 403f 52eb f7be
00000270: 4fd0 813c ee59 ca3f 8ad5 05be 1085 3a3d
00000280: ed90 cb3e c6d4 cebd 01b0 89be 0691 ac3e
00000290: 45f7 5d3d 2dcd abbe ffb7 c13d 7771 873e
000002a0: bac1 03be 0c2b 8b3e a8b1 6a3c 7abe 55be
000002b0: 3ebf d9be 0c97 f3bd b276 74bd 91b2 3c3f
000002c0: 2c55 383e 2c39 c03e 5eda 42be 197f 383f
000002d0: df4c 393f d330 243e 1688 a2bf 35c9 053f
000002e0: 243f 07bf 297f 173f 9df3 55bf d3a3 fe3e
000002f0: 9f31 82bf d13b 50be 42e7 97be b365 a43e
00000300: 3665 9bbd b33d 45bd c55f 573f 496c 69be
00000310: 0065 fe3c 810e 3cbe e58c fc3f bc38 9abf
00000320: e060 0d3e 0b11 e7be 1ec0 bc3e 1b68 103f
00000330: d029 1abf 2557 86bd 657f 693b bc9f eabe
00000340: c136 a83e 44d3 efbe c523 8ebe 849b d23e
00000350: 5b5b 753d 3dd9 f33d 06b5 853e 05ae d63d
00000360: 3abe 3cbe 3122 a2bf be17 2d3f 3801 11bf
00000370: d8e6 d63e b4d9 95be b538 543e 9f99 debe
00000380: b262 05bf 531f 773e ce49 41be 25a7 0dbf
00000390: 1df1 d4be abe7 32bf 0fe6 8d3d 19c3 ee3c
000003a0: 8077 103d 708b 653f 821d a03e 6f24 283f
000003b0: 990b 5b3e 0ec4 5a3f 3d77 f1bd 75b8 98be
000003c0: 2b6f 91bd caff e43d 84c9 76be 44ff a2be
000003d0: 5031 b7bd 116d b3bc 2c9c 68be 432b 1cbe
000003e0: 171c 293e 1af9 863e f4ab 00bf 0bfd e8be
000003f0: 9ed5 06bf 89b4 0d3f 7069 183f 0ab5 23be

actor.0.bias f4 [128]
-0.4339885 0.39506063 -0.050197452 0.210447 0.114393964 -0.24359126 -0.01956837 0.04471637
0.00582286 -0.28844148 -0.07707415 -0.25795934 -0.14269084 -0.15787953 -0.027702875 0.5356665
-0.13642478 0.203634 0.15535143 -0.018501155 -0.18605308 0.04184567 0.24897085 0.27004582
0.1149059 -0.3259347 -0.3612062 -0.079621576 -0.008755361 -0.27620983 0.04734906 -0.021677703
-0.12821145 -0.4536834 -0.15155531 -0.39775118 0.12796499 -0.1707509 0.31648242 0.16501336
0.14821106 -0.12977123 -0.21444838 -0.1455287 -0.099107735 -0.3029218 0.26885617 -0.18067938
0.5357541 -0.19873048 -0.16845536 -0.32202154 -0.007751326 0.18985759 0.08033278 -0.44418794
-0.48350412 -0.40578055 -0.07134378 0.41510782 0.17110722 0.3894154 0.0017463967 0.22789137
-0.0044341786 0.28403422 -0.45766035 0.0018822592 -0.26351994 0.06435282 0.27180412 0.31579062
0.16833262 0.0551165 -0.11943552 -0.0472631 0.009836321 0.036062673 -0.22379002 0.0050664414
0.05996079 -0.033428732 0.058663413 -0.3281325 -0.019482382 0.017267011 -0.43278158 -0.053449593
0.21883745 0.13722736 0.071836114 0.17520465 -0.07630077 0.0074698157 0.27793577 0.3875777
0.11152804 0.13045439 0.13908975 0.28657886 0.2942751 -0.1550574 0.102110766 0.033695657
-0.14355609 -0.4287583 -0.024234638 0.059461504 0.21307747 -0.32403657 0.02188495 -0.38859412
-0.19249964 0.14941272 -0.06973102 0.21412696 0.0792335 -0.29729328 0.33650652 -0.00010166014
-0.24789856 0.16309264 0.20934433 -0.32689092 -0.18104392 0.07047872 0.011797743 -0.4939633
00000000: be33 debe 6345 ca3e d89b 4dbd 6b7f 573e
00000010: 6247 ea3d fd6f 79be d94d a0bc 8328 373d
00000020: b1cd be3b 9aae 93be 0dd9 9dbd 3f13 84be
00000030: 8c1d 12be 2cab 21be 24f1 e2bc 7121 093f
00000040: f0b2 0bbe 6e85 503e 7214 1f3e bc8f 97bc
00000050: b384 3ebe 5e66 2b3d 37f2 7e3e 7243 8a3e
00000060: c953 eb3d eae0 a6be 05f0 b8be a310 a3bd
00000070: a572 0fbc 606b 8dbe 17f1 413d 7095 b1bc
00000080: dd49 03be 3149 e8be 5131 1bbe 0ba6 cbbe
00000090: 4109 033e 53d9 2ebe fc09 a23e 43f9 283e
000000a0: a4c4 173e c0e2 04be 5b98 5bbe 7a05 15be
000000b0: fff8 cabd 9118 9bbe 84a7 893e 0404 39be
000000c0: 2e27 093f 0180 4bbe 907f 2cbe 02e0 a4be
000000d0: d6fe fdbb 076a 423e 8385 a43d 9a6c e3be
000000e0: da8d f7be 78c2 cfbe b01c 92bd 0389 d43e
000000f0: bb36 2f3e 7561 c73e 59e7 e43a 5b5c 693e
00000100: 964c 91bb ef6c 913e 7552 eabe 23b6 f63a
00000110: 16ec 86be 69cb 833d e929 8b3e 4faf a13e
00000120: 635f 2c3e d7c1 613d 9c9a f4bd f496 41bd
00000130: 8528 213c 74b6 133d 3629 65be 6404 a63b
00000140: 7299 753d 91ec 08bd 0c49 703d fc00 a8be
00000150: 8499 9fbc 8c73 8d3c 8c95 ddbe f6ed 5abd
00000160: ed16 603e 5485 0c3e d01e 933d d968 333e
00000170: 9443 9cbd 5bc5 f43b 994d 8e3e 9670 c63e
00000180: d068 e43d d695 053e 8b6d 0e3e 77ba 923e
00000190: 3aab 963e 5ec7 1ebe 731f d13d 7504 0a3d
000001a0: 5e00 13be 3586 dbbe b887 c6bc e88d 733d
000001b0: fb30 5a3e 1fe8 a5be 1148 b33c cff5 c6be
000001c0: a01e 45be a6ff 183e 23cf 8ebd 1944 5b3e
000001d0: 2c45 a23d d336 98be 954a ac3e 5f32 d5b8
000001e0: 1fd9 7dbe c201 273e 5c5e 563e 3f5e a7be
000001f0: 9463 39be 2657 903d 524b 413c c2e8 fcbe

actor.2.weight f4 [64, 128]
0.13622648 0.09864842 -0.50422144 0.40312746 -0.10741245 0.7298335 -0.27265376 -0.038388055
0.15284742 0.16113468 -0.00014369978 0.055066675 -0.059522662 -0.07856275 0.13176812 -0.32530078
0.086659424 -0.2263441 -0.97633547 -0.012396437 -0.5728476 0.12930857 -0.004543784 -0.0009188942
-0.16806956 0.08138627 0.38760895 0.28187004 -0.6332291 0.5049653 0.011521774 0.53884226
0.5656957 -1.0154439 0.19830468 0.22913177 -0.45525485 0.04630191 -0.11467293 0.7152752
-0.0773752 0.11711348 0.7373519 -0.06968247 0.3960656 0.5801728 -0.35491502 0.072210655
0.040503837 0.19658278 0.16692841 0.3205652 -0.28415075 0.3077684 -0.78788847 -0.030987883
-0.11876578 0.4255215 -0.19431971 -0.25932923 -0.19413736 -0.03704665 -0.37880078 -0.019450372
-1.0164294 -0.011771549 0.3030719 -0.35591903 -0.521554 0.18139815 -0.05340591 -0.164209
-0.027685365 -0.2537738 -0.105255716 0.08094795 -0.0022432397 0.5563949 0.34965068 -0.075939454
-0.19419564 -0.30664855 -0.4386507 -0.10313543 -0.14981335 -0.116697416 -0.34597895 0.2241281
0.29422536 0.4830961 0.12391924 0.1800932 -0.5464206 -0.020930631 -0.023167493 -0.5548992
-0.4017481 0.05516228 0.005116442 -0.13408792 -0.52233076 -0.565339 -0.16437241 0.19178115
0.080153726 -0.034312684 0.034412947 0.1860775 0.090826966 0.8801603 -0.28932607 0.34347585
-0.17736077 -0.024527937 0.12218536 -0.50955325 0.11169049 -0.027259383 -0.25130412 -0.54862183
0.08340648 0.23523925 -0.007581639 0.036327563 0.11069076 -0.017342055 0.27204484 0.9997992
-0.861833 0.40419325 -0.3568625 -0.03776915 0.36335757 -0.39853832 0.50777555 0.73422533
-0.33323467 0.08256281 -0.43324193 -0.865652 0.0033408466 0.1363348 0.38786006 0.2290785
-0.6588299 0.22679599 -0.235684 -0.042324074 0.29841712 -0.18758151 -0.18202345 0.0197007
0.39622155 -0.20174825 -0.1015508 0.31017756 -0.63822293 -0.2400437 -0.15069924 -0.08427467
-0.62640923 -0.25916132 -0.67876416 -0.8971648 0.14237428 -0.57519096 -0.0800462 -0.3567301
-0.20950127 0.043189157 0.1404309 -0.5566145 -0.7254615 -0.003360044 0.053610355 -0.32762146
-0.013677138 -0.2197125 -0.26661608 0.34512237 0.107562 0.48360357 0.23568259 -0.27419665
-0.5676275 -0.5623595 -0.28422034 -0.05971653 -0.097886056 0.15820886 0.2384892 0.17557076
-0.08768104 0.7041856 -0.22223966 0.3120719 -0.49994323 0.011040644 0.03824529 0.30109897
0.83121896 0.3891258 -0.5945883 -0.012749436 0.14740701 -0.07590972 -0.30664915 -0.7025793
0.07429453 0.35850346 0.07798346 0.27823058 1.140079 -0.12744664 -1.20171 -0.42921928
-0.12512143 0.005587108 -0.1305728 0.08831299 0.4060397 0.24159914 0.16336027 -0.26651248
-0.18570238 -0.047019824 0.05233471 0.67789304 0.18232872 -0.92641115 0.1301027 -1.1318941
0.30621666 0.25421655 -0.1554878 0.10439284 0.19201098 0.025869727 -0.19155219 -0.21774445
0.2632688 0.13127896 -0.5148335 0.34126204 0.5655491 -0.33147526 0.03120173 0.08484777
-0.15075074 0.42006588 -0.38729823 0.16996905 0.12394533 0.09613331 0.37447852 0.2953229
00000000: f47e 0b3e 2f08 ca3d a814 01bf b966 ce3e
00000010: 0ffb dbbd 5ed6 3a3f 4699 8bbe cb3c 1dbd
00000020: 0984 1c3e 7d00 253e 1eae 16b9 988d 613d
00000030: 09ce 73bd 82e5 a0bd 39ee 063e d38d a6be
00000040: 7f7a b13d bfc6 67be 1ff1 79bf 6d1a 4bbc
00000050: 24a6 12bf 7769 043e 06e4 94bb f2e1 70ba
00000060: 6d1a 2cbe d8ad a63d ae74 c63e 4551 903e
00000070: 4d1b 22bf 6845 013f d3c5 3c3c 91f1 093f
00000080: 6fd1 103f 11fa 81bf 6210 4b3e 85a1 6a3e
00000090: 2a17 e9be 12a7 3d3d a4d9 eabd 471c 373f
000000a0: e476 9ebd 31d9 ef3d 18c3 3c3f afb5 8ebd
000000b0: 1cc9 ca3e 3486 143f 6cb7 b5be 2ee3 933d
000000c0: 5ae7 253d ff4c 493e 48ef 2a3e 1f21 a43e
000000d0: 357c 91be d293 9d3e 0fb3 49bf 4dda fdbc
000000e0: 793b f3bd f4dd d93e bffb 46be cdc6 84be
000000f0: f2cb 46be 3abe 17bd 2df2 c1be 6356 9fbc
00000100: 5c1a 82bf 74dd 40bc 3d2c 9b3e 053b b6be
00000110: 9084 05bf 70c0 393e 28c0 5abd 6726 28be
00000120: 6bcc e2bc a4ee 81be 4f90 d7bd 0ac8 a53d
00000130: 5103 13bb e56f 0e3f 6a05 b33e 2586 9bbd
00000140: 39db 46be 0a01 9dbe d396 e0be ab38 d3bd
00000150: ac68 19be 0eff eebd 2724 b1be d681 653e
00000160: b5a4 963e 5f58 f73e 5fc9 fd3d 5a6a 383e
00000170: 38e2 0bbf b776 abbc c1c9 bdbc e00d 0ebf
00000180: edb1 cdbe d8f1 613d d4a7 a73b 584e 09be
00000190: 78b7 05bf 0fba 10bf 3e51 28be 4762 443e
000001a0: a327 a43d 758b 0cbd 97f4 0c3d 1a8b 3e3e
000001b0: 7d03 ba3d 2f52 613f 8c22 94be 11dc af3e
000001c0: 109e 35be d0ee c8bc 513c fa3d 1572 02bf
000001d0: fcbd e43d 124f dfbc efaa 80be 7b72 0cbf
000001e0: 04d1 aa3d 8fe2 703e 666f f8bb 36cc 143d
000001f0: d6b1 e23d ed10 8ebc 7649 8b3e d7f2 7f3f
00000200: 16a1 5cbf 6bf2 ce3e aeb6 b6be d3b3 1abd
00000210: 010a ba3e 370d ccbe 94fd 013f 31f6 3b3f
00000220: bc9d aabe b116 a93d e3d1 ddbe 5f9b 5dbf
00000230: 1bf2 5a3b 5a9b 0b3e 9895 c63e 8e93 6a3e
00000240: 14a9 28bf 353d 683e 2657 71be 025c 2dbd
00000250: 21ca 983e 5e15 40be 5b64 3abe 5d63 a13c
00000260: 8ddd ca3e 1897 4ebe def9 cfbd 98cf 9e3e
00000270: 9462 23bf 04ce 75be e750 1abe 3398 acbd
00000280: 5b5c 20bf cbb0 84be 7dc3 2dbf 98ac 65bf
00000290: 90ca 113e b73f 13bf 43ef a3bd 54a5 b6be
000002a0: 8087 56be 1de7 303d 1ecd 0f3e 4a7e 0ebf
000002b0: d8b7 39bf 2f34 5cbb 8896 5b3d 00be a7be
000002c0: 1316 60bc 50fc 60be e781 88be e1b3 b03e
000002d0: 7749 dc3d e39a f73e c756 713e 8163 8cbe
000002e0: 0950 11bf cbf6 0fbf 5485 91be 5299 74bd
000002f0: 7c78 c8bd 8101 223e 8336 743e d2c8 333e
00000300: 1e92 b3bd 8245 343f cb92 63be e3c7 9f3e
00000310: 8ff8 ffbe d1e3 343c 18a7 1c3d a529 9a3e
00000320: c4ca 543f 7f3b c73e f036 18bf 03e3 50bc
00000330: ddf1 163e 8e76 9bbd 1e01 9dbe 3ddc 33bf
00000340: bb27 983d c48d b73e cbb5 9f3d 3d74 8e3e
00000350: 1cee 913f 5f81 02be a2d1 99bf a1c2 dbbe
00000360: d51f 00be 0f14 b73b e0b4 05be 71dd b43d
00000370: 70e4 cf3e c465 773e ea47 273e 5374 88be
00000380: c428 3ebe dc97 40bd ec5c 563d 668a 2d3f
00000390: 61b4 3a3e 4829 6dbf a439 053e e8e1 90bf
000003a0: 6ec8 9c3e ac28 823e 3238 1fbe eacb d53d
000003b0: 879e 443e c0ec d33c 4226 44be 67f8 5ebe
000003c0: 2bcb 863e fe6d 063e 21cc 03bf e6b9 ae3e
000003d0: d3c7 103f 20b7 a9be c59a ff3c abc4 ad3d
000003e0: 675e 1abe e012 d73e f44b c6be 5e0c 2e3e
000003f0: 0dd7 fd3d 8ae1 c43d a6bb bf3e 9034 973e

actor.2.bias f4 [64]
-0.26607877 0.17849894 -0.4597825 0.12581497 0.7810719 -0.1461527 -0.29398647 -0.556807
-0.21061349 -0.14703903 -0.13664003 0.01632613 -0.184214 0.36650032 -0.07983426 -0.18059836
-0.27372456 0.29982683 0.1306108 -0.16997172 -0.20566088 -0.095233105 -0.08454154 0.048782513
0.25519955 -0.4004682 0.39145893 -0.3152334 -0.013072973 0.084505714 -0.49529082 -0.37662965
-0.07500855 0.45407405 0.17645873 0.5261959 0.33249107 -0.2644839 0.008599848 -0.46080473
-0.103693075 -0.0548974 0.1968488 0.39158958 0.08721591 -0.13214947 0.06568047 0.25453365
-0.32124844 -0.042503666 0.2611471 -0.40386888 0.04398761 -0.036132123 -0.07857082 -0.23014006
-0.013454782 0.36652154 -0.27131116 0.33759764 -0.15583256 -0.09430216 -0.030999344 0.080351494
00000000: 7a3b 88be 6dc8 363e 9d68 ebbe a4d5 003e
00000010: 54f4 473f 0ea9 15be 6585 96be e78a 0ebf
00000020: 10ab 57be 6691 16be 5deb 0bbe 60be 853c
00000030: 98a2 3cbe eea5 bb3e 2580 a3bd c7ee 38be
00000040: a025 8cbe e782 993e d6be 053e 110d 2ebe
00000050: c498 52be 9309 c3bd 1d24 adbd 2cd0 473d
00000060: 84a9 823e 2b0a cdbe 4e6d c83e 4666 a1be
00000070: 0630 56bc 5511 ad3d c296 fdbe 9ad5 c0be
00000080: 159e 99bd 657c e83e 99b1 343e c6b4 063f
00000090: 453c aa3e 6f6a 87be 60e6 0c3c 99ee ebbe
000000a0: 095d d4bd 19dc 60bd bb92 493e 6e7e c83e
000000b0: 419e b23d 3152 07be 7b83 863d 3c52 823e
000000c0: ad7a a4be 5318 2ebd 13b5 853e e7c7 cebe
000000d0: 5a2c 343d 47ff 13bd bde9 a0bd d6a9 6bbe
000000e0: 7271 5cbc b6a8 bb3e 4ce9 8abe 99d9 ac3e
000000f0: 9292 1fbe 7e21 c1bd 56f2 fdbc 538f a43d

actor.4.weight f4 [12, 64]
-0.40828395 -0.34320417 -1.0054741 0.07047654 -0.015570178 -0.053422604 -0.77914184 -0.2779574
0.05946573 -0.06033775 -0.002829257 0.003456351 0.0021984817 -0.10156207 -0.065641455 -0.02693986
0.2832992 -0.08353857 -0.110893756 -0.10015741 -0.0037243315 -0.021226756 -0.024408575 0.036485035
0.099371746 -0.11113353 -0.02140734 0.111661404 0.28262934 -0.007408951 0.1254062 0.19101767
0.04493532 0.32574287 -0.0063010966 0.5735108 -0.2873013 0.05582851 -0.024364542 -0.26366812
0.021266898 -0.051319726 -0.018762043 -0.14186054 0.09385348 0.016551178 -0.018128471 0.13912594
-0.13231042 -0.036610704 -0.012442521 0.037830427 0.048707407 -0.28205812 -0.0343715 0.18665375
-0.078541815 -0.048069797 -0.07733896 0.10554865 0.011252155 0.099472284 0.021606138 0.03193233
-0.20165695 0.19735959 1.8799312 0.19241704 -0.94857603 0.6784181 -0.94548875 1.3583654
-0.13553585 -0.1256114 -0.068628624 0.004416646 -0.17891242 -1.020594 -0.06955684 -0.07783687
-0.1043709 -0.07115971 0.000613227 0.361765 -0.04311866 0.06545925 0.12570198 -0.016009234
0.23988563 -0.9467666 0.22109197 0.14157076 -0.8979229 0.04882509 -1.4363087 0.41103473
0.0034496319 1.0765445 0.100634106 -1.3338827 -0.39135858 -0.6146054 0.2451576 -0.46671256
0.03733261 0.22841008 0.2730089 0.2951094 -0.28200746 -0.13577212 -0.051876634 0.28278205
-0.020409623 0.24338298 -0.2240035 0.29171136 -0.10342079 -0.23512596 0.05418546 -0.20851341
-0.08257915 -0.08717583 0.12047663 -0.75240916 0.019962993 -0.67649025 -0.031173516 0.6422596
0.5879886 0.2645606 -0.82295513 -0.29213774 1.0312555 -0.6000334 1.7526696 -1.0805678
-0.023812357 0.16014971 0.10166183 -0.018832717 0.11043188 1.1772879 0.1386584 0.11340422
-0.266831 0.19694632 0.12543783 -0.2321101 -0.0072142207 -0.08017685 -0.0916664 -0.0038590846
-0.3415035 1.025134 -0.11320365 -0.31080967 0.5064378 -0.03047091 1.2554708 -0.6989249
-0.0764972 -1.3580214 -0.04995976 0.7459463 0.75340563 0.4869627 -0.264879 0.6965377
-0.07569013 -0.1780327 -0.1827806 -0.06595638 0.10164877 0.06623778 0.08293691 -0.37309572
0.097785674 -0.21191578 0.22675575 -0.40764207 0.10589768 0.572826 -0.009985718 -0.08433956
0.0977774 0.1695548 -0.06929302 0.6223837 -0.0003116136 0.47911537 0.009572067 -0.6163845
0.12766217 -0.02224074 -0.08864369 0.08865505 0.46498126 0.04334087 0.038295712 0.008257787
-0.0032819097 -0.0047571003 -0.048289657 0.070037365 0.12341956 -0.077365875 0.016272891 0.0005363611
0.023955721 0.052649442 0.08328543 0.038096156 0.07249032 -0.025536438 -0.032492902 -0.032394756
0.08921974 -0.44385082 -0.0030130446 0.09733471 0.025594978 -0.012316164 -0.06131616 0.11360137
0.07496704 0.10462584 -0.03647018 -0.10230748 -0.047158048 0.19599083 -0.053522706 0.068979606
-0.051072825 -0.07439437 0.03372315 0.27926153 -0.052066006 -0.037493546 -0.04068744 0.018392019
-0.2583429 -0.04509428 -0.0006690869 0.35239682 0.107683614 0.047140695 7.359586e-05 -0.33737764
0.007131256 0.06903987 0.08623926 0.033847466 -0.02199837 0.102679536 0.07531232 -0.08496741
00000000: 980a d1be 75b8 afbe 60b3 80bf 0156 903d
00000010: 0f1a 7fbc a9d1 5abd d775 47bf 6f50 8ebe
00000020: 5692 733d b724 77bd 0e6b 39bb f383 623b
00000030: 6714 103b c6ff cfbd 076f 86bd fbb0 dcbc
00000040: 980c 913e 4516 abbd 441c e3bd 541f cdbd
00000050: ea13 74bb bce3 adbc 7ef4 c7bc 5571 153d
00000060: 6a83 cb3d fa99 e3bd 725e afbc bcae e43d
00000070: cbb4 903e c9c6 f2bb 7c6a 003e 239a 433e
00000080: 190e 383d c5c7 a63e 6e79 cebb 9bd1 123f
00000090: 2819 93be 70ac 643d 2698 c7bc 82ff 86be
000000a0: eb37 ae3c a234 52bd dbb2 99bc e443 11be
000000b0: 4136 c03d 5696 873c 2982 94bc 0877 0e3e
000000c0: 627c 07be 1bf5 15bd b7db 4bbc 14f4 1a3d
000000d0: 6b81 473d ec69 90be 21c9 0cbd 2922 3f3e
000000e0: 88da a0bd d6e4 44bd e363 9ebd e429 d83d
000000f0: f55a 383c 20b8 cb3d 5bff b03c 7acb 023d
00000100: 297f 4ebe a218 4a3e 96a1 f03f f908 453e
00000110: e1d5 72bf cfac 2d3f 8d0b 72bf ebde ad3f
00000120: e9c9 0abe 46a0 00be 2a8d 8cbd 83b9 903b
00000130: d134 37be d3a2 82bf d173 8ebd f068 9fbd
00000140: 69c0 d5bd 2fbc 91bd f8c0 203a 4339 b93e
00000150: 319d 30bd 800f 863d 05b8 003e cc25 83bc
00000160: 94a4 753e 4c5f 72bf ef65 623e edf7 103e
00000170: 46de 65bf d1fc 473d f7d8 b7bf 2573 d23e
00000180: 3813 623b 36cc 893f 4119 ce3d abbc aabf
00000190: 2760 c8be c856 1dbf 980a 7b3e f3f4 eebe
000001a0: 14ea 183d 55e4 693e d3c7 8b3e 9418 973e
000001b0: 4863 90be d907 0bbe 987c 54bd cfc8 903e
000001c0: 1532 a7bc 6339 793e 2c61 65be 315b 953e
000001d0: 47ce d3bd dcc4 70be 93f1 5d3d 8a84 55be
000001e0: 421f a9bd 3e89 b2bd 74bc f63d e39d 40bf
000001f0: 6e89 a33c 772e 2dbf 9a5f ffbc 206b 243f
00000200: 6c86 163f 7d74 873e 30ad 52bf 1493 95be
00000210: 2e00 843f ca9b 19bf 7a57 e03f 0c50 8abf
00000220: 2212 c3bc 49fe 233e 1434 d03d 1247 9abc
00000230: 1c2a e23d 5fb1 963f 78fc 0d3e 7940 e83d
00000240: 139e 88be 4cac 493e c672 003e 45ae 6dbe
00000250: 4565 ecbb c333 a4bd 98bb bbbd b2e8 7cbb
00000260: 8cd9 aebe 9737 833f 51d7 e7bd 7222 9fbe
00000270: e8a5 013f 219e f9bc 44b3 a03f beec 32bf
00000280: 90aa 9cbd a5d3 adbf 9ba2 4cbd 56f6 3e3f
00000290: 31df 403f 2d53 f93e 389e 87be 4b50 323f
000002a0: 6d03 9bbd 344e 36be d62a 3bbe 2314 87bd
000002b0: 3b2d d03d aca7 873d d4da a93d 6706 bfbe
000002c0: db43 c83d 7300 59be a932 683e 76b6 d0be
000002d0: e2e0 d83d baa4 123f 239b 23bc 38ba acbd
000002e0: 843f c83d c69f 2d3e 80e9 8dbd 8a54 1f3f
000002f0: 1260 a3b9 9c4e f53e 29d4 1c3c 60cb 1dbf
00000300: dfb9 023e 3632 b6bc d38a b5bd c790 b53d
00000310: 0612 ee3e 3286 313d f7db 1c3d ab4b 073c
00000320: 4f15 57bb 73e1 9bbb 60cb 45bd c06f 8f3d
00000330: 65c3 fc3d 0072 9ebd ba4e 853c 969a 0c3a
00000340: ca3e c43c f1a6 573d 8d91 aa3d b70a 1c3d
00000350: ce75 943d cb31 d1bc 4717 05bd 5db0 04bd
00000360: d7b8 b63d 6a40 e3be 8076 45bb 6c57 c73d
00000370: 8fac d13c bcc9 49bc a726 7bbd d6a7 e83d
00000380: 5288 993d 1346 d63d c161 15bd 9686 d1bd
00000390: cc28 41bd d2b1 483e a03a 5bbd 2e45 8d3d
000003a0: bd31 51bd 135c 98bd 4921 0a3d 5efb 8e3e
000003b0: 2a43 55bd d592 19bd e0a7 26bd dcaa 963c
000003c0: 8545 84be c8b4 38bd a965 2fba 5b6d b43e
000003d0: 3a89 dc3d 9a16 413d 7a57 9a38 c3bc acbe
000003e0: 50ad e93b c664 8d3d 369e b03d a4a3 0a3d
000003f0: ed35 b4bc a649 d23d 583d 9a3d 6503 aebd

actor.4.bias f4 [12]
-0.6568528 0.47810683 0.31544966 -0.010428688 0.119681165 -0.045940667 -0.21409824 0.26466367
0.02292458 7.31324e-05 0.19128843 -0.12383864
00000000: 8127 28bf 6bca f43e 9e82 a13e 16dd 2abc
00000010: 661b f53d 482c 3cbd 923c 5bbe ff81 873e
00000020: 54cc bb3c a95e 9938 1de1 433e 1d9f fdbd
