Plotting/saliencies_live/Multi_Pong/Sequence_Length_2/multi_pong_2__1__1721945456_checkpoint_608.pt (torch, 89058 bytes, 11 tensors)

critic.0.weight f4 [128, 12]
00000000: 8dea 523e a3c0 053d ee0e 983e ab00 1d3a
00000010: a40a 173c 0b4f 7c3e 576c c0bf f619 ad3f
00000020: 50a2 3d3d 1ea8 223e 7be1 81be 9783 dd3f
00000030: d717 f23c 5a71 c53c 9c9b 94bd 4cf2 b63c
00000040: 25eb bc3b ad04 3e3b d781 b4be 9f16 a13d
00000050: 2766 a6bd 87f4 033e b54e bfbf 8de0 1540
00000060: f39a 64bd e4e6 b43e 4fce 90be d575 afbe
00000070: 69ce ba3d c834 d2bc e20c 1d3f f6b8 80bd
00000080: f329 c53d 0518 9d3c 81f4 fa3e 4a18 d83d
00000090: 7d29 d33e f705 18be d967 f53e db09 8cbe
000000a0: 3eb7 5c3c 5084 533c 52f7 3f3e 8987 323d
000000b0: 8dec 31bf 60bd b73e 7240 a1bf 803d 463f
000000c0: 94fb dfbd 6204 5a3b b4f3 6cbc cd0f 4bbc
000000d0: 67b1 06bc d518 7fbd 5799 ff3e 7fed 1d3c
000000e0: d3cf ad3c 7b8f 973d 8dcb 403f 04d3 e53f
000000f0: 239f a2bd 152c 1bbc fb7e 42be 75ef 89bd
00000100: ee7a 96be b554 a5be 895c babf 08f4 31c0
00000110: 4b3f 8cbb 3201 c43c 4abb 2ebd f255 f4bd
00000120: 10c1 253e e4dd 97bc 62db d1bd 7a5c 6ebb
00000130: adcb 8c3d 36e5 dfbd 6f0e 1a40 b812 23c0
00000140: 8120 16bc 8cf0 563c ef16 4bbe 40c6 53bd
00000150: 964f 11bd 3cce 80bc aa5a 00bd 078d 403c
00000160: cad2 31bc 7769 99bc f0c7 043e 2df2 17be
00000170: 610c 92bd ef19 873d df1d bcbf b552 3440
00000180: 55d1 a0be 3791 043c 0c5c f2bd cb4c 06bc
00000190: e079 18be a77d eb3c 803b 3ec0 16cd e73e
000001a0: eb07 75bd c56e fcbb 9da0 0cbe 04b3 e03d
000001b0: 327a 29be 657c b5be 29ab b5be 4f82 273e
000001c0: a714 b03c 69ec 9ebc c2db d0bf 3d59 643e
000001d0: 0436 453e 56b8 fb3d a57d a03f 01e4 9c3f
000001e0: df45 b03d 2bfe d43b 8126 2d3e 306d 9138
000001f0: 2157 c33c a13f 4abc 92a4 28be 3a3f ad3d
00000200: 7ae3 3d3c 791d 91bb 3532 b63f 1d7d 86bf
00000210: 0bb1 60be d8bb 73bc 5321 8f3d bb45 ea3b
00000220: abfa 28bd afa9 93ba 9f2f a6bf 6610 97bf
00000230: 696b 91bd 4858 c63c 2210 79bf bfa1 073f
00000240: 08c5 2c3e 68e9 a1bc b2b5 153c 4d78 b73c
00000250: 42d4 4b3d 65b7 053c 74ab 1f3f 8567 ba3e
00000260: f48d 02be 1456 98bc 9e6d 44bf 6712 cdbf
00000270: 30f1 0d3d be2f 35bb 72cc 8b3d 1642 ccbb
00000280: 788e d53c 57f5 8b3c 1209 423d 3cf1 1dbd
00000290: 9ff0 aa3d 8d26 6cbd d23a d23f 02e4 343d
000002a0: 5fdd a23d 87be 5f3c 8422 28bc 2751 fbbb
000002b0: 6fd3 f83b 2b23 593e a958 b53d 96c5 0640
000002c0: 1fc8 53bc e8f6 60be 9d78 31bd 1169 0ec0
000002d0: 0923 593e a7d8 70bd de54 813e 0aa8 c4bd
000002e0: ed3e 4abc 0ab1 6e3c c2c4 c1be 0cb1 623f
000002f0: 1c9c 9fbd 34ab 673d c79a a0bf 9ff4 9bbf
00000300: bead 9b3e e83d 0dbb aed2 85bb f7c7 78bc
00000310: fc07 ab3d 26de c7bd adb8 293f 3d0f 02c0
00000320: 0040 6f3c 863e b23d 61f0 d8bd 8f17 843f
00000330: 9c9c 2e3d bcb8 283c 3cf4 65bd 0433 143a
00000340: 9b71 ae3c 6c88 c63d cd2b 593e bac9 23be
00000350: 2355 8abc 7673 ddbd c40c a4bf e382 283e
00000360: b3a8 403d 3435 863c 5788 293d ec76 7d3b
00000370: 9822 efbb 2db8 84be 9f9c 553e 777e b1bf
00000380: f7db 5f3b 0baa 873e 5ac2 c13d 6027 ae3f
00000390: 6f87 b93d 22e3 30bb 3502 cdbd 88a3 a43a
000003a0: 74f1 213a 510b f2ba 4378 37bd 85cb 59be
000003b0: 4a5f 9c3d 248a 88bd c0ec 5b40 0f14 44c0
000003c0: 8bb9 93be a749 cc3c 1397 133e 3182 333c
000003d0: 5faf 22be 9660 c43b 0e46 613d 4f1f f13b
000003e0: 29c5 253e 3ec4 1e3d 9659 4340 7e2d 253d
000003f0: 9329 29bd 1a46 88bc 3b70 30be 236a 093d
0.20597287 0.032654416 0.2969889 0.0005989174 0.0092188455 0.24639527 -1.5033063 1.3523548
0.04629737 0.15884444 -0.2536734 1.7305783 0.029552383 0.024101902 -0.07256243 0.022332333
0.005765336 0.0028994486 -0.3525531 0.07865643 -0.08124953 0.12886249 -1.4945894 2.3418305
-0.055811834 0.35332406 -0.282824 -0.34269586 0.09121401 -0.025659934 0.6134778 -0.062852785
0.09627142 0.019176492 0.49014667 0.10551508 0.4124259 -0.14846025 0.47930792 -0.2735127
0.013471423 0.012909964 0.18746689 0.043586288 -0.6950157 0.3588667 -1.2597792 0.7743759
-0.109366566 0.0033266773 -0.0144624 -0.012393904 -0.008221007 -0.06227954 0.49921677 0.009639143
0.021217262 0.074004136 0.75310594 1.7955022 -0.07940509 -0.009470959 -0.18993752 -0.06735126
-0.29390663 -0.3229119 -1.455949 -2.7805195 -0.004280006 0.023926351 -0.04265908 -0.11930455
0.16186929 -0.018538423 -0.10246922 -0.0036371038 0.068747856 -0.109323904 2.407131 -2.5480175
-0.009163023 0.013118874 -0.19832967 -0.051702738 -0.03547629 -0.01572334 -0.031336464 0.011752374
-0.010853479 -0.018727047 0.12966895 -0.14838476 -0.07131267 0.06596743 -1.4696616 2.817548
-0.31409708 0.008091263 -0.11833963 -0.00819702 -0.14890242 0.02874644 -2.9723816 0.45273656
-0.059822004 -0.0077036344 -0.13733144 0.109716445 -0.1655052 -0.35446468 -0.35482147 0.16358303
0.021494223 -0.019399839 -1.6317065 0.22299667 0.19258887 0.12291019 1.2538344 1.2257081
0.08607077 0.0065000257 0.1690922 6.9344766e-05 0.023845257 -0.012344272 -0.16469029 0.08459325
0.011589879 -0.0044285622 1.4234072 -1.0506932 -0.21942537 -0.014876328 0.06988778 0.007149426
-0.04125468 -0.001126578 -1.2983283 -1.180188 -0.07100565 0.024212018 -0.9729024 0.5298118
0.16872036 -0.019764617 0.009137558 0.022396231 0.04976297 0.0081614 0.6237099 0.36407104
-0.12749463 -0.018595733 -0.7672976 -1.6021241 0.034653842 -0.0027646865 0.06826104 -0.006233464
0.026068911 0.01708476 0.04737193 -0.038560137 0.08346676 -0.057653952 1.64242 0.044162758
0.079523794 0.013656265 -0.010262135 -0.007669586 0.007593564 0.21204822 0.08854801 2.1058097
-0.012926131 -0.21969187 -0.043327916 -2.2251627 0.21204771 -0.058800366 0.2526006 -0.096023634
-0.012344104 0.014568577 -0.37845427 0.885514 -0.077934474 0.056559756 -1.2547234 -1.2184027
0.30405992 -0.0021551792 -0.004083953 -0.015184394 0.08351132 -0.09759168 0.6629742 -2.03218
0.014602661 0.08703332 -0.10592724 1.031969 0.042629823 0.01029795 -0.056141123 0.0005653354
0.021294406 0.09693989 0.21208115 -0.15994921 -0.0168863 -0.10813038 -1.2816396 0.1645618
0.047035884 0.016382791 0.04138979 0.003867562 -0.007297825 -0.25921765 0.20860527 -1.3866719
0.003415821 0.2649692 0.09460898 1.3605766 0.09059035 -0.002699085 -0.100101866 0.0012560943
0.0006177642 -0.0018466507 -0.044792425 -0.21269043 0.076353624 -0.06666973 3.436325 -3.0637243
-0.28852496 0.024937464 0.14413099 0.010956333 -0.15887211 0.0059929593 0.05499845 0.0073584686
0.16188492 0.03876137 3.052343 0.040326588 -0.041299414 -0.01663499 -0.17230313 0.033548485

critic.0.bias f4 [128]
00000000: 50b2 863d c708 753d 6691 8ebd 8a66 b63e
00000010: bfa7 98bd 2269 fdbd 7978 c93d 5251 74bd
00000020: cb7a 25bd 6087 63be 4fe5 83bd b72d 84bc
00000030: 5d98 8a3c 0bfa c93c bc4a 05bc 1086 693e
00000040: 593d 573d 273f d63c ba48 8fbd 770d 02bc
00000050: d7a9 e63a 86e1 a93c ac5a bb3c a885 55be
00000060: db7b e3be 80be 8f3d a23a 45bd 0f02 2f3f
00000070: 3d46 8f3d b424 343e a39e be3e d820 b03b
00000080: d35d dcbc 31bc 2d3c 4f47 9639 d223 3dbc
00000090: 773f c8bd 4046 77bd 46a3 c9bd 2763 08be
000000a0: 476b 293d 39d1 bfbc ab62 7a3d aa55 ecbb
000000b0: d120 d1bd 7c8c 3fbd 4b90 7d3e 4da2 98bc
000000c0: 1ae7 59bc 739d 00bd 05cf 303b 79ec c33d
000000d0: 171f 5fbd f29f c03d f421 9cbc a235 e8bc
000000e0: 1ab0 ad3d 8cc9 463d 59db 663c c032 963c
000000f0: 70fa c6bc 84a1 c9bc f389 a2bd 6850 cdbd
00000100: 4bd1 5f3c 94e1 a23d e4cd 733d 29c5 dcbc
00000110: b46b 6fbc a22f 24be 117d a3bc 2fda fa3c
00000120: 137a 26ba 9dc7 45bd a953 79bb 19cc 3abd
00000130: b00d 37bd 6354 563c 9ae0 363e 2dc6 9dbc
00000140: e236 85bc 9ff0 7cbd c9e0 c33d f5ea b8bc
00000150: fb65 223d 2357 593d be74 92be 45e0 6fbd
00000160: d48b f8bd 1268 debc c4cc f3bc a060 cebc
00000170: 6745 04bd 00fc d33c e475 b83d 0e1d e7bc
00000180: d743 31bd dafd 053f 9ee0 923d 4d11 5dbd
00000190: ceab 7dbc 7f98 ddbc a3ca d8bd d6b6 11bd
000001a0: 5d71 bbbe 7aca d9bc dadb 71bb 3bc8 fdbd
000001b0: 3e45 bf3c ae44 0abd a4de 1b3e abc2 79bd
000001c0: c3bd 89bc 2f59 653b b69d 22be bdce b03d
000001d0: e391 a73e 0cd5 a13d 085b 6c3c ad85 bb3d
000001e0: abba 243e f841 86be c5c3 5bbd 8ff9 3abd
000001f0: b056 8d3d 5389 ef3c 7793 18be 0d43 123e
0.06576979 0.059822824 -0.06961326 0.35625106 -0.0745387 -0.12373568 0.098374315 -0.059647866
-0.040400308 -0.2221961 -0.064402215 -0.01613508 0.016918356 0.024655363 -0.008135494 0.22805047
0.05254874 0.02615316 -0.06996293 -0.007937781 0.0017598224 0.02073742 0.022870384 -0.20851767
-0.44430432 0.07018757 -0.04815162 0.68362516 0.06995819 0.17592126 0.37230405 0.005375009
-0.026900208 0.01060395 0.00028663359 -0.011544185 -0.0977773 -0.06036973 -0.09845595 -0.13319074
0.041362073 -0.023415195 0.061129253 -0.0072123604 -0.10211337 -0.046764836 0.24762075 -0.018632079
-0.013299728 -0.031400155 0.0026978862 0.09566588 -0.05447301 0.09405507 -0.019059159 -0.028345887
0.08480854 0.048532054 0.0140903825 0.018334746 -0.02428934 -0.02461315 -0.07936468 -0.10025102
0.013660739 0.07953182 0.059522524 -0.026949482 -0.014613081 -0.16033795 -0.019957097 0.030621616
-0.0006350588 -0.04828607 -0.003804425 -0.0456048 -0.044690788 0.013081643 0.17859116 -0.019259537
-0.016261522 -0.06175291 0.09564359 -0.022572974 0.039648037 0.053061616 -0.28604692 -0.05856349
-0.12136045 -0.027149234 -0.029760726 -0.025192559 -0.03229275 0.025876999 0.09006861 -0.028212097
-0.043277588 0.5234047 0.071717486 -0.053971577 -0.015482856 -0.027050255 -0.10585525 -0.035574757
-0.36609927 -0.026585806 -0.0036904723 -0.123917066 0.023348447 -0.033756904 0.1522165 -0.060976665
-0.016814118 0.0034995785 -0.15880474 0.08633182 0.3272849 0.079019636 0.014426 0.09156356
0.16086833 -0.26222205 -0.053653497 -0.045648154 0.069013 0.029240286 -0.14900003 0.1428339

critic.2.weight f4 [64, 128]
00000000: 671b 173d afd2 453e ed28 d93d 77ff 6a3d
00000010: 7622 12be 6c5a bd3d 7666 8c3e 278f 833e
00000020: e5e6 733e 863f 8d3e 1e02 50bd 7bb8 f73d
00000030: 088c 0d3e f691 be3e 62c0 2fbe e627 243e
00000040: c934 8e3d c448 d63e b342 223d ce41 f9be
00000050: 71ad 94bd f39b 603d a955 03be 7140 a7bc
00000060: 245f 10bd 7de1 903e ccf0 9cbe ed37 f53c
00000070: 21eb 5a3e 24dd 373e 7062 9b3d f691 82be
00000080: b835 5f3e c87d b43d f478 bb3e 6ce1 38be
00000090: ec8c 83be 833d 063c ce7a 53be 1cf4 4b3e
000000a0: e3d3 97bd 6bcc c4bd 4ccd bebd 60ad ab3d
000000b0: cb01 c9bd 9c73 e83b de9f 57bd 2c6c 96be
000000c0: d87c 253e 13b5 6c3e a6b8 0bbe 7a8f 7cbc
000000d0: 98eb 583d 4b95 95bd 601b b33c 9f64 03bd
000000e0: 7cb7 75bd 170b 5e3e 2ba1 27be b775 17be
000000f0: 7819 68bc fb06 70be e5d8 423e c02d 823d
00000100: fbda c4bc d59c 28be 30f0 adbe 66b8 c33d
00000110: ec0d 0ebe 4c86 613e 084a efbe bbb6 69be
00000120: 4e5e bebe d46b f63d ba98 fe3b 1ed4 b03d
00000130: 15b1 35bf 72c7 4b3e a66f d43c 2f69 3d3d
00000140: 6430 0cbd 9263 b1be cb69 ef3d bb6b 213e
00000150: a7cb ebbc d8ff 253e 91cd e8be b37f 14be
00000160: 7c83 8ebe 8d15 69be c66d b23e e314 923e
00000170: bd92 3abd 54d8 52bc a25a 0dbd a19a a83d
00000180: 22aa 3abd b76c b93e 1de5 4cbd aacc 73be
00000190: 7822 8fbe 2427 acbd 1e5e 1cbe bdfc 413e
000001a0: bba6 cc3d baed 19bf 3b3f e5bd a4d8 9a3d
000001b0: d8da 083e c425 3f3d 82cc f8bc 9ef2 f6be
000001c0: 0687 ebbe cb33 153f cbaa 753e 6816 50be
000001d0: f349 b73e 2d32 963e 3b2a 4bbd ff23 6f3e
000001e0: 770e 9bbc 2e24 e4be 771b 2dbd 6e05 e6bc
000001f0: 9c75 00be e34d d2be cee4 603e 5084 773d
00000200: 1cf3 8cbd 133c 4cbe 7acc 393e 2b50 073f
00000210: 3b27 953e 5e7c 603d 0289 efbe 95d0 843e
00000220: 2d2d b83e c032 51bb 0fb8 533e ba7b f43e
00000230: 15e4 12be 4b30 edbd 2410 eabd 9025 f53d
00000240: 55a6 cd3d a394 7c3e 8d13 28bc 2199 0f3f
00000250: a89b 92be a3eb cfbd 02c0 0e3f 96a8 eebc
00000260: 0e57 173e d384 233f 01ce 11be 33b3 2fbf
00000270: 30da 093e e8c0 bebe 226f b63d e18b 253d
00000280: 466c 8a3e f22f 923e 88d5 803d b2e1 ce3d
00000290: 1560 0abe 0ddc a7be 72e6 b93e 2d11 9abe
000002a0: a22b 503d 86a3 37be 6d20 03bf 9325 03be
000002b0: e457 9fbc 3dae 2f3e 2657 c53d 334c b5bb
000002c0: e866 383e 3c3a 683c aef6 52be de1f d8bc
000002d0: fe52 273e caf9 79bc a19f 9b3e 504c a5be
000002e0: 262c f5bd 323d 0a3e 7d40 013f 12ec 55be
000002f0: b177 20be 5dae 0fbe 49e6 a1bd fb33 8ebe
00000300: a755 97be 06ab cdbd 9b71 233e 2424 ea3d
00000310: cdae 81be e9c7 323e f455 b5bd 0cd8 0e3e
00000320: ba18 973e 9435 8e3e 4bdd b5bd 295d 09be
00000330: da50 b13f 8502 1f3d bc9f 8fbd fea5 02be
00000340: 07b3 a1be 5d14 2ebf 2378 4fbf 30fd dbbd
00000350: c29b 523d 13d8 e83e e59e 16be b941 26bf
00000360: 123d bdbb 286b 1d3e c309 17bf 86e1 39be
00000370: 3b14 4c3e 3b68 bcbd 82e3 a1bc 63f8 33bf
00000380: 3fe9 aabe 2bb0 013f 05a1 64bf 75ff 3bbe
00000390: e1e5 893e 9902 163e d403 873e 2be8 d8bd
000003a0: fbff 73be 60f9 5b3f 6b6c fa3d 92d0 febe
000003b0: caa1 5c3d 8a30 66bd e319 c13d c2e4 703f
000003c0: 0ccb 5f3e c279 4a3e 42f0 223d 36ff b2bd
000003d0: 3c4c 9ebe 7e54 d5be 34d2 a13e e875 1dbd
000003e0: efe1 fdbd 790a dfbd d47e fcbd 5994 dbbd
000003f0: 859b e03e d03b 1d3e dd73 1bbe 74bc 9abd
0.036891367 0.1931865 0.10603509 0.057372537 -0.14270958 0.09245762 0.27421921 0.25695154
0.23818548 0.27587527 -0.05078327 0.12095734 0.13822949 0.37220734 -0.17163232 0.16030845
0.06943662 0.4185239 0.03961439 -0.48683017 -0.07259644 0.054836225 -0.12825646 -0.02041647
-0.035246983 0.28297034 -0.30652463 0.029933894 0.21378757 0.17955452 0.07587135 -0.25501984
0.21797836 0.08813053 0.36615717 -0.18054742 -0.25693452 0.0081933765 -0.20652315 0.19917339
-0.07413461 -0.09609302 -0.09316501 0.08382678 -0.09814795 0.00709386 -0.052642696 -0.29379404
0.16160905 0.2311595 -0.13644657 -0.015415067 0.052959055 -0.07303866 0.02186364 -0.03207838
-0.059989437 0.21683918 -0.16370074 -0.14790998 -0.0141662285 -0.23440163 0.19028051 0.06356382
-0.0240302 -0.16466077 -0.3397231 0.095566556 -0.13872498 0.22023886 -0.4673617 -0.22823612
-0.37181324 0.12032285 0.0077696713 0.08634208 -0.7097333 0.19900301 0.025932144 0.04624289
-0.034225836 -0.3464628 0.116901 0.15763752 -0.028783632 0.16210878 -0.45469335 -0.14501838
-0.2783469 -0.22762127 0.34849375 0.2853156 -0.045550097 -0.012868959 -0.034510262 0.08232618
-0.045572408 0.36215755 -0.050023187 -0.23808542 -0.27955985 -0.08405903 -0.15270278 0.18944068
0.09992739 -0.60128367 -0.11193701 0.07560852 0.13364732 0.046666875 -0.030370954 -0.48231977
-0.46001452 0.58282155 0.23990934 -0.20321047 0.35798606 0.29335156 -0.04960082 0.23353575
-0.018927796 -0.44558853 -0.04226252 -0.028078761 -0.12544864 -0.41075048 0.21962282 0.060428917
-0.06882307 -0.19944791 0.18144408 0.528567 0.29131493 0.054806106 -0.46784216 0.25940385
0.35971966 -0.0031921118 0.20675682 0.47750646 -0.14344819 -0.11581477 -0.1142886 0.11970055
0.10041491 0.24666075 -0.0102585675 0.5609303 -0.2863438 -0.10152366 0.5576173 -0.029133122
0.14779302 0.6387455 -0.1423874 -0.6863281 0.13462138 -0.3725655 0.08907916 0.040416602
0.2703573 0.28552204 0.06290728 0.10101642 -0.13513215 -0.32785073 0.36308628 -0.3009123
0.05082286 -0.17933473 -0.5122135 -0.12807302 -0.01945109 0.1715631 0.09635763 -0.0055327653
0.18008006 0.01417404 -0.20601913 -0.026382383 0.16340253 -0.015257308 0.30395225 -0.32284784
-0.11971311 0.13499907 0.50489026 -0.20890835 -0.15670659 -0.14031358 -0.079052515 -0.27774033
-0.29557535 -0.10042386 0.15961306 0.114326745 -0.25328675 0.17459072 -0.08854285 0.13949603
0.29511052 0.27775252 -0.08880099 -0.13414444 1.3852799 0.038820762 -0.07012889 -0.12758633
-0.315819 -0.6799982 -0.8104269 -0.10741651 0.051418073 0.45477352 -0.14709051 -0.64944035
-0.0057751024 0.15372908 -0.5899927 -0.18152437 0.19929592 -0.09199568 -0.019761804 -0.70300883
-0.33381078 0.50659436 -0.89308196 -0.18359168 0.26933196 0.14649428 0.26370108 -0.105911575
-0.23828118 0.8592739 0.1222771 -0.49768502 0.05386523 -0.056198634 0.094287656 0.94099057
0.218548 0.1977301 0.03977991 -0.08740084 -0.30917537 -0.41666025 0.31605685 -0.038442522
-0.12396609 -0.108906694 -0.12328878 -0.107216544 0.43868652 0.15354848 -0.15180917 -0.07555476

critic.2.bias f4 [64]
00000000: 394c 533e b1fc 253e 1b32 85bd b32b 0339
00000010: 5ade 9e3c e858 423e 54e1 e6bd 7447 0cbd
00000020: ea29 4a3e 8999 e53b b8eb da3e 6809 da3d
00000030: ebc1 533e 57ba 1d3e 3dc1 453e 9e3e f43c
00000040: c6df 27bd 454b 0b3c 895a 3ebe e0ae 4ebe
00000050: 4d26 273d fd43 843e 13b8 903e 1f9f 4bbc
00000060: 2048 303d 670a 92be 8553 03bd 8483 66be
00000070: 238e 33be 2a66 9bbb ce6a ed3d 43fb 3dbd
00000080: 5a38 b23d ff22 603d 2948 513e 7fff 90bd
00000090: 18a9 463e fb69 71be 14dc a83d 6295 8abe
000000a0: ef0b 51be f6a9 8bbe 856e de3d a635 2dbe
000000b0: a0c9 3c3d edb6 80be 2a71 1fbe 0d5a 37be
000000c0: 4ad9 f0be 65a9 a03d b3b7 2b3d 9b4e 353f
000000d0: 2d11 dc3d 37a2 373e 60aa 153e fdb9 a0be
000000e0: c629 62be 4830 21bf 70d4 dcbd 0f54 04be
000000f0: ee2a 493e 0cf5 6f3e dfc9 633d 7985 15be
0.20634545 0.16209675 -0.065036975 0.00012509413 0.019393135 0.18979228 -0.11273447 -0.03424783
0.19742551 0.007006828 0.42757964 0.10646325 0.20679443 0.15403114 0.19311996 0.029815014
-0.04098489 0.008501832 -0.18589224 -0.20183897 0.04080801 0.2583312 0.28265437 -0.012428074
0.043037534 -0.2852356 -0.032062072 -0.22511107 -0.1753469 -0.0047424035 0.11592637 -0.0463822
0.087021545 0.054720875 0.20437683 -0.07079982 0.19400442 -0.23575585 0.082451016 -0.27067095
-0.20414709 -0.27278107 0.10860924 -0.16914997 0.046090722 -0.2513956 -0.15570512 -0.17905445
-0.47040778 0.078448094 0.041923236 0.7082307 0.107454635 0.17932974 0.14615774 -0.31391898
-0.22086248 -0.62964296 -0.10782707 -0.12922691 0.19645283 0.23433322 0.05561244 -0.14601697

critic.4.weight f4 [1, 64]
00000000: 3c2a 8d3e bca4 643e f42d fc3e 1051 f7be
00000010: 0174 d63e 40e6 0b3e d6d2 eebe 0f34 91be
00000020: 6f70 003f 2245 0dbf 18d3 573f a81d d23e
00000030: c959 9f3e 6e55 83be fdba e23e 3fe8 383f
00000040: 27eb bbbe bfa8 f1be df33 cdbe 0cec cfbe
00000050: 77af 073f af5d 963e b2d1 9f3e 41bf 55be
00000060: df33 963e c5cd 70be 1da0 cd3e 4d46 92be
00000070: 468b 04bf 1bc9 d93e 3042 1d3f 18b0 42be
00000080: 2eff 9b3e 58ec ef3e c9f5 ea3e 59f4 50be
00000090: bf4b 463f cdbd 27bf fcff 033f 3d84 5ebf
000000a0: 21a0 66be 4b38 83be ce60 d3be b2dd d0be
000000b0: ecfb ebbe 146b e4be 0afb 18bf 7cca 2dbf
000000c0: ca7e fdbe ef03 d0be f7e9 ef3e 7a64 5a3f
000000d0: ef11 983e 2f9b 853e 9900 233f 4b6f a6be
000000e0: 1a98 21bf 5bfb 64bf dada 25bf 8c13 bbbe
000000f0: 912a d73e ce0a c43f f768 a03e 5e33 8fbf
0.27571285 0.22328466 0.4925381 -0.48304033 0.4188538 0.13662052 -0.4664523 -0.2836003
0.5017156 -0.55183613 0.8430648 0.4103825 0.31123188 -0.25651115 0.44283286 0.7222938
-0.36702845 -0.47199056 -0.40078637 -0.40609777 0.53002113 0.2936835 0.31214672 -0.20873739
0.2933645 -0.23515995 0.4016122 -0.2856926 -0.51775014 0.42536244 0.6142912 -0.19012487
0.30468124 0.46860003 0.45890644 -0.20405711 0.7745933 -0.6552399 0.51562476 -0.8692053
-0.22522022 -0.25628886 -0.41284794 -0.4079414 -0.4609064 -0.44612944 -0.59758055 -0.6788709
-0.49510795 -0.40628 0.4685819 0.85309565 0.29701182 0.26094958 0.63672787 -0.32506785
-0.63122714 -0.8944604 -0.64787066 -0.3653835 0.42024663 1.5315797 0.31330082 -1.1187551

actor.0.weight f4 [128, 16]
00000000: aa1f 483e 47eb 94be 99df 913e bd9d d23e
00000010: 500a bc3d 111f 283f 0236 8ebe dd94 03bd
00000020: 258f 4abf e52e 00bf 754b e63e 36cb 7cbe
00000030: 3842 583d 2249 bebd 240f 833e dd5d 02be
00000040: 2f3f 323e 384b e13d 6897 45be 49d1 0c3e
00000050: b262 903c f545 4bbf d155 77bd 20a3 00be
00000060: 307c 4abf 29c8 623f 6807 033f 8eee 12be
00000070: fc4e c2be e421 babd f3dd 203e 1dc5 bdbd
00000080: 737d 1e3e 475f 8abd 8135 d03d 6e13 aa3b
00000090: 0647 0b3f c993 563f 93fb 93be abe6 41be
000000a0: 1e8a 93bf c0da f13d 8e8a 4e3e 3c2c 17bc
000000b0: 3116 053e 47ce 1a3e 4a08 38be 32f0 d73c
000000c0: 8ec7 543e 22d1 df3d 219f 5d3d 5668 87bd
000000d0: 5239 bebf d60d 44bf ae2c ce3d 88fa b33d
000000e0: 8a0d 433e c006 7dbd 7c6e 36be e0f3 c03d
000000f0: 2e9c 143e 7ef8 693e 66fb 693d e11b 26be
00000100: 007f 0cbe 621a a53d d9d1 1ebd 5b99 913c
00000110: 6724 783d 08bb d83e 8c8a 823e c9f0 743d
00000120: 193f f63f 3af8 32bf 5c66 56be 67eb 7a3d
00000130: 79dc 23bd 489c 39bd a2b1 45be 4f77 783c
00000140: c8b7 373e 1fb6 54bd 7da2 ac3e 5cc1 c7be
00000150: 4cf3 a6be 705d 2c3f 10a2 f13d 26d1 13be
00000160: 4f5e 97be b3ee 0e3f e4aa bfbe a8a8 d0bd
00000170: 36e1 993e 61fb 3d3e 4d95 06bf e4f2 d03e
00000180: 9cbf 29bd a63b 4ebe aee0 0d3d 4829 2cbe
00000190: a646 243d ea23 c7bd cfd1 753e d61a df3e
000001a0: c780 bbbe bcd1 793e 7181 75be f372 dd3c
000001b0: f266 c2be 3a19 c8bc 821b 33be 9744 903d
000001c0: 475f 133e e1be 98bd 9dbf 04be 31d9 81be
000001d0: 3974 13be 01bd 45bf bef7 cd3e 2f09 303d
000001e0: 734b 613f 7e38 d73d 03e2 f33d 76e8 733e
000001f0: a727 f5be 5557 86be 0224 16bd 4a50 f43e
00000200: 3850 883d 3725 77be 12eb b13e 561d 1d3c
00000210: 72c1 4abf d23a 563f 815c 2dbe 4f32 003e
00000220: 1a8f 9ab9 e504 8a3e 70f6 2ebe 9f5b b3bd
00000230: ede8 023f 70b0 083f acf2 ae3e ed6b f3be
00000240: edf5 ccbc 7d08 9cbe 7b8f a2be 000a 4a3e
00000250: fba2 16bf 9b03 403f ca68 863e 09c9 c43d
00000260: 70b9 443f d071 913e 3b84 57be 37d5 16bf
00000270: 9fe4 f03e d9b5 443c d7a7 cf3d a6c4 0bbe
00000280: 1c4b b73c fc3c 393e 49ad 34be 63df 84bd
00000290: 81b1 6d3e db0b 9cbf fcef a93d 96e6 14be
000002a0: f6b8 b7be dcd7 4fbe 6b02 e63e 4a7e ccbb
000002b0: cb52 813d 209a c23d ed69 8cbe 1f83 a5bb
000002c0: 2894 3d3d 7e5b dc3e 74f3 843d 0714 22be
000002d0: a5a1 c2be eb7d f73e bbff c2be 56b9 0c3e
000002e0: be8c 063f 3b68 3dbf 16a5 883e 1722 c2bc
000002f0: 2017 e5be 71a9 4bbe 0eba 91bd b030 d73d
00000300: 17d0 65be 06e5 173f bef1 7a3e d4ca 0abf
00000310: d836 563f 4817 34bf ab31 2f3d 6fcf 86bb
00000320: ab60 ac3d deae ba3c 5a76 1d3e 5767 0abd
00000330: 1d41 c73c 28ab e0bc 45e0 973d 07e0 f9ba
00000340: 90c8 c83d e246 94be 3851 d6be 8974 8c3e
00000350: c3e8 ca3d 0985 52bf 64bd 2cbc 6fb7 2cbe
00000360: cca3 563f e9ff c6be 0fb0 2dbe 0beb 113e
00000370: 222a 99be d730 61bd 8e35 9ebe 6d15 a63d
00000380: 0586 823d a117 8cbe f7db e6bc dbcf 37be
00000390: 46d9 35bb b822 46bf db4f b8be 9d72 c93e
000003a0: 7cdf b9be a70d dbbc f15d 96be 2d28 c4be
000003b0: 419f dd3e b7ff 923e bba1 1e3e 0ecb 2ebe
000003c0: 8989 ab3e c55b 503e 3589 a8bd 072e b13d
000003d0: e582 92bf 4da7 d03d 34fe 373e ef5e b8bd
000003e0: ce5c 6f3d 21c5 18bf da80 bf3e c329 af3e
000003f0: 2ba3 cfbe 4e0f 19be 4194 15be 389d 723e
0.19543329 -0.29085752 0.28490904 0.4113597 0.091816545 0.65672404 -0.2777558 -0.03212439
-0.7912467 -0.50071555 0.44979444 -0.24686894 0.052797526 -0.09291293 0.2559749 -0.12731119
0.17406915 0.11000675 -0.19296038 0.13751711 0.017625187 -0.7940362 -0.060384575 -0.12562227
-0.79095745 0.8858667 0.51183176 -0.14348814 -0.37950885 -0.090884954 0.15709667 -0.09266112
0.15477543 -0.06756454 0.10166455 0.0051903045 0.5440525 0.8381925 -0.28902873 -0.18935649
-1.1526525 0.118093014 0.20170042 -0.009226855 0.12996747 0.15117751 -0.17971912 0.026359651
0.20779249 0.10928561 0.054106835 -0.066116974 -1.4861243 -0.7658361 0.10067116 0.087880194
0.19048133 -0.061774015 -0.17815584 0.094215155 0.14512703 0.22848698 0.057124518 -0.16221572
-0.13720322 0.08061673 -0.038774345 0.01777332 0.06058159 0.42330194 0.25496328 0.059799943
1.9238006 -0.69910014 -0.20937485 0.061259653 -0.04000518 -0.045315057 -0.19306043 0.015165164
0.179412 -0.051931497 0.3371772 -0.3901471 -0.32607496 0.67330074 0.11798489 -0.14435253
-0.2956414 0.55832976 -0.37435067 -0.101884186 0.30054635 0.18552925 -0.52571565 0.4081031
-0.0414425 -0.20139942 0.0346381 -0.16812623 0.040106438 -0.09723647 0.24005817 0.43575162
-0.36621687 0.24396414 -0.23975159 0.027032351 -0.37969166 -0.024426091 -0.17490962 0.070443325
0.14391814 -0.07458282 -0.1296372 -0.25361016 -0.14399804 -0.7724152 0.40228075 0.04297751
0.8800575 0.10508822 0.11908343 0.23819146 -0.47881815 -0.26238504 -0.036655433 0.47717506
0.066559255 -0.2413529 0.34749657 0.009589514 -0.79201424 0.836835 -0.16929819 0.12519191
-0.00029479788 0.2695686 -0.17086196 -0.0875771 0.51136667 0.5339422 0.3416952 -0.47543278
-0.02501961 -0.30475226 -0.31750092 0.19730377 -0.5884244 0.750055 0.26251823 0.09608657
0.76845455 0.28407145 -0.21046536 -0.5891909 0.47049424 0.0120062465 0.10139435 -0.13649234
0.022374682 0.1808967 -0.17644228 -0.0648792 0.23212244 -1.2191118 0.082977265 -0.14541087
-0.35883301 -0.20297188 0.4492372 -0.0062406408 0.0631462 0.09502053 -0.27424565 -0.0050510312
0.04628387 0.43038553 0.064917475 -0.15827952 -0.3801395 0.48338255 -0.38085732 0.13742575
0.52558506 -0.7398717 0.2668845 -0.023697896 -0.44744205 -0.19888856 -0.07115565 0.10507333
-0.22442661 0.5933384 0.2450628 -0.5421574 0.83677435 -0.70348024 0.042771976 -0.0041140835
0.084168755 0.022788461 0.15377179 -0.03378996 0.02432304 -0.027425364 0.07415823 -0.0019063958
0.09803879 -0.2896033 -0.4185884 0.2743266 0.09907677 -0.82234246 -0.010543201 -0.1686685
0.83843684 -0.3886712 -0.16961692 0.14249818 -0.29914957 -0.054978218 -0.30900234 0.081095554
0.063732184 -0.27361777 -0.02818106 -0.17950384 -0.0027747913 -0.77396727 -0.35998425 0.39345255
-0.36303318 -0.026739908 -0.29368547 -0.38311902 0.43285564 0.2871072 0.15491383 -0.17069647
0.33503368 0.20347507 -0.08229295 0.08651357 -1.1446196 0.1018816 0.17968065 -0.09002482
0.058438115 -0.59675795 0.37402993 0.3421155 -0.40554175 -0.14947245 -0.14607336 0.23692787

actor.0.bias f4 [128]
00000000: 93da 92bc 1c30 42bd 49a7 0b3e c17d b33d
00000010: cc11 8bbd 8ada 02bc dccb 07bd 310f fdbb
00000020: eb80 4d3d 4cd4 f1ba 7bf6 833d 29f6 a63c
00000030: 701a 8dbd 43fe 29bd 70c1 423d 9ae8 023e
00000040: 925e 003e d2e7 fabd 1949 453e c53a 343e
00000050: 41be 71bd 58c0 2a3e 719a f5bd 390d febb
00000060: 3924 6fbd 8bdc 84bd 9d66 b23d 1dc6 9ebc
00000070: 7020 bb3d b941 8dbd 8c10 1b3d b4b8 6cbd
00000080: 667c 50bd 14eb bfbc fa85 d9bc c9c5 dabb
00000090: d7d6 133e 180e 43bc 8915 bfbb d497 c83d
000000a0: 4e91 b33c 1ee7 32be 5c1f 22bd 117b 623e
000000b0: 8b73 23be 5cbe 513e 7d67 a53d 75dd ca3d
000000c0: dc71 8a3d 00ae 06bd c98b 6e3e 0b81 0e3e
000000d0: ab70 893e 7812 023c 7ffc 0d3e c13c 853d
000000e0: a6f7 893c ee07 363e 2158 6ebd 2ade 7c3c
000000f0: c9e2 5fbd cbf1 27bd e91d 033e 1e14 773d
00000100: 940a d2bd 0090 d53d 8fe9 4fbe b09b 1e3d
00000110: 6217 35be 4f3e 213e 580f dfbd 2238 123d
00000120: 0d47 ea3c 7a2c cebc df99 89bd 232c 29bd
00000130: 246b 72bd 4ad3 443d 4d7b 06be 0486 a13c
00000140: e59c 0bbd ccc5 6bbe f8ee cfbd 68fd 19be
00000150: 62a8 133e 211a 553e 9af6 26be 5bd6 603d
00000160: d7a2 753e 56ba adbd a0c0 ce3d 6ffd 63bd
00000170: 7dcf 16bd 8b30 4dbd afce 153d c02c b1bd
00000180: 20cc e8bd afce 93bc 2a68 57bd eec2 d03d
00000190: 3385 30be 0d99 26be 0c16 533d 9bf7 953d
000001a0: da43 2a3e b816 773d 0698 8cbd 5422 72be
000001b0: 56b9 053d 997c 42be 6cf3 0c3d 2143 22be
000001c0: dc1d 9e3b 84df 013e 1588 db3d 25eb 383e
000001d0: f275 95bd 881a b3bb 0283 343d 83b2 023e
000001e0: 1963 6abe edc4 1a3d 531e 86bd 1555 8bba
000001f0: 5c44 4c3d 204e 21be 023d 58bd 7a78 09bd
-0.01792649 -0.047409162 0.13638033 0.0876422 -0.06790504 -0.007986674 -0.0331534 -0.007722758
0.050171774 -0.001845011 0.06443497 0.02038105 -0.06889808 -0.04150225 0.047547758 0.12784043
0.12536076 -0.122512475 0.19266166 0.17600544 -0.05901933 0.16674936 -0.11992348 -0.007753041
-0.058384154 -0.06487378 0.08710978 -0.019381577 0.09137046 -0.06897301 0.037857577 -0.057793334
-0.050899886 -0.023427524 -0.026553143 -0.00667641 0.14437424 -0.011905216 -0.0058314246 0.09794584
0.021919873 -0.17470977 -0.039580688 0.22117259 -0.15962045 0.20482773 0.080763794 0.09905521
0.06759998 -0.032880783 0.23295511 0.13916413 0.2684377 0.007938974 0.13865851 0.065057285
0.01684172 0.17776462 -0.058189515 0.015433827 -0.05465964 -0.041002076 0.12804379 0.06032192
-0.10255924 0.104278564 -0.2030394 0.038722694 -0.17684701 0.15746425 -0.108915985 0.035698064
0.028598333 -0.025167692 -0.06718802 -0.041301858 -0.05918421 0.048053063 -0.13132973 0.019717224
-0.034085173 -0.23024672 -0.101530015 -0.15038073 0.14419702 0.20810749 -0.16305009 0.054891925
0.239879 -0.084828064 0.10095334 -0.055661615 -0.03681897 -0.050095122 0.036574062 -0.086511135
-0.11367059 -0.01804289 -0.052589573 0.1019343 -0.17238311 -0.16269322 0.051534697 0.073226176
0.16627446 0.0603244 -0.06864934 -0.23645908 0.032647453 -0.18992843 0.034411833 -0.1584592
0.004825337 0.1268292 0.10719315 0.1805845 -0.07297887 -0.0054658093 0.04407025 0.1276341
-0.22889365 0.03778546 -0.06548753 -0.0010630215 0.04986988 -0.15752459 -0.052792557 -0.03356216

actor.2.weight f4 [64, 128]
00000000: aa9f 18be e43e 393d 2773 bc3d 2e63 213d
00000010: 1bef 1f3e 980c 1d3e 5f93 833e 3354 bd3e
00000020: 3618 073e f19e 1bbf 7b97 c63d 76ab 1b3f
00000030: 4593 41be 3a70 f6be 9011 56be 4bcc 423e
00000040: 56e3 f73d 86f6 163e 097b 24bd 6c0f c33e
00000050: 8130 a3bd 5130 913e 9e62 033d 996f 8b3e
00000060: 721a 48be 2e17 4dbe b099 b03e ac59 b03e
00000070: 0c56 913c 39ab 7a3d 3e5f 8a3e d3c2 663d
00000080: ac4c fc3d 3670 c13d c5a2 52be 260e c03e
00000090: a9cb 843e e75c 9dbd 5188 2a3e ab3c 423d
000000a0: b68d 873e c8ff 6b3e 9b91 82be 590a 5f3e
000000b0: 5498 adbe 2194 7ebd 667d 8cbe d267 be3e
000000c0: b13f dd3d e600 7e3d 6654 22be 44a7 40bc
000000d0: 5f22 523b 20b8 253e 0799 813d 6246 cc3e
000000e0: 0f60 dcbe f3c1 33be 17bf 613e 849b a1bc
000000f0: ece3 81be 0256 90be a7af b5be 8f40 e3bd
00000100: 2b6a 393e c94d 87be 7303 17bf 83e8 043f
00000110: 2e1e 3dbf 7558 a7bd aedf 1abe e8d8 8bbe
00000120: df25 40be 60c3 a63d c94f 4a3e fc2a b8bd
00000130: 5655 9dbc 0321 903e b1fc 243e 1fa9 cbbd
00000140: ce53 8e3e bc92 7abe be92 2abe e45b a5bb
00000150: 8a5b 013f a51d e83d 11dd 06be b33c 6dbe
00000160: 29f6 8cbd a359 493d 3046 d43d 9acc b03c
00000170: fb18 003e 794e 1fbe 994c 483d 3bf7 3ebe
00000180: 6077 a03e 4481 343e 474e 9bbe 912f 1abe
00000190: 8b65 0ebd 8440 b2bd 1b36 f4bd adc1 92be
000001a0: 5f78 a7be 8a32 f4be 242b a9bc eb86 c8be
000001b0: 7206 60be a519 3abd 8a32 4ebe 0105 263d
000001c0: 4eac e7be 6449 1aba b055 ea3e 32ee 0b3e
000001d0: 4e54 073e c11f 93be 3b84 b23e 1d21 b53e
000001e0: 8366 c23c b750 17bc 018f 07bd 51a4 3b3e
000001f0: 238d f8bd 8c45 ea3d 84d7 1abd ba79 b03b
00000200: 2e38 0dbf b073 cdbd 09a1 25be 760a c0bc
00000210: 1329 06be ec4c 913e 3348 3d3d ac54 083e
00000220: 1dad f3bd 426d c03e e033 aabd 0e28 523d
00000230: 5993 b2bd 0666 5abd 8460 a73e a778 cf3d
00000240: 00e3 803e 0953 8d3d 6357 63bd 2776 2d3e
00000250: 2ee7 d0be 2a8e a83c e8ff 8cbe 9921 e03e
00000260: 7146 8c3e 736b 13bf 18df fa3e af07 ce3e
00000270: debc b03e 83e7 2a3e 8c72 1cbe 603b 593e
00000280: d255 cfbe 0d63 96bd c525 fcbd 8ee7 61bc
00000290: e303 d23e fb45 b0be a4fe 6c3e cc4e 12be
000002a0: c84a e73e d927 c93d a830 28be 221d 3f3e
000002b0: 8590 81bd ced5 873e 06e4 bb3e 491f 72be
000002c0: 30f2 5abd fdf6 c73b 7b3c adbe 47bb 863e
000002d0: f8b4 cfbd 5992 e63c 2924 7abe bac1 163e
000002e0: e08e cfbd 5244 9abd 98ed e1bd b591 a3be
000002f0: bc14 df3d 3793 0cbe 4c21 d3be 0954 1abe
00000300: bffa 90bc f6b6 63be 689a 623d 87b5 a43e
00000310: f2fe 15bf 5db9 57be 77bc 01bf 87d7 90be
00000320: 70db 643e a2d4 bc3e 2d12 a3be d46f 08be
00000330: 7e7a 51be 1756 e6bc 2624 db3d 36d2 40be
00000340: 34e3 17be d2ea b4bc 78d0 39be 1bbd 9ebe
00000350: adc2 1a3f c803 343e 16b4 77bd ffd0 4c3d
00000360: 22eb 803e 890e d6be de21 203e 4441 5c3d
00000370: 3b49 8fbe 4bb7 3f3e 31ca fbbc c4da 1c3d
00000380: d853 343e c21a a5bd afde b4be 03ed 963d
00000390: 45a5 66be 3332 93be 411b 02be 979b 67be
000003a0: fa2b 8c3d 846f f3bd d9dc 983d c42d acbe
000003b0: ff29 d1be 8b18 ae3e 77ef 1c3e f76e ccbe
000003c0: aebd 533e d2b4 efbc b4e9 2c3e edcc 2b3b
000003d0: a23f 003f 38ba 63be 8fbf e73e 5bf2 8e3e
000003e0: 48d9 e8bd 1c18 55be d3fd 063e 3d24 2cbd
000003f0: 5550 ea3d 7463 87bd e6e4 82be 113f 22be
-0.14904657 0.045225993 0.09201651 0.039401226 0.15618555 0.15336835 0.25698373 0.369783
0.1319283 -0.607894 0.09696861 0.60808504 -0.18903835 -0.48132497 -0.20905137 0.19023244
0.12103908 0.14742479 -0.040156398 0.38097703 -0.07968236 0.28357175 0.03207647 0.2723358
-0.19541338 -0.20028374 0.34492254 0.34443414 0.017741226 0.061198447 0.2702579 0.056338143
0.123193115 0.09445231 -0.20569904 0.37510794 0.2593663 -0.07683735 0.16653563 0.04742114
0.26475304 0.23046792 -0.25501713 0.21781291 -0.3390528 -0.062152985 -0.2743942 0.37188584
0.10803164 0.062012576 -0.15852508 -0.011758629 0.0032063944 0.1618352 0.06328016 0.39897448
-0.43042037 -0.17554455 0.22045551 -0.019727476 -0.25369203 -0.2819062 -0.35485575 -0.11096298
0.18106906 -0.26426533 -0.5898964 0.51917285 -0.73874176 -0.08171169 -0.1512439 -0.27313924
-0.18764447 0.081427336 0.19756998 -0.089925736 -0.01920573 0.28150186 0.16112019 -0.09944367
0.27798313 -0.24470037 -0.1665754 -0.0050463546 0.505303 0.11333779 -0.13170268 -0.23167686
-0.06882889 0.04915775 0.1036495 0.021581937 0.1250953 -0.15557279 0.048901174 -0.18648998
0.31341076 0.17627436 -0.30333158 -0.15057208 -0.034764808 -0.08703712 -0.11924382 -0.28663388
-0.32709023 -0.47694808 -0.020650454 -0.39165434 -0.21877459 -0.045434613 -0.20136467 0.040532116
-0.45248646 -0.000588557 0.457685 0.13665083 0.13215753 -0.28735164 0.3486651 0.35376826
0.023730522 -0.0092355525 -0.033095364 0.183244 -0.12136295 0.11439046 -0.037803188 0.0053856047
-0.5516385 -0.10031831 -0.16174711 -0.023442488 -0.13101606 0.28379 0.046211433 0.1331355
-0.11898253 0.37583357 -0.083106756 0.05130773 -0.087195106 -0.053319953 0.32690823 0.101304345
0.25173187 0.06900603 -0.05550326 0.16939603 -0.40801376 0.020575602 -0.2753899 0.43775633
0.27397493 -0.5758583 0.48998332 0.40240237 0.34519094 0.16689877 -0.15278071 0.21214056
-0.40495163 -0.07343111 -0.123118915 -0.013788117 0.4101859 -0.3442839 0.23144013 -0.14287871
0.4517424 0.098220535 -0.16424811 0.18663457 -0.06326393 0.26530308 0.36697406 -0.23644747
-0.053453624 0.0061024413 -0.33835205 0.26314756 -0.10141939 0.028145956 -0.24427857 0.14722338
-0.10134673 -0.07532562 -0.110316455 -0.31947103 0.10892627 -0.13728033 -0.4123634 -0.1507112
-0.01769769 -0.22237763 0.055323035 0.32169744 -0.5859214 -0.21066804 -0.506782 -0.28289434
0.22349334 0.36880976 -0.31849805 -0.13323909 -0.20456883 -0.028117223 0.10700254 -0.18830189
-0.14832765 -0.022084627 -0.18145931 -0.3100365 0.604533 0.17579567 -0.060474478 0.050004
0.25179392 -0.41807964 0.1563792 0.05377318 -0.27985558 0.18722264 -0.03073606 0.03829457
0.17610109 -0.08061744 -0.35326144 0.07369425 -0.22523983 -0.28749236 -0.12705709 -0.22617947
0.06844325 -0.11886504 0.07463998 -0.33628666 -0.40852353 0.340031 0.15325724 -0.3992841
0.20677826 -0.029261027 0.16886026 0.0026214675 0.50097096 -0.22239006 0.45263335 0.27919278
-0.11369568 -0.20809978 0.13182764 -0.042026747 0.11441103 -0.06610766 -0.2556526 -0.1584437

actor.2.bias f4 [64]
00000000: cd84 043e f9e1 37bd f5ac 903d 4786 e13c
00000010: 6c2a 0e3e 4435 a33c a1b9 a93d 5d10 b33e
00000020: d843 293e 4655 6f3d 24d9 07be 5462 a7bc
00000030: 4dc6 e0bd 1251 35be 153f 283e 107a 25be
00000040: b75c fcbc eac0 d53d 8455 30bd f86c abbd
00000050: 7adf cc3d ac52 0ebc 8807 b93d 5697 db3d
00000060: f671 88bd 7f56 803d 89e3 d53d 9717 a0be
00000070: e0b5 683d 5b9e 1ebe 0468 33be 1f31 393d
00000080: 9395 203e fca5 67bd 21e4 a33d 473b 2f3d
00000090: c66f a8bd 877e 1dbe 448a 05be bf13 06be
000000a0: 356d 90bd ea3c c1bd 0b87 17bc c482 1f3e
000000b0: c72a 2bbd d681 de3c 26ee 9b3b 35fe 943e
000000c0: aecb 2dbe db0e b83b f643 6abe 8625 4abd
000000d0: cab9 5a3d dd8b 64bd f05b cdbd a6d5 a0bd
000000e0: 2852 21be 9915 213e c71b 77be 50bc 93be
000000f0: 7052 243e 147c fd3d 45ce 633d 3127 f6bc
0.12941284 -0.04489324 0.07064239 0.027529849 0.1388337 0.01992286 0.08287359 0.34973422
0.16529787 0.058430932 -0.13266426 -0.020432629 -0.10975323 -0.17706707 0.16430314 -0.16159844
-0.030805929 0.10437186 -0.043050304 -0.083703935 0.10003562 -0.008686703 0.090346396 0.107222244
-0.06662361 0.06266498 0.104437895 -0.31267998 0.056814075 -0.15490095 -0.17520148 0.04521286
0.15682058 -0.05655478 0.080024965 0.04278114 -0.08224444 -0.15380298 -0.13041025 -0.1309347
-0.070520796 -0.094354466 -0.009248505 0.15577227 -0.041788843 0.02716152 0.004758614 0.29100195
-0.16972229 0.0056170053 -0.22877488 -0.04935219 0.05339984 -0.055797447 -0.10027301 -0.0785325
-0.15753996 0.15730895 -0.2413169 -0.2885461 0.16047072 0.12377182 0.055616636 -0.030047985

actor.4.weight f4 [9, 64]
00000000: 8afd 0d3e 4900 2cbb 07b6 1fbd 46f8 71bc
00000010: 7b24 bdbd 7d91 523d b8be 373d 8805 963e
00000020: 93fe 05be 8121 b93d 8ad9 13be aeee b43c
00000030: 3aee 033d ed38 633d 7392 cb3c ef6a e93d
00000040: cba0 cdbe 9021 8cbe a358 cbbc 6c84 c5bd
00000050: 8c58 d1bd b714 c9bd 36f9 8e3e 4cfb b2ba
00000060: 5781 123e 46fe cc3d b02a 0c3e 4288 7c3e
00000070: f509 25be c0f8 c83d 98e7 e3bd 03e2 70bb
00000080: 45de ee3e 7414 ffbc 9dfa 4abc b393 013e
00000090: 7a63 9c3d 3042 273e 9007 093e be92 7ebd
000000a0: 7b6c acba fd00 ee3d 01c4 8bbd a17f 38be
000000b0: 6055 89bd d86c a03c 4758 05be de17 31be
000000c0: e0a7 a5bd 1ba0 0f3d 1027 bfbe e744 05be
000000d0: b704 ed3d 7679 b7bc 9b21 3e3d 247b 86bd
000000e0: ca78 21bd cc00 08bd d4f5 273e 1c86 d9bb
000000f0: 776d 17bd d6d9 cebd eeb1 d8bd 0321 973d
00000100: 056b 5cbe 82a0 cfbd d64e 07bc a904 333e
00000110: 89ed c13e 30bf cc3e 33e8 943e f3b5 053f
00000120: 1f1f f23d b784 41be 54d4 323f d60b fdbd
00000130: 55c9 773e fe0b abbd 9340 51be b09e 49bf
00000140: 8b45 aabe 9b76 57bc 23ee 933e 118b 413e
00000150: 9bc0 1a3f 7b98 523f d0ce 12bf 4723 043e
00000160: 15eb 2ebe abac 293e 3e89 c3be db1f 66be
00000170: 7550 d9be b2da f43e 3b5a ffbe b6d8 f0be
00000180: ff20 4fbf d8b1 0fbe e4f4 d83d 4599 583e
00000190: ad0f bfbe 2a26 c23e eb5b 333e 1261 92be
000001a0: 3356 94bc edf5 e73d ae2f 9a3c 20a9 893e
000001b0: a5ab 99bd d51c 423f 9741 053e 5b1c 00bf
000001c0: 0a45 2fbf 784a a4be 9da6 253f de05 cb3d
000001d0: 9350 4abf 47d0 153c 278f 25be 0378 193f
000001e0: 3d1f a4be 886e 743e 16d9 1cbd 3f65 4c3f
000001f0: 8f5f e13d 600e cd3e 1c98 033e 309b 2e3c
00000200: dd7b 963d 0db4 d03d 670e 833d 707d 14be
00000210: 8af7 82be c32b ecbe 7852 a8be 852d 50bf
00000220: 73d4 863c 491e d23d 654f 02bf eed7 bf3d
00000230: 336b 97be 492f 603c 06e6 253e 20c6 1d3f
00000240: 9235 463f ffcb 9a3e f40c 87be 17a3 9bbd
00000250: 44b6 eebe 58b1 2ebf b999 7c3e 407a dabd
00000260: f28c 763c 9fd7 84be 4f1e 6a3e 38af 3bbd
00000270: 4a55 123f ad86 12bf f739 163f 7851 e23e
00000280: bc14 953e 24d3 263e 8cb7 82bd 3588 a6be
00000290: a151 8f3e 8196 0dbf b1d5 a3be 07b2 ad3e
000002a0: 26a5 7a3c 694c 74be a702 433d 281d 96bd
000002b0: 338a 213e bfa5 43bf 2172 52bc 7b6a 2a3f
000002c0: 919d 423f dfb7 933e 0b4e 6cbe f2ea 0f3d
000002d0: 7d3d 253f 8656 913c 686a d23d 6eaf 07bf
000002e0: 26a3 b03e aad5 59be a194 15be 282a 47bf
000002f0: 629f 78bd f665 8fbe 66b7 dbbc df7e b6bd
00000300: e1e5 2bbc 9e9b 353e d934 0dbe bf4c fd3d
00000310: 13d5 243e 3872 283e c7f0 983d 8a8d a73d
00000320: c3bc 793e a98c 3bbe 2f1c 0a3d 4938 17be
00000330: eb4c 8b3e f67b 463e 3ffd abbd 081f 31bd
00000340: 16ec f33c 5e7f a3be 034b e83c 977a a33d
00000350: 3163 ba3e 5e48 5d3d 0b61 a1bd 29a8 713e
00000360: 2ed0 e53c 0f3b a4bc 8952 513d 3abb 0dbe
00000370: 84c4 163d aa2d ad3d b4d6 9a3d 153b 08be
00000380: 3792 f8bc 187e 573d 7edc c23d e1f2 9ebe
00000390: 9675 4bbb c473 09be d5f8 81bd fb76 acbc
000003a0: 88f3 35be 2c2c 1ebe 9e41 fe3d a451 a13d
000003b0: ec7f 7f3d d316 003e 45f8 2e3d 8b17 133e
000003c0: 36ed be3d db17 e43d 5259 88bd 461a 4dbd
000003d0: 25c1 d2bd e734 86bc bc9f 0b3e d710 94bd
000003e0: 0824 d7bd 388f 1f3e 72c2 26be f8cb a5bd
000003f0: 9156 c5bd 4a14 e5bc ac4c 683d 51cb 803d
0.13866249 -0.0026245287 -0.038991954 -0.014768666 -0.09235474 0.05140828 0.044859618 0.29301095
-0.13085394 0.090395935 -0.14438453 0.022086468 0.032209612 0.05547421 0.024850106 0.11397349
-0.40161738 -0.27369356 -0.024822539 -0.09644398 -0.10221967 -0.09818404 0.27924508 -0.0013655215
0.14307152 0.10009436 0.13688159 0.24661353 -0.1611708 0.0981307 -0.111281574 -0.0036755807
0.46653953 -0.031137682 -0.012388852 0.12653999 0.07636161 0.16333842 0.13381791 -0.062151663
-0.0013154888 0.11621282 -0.06824494 -0.18017437 -0.06705737 0.01958315 -0.13021956 -0.17294261
-0.0808866 0.035064798 -0.3733449 -0.13014565 0.11573165 -0.022396784 0.046418767 -0.06566456
-0.039421834 -0.033203885 0.1640237 -0.0066383015 -0.03696963 -0.10100143 -0.105808124 0.07379343
-0.215252 -0.10138036 -0.008258542 0.17482246 0.37876537 0.39989614 0.29083404 0.5223076
0.11822342 -0.18898283 0.69855237 -0.12355773 0.24197896 -0.08351897 -0.2043479 -0.7875776
-0.33256182 -0.013150836 0.2889262 0.18900706 0.6045014 0.82263917 -0.5734682 0.12904082
-0.17081864 0.16569774 -0.38190645 -0.2247309 -0.42444196 0.478231 -0.49873528 -0.47040337
-0.80909723 -0.14032686 0.10593584 0.21152218 -0.37316647 0.37919742 0.17515533 -0.28589684
-0.01810751 0.113262035 0.018821564 0.26886845 -0.07503442 0.75825244 0.13013302 -0.50043267
-0.6846472 -0.32088065 0.64707357 0.099132285 -0.79029197 0.0091438955 -0.1616789 0.5994875
-0.32055083 0.2387029 -0.038292967 0.7984199 0.110045545 0.4005003 0.12850994 0.010657117
0.07347844 0.10190592 0.063992314 -0.14500976 -0.25579482 -0.46127138 -0.3287542 -0.8131946
0.016458726 0.10259683 -0.50902396 0.09367357 -0.29573974 0.013683149 0.16201028 0.6163044
0.7742549 0.30233762 -0.2637707 -0.07599466 -0.46623433 -0.68239355 0.24668016 -0.106678486
0.015048252 -0.25945756 0.22863124 -0.0458214 0.5716139 -0.5723675 0.586822 0.4420278
0.29117382 0.16291481 -0.06382665 -0.32525793 0.27991965 -0.55307776 -0.3199897 0.33924887
0.0152981635 -0.23857273 0.04760995 -0.0732978 0.15775375 -0.76424783 -0.012844593 0.66568726
0.7602168 0.2885122 -0.23076646 0.03513617 0.6454695 0.017741453 0.10274202 -0.5300206
0.34499472 -0.21272913 -0.14607479 -0.777987 -0.060698874 -0.28007478 -0.02682085 -0.089109175
-0.010491819 0.17735144 -0.13789691 0.12368154 0.16096906 0.16449821 0.074678 0.08181293
0.24388413 -0.18315376 0.033718284 -0.14767565 0.2720712 0.19383225 -0.08397912 -0.043242484
0.02977566 -0.3193311 0.02835608 0.079823665 0.36403802 0.054024093 -0.078798376 0.23599304
0.02805337 -0.020047693 0.051104102 -0.13840953 0.036808506 0.08455975 0.075604826 -0.13303788
-0.030343158 0.052610487 0.09514712 -0.31044677 -0.0031045428 -0.13423067 -0.06346289 -0.021052828
-0.17768681 -0.15446538 0.12414859 0.078769 0.062377855 0.12508707 0.042717237 0.1436445
0.09322588 0.111373626 -0.066576615 -0.050073884 -0.10290746 -0.016382648 0.13635153 -0.072297744
-0.10504919 0.15581977 -0.16285113 -0.080955446 -0.09635652 -0.027963776 0.056713745 0.062887795

actor.4.bias f4 [9]
00000000: e4ee bfbe fa0c 873e c7cf 193e bb15 e53b
00000010: f96b b9bd 5c4b d03d ae67 0dbe 8d33 cb3d
00000020: 377a 5a3d
-0.37486947 0.26377088 0.15020667 0.006991116 -0.09053797 0.10170624 -0.13809082 0.09921942
0.05333921
