Plotting/saliencies_live/Multi_Pong/Sequence_Length_2/multi_pong_2__1__1721945456_checkpoint_3344.pt (torch, 89074 bytes, 11 tensors)

critic.0.weight f4 [128, 12]
00000000: 3041 603e 201f ac3c 5dbd 9e3e 5480 b13c
00000010: a410 243d 9b3c 4a3e 1d1e efbf 2387 1240
00000020: 33d8 313c 3102 183e 88bc b9be 896a 0740
00000030: eee7 c33c a321 7bbb 9925 a0bd 6c70 b83a
00000040: b10a febc 4f57 83b9 1efb 42bf 8f4e a13d
00000050: 4aa7 a5bd 7df1 193e 42aa 16c0 44df 6740
00000060: 7df6 f33c 8b22 cd3e aef7 49be dda2 c0be
00000070: d1b6 0a3d fca2 09ba c494 2f3d 1332 073d
00000080: 8052 863b 58ba aabc d707 bf3d 8100 8d3d
00000090: 5267 163f e3a2 8dbe be86 273f f2ef 28be
000000a0: e5d4 5d3c e31d fe3c c151 7c3c 9a63 3fbb
000000b0: 60fa 85bf 9081 da3e 62a0 e9bf 2f76 dc3e
000000c0: dda8 dbbd 0041 3cb9 1552 4abc 93ae 14bb
000000d0: bc3d cc3c 38fc 0d3c 4bdb 573e 8e26 89bc
000000e0: 9854 143d 3851 b63d 154a b73f aa2f 0e40
000000f0: 2958 acbd 5df0 a7bc 645b 47be 9cdd 44bd
00000100: b52a c3be 92b7 c3be 465d 22c0 773e 6bc0
00000110: 8389 143d 2105 0f3c 0280 29be dfac 38bd
00000120: 0f5e 3e3e 820c a73b c49f a0bd 3662 d439
00000130: 300c 023e fcd3 03be d658 7240 f711 6ac0
00000140: 85c4 61bc 48db 203c 60ae 23be 3eec 75bc
00000150: 6fc2 26bd 947c 3c3b 9ecc 15bd 65a0 08bc
00000160: 60f7 d8bb bab6 393c 17ef ffbd 349f 803d
00000170: 9d9a 7cbd 40f1 703d d7d3 02c0 d2b9 8640
00000180: f24b abbe 6568 3d3c 2c2a 0ebe b8f6 febb
00000190: 7763 d5bd eb4e 3bbc 753a 58c0 1626 083d
000001a0: 532b ddbd 1ec3 163c 04e4 143f e19c 863c
000001b0: 6f46 7bbe 7ae5 9bbe 438f debe fd7a 823d
000001c0: 4e9e cc3b 1674 a0ba c13b cdbe f094 f73d
000001d0: b614 be3e 78da 2c3e 4798 0a40 84e6 a73f
000001e0: 8ba4 d73d a623 bc3b 8ad5 403e 4e89 94bb
000001f0: 6214 903b 64a4 853b 14a6 7f3d 49cd 623d
00000200: bc5c 2f3c d468 d9bc e076 3040 998a 58bf
00000210: 1885 6cbe 28ee 00bc 59ef 6e3d 9e87 1b3b
00000220: 9e15 3dbc 8b56 0fbd a4c2 d2bf 4896 c6bf
00000230: b3c6 0cbd 04b8 183c f0d7 cdbf dc2a 2a3f
00000240: bcd7 2e3e c3e5 1dbc 0410 373c 9c6c b73a
00000250: fbf6 3c3d 5f60 953c f9ea 833f c282 073f
00000260: 6927 d7bd a69d 87bc 18d0 bfbf 179f dabf
00000270: eb40 eb3c c226 f6b9 c44a 7f3d dc58 6839
00000280: 1a6a 5f3d efc7 c03b 5252 183f 4345 583e
00000290: 8fb5 043e 958b ad3b 7e00 4740 eec8 77bc
000002a0: 7cd3 c33d cb78 023c b22e bf3b d26b 2e3c
000002b0: 05c4 d7bc 16f9 313e c8e6 323e 23a9 8040
000002c0: 1409 d6bc 4a3b 3abe 5bc2 c6be 89e8 71c0
000002d0: 746f 633e 3074 b4bd 837a 863e 07f6 99bd
000002e0: 4d12 6b3d 9dc6 91bc f8d3 efbe 3da6 243f
000002f0: 9aa5 00be 9f01 7a3d 89cf c3bf 8820 5ebf
00000300: 101d a53e 80f0 9c3b 95bc 6a3c 0dab febb
00000310: 9ebc bf3d 60c7 96bd 1c8e 873f 2cc9 17c0
00000320: ff3b a63c af06 a13d a215 6fbe 807f 973f
00000330: 7547 fa3c 3c89 02bc 7fb6 8bbd 8c47 3ab9
00000340: 16b2 edbc 851d e23d 903f c6be 919e 5a3e
00000350: 84cd 79bd 9f5c 16be 2a74 00c0 699a 2fbf
00000360: 0474 763d 92b1 963c 9a54 5f3d 3f0f 11bb
00000370: 5e67 b0bb d6f6 c5be 501c b93a 9db5 33c0
00000380: 157c e43b da3d b83e 4200 efbc fd92 3940
00000390: f215 bb3d f6c4 8b3b b273 cbbd b436 c93b
000003a0: 92f7 90ba 827a 79ba c0b1 a8ba 6c95 9cbd
000003b0: 025a 823d 3522 42bd b272 8a40 b3dd 7dc0
000003c0: ac91 8fbe bb79 d33b 95e9 1b3e fbb2 f73c
000003d0: 0b93 2fbe c019 9a3c 0887 4bbf 1f73 c1bd
000003e0: a7ba 443e a049 083d 7af1 8e40 513e cabd
000003f0: 5b41 6bbd 361a b43b 45f5 40be 9318 de3b
0.21899867 0.021010935 0.31003848 0.021667637 0.040054932 0.19749682 -1.8681065 2.289498
0.010854769 0.14844586 -0.3627665 2.1158774 0.023914304 -0.003831961 -0.07819671 0.001407159
-0.031010957 -0.00025051317 -0.76164424 0.07876312 -0.080885485 0.15033527 -2.3541417 3.623002
0.02978062 0.40065417 -0.19723389 -0.37624255 0.033865754 -0.0005250422 0.042866483 0.03300674
0.0040991902 -0.020840809 0.09327667 0.06884862 0.58751404 -0.27663335 0.65439975 -0.16497782
0.013539528 0.03102011 0.015400351 -0.0029203654 -1.0467033 0.42676973 -1.825207 0.43058917
-0.107255675 -0.00017953292 -0.012348671 -0.0022687062 0.024931781 0.008666091 0.21079747 -0.016742017
0.036213487 0.0890221 1.4319483 2.2216592 -0.08415253 -0.020500356 -0.19468457 -0.048062906
-0.3811852 -0.3822599 -2.536943 -3.6756876 0.036263954 0.00872925 -0.16552737 -0.045086738
0.18590568 0.0050979266 -0.07842973 0.00040508964 0.12699962 -0.12873834 3.786672 -3.6573465
-0.013779764 0.009817906 -0.15984488 -0.015009938 -0.04071277 0.0028760778 -0.03657209 -0.008339022
-0.0066212863 0.011335069 -0.12496775 0.062803656 -0.06167089 0.058823824 -2.0441797 4.210183
-0.3345638 0.011560534 -0.13883275 -0.007780876 -0.10419362 -0.01143239 -3.378568 0.033239447
-0.10799279 0.009201793 0.58160424 0.016432228 -0.24538587 -0.30448514 -0.43468675 0.063711144
0.0062444573 -0.0012241628 -0.4008465 0.120889544 0.37125176 0.16880214 2.1655443 1.3117223
0.10529431 0.0057415543 0.18831459 -0.0045329696 0.004396961 0.004078435 0.062414244 0.055371556
0.010703262 -0.026539244 2.7572556 -0.84586483 -0.23097646 -0.007869281 0.05833373 0.0023731957
-0.0115407985 -0.034994643 -1.646565 -1.5514612 -0.03436918 0.0093212165 -1.6081524 0.6647165
0.17074484 -0.009637299 0.011173252 0.001399416 0.046133976 0.01823443 1.0306083 0.52933896
-0.10505564 -0.016554665 -1.498538 -1.70798 0.028717479 -0.00046949653 0.06232716 0.00022158347
0.054544546 0.005883209 0.5950061 0.21120171 0.12959884 0.0052961805 3.109405 -0.015123589
0.09561822 0.00796337 0.005834424 0.010645824 -0.026338587 0.17380175 0.17470849 4.0206466
-0.026127376 -0.1818668 -0.38820156 -3.7798178 0.22210485 -0.088112235 0.26265344 -0.07517629
0.0573905 -0.017794902 -0.46841407 0.6431616 -0.12563172 0.061036702 -1.529771 -0.8676839
0.32248735 0.004789412 0.014327188 -0.0077718557 0.09362148 -0.073622465 1.0590243 -2.3716536
0.02029228 0.07862603 -0.23348096 1.1835785 0.030551651 -0.00796729 -0.06821918 -0.00017764996
-0.029015582 0.11040787 -0.3872037 0.21349551 -0.06098701 -0.1468377 -2.00709 -0.68594986
0.060169235 0.018395219 0.05452404 -0.0022134332 -0.005383416 -0.38664883 0.0014122818 -2.8079598
0.0069727995 0.3598469 -0.029174928 2.8995965 0.09135045 0.004265423 -0.099341765 0.0061405543
-0.001106011 -0.0009516851 -0.0012870356 -0.076456875 0.06364824 -0.047395904 4.326501 -3.9666564
-0.28040826 0.0064537204 0.15225823 0.030236712 -0.17145936 0.018811107 -0.79502916 -0.09445786
0.19211827 0.03327334 4.466977 -0.09875167 -0.057435375 0.0054962886 -0.18843563 0.006777832

critic.0.bias f4 [128]
00000000: 8c85 ab3d c2c9 5d3d 75e2 763c c775 073f
00000010: 9ba9 95bd cbe9 03be d950 fc3d 1edb 80bd
00000020: f7a6 82bd 41c7 99be 874f 39bd a2cc ebbc
00000030: 595a 9e3c a00e 963c 672c 5d3b 68b2 823e
00000040: 70c1 9e3d e3c3 3c3c 5f76 73bd 3a0e e7bb
00000050: 367c 4a3c 516e 3c3b af2a 2c3b 837f 6fbe
00000060: f48f 43bf 460b db3d 5b22 8fbd 4f44 853f
00000070: 3ce5 9f3d 4a5f 103e 120e ea3e 4662 f13c
00000080: d1ed 15bb 3549 123d bcb3 eabb d4cb 82bc
00000090: 773c bfbd f3aa d6bd 3ccb f1bd 6c8a 80be
000000a0: 2cbe 673d 53f7 59bd 261d 853d 6a83 71bc
000000b0: 2fc7 0ebe 864a 96bd 516e b13e ec17 adbc
000000c0: af49 adbc 0a0e d6bb 74b0 903c 4bae 8e3d
000000d0: 27af cbbd f126 cc3d 5824 4cbc 111f 95bd
000000e0: f215 9c3d ee8b 273d 34bc bbbb 5855 923c
000000f0: dbb2 c2bd ac52 07bd 7680 8abd 1ac3 d2bd
00000100: 1925 08bc 4f70 3c3e 8bb6 ab3d 19fa a73c
00000110: ea33 abbc 4db6 cdbe 7c30 e5bc 3e19 433c
00000120: ceff 863b 43df 3abd 6a40 12bc 8dd8 62bd
00000130: f2a3 41bd 4ef6 c53c 9f38 083e bd75 47bd
00000140: dc09 a3bc bdb0 84bd fcfd e03d 34d9 ffbb
00000150: 9b05 a23d eb2a 5d3d 224b 82be 4811 9bbd
00000160: 116c 5cbe e00c 96bd b618 d4bc 5b17 14bd
00000170: 9dba 02bd aab0 233d f52a a53d 1e97 67bd
00000180: 3284 29bd e8f4 363f 9ccf 8f3d 5305 1fbd
00000190: 5a4b 66bd 7eba 3b3d c375 32be 34d4 86bd
000001a0: ac50 02bf d7f5 39bd ba5e 0fbc 7600 02be
000001b0: d6fa d03c 8784 90bc 2557 883e c06c 5ebd
000001c0: 45a3 62bb d8fd 7fb5 5399 8fbe 80e5 a13d
000001d0: 3122 dc3e 6620 ac3d 80ad 963c 1ead ad3d
000001e0: 8fce c93d 4292 86be 28ed e8bd a01f b0bd
000001f0: a603 3e3d d88b 2f3d 0c7c 2abe 9181 103e
0.083750814 0.05414749 0.01506864 0.5291409 -0.0730774 -0.12882154 0.12320108 -0.06291793
-0.06379502 -0.3003483 -0.04524186 -0.0287841 0.01933019 0.01831752 0.003374839 0.25526738
0.07751739 0.011521312 -0.05943906 -0.0070512565 0.012358716 0.0028752277 0.0026270559 -0.23388486
-0.7639153 0.106955096 -0.06988975 1.0411471 0.07807395 0.1409885 0.4571386 0.029465806
-0.0022877345 0.035714347 -0.0071625393 -0.015966333 -0.09337705 -0.10481825 -0.11806342 -0.25105608
0.056577846 -0.053214382 0.064997 -0.014740804 -0.1394317 -0.07338433 0.34654477 -0.02112957
-0.0211533 -0.0065324353 0.017662264 0.069668375 -0.09945517 0.09968365 -0.012459837 -0.07281316
0.07621373 0.04090493 -0.0057292227 0.01786296 -0.0950677 -0.033037826 -0.06762783 -0.10291119
-0.008309626 0.18402217 0.08384427 0.020504998 -0.020898778 -0.40178147 -0.02797722 0.011907874
0.0041198498 -0.045623075 -0.00892649 -0.0553823 -0.04727549 0.024165299 0.13302849 -0.04869627
-0.019902162 -0.06479023 0.10985944 -0.007807875 0.079112254 0.053996008 -0.25447947 -0.075716555
-0.21525599 -0.073266745 -0.02589069 -0.036155086 -0.03191625 0.0399634 0.08064834 -0.0565406
-0.041385837 0.7146745 0.0702202 -0.038823437 -0.056224205 0.04583215 -0.17427735 -0.06583443
-0.50904346 -0.045400467 -0.008750612 -0.12695488 0.025510233 -0.017641319 0.26628986 -0.05430293
-0.003458218 -9.5364294e-07 -0.28046665 0.07905102 0.42994836 0.08404617 0.018393278 0.08480285
0.09853851 -0.2628346 -0.11373359 -0.08599782 0.0463902 0.042857975 -0.16648883 0.14111926

critic.2.weight f4 [64, 128]
00000000: 2616 963d 9ac1 123e 0a7a 9f3d 5a12 ee3a
00000010: 71f4 42bf f12c 80bd 92e0 b13e c1a2 8f3e
00000020: 0467 433e bb9f 863d 1660 11bd 76e7 973e
00000030: 9842 a0be 688a 553d b0e8 d2bc 5edb 4e3e
00000040: 860d e63d 7c61 363e beb0 123e cf59 84bf
00000050: 8791 0c3e cfce 2fbd e421 10bf c977 973c
00000060: baeb 18be a480 333f b2ed 4fbe bebf 92bd
00000070: e142 9a3e 404f 35bd f3a6 013e 6ba5 903d
00000080: 4b1c cebd c215 703e f3fe e33e f16a d6bd
00000090: 504f 91be 7b61 ec3d 6421 86be d4ca cdbd
000000a0: 4352 f0bb e6f9 36be 40f6 0e3f cef8 9c3d
000000b0: 1940 103e 1e39 a63e 60fb 11be 2400 9f3d
000000c0: bab8 babd 6f2f 223c 2e06 663e ec6f 01bd
000000d0: 71f0 babb 0a59 af3e 9af3 4a3e 0ce9 3bbe
000000e0: 21c4 cc3b 56a5 1c3e 5ef2 85bd 208e b4be
000000f0: 0f54 abbd dfa1 c2be 956a cb3d eb8a 14bd
00000100: 92ac e937 de1c 43bb b4ad 36bf 76f9 8fbe
00000110: 15fa a8be 9904 653e 1a0a 54be 845a 813c
00000120: 3f8b f4bf 16f7 db3e f236 773b 3a86 5a3d
00000130: 0f9e 40bf 6582 753d ad86 fabc 3e1c 483e
00000140: 75f7 83bc ee06 89be 0a59 7e3d af40 283e
00000150: f544 92bc 6c20 883d 5616 d7bd be50 fbbd
00000160: 99c4 b6bc b0a3 3bbe e165 013e 0d38 463e
00000170: 18cd 90be c139 09bf 69fb 58bd 1c40 44bc
00000180: 9a2c 01bf d653 ec3e f8fb db3e 0c27 9e3d
00000190: 128a a6bd a479 b53d d62e 8ebe a109 a43e
000001a0: c16a 73be b4b9 6dbe 9ffe aabe 6e86 6dbe
000001b0: 8cc1 c2bc 87ce 21bc 0a21 b7bd 0bbb c7be
000001c0: e177 3cbf 1654 bcbd 3762 6b3e 8f24 36bf
000001d0: 21c5 803e 0527 1bbd 682f aebe 1f99 2ebe
000001e0: 1dd5 5dbd c9e9 9fbd 4b75 903d 463c 70bd
000001f0: 066d 7abe 179a 0dbf c0ea c53d a4f6 efbb
00000200: d04d 993d 7600 e7be eaee 893d 705a 373f
00000210: 9985 af3f 2c2e 8bbb 1591 033e 33d5 aa3e
00000220: a177 76bd 40f8 103e 0e1c 8bbd 7c64 ba3e
00000230: 7848 81be e218 3d3f 2544 cdbe 048f c9be
00000240: 16a8 953e 09ad 45bc b2fd 8bbd cb26 c73f
00000250: c903 adbd 4c25 043d 1baa 943f 8ec8 b8bd
00000260: dc5d 4fbe 33cd 443f 1f21 72bc d4ac 11bf
00000270: d1a8 a43e e115 94be 9d5f 483d d3cd cabe
00000280: 7df8 ee3e 78de 4cbe 84cc dc3d 5ca5 863e
00000290: be1c 7abf d9ab 82be 2e1a 1b3f 09c6 f6bd
000002a0: 4bea 413d d6ba 633e 7413 85bf 4ac8 243e
000002b0: 3be7 3c3d 2bda bfbe 3bda 0fbe 96ec f7bc
000002c0: fb52 823d b018 61be ffe9 0abd 91cf 213d
000002d0: 7fc6 7e3e 20d9 4dbf 54a3 3b3d aa39 b3bd
000002e0: 951a acbb 4d71 00bf 3c18 bf3d 3f5c 9c3e
000002f0: 78ac 053d e9e5 d03c 4675 c53b 38c9 b2be
00000300: c7e8 8b3c ad78 81bc aaed 48bd f900 313e
00000310: 2aa4 35bf 8ea2 d7be 73fd b53d 23a3 023e
00000320: f30a 403e 3274 523e dce9 3ebc 5ebf 1b3e
00000330: 019b bc3f a576 a43e d8ad a3bc e958 46be
00000340: 8875 07be dab3 b1be e065 e1be 3719 0f3c
00000350: a133 c13d b88b 0f3d 8443 813e c71c 3fbe
00000360: 7628 21bd 1932 05bd 88f3 b7bf 52c5 6fbf
00000370: ddad 113e ea21 15bf 0254 d3be c241 c4be
00000380: c087 4fbe 5aab 733f c44e d7bf 2e62 b33d
00000390: e930 07bc 90a1 893c 6f34 443e 101b c2be
000003a0: 232e 4f3d 4423 fe3e 724a 82be 7d6c 97bf
000003b0: 2739 e7bd 8457 fbbd 0457 163e e78b 4b3f
000003c0: c524 833d 2aef 7b3f 3c79 0c3d da3f b6bd
000003d0: 2f38 f7be 39c1 c4be f06a 583f 5290 0c3d
000003e0: 1fef 5b3d 9982 343e 5baa febd 5f33 b6be
000003f0: 8bab d33f 1453 f43b 29cf 743d eda6 9bb9
0.07328443 0.14331666 0.07786949 0.0018163428 -0.7615424 -0.06258572 0.34741646 0.2805386
0.19082266 0.06573435 -0.035492025 0.29668778 -0.31300807 0.052133948 -0.02574572 0.2020087
0.11233048 0.17810625 0.14325234 -1.0339907 0.1372739 -0.042921837 -0.56301713 0.018489735
-0.14933673 0.70118165 -0.20305517 -0.07165478 0.3012915 -0.04426503 0.12661342 0.07062801
-0.1006399 0.234458 0.44530448 -0.10469616 -0.28380823 0.115420304 -0.2619735 -0.10048452
-0.007334025 -0.17868766 0.558445 0.07664643 0.14086951 0.32465452 -0.14256048 0.07763699
-0.09117265 0.009899004 0.22463295 -0.031600878 -0.0057049324 0.3424762 0.19819489 -0.18350619
0.0062489663 0.15297446 -0.065403685 -0.35264683 -0.08365642 -0.38014123 0.09932438 -0.036265295
2.7856124e-05 -0.0029771845 -0.713588 -0.2812001 -0.33003297 0.22365035 -0.20706978 0.015790232
-1.9104995 0.4296195 0.003772196 0.053350665 -0.7524118 0.059938807 -0.030581797 0.19542024
-0.016109208 -0.267631 0.062096633 0.16430925 -0.017855147 0.06646809 -0.10502307 -0.1227126
-0.022310542 -0.1832416 0.1263652 0.19357319 -0.28281474 -0.5360375 -0.05297414 -0.0119781755
-0.5045868 0.46157712 0.42965674 0.07722291 -0.081318036 0.08861092 -0.27770108 0.32038596
-0.23771192 -0.23215371 -0.33397385 -0.23195812 -0.023773931 -0.0098759 -0.089418486 -0.3900989
-0.7362042 -0.091957256 0.22986685 -0.71149534 0.25150397 -0.03787901 -0.34020543 -0.17050599
-0.05415832 -0.07808263 0.07053622 -0.05865123 -0.24455652 -0.5531325 0.09663916 -0.007323103
0.07485545 -0.4511754 0.06735022 0.7162237 1.3712646 -0.0042474475 0.12848313 0.33365783
-0.06017268 0.141572 -0.067924604 0.36404788 -0.25250602 0.73866093 -0.40091053 -0.39366925
0.29229802 -0.012065181 -0.06835498 1.5558714 -0.084479876 0.03226213 1.1614412 -0.09022628
-0.20250648 0.7687561 -0.0147784045 -0.5690434 0.32160047 -0.28922942 0.04891931 -0.39610156
0.46673957 -0.2000674 0.10781196 0.26298034 -0.9770011 -0.25521734 0.6058682 -0.12049491
0.04734258 0.22239241 -1.0396562 0.16092029 0.046118956 -0.37471136 -0.14048092 -0.03026418
0.063634835 -0.21982074 -0.033914562 0.03950459 0.24880408 -0.8040943 0.04581006 -0.08751233
-0.0052521923 -0.50172883 0.09330794 0.30539128 0.032635182 0.025500255 0.006025943 -0.34919143
0.01707877 -0.015804613 -0.04905478 0.17285527 -0.7095362 -0.42116207 0.08886232 0.12757544
0.18754177 0.20552137 -0.011652436 0.1520972 1.4734803 0.3212177 -0.019980356 -0.19369854
-0.13228428 -0.34707528 -0.44023037 0.008734039 0.094336756 0.035045356 0.25246823 -0.18663321
-0.039345227 -0.03251848 -1.4371195 -0.9366046 0.1422648 -0.58254874 -0.4127503 -0.3833142
-0.20266628 0.95183337 -1.6820912 0.08758961 -0.008251407 0.016800672 0.19160627 -0.37911272
0.05058111 0.4963628 -0.25447422 -1.1829983 -0.11290198 -0.12272552 0.14681631 0.7951035
0.064034976 0.9841181 0.034295306 -0.088988975 -0.48285052 -0.38428667 0.84538174 0.034317322
0.05369484 0.17627944 -0.124348365 -0.35586068 1.6536726 0.0074561927 0.059767876 -0.00029688273

critic.2.bias f4 [64]
00000000: d2ab 9a3e 4c1f 8f3e dda8 c6bd 2d1b 773e
00000010: eaf1 e83c e817 6d3e 1b12 01be cff9 263e
00000020: 4712 b43e 573c a5bc 0f42 6b3f fbe6 803d
00000030: e4d7 dc3e 0874 ae3e fca5 853e 7867 edbd
00000040: 716c a7be 4f3b 793d 47fd 70be 00a3 f3be
00000050: b893 e9bc cd81 943e 272e 363f 8684 13be
00000060: 6c52 f43d f32e cebe d0a3 12be cedf 39be
00000070: 20de 5ebe 939a a93d ef08 063e 5d09 a4bd
00000080: 0bf5 ad3e 3b86 353e 6930 913e adc1 4cbe
00000090: 3416 083f 6f2b 6bbd 8097 043e fcf9 3ebf
000000a0: f59e a0be 8c73 c8be c15b a23e 0b8f abbe
000000b0: 57db a83e ee02 cfbe 825e 97be ea5b 45be
000000c0: 1fd8 78bf aef7 49bd 996a 72bd 9d24 643f
000000d0: 48d8 683e 6cca 0f3e 3f23 893b a511 86be
000000e0: 84c9 25bf a6a4 8ebf d5c3 8cbd 2492 65be
000000f0: f183 933e 4959 2d3f 42b9 543d e91c 1cbe
0.30209213 0.27953565 -0.09700177 0.2413146 0.028435666 0.23153651 -0.12604563 0.16306232
0.35170195 -0.020170374 0.9189767 0.06294056 0.4313346 0.340729 0.261032 -0.11592001
-0.32699922 0.060847577 -0.23534118 -0.47585297 -0.02851282 0.2900528 0.7116417 -0.14406022
0.11929783 -0.40270194 -0.14320302 -0.18151781 -0.21764421 0.08281436 0.13089345 -0.080095984
0.33976015 0.17726986 0.28357247 -0.19995756 0.5315888 -0.05741447 0.12948418 -0.74600196
-0.31371275 -0.39150655 0.31710628 -0.3350757 0.32979843 -0.40431923 -0.2956429 -0.19273344
-0.97204775 -0.04930847 -0.05918369 0.8911837 0.22738755 0.14042062 0.00418511 -0.26185337
-0.64760613 -1.1143997 -0.068732895 -0.2241903 0.288116 0.67714363 0.051934488 -0.15245403

critic.4.weight f4 [1, 64]
00000000: 13ea 423e c70d 0e3e e278 1e3f 94d2 27bf
00000010: a95b f63e ed51 063e 7516 8dbe cae6 46be
00000020: a098 663e 405d 08bf abde 343f 5d69 d03e
00000030: 39a5 4e3e c8ce 3dbe 7578 5b3e c55e 813e
00000040: 10f6 6ebe e1ad 8fbe b012 8ebe c59d 94be
00000050: 9ba9 a33e 2824 863e 35db 383e 7d5c 32be
00000060: 8252 3c3e 6c54 61be 600d 553e 441c 3fbe
00000070: 1556 99be 6780 c23e 1cec b63e 07ec 04be
00000080: 8645 133e 961d 5c3e 4773 953e b93c 06be
00000090: be28 263f a86f c1be 7692 a13e da60 fcbf
000000a0: 0a11 febd c27a 25be 03a0 4ebe a9ff 73be
000000b0: 6f5f 55be a2f3 49be 7d20 a4be 7a24 a0bf
000000c0: 99c5 f9be 18f9 a8be 17b8 053f 3902 3d3f
000000d0: a2bd aa3e e611 423e 898e c13e 2119 51be
000000e0: 28cd eebf 44ac 11bf 5fdf cabf 1e3f 26be
000000f0: 6b82 3e3e edd4 0540 fa3c 123e 1eb0 1dbf
0.19034605 0.13872443 0.619032 -0.6555569 0.48116806 0.1311719 -0.27556196 -0.19423977
0.2251916 -0.5326729 0.70652264 0.40705386 0.20180215 -0.18535912 0.2143267 0.25267616
-0.23336053 -0.28062347 -0.27748632 -0.2902662 0.31965336 0.2619946 0.18052371 -0.17418094
0.18390849 -0.2200486 0.20805883 -0.18663126 -0.29948488 0.37988588 0.35727012 -0.12980662
0.1438199 0.21495661 0.29189512 -0.13109101 0.6490592 -0.377805 0.31557053 -1.9717057
-0.12405594 -0.1616011 -0.20178227 -0.23827995 -0.20837186 -0.19721845 -0.32056037 -1.2511132
-0.48783568 -0.33002543 0.52234024 0.73831517 0.33347803 0.1895214 0.37804058 -0.20419742
-1.8656359 -0.5690348 -1.5849417 -0.16235015 0.18604438 2.091121 0.14281073 -0.6159686

actor.0.weight f4 [128, 16]
00000000: 31d8 8f3d c929 bbbe cfd2 be3e b696 203f
00000010: b550 44bf 2cd9 bb3f 1e3c b8bd 77ef 7bbe
00000020: 551b 62bf d791 4dbf b5cd 0d3f 2f5c aabe
00000030: 1668 97bd e44e c7bb 203b 8fbd fadb 68bd
00000040: d4b4 9b3e a66a bcbc 7d9b 8a3d 9be1 29bd
00000050: ee19 333e 6531 a0bf 5276 393d 0844 2b3c
00000060: 25f9 9bbf b0a1 d03f 36b1 5a3f ef13 c73e
00000070: b6b2 46bf becc e53b b40e b7bd 5ac2 973e
00000080: 6300 aa3e 8287 c5be 8bf7 ff3d 2263 cc3d
00000090: a30b 393e 3457 b93f 7b34 3fbe 13b7 f03d
000000a0: f4c4 bdbf cf8b 1d3f 9961 cbbd 4d33 71be
000000b0: e01b 6f3f 1a6c 333f 1d6e 5c3d 1f7b 8ebe
000000c0: 2e0c a33e 971c 973e c494 98bc 632d a3be
000000d0: 324f fcbf 0f21 edbf dac6 7dbc aa1d 04bd
000000e0: 3456 59be 6313 aebd e474 193e 48af 663d
000000f0: b46c 403e 809a a23e 2416 c83d 8c02 9d3c
00000100: 5b0b 0ebe 21c3 923c d602 eebc f0d5 8a3d
00000110: 4d91 08be 8fdd 4d3e 9bb5 8b3e dfb5 213e
00000120: b03c 5c40 bb75 48bd f3c0 9fbd ad9e 523d
00000130: 2f48 2cbe 186b 2ebe a04b f5bd 9527 fbbd
00000140: 82b4 963e 609b 3dbe cdc7 bd3e 4f81 0bbf
00000150: 2030 d5be 3dc7 8e3e d3d7 e13e 8f09 a8be
00000160: 4408 acbe c3f7 a53f e537 82be 840d 2ebe
00000170: d271 083f d414 903e 71cc 49be 8127 373e
00000180: 6a67 9ebc 9bb1 66be 191a 083d 973b a6be
00000190: 7c42 7d3e aebe 53bf 29d3 3e3e b135 323f
000001a0: fee3 89bc b6a5 bd3f 5d7f 68be 08db 1e3e
000001b0: fa44 ddbe e557 e6bd 06eb d43d 2b82 64bc
000001c0: a5ad 09bd 2c98 b73d 1b1b b1be 49d1 8dbe
000001d0: 0f7d 72be 599b 23bc 4781 113f cabd 93bd
000001e0: 7ad4 8b3f a2d7 ec3d b5ec af3f 875b efbe
000001f0: 51d4 8cbf d346 ddbe b826 dbbe 1e8e 373f
00000200: f241 273e 1523 34be 37d6 d93e 86b9 9cbe
00000210: 905d 95bf 750d 863f aa2a dcbc 5c9a ba3b
00000220: 6fb3 1ebe 8c1b 383f 9573 97be 5fc3 3d3d
00000230: 4c26 383f 8a5e db3e 43f7 f43e 2622 93be
00000240: 87e5 8c3d fb5d debe a1ec ccbe e557 9d3e
00000250: 30d7 70bf 6d8f 643f 4c08 863e 9193 0abd
00000260: 4e32 b03f e1f5 963f bda2 13be 34d8 1dbf
00000270: a171 013f d7a8 03bd 57a9 863e 47b5 ebbd
00000280: 30be b0bd 5220 af3d 34fa 773d 2cec 8cbe
00000290: c3c3 24ba d32e 2ec0 7f83 e0bc c163 94bc
000002a0: 8661 0c3f ed52 b13d 2dc5 5fbd 9574 d23e
000002b0: 5e73 bdbd d900 02be c13a afbe 2ed3 523d
000002c0: 7220 3b3e 57ab 033f 526c c1bd 8f4f 8ebe
000002d0: d535 f3be f0d0 163f 64f0 22bf 0720 173d
000002e0: 0c18 be3e 7379 85bf 969f 443f e7ef 73be
000002f0: bf13 f2be 8185 453d 110e bbbe 4101 c93e
00000300: ba62 a3be e409 3c3f 05a6 c73e 704e 42bf
00000310: cacf 523f 8bd2 76bf a40d 0a3d 01db c5bc
00000320: cbc9 42bd 8886 73bd 2fcf 0cbd 60c4 e7bc
00000330: f0ee 07bd 18bd 8d3d a0b6 9ebd 8859 10be
00000340: e7e2 723d c2e4 a4be 9543 d2be d45b 183f
00000350: 1aa6 813f af56 b2bf 6ce9 813c 7c3b 0fbd
00000360: 7855 253f c2df 48bf 8cda 73bf a991 9ebe
00000370: d6bf 1d3f bac6 87be fb8d ab3c fb5f e4bd
00000380: a27c 81bd 5217 2dbf 480a 873d f108 1cbe
00000390: e508 593f e5ef 5dbf 37c0 92be 6630 273f
000003a0: 04e1 c6be 32bb fd3c 0afe 34be 8cfe 7abe
000003b0: 37ba 473d 853e 59bb 0509 c43d ff26 2f3d
000003c0: 6dd2 da3e 0892 f5bc 15ee fb3e 37ba ae3d
000003d0: 282b 80bf f4f2 203f 94e4 f53e d30f 763e
000003e0: 3ced 89be 11ff f6be b4f0 703e 70e1 223f
000003f0: b6f0 c7be 0b3d febe c8d9 1e3c 60c9 503f
0.07023657 -0.36555317 0.3727021 0.62729967 -0.7668565 1.4675651 -0.089958414 -0.24603067
-0.88322955 -0.8030066 0.5539201 -0.33273456 -0.073929 -0.0060824025 -0.06993699 -0.05685041
0.30411398 -0.023000073 0.06767938 -0.04147492 0.1749036 -1.2515074 0.045278855 0.010453232
-1.2185408 1.6299343 0.8542665 0.38882396 -0.7761644 0.0070129326 -0.08938351 0.29640466
0.3320342 -0.38579947 0.12498387 0.099798456 0.18070845 1.4479737 -0.18672363 0.11753669
-1.482573 0.61541456 -0.09930725 -0.23554726 0.9340191 0.70086825 0.05381595 -0.2782831
0.3184523 0.29514 -0.018625624 -0.31870565 -1.9711668 -1.8525714 -0.015489304 -0.032254852
-0.2122429 -0.084997915 0.14985996 0.056319505 0.18791467 0.317585 0.09769848 0.019166254
-0.1387152 0.01791531 -0.029054087 0.067790866 -0.13336678 0.20104049 0.2728699 0.15792035
3.441204 -0.0489404 -0.07800474 0.051420856 -0.16824411 -0.1703304 -0.11977315 -0.12263409
0.29434592 -0.18516302 0.37066498 -0.54494184 -0.4163828 0.27886382 0.44109973 -0.32819793
-0.33600056 1.2966236 -0.2543327 -0.16997343 0.53298676 0.2814089 -0.19706894 0.17886163
-0.019336421 -0.22528689 0.033228014 -0.32467338 0.24732393 -0.8271283 0.18635239 0.69613177
-0.016832348 1.4816196 -0.22704835 0.15513241 -0.43216687 -0.11247233 0.1039639 -0.01394705
-0.033612866 0.08964571 -0.34590992 -0.27698734 -0.23680519 -0.009985768 0.56837887 -0.07213934
1.0924218 0.11564566 1.3744112 -0.46749517 -1.1002294 -0.43218097 -0.42802978 0.7170123
0.1633375 -0.17591508 0.42546245 -0.30610293 -1.1669178 1.0472857 -0.026875813 0.0056946706
-0.15498136 0.71917033 -0.2958037 0.0463289 0.71933436 0.42845565 0.47844896 -0.2873699
0.06879716 -0.43431076 -0.40024284 0.3073112 -0.9407835 0.8928135 0.26178205 -0.033832137
1.3765352 1.1793786 -0.14417548 -0.61658025 0.5056401 -0.03214344 0.2630107 -0.11509185
-0.086300254 0.085510865 0.060541347 -0.27523935 -0.0006285274 -2.721608 -0.027406452 -0.018113973
0.5483631 0.08658395 -0.0546314 0.4110457 -0.0925052 -0.12695636 -0.34224513 0.051470928
0.18274096 0.5143332 -0.094444886 -0.27795073 -0.47502008 0.58912563 -0.63648057 0.036895778
0.3712772 -1.0427688 0.7680601 -0.23821984 -0.4728069 0.048223022 -0.3653417 0.3925877
-0.3191126 0.7345259 0.3899385 -0.75900936 0.8234831 -0.96415013 0.033704415 -0.02415228
-0.047555726 -0.05945447 -0.034377273 -0.028291881 -0.033186853 0.069208324 -0.07749677 -0.14096653
0.059298422 -0.32205778 -0.41067186 0.5951512 1.0128815 -1.3932704 0.015858375 -0.034968838
0.6458354 -0.7846643 -0.9525535 -0.30970505 0.61620843 -0.26518804 0.020941725 -0.11151119
-0.063226 -0.6761371 0.06593758 -0.15237786 0.84779197 -0.86694175 -0.28662273 0.65308225
-0.38843548 0.03097305 -0.17675033 -0.24511164 0.048761573 -0.0033148837 0.09572033 0.0427618
0.42738667 -0.02997686 0.4920508 0.085316114 -1.001317 0.6287072 0.48025954 0.24029474
-0.26938808 -0.48241475 0.23529321 0.6362524 -0.39050835 -0.49655947 0.009695478 0.81557274

actor.0.bias f4 [128]
00000000: 17dd 11be 534d a83d 5243 a03e 289c 4a3e
00000010: 4d14 8ebd 8d93 d93d 596b 38bc a919 3cbe
00000020: a031 163e f1db bb3d 74e6 32bd 514a 1f3e
00000030: c657 27be 45ea a3bd e357 a1bd 8ec9 703e
00000040: ebba 523e 6935 08be 23ca 9a3e 10c5 aa3e
00000050: c64b 91bd 6bb4 e93e 80a0 60be 0f9d 5d3e
00000060: c9b5 b1be e9cb 4abe a401 4f3e a59e 0fbd
00000070: 4415 8f3d 9b71 743e 8e20 a1bd 31be 113e
00000080: 40d4 6e3d bf5b 8fbd 8c3d 24be 59f6 6c3d
00000090: 26ae ab3e 6958 b2be eb62 64be e853 ce3d
000000a0: dc79 43bc a442 3fbc 76d8 3f3d 98a5 fb3e
000000b0: 2846 cebe a266 f63e 2766 e23c ffa7 c63d
000000c0: 00bb f03d 194e 92be 4bd5 1e3e 5660 243e
000000d0: eb1e 133f 9097 8c3e 363f 803e 420f b33d
000000e0: f26d c53d dd4f 1b3c 7561 093e e6ab 133e
000000f0: 0efd 8fbe ab3b 0ebe 3e23 b33e ab3e f13d
00000100: 2234 f2bd e824 813e 1a24 e7be 113a 3c3e
00000110: 6b55 dcbe 4c93 9b3e f8d6 56be 9e1d 8cbd
00000120: 3cbb 253e 26ae 42bd 993e b63c 55d4 503d
00000130: 174f dcbc b2b5 a33d ced1 b9be c955 b23d
00000140: f509 8b3e c078 98be 7f46 83be 947a 7cbe
00000150: dde4 553e 65a7 4e3e 28f4 05be 30cc 1c3c
00000160: b2b5 bd3e 332a 773c 3945 40be 14c5 bfbd
00000170: c4a3 c4bd ef8b c63d 80e9 56bd 9ca7 b63d
00000180: 7500 a0be 5d39 efbc c40d 0abe 7244 acbd
00000190: 1454 fbbd 2759 52be c16f 53ba 76f3 2a3c
000001a0: 79af 603e e563 5e3d 43fc 82be 7eb7 9fbe
000001b0: af7f e0bd 4d11 e63d 7196 99be fc37 ccbe
000001c0: 041a 9bbd f36f a33e 8781 dd3d 5966 0fbd
000001d0: 30b3 a8bd 3bd3 b7bd bd8a 3f3e 021d 9f3c
000001e0: 655f 0ebf 3568 273c 77e6 4abe c9ba ee3c
000001f0: 849e 323c c523 9ebd bedf 9cb9 f94b c93d
-0.14244495 0.082178734 0.3130136 0.19786131 -0.06937466 0.10623846 -0.011256062 -0.18369164
0.14667368 0.0917281 -0.04367681 0.15555693 -0.16342077 -0.08003668 -0.07878091 0.23514387
0.20579116 -0.13301624 0.30232343 0.33353472 -0.07094531 0.4564546 -0.21936226 0.21641944
-0.34709004 -0.19804348 0.2021547 -0.035063405 0.06986478 0.23871462 -0.078675374 0.14232709
0.058307886 -0.06999921 -0.16039103 0.057852123 0.33531302 -0.34833077 -0.22303359 0.100745976
-0.011930909 -0.011673603 0.046837293 0.49149776 -0.402879 0.48125178 0.0276366 0.097000115
0.117544174 -0.2857521 0.15511052 0.16052374 0.5746905 0.27459383 0.25048226 0.087431446
0.09640111 0.00947949 0.13416083 0.14421043 -0.28122753 -0.13889949 0.34987825 0.11779531
-0.1182635 0.2522347 -0.4514473 0.18381526 -0.4303392 0.30385816 -0.20980442 -0.068415865
0.16184705 -0.047529362 0.022246646 0.050983746 -0.026893182 0.0799364 -0.3629288 0.087077685
0.27156034 -0.29779625 -0.25639722 -0.24656135 0.20888086 0.20181043 -0.1308142 0.0095701665
0.37052685 0.015085745 -0.18776406 -0.093637615 -0.09601548 0.09694659 -0.052468777 0.08918688
-0.3125035 -0.029202158 -0.13481814 -0.084114924 -0.12271896 -0.20541821 -0.0008065664 0.010434022
0.21941938 0.054294486 -0.25583085 -0.3119468 -0.10961854 0.112337686 -0.2999759 -0.39886463
-0.075733215 0.31921348 0.10815721 -0.035009716 -0.08237302 -0.08975836 0.18705268 0.019423012
-0.5561431 0.010217716 -0.19814478 0.0291418 0.010902051 -0.07721666 -0.0002992134 0.09828944

actor.2.weight f4 [64, 128]
00000000: 8011 22be 9f38 593d 0b6f 803e c3e2 353f
00000010: 9746 813e 023a ca3e a5ee 123f c93d bc3d
00000020: fcb9 d9bd 7c09 30bf d12c d5bd 985b d43e
00000030: cc06 f2bd 9e48 0dbf 3a42 a7be df39 ce3e
00000040: aafe 1e3f f391 103f d68f 3a3e 5b71 2f3f
00000050: 11a8 37bf 4068 ba3e 2eb1 a83e b653 493f
00000060: bb03 16bf 735c bebd 1828 083f d4d9 2c3e
00000070: 23a7 2b3d f73c 683e b139 da3d 183f 953e
00000080: dc8f 383e cff7 88bd 9a56 8a3c 6622 723e
00000090: e919 5b3f b7f4 8fbe 0421 dcbe ccae 003e
000000a0: e31c ac3e 9f1f 8e3e 119b 2bbe 2224 913e
000000b0: 08e7 a0be 7c5a 0fbe 10a2 73be 9607 043f
000000c0: d70a ae3d cc5e 0a3e 5502 a1be 9936 fbbc
000000d0: 80c8 0d3e 948c c03e a1b0 59be c655 8a3e
000000e0: b5e3 01bf 23ff 94be d382 56bd 488c 2c3e
000000f0: cd20 acbe cc61 ecbe 9277 4abf 8e6c 783e
00000100: 0c75 473e 419b 4fbe b548 3cbf 23a3 2b3f
00000110: bd23 aabf ee4a a4be 48e9 80be b277 17bf
00000120: 29c4 1b3d be0e 27bf d7e5 25be b3b6 093e
00000130: f1da 6d3e 4e07 c53e 49d9 e83e 2ffd 313e
00000140: 0378 033d 1165 a4bc 3d51 b7be be6a a43d
00000150: 3023 993f 4ee4 b13e 0be7 b3be 9b2e 473e
00000160: c094 ffbd b9f4 573e ed46 9c3e f845 4abd
00000170: 9c9e 1ebe 8fdf 8bbd de1b 64be f687 c3be
00000180: 3779 ba3e e7d6 bc3d b885 32bf 724c ea3d
00000190: b113 4fbd 02ea 4e3b fe65 b1be 85c5 23be
000001a0: f4c2 c93c cfa1 06bf e977 efbd c6a3 0fbf
000001b0: fe45 c1be c3d0 6a3e 2796 d3bc f6c5 b63e
000001c0: 75fa cfbe e743 263e 6cf9 a53e 51e3 da3e
000001d0: 5827 173f d95d babe c47c 013f 799f 603e
000001e0: b59e 0b3e 5a43 debd 9735 c7bd 7f22 a4bb
000001f0: 40a5 f93d 3c18 26be 8327 21bf f698 e9b8
00000200: 014a 02bf 6afb 7abe f1c0 19bf 6928 b6bc
00000210: ca31 8dbd e161 d23e 8025 a33c a9d3 573d
00000220: 9727 673d cc45 863e 3bc3 6b3e b0f9 ea3e
00000230: 0b1b 8ebc c563 6e3e 21ac 0c3f 6ba6 413e
00000240: 0984 803f ca74 80be 7c37 5b3d ec6a 99bd
00000250: 4b5e 2ebf 95a3 9e3e 65fa c1be 9126 9d3e
00000260: 953e f33d df57 39bf e922 023f a1df 213c
00000270: d910 00bd d3e2 953e 240f a1be dfe3 0b3f
00000280: 541b cdbe 47c1 2a3e 055b 6ebd 7431 213c
00000290: d48e 133f 64c1 90bd 6fd6 df3e bb8f 9fbe
000002a0: bdb6 e13e 3308 9b3e 0629 82be 1894 fa3e
000002b0: 8e2f f6bd 3a11 a93d 3f64 0b3f 0e70 28bc
000002c0: 6a28 0c3e cac6 b03e 8f36 7a3d 264c 1c3e
000002d0: 3c0a febb 33a1 3bbd 5f12 efbe 880b 5d3e
000002e0: 6c94 6dbd 5b72 b7be aa26 bebd 14bb 14bf
000002f0: 64ab d63e 7c56 b93c 2673 62be 84fd 7bbe
00000300: 5ca3 b3be fcb2 35be adf2 383e 7509 273f
00000310: f3b3 73bf 12b2 63be e817 b4bf b154 8ebe
00000320: 5d5e 373e 3c28 d43e 2456 1abf 6b8e afbd
00000330: 1fdf d0be e455 973e de99 6d3d 7fdc 853e
00000340: fed5 2dbe 5dfc 673d 9a2f c3bd 76be 8dbe
00000350: 5e33 523f 6d03 213e 6e40 80be 4cd7 54be
00000360: d051 6fbd 4273 3fbf c241 37bf a710 7b3d
00000370: 86c5 82be 604a 72be 2734 adbe a5ed 7dbe
00000380: fb30 003e c9e5 96be a199 15bf 130c 26be
00000390: 2160 d8be 4737 1cbf 0f9f 92be 3abe 37bf
000003a0: bf86 8d3e b66e ffbd 9e7c f13e bff7 19be
000003b0: 899b e1be c693 f13e db0c 8bbc 0e3e 5cbe
000003c0: 6c76 b4bd fb3e c0be 0184 1c3f 53bd 81bd
000003d0: 8b55 b73e 5634 653e 0a6c 7f3f adba 383e
000003e0: fb56 86be d96e 91be 1f47 28bd decb e13e
000003f0: 4321 b8be 7393 3bbf 504a 77bd caea b2bc
-0.15826988 0.053032514 0.2508472 0.71049136 0.25249168 0.3949738 0.5739539 0.09191472
-0.10631177 -0.6876447 -0.10408939 0.4147613 -0.11817703 -0.5518893 -0.32667714 0.40278527
0.62107337 0.564727 0.18218932 0.6853234 -0.71740824 0.3640766 0.32947677 0.7864336
-0.5859944 -0.09294977 0.5318618 0.1687997 0.04190744 0.22679506 0.10655535 0.291497
0.18023628 -0.06687891 0.016886998 0.23645934 0.8558641 -0.2811639 -0.4299394 0.1256668
0.3361579 0.277585 -0.16758372 0.2834788 -0.31426263 -0.13999361 -0.2379229 0.51574075
0.08498161 0.13512725 -0.31447092 -0.030665683 0.13846016 0.37607253 -0.21258785 0.27018565
-0.5073808 -0.29100904 -0.052370857 0.16850388 -0.33618775 -0.46168363 -0.790887 0.2426016
0.19478244 -0.20274068 -0.7354844 0.670458 -1.3292156 -0.32088417 -0.2517798 -0.59167016
0.03802887 -0.6525687 -0.16200958 0.134486 0.23228051 0.38482136 0.45478275 0.17381738
0.032096874 -0.020067723 -0.35804167 0.08028172 1.1963863 0.34744495 -0.3513721 0.19451372
-0.12479544 0.21089448 0.30522862 -0.049383134 -0.15490192 -0.0682975 -0.22276255 -0.38189667
0.36420605 0.09220677 -0.6973529 0.11440362 -0.05055589 0.0031572585 -0.34648126 -0.15993316
0.024629094 -0.5259065 -0.11692793 -0.56109273 -0.37748712 0.22931199 -0.025828434 0.35697907
-0.4062077 0.1623684 0.32416856 0.42751554 0.5904441 -0.36399725 0.50581 0.21935834
0.1363476 -0.1085269 -0.09727018 -0.005008995 0.12189722 -0.16220182 -0.62950915 -0.00011138797
-0.5089417 -0.2450997 -0.6006003 -0.022236066 -0.06894262 0.410903 0.019915342 0.05269209
0.05643424 0.26225126 0.23023693 0.4589362 -0.01734688 0.23280247 0.5495015 0.1891114
1.0040294 -0.25089103 0.05351971 -0.07491097 -0.6811263 0.30984178 -0.37886348 0.30693486
0.11877171 -0.72399706 0.5083452 0.009879977 -0.031266067 0.29274616 -0.31456864 0.5464458
-0.40059912 0.16675292 -0.05819227 0.009838451 0.57639813 -0.07068136 0.43718287 -0.31164345
0.4408473 0.30279693 -0.25421923 0.48941112 -0.12020789 0.08255239 0.5444984 -0.010280622
0.13687292 0.34526664 0.061087187 0.15263423 -0.007752685 -0.04580803 -0.46693704 0.2158643
-0.058002874 -0.35829434 -0.09284718 -0.5809796 0.41927636 0.022624247 -0.22114238 -0.24608427
-0.3508557 -0.17744058 0.18061323 0.65248805 -0.95196456 -0.22235897 -1.4069796 -0.2779899
0.1790709 0.41436946 -0.6028769 -0.08572086 -0.40795228 0.29557717 0.058008067 0.26144788
-0.16976163 0.056637157 -0.09530564 -0.27684373 0.8210963 0.15723963 -0.25049156 -0.20785254
-0.05842763 -0.74785244 -0.71584713 0.061295178 -0.25541323 -0.23661184 -0.33828852 -0.24797685
0.12518685 -0.29472187 -0.58437544 -0.16215543 -0.4226084 -0.61021847 -0.28636977 -0.7177464
0.27641866 -0.12472288 0.47165388 -0.15035914 -0.44063976 0.47183055 -0.016973903 -0.21508047
-0.0881165 -0.3754805 0.6113892 -0.06334939 0.35807452 0.22383246 0.9977423 0.18039961
-0.26238236 -0.28404883 -0.04108345 0.4410085 -0.35962877 -0.73271865 -0.060373604 -0.021840472

actor.2.bias f4 [64]
00000000: e172 a33e 7806 883d 1b49 71be c466 9ebc
00000010: dc93 0b3e fcb8 86bd e711 153e 2256 243f
00000020: 1b7b 513d 19ac 283e b0f2 c6be 32d8 ab3e
00000030: aeba 0ebe 4e26 8bbe ff11 ba3e 96d2 e2be
00000040: 4ce6 343e 1a75 363e 67e9 403e f785 86be
00000050: 16ee c33e 2649 0abe 1cb0 c43d f071 b03e
00000060: 7e99 9d3c ecf1 57be 2dd7 493e e31b a2be
00000070: 5845 263e 452d abbe 9f7d 08bf 85c0 0bbd
00000080: 48c5 dc3e 30a4 2ebe 82d9 b3bd a982 5e3e
00000090: 6f15 f8bd fbc0 85be bb4d fcbd 7897 30bd
000000a0: 6376 0bbd 0621 90be 605c 9fbe e9dd 163e
000000b0: 93b3 9bbe f294 dc3d e131 19be 304c 083f
000000c0: 5b2e c6be 82c7 f73d 2a8d 01bf ad88 da3d
000000d0: de36 283e 6be6 5bbe 0015 26be 2ff2 4e3d
000000e0: 7253 6bbe 0472 e93e 353b d1be 0c2a dcbe
000000f0: 8718 5fbc 6f64 ee3a 3e30 6f3d c512 09be
0.31923583 0.06641859 -0.23563044 -0.019336112 0.13630623 -0.06578252 0.1455761 0.6419393
0.051142793 0.164719 -0.3885703 0.3356338 -0.139384 -0.27177662 0.36341855 -0.4430129
0.17665976 0.17818108 0.18839036 -0.26274082 0.38267583 -0.13504466 0.09603903 0.34461927
0.01923823 -0.2108838 0.1971099 -0.316619 0.1623739 -0.33432975 -0.5331668 -0.034119148
0.43119264 -0.1705482 -0.08781721 0.2172953 -0.12113463 -0.26123795 -0.123195134 -0.0431132
-0.03404845 -0.28150195 -0.31125164 0.1473309 -0.30410442 0.107705966 -0.14960434 0.5324125
-0.3870724 0.120986 -0.50606024 0.106706 0.1642718 -0.21474616 -0.16218948 0.050523933
-0.2298105 0.455948 -0.40865484 -0.4300083 -0.013616688 0.001818789 0.058395617 -0.13386066

actor.4.weight f4 [9, 64]
00000000: e68c 8b3d c4f0 5fbd 8db3 ee3c b661 8c3c
00000010: 6178 7ebe 2c1b 8abc b1e8 a4bd 35e7 9e3e
00000020: 29be b1bc 6925 993c 958d 86be db7d 63bd
00000030: 4666 803d 5eb8 973d 8714 c4bd 7357 c03d
00000040: 6c99 18bf b89a 0bbe 92b5 dc3c cc44 53bd
00000050: 6c2d b9bd 20f7 a3bd fd05 4e3c c4fd 46bc
00000060: 83bb 913d 3011 b33d 67df f73c 8df0 60bd
00000070: 9091 2ebd 16c6 553e 1c6d b7be 110c a83d
00000080: 143a 6e3f 075e 3ebd 41e1 27bd 5306 0f3e
00000090: 6515 553d 101a 923d a4dc 283c 775d 523c
000000a0: 3931 73bc 7755 d83d 7626 83bd 2062 bfbd
000000b0: 9b34 313e 218a 13bd e7eb 5a3c 73e0 6bbe
000000c0: 39fb cabe d1d3 ac3d 35c7 31bf 4127 433d
000000d0: a00f 0c3e daab 143c 8820 9fbc c96c 1fbe
000000e0: 7ca0 c83d 9a52 16be 21a9 8b3e 6a8f 243e
000000f0: 08d9 fc3c 04bf d0bc 93fc 603c 401f e63c
00000100: ee18 edbc 4638 39bb 3135 6f3c 8299 7ebd
00000110: 2a73 5d3f 6b49 873e 04b6 933e 9f6d 793f
00000120: 5437 c53c a1e8 aebb e2a1 5c3f 0f8e 02be
00000130: ecd5 b23e 8821 d739 d201 653c 6373 11bf
00000140: fe73 50be e5c7 debd bce3 1b3d f82d 52bd
00000150: a061 8c3f 566b e03e 117b a2be 0634 693d
00000160: fe54 083d b3af d73d 5dfd 23be ecee 30bd
00000170: a850 14bf 33e5 e73e 5ae5 49bf 6da4 e4be
00000180: 1b40 c7bf 7453 4cbd 26a0 5f3d 8893 ec3d
00000190: d2e1 cdbe d1c2 b23e 534c e13c 9159 93bd
000001a0: e800 0cbe d025 9dbd 1cf6 41bd df02 a73e
000001b0: 3a71 11be 0303 f93e 6680 853d 4304 48bf
000001c0: c1ef b3bf 20ba 80be 3e89 aa3f c5f1 82bd
000001d0: aace cabe b5b7 1abd 72af 893d 0a64 ef3e
000001e0: 0b93 d1be 4e4a ae3e c64d 88be 668e 993f
000001f0: c729 c23d 3f58 823e ca79 8fbd c77e 51bc
00000200: 495b 003c 20b6 b93d e33f ebbc 992a 4e3d
00000210: 0c54 03bf 9c3f 9fbe c075 46be 0493 9cbf
00000220: ebd0 05bc 4bf0 413d aed5 19bf e99c 5a3e
00000230: f9ee fcbe 0729 18be a993 083e 0c84 bb3e
00000240: 7608 4e3f cbbb 973e aad7 4ebd 05b7 b13d
00000250: 2793 67bf 7c06 a5be 72c7 ac3e 0928 0d3d
00000260: 51a3 e4bd 0636 75be 6f53 f53d 4f67 4f3d
00000270: 3543 0e3f d1d7 38bf 8625 8b3f bb19 a93e
00000280: e57d 153f 66b3 a13d 0e36 123c cb1d 45be
00000290: 8145 943e 55c8 f4be 8452 c0bd ed77 953d
000002a0: 1cc3 f33d 67ea 6cbd 6148 9d3d bb9b 7fbe
000002b0: 99c8 9ebd 7ad4 d9be c9ac 02be c2d3 883f
000002c0: a8ec e33f 3a2f 263e 3a4e 20bf 9956 2d3c
000002d0: 5eb2 6c3e f06e 873c 822e 44bd a27a 83be
000002e0: 18f6 813e 04d2 12be a251 b9bd 4813 b5bf
000002f0: 7d29 11be a8ae 5dbe 8dfa c23d 6810 bdbc
00000300: b2bc 43bb d989 7f3d 51d0 833b 962a 47bd
00000310: bbe3 fb3d 9da7 063e d933 863b c5c5 ac3d
00000320: c75a 743d 182a 37be a3b1 2dbe eeef 293e
00000330: 4c2a c73d 494a a03e 1614 4d3e a442 1dbe
00000340: b387 303e 0dd8 abbe 6b1e 4d3d 4373 38bc
00000350: 1623 123f 3e83 b8bd 8943 0ebe 535c 39bd
00000360: 62d8 5a3d 468e 4d3d d274 e53d eaed 93be
00000370: 4587 f9bd a42a 0bbe 75f9 8b3d b7c6 0f3c
00000380: 64a8 25bd 8bb1 51bc 1ac9 633b 6ffc 80be
00000390: 7f9c 9d3d 04d4 07bc 8c7f 54be e865 0d3d
000003a0: 9e5f a1bd 976f bcbc 9787 a53d e18e 36bd
000003b0: 6732 dd3c 25ee 2a3c 3d5c 2bbe a155 82bc
000003c0: 8f86 7b3c 5819 0a3d b8cd 0dbd 2fd4 7d3d
000003d0: e2d7 353d 7915 05bc 86d6 e63c f289 ba3d
000003e0: c899 30bd 9967 9cbd 5fa0 55be 00f2 983d
000003f0: 389c 933c 48ff e33b a2df b3b5 9384 063d
0.068139836 -0.05467297 0.02913835 0.017136436 -0.24850608 -0.01685866 -0.08052195 0.31035772
-0.02169712 0.018694596 -0.26279894 -0.055539947 0.06269507 0.07408212 -0.09574228 0.093916796
-0.59609103 -0.1363324 0.026942048 -0.05157928 -0.09041867 -0.0800612 0.01257467 -0.012145463
0.07115843 0.08743513 0.030257894 -0.054916907 -0.042619288 0.20876345 -0.3582543 0.082054265
0.9305737 -0.04647639 -0.040986303 0.13967256 0.052022357 0.07133877 0.010306511 0.012839667
-0.014843279 0.10563176 -0.0640382 -0.09344888 0.17305224 -0.036020402 0.013361908 -0.2303484
-0.39644793 0.08438838 -0.6944459 0.047644857 0.13677835 0.009074176 -0.019424692 -0.15568842
0.09796235 -0.14679947 0.27277473 0.16070333 0.030865207 -0.025481708 0.013732093 0.028091073
-0.028942551 -0.0028262301 0.014600084 -0.062158115 0.8650385 0.264232 0.28849804 0.97432894
0.024074234 -0.00533779 0.86184514 -0.12749504 0.34928834 0.00041032978 0.013977485 -0.5681669
-0.20356748 -0.108779706 0.03805898 -0.05131337 1.0967293 0.4383189 -0.31734517 0.05693438
0.03328418 0.10531559 -0.16014619 -0.043196604 -0.5793557 0.45292053 -0.7886559 -0.44656697
-1.5566438 -0.049884275 0.05459609 0.11551577 -0.4021135 0.34914258 0.027502215 -0.07194818
-0.1367222 -0.07673228 -0.04735385 0.32619378 -0.14203349 0.4863511 0.06518631 -0.781315
-1.4057542 -0.25142002 1.3323133 -0.0639377 -0.39610797 -0.037772853 0.06722917 0.4675601
-0.40932497 0.34041065 -0.26621836 1.1996582 0.09480625 0.2545795 -0.07005651 -0.012786574
0.007834264 0.09067941 -0.028716987 0.050333593 -0.5130012 -0.31103218 -0.19380856 -1.2232366
-0.008167486 0.0473483 -0.60091674 0.21348919 -0.49401072 -0.148594 0.13337578 0.3662418
0.8048166 0.29635462 -0.050498642 0.08677486 -0.9045891 -0.3223151 0.33745915 0.03446201
-0.11163963 -0.2394639 0.11978804 0.050635632 0.555713 -0.7220431 1.0870826 0.33027443
0.58395225 0.07895546 0.00892402 -0.19249646 0.28959277 -0.4780909 -0.093907386 0.07298265
0.119024485 -0.05784073 0.07679821 -0.2496175 -0.07753105 -0.4254492 -0.12761225 1.0689623
1.7806597 0.16228953 -0.62619364 0.0105797285 0.23114917 0.016532391 -0.047895916 -0.256795
0.25383067 -0.14337927 -0.09048773 -1.4146509 -0.14175983 -0.21648657 0.09520445 -0.023079112
-0.002986711 0.06238732 0.004022636 -0.048624597 0.122992955 0.13149877 0.004095536 0.08436159
0.059656885 -0.17887151 -0.16962294 0.16595432 0.09724864 0.31306675 0.20027193 -0.15357453
0.17239265 -0.3356327 0.050077837 -0.011257949 0.57084787 -0.090094075 -0.1389295 -0.045254063
0.053429015 0.05018451 0.11203922 -0.28892452 -0.12184004 -0.13590485 0.068346895 0.008775405
-0.040443793 -0.012798677 0.0034757317 -0.25192592 0.07695865 -0.008290295 -0.2075178 0.034521013
-0.07879566 -0.023002429 0.08082502 -0.044569854 0.027001573 0.010432755 -0.16734405 -0.015909972
0.0153519055 0.033715576 -0.034620017 0.061969932 0.044395335 -0.008122795 0.028178465 0.09108342
-0.043115407 -0.07636947 -0.20861958 0.07468033 0.018018827 0.006957922 -1.3401625e-06 0.032841276

actor.4.bias f4 [9]
00000000: c678 78bf ed08 163f e871 0a3f 1721 6cbd
00000010: c7ce 8e3c b072 d43d 585d ec3c 071a 543c
00000020: 1381 003d
-0.97059286 0.5860737 0.5408006 -0.057648744 0.017432583 0.103734374 0.028853104 0.0129456585
0.031373095
