Plotting/saliencies_live/Multi_Pong/Sequence_Length_2/multi_pong_2__1__1721945456_checkpoint_2584.pt (torch, 89074 bytes, 11 tensors)

critic.0.weight f4 [128, 12]
0	0x3e64753a	0.22310343
1	0x3d121992	0.035668917
2	0x3ea0d761	0.3141432
3	0x3d0a6241	0.03378511
4	0x3c85313e	0.016258832
5	0x3e49e057	0.19714485
6	0xbfea5bea	-1.83093
7	0x4013df35	2.3104985
8	0x3d6b593d	0.05745815
9	0x3e156b26	0.14591655
10	0xbec58d08	-0.3858416
11	0x4008b4ad	2.1360276
12	0x3cbac8c9	0.02280082
13	0x3bf4d073	0.007471138
14	0xbda26f6f	-0.079314105
15	0xbb1e8119	-0.0024185835
16	0xbd2fef57	-0.04295286
17	0xbc3e0bfc	-0.011599537
18	0xbf47d08d	-0.780526
19	0x3dd02f51	0.10165275
20	0xbd9a1e31	-0.0752529
21	0x3e1f0c24	0.15531975
22	0xc0142098	-2.3144894
23	0x40619e4c	3.5252867
24	0x3be8412c	0.007087847
25	0x3ec85bed	0.39132634
26	0xbe61361b	-0.21993296
27	0xbeb7cde9	-0.35899284
28	0x3d504af2	0.050852723
29	0xbb9ba240	-0.0047495663
30	0x3dc2f5a7	0.09519511
31	0x3b06b0d1	0.0020552168
32	0x3cc06e3c	0.023490064
33	0xbc0f8583	-0.008759859
34	0x3e28ec8c	0.16496485
35	0x3cff5005	0.031166086
36	0x3f1483c7	0.58013576
37	0xbe98e4fc	-0.298622
38	0x3f25a333	0.6470215
39	0xbe447ae3	-0.19187503
40	0x3afe4e22	0.0019401948
41	0x3c3d6fc3	0.011562291
42	0xbd5d191b	-0.05397902
43	0x3c46adbf	0.012126385
44	0xbf852b4a	-1.0403836
45	0x3ee4c179	0.44678858
46	0xbfe69fb5	-1.8017489
47	0x3ee85c08	0.45382714
48	0xbdc7f5b7	-0.09763663
49	0x3c367629	0.01113657
50	0xbb32c6d4	-0.0027279155
51	0x3ac35fef	0.001490591
52	0x3d08a0a1	0.033356313
53	0x3c2fcdaf	0.010730191
54	0x3e7f25e9	0.24916805
55	0x3daa7718	0.083234966
56	0x3d0c5fb3	0.034270953
57	0x3da7adb0	0.08187425
58	0x3fa7338a	1.3062603
59	0x40034388	2.0509968
60	0xbd9988f4	-0.07496825
61	0xbd2fde9a	-0.0429369
62	0xbe3df435	-0.18550189
63	0xbd19a34e	-0.037509255
64	0xbeabd12a	-0.33558017
65	0xbec43d4a	-0.3832801
66	0xc020ea9e	-2.51432
67	0xc0630758	-3.5473232
68	0x3ca2053b	0.019777885
69	0x3d0a2e9c	0.033735856
70	0xbe221328	-0.1582762
71	0xbca707ca	-0.020389456
72	0x3e3cf32c	0.18452138
73	0x3c4a6721	0.012353689
74	0xbda37233	-0.07980766
75	0x3bbc7b01	0.005751968
76	0x3e097581	0.1342373
77	0xbe01f524	-0.1269117
78	0x40667820	3.6010818
79	0xc065bb9e	-3.5895762
80	0xbcb4e57e	-0.022082087
81	0xba98b22b	-0.0011649778
82	0xbe2c4943	-0.16824822
83	0x3ba2c9ff	0.0049679275
84	0xbd16a88c	-0.036781833
85	0xbbbbcc75	-0.0057311603
86	0xbd05b37f	-0.032641884
87	0x3bde5c07	0.006785873
88	0xbc89ad79	-0.016806351
89	0x3bcef8e9	0.0063162935
90	0xbdccad39	-0.09993977
91	0x3dd67ca4	0.10472992
92	0xbd90c470	-0.070687175
93	0x3d7b6e79	0.06138465
94	0xc00461ce	-2.0684695
95	0x408584fd	4.172484
96	0xbeb71394	-0.35757124
97	0xbb4b40c0	-0.0031013936
98	0xbe25b3f6	-0.16181931
99	0xbc643d6b	-0.013930659
100	0xbe035766	-0.12826309
101	0xbb130484	-0.0022433111
102	0xc05d7151	-3.4600413
103	0x3cd420a7	0.025894476
104	0xbde0c164	-0.10974386
105	0x3b05b69b	0.002040303
106	0x3f307474	0.68927693
107	0xbc12e8fb	-0.00896668
108	0xbe76c901	-0.24100114
109	0xbea0bea7	-0.31395456
110	0xbedc5104	-0.4303056
111	0x3d7d15a7	0.061788227
112	0x3d3e99b3	0.046533298
113	0xbd1d4b41	-0.038401846
114	0xbea94ea2	-0.33067805
115	0x3e4f9423	0.20271353
116	0x3eba386a	0.36371166
117	0x3e3a0026	0.18164119
118	0x4006ba81	2.1051333
119	0x3fb4114d	1.406778
120	0x3dd64027	0.10461455
121	0x3b3d88ce	0.0028920653
122	0x3e4023b4	0.1876362
123	0x3c0d4cba	0.00862425
124	0x3c3de7b7	0.01159089
125	0x3bf81176	0.007570441
126	0x3d9dd994	0.07707515
127	0x3cf9b0a9	0.030479746
128	0x3c8f0a59	0.017460989
129	0xbcd9e338	-0.026597604
130	0x402d6a9c	2.709632
131	0xbf530a82	-0.8243791
132	0xbe6b2abe	-0.22965524
133	0x3c28f5cd	0.01031251
134	0x3d745a3d	0.05965637
135	0x3b8e00b8	0.004333582
136	0xbc739fe0	-0.01486966
137	0xbd1628f1	-0.03666014
138	0xbfcfcfb2	-1.6235259
139	0xbfc424f9	-1.5323783
140	0xbd0e56ea	-0.034750856
141	0x3caca879	0.021076428
142	0xbfd7ad9e	-1.6849859
143	0x3f1bca40	0.60855484
144	0x3e2d3293	0.16913824
145	0xbbdb792f	-0.006697796
146	0x3c1cc194	0.009567637
147	0xba208132	-0.0006122767
148	0x3d21f128	0.039536625
149	0x3c8886cc	0.016665839
150	0x3f83d9e7	1.0300874
151	0x3ef1e4d0	0.47244883
152	0xbdca1ef4	-0.09869185
153	0xbcc07a31	-0.023495765
154	0xbfb2ffe0	-1.3984337
155	0xbfd765c5	-1.6827933
156	0x3ccee8b4	0.025257446
157	0xba73d7ef	-0.0009301891
158	0x3d711d6b	0.058865946
159	0xbbb59c79	-0.0055423346
160	0x3d6479a8	0.055780083
161	0x3b69a748	0.0035652686
162	0x3f0106c1	0.5040093
163	0x3e7d1fcd	0.24719162
164	0x3e055d77	0.13023935
165	0xbc5635fd	-0.013074395
166	0x4039a031	2.9004023
167	0xbcd2a6b4	-0.025714256
168	0x3dc90de5	0.09817103
169	0x3c3f54e3	0.011677953
170	0x3c096a06	0.008387094
171	0x3ca18854	0.019718327
172	0xbb8064ab	-0.0039182506
173	0x3e57d1dc	0.21076149
174	0x3dc8f1e6	0.098117635
175	0x407f1a3c	3.9859762
176	0xbcfda9f7	-0.030964835
177	0xbe506171	-0.20349671
178	0xbe9df5af	-0.30851504
179	0xc06806f5	-3.6254246
180	0x3e717b89	0.23582281
181	0xbd834e89	-0.06411464
182	0x3e8d80d1	0.27637342
183	0xbda4a4ed	-0.080392696
184	0x3d6704c6	0.056401037
185	0xbcaed8cc	-0.021343611
186	0xbf21752b	-0.6306941
187	0x3f56be8d	0.8388451
188	0xbe18a2bb	-0.14905827
189	0x3d55bdb8	0.052182883
190	0xbfc285cc	-1.5197082
191	0xbf823d70	-1.0174999
192	0x3ea9d625	0.33171192
193	0x3cb415f4	0.021983124
194	0x3cc0fc47	0.023557795
195	0x3c1b7771	0.009488926
196	0x3dea40e7	0.114381604
197	0xbdacb968	-0.08433801
198	0x3f6aed8e	0.9176873
199	0xc01a368d	-2.4095795
200	0x3ce4477c	0.027866118
201	0x3d8c3af9	0.06847186
202	0xbddf52d1	-0.10904468
203	0x3f94b60f	1.161806
204	0x3cd8b26a	0.026452262
205	0x3c02ce12	0.007983701
206	0xbd941c62	-0.07231976
207	0x3bbc7621	0.0057513868
208	0xbd4c9696	-0.049948297
209	0x3dce3526	0.10068731
210	0xbed902ca	-0.4238494
211	0x3e207936	0.15671238
212	0xbd53f940	-0.051751375
213	0xbe13028a	-0.14356437
214	0xbffd11f4	-1.9771104
215	0xbf0b3a8b	-0.54386204
216	0x3d713295	0.05888613
217	0xb90de143	-0.00013530724
218	0x3d5a1325	0.053240914
219	0xbc9777fc	-0.01848983
220	0x3c15df90	0.00914754
221	0xbec7b5c6	-0.3900587
222	0x3ba80e29	0.005128641
223	0xc02d11da	-2.7042146
224	0xbc9ad08c	-0.018898271
225	0x3ebe489b	0.3716477
226	0xbcb090bc	-0.02155339
227	0x4032573a	2.786574
228	0x3dbc8d5a	0.09206648
229	0xb9d70ae2	-0.00041016104
230	0xbdc9fc4a	-0.098625734
231	0x3b609267	0.003426695
232	0xbc5fc028	-0.013656653
233	0x3a82fea6	0.0009994104
234	0xbc8d0494	-0.017214097
235	0xbd5b924f	-0.053606328
236	0x3d899b57	0.06719082
237	0xbd4331b2	-0.047654815
238	0x40887b91	4.265084
239	0xc079edc6	-3.9051375
240	0xbe8ac3af	-0.2710242
241	0x3c84a982	0.016194109
242	0x3e258620	0.16164446
243	0xbc10579f	-0.008809953
244	0xbe2705b1	-0.16310765
245	0x3b21aff8	0.0024671536
246	0xbf1e1e30	-0.6176481
247	0xbe3e3d8f	-0.1857817
248	0x3e4074ba	0.18794528
249	0x3cc451a4	0.02396471
250	0x408c21fa	4.3791475
251	0xbe04ac47	-0.12956344
252	0xbd5744c5	-0.052555818
253	0x3cee2132	0.029068563
254	0xbe3bf599	-0.18355407
255	0xbc4aff3b	-0.012389953

critic.0.bias f4 [128]
0	0x3db19dbf	0.08672666
1	0x3d59b275	0.053148706
2	0xbbf2ed66	-0.007413554
3	0x3f059290	0.5217676
4	0xbd81f685	-0.06345848
5	0xbdf4a8c1	-0.1194625
6	0x3df8f119	0.12155361
7	0xbd7346f8	-0.059393853
8	0xbdaf4bf5	-0.085594095
9	0xbe97893d	-0.29596892
10	0xbd3c0e81	-0.04591227
11	0xbcde931a	-0.027169753
12	0x3c912282	0.01771665
13	0x3c76b0d0	0.015056804
14	0x3bec3d0e	0.0072094267
15	0x3e87b0a4	0.26501954
16	0x3dae1fc1	0.0850215
17	0x3c06b0b7	0.008220843
18	0xbd768c5b	-0.060192447
19	0xbbd24302	-0.0064166794
20	0x3cad0085	0.021118412
21	0x3c07c18b	0.00828589
22	0x3b873bb2	0.0041269893
23	0xbe787489	-0.24263205
24	0xbf3fce82	-0.7492448
25	0x3dd7a252	0.10529007
26	0xbd8bf3dc	-0.06833622
27	0x3f822e37	1.0170354
28	0x3db95b93	0.090506695
29	0x3e10a5bd	0.14125724
30	0x3ee7325a	0.45155603
31	0x3c9c83bf	0.01910579
32	0xbc943d6c	-0.018095694
33	0x3d01757e	0.03160619
34	0xbc4f89a5	-0.012667094
35	0xbc9a4a22	-0.018834177
36	0xbdb1fb81	-0.08690549
37	0xbdc5403f	-0.096313946
38	0xbddc53ca	-0.10758169
39	0xbe809c52	-0.25119263
40	0x3d72dfd3	0.059295487
41	0xbd43a38d	-0.047763396
42	0x3d6ea7fe	0.05826568
43	0xbc471394	-0.012150664
44	0xbe09a4b5	-0.13441737
45	0xbd71c7c7	-0.059028413
46	0x3ead065c	0.33793914
47	0xbcd3a261	-0.025834264
48	0xbc9f73d6	-0.019464415
49	0x3b2fc7df	0.0026822013
50	0x3c10ab2c	0.008829873
51	0x3da9f94d	0.082995035
52	0xbdd357dd	-0.10319493
53	0x3dbcc105	0.09216503
54	0xbbabe48b	-0.0052457503
55	0xbd5c0a0f	-0.05372053
56	0x3dadcf7e	0.084868416
57	0x3d12a02f	0.035797294
58	0x3b0df39e	0.00216601
59	0x3cc30f3c	0.023810975
60	0xbdabfa51	-0.083973534
61	0xbcf3ba72	-0.02975199
62	0xbd78ada9	-0.06071249
63	0xbdda9fc0	-0.10675001
64	0xbc2356ba	-0.009969408
65	0x3e4336a8	0.19063818
66	0x3da11dbf	0.07867002
67	0x3c58a1ee	0.013222201
68	0xbc1c41d8	-0.009537183
69	0xbebb2739	-0.36553362
70	0xbd0a163e	-0.033712618
71	0x3c7355eb	0.014852027
72	0x3bc1a1eb	0.0059091947
73	0xbd4b4c62	-0.04963339
74	0xbd03c39c	-0.03216897
75	0xbd36419f	-0.044496175
76	0xbd52a6fe	-0.051428787
77	0x3cd5cd20	0.026098788
78	0x3e17779b	0.1479172
79	0xbd566da8	-0.05235067
80	0xbca72327	-0.020402504
81	0xbd8da457	-0.06916111
82	0x3de00cbb	0.10939928
83	0xbb963088	-0.004583422
84	0x3dfb8152	0.12280525
85	0x3d533635	0.051565368
86	0xbe811a39	-0.2521532
87	0xbd73b60c	-0.059499785
88	0xbe6ddfe0	-0.23229933
89	0xbd9488d1	-0.07252658
90	0xbcf07c91	-0.029356273
91	0xbcd98199	-0.026551055
92	0xbd45bd15	-0.048276026
93	0x3d0d037e	0.03442716
94	0x3d9e1ec3	0.07720711
95	0xbd765777	-0.060142007
96	0xbd233510	-0.039845526
97	0x3f320a4b	0.69546956
98	0x3d8f8c4a	0.0700918
99	0xbd3c01b4	-0.04590006
100	0xbd3c73ec	-0.04600899
101	0x3ce1fc7b	0.027586212
102	0xbe375790	-0.17904496
103	0xbd60e486	-0.054905437
104	0xbf04c9ef	-0.51870626
105	0xbd2e959a	-0.04262314
106	0xbc2f5d96	-0.010703465
107	0xbe0463a8	-0.12928641
108	0x3ce1496b	0.027500829
109	0xbc850e75	-0.016242245
110	0x3e863987	0.26215765
111	0xbd68d64f	-0.056845006
112	0x3be7fe19	0.0070798513
113	0x3a23598a	0.0006231299
114	0xbe874a02	-0.2642365
115	0x3da78ede	0.08181547
116	0x3ed86475	0.42264143
117	0x3da77958	0.08177441
118	0x3cb35c29	0.021894531
119	0x3dad7af7	0.08470719
120	0x3d992264	0.074772626
121	0xbe83bd27	-0.2573025
122	0xbdf86841	-0.1212926
123	0xbda7a5ea	-0.081859425
124	0x3d587c3d	0.052852858
125	0x3d38ff4a	0.045165338
126	0xbe1ed41b	-0.155106
127	0x3e12a887	0.143221

critic.2.weight f4 [64, 128]
0	0x3d01ea0e	0.031717353
1	0x3e060acd	0.13090058
2	0x3e10059e	0.14064643
3	0x3dc055ee	0.0939139
4	0xbf2ff803	-0.6873781
5	0xbdad5566	-0.08463554
6	0x3eab55af	0.3346381
7	0x3e853364	0.2601577
8	0x3e563f07	0.2092248
9	0xb968f9c5	-0.0002221829
10	0xbdadb5fe	-0.08481978
11	0x3e8a8a80	0.27058792
12	0xbe7351a1	-0.23761608
13	0x3e2c8f63	0.16851573
14	0xbd8f8ff1	-0.070098765
15	0x3e434afa	0.1907157
16	0x3e2fa82e	0.17153999
17	0x3e4f8fcf	0.20269702
18	0x3df4f8e9	0.11961538
19	0xbf8b4e4c	-1.0883269
20	0x3db3d8ac	0.08781561
21	0xbc8ee29f	-0.017442046
22	0xbef88396	-0.48537892
23	0x3d85a0b9	0.06524796
24	0xbe216e54	-0.15764743
25	0x3f216e6b	0.6305911
26	0xbe6146d9	-0.21999682
27	0xbd75323f	-0.05986237
28	0x3e863949	0.2621558
29	0xbd3eb05c	-0.04655491
30	0x3dc0274b	0.093824945
31	0xbce387ec	-0.027774774
32	0xbdd0a530	-0.10187757
33	0x3e3c4998	0.18387449
34	0x3f037b79	0.5136028
35	0xbdddecb2	-0.10836162
36	0xbebce0d7	-0.3689029
37	0x3daa7a1a	0.0832407
38	0xbe9b55a6	-0.30338782
39	0xbd384775	-0.04499002
40	0x3d01b7f6	0.03166958
41	0xbe35c34f	-0.17750286
42	0x3f1d6d41	0.61494833
43	0x3c4e56f9	0.012593978
44	0x3e12f8d6	0.14352736
45	0x3e9f9448	0.31167817
46	0xbe2c9816	-0.16854891
47	0x3ced4b0a	0.028966445
48	0x3c586a88	0.013208993
49	0x3c6d1d6c	0.014472347
50	0x3e0c9c3b	0.13731472
51	0xbca41ad2	-0.02003232
52	0x3d9af616	0.075664684
53	0x3e3552af	0.17707323
54	0x3e15e65d	0.14638658
55	0xbe0a9f7e	-0.13537404
56	0x3bacd85a	0.0052748146
57	0x3d93f2ba	0.07224031
58	0xbe05be97	-0.13060986
59	0xbe471f9e	-0.19445655
60	0xbdbace8a	-0.091214254
61	0xbeb62bb8	-0.3558023
62	0x3dd6ecaa	0.10494359
63	0xbd414238	-0.04718229
64	0xbb95a66e	-0.004566959
65	0xbd94c98c	-0.072650045
66	0xbf25cb83	-0.6476366
67	0xbe03a1a9	-0.12854637
68	0xbe9cde76	-0.30638474
69	0x3e64c8fd	0.22342296
70	0xbe3a1007	-0.18170176
71	0xbc2edbe0	-0.0106725395
72	0xbfd89a80	-1.692215
73	0x3ec3a5dc	0.38212478
74	0x3d05a45f	0.03262746
75	0x3e10a272	0.14124468
76	0xbf21234f	-0.629445
77	0x3dce9c7e	0.10088442
78	0xbcbf2c31	-0.023336502
79	0x3e31fce4	0.17381626
80	0x3c5c3662	0.0134407
81	0xbe6807d0	-0.2265923
82	0x3e1db5fb	0.15401451
83	0x3d48e141	0.049042944
84	0xbb38fcef	-0.0028226932
85	0x3dadc1a1	0.084841974
86	0xbd745ad4	-0.059656933
87	0xbe8245c1	-0.25443843
88	0xbdeababd	-0.11461399
89	0xbe21ce6f	-0.15801404
90	0x3e4432ee	0.19160053
91	0x3d1a7df7	0.037717786
92	0xbea11c5a	-0.31466943
93	0xbf02f975	-0.5116189
94	0xbd92770b	-0.07151612
95	0x3d7ab965	0.061211962
96	0xbef5cfff	-0.4801025
97	0x3efb5b93	0.49093303
98	0x3ea16c77	0.31528065
99	0x3e132cd1	0.14372565
100	0xbd883245	-0.06650213
101	0x3da9bfc7	0.08288532
102	0xbea92e3b	-0.33043084
103	0x3eaa66f2	0.33281666
104	0xbea7dec4	-0.32787144
105	0xbe72281e	-0.23648116
106	0xbe75ea11	-0.2401507
107	0xbed3b009	-0.41345242
108	0x3bdd7912	0.0067588175
109	0x3b94a7b1	0.004536592
110	0xbdf3e3a2	-0.11908652
111	0xbebeff65	-0.37304226
112	0xbf48c87b	-0.7843091
113	0xbdae5098	-0.08511466
114	0x3e5fe7ac	0.2186572
115	0xbf484fff	-0.78247064
116	0x3e9c9f28	0.30590177
117	0xbc3eef12	-0.0116536785
118	0xbe47c080	-0.19507027
119	0xbd81a4e3	-0.06330278
120	0xbd62cc65	-0.055370707
121	0xbde36bdb	-0.11104556
122	0x3d60736a	0.054797567
123	0xbd5cad6b	-0.05387632
124	0xbe8696fa	-0.2628706
125	0xbf06b993	-0.52626914
126	0x3d4e84f5	0.050419766
127	0x3c7eec57	0.0155592775
128	0xbc4687a6	-0.012117302
129	0xbead834d	-0.33889237
130	0x3d3b4f14	0.04572971
131	0x3f6bc866	0.9210266
132	0x3faf11a5	1.367726
133	0xbcb16c51	-0.021658095
134	0x3cae91b8	0.021309718
135	0x3e76eb0a	0.24113098
136	0x3bd3168a	0.006441896
137	0x3e2fd59f	0.17171334
138	0xbd9a8157	-0.07544201
139	0x3ec1d838	0.37860274
140	0xbe91a390	-0.284451
141	0x3f11825d	0.56839544
142	0xbed70f7d	-0.42004004
143	0xbeadb442	-0.33926588
144	0x3e97f843	0.29681596
145	0x3ce25501	0.027628424
146	0xbd44656e	-0.047948293
147	0x3fb8bd22	1.4432719
148	0xbe50a6a7	-0.20376073
149	0xbce84833	-0.02835474
150	0x3f8c32c6	1.0952995
151	0xbe0714ef	-0.1319158
152	0xbe6be0ef	-0.23035024
153	0x3f476499	0.77887875
154	0xbd6c87f2	-0.057746835
155	0xbf14d9d3	-0.58144873
156	0x3e9b0708	0.30278802
157	0xbe4cb091	-0.1998923
158	0x3de85665	0.113446034
159	0xbef279ff	-0.473587
160	0x3f10d327	0.5657219
161	0xbdf17f0a	-0.11791809
162	0x3e07b1fb	0.13251488
163	0x3ea5c83d	0.32379332
164	0xbf6f8c63	-0.9357359
165	0xbea3cc37	-0.3199174
166	0x3f277798	0.6541686
167	0xbe1f5692	-0.15560368
168	0x3d75c9ad	0.060006786
169	0x3de7f504	0.1132603
170	0xbf7c30ef	-0.98512167
171	0x3e071fcd	0.13195725
172	0x3ddb97cd	0.10722313
173	0xbe9267ca	-0.2859481
174	0xbe15816b	-0.1460015
175	0xbc84234c	-0.016130112
176	0x3da38279	0.0798387
177	0xbe2b6dae	-0.16741058
178	0xbdf7a0db	-0.120912276
179	0xba89853b	-0.0010491976
180	0x3e78f773	0.24313144
181	0xbf3e580e	-0.7435311
182	0x3e6cd3d4	0.23127681
183	0xbdf8d715	-0.12150399
184	0xbd510466	-0.051029585
185	0xbee138aa	-0.43988544
186	0x3e5ad057	0.21368538
187	0x3e6d6059	0.23181285
188	0x3ce7ad23	0.0282808
189	0x3c928495	0.017885486
190	0xbe0eb8ed	-0.13937731
191	0xbeb2ab4e	-0.3489632
192	0x3e00d8f3	0.1258276
193	0xbc0eb49c	-0.008710053
194	0x3d8268bc	0.06367633
195	0x3da859e2	0.08220269
196	0xbf33526c	-0.7004764
197	0xbe918f13	-0.2842947
198	0x3c008490	0.007844105
199	0x3db73eba	0.08947511
200	0x3e6713cf	0.2256615
201	0x3e26e3f2	0.16297892
202	0xbd135961	-0.03597391
203	0x3dfc304b	0.12313899
204	0x3fc3a702	1.5285342
205	0x3e9201f6	0.2851712
206	0xbbe06119	-0.0068475124
207	0xbe259a91	-0.16172244
208	0xbe0a85dd	-0.13527627
209	0xbea33e3d	-0.31883422
210	0xbeeaf6ab	-0.45891318
211	0xbe333db7	-0.17504011
212	0x3dbbea4d	0.09175549
213	0x3e9f801f	0.31152436
214	0x3e904b17	0.2818229
215	0xbe811601	-0.252121
216	0xbda5d4da	-0.08097239
217	0xbd9c8d03	-0.07644083
218	0xbfbb6245	-1.4639364
219	0xbf6aa996	-0.9166502
220	0x3e80709c	0.25085914
221	0xbf1e5089	-0.61841637
222	0xbf149255	-0.58035785
223	0xbef60c75	-0.4805638
224	0xbe68eb0c	-0.22745913
225	0x3f7a7292	0.9783107
226	0xbfd724fe	-1.6808164
227	0x3d4f5c81	0.050625328
228	0x3c3eac43	0.01163775
229	0x3cbd8bfd	0.02313804
230	0x3e81930a	0.25307494
231	0xbe9d9092	-0.3077436
232	0xbd0c3fa7	-0.03424039
233	0x3f27f6a9	0.6561075
234	0xbed73dde	-0.42039388
235	0xbf9cef30	-1.2260494
236	0xbdb91a3e	-0.090382084
237	0xbe0d3a91	-0.13791873
238	0x3e396126	0.18103465
239	0x3f5c61b8	0.86086607
240	0x3d9dd7d7	0.07707184
241	0x3f8075c9	1.0035945
242	0x3d253bc3	0.040340196
243	0xbcfa0344	-0.030519135
244	0xbec5ae61	-0.38609603
245	0xbef027ed	-0.4690546
246	0x3f499ac2	0.78751767
247	0xbc9577cd	-0.018245602
248	0xbcaf7a28	-0.021420553
249	0x3e3c28d6	0.18374953
250	0xbded9611	-0.116008885
251	0xbef3fc08	-0.47653222
252	0x3fb40f60	1.4067192
253	0x3ca4bdf2	0.020110104
254	0x3ccb9b5c	0.024854355
255	0xbc0bc862	-0.008531662

critic.2.bias f4 [64]
0	0x3e8cdd29	0.27512482
1	0x3e884983	0.26618585
2	0xbde451ee	-0.11148439
3	0x3e441b33	0.19151
4	0x3d4c84d7	0.049931373
5	0x3e385ccc	0.18004149
6	0xbdfae123	-0.12249973
7	0x3e077afd	0.1323051
8	0x3eb3ea69	0.35139778
9	0xbbf20258	-0.0073855333
10	0x3f5d976c	0.86559176
11	0x3d702c76	0.05863615
12	0x3eccd84e	0.40008777
13	0x3eae2795	0.34014574
14	0x3e864aee	0.26229042
15	0xbd94ea31	-0.07271231
16	0xbe965be0	-0.2936697
17	0x3d012216	0.031526648
18	0xbe69b1e7	-0.2282177
19	0xbedcb3ab	-0.43105826
20	0xbcbceccc	-0.023062132
21	0x3e8e8a80	0.27840042
22	0x3f254f35	0.64573985
23	0xbe0ae5ec	-0.1356427
24	0x3dd99db3	0.10625782
25	0xbed462cb	-0.41481623
26	0xbe0012bd	-0.12507148
27	0xbe492350	-0.19642377
28	0xbe64f0b9	-0.22357453
29	0x3da553b4	0.08072606
30	0x3e0b976c	0.13631982
31	0xbd5a8d16	-0.053357206
32	0x3e8b85e9	0.27250603
33	0x3e2d8d51	0.16948439
34	0x3e8d437f	0.27590558
35	0xbe3a32ee	-0.1818349
36	0x3ee8b8b8	0.4545343
37	0xbdb477d9	-0.088119216
38	0x3df8aa82	0.12141897
39	0xbf33df85	-0.7026294
40	0xbea58b19	-0.32332686
41	0xbec51788	-0.38494515
42	0x3e9c9613	0.30583248
43	0xbe8eae4e	-0.2786736
44	0x3e9078e9	0.28217247
45	0xbebd0ca2	-0.369237
46	0xbe8c649f	-0.27420518
47	0xbe5624ac	-0.20912427
48	0xbf6f928c	-0.9358299
49	0xbcd6e1b3	-0.026230669
50	0xbd1c5500	-0.038167
51	0x3f5ff0ed	0.87477
52	0x3e505fb1	0.20349003
53	0x3e19212e	0.14954063
54	0x3d0bf7fb	0.03417204
55	0xbe914610	-0.28373766
56	0xbf1573f3	-0.5838005
57	0xbf83bbe8	-1.029172
58	0xbdc9169f	-0.09818768
59	0xbe498d1d	-0.19682737
60	0x3e96525e	0.29359716
61	0x3f1ea48b	0.6196982
62	0x3ba0571c	0.0048931967
63	0xbe31bc64	-0.17357022

critic.4.weight f4 [1, 64]
0	0x3e36248b	0.17787378
1	0x3e17baaa	0.148173
2	0x3f26b962	0.6512662
3	0xbf23c54e	-0.6397294
4	0x3eee2eb2	0.4652
5	0x3df82494	0.12116352
6	0xbe9cb9bd	-0.30610457
7	0xbe5edc31	-0.21763684
8	0x3e6131c6	0.21991643
9	0xbf07f16b	-0.5310275
10	0x3f312120	0.6919117
11	0x3ec2f075	0.3807408
12	0x3e4c7c15	0.19969209
13	0xbe3185b6	-0.17336163
14	0x3e6011bd	0.21881767
15	0x3e88c55b	0.2671307
16	0xbe822b23	-0.25423536
17	0xbe9625bc	-0.29325664
18	0xbe94baf3	-0.2904888
19	0xbe8d84ee	-0.2764048
20	0x3ea2da53	0.31807193
21	0x3e810b3c	0.25203884
22	0x3e5a629d	0.2132668
23	0xbe346670	-0.17617202
24	0x3e3e2969	0.18570484
25	0xbe7aefe2	-0.2450557
26	0x3e51261f	0.20424698
27	0xbe379464	-0.179277
28	0xbe9c5fc0	-0.305418
29	0x3ec51dc3	0.3849927
30	0x3ebbdb48	0.36690736
31	0xbe01914f	-0.12653087
32	0x3e143187	0.14472018
33	0x3e6f1571	0.23348023
34	0x3e901f9b	0.28149113
35	0xbdf9b359	-0.12192411
36	0x3f2814b0	0.65656567
37	0xbec03038	-0.37536788
38	0x3ea1747c	0.31534183
39	0xbff46b0c	-1.9095168
40	0xbded225a	-0.11578818
41	0xbe27cc53	-0.16386537
42	0xbe5bc5fe	-0.21462247
43	0xbe7d57ae	-0.24740478
44	0xbe582efc	-0.21111673
45	0xbe4df08f	-0.20111297
46	0xbeaa7a55	-0.33296457
47	0xbf903d5c	-1.1268725
48	0xbef02e8b	-0.4691051
49	0xbeacb521	-0.3373194
50	0x3eff0c5f	0.49814126
51	0x3f370f55	0.7150777
52	0x3eaf8009	0.3427737
53	0x3e3c06cf	0.18361972
54	0x3ebda84c	0.37042463
55	0xbe4be20d	-0.1991045
56	0xbfce9382	-1.6138766
57	0xbf1bada7	-0.6081185
58	0xbfb7461b	-1.431827
59	0xbe2c4841	-0.16824438
60	0x3e307cbd	0.17235084
61	0x4002ece5	2.045709
62	0x3e23b8c9	0.15988459
63	0xbf223b45	-0.6337169

actor.0.weight f4 [128, 16]
0	0x3d9f7dca	0.07787664
1	0xbef254db	-0.47330365
2	0x3ebf798d	0.37397423
3	0x3ef6563b	0.48112664
4	0xbf542cf8	-0.82881117
5	0x3fbf7002	1.4956057
6	0xbdd74b75	-0.10512439
7	0xbd71b046	-0.059005998
8	0xbf7addc3	-0.9799463
9	0xbf3f864c	-0.74814296
10	0x3eeb5942	0.45966536
11	0xbe78ffcb	-0.24316327
12	0xbddbf839	-0.10740704
13	0x3ddea61c	0.108715266
14	0xbe82ac60	-0.25522137
15	0xbc47748e	-0.012173785
16	0x3e9d6b55	0.3074595
17	0xbd94ff0c	-0.07275209
18	0xbc645482	-0.013936164
19	0x3c315127	0.010822571
20	0x3da8b418	0.08237475
21	0xbf9bfbd3	-1.2186226
22	0xbc1f5fc9	-0.009727427
23	0x3dee3bb6	0.11632483
24	0xbf900d68	-1.1254091
25	0x3fc73630	1.5563412
26	0x3f0ead33	0.5573303
27	0x3ecf4395	0.40481248
28	0xbf197b05	-0.5995334
29	0xbd9e5039	-0.07730145
30	0x3c7e3f54	0.015518028
31	0x3e931c05	0.28732315
32	0x3e9d1116	0.30677098
33	0xbe9febfd	-0.31234732
34	0x3de55c7a	0.11199279
35	0x3d31c167	0.043397333
36	0x3eef6b75	0.4676167
37	0x3fc5196f	1.5398387
38	0xbdab14ce	-0.083535776
39	0x3e77a27d	0.24183078
40	0xbfae58a2	-1.3620799
41	0x3f1044d4	0.56355023
42	0x3d8e637f	0.06952571
43	0xbec76613	-0.38945064
44	0x3f639ffb	0.88915986
45	0x3f1af1f8	0.60525465
46	0xbd967d65	-0.07348136
47	0xbe087ef3	-0.13329677
48	0x3ea0f09a	0.31433564
49	0x3eb09cc0	0.3449459
50	0xbb82d3dd	-0.003992541
51	0xbeaf8b4b	-0.3428596
52	0xbff46a12	-1.909487
53	0xbfcd8a95	-1.6057917
54	0x3d265caf	0.040615734
55	0xbcc48138	-0.023987398
56	0xbe14cd38	-0.1453141
57	0xbd29b89f	-0.041435834
58	0x3e742d36	0.23845372
59	0xbc3f8afc	-0.011690851
60	0x3e0b9be0	0.1363368
61	0x3e8d5ce1	0.27609923
62	0x3d277223	0.040880334
63	0x3d84d950	0.064867616
64	0xbde5ed15	-0.112268604
65	0xbc2c210b	-0.010505925
66	0xba3269c6	-0.00068059226
67	0x3d2ad13e	0.041703455
68	0xbda46d29	-0.08028633
69	0x3e5f75b3	0.21822242
70	0x3e72d5a2	0.23714307
71	0x3e1f3e5e	0.15551135
72	0x40545e9b	3.3182743
73	0xbe0f3bdd	-0.1398768
74	0xbb27805f	-0.0025558693
75	0xbc95b2cd	-0.018273735
76	0xbdeb4a8f	-0.1148883
77	0xbd419053	-0.04725678
78	0xbe281f36	-0.16418156
79	0xbe12b1e4	-0.14325672
80	0x3eac7cb2	0.33688885
81	0xbd67cb4a	-0.056590356
82	0x3ec339a4	0.38129914
83	0xbf164420	-0.586977
84	0xbecd335d	-0.4007825
85	0x3e76f299	0.24115981
86	0x3ecd9ba1	0.40157798
87	0xbe9ab302	-0.30214697
88	0xbec4d5f0	-0.3844447
89	0x3f8c92b6	1.0982273
90	0xbe21fc07	-0.15818797
91	0xbd0e12b0	-0.03468579
92	0x3eba71f2	0.36415058
93	0x3eaf57b5	0.34246603
94	0xbe198008	-0.14990246
95	0x3e2dcd79	0.16972913
96	0x3bad6292	0.0052912915
97	0xbe82e12a	-0.25562412
98	0xbca326be	-0.019915935
99	0xbee14c92	-0.4400373
100	0x3e82bb07	0.25533316
101	0xbf09bb3c	-0.5380132
102	0x3e34e505	0.17665489
103	0x3f3cf4aa	0.7381083
104	0xbe26ff31	-0.16308285
105	0x3f977432	1.1832335
106	0xbde5e28f	-0.11224853
107	0xbce3facf	-0.027829556
108	0xbea40f6c	-0.32043016
109	0xbe35bc6b	-0.17747657
110	0x3e280ecb	0.16411893
111	0x3ca0ba8a	0.019620199
112	0xbd8002e0	-0.06250548
113	0x3db3284a	0.08747919
114	0xbe38ac82	-0.18034557
115	0xbe7b2491	-0.24525668
116	0x3da8015f	0.082033865
117	0xbe21b210	-0.15790582
118	0x3f469d0a	0.7758337
119	0xbd47f9db	-0.048822265
120	0x3f6d0cc2	0.9259759
121	0xbc413bd4	-0.011794049
122	0x3f95773e	1.1677015
123	0xbef62519	-0.48075178
124	0xbf7a568b	-0.97788304
125	0xbf019615	-0.5061963
126	0xbf008b02	-0.5021211
127	0x3f55b555	0.83479816
128	0x3e23fa6e	0.160135
129	0xbe560813	-0.20901518
130	0x3ecd085a	0.40045434
131	0xbe655b6a	-0.22398153
132	0xbf9687e7	-1.1760224
133	0x3f891889	1.0710613
134	0x3da2f0f8	0.079561174
135	0x3d996a39	0.074909635
136	0xbd7f6d1e	-0.06235992
137	0x3f53a031	0.8266631
138	0xbecfb3ed	-0.4056696
139	0x3e01d3e3	0.12678485
140	0x3f3e49bb	0.74331254
141	0x3eb82840	0.35968208
142	0x3f134518	0.57527304
143	0xbe9ee477	-0.3103368
144	0x3d2d5ac1	0.042322878
145	0xbebd160b	-0.3693088
146	0xbea79c6a	-0.32736522
147	0x3e881252	0.26576477
148	0xbf85d0a5	-1.0454298
149	0x3f3f6a13	0.7477123
150	0x3e907c9f	0.28220078
151	0xbd1f2dad	-0.03886192
152	0x3fb9857c	1.4493861
153	0x3fa71254	1.3052468
154	0xbe9c7ab3	-0.30562362
155	0xbf02a4ae	-0.5103253
156	0x3f030495	0.51178867
157	0xbc99f0f0	-0.018791646
158	0x3d22d1fd	0.03975104
159	0x3d017025	0.03160109
160	0xbd313021	-0.04325879
161	0x3d8eb097	0.069672756
162	0xbcb65235	-0.022255996
163	0xbe8e2504	-0.27762616
164	0x3c887e27	0.016661717
165	0xc022f1ee	-2.5460162
166	0x3cbd08af	0.02307543
167	0xbc2a5c6e	-0.0103980135
168	0x3ef70025	0.48242298
169	0xbd022519	-0.03177366
170	0x3d60c7d1	0.05487806
171	0x3f1144f7	0.56745857
172	0xbe715fc1	-0.23571683
173	0xbdd8a805	-0.10578922
174	0xbed02c04	-0.4065858
175	0x3e3f110d	0.18658848
176	0x3da60c37	0.081077985
177	0x3f4aba33	0.7919037
178	0xbd44da5e	-0.048059814
179	0xbea8915d	-0.32923403
180	0xbefd3cbd	-0.49460402
181	0x3f0f6fda	0.56030047
182	0xbeb7af66	-0.35876006
183	0x3d750318	0.059817404
184	0x3e96d366	0.2945816
185	0xbf79cf73	-0.9758217
186	0x3f14f854	0.5819142
187	0xbeb21fcd	-0.34789887
188	0xbec69696	-0.38786763
189	0x3d5081b2	0.050904937
190	0xbe886260	-0.26637554
191	0x3e0cc0d1	0.13745429
192	0xbeb3ac2b	-0.3509229
193	0x3f313ff3	0.69238204
194	0x3ecbd100	0.39807892
195	0xbf38e859	-0.72229534
196	0x3f62607e	0.88428485
197	0xbf7e74a1	-0.9939671
198	0x3d86f7fd	0.06590269
199	0x3c8e97ee	0.01740643
200	0xbc25afb8	-0.010112695
201	0xbd51fdc4	-0.0512674
202	0x3e1c9644	0.15291697
203	0xbd951c9c	-0.072808474
204	0xbe4f8050	-0.20263791
205	0xbc5a1fdc	-0.01331326
206	0xbdbba9a7	-0.09163218
207	0xbdb87d99	-0.09008331
208	0x3d8a81df	0.06763052
209	0xbea62721	-0.32451728
210	0xbee7ca6b	-0.4527162
211	0x3eec2373	0.46120796
212	0x3f54c6b5	0.831157
213	0xbfc9096e	-1.5706003
214	0x3de1f7d6	0.11033599
215	0xbaf8739c	-0.0018955353
216	0x3f3cc7f6	0.73742616
217	0xbf306587	-0.6890492
218	0xbf419492	-0.75617325
219	0xbe80ad02	-0.25131994
220	0x3edf0991	0.43561986
221	0xbe9cfaa7	-0.30659983
222	0xbd99f478	-0.07517332
223	0x3cc708da	0.024296213
224	0xbe37c7a8	-0.17947257
225	0xbf13332e	-0.5749997
226	0x3d9b76f3	0.07591047
227	0xbd5b0c03	-0.053478252
228	0x3f36736d	0.71269876
229	0xbf71ad33	-0.94404906
230	0xbe333405	-0.17500313
231	0x3f38f5c3	0.7225
232	0xbf092754	-0.53575635
233	0xbc665caa	-0.014060179
234	0xbe832b36	-0.25618905
235	0xbece93c0	-0.403471
236	0x3da64bb6	0.081199095
237	0x3cdc1e71	0.026869984
238	0xbdf49ab0	-0.11943567
239	0xbc7b41e7	-0.015335537
240	0x3eaea901	0.34113315
241	0xbd9aedf9	-0.07564921
242	0x3f03fbd2	0.5155612
243	0x3e13df17	0.14440571
244	0xbf829426	-1.0201461
245	0x3f0a368c	0.5398948
246	0x3f03d595	0.51497775
247	0x3e5ebed4	0.21752483
248	0xbed881cc	-0.42286527
249	0xbef115b0	-0.4708686
250	0x3d97f47f	0.07419681
251	0x3f1a0038	0.60156584
252	0xbeb6d2c0	-0.35707664
253	0xbf1d6f65	-0.614981
254	0x3b8389f8	0.00401425
255	0x3f4562d7	0.7710394

actor.0.bias f4 [128]
0	0xbe0a1316	-0.13483843
1	0x3daf1251	0.085484155
2	0x3e935dc5	0.28782478
3	0x3e466b0a	0.1937677
4	0xbd301142	-0.04298521
5	0x3e180364	0.14845043
6	0x3c585d81	0.013205887
7	0xbe5973aa	-0.21235529
8	0x3e12ebe9	0.14347805
9	0x3d85cf4a	0.06533678
10	0xba4d04d6	-0.000782085
11	0x3d60d1f1	0.054887716
12	0xbe47d56e	-0.1951501
13	0xbd930787	-0.0717917
14	0xbe46f411	-0.19429041
15	0x3e1958ad	0.14975233
16	0x3e6916c7	0.22762595
17	0xbce8d23e	-0.028420564
18	0x3ea55a5b	0.32295498
19	0x3e8a0993	0.2696043
20	0xbdd0ca55	-0.10194842
21	0x3edd2709	0.43193844
22	0xbe760481	-0.24025156
23	0x3e8ad597	0.2711608
24	0xbe6835d1	-0.2267678
25	0xbe09e236	-0.13465199
26	0x3e24e0b0	0.16101336
27	0xbdef74b5	-0.11692182
28	0x3ce3fc40	0.027830243
29	0x3d9cc5c4	0.07654908
30	0xbdad928e	-0.08475219
31	0x3d17b6f3	0.03703971
32	0x3be1e668	0.0068939216
33	0xbdaf307d	-0.0855417
34	0xbe4ad829	-0.19809021
35	0x3d54083c	0.051765665
36	0x3e779e11	0.24181391
37	0xbeb0cd6a	-0.34531718
38	0xbe9cdc87	-0.30637
39	0x3e589240	0.2114954
40	0x3b8d84b8	0.0043188
41	0xba4a107b	-0.0007708144
42	0x3aca3bd2	0.0015429205
43	0x3ef8ba67	0.48579714
44	0xbedb9635	-0.42888036
45	0x3ee4a937	0.4466035
46	0xbd04648e	-0.03232246
47	0x3db551eb	0.08853515
48	0x3de2cf31	0.11074675
49	0xbe5ac4f7	-0.21364199
50	0x3e5d40b9	0.21606721
51	0x3e20dabe	0.15708444
52	0x3f04e360	0.51909447
53	0x3e17ae63	0.14812617
54	0x3d450485	0.048100013
55	0x3e3e171f	0.18563507
56	0x3dab4d6f	0.08364379
57	0x3d1eba85	0.038752098
58	0x3cded274	0.027199961
59	0x3e316b26	0.1732603
60	0xbe65f0f6	-0.224552
61	0xbe42a7d1	-0.1900933
62	0x3e9999a1	0.30000022
63	0x3e046c0b	0.1293184
64	0xbe08593f	-0.13315295
65	0x3e3dc160	0.18530798
66	0xbed9f1ad	-0.42567196
67	0x3db8a42a	0.09015687
68	0xbec0a88d	-0.37628594
69	0x3ea2a815	0.3176886
70	0xbe399dc6	-0.18126592
71	0xbd78123d	-0.06056427
72	0x3e0c21cd	0.13684769
73	0xbc0ba21c	-0.008522537
74	0x3ce16e90	0.02751854
75	0x3d43fc88	0.047848254
76	0x3c24c066	0.010055637
77	0x3dcb4e0d	0.099269964
78	0xbea25d79	-0.3171194
79	0x3da8208f	0.08209335
80	0x3eaa9a1f	0.3332071
81	0xbe4cf669	-0.20015873
82	0xbe7120c8	-0.23547661
83	0xbe8d7de4	-0.2763511
84	0x3e772547	0.24135314
85	0x3e518573	0.20461063
86	0xbdd4f70b	-0.10398682
87	0x3b867313	0.0041030734
88	0x3e802a87	0.25032446
89	0xbc2a4a7b	-0.010393734
90	0xbe0b9483	-0.13630871
91	0xbd4a7ac3	-0.04943348
92	0xbde2a7bd	-0.1106715
93	0x3dc74170	0.09729278
94	0xbd1d98f1	-0.038475934
95	0xbd7b9f2e	-0.061431102
96	0xbe97e806	-0.29669207
97	0x3c66c15b	0.0140841855
98	0xbe15af06	-0.14617547
99	0xbdc13e13	-0.09435668
100	0xbddc5e2f	-0.107601516
101	0xbe50b3a7	-0.20381032
102	0xbdd5b2f6	-0.10434525
103	0x3cabf3eb	0.020990333
104	0x3e519ac0	0.20469189
105	0xbaaf19e2	-0.0013359154
106	0xbe68553a	-0.22688761
107	0xbea6dffb	-0.3259276
108	0xbd2dc9ac	-0.042428657
109	0x3e02ef7b	0.12786667
110	0xbe873efd	-0.26415244
111	0xbec74c6f	-0.38925502
112	0xbe004458	-0.12526071
113	0x3e83347f	0.2562599
114	0x3ddc197e	0.1074705
115	0xbcc5e24d	-0.02415576
116	0xbdbedc58	-0.09319371
117	0xbd8dae87	-0.06918054
118	0x3e3cbb88	0.18430912
119	0x3d5cf0f7	0.05394074
120	0xbf015fa3	-0.50536555
121	0x3dc28bd4	0.09499326
122	0xbe37dac0	-0.1795454
123	0x3e2ef7af	0.17086671
124	0xbc6cb3ee	-0.014447195
125	0xbdb6d609	-0.08927543
126	0x3c21b418	0.009869598
127	0x3de86ef1	0.113492854

actor.2.weight f4 [64, 128]
0	0xbe358d88	-0.17729771
1	0x3e091ad2	0.13389137
2	0x3e439e77	0.19103418
3	0x3f2a209a	0.66455996
4	0x3df7e23b	0.12103697
5	0x3ed944b4	0.4243523
6	0x3eff658a	0.49882156
7	0x3dea4d46	0.1144052
8	0xbdf20dc5	-0.118190326
9	0xbf200021	-0.62500197
10	0xbdf76e6b	-0.120816074
11	0x3eb10aa3	0.34578428
12	0xbe32beb7	-0.17455564
13	0xbf25fe5d	-0.6484125
14	0xbecdc0b6	-0.4018609
15	0x3ebb5308	0.36586785
16	0x3eb16a1a	0.34651262
17	0x3f11a078	0.5688548
18	0x3df84d42	0.12124111
19	0x3f3ad99e	0.7298831
20	0xbf36535f	-0.71220964
21	0x3ea4fbcc	0.32223356
22	0x3e634459	0.22194041
23	0x3f4ee42e	0.80816925
24	0xbf138f8c	-0.5764091
25	0xbe4c1613	-0.19930296
26	0x3eea1e37	0.45726177
27	0x3e82c3ce	0.25540012
28	0x3e0ff8ff	0.14059828
29	0x3ec60067	0.38672182
30	0xbca39dbe	-0.019972678
31	0x3e8e03eb	0.27737364
32	0x3e63a05c	0.22229141
33	0xbddf9a30	-0.10918081
34	0xbc4c4375	-0.012467255
35	0x3ebfc09d	0.3745164
36	0x3f4f604a	0.810063
37	0xbe50a540	-0.20375538
38	0xbe9b31fc	-0.30311573
39	0x3e58c948	0.21170533
40	0x3f03e13b	0.5151555
41	0x3e9324e8	0.28739095
42	0xbe060f9d	-0.13091893
43	0x3e4eb07f	0.20184515
44	0xbea69c63	-0.3254119
45	0xbe57663f	-0.21035098
46	0xbe572dee	-0.21013615
47	0x3f034a88	0.512856
48	0x3d8791a4	0.066195756
49	0x3e313100	0.17303848
50	0xbe771415	-0.24128754
51	0xbe30f038	-0.17279136
52	0x3e0668cb	0.13125913
53	0x3e8190ef	0.25305888
54	0xbe24de3d	-0.16100402
55	0x3ec52412	0.38504082
56	0xbef215f5	-0.47282377
57	0xbdfe8ce5	-0.12429217
58	0xbd3d232b	-0.046176117
59	0x3d8e7b08	0.0695706
60	0xbec79322	-0.3897944
61	0xbf181745	-0.59410506
62	0xbf2c2ad5	-0.67252856
63	0x3dee986c	0.11650166
64	0x3e96a848	0.29425263
65	0xbe460433	-0.1933754
66	0xbf3fd053	-0.7492725
67	0x3f134d1a	0.5753952
68	0xbfa3f128	-1.280797
69	0xbe64f39c	-0.22358555
70	0xbe48cd52	-0.19609573
71	0xbf0e830a	-0.556687
72	0xbb9e17b0	-0.004824601
73	0xbf09a6c3	-0.53770083
74	0xbd7082fa	-0.05871866
75	0x3cc1ae3b	0.02364265
76	0x3e085cae	0.13316604
77	0x3f00afa9	0.50268036
78	0x3eddffce	0.43359226
79	0x3e1fb915	0.15597947
80	0x3d824623	0.06361034
81	0xbe714555	-0.23561604
82	0xbe81ca8b	-0.2534984
83	0x3e0ee66e	0.1395509
84	0x3f95bddd	1.1698567
85	0x3e27e5ec	0.16396302
86	0xbee4cde7	-0.4468834
87	0x3e18c589	0.14919104
88	0xbdc1bfe5	-0.09460429
89	0x3ead54d2	0.33853775
90	0x3e9ff12a	0.3123868
91	0xbdd4c7f3	-0.103897
92	0xbe6419bf	-0.22275446
93	0xbd9c219d	-0.07623599
94	0xbe31c4f4	-0.17360288
95	0xbe8b9378	-0.27260947
96	0x3f0294d7	0.5100836
97	0x3df56332	0.11981811
98	0xbf14aada	-0.580732
99	0x3cad9b69	0.02119227
100	0xbdc0c8e1	-0.094133146
101	0xbd1c68af	-0.03818577
102	0xbe8df368	-0.27724767
103	0xbdf4566f	-0.119305484
104	0xbd7ab6a9	-0.061209355
105	0xbf224e7d	-0.63401014
106	0xbe6cb87b	-0.23117249
107	0xbf07b88d	-0.5301598
108	0xbe8c7597	-0.27433464
109	0x3d158afd	0.036509503
110	0xbdac70d2	-0.08419956
111	0x3ea8fd2f	0.33005664
112	0xbeab83b1	-0.3349891
113	0x3e183bcc	0.1486656
114	0x3e8eca1b	0.2788857
115	0x3ee8e60d	0.45488015
116	0x3f25d3bb	0.647762
117	0xbec5fb27	-0.38668177
118	0x3edae2b6	0.42751092
119	0x3ea4eea4	0.32213318
120	0x3e316e13	0.17327146
121	0xbe2b8101	-0.1674843
122	0xbdbfc04f	-0.09362852
123	0x3d2cae21	0.04215825
124	0x3e56961c	0.209557
125	0xbbf1762a	-0.0073688226
126	0xbf37ca8a	-0.71793425
127	0xbd89055a	-0.06690474
128	0xbf068e2b	-0.5256068
129	0xbe7c4060	-0.24633932
130	0xbf07fd7b	-0.53121156
131	0x3b89cd94	0.004205415
132	0x3cd6d353	0.026223814
133	0x3ef84a1b	0.48494038
134	0x3e89c9c3	0.26911744
135	0x3e936938	0.28791213
136	0x3dd31bfe	0.103080735
137	0x3e9f1a65	0.31074825
138	0x3e3e4b01	0.18583299
139	0x3e6e828a	0.23291984
140	0x3dc55076	0.09634487
141	0x3dca5c0a	0.09880836
142	0x3eedc4b0	0.46439123
143	0x3eb003a1	0.3437777
144	0x3f77447f	0.9658889
145	0xbe0db92f	-0.13840173
146	0x3dc6f14b	0.09713992
147	0xbe1e4d8a	-0.15459266
148	0xbf04de6a	-0.51901877
149	0x3e9047a4	0.28179657
150	0xbe7d5138	-0.24738014
151	0x3ea0e628	0.31425595
152	0x3dc95faa	0.098326996
153	0xbf337080	-0.70093536
154	0x3f00ec4b	0.50360554
155	0x3e67f6eb	0.22652785
156	0x3d075380	0.033038616
157	0x3df35c07	0.11882787
158	0xbd974b17	-0.07387369
159	0x3f272fd3	0.6530735
160	0xbe98db47	-0.29854795
161	0x3eb1e087	0.34741613
162	0x3d092516	0.033482634
163	0xbd352a88	-0.044230014
164	0x3f120b8f	0.57048887
165	0xbc614069	-0.013748267
166	0x3f0b8494	0.54499173
167	0xbed0c45e	-0.40774816
168	0x3e998038	0.29980636
169	0x3e379efe	0.17931744
170	0xbe5ef6bc	-0.21773809
171	0x3ed8facd	0.42378846
172	0xbdec5c22	-0.115410104
173	0x3e1d0993	0.15335684
174	0x3f06e766	0.52696836
175	0xbda23961	-0.079211004
176	0x3e31fe57	0.17382179
177	0x3e2ed096	0.17071757
178	0x3dedaeba	0.11605592
179	0xbd807a08	-0.062732756
180	0xbd4d236f	-0.05008262
181	0xbe33e45e	-0.17567584
182	0xbf006ed8	-0.50169134
183	0x3e5f13bd	0.21784873
184	0xbd3a2e41	-0.045454267
185	0xbecdd419	-0.4020088
186	0xbe01bb3c	-0.1266908
187	0xbf17b1df	-0.59255785
188	0x3eee152f	0.46500537
189	0x3e7cef5a	0.2470068
190	0xbec15a8d	-0.37764397
191	0xbe4f86f5	-0.20266326
192	0xbea1213b	-0.31470665
193	0xbe6cb946	-0.23117551
194	0x3e87faf9	0.26558664
195	0x3f23dc25	0.6400779
196	0xbf76de35	-0.9643281
197	0xbe8a2196	-0.2697875
198	0xbfa57416	-1.2926052
199	0xbe8812c3	-0.26576814
200	0x3e52038d	0.20509167
201	0x3ebf1daf	0.37327334
202	0xbf1b79ea	-0.607329
203	0x3e7fd613	0.24984007
204	0xbed289c2	-0.41120726
205	0x3e7f1126	0.24908885
206	0x3e31cf83	0.17364316
207	0x3e512549	0.2042438
208	0xbe1c4ced	-0.1526372
209	0x3e321a7d	0.17392917
210	0xbc75ed67	-0.015010214
211	0xbdce373f	-0.10069131
212	0x3f44a671	0.7681647
213	0x3e152052	0.1456311
214	0xbeae0ff9	-0.3399656
215	0xbe9974d2	-0.2997194
216	0x3d33d94d	0.043908406
217	0xbf26e3b3	-0.6519119
218	0xbf27cb42	-0.6554452
219	0x3dfd1a72	0.1235856
220	0xbde9f70d	-0.11424074
221	0xbe93e6ea	-0.2888711
222	0xbed9f0c0	-0.4256649
223	0xbe075cdc	-0.13219017
224	0x3e4d3a1f	0.20041703
225	0xbecf7ff4	-0.40527308
226	0xbebff12c	-0.37488687
227	0xbdf9a362	-0.12189366
228	0xbeb44944	-0.35212147
229	0xbf0e17e1	-0.55505186
230	0xbe91625b	-0.28395352
231	0xbf22ceb2	-0.6359664
232	0x3e435fd2	0.19079521
233	0xbd95564a	-0.07291849
234	0x3ed61617	0.41813728
235	0xbe87a291	-0.26491216
236	0xbf157400	-0.58380127
237	0x3ea042f5	0.31301084
238	0x3d4ebfad	0.050475765
239	0xbe09c154	-0.13452655
240	0xbe23888f	-0.15970062
241	0xbebf2a6f	-0.37337062
242	0x3efcfc3b	0.49411187
243	0xbb774e96	-0.003773605
244	0x3e0830ef	0.13299917
245	0x3edc842b	0.43069586
246	0x3f830055	1.0234476
247	0x3e8f79dc	0.2802266
248	0xbe5fb7f3	-0.21847515
249	0xbcabeeb4	-0.020987846
250	0x3b9f7cb4	0.0048671607
251	0x3ed65c8e	0.4186749
252	0xbe711d33	-0.23546295
253	0xbf3c19d8	-0.73476934
254	0x3cdacadc	0.026708059
255	0x3d804abc	0.062642545

actor.2.bias f4 [64]
0	0x3e8f644a	0.28006202
1	0x3de16953	0.11006417
2	0xbe80b46a	-0.25137645
3	0xbd373dff	-0.04473686
4	0x3e1edcc4	0.15513903
5	0xbda38848	-0.07984978
6	0x3dd518bb	0.104051076
7	0x3f21b7d4	0.63171124
8	0x3e4a6480	0.197649
9	0x3e570f06	0.21001825
10	0xbed24413	-0.41067562
11	0x3e7d7d3d	0.24754806
12	0xbde3a4fd	-0.111154534
13	0xbeae2a8e	-0.34016842
14	0x3e8b66e7	0.27226946
15	0xbee104c4	-0.43948948
16	0x3e3f972a	0.18710008
17	0x3e4065fa	0.18788901
18	0x3d9f5dd8	0.07781571
19	0xbe08a7ac	-0.13345212
20	0x3eb08f7c	0.3448447
21	0xbdb568a3	-0.088578485
22	0x3d943fe9	0.072387524
23	0x3eb7545f	0.35806558
24	0xbd00de77	-0.03146216
25	0xbe0d757d	-0.1381435
26	0x3e3a4ee2	0.18194154
27	0xbe8f52bf	-0.27992818
28	0x3e46cb43	0.19413476
29	0xbe91c87b	-0.28473267
30	0xbef3a8c1	-0.47589687
31	0xbce982dc	-0.028504781
32	0x3ece949e	0.4034776
33	0xbc5133b9	-0.012768679
34	0xbd913b1d	-0.07091353
35	0x3e1c1082	0.15240672
36	0xbda11170	-0.07864654
37	0xbea006f8	-0.31255317
38	0xbda89452	-0.08231415
39	0xbdc12ca4	-0.09432343
40	0xbc6e584c	-0.014547419
41	0xbe279364	-0.16364819
42	0xbe7dd64a	-0.24788776
43	0x3e44ad11	0.19206645
44	0xbeb5ad50	-0.3548379
45	0x3db9d4e0	0.09073806
46	0xbe0e1abb	-0.13877384
47	0x3f0524c8	0.5200925
48	0xbebf8621	-0.3740702
49	0x3e2dfaa2	0.1699014
50	0xbef84c25	-0.48495594
51	0x3de1d48f	0.110268705
52	0x3deb6d69	0.11495478
53	0xbe2c20e9	-0.16809429
54	0x3d1c7f7e	0.038207524
55	0xbba70980	-0.005097568
56	0xbe486f28	-0.19573653
57	0x3eb83083	0.35974512
58	0xbedffbd1	-0.43746808
59	0xbed1f5d2	-0.4100786
60	0xbcdd6206	-0.02702428
61	0x3970a35f	0.00022949044
62	0x3d5276d3	0.05138285
63	0x3d410841	0.047127012

actor.4.weight f4 [9, 64]
0	0x3e148dc2	0.14507201
1	0xbd99e8c5	-0.075151004
2	0x3cdf587d	0.027263874
3	0xbd64128e	-0.055681758
4	0xbe620499	-0.22072066
5	0x3d0fda69	0.0351204
6	0xbe0b0b19	-0.13578452
7	0x3e97a85f	0.29620644
8	0xbcbc7467	-0.023004724
9	0x3ce03240	0.027367711
10	0xbe9790cd	-0.29602662
11	0xbcbfb7ca	-0.023403067
12	0x3dd8120f	0.105503194
13	0x3dcc9845	0.099899806
14	0xbd5c1e05	-0.053739566
15	0xbc53c5b3	-0.012925553
16	0xbf156021	-0.58349806
17	0xbe400678	-0.18752468
18	0x3c4fd5fb	0.012685294
19	0xba4f4dc8	-0.00079080136
20	0xbe278e5f	-0.16362904
21	0xbdcea65c	-0.10090324
22	0x3b18d71a	0.002332157
23	0xbe04f75c	-0.12984985
24	0x3d1a7c9f	0.037716504
25	0x3dba87e8	0.09107953
26	0x3c6e8aeb	0.014559488
27	0xbce967b9	-0.028491842
28	0xbdc8f32d	-0.09812007
29	0x3e846cf9	0.2586439
30	0xbebcc906	-0.3687212
31	0x3da6b6a9	0.081403084
32	0x3f5f3322	0.871874
33	0x3d47cc76	0.048778974
34	0x3daef6c3	0.0854316
35	0x3e13679b	0.14394991
36	0x3cac512a	0.021034796
37	0x3d41a5de	0.047277324
38	0x3c83d2d8	0.01609175
39	0xbc79d130	-0.015247628
40	0x3bd9650f	0.0066343616
41	0xba5ba8cd	-0.000837934
42	0xbd894596	-0.067027256
43	0xbddd31e1	-0.10800529
44	0x3e31d254	0.1736539
45	0xbd11f9f7	-0.035638776
46	0xbc65459c	-0.013993647
47	0xbe53d99f	-0.20688485
48	0xbeb78474	-0.3584324
49	0x3e1cc33b	0.1530885
50	0xbf29d2f7	-0.6633753
51	0xbc672138	-0.014107041
52	0x3dd032ea	0.10165961
53	0x3c82a7c1	0.015949132
54	0xbb6e63c3	-0.003637538
55	0xbe0653ea	-0.13117948
56	0x3deadae7	0.114675336
57	0xbdf21cf1	-0.118219264
58	0x3e6d7c04	0.2319184
59	0x3e25d76f	0.16195463
60	0x3d34098b	0.043954413
61	0xbc9bc483	-0.019014603
62	0x3bf5255c	0.00748126
63	0x3d73b534	0.05949898
64	0xbdbdd5dd	-0.09269307
65	0xbc1362b2	-0.008995699
66	0xbd0cc0fe	-0.03436374
67	0x3c469f43	0.012122932
68	0x3f524531	0.8213683
69	0x3e958fb1	0.2921119
70	0x3eb66496	0.35623616
71	0x3f61c7de	0.881956
72	0x3d1d211f	0.038361665
73	0xbd90d230	-0.0707134
74	0x3f5ba121	0.8579274
75	0xbe040197	-0.12891231
76	0x3e92267d	0.2854499
77	0xbce28545	-0.027651438
78	0x3c93de44	0.01805032
79	0xbf12bb7b	-0.5731732
80	0xbe467a2f	-0.19382547
81	0xbdc683ff	-0.09693145
82	0x3d5382cd	0.051638413
83	0x3cdd5c9a	0.027021695
84	0x3f89f039	1.0776435
85	0x3f189f97	0.59618515
86	0xbea5101d	-0.32238856
87	0x3daf4a49	0.08559091
88	0x3c11478e	0.008867158
89	0x3dbd51a9	0.09244091
90	0xbe530e9a	-0.20611039
91	0xbc3b839e	-0.011444954
92	0xbf176767	-0.59142154
93	0x3ed7d490	0.4215436
94	0xbf2dcc2e	-0.6788968
95	0xbec10101	-0.37696078
96	0xbfba8f37	-1.4574956
97	0xbda83411	-0.08213056
98	0x3d8b6a6b	0.06807407
99	0x3dd880f8	0.10571474
100	0xbe98ed13	-0.29868373
101	0x3ea04861	0.3130522
102	0x3d921578	0.07133001
103	0xbd3ff9bc	-0.046869025
104	0xbe0fef5c	-0.14056152
105	0x3c959eab	0.018264135
106	0xbd5e1897	-0.05422267
107	0x3e90e3aa	0.28298694
108	0xbe0d31f4	-0.13788587
109	0x3f0d6b48	0.55241823
110	0x3d3a1d84	0.045438305
111	0xbf3f4ee6	-0.74729764
112	0xbfa5e87f	-1.2961577
113	0xbe96340d	-0.29336587
114	0x3f98dfac	1.1943259
115	0xbc7e65ac	-0.01552717
116	0xbee56f2f	-0.4481139
117	0xbd50e5ae	-0.05100029
118	0xbd39b9bd	-0.04534315
119	0x3ed35305	0.41274276
120	0xbee6329c	-0.44960487
121	0x3e986619	0.29765394
122	0xbe1dd860	-0.15414572
123	0x3f93723f	1.151924
124	0x3dd64fbf	0.10464429
125	0x3e98cc54	0.2984339
126	0x3d82af42	0.06381084
127	0x3d47caab	0.048777264
128	0xbcc7b1b2	-0.024376724
129	0x3de882e9	0.11353094
130	0x3cbd6772	0.023120616
131	0x3d7c768c	0.061636493
132	0xbf04010c	-0.515641
133	0xbec38a3a	-0.38191396
134	0xbe4e1b0c	-0.20127505
135	0xbf90b12b	-1.1304067
136	0xbcc912c3	-0.02454508
137	0x3dbb4c15	0.09145371
138	0xbf0b18c1	-0.54334646
139	0x3e26f0d6	0.16302809
140	0xbeec250e	-0.4612202
141	0xbe06689d	-0.13125844
142	0x3d898486	0.0671473
143	0x3f00c7c1	0.503048
144	0x3f4bd500	0.7962189
145	0x3ea70765	0.3262283
146	0xbd53ce93	-0.051710676
147	0xbd1536eb	-0.036429327
148	0xbf52a4d8	-0.8228278
149	0xbee9000e	-0.45507854
150	0x3ead889b	0.33893284
151	0x3df0d247	0.11758857
152	0xbd4fee2e	-0.050764255
153	0xbe5a67a9	-0.21328606
154	0x3e324be5	0.17411764
155	0xb8b58aa6	-8.656578e-05
156	0x3f23d28e	0.63993156
157	0xbf3ab223	-0.72928065
158	0x3f805ddb	1.0028642
159	0x3e854264	0.26027215
160	0x3f07a654	0.5298817
161	0x3c780304	0.015137438
162	0xbe06defc	-0.13171
163	0xbe4c58d2	-0.19955757
164	0x3e6f6acc	0.23380584
165	0xbecc7491	-0.39932683
166	0xbe048410	-0.12941003
167	0x3d8f34b3	0.069924735
168	0x3dcd9396	0.100379154
169	0xbcdd2c83	-0.026998764
170	0x3dcad200	0.099033356
171	0xbe39d085	-0.1814595
172	0xbd882d69	-0.06649286
173	0xbefcb3d0	-0.49355936
174	0xbd84df2d	-0.0648788
175	0x3f7e428a	0.9932028
176	0x3fd26f61	1.644024
177	0x3e06e534	0.13173372
178	0xbf014851	-0.5050097
179	0x3ce76c9c	0.028250031
180	0x3ea6600f	0.32495162
181	0x3ce0d972	0.027447436
182	0x3d3c0780	0.04590559
183	0xbe765f7b	-0.2405986
184	0x3e8f8ccf	0.28037116
185	0xbe1468e9	-0.14493145
186	0xbe12a6a8	-0.14321387
187	0xbfad2d3b	-1.3529428
188	0xbe1c571e	-0.15267608
189	0xbe879bf6	-0.26486176
190	0xbd293025	-0.04130568
191	0xbddfd901	-0.10930062
192	0x3cbdbe66	0.023162078
193	0x3deae653	0.11469712
194	0x3dc60840	0.09669542
195	0xbd5c02ca	-0.053713597
196	0x3e00a5d5	0.1256326
197	0x3ddee35d	0.1088321
198	0xbd8a1a03	-0.067432426
199	0x3dc80d17	0.09768122
200	0x3e17247d	0.14760013
201	0xbe587ebc	-0.21142095
202	0xbdbf9683	-0.0935488
203	0x3df4c074	0.1195077
204	0x3e0fbfc9	0.14038004
205	0x3ec01fba	0.37524205
206	0x3df28c02	0.118431106
207	0xbdf1ea7f	-0.11812305
208	0x3de6a242	0.11261417
209	0xbecd51ee	-0.4010157
210	0x3d01cb6a	0.03168813
211	0xbca8f8c0	-0.020626426
212	0x3f09981b	0.5374772
213	0x3d49cc4a	0.04926709
214	0xbe45a4ea	-0.19301191
215	0x3cf51acd	0.029920006
216	0x3cfabf14	0.030608691
217	0x3d842c5c	0.064537734
218	0xbd2b2177	-0.04177996
219	0xbea3f539	-0.32023028
220	0xbe2acfd7	-0.16680847
221	0xbd6ee013	-0.058319163
222	0x3d044ede	0.032301776
223	0x3c2dbdc7	0.0106043285
224	0xbd94bc43	-0.072624706
225	0xbdc8a179	-0.097964235
226	0x3dfac373	0.1224431
227	0xbe9087ad	-0.28228512
228	0x3d86310d	0.065523244
229	0x3b7f8c80	0.0038993657
230	0xbe8474ff	-0.2587051
231	0x3df4f11a	0.11960049
232	0xbad9a0cb	-0.0016603706
233	0xbda14da6	-0.078761384
234	0x3dda5b13	0.10661902
235	0xbc1426ca	-0.009042451
236	0xbc08cf1b	-0.008350159
237	0xbd2101c7	-0.039308336
238	0xbe367388	-0.17817509
239	0xbd769f82	-0.060210712
240	0xbd0e51f1	-0.034746114
241	0xbc59a041	-0.013282836
242	0xbcf3fae6	-0.029782724
243	0xbbfb7997	-0.0076744067
244	0x3cca2596	0.024676125
245	0xbc823ac9	-0.015897172
246	0x3d35fd07	0.04443076
247	0x3d98d947	0.07463317
248	0x3d45b408	0.048267394
249	0xbe0d0a86	-0.13773546
250	0xbe83ac02	-0.2571717
251	0x3c988816	0.018619578
252	0xbcefe248	-0.029282704
253	0x3d378b78	0.044810742
254	0xbd86f031	-0.065887816
255	0xbd304df3	-0.04304309

actor.4.bias f4 [9]
0	0xbf686e4d	-0.90793306
1	0x3f093e24	0.53610444
2	0x3f01d388	0.50713396
3	0xbcc95b73	-0.02457974
4	0x3bba4649	0.005684648
5	0x3d8e7f69	0.06957895
6	0xbc5b99a3	-0.013403329
7	0x3d1b847e	0.03796815
8	0x3d0c2135	0.034211356
