Plotting/saliencies_live/Multi_Pong/Sequence_Length_2/multi_pong_2__1__1721945456_checkpoint_1368.pt (torch, 89074 bytes, 11 tensors)

critic.0.weight f4 [128, 12]
00000000: 6816 573e 5bd7 c13c 2826 9a3e 1bc7 933c
00000010: 7d1c 523c 669e 133e 776c e5bf dcad 0240
00000020: 3373 763d c697 2c3e 4bae 99be 241b f33f
00000030: bd1c 093d 5ed8 043c 5992 8cbd 8583 8e3c
00000040: a731 42bd 8145 ac3c 26ed 1abf 9355 2a3e
00000050: 3200 8abd 791f 123e 1ca2 01c0 8c83 4340
00000060: 90c6 94bc a3d8 c43e 660f 7bbe 6e90 b9be
00000070: 4680 873d d832 1cbc 3e7d 913e 8b18 e43c
00000080: 51a4 673d 433c 723a 83ba 943e 7e08 393d
00000090: 8e29 053f c867 80be fa48 163f 3eb8 72be
000000a0: c393 c03c 1603 963c 1947 09bc 4e33 ebbd
000000b0: 15c8 6fbf 7662 f53e d0e6 c4bf 65c2 233f
000000c0: c622 cfbd 4818 5b3c 3d4c ccbb 9aa7 873c
000000d0: daf6 ad3c 0db7 c9bc 89db ce3e 7fcc ba3d
000000e0: 3111 073d 9e15 2a3d 4cd1 8d3f c458 0440
000000f0: 8c0e a3bd 506f 07bd b9b6 42be 3e2c dcbc
00000100: 572a a7be e142 c8be 872f 0bc0 e2e4 4dc0
00000110: 0070 093a fe26 afbb 3f56 e9bd 50d8 793d
00000120: f7d7 3d3e 5896 c6ba c5ab a1bd 38f9 763a
00000130: 3609 083e 6a9f 07be 098a 4240 fbca 4bc0
00000140: 6bf9 7bbc 375a 2f3c afc3 cbbd 695b 7abc
00000150: b152 2abd 0e8f 55ba 7b5d 19bd 584e 613b
00000160: 37f7 17ba 456f ac3b e1bf 9dbd 1518 903c
00000170: 7780 93bd bcbb 8b3d 5f93 eebf 093d 7540
00000180: 60e2 bebe bae4 033b ba50 35be 2495 4d3c
00000190: 8898 1abe 3e1d 1e3c 82c0 54c0 b625 913e
000001a0: ccbe f0bd 69c0 903c aa19 b43e f29c 093e
000001b0: 0771 69be 9539 c5be d2a5 d5be 83e6 0e3e
000001c0: 5f38 173d 02c2 dcbb 7630 31bf 42c0 003e
000001d0: cf33 b13e 2995 063e 249d e33f a21b c33f
000001e0: 99c4 b33d 80db a2bb 4ae6 2e3e 95aa 013c
000001f0: 86d6 103c 035b 1a3c 6f3b e23c f4d7 8c3d
00000200: 6e52 7a3c 8367 a8bc 920f 1440 13a9 78bf
00000210: 55e0 71be fb76 b9bb 0681 593d fba7 293c
00000220: bf56 ee3a 4891 fbbc f1e4 bfbf 11c1 b9bf
00000230: 9a0d 23bd cbee 163b cf43 bcbf cd81 f33e
00000240: a94e 233e e3eb 27bc c53d ccb8 1cc1 3f3c
00000250: 053c 213d 043b d63b 3fbd 4a3f 5268 ee3e
00000260: e9db edbd 4fb2 dcbc 451a 9cbf f4e9 ccbf
00000270: 6cbf b03c fe12 1abc 0508 623d 2781 713b
00000280: 07f1 ac3b ee65 993c 6609 6c3e 615d 813e
00000290: 3b1d f73d 2ea5 eebc cabb 0d40 8d7b ecb8
000002a0: bc1a b03d f1f5 13bc 6c91 78bb 5981 6a3c
000002b0: 80a7 dc3a 4d38 4f3e e57e 773e f0e2 5740
000002c0: 995e 48bd f6f8 33be f443 80be eb1d 41c0
000002d0: 213d 6f3e f3f3 53bd e260 8c3e 5c05 9fbd
000002e0: 41c7 8f3d ad39 00bd 9766 aebe 59d5 7a3f
000002f0: 0a5e abbd 32da a63a 0d90 c5bf dae2 90bf
00000300: dc30 a43e 9cc7 853c df59 4d3c ae64 6fbc
00000310: c86e e03d eab0 b8bd a58d 463f 7cb7 19c0
00000320: 7b31 213d a7d1 613d 35f3 9c3b 6e90 823f
00000330: 0b4c 2b3d 1e74 0ebd 6146 69bd ecd6 c63b
00000340: e9ad 06bd be5e b03d 03bd 39bd 46d1 303d
00000350: 9bf7 a2bc c7fc d3bd edc4 d1bf 3de9 1dbd
00000360: 0d34 3d3d 4ddc a2bb 5314 263d e1e5 ef3b
00000370: 7481 98bb 31e8 b9be c691 9e3a 2ce8 10c0
00000380: d230 10bc 8d76 b33e 76b7 163e 1fc7 0e40
00000390: 360d c03d 79a3 0c3b 6e7c c6bd b265 df3b
000003a0: f196 90bb d973 f73b ba35 3fbd 5098 24bd
000003b0: 907b 723d a087 51bd cd3d 7640 b16b 61c0
000003c0: bdd8 98be ea49 683c dd59 093e 03aa d0ba
000003d0: 2802 2cbe 960b 3abc 2e3a 57bd e6cf 7ebe
000003e0: ce16 243e 3e5d 643c 7ca3 7940 364e d9bb
000003f0: 2dc2 debc c70e 5c3c 72fd 21be 97f7 ad3c
0.21004641 0.02366226 0.30107236 0.018039277 0.012824175 0.14415893 -1.7923726 2.0418615
0.060168456 0.16854772 -0.30015787 1.8992658 0.033474673 0.008108227 -0.06863851 0.017396698
-0.047410633 0.021029236 -0.6051811 0.16634206 -0.067383185 0.14269818 -2.0255194 3.054904
-0.018161088 0.3844653 -0.24517593 -0.36243004 0.06616263 -0.0095336065 0.28415865 0.027843734
0.05655319 0.0009240547 0.29048547 0.045174114 0.5201653 -0.2507918 0.58705103 -0.23703095
0.023507958 0.018312018 -0.008378767 -0.11484395 -0.93664676 0.47926682 -1.5382938 0.639685
-0.101140544 0.013372488 -0.0062346742 0.01655941 0.021235872 -0.024623418 0.40401867 0.09121036
0.03297538 0.041524522 1.1079497 2.0679178 -0.07961759 -0.03306514 -0.19015016 -0.026876565
-0.3264949 -0.39113525 -2.1747758 -3.217095 0.00052428246 -0.0053452244 -0.11393403 0.060997307
0.18539415 -0.0015151007 -0.078940906 0.0009421292 0.13284764 -0.13244405 3.039675 -3.184264
-0.01537929 0.010702661 -0.09949433 -0.015280583 -0.041582767 -0.0008146622 -0.037442666 0.0034378972
-0.0005797031 0.005262288 -0.077026136 0.017589608 -0.07202237 0.06822917 -1.8638724 3.8318503
-0.37282085 0.0020125345 -0.17706576 0.012547765 -0.15097249 0.009650527 -3.3242497 0.28349084
-0.117551416 0.017669873 0.3517583 0.13438776 -0.22797023 -0.38520494 -0.41728073 0.1395512
0.036918994 -0.0067369947 -0.6921457 0.1257334 0.3460984 0.13142838 1.778233 1.5242808
0.087777324 -0.004970014 0.17080036 0.007914205 0.008840209 0.009421113 0.02761623 0.06877127
0.015278442 -0.02055717 2.3134503 -0.97132987 -0.23620732 -0.0056599355 0.053101562 0.010354991
0.0018183811 -0.030708924 -1.4991742 -1.4512044 -0.039807893 0.0023030515 -1.4708194 0.47559968
0.15947975 -0.010249111 -9.7389835e-05 0.011703756 0.03936388 0.006537797 0.79195017 0.46563965
-0.1161421 -0.026940493 -1.2195517 -1.6008897 0.021575652 -0.009403942 0.05518343 0.0036850662
0.005277756 0.018725362 0.2305046 0.25266555 0.12066122 -0.029131498 2.2145867 -0.0001127637
0.08598849 -0.009030805 -0.0037928475 0.014313065 0.0016834587 0.20236321 0.241695 3.3732262
-0.04891834 -0.1757544 -0.25051844 -3.017451 0.23363163 -0.05174632 0.27417666 -0.07764694
0.070204265 -0.031305004 -0.34062645 0.9798179 -0.08367546 0.0012729822 -1.5434586 -1.131923
0.32068527 0.016330533 0.012533634 -0.014611406 0.1095863 -0.09018119 0.7755988 -2.401824
0.03935383 0.05513158 0.0047897347 1.0200326 0.041820567 -0.034778707 -0.056951884 0.006068101
-0.032880697 0.08611821 -0.04534627 0.04316833 -0.019893458 -0.10350948 -1.6388222 -0.03855251
0.046192218 -0.0049701096 0.040546726 0.007321105 -0.004654104 -0.3630996 0.0012097887 -2.2641706
-0.008800702 0.35051385 0.14718422 2.2309034 0.0937752 0.0021459742 -0.09691702 0.006817543
-0.004412525 0.007551652 -0.046682097 -0.04018432 0.05919987 -0.051154733 3.847522 -3.522198
-0.29852858 0.014177779 0.13413186 -0.0015919808 -0.16797698 -0.011355301 -0.05254572 -0.24883994
0.16024324 0.013938246 3.9006033 -0.006631638 -0.0271922 0.013431258 -0.15819338 0.021236224

critic.0.bias f4 [128]
00000000: 06f7 923d b694 823d 1a93 04bd 6cbb ec3e
00000010: 2403 88bd d8e7 fdbd e2ab f93d e634 85bd
00000020: 9caf cabd 65ef 90be df30 80bd 36fa 06bd
00000030: 912b 033c 01b6 403c 6f43 3dbb 662f 833e
00000040: de7d 903d c54e cc3c 4773 92bd b676 9cbb
00000050: 35f6 f0bb 7ada 0b3d 27f3 b93b 238a 7abe
00000060: 6d79 26bf 3d88 be3d 0b0a 78bd 0237 643f
00000070: 9c66 a63d 2c46 2d3e f246 e03e af89 813c
00000080: 1b38 bfbc f438 883c dbdb c6bb d948 77bc
00000090: 9c67 b8bd 7b70 99bd cfb9 d6bd 170c 4cbe
000000a0: c6a6 613d 93d0 1cbd ce91 603d 2017 84bc
000000b0: c6f9 fabd 4a47 9cbd 87fc a23e 0468 92bc
000000c0: 31ff 91bc 2805 8abc 0648 583b e087 b03d
000000d0: 0bd5 a4bd e478 c63d 9233 da3a 188f 28bd
000000e0: 751e c03d 8e12 673d 6de3 273b 7150 193c
000000f0: 71fd 90bd ef3f c1bc 84db 7bbd e3d8 d4bd
00000100: 40ba 81bb e67a 1a3e 5711 8f3d 67f9 b838
00000110: 3c49 97bc db0d 8fbe 0f1c dbbc d2eb df3c
00000120: 8a06 c73a cc85 5abd 4944 bdbc 6b0e 20bd
00000130: 7674 59bd 40db a53c 9bcd 193e 665a 41bd
00000140: 1bb1 b2bc 1b81 7dbd fcd2 dd3d de26 9abb
00000150: 867e a93d ffdd 973d abb3 6ebe bd9b 32bd
00000160: c387 40be fa9d 4bbd d1c0 01bd e57b f5bc
00000170: 05bd 8fbc 8dca cb3c bada a83d 2e49 22bd
00000180: 4047 3cbd 3972 233f 8ce0 923d 528d 85bd
00000190: db0f d5bc 4db5 7abb 2731 15be 6b5e 38bd
000001a0: da0a dfbe 962d 13bd 6f10 92bb 8872 fcbd
000001b0: dcef af3c 238c acbc 846f 6d3e 1050 88bd
000001c0: bae4 223b 05b1 7dbb 3f5e 5ebe 07fd a43d
000001d0: b1f8 bf3e 49c2 a83d 6c6b ee3c 2114 a53d
000001e0: c694 c53d 3833 8bbe 4628 bebd a22f 8bbd
000001f0: 4a6a 833d 2832 233d 2854 11be fa88 0d3e
0.07176022 0.063760206 -0.03236685 0.46236742 -0.06641224 -0.12397736 0.12190987 -0.0650423
-0.09896776 -0.28307644 -0.062593214 -0.032953463 0.0080059925 0.011762143 -0.0028879305 0.256221
0.07055257 0.024939904 -0.07150894 -0.0047748936 -0.007353569 0.034143902 0.005674738 -0.24466757
-0.6502903 0.09303329 -0.060556453 0.89146435 0.0812504 0.169213 0.43804127 0.015812723
-0.023342183 0.01662872 -0.0060686893 -0.015093052 -0.09004137 -0.07492157 -0.10484659 -0.19926487
0.05509069 -0.03828485 0.05482655 -0.016124308 -0.12254672 -0.07630785 0.31833288 -0.017871864
-0.01782188 -0.016848162 0.0033001914 0.08619666 -0.08048447 0.09691027 0.0016647449 -0.04115209
0.09380809 0.05641418 0.0025617734 0.009357558 -0.0707959 -0.023590056 -0.061488643 -0.1039293
-0.0039589703 0.15085945 0.06985729 8.8202585e-05 -0.018467538 -0.27940258 -0.026746778 0.027334128
0.0015184444 -0.053350255 -0.02310385 -0.03907625 -0.05308958 0.020246148 0.15019839 -0.04720535
-0.021812966 -0.061890703 0.10831258 -0.0047043404 0.082760856 0.07415389 -0.23310725 -0.043605555
-0.18801789 -0.049711205 -0.031678025 -0.029966304 -0.017546186 0.024876857 0.08244844 -0.03962057
-0.045966387 0.63846165 0.07171735 -0.06521095 -0.026008537 -0.0038255036 -0.14569531 -0.04501192
-0.43562967 -0.035932146 -0.0044575254 -0.123265326 0.021476679 -0.021062916 0.23187071 -0.06655896
0.002485557 -0.0038710248 -0.2171564 0.08056074 0.37494424 0.08240182 0.029103957 0.0806048
0.09647517 -0.27187514 -0.09285025 -0.067961946 0.064167574 0.039842755 -0.1419226 0.13821784

critic.2.weight f4 [64, 128]
00000000: 128c 11bd e05a e73d 74a6 723e 7750 7e3c
00000010: 6f32 cfbe 6610 653c b5ac 863e fca7 3e3e
00000020: 3a00 d93e 7c90 e73c 6e28 3fbd fbed 2f3e
00000030: 1b39 793e 8363 a83e 2a83 42be 94c2 8d3e
00000040: 13ae 5c3e 4d09 ba3e fdc1 663e 798d 5dbf
00000050: c9bd ff3d 430d 1dbe 1b8a 82be adf5 173e
00000060: f14a 06be 6c6b f43e d137 90be 609a 173d
00000070: 2551 8b3e 8ced f43d d9ba ca3d ce2f 82be
00000080: 1305 dbbd f48d cf3d 4151 e63e 3caa 14be
00000090: 3a94 a1be 1391 733d cbdb 93be 3837 203e
000000a0: e1ec e03c 8e8e ddbd e93f 893e ba93 9cbd
000000b0: b000 143d 744d 483e 0c21 fcbd c91e 38be
000000c0: 3b5b b53d 0624 963c 8df9 79bc c995 703c
000000d0: 7a9b f13d 2f6d 10be 2b02 273e 8444 5ebd
000000e0: eeb4 a0bd f5d4 783e e577 3bbe 876e 453c
000000f0: 8125 02be cf84 1bbe 9559 3f3e 89c5 aabd
00000100: 3afc afbd da85 00be 5054 0cbf 1339 6fbd
00000110: 56f6 04be a3d5 533e 5da2 81be 80ee 81bc
00000120: 4c88 8cbf 4799 b33e aa10 d13d fd73 073e
00000130: 8477 12bf 0363 5a3e e02d 45bc b0ee 6a3e
00000140: 8c61 8b3c b707 cbbe d2ef a33e c76b 9cbd
00000150: 0579 a23c bd0d 3a3d 89a6 96be dbdb 30be
00000160: fb4c 3dbe 6d4c 36be a3f3 a63e 1937 2c3e
00000170: 8160 8abe c93d 62be 3ccb 31be 03de 7c3e
00000180: cdcb a8be 7541 f63e f291 2cbb 80fa 82be
00000190: fb9e cfbd 103f 6a3e 5404 7dbe c455 4e3e
000001a0: 94e5 05be 1c60 c6be 5740 1abe 1fa7 94be
000001b0: 4be8 b43d 72b3 673c 482c a2b9 85a8 e1be
000001c0: dfd4 2ebf 2219 983e 6bd3 fe3d 8a0d 0cbf
000001d0: 2105 9b3e c984 d63d 7a2a 98bc 4c53 513e
000001e0: 0775 a8bd 3696 29be 37b8 44bd f1a4 abbd
000001f0: 16f6 36be 3354 debe 89e2 893e cdb0 103d
00000200: dbb7 043c 4ba3 b3be b926 dd3d 2d6c 4a3f
00000210: 961a 8f3f 7c95 17bd abf3 cfbd 9187 c63d
00000220: a91c 1f3e a4a4 d93d a12d a5bd 1a69 0e3f
00000230: e8d6 c2be 56bd af3d 1371 91be 546f e0bc
00000240: 164e 803e 85f5 493e 92b5 19be 3686 923f
00000250: 4a24 5abe 07bc 93be 901b 373f c6e5 20be
00000260: 6c00 29bd 7be0 623f 96f9 b4bd aea5 2cbf
00000270: c80a 433e d9b3 9dbe af4f 023e 5f0f 60be
00000280: 7d60 0c3f f836 4d3e 19ff 3e3d 6f08 913e
00000290: 0524 15bf fdd9 ccbe e8a5 c73e 0cee 1dbe
000002a0: 6a3d 153d 6089 cbbd 476f 4abf 0295 563e
000002b0: 0b2e 1abd a840 2cbc e14a debd ac76 13be
000002c0: 6682 023e c815 13be 992b 8dbe f6ec c83c
000002d0: 26a4 a83e 2f71 9dbe aaca e23e e8b4 f1bd
000002e0: 2b40 5fbe ce88 68be e275 0b3f 5492 29bc
000002f0: 337e 03bd 24bf d2bc 4e46 12be aa34 c2be
00000300: e27b 9fbd 5dac 45bd d62e 9b3e 9f14 9abd
00000310: 1d9b 25bf a3cd 583d cddf 603d 4daf eebc
00000320: 114b 753e 333f f93d 8d59 363d fa7b 023d
00000330: 76dc d33f fa70 6dbd 08c5 62bd c224 69be
00000340: dd0b 49be 3f6f cfbe fb01 4cbf 1622 94be
00000350: 94ef 8b3d 12e7 113f 6c54 aa3e 36af 02bf
00000360: a683 06bc 9280 303d 77ad 9ebf 4583 23bf
00000370: 9b4d 003f d3de cebe 62f9 03bf e6aa 0fbf
00000380: efd4 a6be 9ca5 4e3f 352a bfbf 899f 0ebe
00000390: 8f59 273e 8f29 0d3e 4f7a 7c3e bab8 b5be
000003a0: fc48 86be a2e4 663f 52cd 29be f21b 93bf
000003b0: dc0b 483c 2990 b3bd 4486 923d 918e 883f
000003c0: addf 943e b434 113f f181 47bd 0b00 f1bc
000003d0: 3600 a2be 85c0 fbbe b0eb 103f 66f7 683c
000003e0: c550 0bbe 0ec3 c13c e7c6 0abe 9489 05bf
000003f0: 009f 3a3f 9e0a 553d 9796 1abc 6a4c d6bd
-0.035533972 0.1129663 0.2369631 0.015522114 -0.40468165 0.0139809605 0.2630364 0.18618768
0.42382985 0.028267138 -0.046669416 0.17180626 0.2433819 0.3288842 -0.18995348 0.27687514
0.21550779 0.3633522 0.22534938 -0.86543995 0.124873705 -0.1533709 -0.2549599 0.14839812
-0.13114525 0.47738206 -0.28167585 0.037012458 0.27210346 0.11959371 0.098989196 -0.25427097
-0.10694327 0.10134497 0.44983867 -0.14518064 -0.315584 0.059464525 -0.28878626 0.15646064
0.027456703 -0.10818206 0.26806572 -0.07645364 0.03613347 0.19560796 -0.12310991 -0.17980494
0.088552915 0.018327724 -0.015257251 0.014684149 0.11797233 -0.1410415 0.16309421 -0.05426456
-0.078470096 0.24299987 -0.18307455 0.012050278 -0.12709619 -0.15187381 0.18686517 -0.08338458
-0.0859303 -0.1255106 -0.5481615 -0.05840404 -0.12984595 0.20686965 -0.25319186 -0.015860796
-1.0979095 0.3507788 0.102082565 0.1322784 -0.57213616 0.21326832 -0.012034863 0.22942615
0.017014287 -0.39654323 0.32018906 -0.076377444 0.019833097 0.045423258 -0.2942393 -0.17271368
-0.18486397 -0.17802592 0.32607755 0.16817893 -0.27026752 -0.22093882 -0.17362684 0.24694066
-0.32967988 0.48096815 -0.0026332107 -0.2558174 -0.10137745 0.22875619 -0.24708682 0.20149904
-0.13075858 -0.387452 -0.15063606 -0.29033753 0.08833369 0.014141904 -0.0003093204 -0.44073883
-0.68293566 0.29706675 0.124426685 -0.5470816 0.3027735 0.104745455 -0.018574942 0.20441931
-0.08225446 -0.16561207 -0.048027243 -0.083810695 -0.17867312 -0.43423614 0.26930645 0.03532486
0.008100475 -0.3508552 0.107984014 0.79071313 1.1179988 -0.037007794 -0.10153898 0.09693826
0.15538277 0.10627106 -0.08065344 0.5562912 -0.38054585 0.08581035 -0.2840658 -0.027396835
0.25059575 0.19722565 -0.1501067 1.1447208 -0.21302906 -0.2885439 0.7152643 -0.15712652
-0.041260168 0.8862378 -0.08836667 -0.6744031 0.19047081 -0.30801275 0.1272571 -0.21880864
0.5483473 0.200405 0.04663 0.28326747 -0.58258086 -0.40010062 0.38993764 -0.15422839
0.036435522 -0.099383116 -0.79076046 0.2095528 -0.037641566 -0.010513462 -0.10854126 -0.14400738
0.12745056 -0.14363778 -0.27572325 0.024527054 0.32937735 -0.30750415 0.44295245 -0.11802083
-0.21801822 -0.22708437 0.5447675 -0.010349829 -0.032102775 -0.025725909 -0.14284632 -0.37930804
-0.07787301 -0.04826008 0.3030917 -0.075234644 -0.6468981 0.052930485 0.054900933 -0.029136324
0.23954417 0.121702574 0.044518996 0.031856515 1.6551654 -0.05796907 -0.055363685 -0.22767928
-0.19633432 -0.40514562 -0.7969052 -0.28932256 0.06832805 0.5699321 0.33267534 -0.510486
-0.008210098 0.043091364 -1.2396687 -0.63872176 0.50118417 -0.40404376 -0.515524 -0.56120145
-0.3258433 0.8072145 -1.4934756 -0.13928045 0.16342758 0.13785385 0.24656032 -0.35492498
-0.26227558 0.90192616 -0.1658223 -1.1492903 0.012209859 -0.08767731 0.071545154 1.0668508
0.290769 0.56721044 -0.048707906 -0.029418966 -0.31640786 -0.49170318 0.5660963 0.014219141
-0.1360503 0.02365258 -0.13552438 -0.5216305 0.72898865 0.05201208 -0.0094353175 -0.104637936

critic.2.bias f4 [64]
00000000: 6009 a03e 7f8b 553e a12c cbbd 35ea ae3d
00000010: 81f8 c83d 3768 933e 6cfe 17be 70af bd3c
00000020: d2ad 8f3e a87d 173b 8965 2d3f a770 513d
00000030: b54a ad3e a17e 923e 147f 893e 93ab 813c
00000040: 1745 33be db8f 8dbc 80d3 6bbe d590 a6be
00000050: 72e6 293c 2556 953e 6e66 013f 8669 bebd
00000060: e125 c33d 4cd3 ccbe 9a98 8fbd f14a 87be
00000070: 7bc3 57be 604a 1c3d 9452 323e f0e4 6cbd
00000080: c559 3c3e 9ce0 113e bb63 883e 5874 28be
00000090: ebee 8e3e d5bd 4ebe 10ec 0e3e d53f 1fbf
000000a0: 3906 9fbe 64ec bcbe 0a98 473e 0410 7ebe
000000b0: ee78 0a3e 4a8f b3be e68e 6bbe 1f27 77be
000000c0: 8560 30bf 87b2 0b3d cb0a d83c 228e 573f
000000d0: 083f 253e 1b9a 403e 3854 e33d af26 a1be
000000e0: 0f23 a4be 180d 53bf 3233 30be 9a98 35be
000000f0: 7805 923e 4154 e53e f6e2 8f3d 42a4 3dbe
0.31257153 0.20853995 -0.09920622 0.08540765 0.09813023 0.28790447 -0.14843148 0.023154944
0.28062302 0.0023115668 0.67733055 0.051132824 0.3384606 0.28612235 0.26854765 0.015828883
-0.17506824 -0.01728051 -0.230299 -0.32532373 0.010369884 0.29167286 0.5054692 -0.09297471
0.09528709 -0.40004957 -0.07011528 -0.26424363 -0.21070664 0.038156867 0.17414314 -0.05783552
0.1839362 0.14245838 0.26638588 -0.16450632 0.27916655 -0.20189603 0.13957238 -0.62206775
-0.31059435 -0.36899102 0.19491592 -0.24810797 0.13522694 -0.35070258 -0.2300373 -0.24136017
-0.6889728 0.034105804 0.026372334 0.8420125 0.16137326 0.18808787 0.11100048 -0.31474826
-0.32057998 -0.82441854 -0.1720703 -0.17733994 0.28519797 0.44790843 0.07025711 -0.1851969

critic.4.weight f4 [1, 64]
00000000: c02b 423e 5016 103e 6d82 113f e70d f5be
00000010: 6728 073f 4dd2 dc3d 628d c6be 51f7 53be
00000020: 9b53 983e f611 e5be beb8 1c3f 0db5 d63e
00000030: d68e 723e f7e7 4cbe 8d47 e33e c985 b63e
00000040: 2e6b 94be 2598 a8be 5cbf a2be a7b3 92be
00000050: 756c ad3e 0daf 733e 370b dc3e 113f 3cbe
00000060: 5701 603e 9e7d 5bbe 1913 773e 52cf 5dbe
00000070: fd28 b8be 643c be3e 72c5 d23e fd41 02be
00000080: aaf8 4f3e 7c38 a23e 13c6 a03e 4bc3 20be
00000090: 5d92 353f 0823 c9be 5bf1 b23e f385 d3bf
000000a0: 027a 34be 2d50 32be d000 93be 1c67 97be
000000b0: 0082 8ebe e8c3 8abe 8043 c9be dda3 50bf
000000c0: a512 eabe d214 a6be 7cbe f03e a7f5 413f
000000d0: c8eb b63e c744 533e ea07 cf3e f4b3 30be
000000e0: 54cd 24bf 4223 1fbf 7520 54bf fbba 85be
000000f0: 2af4 983e 7e1d fa3f 0019 653e aeb6 50bf
0.18962002 0.14071012 0.5683964 -0.4786217 0.52796024 0.10782299 -0.38779742 -0.20699812
0.29751286 -0.44740266 0.61219394 0.41935006 0.236873 -0.20010363 0.44390526 0.35648945
-0.28988022 -0.32928577 -0.3178662 -0.2865269 0.3387181 0.23797245 0.42977306 -0.18383433
0.21875511 -0.21434638 0.24128379 -0.21661118 -0.35968772 0.3715545 0.41166264 -0.12720485
0.20309702 0.3168372 0.3140112 -0.15699498 0.7092646 -0.3928454 0.34949765 -1.6525253
-0.17624667 -0.17413397 -0.28711557 -0.29570854 -0.27833557 -0.2710259 -0.3930931 -0.81500036
-0.4571735 -0.3243776 0.47020328 0.7576546 0.35726762 0.20631705 0.40435725 -0.17256147
-0.64375806 -0.62163174 -0.82862025 -0.26119217 0.29873782 1.954025 0.22372818 -0.8152875

actor.0.weight f4 [128, 16]
00000000: d346 f53c 536b abbe a423 e83e 1236 df3e
00000010: bf78 75be 2a81 8a3f abc2 66bc bc8e c4bd
00000020: d608 6ebf 2515 57bf 5839 e33e 8d74 9fbe
00000030: 3c1a ffbd c8d7 90be 0dcb 3ebe 7f03 303e
00000040: 0d4a 803e eec2 d83c 3f6e 50be 8be0 f63d
00000050: 53e9 f53d 6963 83bf 2ca8 74bd ae8c dd3d
00000060: 8a80 81bf 394e a93f b2c5 403f 3ad7 f83d
00000070: 4d52 2dbf 9b82 7f3d b7b8 173e 3758 b4bd
00000080: 8e01 633e 970c dcbd 85eb abbd 2bb8 ab3c
00000090: c035 eb3e a85e dd3f 41b1 58be 92b6 183c
000000a0: 32f8 88bf 1ca9 e83e e2f4 b33e 444c 34bf
000000b0: 9361 433f 22b2 ee3d 2b96 dcbd f356 e43d
000000c0: 6c03 863e 4bae 373e 6182 673b 4f94 78be
000000d0: 56e9 ddbf 8277 9abf 6fcc 173d 8a60 8b3d
000000e0: 61dc bf3d 366a 413d 8d10 a33d 15c5 16bd
000000f0: 28f1 373e ee4f 203e 4a4e 653e 7f93 f1bd
00000100: a09f 08be 4629 c33d 3870 3abc 4311 99bc
00000110: b780 0fbe 23d6 863e 9f34 7f3e 141e 243e
00000120: c2f2 2d40 a385 1dbf 28b5 9a3d 8d10 94bd
00000130: 817a 16be 0783 07be c333 4abe 688a 283d
00000140: ef82 7c3e a651 77be f733 ff3e 69c8 d2be
00000150: 9f44 e0bd 6ec3 6f3f c23c a33e 3d81 54bd
00000160: a5f2 34be 483a 5d3f a2d1 cbbc 7caa 8dbe
00000170: c220 963e 8b50 573e 3368 0dbe a8e3 0b3e
00000180: be41 a2bd 9f82 33be 03ea bfbd b6c6 adbe
00000190: a269 663e 6328 4abe 92bd 733e 8e8b 1a3f
000001a0: b6a1 d6be 52f7 133f a010 93be 548e ad3d
000001b0: 3fae d9be 720a 1ebe cc38 aabd 5678 a23d
000001c0: ea99 bfbc 9437 81bd 2a14 12bd 7cac a0be
000001d0: 48e5 13be e156 35bf cd5e 353f 1cc9 393e
000001e0: a442 393f 452c 583e 2fe0 503f 6923 f7be
000001f0: c91c 27bf 93f7 65be ca20 90be 2880 d13e
00000200: 2319 653e b6f3 cebd 4f0f be3e 1365 afbd
00000210: 0683 92bf 4ff0 813f 02dd 81bd 9579 183e
00000220: eb9a 8d3d d489 033f 852c b5bd 5b79 be3d
00000230: fa1b 0d3f c71f e73e 6f74 003f 61e3 92be
00000240: 0906 8c3d 229d 88be 0185 adbe e7d1 843e
00000250: 2566 90bf 2ad7 273f cc92 683e 5a1a b3bc
00000260: 3b1b 873f 1679 303f 4607 a6be fb08 20bf
00000270: 0eb8 383f b349 843d fb7d 3a3e f5e1 cfbd
00000280: 5c75 e9bc ccac dfbd 8bd6 02be e890 7cbe
00000290: 44fd 473d d8d8 edbf 963e dc3b 49b9 533b
000002a0: cdb2 8a3e 4bcc 25bf 570f cc3e fdb5 7b3e
000002b0: d6d5 51be cc5b 7c3c a881 28bf c0b5 b13e
000002c0: ff60 523e 2bed f93e 077f 73bd 0024 9abe
000002d0: 650d 0bbf 0be6 0a3f 51ac 8fbe 0804 303e
000002e0: 8d5b 1c3f 760b 35bf 2117 153f 36d3 a3be
000002f0: ee88 5bbe 86a0 1f3e 1b9a ddbe 525d b63e
00000300: 314f 9abe 77a5 2d3f 7999 b73e 50b5 2dbf
00000310: fa24 773f 385b 07bf e980 f3b8 48f6 8e3a
00000320: 1b1a c5bd 04d4 edbd e167 973c 281a df3c
00000330: 5da0 8cbd d06f e3bd 19ad afbd dec6 ce3d
00000340: 0006 973d a146 8ebe 9b0f c2be 3cd6 bc3e
00000350: 9a14 bc3e 77fc a3bf 40a4 08bd b24f f1bd
00000360: 9506 623f 677a 3ebf 6761 24bf 78ab f7bc
00000370: 21b0 293e 8911 dcbe c946 c03d c27b dfb9
00000380: dea2 1a3d 13bd 07bf 6f7d 263c 0494 4fbd
00000390: e419 8e3e a512 51bf 1401 c5be 1e81 093f
000003a0: bb84 d9be b91d 94bb 1fff d1bd dbba a5be
000003b0: 4d89 543e 9418 0e3d 1bd4 103e 2b8d a73d
000003c0: 0032 ec3e a87d dcbd bdb6 a93e b4d2 fb3d
000003d0: a77c 92bf 0aea dd3e 591b 873e 1744 1d3e
000003e0: 9368 5dbd a69a abbe 532d 0ebe c68e 0b3f
000003f0: 2325 f13c e0ff 8cbe 7beb 933c 906f 093f
0.029940998 -0.3348032 0.45339692 0.4359594 -0.23971842 1.0820668 -0.014084498 -0.09597537
-0.9298223 -0.8401664 0.44379687 -0.3114361 -0.12456176 -0.28289628 -0.18632145 0.17188834
0.25056496 0.026460137 -0.20354556 0.12054547 0.12007394 -1.0264713 -0.059730694 0.10817848
-1.0117352 1.3226997 0.7530166 0.12150426 -0.67703706 0.062380414 0.14816557 -0.08805888
0.22168562 -0.10744589 -0.08394531 0.020961842 0.45939445 1.7294512 -0.21161367 0.009320872
-1.0700743 0.4544152 0.35147768 -0.7042887 0.7632076 0.1165507 -0.1077083 0.11149397
0.26174486 0.17937581 0.0035325515 -0.24275325 -1.7336833 -1.2067721 0.037060197 0.06805523
0.09368206 0.04722043 0.07962141 -0.036809046 0.17963088 0.15655491 0.22393146 -0.11795711
-0.13342142 0.09529357 -0.011379294 -0.018684989 -0.14013945 0.26335248 0.24922417 0.16027099
2.7179418 -0.6153204 0.07554084 -0.07229719 -0.14695169 -0.13233577 -0.19746308 0.04114762
0.24659322 -0.2415224 0.49844334 -0.41168526 -0.109505884 0.9365758 0.31882292 -0.051881064
-0.17670687 0.86417055 -0.024880234 -0.27669132 0.29321867 0.21026818 -0.1380928 0.13661063
-0.079226956 -0.17530297 -0.09370806 -0.33940667 0.22501233 -0.19741969 0.23802784 0.60369194
-0.4192025 0.57799256 -0.2872362 0.084744126 -0.42515752 -0.15433672 -0.083116144 0.079331085
-0.023388822 -0.06309429 -0.03566376 -0.31381595 -0.14442933 -0.7083569 0.7084778 0.18143123
0.7236731 0.21110637 0.81592077 -0.48269203 -0.652783 -0.22457723 -0.28150016 0.40918088
0.2237287 -0.10105078 0.37121055 -0.085642 -1.1446235 1.0151461 -0.06340982 0.1489013
0.06914314 0.51382184 -0.08846382 0.093004905 0.55120814 0.45141432 0.50177664 -0.286891
0.068370886 -0.26682383 -0.33890536 0.25941393 -1.1281172 0.6556269 0.22712249 -0.021863151
1.0555185 0.6893476 -0.32427424 -0.62513703 0.72155845 0.064593695 0.1821212 -0.1015052
-0.028498344 -0.1092163 -0.12777154 -0.24664652 0.048825517 -1.85818 0.006721328 0.0032306483
0.2708954 -0.6476485 0.39855453 0.24581142 -0.20491728 0.015402745 -0.6582284 0.34708977
0.20544814 0.48813757 -0.059447315 -0.3010559 -0.54317313 0.5425727 -0.28061154 0.17189038
0.61077195 -0.70720613 0.58238417 -0.3199708 -0.21438953 0.15588579 -0.43281636 0.35618073
-0.30138543 0.67830604 0.35859278 -0.67854786 0.96540797 -0.52873564 -0.00011611154 0.0010907138
-0.0962412 -0.116127044 0.01848215 0.027234152 -0.06866524 -0.11105311 -0.08577938 0.10096525
0.07374191 -0.2778826 -0.3790253 0.36882198 0.36734468 -1.2811421 -0.033359766 -0.11782779
0.88291293 -0.7440552 -0.64211124 -0.03023313 0.16571094 -0.42982128 0.09388501 -0.0004262608
0.03775298 -0.5302288 0.010161742 -0.050678268 0.27754128 -0.81669074 -0.38477385 0.5371264
-0.42484078 -0.004520145 -0.102537386 -0.32369122 0.20755501 0.03469141 0.14143412 0.081812225
0.46131897 -0.107661545 0.3314723 0.12296048 -1.1444291 0.4334262 0.26388052 0.15358005
-0.054054808 -0.33516425 -0.13884477 0.5451473 0.029436653 -0.27538967 0.018056622 0.53685856

actor.0.bias f4 [128]
00000000: 3bc4 3abe 9f15 ec3c 05ec 4f3e c3ca 103e
00000010: 444f 83bd 2f68 703d 24ad 90bd bed9 31be
00000020: ecba 533e 8ee7 ba3d 2ef7 633c 06c7 363e
00000030: 0f3a 15be 609c 86bd d7ec b13c cf42 893e
00000040: 7116 073e a1f7 9ebd 55cc 593e 2c50 6e3e
00000050: 7fdb 9ebd 20c9 a93e 578a 4dbe d3e3 1a3e
00000060: 9b7f 22be 237b 303d 0886 263e 109e ccbc
00000070: 9e90 193a 4de5 7abd bd52 49bd 254d 063d
00000080: 3c6a 6a3d 7d92 85bc d9c2 03be d2dd 083d
00000090: 90c1 2f3e 2a17 a4bd 3c83 11be 3c50 f43c
000000a0: a05b 6fbc 23c8 20bd 1852 ddbd 5131 c23e
000000b0: e527 72be ba0f a63e 6fae 233e 2134 d93d
000000c0: fbc2 903d 1a53 2bbd 9c0e 1b3e 98a7 023e
000000d0: 3a87 d73e fd52 073e e2f9 5b3d 8e2c 013e
000000e0: 8b02 c03d 3293 973e 0283 803c 21e5 823e
000000f0: 3199 01be d749 35bd ce25 6d3e e15c 383d
00000100: ed53 2dbe bee0 adbc d58f 9bbe 7b2f a73d
00000110: ed21 9dbe 8a9f 913e f068 47be 0708 97bd
00000120: f801 953c f1dc c9bd 40c5 18bc b910 b03d
00000130: 1e26 ec3c 24ed 9c3c 9297 0dbe a10e 723d
00000140: 23c9 993d e4db cfbd 7d7d efbd a2bc 48be
00000150: 2572 333e 03e2 5a3e 1eb9 b43c 6d44 4fbc
00000160: a0c1 d13d d6cf 0d39 ba12 43be ef7f 94bd
00000170: b90c 8abd c8cc 58be 887e 5b3c 7d09 cebd
00000180: 2850 88be b44c 82bb 5dca 5ebd 1de6 58bd
00000190: 25ba 40be 666a 00be 16ee adbd 8a4a 563a
000001a0: 5e1e 4d3e 6600 2c3d dd1a 37be b281 8ebe
000001b0: 30fa b5bc 8a89 e2bc 4b7c 71be 352d 91be
000001c0: 2fe4 be3b 27f6 393e 559f 953d 8b38 623d
000001d0: 96f7 d3bd 445e 0abd c85c 023e b8bc 1e3e
000001e0: aaf5 c5be ed04 60bd b4cc 2ebd 9f82 afbd
000001f0: b47a f5bc 21f4 fcbd 3dea 863d fdbe f73d
-0.18238918 0.028818903 0.20304878 0.14139847 -0.06411603 0.058693107 -0.07064274 -0.17368218
0.20676774 0.09126197 0.013913913 0.17849359 -0.14572929 -0.06572795 0.02171938 0.26808783
0.13192154 -0.07762075 0.21269353 0.2327277 -0.07756709 0.3316126 -0.20072304 0.1512597
-0.1586899 0.043086182 0.16262066 -0.024977714 0.00058580365 -0.061253835 -0.04915117 0.032788415
0.05723022 -0.016305203 -0.12867297 0.03341467 0.17163682 -0.08012231 -0.14210218 0.029823415
-0.014609247 -0.039253365 -0.10806674 0.3792825 -0.23648031 0.32433873 0.1598451 0.10605646
0.070684396 -0.0418273 0.15142292 0.12759244 0.42095357 0.13215251 0.053705104 0.12614653
0.09375485 0.2960449 0.01568747 0.25565436 -0.12656094 -0.044259872 0.23158953 0.04501045
-0.16926546 -0.02122533 -0.30383173 0.08163353 -0.30689946 0.2844203 -0.19473624 -0.07374578
0.018189415 -0.09856594 -0.009324372 0.085969396 0.02882677 0.019156046 -0.1382735 0.059095982
0.07509067 -0.10149363 -0.11693857 -0.19603208 0.17524011 0.21375279 0.022060927 -0.012650591
0.10242009 0.00013524233 -0.19050112 -0.07250964 -0.06740708 -0.21171868 0.013396867 -0.100604035
-0.26623654 -0.003976429 -0.054392207 -0.052953828 -0.18821009 -0.12540588 -0.08492677 0.00081745593
0.20031115 0.041992567 -0.17881341 -0.27833325 -0.022214025 -0.027653474 -0.2358257 -0.28354803
0.0058255414 0.18160306 0.07305781 0.055229705 -0.10349958 -0.033781305 0.12730706 0.15501678
-0.3866399 -0.054692198 -0.04267569 -0.08569836 -0.029965736 -0.123512514 0.06587646 0.12096975

actor.2.weight f4 [64, 128]
00000000: cfbc 4dbe 0583 e63c 3bb3 353d 2f93 b53e
00000010: d7ba bb3e e3d2 913d 7a2d d73e ba6e 8e3e
00000020: 6291 10be 4041 19bf afcb 48be 4166 043f
00000030: e4fe 4fbe 1d22 02bf a547 c0be 106f b03e
00000040: 1603 363e 79ef a13e cd80 553d 3ff0 0f3f
00000050: bb4d debe b3f3 263e 5b6c ed3d f4d3 083f
00000060: 2f52 d5be 9c7b e5bd 4ac0 093f cca6 213f
00000070: 318d 683d 0ce3 e23d 29cc cd3e 5b65 eebd
00000080: ccf4 3f3e 5f49 4b3e 3d92 46be 10d4 d03e
00000090: d575 cb3e 15a3 52be 3f0d 06be 64f6 503e
000000a0: 76a1 1d3f ce5c b03e c29b 3dbd 5ab0 803e
000000b0: fd24 d9be 01bc 57be b457 a4bd c226 b03e
000000c0: 3d6f 9b3e a620 3b3b 076b 58be cd1b acbe
000000d0: 3bd1 15bc e5fe 643e 4552 ef3a f9fd b13e
000000e0: c301 cabe 7e1c 70be 2dc2 af3d 6ace 693d
000000f0: 88f9 93be 9c68 b7be b924 16bf 0429 253d
00000100: 2d46 f23d 65f0 2ebd 529d 1ebf 0760 f83e
00000110: 75c5 85bf 85b3 5dbd c37b 2fbd da6b efbe
00000120: 8aa3 a3be c9f9 91be 1eff 7cbd d31f 3b3e
00000130: 716f 8b3e e451 87bc 4672 893e 9f8d 46be
00000140: d599 233e 3869 9fbe 095f 893c cd8c be3d
00000150: 7840 353f 7c07 f33d 0d37 aebe 38cd debd
00000160: 198a 9fbc 0bbc 0b3e dd44 283e 508f 12be
00000170: 11d8 ac3d fe25 22be 81d4 0fbe 928a d1be
00000180: 463e 003f 8776 713e 96fc f5be fd59 0b3e
00000190: 9ca3 91bd 9aec 11be e887 aebe 5637 fbbe
000001a0: 0bd6 8fbe 72d6 f5be 55a3 28be 27d0 10bf
000001b0: 778c bbbd 7f9b a8bd a5ea 56be 2a85 913e
000001c0: 7512 abbe 1f89 933d 2e9c 153f ffbf 713e
000001d0: ff4e 4b3e 6857 6abe e7b8 de3e 8b32 d73e
000001e0: 7353 e0bc c05d 91bb bc00 77bc f42d 0b3d
000001f0: bc00 2fbb 18b4 423e 5a16 c5be 5af2 563e
00000200: e7ea 14bf 5e32 e0bd 1f84 02bf dafd 5c3d
00000210: 63e8 33bb a426 bd3e 5c53 663e 5967 933e
00000220: 68fe f9bd 27fe e83e f739 063e 7cd9 a83e
00000230: 3c9b e4bd 1ccf 9abd 0758 cc3e 99f5 153e
00000240: 0a9b 203f a039 93bd 045d 673d 08fd 07bd
00000250: 6cbc eabe 471d 863e 2d15 fdbe 3aaf 083f
00000260: b7ca 6f3e 8382 27bf af65 0a3f 52e3 f63e
00000270: 4c45 553d 9dad 323e bf6c c8bd a702 d83e
00000280: aaab e4be 9abd 503e 1d46 de3b 3670 d8bd
00000290: 53f9 f93e ba1e b2be 5cca f63e ec0e d1bd
000002a0: 5de5 a33e 15f6 8b3e 63e5 9fbe a257 853e
000002b0: 8541 11be 07ad 323e 4651 a13e 047f 58be
000002c0: 8a97 e7bc 8b45 9b3d 0208 febd ea28 9cbd
000002d0: fe06 8dbb 35b4 6dbd 8105 eebe 6b80 e63d
000002e0: 577c 94bd d4f1 c3be 5b99 80bd d558 e8be
000002f0: 971e e43e a957 d53d aceb 87be 2459 cfbd
00000300: 77a5 6bbe a1d4 2abe fbbd a63c e1e2 073f
00000310: a159 61bf d962 c2bd 0dcd 5cbf ada0 a4be
00000320: 5c1d ba3d c0e2 c63e 1230 1dbf 3eac 86bc
00000330: 4dee a5be f890 dd3d 9d98 103d fdc3 9ebd
00000340: 5fde c7bc 50b7 893d 2b1d a93c 7935 1bbe
00000350: c1fc 3c3f e278 223e 3137 04be 3899 bdbc
00000360: 35c0 223e 4ad7 0abf e895 6bbe c5f8 213e
00000370: 29ff 5fbe d121 cdbd a5fd e8bd 3469 a5bd
00000380: 9749 c43e 1000 aabe 1fe9 08bf 52c5 333c
00000390: ae24 7bbe 3a1c f4be 27de ccbe 4d7f b4be
000003a0: 5a40 193d 2974 97be 551d b53e a3f1 04bf
000003b0: 0bf3 06bf b56a 4c3e 4f2f c53d 2223 3abe
000003c0: 6a3e 13bd eaa4 c1bd 7795 ee3e 3769 4d3d
000003d0: a242 d73e 4572 783e c0d4 2e3f ca62 bc3e
000003e0: 09f0 09be ab93 67be d4e4 34bd 6f0a e13d
000003f0: 8104 ac3c 8bc7 b8be 8862 9ebd 5cd4 2bbd
-0.20091556 0.028138647 0.04436038 0.35463855 0.36665985 0.071203016 0.42026883 0.27818853
-0.14117959 -0.5986519 -0.19608949 0.5171853 -0.20312077 -0.508333 -0.3755466 0.34459734
0.17774615 0.31628016 0.052124787 0.5622596 -0.4341868 0.16303901 0.11592933 0.53448415
-0.41664264 -0.11205217 0.53809035 0.63145137 0.056775276 0.11078462 0.40194824 -0.11640426
0.18745726 0.19852208 -0.19391723 0.4078679 0.39738336 -0.20570023 -0.1309099 0.2040649
0.61574495 0.34445804 -0.04629112 0.25134546 -0.42411032 -0.21067812 -0.080245405 0.3440457
0.30358306 0.0028553396 -0.21134578 -0.3361496 -0.009144123 0.2236286 0.0018258771 0.34764078
-0.3945447 -0.23448369 0.08581958 0.057081617 -0.28901315 -0.35821998 -0.58649784 0.04032232
0.11829791 -0.042709727 -0.619588 0.48510763 -1.0450884 -0.05412628 -0.042842638 -0.46761972
-0.31960708 -0.28510883 -0.061766736 0.18273859 0.2723346 -0.01651854 0.26844996 -0.19389962
0.15976651 -0.31134963 0.01676895 0.09304199 0.70801497 0.11866662 -0.34026375 -0.10878986
-0.01947503 0.13645951 0.1643252 -0.14312482 0.08439649 -0.15834805 -0.14045908 -0.40926033
0.5009502 0.23580371 -0.4804427 0.13608547 -0.07111284 -0.14250413 -0.34088063 -0.49065655
-0.2809299 -0.4801517 -0.16468556 -0.56567615 -0.09157651 -0.082327835 -0.20987947 0.2842191
-0.3341252 0.07203888 0.58441436 0.23608397 0.19854353 -0.22884905 0.43500444 0.4203075
-0.027383542 -0.0044362247 -0.015075859 0.03397937 -0.0026703319 0.19014013 -0.38493615 0.20990887
-0.5817093 -0.10947107 -0.5098285 0.05395303 -0.0027451746 0.36943543 0.22492737 0.28789786
-0.12206727 0.45506403 0.1310805 0.32978427 -0.11162421 -0.07559034 0.3991091 0.1464447
0.6273657 -0.071887255 0.05648519 -0.033200294 -0.4584688 0.26194212 -0.49430218 0.53392375
0.23417173 -0.6543352 0.54061407 0.48220307 0.05206804 0.1744904 -0.09786367 0.42189524
-0.4466222 0.20384827 0.0067832605 -0.105682775 0.48823032 -0.34789068 0.48201263 -0.10207924
0.32010928 0.27336183 -0.31229696 0.2604342 -0.1418515 0.17448817 0.3150732 -0.21142203
-0.028270502 0.07581624 -0.12403871 -0.07624991 -0.004303812 -0.058033187 -0.46488574 0.112549625
-0.072502784 -0.38270438 -0.0627925 -0.45380273 0.44554588 0.104171105 -0.2654699 -0.10124424
-0.23012339 -0.16682674 0.020354262 0.53080565 -0.8802739 -0.0949151 -0.8625038 -0.32153836
0.09087631 0.38844872 -0.61401474 -0.016439553 -0.32408372 0.10818666 0.035301793 -0.077522255
-0.024398027 0.06724417 0.020643791 -0.15157117 0.7382317 0.15866426 -0.12911679 -0.02314435
0.15893634 -0.54234755 -0.23006403 0.15817554 -0.2187468 -0.100162156 -0.11376504 -0.080767065
0.38337395 -0.33203173 -0.53480715 0.010972338 -0.24525711 -0.47677785 -0.4001324 -0.35253373
0.037414886 -0.2958081 0.3537394 -0.5193121 -0.52714604 0.1996258 0.09628164 -0.18177465
-0.035948195 -0.09455283 0.46598408 0.05014917 0.42043024 0.2426234 0.6829338 0.3679412
-0.13470472 -0.22614925 -0.04416354 0.10988318 0.020998241 -0.3608974 -0.07733637 -0.04195057

actor.2.bias f4 [64]
00000000: 2b64 583e 986e aa3d 617a 9c3d 25b4 7f3d
00000010: 1391 473e e9d7 823c 4a66 333d 7eae fe3e
00000020: 976e 203e db9b 873d 682f 90be cd43 f13b
00000030: 8f6f b9bd 3586 93be b4fd a13e 9a35 89be
00000040: 1bee 1e3e 73ec 083e df8b c43c 42d6 37bc
00000050: 0af0 5d3e 7f1a 8dbc 934c a13d 3d3e 2a3e
00000060: 88b0 ba3c 13a0 78bd 6f67 333e 0bfb b4be
00000070: 0fc1 003e b1bc 69be 342c 9fbe 67d6 51bb
00000080: 547f 963e 0506 943c 3993 cf3d 9313 e93d
00000090: 391d 56bd 9840 34be db66 cdbd 2a8d 2abe
000000a0: 3d0a 73bd 9fce a7bc 69c8 8fbd 1be6 cb3d
000000b0: 5f91 7f3d 532c 113d 2afc ec3d fc0b df3e
000000c0: 58a1 96be 4804 93bd 55d8 ccbe 3ab9 94bc
000000d0: c81f 4b3e 4433 dcbd 84ec 16be 2930 32bd
000000e0: 6cc0 65be e7da 533e 00e7 cabe 6a6a d4be
000000f0: 3ca1 0b3d e24d 7c3d 4ad5 913d 0117 673d
0.21131961 0.08321875 0.076405294 0.06242766 0.19488935 0.015972095 0.043798722 0.49742502
0.15667187 0.06621524 -0.28161168 0.007362819 -0.09054481 -0.2881333 0.31638873 -0.26798707
0.15520518 0.13371448 0.023992477 -0.011220517 0.21673599 -0.017224548 0.078759335 0.16625305
0.022789255 -0.060699534 0.17519926 -0.3534778 0.12573646 -0.22825886 -0.31088412 -0.0032018663
0.2939402 0.018069277 0.10135502 0.113806866 -0.052273963 -0.17602766 -0.10029384 -0.16655412
-0.059335936 -0.020484267 -0.07020647 0.099559985 0.062394496 0.03544266 0.11571534 0.4356383
-0.2941997 -0.07178551 -0.40008798 -0.01815473 0.19836342 -0.10751966 -0.14738661 -0.04350296
-0.22436684 0.20688973 -0.39629364 -0.41487437 0.034089312 0.061597712 0.0712076 0.056418423

actor.4.weight f4 [9, 64]
00000000: a738 413e 6f40 c7bd 356b 2a3e eadd 17bd
00000010: 1d11 7fbe b04c f93d 886f a73c a731 8e3e
00000020: aede 89bc b7ab 353d 1741 06be 2eb6 bf3d
00000030: 421c c73d 2537 df3d c296 dabc e7c8 b43d
00000040: 7f0d 06bf 9808 b8be b764 c23d ee48 333d
00000050: e49f 5ebe 25aa 05be b2ca 1c3e fe92 313d
00000060: 26af a43d 79fa a03d 9c6d 1d3e a66b b23d
00000070: 6191 91bd 1d9a 193e e3f0 37be 24b3 ef3c
00000080: fbbb 3c3f f616 e13c f643 b0bd a07e 353e
00000090: a7f9 403d 743b 883d 6f23 303d 3b9f 733d
000000a0: 4585 3e3d 3e37 ce3c 3f80 cbbc 0ca8 1ebd
000000b0: e5f1 8c3d 9508 d4bd bc1e c1bd 1e8c 10be
000000c0: e14d 96be f002 1c3e 957d 12bf 6b02 323d
000000d0: 7822 e43d bb5f 0a3e bca5 333d 8bbc 7cbb
000000e0: f2ec 83bd 9ee7 d1bd c3e9 1b3e deb9 903d
000000f0: bd64 2e3d 0e2c 133d b9c2 10be 5b40 683d
00000100: 11cd 66be fcd4 abbd b1f9 15bc dab5 2c3e
00000110: bace 243f 8e13 533e 4ad6 a23e 665d 1b3f
00000120: 84fd d33c d408 50be c980 203f 9e87 2ebe
00000130: 0078 a73e 4894 8fbd 6baf 0a3d 18fe 38bf
00000140: 1f48 68be be7d 51bc a516 083e 9c9e 7c3d
00000150: cd1e 803f d751 483f 0f7d e2be f9f9 8ebd
00000160: 5240 6e3d 0e26 213e 3b67 9dbe ee0d 0bbe
00000170: cf40 03bf 87a0 dc3e d007 16bf 5a29 e5be
00000180: 7756 a1bf 50df 0dbe 2f24 b53d b6a7 803e
00000190: 88c0 c4be cd3f 843e b99a 0a3e 2ea8 79be
000001a0: 0859 c9bc da2b 9d3d 4dd7 1f3d 002e 993e
000001b0: c013 afbd c994 2f3f ac9f ae3d abf4 35bf
000001c0: 3e92 79bf 8af9 72be aa13 793f 0bd8 babd
000001d0: 6a1d 09bf 67f1 84bd 5ebe fbbb 245e ea3e
000001e0: d8d6 89be 6973 be3e e40b ccbd be8f 833f
000001f0: b537 cf3d 01f5 a93e d876 0e3e e09c 393d
00000200: 9ca4 2a3d 8319 443e ae8b 19be 5697 debd
00000210: beba a9be 9ba9 b9be f390 a9be d036 5bbf
00000220: 07b4 f8bb 23ca 3b3e 612c eebe 1b04 7a3d
00000230: 9929 f0be 1e76 96bd eab3 68bb 3591 103f
00000240: 3c8d 4b3f 3f68 ce3e 4585 75be a7a8 e4bd
00000250: 9294 37bf 5d8b 1cbf cdd9 8a3e 01c1 6f3d
00000260: a375 14be 3259 7dbe 3577 033e ea32 c93c
00000270: 3829 0e3f 5cbe 17bf 8838 3a3f 1893 c43e
00000280: b3d3 e83e f1d5 bd3d c34a 1e3d f2e8 d0be
00000290: 46fa 9f3e bf6c acbe 6cce 49be dfa9 263e
000002a0: b5aa 0fbd af17 d1bd 9e20 d2bc 37e8 85be
000002b0: c0ea 1a3c 9e98 0dbf 6949 7cbb 1c3e 5c3f
000002c0: 1a05 a33f 0994 953d e0b7 b5be a4b6 0d3d
000002d0: 7c9c cc3e cca4 a4bd 86c8 58bd b2aa e4be
000002e0: f2c5 a03e 9039 84be a80b bcbd 7204 8dbf
000002f0: a5d1 09be f70f b9be 3c8e b43c f035 d9bd
00000300: 1ebd 823c ac43 163e c89d 93bd f6c8 bd3c
00000310: a822 cb3d 8185 303e 0c64 953c 0206 e23d
00000320: ac73 863e 079c 35be 08cc ce3c 5aa6 033e
00000330: 64bb 6c3d 503d b63e b336 5e3d 2c86 1bbe
00000340: 9c9e 063e 9eea abbe 5c67 403d f139 cdbc
00000350: c9cf 0e3f 786e 003e 2320 a6bd e6ec 6f3c
00000360: e85f 373e 506c d1bd 3458 adbd 6667 ecbd
00000370: 8f32 b8bd c078 023d 95a8 d1bc f4ac 29be
00000380: 0d61 2ebc 790e cabd 675e ba3d 77ba 41be
00000390: aa7a 833b 7241 abbd 33d5 78bd 0c8f 26be
000003a0: 2f49 ab3c 0b67 afbd 0f93 f43d 0e15 363d
000003b0: 894d 8c3c d08f a03d ee14 17bd e6f2 b83d
000003c0: e853 873d 25e5 c13d 7fcf 02be 6d7a f5bd
000003d0: e9f2 1b3d 827e 9f3d e00a de3d d4ed 12bd
000003e0: c9d4 6cbd c3bc 71bd 2cd0 88be 169f 693c
000003f0: 7b17 333c d45a 3a3e a803 eabd 4ab3 a63c
0.18869267 -0.097290866 0.16642459 -0.037076868 -0.24908872 0.1217283 0.020438924 0.27772257
-0.016829815 0.044353213 -0.13110767 0.0936092 0.097221866 0.1089919 -0.026683215 0.088273816
-0.52364343 -0.35944057 0.09491866 0.043770723 -0.21740681 -0.13053186 0.15311697 0.043353073
0.080412194 0.07860274 0.15373844 0.087119386 -0.07107807 0.15000196 -0.17962985 0.029260226
0.73724335 0.027476769 -0.086067125 0.17724085 0.047113087 0.06651965 0.043002542 0.059478026
0.046513814 0.025172826 -0.024841426 -0.03873448 0.06882075 -0.103531994 -0.0942969 -0.1411595
-0.29356292 0.15235496 -0.5722287 0.043459337 0.11139387 0.13513081 0.04385923 -0.0038564529
-0.06441678 -0.102492556 0.15225892 0.07066701 0.04257654 0.035930686 -0.14136781 0.056702
-0.22539164 -0.08390233 -0.009153769 0.16866246 0.6437794 0.20612928 0.31804115 0.6068939
0.025877722 -0.20315868 0.6269651 -0.17043921 0.3270874 -0.07010704 0.033858698 -0.72262716
-0.22683762 -0.012786327 0.13289888 0.0616747 1.00094 0.7824988 -0.44236037 -0.06981272
0.05816681 0.15737173 -0.3074282 -0.13579533 -0.51270765 0.43091223 -0.5860567 -0.4475811
-1.2604512 -0.13854718 0.08844792 0.25127953 -0.3842814 0.25829926 0.13535585 -0.24380562
-0.024578586 0.0767438 0.039023686 0.29917908 -0.08548689 0.68586403 0.08526549 -0.7107646
-0.9748877 -0.23728004 0.9729563 -0.09123238 -0.5356051 -0.06491356 -0.0076826056 0.4577495
-0.26921725 0.37197426 -0.099632055 1.0278242 0.10118047 0.33194736 0.13912523 0.045315623
0.04166089 0.19150357 -0.1499469 -0.10868709 -0.33150285 -0.3626221 -0.331184 -0.8563051
-0.0075898203 0.18338828 -0.46518233 0.06103907 -0.46906736 -0.07346748 -0.0035507628 0.5647157
0.7951238 0.40313908 -0.2397662 -0.111649804 -0.71711075 -0.6115015 0.27119294 0.058533672
-0.14498 -0.24741057 0.12838443 0.02456041 0.55531645 -0.5927484 0.7274251 0.38393474
0.45474014 0.09269322 0.038645517 -0.40802723 0.3124563 -0.33676717 -0.1970765 0.16275738
-0.03507491 -0.102095954 -0.025650319 -0.26153728 0.009455383 -0.55311 -0.0038495904 0.8603227
1.2735932 0.07303626 -0.35491848 0.034598008 0.39963138 -0.08039245 -0.05292561 -0.4466148
0.3140102 -0.25825167 -0.09181911 -1.1016982 -0.1345888 -0.36144993 0.022040479 -0.10605991
0.015959319 0.14674252 -0.07207829 0.023167115 0.099187195 0.17238428 0.018236183 0.11036302
0.26260126 -0.17735301 0.025243774 0.12856427 0.057795897 0.35593653 0.054251384 -0.15187901
0.13146442 -0.33577436 0.04697357 -0.025052043 0.55785805 0.1254214 -0.08111598 0.014643883
0.17907679 -0.10225737 -0.08464089 -0.11543159 -0.08994018 0.031853437 -0.025593081 -0.16569883
-0.010643256 -0.09866042 0.09100037 -0.18918787 0.0040124254 -0.08362092 -0.060750198 -0.16265506
0.02090892 -0.08564576 0.11942112 0.044453673 0.017126815 0.0783993 -0.036885194 0.09030704
0.06607801 0.09467534 -0.12774466 -0.119862415 0.038073454 0.07787801 0.10841918 -0.03587134
-0.057820115 -0.059017908 -0.26721323 0.01425912 0.010930891 0.1819871 -0.114264786 0.020349164

actor.4.bias f4 [9]
00000000: 3942 32bf b7dd d93e 055c b93e ff94 033d
00000010: 7e3d 5ebd 3173 423d 1c39 17bd e86f da3d
00000020: 2617 2fbd
-0.696323 0.42551968 0.36203018 0.032124516 -0.054257862 0.047473136 -0.036919698 0.10665876
-0.042746685
