Plotting/saliencies_live/Multi_Pong/Sequence_Length_2/multi_pong_2__1__1721945456_checkpoint_4408.pt (torch, 89074 bytes, 11 tensors)

critic.0.weight f4 [128, 12]
000000 f0 f4 62 3e b3 e2 14 3c 1b 17 a0 3e eb 4c a5 3c
       0.22163749 0.009087252 0.31267628 0.020178279
000010 11 67 fb 3c 53 5e 4b 3e ee 77 e8 bf 59 2e 12 40
       0.030688794 0.198602 -1.81616 2.2840788
000020 9a ca bb 3c fb 67 25 3e 2f 9f af be d4 ec 05 40
       0.022923756 0.16152947 -0.34301135 2.0925798
000030 ae 5f ea 3c 19 10 90 3b ff 88 96 bd 0e 07 7c bb
       0.028610077 0.0043964502 -0.07350349 -0.0038456353
000040 1f 0d e5 bc e2 06 31 bb d3 85 48 bf 6c 2d cb 3d
       -0.027960358 -0.002701216 -0.783292 0.09920773
000050 73 27 a1 bd 72 44 24 3e 1d 6c 18 c0 3e d5 6a 40
       -0.078688525 0.16041735 -2.3815987 3.6692653
000060 10 2a 1c 3d 2b 2f ca 3e fa 6c 41 be 48 7d bd be
       0.03812605 0.3948911 -0.18889228 -0.37009645
000070 c9 d1 a3 3c 25 51 80 bc ba 5c 30 3d 29 d8 c7 3b
       0.019997494 -0.015663693 0.04305718 0.0060987663
000080 93 f4 0d 3b 6c 4f 3b bc 1c b2 ab 3d 39 40 8e 3d
       0.002166067 -0.01143251 0.08383581 0.06945843
000090 1a 40 17 3f a4 65 91 be 86 5f 28 3f bd 1a 28 be
       0.59082186 -0.28397858 0.6577076 -0.1641645
0000a0 7e 6f dd 3b 8d 85 e8 3c b9 a5 f5 3c 8a 75 0e bc
       0.0067576757 0.028383994 0.02998625 -0.008695016
0000b0 21 ec 86 bf 99 90 d3 3e 14 c7 e2 bf c6 0a d0 3e
       -1.0540811 0.41321257 -1.7717004 0.4063322
0000c0 40 bd d2 bd 9f b3 16 bc 8e 01 03 bc 4f d7 f1 bb
       -0.10290003 -0.009198098 -0.007995976 -0.007380403
0000d0 28 b2 a6 3c 1d db 86 bb 1e 5c 11 3e c0 23 96 bd
       0.020348623 -0.004115476 0.14195296 -0.073310375
0000e0 d0 db f9 3c f8 0e b5 3d 49 b6 bf 3f 96 ff 13 40
       0.030500323 0.08840746 1.4977504 2.3124747
0000f0 19 da a6 bd b8 42 03 bd ca 9b 44 be 97 ab 12 bd
       -0.081470676 -0.03204605 -0.19200054 -0.035808172
000100 68 53 b8 be 00 5e ca be 91 ad 24 c0 c4 de 6b c0
       -0.36001134 -0.3952484 -2.5730937 -3.6854715
000110 4e 32 e3 3c 9f 44 44 bc d6 77 16 be 24 9a 35 bd
       0.027733948 -0.011979251 -0.14694151 -0.044336453
000120 2f 54 3c 3e ea 40 4e bb 40 b4 a4 bd aa 81 05 3c
       0.18391488 -0.0031471797 -0.080421925 0.00814859
000130 62 30 fb 3d 45 29 02 be 1f 37 75 40 33 d0 6c c0
       0.12265088 -0.12711056 3.8314893 -3.7002075
000140 91 5e 0c bc 65 63 db 3b 13 c8 29 be fc 62 87 bc
       -0.008567468 0.0066951984 -0.16580229 -0.016526692
000150 69 4b 22 bd e9 09 31 bc 81 55 11 bd 1c 50 ad bb
       -0.039622698 -0.010805585 -0.035481934 -0.005289091
000160 05 9f 12 bc e6 84 9a 3c 22 a3 03 be da 03 63 3d
       -0.008949046 0.018862199 -0.12855199 0.055423595
000170 5f 04 52 bd b5 2c 83 3d 1e 2f fe bf 96 aa 85 40
       -0.0512737 0.064050116 -1.9858129 4.1770735
000180 8f 51 a4 be 00 01 ed 38 88 30 00 be 49 87 a6 bb
       -0.32093474 0.00011301227 -0.12518513 -0.005082045
000190 0b a1 cd bd da 9b 02 bc 15 c9 52 c0 b8 a4 79 bc
       -0.10040482 -0.007971728 -3.293523 -0.015237026
0001a0 22 fc bf bd 22 f1 9e 3c 23 34 26 3f df e5 03 bb
       -0.093742624 0.01940209 0.64923304 -0.0020126028
0001b0 1c ef 7a be 97 ae 9a be 73 63 de be 0f 86 82 3d
       -0.24505275 -0.30211326 -0.4343525 0.06373226
0001c0 e3 06 52 3c 53 b5 9b bc c3 4e c4 be f7 fe cc 3d
       0.012819025 -0.01900736 -0.3834134 0.10009568
0001d0 e4 aa c1 3e 89 cc 2e 3e 56 93 0d 40 02 5b 99 3f
       0.37825692 0.17070211 2.2121177 1.1980898
0001e0 de ad db 3d 56 0c 50 bb ad d5 42 3e 99 2e 5c 39
       0.10726522 -0.0031745634 0.19026823 0.00020998194
0001f0 91 3a 1d ba 99 31 ed 3b 54 a0 9a 3d fb d4 72 3d
       -0.0005997802 0.0072385785 0.075501114 0.059285145
000200 30 a3 8e 3c 66 8d dd bc 2f 7e 32 40 34 1a 5b bf
       0.017411798 -0.027044963 2.7889516 -0.8558686
000210 da 6b 62 be 47 7e 4a 3b 14 a9 8b 3d 87 ed 5e bb
       -0.22111455 0.003089802 0.068193585 -0.003401609
000220 0d 64 8b bc 14 60 17 bd ac ff d1 bf 0c 03 c6 bf
       -0.017015481 -0.03695686 -1.640615 -1.546968
000230 f7 60 0a bd 44 b3 c0 3c 3e de c5 bf 5c 1e 31 3f
       -0.03378388 0.02352298 -1.5458448 0.6918695
000240 37 cc 33 3e 19 e1 97 ba 41 26 83 3c 18 ad 4f 3a
       0.1755837 -0.001158747 0.016009452 0.00079222163
000250 01 f3 5d 3d bc 81 31 3c a2 07 88 3f af 0d 1b 3f
       0.054186825 0.010834154 1.0627329 0.60567755
000260 17 ec c4 bd 45 cf c9 bc e5 bd bb bf be 75 e0 bf
       -0.09615343 -0.024634967 -1.4667326 -1.7535932
000270 33 9f ca 3c 55 d5 47 ba f5 f9 6e 3d fe cc 81 bb
       0.024734115 -0.00076230365 0.058343846 -0.0039612046
000280 12 4e 72 3d 6d d7 18 3c 1a 39 30 3f 79 60 59 3e
       0.059156485 0.009328705 0.6883713 0.21228208
000290 9d 2b ed 3d 22 a3 55 3b c8 f2 4b 40 f7 e8 00 3b
       0.11580584 0.0032598455 3.1866932 0.0019670108
0002a0 f1 38 b0 3d 1f da ed 3a a5 f9 74 bb 83 1b 15 bb
       0.08604611 0.001814667 -0.0037380245 -0.0022751994
0002b0 f5 5e f9 bc 54 de 3f 3e 05 9f be 3d bf 30 82 40
       -0.030440787 0.18737155 0.09307674 4.0684505
0002c0 d3 60 2f bd 5e 6c 44 be cc 5f 8a be 70 4f 72 c0
       -0.04281695 -0.19181964 -0.27026212 -3.7860985
0002d0 17 32 44 3e e4 be 96 bd 51 b8 6d 3e a4 7f b0 bd
       0.19159733 -0.07360628 0.23214842 -0.086180955
0002e0 f2 1d 04 3d d0 0e 28 bc ef ef d5 be 19 1a 01 3f
       0.03225512 -0.010257438 -0.41784617 0.50430447
0002f0 95 84 e0 bd 03 ad 49 3d e1 ed c6 bf 1c fe 4e bf
       -0.10962788 0.049237262 -1.5541345 -0.8085649
000300 d5 c0 a6 3e f4 bd 81 3c b5 99 8f 3c c6 54 d1 bb
       0.32568994 0.015837647 0.017529348 -0.0063882796
000310 ec bf c6 3d ef aa 9b bd 52 4a 8c 3f 4b c1 10 c0
       0.09704575 -0.07600962 1.0960181 -2.2617977
000320 23 1c aa 3c 3a 7b 87 3d bd da a4 be 76 fa 9a 3f
       0.02076537 0.066153005 -0.32198134 1.2107685
000330 37 e8 03 3d 5e 73 91 bb 80 53 88 bd 36 e3 55 bb
       0.03220388 -0.0044388017 -0.06656551 -0.003263665
000340 d3 c5 07 bd c6 98 b7 3d a1 21 db be 8a a5 76 3e
       -0.033147644 0.08964686 -0.42799094 0.24086586
000350 f5 b3 86 bd 5f 2e 17 be 9e 50 00 c0 1f c6 3e bf
       -0.06577293 -0.14763783 -2.0049205 -0.7452106
000360 21 f1 8b 3d 31 20 74 ba 01 60 80 3d 6b e6 d1 bb
       0.06833101 -0.0009312658 0.06268311 -0.006405642
000370 52 05 76 bc ee b0 cc be 25 54 57 bd d6 57 35 c0
       -0.015015917 -0.39978737 -0.05257048 -2.833486
000380 6b ba 42 3c d3 b8 c2 3e ce 67 1f bd a8 82 38 40
       0.011885266 0.38031635 -0.038917355 2.8829746
000390 54 a7 bb 3d 71 9c c0 3a 50 e2 ca bd b0 1d f0 3a
       0.09162775 0.0014695061 -0.09906447 0.0018319394
0003a0 0e ca 73 ba cc 12 aa b9 de 51 d4 bc ec cf b5 bd
       -0.0009299823 -0.00032438932 -0.025917944 -0.088775486
0003b0 f4 96 83 3d 1b b9 41 bd 7b 78 8a 40 0e 6b 7e c0
       0.064252764 -0.04729567 4.327207 -3.975284
0003c0 18 2b 8a be c0 f5 c0 ba 36 bb 26 3e ac 79 ec 3b
       -0.26986003 -0.0014721677 0.16282353 0.007216653
0003d0 c5 3e 2d be ec 70 0c 3c 6a 54 60 bf 18 99 fb bd
       -0.16918476 0.008571845 -0.87628806 -0.1228506
0003e0 fc 6c 57 3e 51 f3 9f 3c 32 52 92 40 e8 34 71 bd
       0.21037668 0.019525202 4.5725336 -0.058888346
0003f0 f3 6d 49 bd 82 c4 ac 3b 16 80 38 be d9 a0 a4 3b
       -0.04917712 0.005272449 -0.18017611 0.0050240573

critic.0.bias f4 [128]
000000 8c a9 b2 3d c6 6d 70 3d 11 67 bf 3c cb 45 08 3f
       0.08723745 0.058698438 0.023364576 0.53231496
000010 4a 17 8d bd 9e 1d 01 be f1 bb f8 3d c2 4e 7c bd
       -0.06889208 -0.12608954 0.12145222 -0.061598547
000020 4c 08 4f bd 69 aa 99 be fe 41 31 bd 52 96 9d bc
       -0.050545022 -0.30012825 -0.043275826 -0.019236717
000030 0d 31 c6 3c f3 17 6b 3c f6 81 d5 bb f2 cf 67 3e
       0.024193311 0.014348972 -0.0065157367 0.22637919
000040 8e dd a7 3d ac 43 54 3c bf 83 57 bd 4f 63 dc bb
       0.08196555 0.012955587 -0.052615877 -0.0067257057
000050 aa 4f bd 3c ee 39 2c 3c b5 e6 80 3b 88 cc 65 be
       0.023109276 0.010511858 0.0039337524 -0.22441304
000060 07 b9 43 bf c3 fa d2 3d f4 ed 96 bd e0 6c 86 3f
       -0.76454204 0.10301735 -0.07369605 1.0501976
000070 30 c5 a1 3d 89 33 07 3e 3c 15 e6 3e 10 3c fe 3c
       0.07898939 0.13203253 0.44938076 0.0310345
000080 ef ab 7a bb 8f 14 39 3d d9 51 0d bc c8 e6 92 bc
       -0.0038249453 0.04518562 -0.008625471 -0.01793231
000090 82 e1 c0 bd a7 7d d8 bd 81 e1 e8 bd d0 1a 7c be
       -0.09418012 -0.10570841 -0.113711365 -0.24619603
0000a0 2a 2b 4c 3d 05 07 63 bd 40 e7 85 3d 13 43 43 bc
       0.049845852 -0.055426616 0.06538248 -0.011917847
0000b0 a9 1f 10 be c6 21 94 bd ec e9 ab 3e 1b d4 a4 bc
       -0.14074577 -0.07233004 0.33576906 -0.020120671
0000c0 71 34 9c bc b0 e9 98 bb e3 81 37 3c cb 3c 84 3d
       -0.019067975 -0.0046665296 0.011200401 0.06456908
0000d0 8c 6b c5 bd 56 dd cc 3d 07 62 56 bc 70 5b 97 bd
       -0.096396536 0.10003154 -0.013084895 -0.07390487
0000e0 d8 e9 9f 3d 3a 4e 19 3d 80 43 22 bc b6 21 8f 3c
       0.07808274 0.03742812 -0.009903789 0.01747213
0000f0 14 bb c9 bd 77 1e 0c bd 71 1b 5f bd 3a e0 cf bd
       -0.098501354 -0.03420874 -0.05446953 -0.1015019
000100 37 07 05 bc 9c 5b 3b 3e 75 31 aa 3d fc 49 4f 3c
       -0.008119396 0.18296665 0.083102144 0.012651917
000110 8c 49 9d bc 8d b1 d7 be 73 15 0a bd f5 7b f7 3b
       -0.019200109 -0.42127648 -0.03371186 0.0075526186
000120 91 47 b0 3b 33 03 4e bd 9a 51 7d bc 6d 95 83 bd
       0.005379625 -0.05029602 -0.01546135 -0.06424985
000130 2f 44 4f bd 83 9f e1 3c 60 28 0e 3e dc a5 50 bd
       -0.050602134 0.027541881 0.1388259 -0.050939426
000140 dc 5e 84 bc 9c b9 8e bd 56 e8 da 3d 30 6d 2d bc
       -0.016158514 -0.06968996 0.10688846 -0.010585114
000150 54 90 97 3d 82 5a 4b 3d 54 f1 83 be dc 89 91 bd
       0.07400575 0.04964686 -0.25770056 -0.07106373
000160 a4 f9 53 be 5d b6 90 bd 3f 7d fc bc 5c ef 19 bd
       -0.20700699 -0.07066033 -0.03082144 -0.037581787
000170 c1 be ea bc 1b 1d 24 3d 55 a4 a9 3d 53 d2 52 bd
       -0.028655412 0.04006682 0.08283297 -0.051470112
000180 e5 69 35 bd 42 c7 37 3f d1 4e 8d 3d 88 62 26 bd
       -0.044290442 0.7178842 0.06899799 -0.04062131
000190 11 8f 54 bd 38 a3 74 3d bc 43 33 be 94 17 7c bd
       -0.05189425 0.05972597 -0.17506307 -0.061545923
0001a0 c1 ea ff be d6 da 40 bd 02 eb 36 bc ea e1 f6 bd
       -0.4998379 -0.0470837 -0.011164429 -0.120548084
0001b0 db 49 b9 3c ac b3 df bc 8d a6 83 3e 17 f1 65 bd
       0.022618225 -0.027307354 0.25713006 -0.056138124
0001c0 34 6a 9e bb ce e4 40 3a 29 cd 94 be 72 25 a2 3d
       -0.0048344377 0.00073583133 -0.29062775 0.079172984
0001d0 21 34 dd 3e 08 54 a9 3d 1e 2b b3 3c 48 3e b4 3d
       0.43203834 0.08267981 0.021871146 0.08800942
0001e0 e2 ed c9 3d ae b6 85 be 0d 7e e8 bd 2c d6 ae bd
       0.09859826 -0.26115936 -0.11352167 -0.08536944
0001f0 82 9b 4f 3d 90 c8 27 3d dd cf 2c be 50 12 13 3e
       0.050685413 0.040962756 -0.16876169 0.14362454

critic.2.weight f4 [64, 128]
000000 b8 d1 a1 3d c1 ac 22 3e 2b 8f ac 3d 2a c1 6c bd
       0.07901329 0.15886213 0.084257446 -0.057801403
000010 34 8e 42 bf 91 34 33 bb e3 d9 cc 3e a0 1c 91 3e
       -0.75998235 -0.0027344564 0.40009984 0.28342152
000020 e8 2e 73 3e 72 ae 60 3d c3 4a 98 3c 7d 93 a0 3e
       0.23748362 0.054853864 0.018590337 0.31362525
000030 a1 0a ab be b4 16 ad bc bb d7 13 bb 3b b8 75 3e
       -0.33406547 -0.02112899 -0.0022559005 0.2399606
000040 94 30 ab 3d 8d 4a 14 3e 3e 30 06 3e ce 35 82 bf
       0.08358875 0.14481564 0.1310434 -1.017267
000050 f5 d5 07 3e 4b 34 91 bd 79 b7 19 bf e9 ec 04 3d
       0.13265212 -0.07090052 -0.6004558 0.032452498
000060 8f 2b 08 be 32 71 39 3f b9 51 1a be 1d ce f0 bd
       -0.13297866 0.7243835 -0.15070237 -0.11758063
000070 b8 6d 9d 3e cd d7 4e bd b0 7c 19 3e f5 de df 3d
       0.3074777 -0.050498772 0.14988971 0.109311976
000080 f9 91 e3 bd e4 a6 87 3e 39 77 e9 3e 3e 48 fa bd
       -0.111118264 0.26494515 0.45598772 -0.1222081
000090 bb 61 76 be ea 27 d0 3d 9b f2 2e be bd 75 a7 bd
       -0.24060719 0.10163863 -0.17084734 -0.08176754
0000a0 01 bb 47 3c d9 6c 2d be a1 fa 10 3f 91 e0 0c 3e
       0.012190581 -0.16936053 0.5663243 0.1375754
0000b0 37 b0 d8 3d 17 59 b2 3e f4 c2 06 be 59 bd 75 3d
       0.10580485 0.34833595 -0.13160306 0.05999503
0000c0 c3 94 31 be 59 ae 90 bc 82 2e 61 3e af 52 ed bc
       -0.17341904 -0.01766126 0.21990398 -0.02897009
0000d0 1a d9 6f bd 70 75 cb 3e 06 5f 4d 3e 9a 64 1c be
       -0.058556654 0.39738035 0.2005578 -0.15272751
0000e0 64 da 1e ba e6 1c e3 3d 12 78 7c bd a6 9d ce be
       -0.00060597644 0.11089496 -0.061637945 -0.4035465
0000f0 5a 1c 99 bd 9e f7 d9 be 5f e9 ce 3d 75 ba 9f bd
       -0.07476111 -0.4257173 0.10103106 -0.07799236
000100 ab 14 56 bd 1c 6a d7 bb d5 15 2d bf 3d 89 be be
       -0.052265804 -0.0065739285 -0.6761144 -0.3721408
000110 2a 13 b0 be 5e d0 54 3e 00 81 42 be 6a f2 1b 3b
       -0.3438962 0.20782611 -0.18994522 0.0023795613
000120 a5 3f 00 c0 3d 72 df 3e c9 c8 67 bc 4d 79 5b 3c
       -2.0038846 0.43641844 -0.014146992 0.01339562
000130 38 c5 57 bf 39 b2 61 3d 30 85 5b bc 0b 26 22 3e
       -0.84285307 0.055101607 -0.013398454 0.15834825
000140 97 d6 0b bd 91 35 91 be 26 a6 26 3d 81 96 5e 3e
       -0.034140196 -0.2836118 0.040685795 0.217371
000150 4f 22 9a bc cc 68 85 3d 38 e9 20 be 5e 34 fb bd
       -0.018815188 0.06514129 -0.15713966 -0.122658476
000160 c8 83 09 bd 90 b6 58 be 84 17 eb 3d 49 ef 5b 3e
       -0.033572942 -0.21163392 0.114790946 0.21477999
000170 65 7e 7e be 64 86 01 bf 72 11 76 bd 9d 98 77 bd
       -0.24852903 -0.5059569 -0.06007523 -0.060448278
000180 82 6d 02 bf 4a ba db 3e a3 ff 02 3f dc f5 28 3d
       -0.50948346 0.42915565 0.5117132 0.041250095
000190 0e 49 8a bd 49 9a a6 3d b2 46 97 be e1 41 b0 3e
       -0.06752215 0.08134896 -0.29546124 0.34425262
0001a0 9a 8a 43 be 98 60 62 be e8 7d aa be 2c 92 11 be
       -0.19095841 -0.2210716 -0.33299184 -0.14215916
0001b0 bf 38 ea bc 66 53 29 bc 80 6f 02 be a6 17 b1 be
       -0.028591512 -0.010334825 -0.12737846 -0.34588355
0001c0 ff dc 2f bf 51 d3 04 be 05 f8 7d 3e c7 48 2b bf
       -0.6869659 -0.12971236 0.24801643 -0.66907924
0001d0 d3 ee 2a 3e 50 fe 86 bb e6 04 e3 be dc e8 23 be
       0.16692667 -0.004119672 -0.44339675 -0.16006798
0001e0 d2 8f fc bc 61 7e 46 bd 3f b5 a3 3d 5b ac f9 bc
       -0.030830298 -0.048460368 0.07993554 -0.030477693
0001f0 6d e1 58 be 11 cc 0a bf fd d3 8d 3d ef bc 28 bd
       -0.21179743 -0.5421763 0.06925199 -0.041195806
000200 ed 61 eb 3d 97 a3 e0 be cd 98 35 3d af 46 1f 3f
       0.11493287 -0.4387481 0.044335175 0.6221723
000210 b2 29 b1 3f fc 67 ba 3c 71 44 7c 3e b3 f0 a5 3e
       1.3840849 0.022754662 0.24635483 0.324102
000220 5a fc cb bd 1b dc f4 3d 05 e3 e0 bc c0 ed c0 3e
       -0.099602416 0.11956044 -0.027452001 0.3768139
000230 68 a1 31 be 88 74 51 3f a2 1d dc be d6 ad c5 be
       -0.17346728 0.8181844 -0.42991358 -0.3860919
000240 9e f4 92 3e 26 cf 9a bc 46 26 b8 bd 8b fe c2 3f
       0.28702253 -0.018897604 -0.08991675 1.523393
000250 9b fe 33 bc 4b c9 a1 3c 53 ea 9e 3f d8 7c b5 bd
       -0.010985996 0.019749304 1.241526 -0.08861703
000260 e7 8c 3f be 35 8f 47 3f df 8b f6 3d f4 e5 1b bf
       -0.18706094 0.7795289 0.12038397 -0.60897756
000270 db 6f 9a 3e 87 2e 91 be d6 52 d8 3c b9 ee c6 be
       0.30163464 -0.2835581 0.026406687 -0.38854006
000280 f0 a4 e3 3e 14 57 3f be 28 8c fc 3c 29 c1 8f 3e
       0.44461775 -0.18685561 0.03082855 0.28077057
000290 ba bf 82 bf 73 17 93 be f4 b7 14 3f cc 2b d7 bd
       -1.021476 -0.28728828 0.5809319 -0.105064005
0002a0 47 9b 77 3d 2e ee a8 3e de b8 83 bf 89 27 14 3e
       0.06045082 0.32994217 -1.0290792 0.14468206
0002b0 82 68 bb 3a e1 6e dc be 9e 86 03 be 7c c9 d4 bc
       0.0014298114 -0.43053344 -0.12844321 -0.025974981
0002c0 94 bf af 3d 25 08 7b be 69 3f 42 bd f0 90 b5 3d
       0.085814625 -0.24514826 -0.047423754 0.08865535
0002d0 4a 1c 6e 3e 5b 88 4e bf d7 53 69 bd cf 23 9d bd
       0.23252979 -0.8067681 -0.05696472 -0.076728456
0002e0 d9 ce ee bc 68 43 e4 be df 47 77 3d 57 5e 9c 3e
       -0.029151367 -0.44582677 0.060371276 0.30540726
0002f0 b6 a1 a5 3d 7c be 40 3b 54 16 25 3d 0b ca 83 be
       0.080874845 0.0029410413 0.040304497 -0.25740084
000300 87 b2 7a 3d 5f 96 84 bd 28 a7 59 bd 5c 8c 55 3e
       0.061205413 -0.064739935 -0.05313793 0.20854324
000310 eb 9c 2f bf b5 6e e5 be 61 0b bd 3d fd 71 01 3e
       -0.6859881 -0.44811025 0.09230686 0.1264114
000320 11 52 08 3e eb 34 4e 3e 1a 0b e0 bc c5 83 60 3e
       0.13312556 0.20137374 -0.027349044 0.21925266
000330 7b fd b3 3f 7d e6 a0 3e 3a 74 05 bd 2c ef 43 be
       1.4061731 0.3142585 -0.032581545 -0.19134206
000340 39 3b ab bd be fc b5 be b1 ad b3 be 9a e4 c4 3d
       -0.08360905 -0.3554439 -0.35093454 0.09613915
000350 84 c3 0c 3d c9 9d 28 bd 08 41 62 3e b0 a3 23 be
       0.034366146 -0.0411661 0.2209512 -0.1598041
000360 e5 b3 5d bc 65 da b2 ba 15 f5 b8 bf ee f0 67 bf
       -0.01353166 -0.0013645409 -1.4449793 -0.90602005
000370 cf 80 02 3e 1a f7 fa be 98 a9 be be 48 df ab be
       0.12744449 -0.4901665 -0.37238765 -0.33568788
000380 fb 9a 0f be 43 7d 6c 3f ef 46 d4 bf dc 39 59 3d
       -0.14023964 0.92378634 -1.6584147 0.053033695
000390 38 ea 51 bd 06 52 30 3d 7d 0d 4a 3e 7c 51 da be
       -0.05124876 0.043046974 0.19731708 -0.42640293
0003a0 2f 2a dd 3d b8 ac e0 3e 80 89 8d be 60 83 99 bf
       0.107990615 0.43881774 -0.27643967 -1.1993217
0003b0 b3 3a 61 bd 31 3a c4 bd 90 77 0b 3e 81 0a 38 3f
       -0.05498762 -0.09581412 0.13619828 0.7189103
0003c0 e3 68 9c 3d d2 38 68 3f 5a c7 a9 3c b7 6b 21 be
       0.07637193 0.907117 0.020724941 -0.15763746
0003d0 6a 02 06 bf 88 36 b7 be 4e 18 58 3f 26 5a 54 3d
       -0.52347434 -0.35783792 0.84412086 0.051843785
0003e0 e2 32 0b 3d ac 13 35 3e 24 84 d8 bd 8d df a2 be
       0.033984073 0.17683285 -0.10572079 -0.3181118
0003f0 bd 9f e2 3f 39 a0 1f bd 4b a6 fe 3d c7 03 f5 3b
       1.7704998 -0.03897116 0.124340616 0.007477257

critic.2.bias f4 [64]
000000 c2 cb 9f 3e 1d b0 8a 3e 5a 4c bf bd 7f 33 91 3e
       0.31210142 0.2708749 -0.09340735 0.283596
000010 e2 80 61 3c 46 35 7b 3e ed dd f3 bd 73 f2 40 3e
       0.013763638 0.24532041 -0.11907563 0.18842487
000020 bb c6 b1 3e 6e a1 cd bc 3b 29 6d 3f 50 ef 67 3d
       0.34721932 -0.02510139 0.9264104 0.05662471
000030 69 f1 e5 3e 63 a0 b0 3e e6 bc 8c 3e a5 fd ff bd
       0.44910744 0.34497365 0.27487868 -0.12499551
000040 d5 84 b7 be 71 0e a8 3d 62 a5 63 be a0 31 f1 be
       -0.3584353 0.082058795 -0.22231057 -0.47108173
000050 ef 78 3c bd d4 f5 9f 3e 44 f5 3e 3f 73 fa 19 be
       -0.04601377 0.3124224 0.74592996 -0.15036945
000060 46 4b 0c 3e db 11 c9 be 0a 3a 21 be 72 2a 31 be
       0.1370059 -0.39271435 -0.15744796 -0.17301348
000070 e5 5a 55 be ff d0 a9 3d 29 2b f1 3d 08 29 9b bd
       -0.20835455 0.08291816 0.1177581 -0.075761855
000080 ab a0 b6 3e b8 23 37 3e 98 28 92 3e ca 47 53 be
       0.35669455 0.1788472 0.28546596 -0.20632854
000090 77 b1 0d 3f 75 f7 f0 bc 46 37 06 3e 4d 2d 3e bf
       0.55348915 -0.029414872 0.13107023 -0.74287874
0000a0 31 fb 9c be b6 d9 c8 be 31 9e a4 3e 6a 6d ac be
       -0.30660394 -0.392286 0.3215194 -0.33677226
0000b0 77 d3 bc 3e e1 0d d8 be 1b b3 96 be 7e 85 34 be
       0.36880085 -0.4219809 -0.29433522 -0.17629048
0000c0 f2 56 7a bf a4 90 b3 bd 72 9a 92 bd 01 47 66 3f
       -0.9778892 -0.087678224 -0.07158364 0.89952093
0000d0 2f d5 62 3e d4 30 13 3e fc 67 a3 bc b0 81 85 be
       0.22151636 0.14374095 -0.019947045 -0.26075506
0000e0 32 5f 2f bf b9 6d 95 bf ad 77 2c bd bc 36 5f be
       -0.6850463 -1.167411 -0.04210632 -0.21798223
0000f0 45 b7 8d 3e 1a 4e 36 3f e6 bc 88 3d 29 1e 12 be
       0.27678886 0.71212924 0.066766545 -0.14269318

critic.4.weight f4 [1, 64]
000000 89 af 36 3e e5 e7 10 3e e8 ab 19 3f c4 f5 2a bf
       0.17840399 0.1415096 0.60027933 -0.6678126
000010 e3 f5 f8 3e 0c 9e 0e 3e e6 b9 93 be 28 e6 48 be
       0.48625097 0.13927478 -0.28852767 -0.19619048
000020 ff 64 51 3e 8b 99 0d bf 2d 50 39 3f de 84 e0 3e
       0.20448683 -0.5531241 0.72387964 0.4385137
000030 a7 53 5e 3e 5a c6 3a be 7a 64 5a 3e 93 74 82 3e
       0.21711598 -0.18239728 0.21327391 0.25479564
000040 6a 42 67 be 88 84 92 be 36 4d 8b be 0a 7f 97 be
       -0.22583929 -0.28616738 -0.27207345 -0.2958911
000050 82 d6 aa 3e 62 d3 87 3e f9 85 27 3e 23 3f 28 be
       0.3336678 0.2652846 0.163597 -0.16430335
000060 27 b2 36 3e 95 e8 61 be 88 07 41 3e d3 10 42 be
       0.17841397 -0.22061379 0.18850529 -0.1895173
000070 07 fe 9d be 97 60 c8 3e ed 21 b0 3e 4f 1c 0d be
       -0.3085787 0.39136192 0.34400883 -0.1378033
000080 42 91 1b 3e be f9 68 3e 7f d9 96 3e fb 23 02 be
       0.1519213 0.22751519 0.2946281 -0.12709038
000090 73 e7 2b 3f 78 ea c8 be 90 f1 9d 3e 64 06 02 c0
       0.6715004 -0.39241385 0.3084836 -2.03164
0000a0 fc d3 07 be 9e 39 2e be 93 71 4c be 9c 0e 77 be
       -0.1326446 -0.17014167 -0.199652 -0.24126667
0000b0 15 b8 58 be a6 a3 4e be 51 74 9f be e3 3c ab bf
       -0.21163972 -0.20179614 -0.3114343 -1.3377956
0000c0 0e 57 ee be 25 12 a9 be ab 2e 0e 3f ec b7 3a 3f
       -0.46550792 -0.33021656 0.5553996 0.7293689
0000d0 1a ac af 3e cf 23 4f 3e 82 83 c6 3e 38 59 52 be
       0.3431099 0.20228504 0.38772207 -0.20541847
0000e0 13 46 f9 bf e8 0d 0d bf 5c 1b d4 bf cd b2 1d be
       -1.947451 -0.55099344 -1.657085 -0.15400238
0000f0 06 a4 4e 3e 6c b4 09 40 61 08 13 3e 90 20 1a bf
       0.20179757 2.151637 0.14358665 -0.60205936

actor.0.weight f4 [128, 16]
000000 96 5c 9e 3d c4 45 b9 be 48 dc c2 3e b4 46 1c 3f
       0.07732503 -0.3618604 0.38058686 0.61045384
000010 01 af 3e bf 98 39 cf 3f f2 6b 13 be ec 65 19 be
       -0.74485785 1.6189451 -0.14396647 -0.14980286
000020 4b 76 61 bf 4f 72 5e bf 4a 15 f9 3e 43 59 9f be
       -0.88071126 -0.8689317 0.48649055 -0.3112279
000030 83 3c ad bb 55 24 77 3d 87 f3 07 3d 9f 94 22 be
       -0.0052867546 0.060337383 0.03319123 -0.15877007
000040 12 28 a8 3e 2b c7 b9 bd f2 28 ac 3d 99 6c 2c bd
       0.3284307 -0.090711914 0.08406247 -0.042095754
000050 f0 cf f2 3d 5d ea a4 bf a0 9a 21 3d c7 14 73 3d
       0.11856067 -1.2884022 0.039454103 0.059345987
000060 e8 cc a3 bf b1 51 ca 3f e9 3c 42 3f 2b b7 ce 3e
       -1.2796907 1.580618 0.7587419 0.4037412
000070 b4 b9 31 bf 6a 44 fc 3c 27 19 c3 bd 7b 71 a9 3e
       -0.69423985 0.030794341 -0.09526282 0.3309439
000080 c1 5f aa 3e 6f fa c2 be dd a6 9e 3d 0e 44 4b 3d
       0.3327618 -0.3808169 0.077466704 0.04962545
000090 41 cd 25 3e a4 14 b7 3f 3c e1 08 be 17 b0 60 3e
       0.1619158 1.4303174 -0.1336717 0.21942173
0000a0 c4 4f c3 bf 29 b4 3f 3f 8d a2 32 be 6c b2 0d be
       -1.5258718 0.7488428 -0.1744482 -0.13837594
0000b0 d9 af 62 3f 05 45 0b 3f 60 17 02 3e 88 8e 6a be
       0.8854957 0.5440219 0.1270423 -0.22905934
0000c0 3a 46 ac 3e 1e b1 9b 3e ca fc 9c bc 6f b6 9a be
       0.3364733 0.30408567 -0.019163508 -0.3021731
0000d0 6d 42 f9 bf 9e 4b f6 bf 94 60 73 3c cf fc 03 3c
       -1.9473397 -1.9241827 0.014854569 0.00805588
0000e0 a1 4b 6f be 27 9f 88 bb 39 99 00 3e 20 11 21 3d
       -0.23368694 -0.004169363 0.1255845 0.039322972
0000f0 31 82 92 3e e8 07 90 3e cd e4 e5 3d 5d 31 c7 3d
       0.28614953 0.28131032 0.11225281 0.09726212
000100 0e 54 15 be 59 31 33 3c 75 86 ce bc 2f a6 18 3d
       -0.14582846 0.010937058 -0.025210598 0.03726786
000110 7d d6 f0 bd 67 25 28 3e 4a 20 81 3e 27 4b 17 3e
       -0.117596604 0.16420518 0.25219947 0.14774762
000120 eb 7a 62 40 3b fe 1f bd fd 22 81 bd 01 b9 3b bd
       3.5387523 -0.039060812 -0.063055016 -0.04583073
000130 9e 30 0f be 1f 0d 31 be 6f 19 0c be bb d2 08 be
       -0.1398339 -0.17290162 -0.13681577 -0.13361637
000140 f3 59 9f 3e 13 8f 5d be 4e 5e 93 3e a7 df 0d bf
       0.31123313 -0.2163661 0.28782886 -0.5541939
000150 33 64 c4 be ff 8c 75 3e 0b 51 dc 3e 82 79 86 be
       -0.38357696 0.23979567 0.4303058 -0.26264578
000160 7c 3c b3 be ec c4 b2 3f 23 a3 60 be f1 6d 23 be
       -0.35007083 1.3966346 -0.21937232 -0.15959908
000170 a6 20 09 3f 65 29 9d 3e de 72 1b be cc a9 17 3e
       0.5356544 0.30695644 -0.15180537 0.14810866
000180 83 64 7c bd d9 9c 67 be 81 f9 df 3d c6 38 8b be
       -0.061619293 -0.22618426 0.10936261 -0.27191752
000190 9c 59 92 3e ff a4 63 bf 90 b9 7c 3e 64 07 23 3f
       0.28583992 -0.8892364 0.24680161 0.6368315
0001a0 80 d6 37 bd 1c 75 c5 3f e7 11 ec be ee ff 58 3e
       -0.044882298 1.5426364 -0.46107408 0.2119138
0001b0 93 fe a5 be 00 73 07 be 1d ef 0a 3e 4a 9a 9e bd
       -0.32420787 -0.13227463 0.13567777 -0.07744272
0001c0 19 89 74 3d 47 21 23 3e 0b e6 b0 be 91 5c 1d be
       0.05970106 0.15930663 -0.3455051 -0.15367343
0001d0 9b 87 0f be 79 7f 64 3d 7e d0 1f 3f e9 1d 00 be
       -0.14016573 0.05578563 0.6242751 -0.1251141
0001e0 24 5c 92 3f ae 95 c7 3c 45 c3 ae 3f 96 0e cb be
       1.1434369 0.024363365 1.3653342 -0.39659566
0001f0 28 79 84 bf a6 f6 af be fc 57 ec be 59 89 4f 3f
       -1.0349474 -0.34367865 -0.46160877 0.8106895
000200 a3 80 21 3e 48 08 3e be 9e c9 ca 3e 90 16 7f be
       0.15771727 -0.18557847 0.39606947 -0.2491095
000210 8b b5 9e bf 75 51 84 3f 5d 9b 50 3d 10 ed 43 3d
       -1.2399153 1.0337359 0.050929416 0.047833502
000220 dd 7c 37 be 83 44 4e 3f 71 65 8a be d0 53 69 3b
       -0.17918725 0.8057329 -0.2703052 0.0035602935
000230 13 f5 38 3f 17 a1 f6 3e a8 f3 c3 3e 7a ec 80 be
       0.72248954 0.48169777 0.38271832 -0.25180417
000240 ff 63 d9 3d d8 c6 d2 be b9 6a c5 be 92 b1 82 3e
       0.10614776 -0.4116733 -0.38557985 0.255261
000250 be 42 6f bf 36 b6 73 3f 3c ac 86 3e 73 65 05 bc
       -0.93461215 0.95199907 0.2630328 -0.008141863
000260 22 62 ba 3f c7 11 9e 3f df 50 26 be 0e b1 10 bf
       1.4561198 1.2349175 -0.16241787 -0.56520164
000270 fd d2 08 3f e3 10 ef 3d 5d 81 91 3e 29 a6 5e be
       0.5344694 0.11673143 0.2841901 -0.21743073
000280 e6 3e 54 bd fa 1f a6 3d 70 88 16 3d d6 2b a8 be
       -0.051817797 0.08111568 0.03675121 -0.32845944
000290 e7 d2 75 3d 6f 9a 30 c0 bf b7 73 bb 14 f1 55 bc
       0.060015585 -2.7594259 -0.0037188379 -0.013057966
0002a0 99 ac 01 3f 16 0f b6 3d f3 a9 b6 3d f2 ea aa 3e
       0.5065399 0.08889596 0.08919134 0.33382374
0002b0 d9 e3 c8 bd 56 0e 67 be 72 64 87 be 52 a9 08 3e
       -0.098090835 -0.22564062 -0.2644382 0.1334584
0002c0 a4 fa 71 3e d7 86 13 3f 11 16 a5 3d 05 27 8f be
       0.23630768 0.57627624 0.080608495 -0.27959457
0002d0 87 ff e8 be 6e 39 25 3f 0e 2e 08 bf 03 13 fa 3d
       -0.45507452 0.64540756 -0.53195274 0.122106574
0002e0 bb 3a 88 3e ce e6 8a bf 5e cf 40 3f 8f 7c 89 be
       0.26607308 -1.0851686 0.7531642 -0.26852843
0002f0 43 8d a8 be 28 ba 84 bd b7 c7 9b be 3d be 04 3f
       -0.32920274 -0.06480819 -0.30425808 0.5185278
000300 57 8a bd be 42 95 37 3f 29 4d d4 3e 48 1a 39 bf
       -0.37019607 0.71712124 0.4146512 -0.72305727
000310 bd 2b 54 3f 50 31 61 bf bc 98 f5 3c 09 e6 14 3c
       0.8287924 -0.8796587 0.029980056 0.009088048
000320 7d f3 ac bd 1d 3c 9c bd 30 33 65 bd fa 6b 91 3d
       -0.08444879 -0.07628653 -0.05595702 0.07100673
000330 99 21 5c be 2c ac 09 3c 94 70 33 be 55 04 c7 bd
       -0.21497191 0.008402865 -0.17523414 -0.09717623
000340 41 c1 18 3d 13 71 a3 be e1 2b f8 be 6a 4b 04 3f
       0.037293676 -0.31922206 -0.48470977 0.5167757
000350 ad 0f 89 3f d3 ff ab bf 51 63 05 bd 47 71 a9 bd
       1.0707909 -1.3437446 -0.03256542 -0.08273559
000360 d5 f7 59 3f 71 87 45 bf 3b fe 5a bf 29 3c bf be
       0.85143787 -0.7715979 -0.85544175 -0.37350586
000370 52 ab 07 3f ad 36 a4 be 6a 7e 36 bd c8 4d 09 bd
       0.5299579 -0.32072964 -0.04455415 -0.033521444
000380 1e d0 be bd bb 44 31 bf ce b1 a6 bc ee 10 c8 bd
       -0.09317039 -0.692455 -0.020348456 -0.09768854
000390 39 59 4f 3f 85 3f 53 bf f7 ab 97 be 0a ee 29 3f
       0.8099552 -0.825188 -0.29623386 0.66378844
0003a0 f5 dd d6 be 93 e0 0f bd 6d 6f 8e be 46 65 94 be
       -0.41966215 -0.03512628 -0.27819386 -0.28983516
0003b0 f7 7e e6 3d c4 50 0f 3d 7a d7 a0 3d 1f 33 b3 bc
       0.11254685 0.034989133 0.07853599 -0.021874962
0003c0 f4 02 e9 3e 2f d5 7a 3b d9 06 d4 3e 84 ea b0 3d
       0.45510066 0.003827404 0.41411474 0.0863848
0003d0 08 ba 8a bf 52 57 10 3f 09 cf e4 3e 2f 00 8a 3e
       -1.0838022 0.5638324 0.44689205 0.26953265
0003e0 d9 5d a6 be ca ac c0 be 5a 60 50 3e 5d 85 21 3f
       -0.32493475 -0.37631828 0.20349255 0.6309412
0003f0 d5 f6 95 be 1f 4b 1b bf fb 14 7a 3d d4 fc 75 3f
       -0.2928988 -0.606615 0.061055165 0.9608891

actor.0.bias f4 [128]
000000 ae b3 0a be 6b c7 d9 3d ee a7 a0 3e 34 fe 5c 3e
       -0.13545105 0.10633739 0.3137812 0.21581346
000010 79 a2 9c bd 83 e2 fb 3d b3 36 5a bd 81 60 ba bd
       -0.07648177 0.12299063 -0.05327482 -0.09100438
000020 f6 71 10 3e 05 09 04 3e bc 0b 19 bc 50 aa 55 3e
       0.14105973 0.12894066 -0.009341177 0.2086575
000030 36 86 5b be 35 ab d0 bd 95 39 de bd 03 7b 86 3e
       -0.21437916 -0.10188905 -0.10850827 0.26265725
000040 fd 44 5f 3e a9 0d fb bd eb 7c 9c 3e ac cc a3 3e
       0.2180366 -0.12258465 0.30564055 0.3199209
000050 9b 75 85 bd b2 9a f5 3e 84 f0 6a be c4 d2 32 3e
       -0.06516572 0.47969586 -0.22943312 0.17463213
000060 b4 9d a4 be 13 af df bd 2f 5a 24 3e ec 19 76 bd
       -0.32151568 -0.10922065 0.16050027 -0.060083315
000070 5a f5 5d 3d c7 e0 43 3e e4 fb 9e bd 7a ec 7e 3d
       0.054189064 0.19128715 -0.07762888 0.06223724
000080 3d bd 3f 3d cb a1 81 bd 2e 1c 01 be e6 49 7c 3d
       0.04681133 -0.06329688 -0.12608406 0.061593913
000090 2c a5 a7 3e 7a b2 a9 be d3 d0 4c be 8e ca 98 3d
       0.32743204 -0.3314398 -0.20001535 0.07460509
0000a0 09 0c 00 bd 3d 00 3a 3d 18 2a ba 3d 7c 82 04 3f
       -0.031261478 0.045410383 0.0909006 0.51761603
0000b0 11 36 d3 be 0e 6d fa 3e eb 24 08 3d 83 11 8e 3d
       -0.41252187 0.48911327 0.033238333 0.06936934
0000c0 60 89 fd 3d e9 6b 8a be dd 51 05 3e 4c f2 29 3e
       0.12379718 -0.27035454 0.1301951 0.16596335
0000d0 43 31 14 3f 7f c7 68 3e cf 43 6d 3e 2a 71 09 3e
       0.5788767 0.22732352 0.23170398 0.13422075
0000e0 34 b1 42 bb e9 26 22 3c 0e 68 0a 3e 71 16 39 3e
       -0.0029707672 0.009896972 0.13516256 0.18074967
0000f0 72 1d 9f be 17 cb 4f be 84 88 af 3e 24 2f 2b 3e
       -0.31077152 -0.20292316 0.3428384 0.16717201
000100 b4 b4 3b bd e5 c0 7a 3e 4d 1c f4 be ed c9 87 3e
       -0.04582663 0.24487646 -0.47677842 0.26521245
000110 dc 6e d5 be 09 39 a4 3e fe c5 40 be 4a 35 a4 bd
       -0.41686141 0.32074764 -0.18825528 -0.080179766
000120 d2 cd 55 3e 8e d8 4f bd 71 7a 8c bd 4f a4 0e bc
       0.20879295 -0.050743632 -0.06859291 -0.008706166
000130 7d 3a 8c ba 56 5f b2 3d 68 78 cd be 9e 72 5a 3d
       -0.0010698583 0.0870959 -0.40130925 0.053331964
000140 98 0a 57 3e ae 34 b8 be b8 db 8d be ab 46 80 be
       0.21000135 -0.3597769 -0.27706695 -0.25053915
000150 d0 41 3f 3e 3a db 78 3e 24 27 43 be 3a 4b 70 bc
       0.18677449 0.24302378 -0.190579 -0.014666373
000160 dd 61 c2 3e b1 91 45 bd 09 99 5c be 6a 75 0f be
       0.3796529 -0.048234645 -0.21542753 -0.14009634
000170 65 96 bf bd c6 53 d4 bb 4c 40 1d bd 76 2e c8 3d
       -0.09354857 -0.006479713 -0.038391396 0.09774487
000180 70 b5 bc be 95 3f 47 bd 40 3a 16 be 47 c9 08 bd
       -0.36857176 -0.04864462 -0.14670658 -0.033395078
000190 61 bd cb bd e4 cd 21 be 76 9d f8 bc 3d c3 e3 bb
       -0.099482305 -0.15801197 -0.03034852 -0.0069507645
0001a0 c1 27 65 3e 2a d2 13 3d d0 20 55 be 33 97 9f be
       0.22378446 0.0360891 -0.20813298 -0.31170043
0001b0 25 88 c5 bd 97 f5 01 3e d5 80 9b be ee 04 dc be
       -0.09645108 0.12691341 -0.3037173 -0.4297251
0001c0 00 cd 4b bc d0 9d 9e 3e 46 7e 20 3e ad f9 41 bd
       -0.0124390125 0.30979776 0.1567317 -0.04735725
0001d0 e2 08 a1 bd d1 cf 7d bd 81 ae 56 3e 86 49 8b 3c
       -0.078630224 -0.061965767 0.20965005 0.017002832
0001e0 50 68 0e bf d5 d7 23 3d 2d 02 35 be 37 5d d6 3d
       -0.5562792 0.040000755 -0.17676611 0.10466998
0001f0 76 2b 10 3a 77 66 7d bd a9 b9 49 39 f7 51 f7 3d
       0.000549964 -0.061865296 0.00019238018 0.120761804

actor.2.weight f4 [64, 128]
000000 bd ec a6 bc 18 7e b1 3d a3 cf 8d 3e b6 1a 2c 3f
       -0.020376557 0.086666286 0.27697477 0.6722826
000010 dd ef 6c 3e 49 1a 92 3e 68 98 f2 3e b2 31 c1 3d
       0.23138376 0.2853568 0.47381902 0.09433307
000020 96 c2 e0 bd a1 c7 4e bf ba 6d 6a be 7d 5c f2 3e
       -0.10974614 -0.8077336 -0.2289342 0.47336188
000030 c9 4d 3e be 11 2f 05 bf 60 78 dc be 11 37 f7 3e
       -0.1858436 -0.5202494 -0.4306059 0.482842
000040 ce d8 00 3f f1 ba eb 3e b2 29 6d 3e bb e3 13 3f
       0.5033082 0.46041062 0.23160437 0.57769364
000050 b7 85 2a bf af 76 bc 3e 26 eb 5b 3e 17 ba 36 3f
       -0.6661028 0.36809298 0.21476421 0.713777
000060 f6 24 22 bf e9 42 7e 3d 96 70 2e 3f d2 6d 6a 3e
       -0.6333765 0.06207553 0.6814054 0.22893456
000070 f3 cb 04 bd a9 4a 1e 3e 01 4b 1a 3d b2 61 bc 3d
       -0.032421064 0.15458168 0.037669186 0.091983214
000080 f2 21 31 3e c9 36 d0 3c 0d 4e 0e be 69 4a 9e 3e
       0.17298105 0.025416749 -0.13896962 0.30916145
000090 0b b7 4f 3f 7e 3d bf be 6c 2b ec be 9e e7 8f 3c
       0.81138676 -0.37351602 -0.46126878 0.017566498
0000a0 27 93 af 3e 1a 41 09 3e dc 45 3b be c2 dc 90 3e
       0.34291956 0.1340374 -0.18288368 0.28293425
0000b0 34 a7 d8 be eb 77 dd bd 90 36 96 be 6b 8b ed 3e
       -0.42315066 -0.10813888 -0.29338503 0.4639543
0000c0 c4 ac b0 3e f0 4e e3 3d e0 76 7d be e2 e9 ee bd
       0.3450681 0.110990405 -0.24752378 -0.11665703
0000d0 b9 36 46 3e 5d 29 90 3e d2 72 4a be 37 39 da 3e
       0.19356813 0.28156558 -0.19770363 0.42621776
0000e0 7f 2f 14 bf 86 cc df be 59 1b 0d bd cd 4c 88 3e
       -0.57884973 -0.43710726 -0.03444991 0.26621094
0000f0 cb 58 b1 be eb df b8 be 35 39 3e bf 8a cc 52 3e
       -0.34638056 -0.36108336 -0.7430604 0.20585838
000100 1a 14 4d 3e af 4b f4 bd 2a 3f 4f bf 2d aa 41 3f
       0.200272 -0.11928498 -0.80955756 0.7565029
000110 49 68 a5 bf 7e 76 33 be cf c8 47 be b1 19 10 bf
       -1.292245 -0.1752567 -0.19510196 -0.562892
000120 5a 41 e5 3c d8 cf 4d bf 17 81 30 be 88 3d cf 3d
       0.027985264 -0.8039527 -0.17236744 0.10119158
000130 e4 a5 92 3e 01 c4 b0 3e 4f a5 d3 3e dc d3 b2 3c
       0.2864219 0.3452454 0.41337058 0.021829538
000140 49 7e 0a 3e 73 07 01 be 1a 50 a2 be 24 37 84 3e
       0.13524736 -0.12600498 -0.31701738 0.2582332
000150 56 fe 97 3f 1c 71 e3 3e 06 a4 df be 06 ce 17 3e
       1.1874492 0.44422233 -0.43679827 0.14824685
000160 d5 49 62 bd 15 b9 14 3e 69 28 86 3e 24 13 1c be
       -0.055246193 0.14523728 0.26202706 -0.15241677
000170 cd 5e eb bd 11 95 3e bd 11 67 b4 be 2c b5 ba be
       -0.11492691 -0.04652888 -0.35234883 -0.36466348
000180 14 d8 b2 3e c9 1e 9f 3d 63 5e 3a bf 49 bd 2a 3e
       0.3493048 0.07769544 -0.7280027 0.16673769
000190 cb c1 ac 3d 4c ff de bc 31 5b ad be 59 67 78 be
       0.084354006 -0.027221344 -0.33858636 -0.24258174
0001a0 b5 6d 04 3e 1e 16 aa be 9e c0 12 be c5 5e 4a bf
       0.12932475 -0.3322 -0.1433129 -0.79050857
0001b0 bc e4 8a be 84 f2 12 3e cd f4 03 be ca b4 af 3e
       -0.27127635 0.14350325 -0.12886353 0.3431762
0001c0 47 34 fe be fe 5f 50 3e b2 30 f4 3e 73 d1 06 3f
       -0.4964926 0.20349118 0.47693402 0.52663344
0001d0 ed 19 f9 3e a7 b9 9d be 0f 1c bb 3e 48 44 e2 3d
       0.48652592 -0.30805704 0.36544845 0.1104818
0001e0 e6 55 05 3e 88 98 98 bc bd bb 5b bd 90 9f 3a bd
       0.13021049 -0.01862742 -0.053645838 -0.045562327
0001f0 b3 c3 60 3e 89 ff d3 bd a4 19 0b bf 6a 24 f1 3d
       0.21949653 -0.10351474 -0.54336 0.117745236
000200 2e 95 eb be 83 32 7c be 08 12 21 bf 01 db 30 bd
       -0.46012253 -0.24628644 -0.6291814 -0.04317761
000210 6c e3 35 be 81 f2 b1 3e 0b 88 50 3d 8f e1 97 bc
       -0.17762536 0.34755328 0.05091099 -0.018540172
000220 df 20 0a 3d 92 10 b2 3d d0 ce 85 3e 5b 02 21 3f
       0.033722755 0.08694567 0.26134348 0.6289422
000230 ee cc bf 3c 93 84 5c 3e 9f 70 01 3f 86 2b 2b 3e
       0.023413148 0.21534948 0.5056247 0.16715822
000240 3f dc 8a 3f 55 54 ab be b4 ce 65 3d db 0c 36 be
       1.0848464 -0.33462778 0.05610533 -0.17778341
000250 24 e3 18 bf 22 95 8c 3e 7c 8d f0 be e6 54 63 3e
       -0.5972159 0.2745753 -0.46982944 0.22200355
000260 8e 1c 08 3e 64 03 2d bf 61 99 31 3f 91 40 9f 3c
       0.13292143 -0.675833 0.6937466 0.019439967
000270 38 1b c3 bc 2d a4 a1 3e 79 e6 ce be 73 ed 01 3f
       -0.02381669 0.3157057 -0.40410212 0.50752944
000280 f4 12 e5 be 77 73 2d 3e 76 04 57 be 62 68 8a 3d
       -0.44741023 0.16938578 -0.20997795 0.06758191
000290 c0 62 06 3f 2b 27 38 be 54 25 bb 3e d4 a4 a0 be
       0.5249443 -0.17983691 0.36551917 -0.31375754
0002a0 68 31 dd 3e 10 ab 21 3e 8b 31 87 be 2f a0 07 3f
       0.43201756 0.15787911 -0.26404986 0.52978796
0002b0 e6 61 40 be b6 84 82 3d a0 ce f6 3e b4 40 6d 3d
       -0.18787345 0.06372969 0.48204517 0.057923034
0002c0 51 48 5a 3e ec 79 fb 3e 1b 53 93 3d 57 d1 3e 3e
       0.21316649 0.49116457 0.071935855 0.18634544
0002d0 9b 95 9c bc 83 b8 e0 bd 64 ce f8 be 21 5f b7 3e
       -0.019114306 -0.10972693 -0.48594964 0.35814765
0002e0 80 d7 14 be ec 87 f5 be 13 a4 bd bd 36 d7 0a bf
       -0.14535332 -0.47955263 -0.0925981 -0.54234636
0002f0 b2 e8 c8 3e fa 1e 1c 3e 2f 3a 97 be 9c 63 9f be
       0.39240032 0.15246192 -0.29536578 -0.31130683
000300 af db 8d be fb b5 cf bd 4b 04 40 3e 08 5a 23 3f
       -0.27706668 -0.10142132 0.18751638 0.6380925
000310 db 9f 5a bf 49 aa 05 be 97 61 ae bf 00 8c 9a be
       -0.8540017 -0.1305324 -1.3623532 -0.30184937
000320 9f 9e cd 3c af 99 04 3f 6d 85 16 bf 59 7f fd bd
       0.02510005 0.51797 -0.5879734 -0.12377805
000330 8f d4 c5 be b6 ef a4 3e 2b 70 a2 3c 4f b8 4d 3e
       -0.38638732 0.32214135 0.019828876 0.2008984
000340 91 21 58 be b4 16 86 3d db 79 43 bd 7d 55 87 be
       -0.21106555 0.06547299 -0.047723632 -0.2643241
000350 b7 be 54 3f 3b 90 ea 3d 90 c5 95 be 63 ed 8d be
       0.8310351 0.11453291 -0.2925229 -0.27720174
000360 2e 87 c4 bc 04 9b 59 bf 41 1e 23 bf a2 b2 b9 3c
       -0.02399024 -0.8500216 -0.6371804 0.022668187
000370 eb 9f 87 be a6 fc 1a be 6d 1a 8c be e0 2c 44 be
       -0.26489195 -0.1513544 -0.2736391 -0.19157743
000380 6a ab 08 3e 04 c4 8d be 5d 68 16 bf 57 66 db bd
       0.1334664 -0.2768861 -0.58752996 -0.10712879
000390 49 cd d3 be d3 7b 2a bf 6a ad 32 be bc f4 39 bf
       -0.41367558 -0.6659519 -0.17448965 -0.7263906
0003a0 6b 1b c2 3e 15 7b 9a bc c1 5f db 3e 19 65 4d be
       0.37911543 -0.018857518 0.42846492 -0.20058097
0003b0 6b 0a f0 be a6 a0 c4 3e 9b 47 e8 bd f7 67 59 be
       -0.46882948 0.38403815 -0.11341783 -0.21231066
0003c0 68 be 4e be aa 7b d2 be af 1f 34 3f 0b 6c 32 3d
       -0.20189822 -0.41109973 0.70360845 0.04356007
0003d0 9b 63 b6 3e 68 78 28 3e d4 47 5d 3f 4f 23 21 3e
       0.35622868 0.16452181 0.86437726 0.15736125
0003e0 30 59 94 be d7 18 a2 be 40 83 17 3c 0b 0b f2 3e
       -0.28974295 -0.31659576 0.009247601 0.4727405
0003f0 7a 30 ad be 3e 00 45 bf 16 b4 99 bd ea 25 a0 3d
       -0.33826047 -0.76953495 -0.07505052 0.078197315

actor.2.bias f4 [64]
000000 f9 5a b8 3e 93 d1 75 3d fa 4f 23 be 25 9d ba bd
       0.36006907 0.06001432 -0.15948477 -0.09112004
000010 15 d8 15 3e af 81 b9 bd d0 d6 2c 3e 75 08 23 3f
       0.1463321 -0.09057938 0.1687882 0.6368478
000020 ab 81 01 bd 90 61 fc 3d 4e a1 c1 be 8a d3 b0 3e
       -0.0316178 0.12323296 -0.37818378 0.34536391
000030 d2 c0 f8 bd 68 a3 8d be 71 69 fe 3e a1 41 e3 be
       -0.121461526 -0.27663732 0.4968982 -0.44386008
000040 4e bb 35 3e 0d 53 33 3e 68 38 2c 3e a5 38 56 be
       0.17747232 0.1751215 0.16818392 -0.20920046
000050 60 56 d1 3e 19 52 c0 bd 1a ae 00 3e f8 56 ac 3e
       0.4088621 -0.09390659 0.12566414 0.33660102
000060 0f dd 20 3d 3d 08 4f be ac 00 77 3e 93 5f b9 be
       0.039273318 -0.20217986 0.2412135 -0.3620573
000070 6e 67 28 3e b1 92 a4 be 6e d6 09 bf 9e 2e 23 bd
       0.16445705 -0.32143167 -0.5384282 -0.03983938
000080 f4 fd ea 3e 9c d8 cd bd a2 9b bc 3c c2 fd 5a 3e
       0.45896876 -0.100510806 0.02302343 0.21385863
000090 be b2 0e be 3d 3a 7b be 32 9e c1 bd 4f 91 b5 bd
       -0.13935372 -0.24533935 -0.094540015 -0.08865606
0000a0 d4 cb c5 bd 86 a9 6a be ce 89 b5 be a0 e8 0a 3e
       -0.09658018 -0.2291623 -0.354567 0.13565302
0000b0 5f d4 6b be 6f 08 18 3e 6d e5 01 be c4 3a 07 3f
       -0.23030232 0.14846967 -0.12685175 0.52824044
0000c0 a6 96 cc be 0e 28 a4 3d 75 7a 03 bf 3d a5 07 3d
       -0.39958686 0.08015452 -0.5135873 0.033116568
0000d0 e8 67 1d 3e 01 15 76 be 33 1c df bd d0 ed 96 3d
       0.15371668 -0.2403145 -0.108940504 0.07369578
0000e0 38 29 7a be 7d 0f e6 3e 9d 28 ca be b9 eb ce be
       -0.24429786 0.44933692 -0.3948411 -0.40414217
0000f0 89 01 bf 3d 60 51 51 3d 72 35 10 3e 36 e6 29 be
       0.09326465 0.051102996 0.14082888 -0.16591725

actor.4.weight f4 [9, 64]
000000 f4 38 ac 3d 62 a7 22 3c 93 38 a5 3b 16 74 83 3c
       0.084093004 0.0099276025 0.0050421446 0.016046565
000010 83 35 85 be 70 32 1c bd 67 06 34 bd 47 92 b4 3e
       -0.2601739 -0.03813404 -0.04395142 0.3526785
000020 fd 69 e5 bb 53 54 fa 3c d2 5e 6e be 23 30 18 bd
       -0.00700116 0.030557787 -0.23278359 -0.03715528
000030 a6 05 14 3d 6c b6 9f 3d cb 5d 0c be 9a 45 1c 3e
       0.0361382 0.07798466 -0.13707654 0.15260926
000040 b2 ee 10 bf c8 ae 14 be d0 9b 12 3d f0 88 6b 3c
       -0.5661422 -0.14519799 0.035793126 0.01437591
000050 ee 18 87 bd b1 ac 40 bd f7 34 06 bb 14 e0 ee 3b
       -0.06596552 -0.04703969 -0.0020478347 0.007289896
000060 96 19 9f 3d 43 b5 d2 3d 1f 9a b6 3b f6 6f bd bd
       0.07768552 0.10288479 0.005572572 -0.092498705
000070 37 6e 90 bd 27 33 38 3e f6 a4 cb be 52 59 9c 3d
       -0.07052272 0.17988263 -0.39774293 0.07634224
000080 3c c6 76 3f 6c d0 06 bd 5e b3 21 3b 6a 10 2f 3e
       0.9639623 -0.03291361 0.0024673562 0.17096105
000090 e4 85 0e 3d ec 51 89 3d ee 1a 62 3d 23 ae 21 3d
       0.034795657 0.067050785 0.055201463 0.03947271
0000a0 6b 32 b0 3b 5d b9 d8 3d 34 ea 46 bd 89 bb 31 bd
       0.005377104 0.1058223 -0.048563197 -0.043391738
0000b0 c7 64 ed 3d 95 61 f6 bb 8e 3d 6a bc 4f 59 97 be
       0.115914874 -0.007518957 -0.014296902 -0.29560325
0000c0 bc 65 d4 be c4 01 60 3d f7 68 44 bf e5 43 08 bb
       -0.41483867 0.054689184 -0.76722664 -0.0020792421
0000d0 63 0b d8 3d 90 1e e6 bc 38 81 67 bc 4f 9b 0a be
       0.10549047 -0.028090745 -0.014129929 -0.13535808
0000e0 e2 ac de 3d 99 e6 1c be f3 a4 85 3e 40 ba 2d 3e
       0.108728185 -0.15322341 0.2610241 0.1696558
0000f0 77 fc a3 bc db 6e a5 bc 16 41 73 3d ed 3b a8 3c
       -0.020017846 -0.020194462 0.059388243 0.020536387
000100 dc 95 71 bd 30 06 ed bc 1d 63 ea bb b3 a5 b3 bc
       -0.058980808 -0.028933614 -0.0071529285 -0.021929597
000110 93 0a 66 3f 6c eb a1 3e 51 08 39 3e 88 51 83 3f
       0.89859885 0.31624925 0.18069579 1.0259256
000120 e2 1a 06 bc 15 d0 a8 3c 25 8c 68 3f b6 f8 11 be
       -0.00818512 0.020607034 0.90838844 -0.14255032
000130 71 31 c5 3e 09 16 35 bc 13 a0 2e 3c a5 5e 22 bf
       0.38514283 -0.011052617 0.010658282 -0.63425666
000140 10 08 87 be 39 54 cd bd 35 22 57 3d bb 45 9f bd
       -0.2637334 -0.1002583 0.052522857 -0.07776972
000150 a9 23 93 3f 6c 73 c1 3e d4 51 aa be 1f 53 2d 3d
       1.1495258 0.37783372 -0.33265555 0.0423156
000160 93 78 39 3d d9 c9 9d 3d c0 55 1b be 5d 76 45 bd
       0.045281004 0.07704515 -0.1516943 -0.048208583
000170 6e 84 0f bf 39 de f0 3e b4 fd 50 bf ce d2 c5 be
       -0.56061447 0.47044542 -0.8163712 -0.38637394
000180 1f ff cf bf 9a 20 a9 bc 6d 85 f3 3c 1d 8e be 3d
       -1.6249732 -0.020645428 0.029726708 0.0930445
000190 95 89 b5 be 15 e7 c5 3e 59 e8 00 3d d1 35 cd bd
       -0.3545653 0.38652864 0.031471584 -0.1002003
0001a0 f5 33 bf bd 8c ba a4 bd a3 6d 70 bd 63 d7 92 3e
       -0.09336082 -0.080433935 -0.058698308 0.28679952
0001b0 5b 8f 85 bd 35 98 d6 3e f3 38 79 3d 94 4f 4b bf
       -0.065214835 0.41913 0.060845327 -0.794183
0001c0 4b e9 bd bf 81 59 74 be 0b 00 b6 3f 55 05 46 bd
       -1.483682 -0.23862268 1.4218763 -0.04834493
0001d0 0d f5 b7 be 23 2d 9c 3c 7c ce 2d 3d 4d 4c de 3e
       -0.35929146 0.019064492 0.042433247 0.43417588
0001e0 1b 03 d2 be 38 53 b5 3e 48 02 91 be 7d 64 9f 3f
       -0.41017994 0.35415053 -0.28322053 1.2452542
0001f0 c7 16 ef 3d d7 28 2b 3e c9 76 07 bc 77 95 35 bd
       0.11674266 0.16714798 -0.008268067 -0.044331994
000200 3b 1f 00 3d 12 e3 5e 3d 46 56 90 3c 11 87 d8 3b
       0.031279784 0.05441577 0.017619263 0.006607898
000210 6c ec 04 bf 1e 56 b4 be a3 47 01 be cc 13 a7 bf
       -0.5192325 -0.35221952 -0.12624983 -1.3052917
000220 50 8b 1e 3b 96 a2 8f 3c 2d 88 31 bf c9 4f 64 3e
       0.0024191923 0.017533582 -0.6934841 0.2229606
000230 ff 03 04 bf 5e af 1e be bc fa 47 3e 96 2a b7 3e
       -0.515686 -0.15496585 0.19529241 0.35774678
000240 fb da 51 3f 03 51 9f 3e 49 de 81 bd 9d 9d fa 3c
       0.8197476 0.31116495 -0.06341226 0.030592734
000250 32 b4 78 bf 96 ad 98 be d6 d2 c3 3e 33 42 30 3d
       -0.97149956 -0.29819936 0.38246793 0.043031882
000260 22 e5 01 be 43 30 77 be 0c e6 0c 3e 68 b8 a9 3d
       -0.12685063 -0.24139504 0.13759631 0.08287126
000270 fe 89 0e 3f 09 33 39 bf eb 42 92 3f 61 5f 8f 3e
       0.5567931 -0.723435 1.1426672 0.28002456
000280 b3 ae 21 3f 22 ef ef 3c 30 61 40 bc 5b e8 41 be
       0.63157195 0.029288832 -0.011741921 -0.18936293
000290 26 e6 7b 3e ab 97 05 bf e0 b7 22 be 9c 2f a3 3d
       0.24599513 -0.5218455 -0.15890455 0.07968065
0002a0 4d 3c 39 3d 4f 2c 82 bd 01 ef 73 3d 5c 62 8b be
       0.045223523 -0.063561074 0.059554104 -0.2722348
0002b0 76 5d de bd c4 1b c5 be 78 39 d4 bd 4c 09 95 3f
       -0.1085767 -0.38497746 -0.10362524 1.1643462
0002c0 25 bc ee 3f 0e 05 39 3e b1 1d 27 bf 84 43 4c 3d
       1.8651167 0.18068334 -0.6527968 0.049869075
0002d0 38 d9 69 3e b0 1c 64 ba f0 dc ee bc 82 c6 6e be
       0.22836769 -0.00087017845 -0.029158086 -0.23317912
0002e0 49 d7 73 3e e6 16 0b be b1 3f 9a bd 08 ea bd bf
       0.23812594 -0.13582954 -0.075316794 -1.4837046
0002f0 fe 2d ef bd 91 c5 06 be 13 99 a9 bb 71 a3 06 3c
       -0.11678694 -0.13161303 -0.0051757186 0.008217678
000300 7c 77 4f 3d 65 a7 8b 3d d1 42 c0 bc 46 58 bb bd
       0.05065106 0.06819037 -0.02346936 -0.09147696
000310 cb 3e e5 3d 83 71 e5 3d 5b 57 ff 3c 02 3b fd 3d
       0.111936174 0.11203291 0.031169584 0.123647705
000320 f7 28 98 3c 1d f5 11 be 31 c9 44 be 10 f1 3e 3e
       0.018574221 -0.1425366 -0.19217373 0.18646646
000330 1b af 7a 3d dc 17 98 3e 00 17 29 3e 73 0b 0a be
       0.06120215 0.29705703 0.1651268 -0.1348093
000340 9b 28 16 3e 48 96 a4 be b9 57 a0 3c f2 d2 2e bd
       0.14663927 -0.32145905 0.01957308 -0.042681642
000350 88 84 0d 3f 15 30 8b bd 0c e0 0b be d3 1d c8 bc
       0.5528035 -0.0679628 -0.13659686 -0.024428284
000360 d3 9e 13 3d df 8b 50 3d bb 1e f7 3c 3b 29 70 be
       0.03604014 0.05091464 0.03016602 -0.23453228
000370 49 28 1a be 2b ee f6 bd a9 f2 75 3d 64 3a 06 3c
       -0.1505443 -0.12057146 0.060045872 0.008192632
000380 d8 83 a6 bc 36 07 98 bc eb 3b 8a 3b d4 2e 58 be
       -0.02032654 -0.018558126 0.0042185686 -0.21111614
000390 5c b3 2d 3d 3a ff 61 3b e8 96 41 be 42 46 06 bc
       0.04240738 0.0034484402 -0.18905222 -0.008195462
0003a0 c2 d3 04 be eb 24 0b 3c 5b 8e e0 bb 72 a2 a6 3c
       -0.12971404 0.008492689 -0.0068529076 0.020341132
0003b0 c8 56 50 3d fc 9d 93 bb 83 5e 96 bd 9b 72 81 bc
       0.05086401 -0.004504917 -0.073422454 -0.015801718
0003c0 ed e4 20 3d 74 5e 30 bb 2d 63 09 bd 56 be db ba
       0.03928082 -0.0026911767 -0.033541847 -0.0016765099
0003d0 c5 98 b4 3b da a2 06 3d 69 a3 b0 3c ff 26 ae 3d
       0.0055113756 0.03287015 0.021562295 0.08503532
0003e0 de 70 18 3c cb ab 92 bd 24 03 5f be 67 aa 33 3d
       0.009304253 -0.07161673 -0.21778542 0.04386368
0003f0 13 e7 2a 3d ee 35 9c 39 92 64 fa bc 25 0b 3f 3d
       0.041724276 0.0002979482 -0.030565534 0.046641488

actor.4.bias f4 [9]
000000 fe 52 7e bf fa ae 1d 3f 24 90 0c 3f 8f 36 c0 bd
       -0.99345386 0.6159512 0.5490744 -0.09385406
000010 32 b5 51 3d 6b f4 f3 3d f0 fe 9b 3d a7 0e 79 bc
       0.051198192 0.119118534 0.07616985 -0.015201247
000020 c8 13 c5 3c
       0.024057284
