Plotting/saliencies_live/Multi_Pong/Sequence_Length_2/multi_pong_2__1__1721945456_checkpoint_152.pt (torch, 89058 bytes, 11 tensors)

critic.0.weight f4 [128, 12]
0.16583093 0.01269512 0.25685114 0.03635118 -0.0015640663 0.2383965 -1.0529039 0.87396085
-0.009108899 0.16389865 0.5746559 1.0379653 0.018373648 0.033625383 -0.08374544 0.009668369
0.025256183 0.008425823 -0.853439 0.36853144 -0.1539959 0.098659724 -0.69567275 1.5348816
-0.12222254 0.2918286 -0.34923923 -0.18536209 0.2702264 -0.09987579 0.37218165 -0.17976527
0.088454664 -0.025140522 0.2709936 -0.20477977 0.21793495 -0.16095613 0.28481883 -0.081200786
-0.043307606 0.008055611 0.022209998 0.28016725 -0.358557 0.14748083 -1.107492 0.9044062
-0.1321791 -0.00027472552 -0.037274387 0.0013996456 -0.025583329 -0.1600552 0.66627485 -0.15934502
0.082412645 0.14936501 0.5092472 1.5943427 -0.049182653 -0.01811888 -0.15971456 -0.056527555
-0.26348516 -0.16774534 -0.2574674 -1.6459688 0.02345557 -0.05963832 -0.22663705 -0.5361685
0.11553041 -0.019959453 -0.14881125 -0.015605416 0.03613287 -0.085887276 1.8133885 -1.3541559
0.0024798834 -0.022404961 -0.50375754 0.05879525 -0.027018305 0.006559054 -0.02287868 0.0018206948
-0.022668041 -0.029282564 0.35267943 -0.80299944 -0.06633461 0.07095104 -0.58498424 1.4138577
-0.30558866 0.011991466 -0.10983083 0.0063024014 -0.19072795 0.14858739 -1.0160625 0.851978
-0.15375985 -0.12830926 0.0661311 0.102085344 -0.06007365 -0.11038172 -0.24939178 -0.1598788
-0.00046290286 0.022212612 -0.6397951 0.356676 0.118945286 0.15184754 0.44228062 0.62056345
0.09566123 -0.006657703 0.17868051 -0.020055564 0.028337227 0.018244518 -0.592525 0.0071245558
0.06076828 0.027344197 0.6297738 -0.84362996 -0.2075182 0.014392158 0.0817944 -0.010259028
-0.082684144 -0.0065283687 -1.1151245 -0.92221564 -0.12652324 0.011195972 -0.11181522 0.33930314
0.17147659 0.023033757 0.011893037 0.048518933 0.09817781 0.019977631 0.5015141 0.28010616
-0.113920934 -0.11536523 -0.15267082 -0.9099551 0.04098349 -0.0151061425 0.07459158 -0.006758496
-0.016335137 0.07968321 -0.060400452 -0.12791719 0.15257461 -0.09549113 1.7188512 -0.05130496
0.06847909 -0.018997038 -0.021305315 -0.013390567 0.02607124 0.2381108 0.0057651824 1.185137
-0.03672285 -0.23071992 -0.13785192 -1.2108514 0.14499927 -0.026249863 0.18555301 0.0035970362
0.010354118 -0.052868783 -0.21282873 0.61237794 0.06253567 0.016472192 -0.6717859 -0.7458324
0.29713225 0.0076531973 -0.011013169 0.03136224 0.08474714 -0.084726274 0.29312357 -1.267031
0.051725276 0.052608553 -0.2592474 0.67925763 0.033696793 -0.00456572 -0.065075144 -0.0065090572
0.0046668197 0.16591363 0.18628179 -0.4549947 -0.028229186 -0.1746259 -0.6034792 0.33668706
0.059282187 0.025327211 0.053635944 -0.013160514 -0.016691683 -0.34016073 0.16268028 -0.6123866
0.019772353 0.32371044 0.14693329 0.7113842 0.09010215 -0.0033878253 -0.100590065 0.0026461128
0.00491575 -0.026506322 -0.013288922 -0.35315317 0.06841739 -0.06996762 2.3537903 -2.1331918
-0.28818226 -0.003036555 0.14446536 0.010606699 -0.1273159 0.011654554 -0.013993481 -0.04007581
0.16512446 0.0048680063 1.9473487 -0.100813314 -0.05889156 -0.047530316 -0.1898959 -0.033646204
00000000: 95cf 293e 31ff 4f3c fe81 833e fae4 143d
00000010: 5b01 cdba 361e 743e 8ec5 86bf e6bb 5f3f
00000020: 7e3d 15bc 0cd5 273e a61c 133f 0cdc 843f
00000030: 5584 963c c5ba 093d bb82 abbd 1468 1e3c
00000040: 0ee6 ce3c 770c 0a3c fa7a 5abf 27b0 bc3e
00000050: 1ab1 1dbe 1c0e ca3d 9c17 32bf 0077 c43f
00000060: d04f fabd 8f6a 953e 7ccf b2be 8fcf 3dbe
00000070: 1d5b 8a3e ae8b ccbd 988e be3e 6314 38be
00000080: b827 b53d 7ff3 cdbc acbf 8a3e cab1 51be
00000090: 572a 5f3e afd1 24be c6d3 913e 994c a6bd
000000a0: 5163 31bd aefb 033c bef1 b53c 1572 8f3e
000000b0: c894 b7be 3705 173e 4cc2 8dbf 2a87 673f
000000c0: f559 07be 0909 90b9 07ad 18bd 5074 b73a
000000d0: 2194 d1bc 83e5 23be fd90 2a3f 572b 23be
000000e0: f6c7 a83d 24f3 183e 065e 023f 6c13 cc3f
000000f0: c073 49bd 0c6e 94bc 378c 23be 7089 67bd
00000100: 87e7 86be 6fc5 2bbe c4d2 83be 1baf d2bf
00000110: e525 c03c 5047 74bd 8b13 68be 5742 09bf
00000120: 359b ec3d 0282 a3bc fa61 18be dcad 7fbc
00000130: 0f00 143d abe5 afbd 1d1d e83f fb54 adbf
00000140: 8a85 223b 9c8a b7bc 41f6 00bf 4ad3 703d
00000150: 7e55 ddbc 55ed d63b 126c bbbc 61a4 ee3a
00000160: 54b2 b9bc fde1 efbc 6692 b43e 5f91 4dbf
00000170: 71da 87bd c74e 913d 87c1 15bf 4af9 b43f
00000180: 1e76 9cbe db77 443c fcee e0bd 6084 ce3b
00000190: 304e 43be 4b27 183e 560e 82bf 3b1b 5a3f
000001a0: 3973 1dbe 8163 03be be6f 873d 1f12 d13d
000001b0: ca0f 76bd d00f e2bd 8f60 7fbe 45b7 23be
000001c0: c5b1 f2b9 39f7 b53c 9dc9 23bf 3d9e b63e
000001d0: 9699 f33d ec7d 1b3e 9b72 e23e 3fdd 1e3f
000001e0: 09ea c33d dc28 dabb 06f8 363e 914b a4bc
000001f0: 7923 e83c 8775 953c b8af 17bf 1b75 e93b
00000200: 29e8 783d f000 e03c db38 213f 22f8 57bf
00000210: a77f 54be 16cd 6b3c d383 a73d 7b15 28bc
00000220: 4e56 a9bd edeb d5bb 66bc 8ebf 5316 6cbf
00000230: 4f8f 01be 4f6f 373c 61ff e4bd 24b9 ad3e
00000240: 8f97 2f3e 4ab1 bc3c 03db 423c cabb 463d
00000250: 7311 c93d 21a8 a33c 3a63 003f 136a 8f3e
00000260: 614f e9bd 9b44 ecbd bd55 1cbe d1f2 68bf
00000270: 4ede 273d c17f 77bc 78c3 983d 6076 ddbb
00000280: 44d1 85bc f330 a33d 7766 77bd b9fc 02be
00000290: 853c 1c3e db90 c3bd 5103 dc3f 2625 52bd
000002a0: c43e 8c3d ad9f 9bbc 7c88 aebc 1c64 5bbc
000002b0: 5a93 d53c 51d3 733e dbe9 bc3b 92b2 973f
000002c0: b36a 16bd d841 6cbe 0e29 0dbe 2efd 9abf
000002d0: b07a 143e f409 d7bc 9c01 3e3e 41bc 6b3b
000002e0: 52a4 293c f08c 58bd c6ef 59be cdc4 1c3f
000002f0: b412 803d b1f0 863c 29fa 2bbf dfee 3ebf
00000300: b821 983e acc7 fa3b 9470 34bc b175 003d
00000310: e98f ad3d f884 adbd 4b14 963e 122e a2bf
00000320: e2dd 533d 117c 573d 13bc 84be d4e3 2d3f
00000330: a605 0a3d 099c 95bb 1e46 85bd ee49 d5bb
00000340: 1fec 983b 43e5 293e a7c0 3e3e 11f5 e8be
00000350: e540 e7bc 22d1 32be 9d7d 1abf 3f62 ac3e
00000360: e1d1 723d 037b cf3c 5db1 5b3d 329f 57bc
00000370: ffbc 88bc 8c29 aebe a995 263e 5ec5 1cbf
00000380: a1f9 a13c 60bd a53e ae75 163e 461d 363f
00000390: 7a87 b83d 4706 5ebb 2a02 cebd 686a 2d3b
000003a0: 4d14 a13b c923 d9bc c7b9 59bc 7ed0 b4be
000003b0: 6b1e 8c3d 2f4b 8fbd 80a4 1640 3786 08c0
000003c0: a08c 93be f000 47bb baee 133e b8c7 2d3c
000003d0: 195f 02be bef2 3e3c ea44 65bc 8826 24bd
000003e0: 6316 293e cc83 9f3b b942 f93f 3677 cebd
000003f0: 4738 71bd 26af 42bd 1274 42be 9ad0 09bd

critic.0.bias f4 [128]
0.024978347 0.04891344 -0.1348869 0.1637797 -0.097077824 -0.093575604 0.05231265 -0.0513364
-0.031617936 -0.11839041 -0.05603054 -0.004382712 0.019493805 0.030957416 -0.018831277 0.15822904
0.04511742 0.017416352 -0.057790045 -0.008410311 0.0019551748 0.0035905703 0.01511646 -0.12670504
-0.12860066 0.04674509 -0.058169633 0.37111068 0.02061675 0.14124899 0.14047155 -0.00080973003
-0.041025493 -0.029766351 -0.014103958 0.007909581 -0.107516065 -0.030878987 -0.07572643 -0.104753
0.029115133 -0.005938769 0.05597469 0.01945129 -0.101557754 -0.04838758 0.14058644 -0.026847247
-0.0052998946 -0.04741442 0.018096162 0.08890915 -0.032912195 0.08350416 0.028806122 0.008097818
0.06452714 0.039902877 0.015906258 0.032269567 0.007815724 -0.019581264 -0.07447918 -0.048653923
0.0038047829 -0.05515434 0.0532144 -0.02688197 -0.03310331 -0.13795087 -0.012401564 -0.001459807
0.016976414 -0.034595586 -0.0020445164 -0.0652465 -0.038082562 0.0075018774 0.120133966 -0.0016031679
0.0008323503 -0.04350029 0.08910148 -0.024156557 -0.011471431 0.05215629 -0.2158601 -0.047227267
-0.0833083 -0.024575198 -0.012840811 -0.023654712 -0.00764736 0.017637895 0.069480285 -0.011395981
-0.039896045 0.30588248 0.082784966 -0.065491445 -0.011285529 -0.16590032 -0.049416017 -0.034028184
-0.17737012 -0.030914089 -0.0055703535 -0.078183 0.022867898 -0.03515379 0.048659526 -0.061335683
-0.02457796 0.012197189 -0.048354153 0.08228063 0.1773564 0.060052015 0.021075143 0.06740958
0.059155952 -0.16569437 -0.09561407 -0.056226615 0.07419591 0.015940024 -0.13881676 0.083130226
00000000: 649f cc3c 7659 483d cb1f 0abe deb5 273e
00000010: bdd0 c6bd 91a4 bfbd ca45 563d 1e46 52bd
00000020: cf81 01bd ac76 f2bd 4880 65bd da9c 8fbb
00000030: 79b1 9f3c 689a fd3c 0d44 9abc cb06 223e
00000040: 0bcd 383d bdac 8e3c 41b5 6cbd 67cb 09bc
00000050: 6422 003b c64f 6b3b 07ab 773c f7be 01be
00000060: e4af 03be c877 3f3d 4843 6ebd 3802 be3e
00000070: 75e4 a83c 93a3 103e c6d7 0f3e 1044 54ba
00000080: 590a 28bd 90d8 f3bc 4a14 67bc 3097 013c
00000090: 6231 dcbd eef5 fcbc 7516 9bbd be88 d6bd
000000a0: dc82 ee3c 019a c2bb b745 653d 5058 9f3c
000000b0: 83fd cfbd 0e32 46bd e4f5 0f3e c2ee dbbc
000000c0: bdaa adbb 9f35 42bd 673e 943c 0016 b63d
000000d0: f0ce 06bd 3b04 ab3d d1fa eb3c b6ac 043c
000000e0: ce26 843d 3371 233d d74d 823c 182d 043d
000000f0: 860d 003c e368 a0bc 8a88 98bd 5649 47bd
00000100: aa59 793b 84e9 61bd 58f7 593d 9437 dcbc
00000110: 5697 07bd fe42 0dbe ee2f 4bbc ff56 bfba
00000120: 1f12 8b3c 1ab4 0dbd 4bfd 05bb f59f 85bd
00000130: 76fc 1bbd 4fd2 f53b cc08 f63d 6321 d2ba
00000140: 1532 5a3a 5c2d 32bd d67a b63d f9e3 c5bc
00000150: abf2 3bbc d5a1 553d 6e0a 5dbe 6171 41bd
00000160: 8b9d aabd ed51 c9bc 4462 52bc 87c7 c1bc
00000170: b596 fabb 597d 903c ae4b 8e3d 35b6 3abc
00000180: 096a 23bd a19c 9c3e 2a8b a93d 6120 86bd
00000190: f0e6 38bc c6e1 29be 7368 4abd 2361 0bbd
000001a0: 83a0 35be 8b3f fdbc 8387 b6bb 691e a0bd
000001b0: 7555 bb3c 6cfd 0fbd 364f 473d 203b 7bbd
000001c0: b857 c9bc b8d6 473c 010f 46bd bf82 a83d
000001d0: eb9c 353e 1af9 753d c7a5 ac3c 090e 8a3d
000001e0: 834d 723d c9ab 29be 4fd1 c3bd e14d 66bd
000001f0: 06f4 973d a794 823c fb25 0ebe 2e40 aa3d

critic.2.weight f4 [64, 128]
0.0181783 0.32339498 0.25178468 0.057307 -0.35891798 0.08014895 0.2249812 0.31441236
-0.10352491 0.32399777 -0.14825669 0.08583091 -0.041420553 0.26675904 -0.07662283 0.08566764
0.09032755 0.0892314 0.21149905 0.1291485 -0.007360967 0.163389 -0.22683454 -0.32224518
0.12036459 0.20610961 0.1138788 -0.066811204 0.15132478 -0.01718578 -0.088523045 -0.32163462
0.18066816 0.12042177 0.2666616 -0.20963943 -0.2133535 0.11528412 -0.010811423 0.02866273
0.055645816 -0.18668652 0.015665658 0.04903921 -0.12910263 -0.0353738 -0.045553714 -0.18729687
0.019653723 0.07136288 0.032879118 -0.0727719 -0.025397962 0.09112211 0.00858767 -0.022425558
0.06306556 0.006151695 -0.1402122 -0.17945759 -0.20356143 -0.002372976 0.062355734 0.14962561
0.039648503 -0.09726706 -0.3303146 0.10698235 -0.29262027 0.18412116 -0.30333254 -0.12938695
0.003219513 0.09768213 -0.013900834 0.1141026 -0.4294242 0.092254154 -0.20502253 -0.31255138
0.1734152 -0.09466055 -0.100872755 -0.025750896 -0.051998444 0.38265157 -0.3770969 0.04085934
-0.45548025 -0.26398954 0.21266702 0.14399484 0.04934776 0.17376469 0.0669973 0.107104026
0.1628672 0.14460424 -0.120929375 -0.08219889 -0.45880046 -0.17751463 -0.107048094 0.32009906
0.07363378 -0.34083882 -0.022658275 0.0648009 0.19525018 -0.007635034 -0.26746923 -0.5183356
-0.17174383 0.22227955 0.20750509 0.114099294 0.14089371 0.12462974 0.036891565 -0.059993338
0.16571541 -0.6879781 0.039876655 -0.05832231 0.21035463 -0.2579974 0.032715715 0.0042604893
-0.15257841 0.09048141 0.19178294 0.37785894 0.13565673 -0.2161371 -0.1944461 -0.28336197
0.26569754 0.07932075 0.38277012 0.43516272 -0.004844037 0.051712252 0.050794635 0.043123607
-0.07516664 0.30661562 -0.03241811 0.13124768 -0.15356436 -0.12626241 0.29062483 0.18550044
0.14672174 0.11263594 0.13612308 -0.5487159 0.24551019 -0.039822735 -0.085671164 -0.16067849
0.12131442 0.03244454 -0.04835332 0.29347235 0.09689321 -0.19257675 0.23128349 -0.18954135
-0.05438497 -0.015735984 -0.14535801 -0.17053027 0.1157257 0.13746133 0.15099442 0.12933914
0.023770591 0.17625766 0.03542961 0.123006634 -0.10518979 0.04531862 -0.08929403 -0.17206869
-0.19433145 0.20180021 0.40885666 -0.18534258 0.13194363 -0.21185783 -0.20192437 -0.04981929
-0.12810174 -0.028508209 0.05657479 0.041666277 0.20932958 0.07189703 -0.16207932 0.16617668
0.44194445 -0.011409147 -0.01395493 -0.01058212 0.5960823 0.19600157 0.09337028 -0.018232299
-0.34559885 -0.4246417 -0.54737157 -0.26304397 0.02786087 0.04719039 -0.097217605 -0.38620102
0.009420815 -0.057211727 -0.45172772 -0.0044389092 -0.07795446 -0.058030516 -0.0011321587 -0.12233649
-0.26776186 0.16860369 -0.39513904 0.18538967 -0.085720405 0.100890845 0.041830555 0.023929365
-0.3078397 0.5594766 -0.08284565 -0.14745504 0.038277317 -0.08412147 -0.038870405 0.53416973
-0.18189423 -0.13623863 -0.01615357 0.1146139 -0.1444654 -0.053879205 0.3851769 -0.025116334
-0.3205267 -0.23836008 -0.08736214 0.052157935 0.26075184 0.4279584 0.11367319 -0.010736815
00000000: a8ea 943c 0794 a53e ece9 803e bfba 6a3d
00000010: 19c4 b7be 2225 a43d 7961 663e a8fa a03e
00000020: de04 d4bd 09e3 a53e 9ad0 17be 1ec8 af3d
00000030: 99a8 29bd a494 883e 6eec 9cbd 8472 af3d
00000040: a7fd b83d f4be b63d 3593 583e 813f 043e
00000050: 4434 f1bb 724f 273e 5047 68be 52fd a4be
00000060: b681 f63d 660e 533e 4a39 e93d 50d4 88bd
00000070: e2f4 1a3e 31c9 8cbc 924b b5bd 4bad a4be
00000080: 1301 393e b09f f63d df87 883e b8ab 56be
00000090: 5779 5abe 151a ec3d 6522 31bc 1ace ea3c
000000a0: deec 633d c02a 3fbe 4455 803c 57dd 483d
000000b0: 7b33 04be 1ee4 10bd 8896 3abd c0ca 3fbe
000000c0: d800 a13c b426 923d 41ac 063d 6f09 95bd
000000d0: 630f d0bc 3b9e ba3d 4cb3 0c3c ceb5 b7bc
000000e0: 8428 813d 2894 c93b c993 0fbe bbc3 37be
000000f0: 6872 50be ee83 1bbb ba68 7f3d 7537 193e
00000100: 7866 223d f433 c7bd ff1e a9be 9019 db3d
00000110: 53d2 95be 428a 3c3e 674e 9bbe 037e 04be
00000120: 77fe 523b 920d c83d 53c0 63bc a0ae e93d
00000130: 7ddd dbbe bfef bc3d 6df1 51be bc06 a0be
00000140: c193 313e 64dd c1bd 6096 cebd 8bf3 d2bc
00000150: 52fc 54bd e8ea c33e d812 c1be 205c 273d
00000160: b534 e9be a329 87be 62c5 593e 6273 133e
00000170: e020 4a3d 5fef 313e e135 893d 5b59 db3d
00000180: a9c6 263e 2213 143e d2a9 f7bd e457 a8bd
00000190: e5e7 eabe 65c6 35be 083c dbbd 06e4 a33e
000001a0: 4fcd 963d 6d82 aebe d99d b9bc 56b6 843d
000001b0: aaef 473e 4f2f fabb baf1 88be a4b1 04bf
000001c0: 9ddd 2fbe 409d 633e 377c 543e e4ac e93d
000001d0: 7146 103e e13d ff3d 9c1b 173d 93bb 75bd
000001e0: 4db1 293e 551f 30bf b455 233d 60e3 6ebd
000001f0: 3467 573e 3c18 84be ea00 063d 939b 8b3b
00000200: 843d 1cbe 514e b93d bf62 443e ba76 c13e
00000210: 99e9 0a3e 0b53 5dbe e11c 47be d214 91be
00000220: 8209 883e eb72 a23d 72fa c33e a6cd de3e
00000230: baba 9ebb 3ad0 533d 090e 503d 61a2 303d
00000240: f8f0 99bd b9fc 9c3e dac8 04bd cb65 063e
00000250: fa3f 1dbe ef4a 01be c7cc 943e d4f3 3d3e
00000260: 393e 163e acad e63d d963 0b3e a578 0cbf
00000270: 0667 7b3e 2a1d 23bd 5d74 afbd e788 24be
00000280: b273 f83d 91e4 043d 220e 46bd 0242 963e
00000290: f36f c63d d732 45be 94d5 6c3e 2117 42be
000002a0: c6c2 5ebd c0e8 80bc bbd8 14be 7d9f 2ebe
000002b0: 9901 ed3d aac2 0c3e 489e 1a3e 7b71 043e
000002c0: 8bba c23c e37c 343e a41e 113d e7ea fb3d
000002d0: bf6d d7bd 04a0 393d cadf b6bd c632 30be
000002e0: d3fe 46be b7a4 4e3e a955 d13e 72ca 3dbe
000002f0: 3b1c 073e 42f1 58be 43c5 4ebe 500f 4cbd
00000300: 1a2d 03be 0c8a e9bc f8ba 673d 42aa 2a3d
00000310: 7e5a 563e c03e 933d 1ff8 25be 382a 2a3e
00000320: 8b46 e23e 6eed 3abc 38a3 64bc a160 2dbc
00000330: da98 183f a3b4 483e eb38 bf3d e75b 95bc
00000340: 55f2 b0be a36a d9be 8b20 0cbf b3ad 86be
00000350: 7b3c e43c b64a 413d 061a c7bd 24bc c5be
00000360: c359 1a3c d856 6abd db48 e7be 4574 91bb
00000370: 97a6 9fbd 68b1 6dbd f164 94ba 8e8b fabd
00000380: 1518 89be 72a6 2c3e aa4f cabe cad6 3d3e
00000390: 2e8e afbd dc9f ce3d 8456 2b3d 8407 c43c
000003a0: 2a9d 9dbe dc39 0f3f fbaa a9bd 74fe 16be
000003b0: adc8 1c3d e147 acbd 9336 1fbd 59bf 083f
000003c0: 7b42 3abe 2482 0bbe 7e54 84bc b1ba ea3d
000003d0: bdee 13be 71b0 5cbd e835 c53e c5c0 cdbc
000003e0: 131c a4be aa14 74be ecea b2bd 8fa3 553d
000003f0: 4481 853e 5d1d db3e 7dcd e83d 77e9 2fbc

critic.2.bias f4 [64]
0.10596184 0.100253545 -0.01462997 -0.07110669 0.017719919 0.11700866 -0.10103382 -0.048968833
0.22303742 0.015417477 0.18621694 0.100693 0.15844356 0.053774484 0.19213879 0.10260517
-0.089210175 -0.029094212 -0.13198228 -0.10462788 0.059243646 0.12995896 0.16124077 -0.016543964
0.064716116 -0.17256978 -0.034281097 -0.14312692 -0.09234044 0.036987584 0.09127821 -0.114144154
0.1263146 0.058638588 0.14690685 -0.08106498 0.1532128 -0.15553455 0.03833019 -0.13955814
-0.12384361 -0.17196009 0.018485853 -0.11150425 -0.06257391 -0.1732097 -0.10817099 -0.12743333
-0.2230558 -0.03334904 0.03186379 0.44065392 0.11350784 0.113787055 0.15000421 -0.22315988
-0.12437739 -0.28586286 -0.13007726 -0.17730668 0.11760206 0.067337 0.06460183 -0.10198315
00000000: 8502 d93d bb51 cd3d 8bb2 6fbc 62a0 91bd
00000010: 5d29 913c 3da2 ef3d d2ea cebd 8b93 48bd
00000020: ec63 643e 9699 7c3c a7af 3e3e 2238 ce3d
00000030: 073f 223e a242 5c3d 08c0 443e a922 d23d
00000040: d3b3 b6bd fc56 eebc 5d26 07be 2447 d6bd
00000050: 77a9 723d f613 053e 4d1c 253e 3587 87bc
00000060: e289 843d 22b6 30be 566a 0cbd dd8f 12be
00000070: fc1c bdbd 4b80 173d 12f0 ba3d 69c4 e9bd
00000080: 9d58 013e 042f 703d c06e 163e 6505 a6bd
00000090: d1e3 1c3e 7344 1fbe 1e00 1d3d 54e8 0ebe
000000a0: b8a1 fdbd 4e16 30be a56f 973c 575c e4bd
000000b0: c026 80bd e25d 31be c188 ddbd e27d 02be
000000c0: bd68 64be 0199 08bd 9b83 023d 649d e13e
000000d0: cc76 e83d 3009 e93d b49a 193e 0684 64be
000000e0: 93b9 febd 9e5c 92be f932 05be e28f 35be
000000f0: 59d9 f03d fbe7 893d f74d 843d 8bdc d0bd

critic.4.weight f4 [1, 64]
0.43802607 0.41359273 0.5764027 -0.935308 0.37404674 0.1935537 -0.44217747 -0.37066078
0.6051123 -0.8967899 0.85477906 0.4117547 0.37897283 -0.5289311 0.29932985 0.7605027
-0.39824703 -0.6579444 -0.5033905 -0.5007619 0.56601393 0.52460474 0.4014962 -0.39874056
0.4091512 -0.32800186 0.5784835 -0.47698897 -0.65196806 0.43129286 0.72942644 -0.37158132
0.35705593 0.52351993 0.5996104 -0.3577522 0.82242715 -0.9063783 0.6000862 -0.4855829
-0.37447166 -0.33671913 -0.75229824 -0.497686 -0.51975703 -0.412548 -0.64841354 -0.57533485
-0.5003073 -0.9042852 0.5608892 1.1027622 0.30675414 0.49485242 0.80345994 -0.55899316
-0.7523299 -0.71667093 -0.54795116 -0.5309504 0.36155558 0.68191606 0.4026409 -0.53877187
00000000: f444 e03e 6dc2 d33e 218f 133f 5870 6fbf
00000010: 0e83 bf3e f132 463e 1665 e2be 40c7 bdbe
00000020: a4e8 1a3f 0694 65bf cdd2 5a3f 83d1 d23e
00000030: ba08 c23e 0768 07bf c341 993e 4eb0 423f
00000040: 09e7 cbbe 0b6f 28bf 33de 00bf ef31 00bf
00000050: 4ae6 103f 7f4c 063f e990 cd3e b927 ccbe
00000060: 447c d13e dcef a7be 7f17 143f e637 f4be
00000070: 61e7 26bf 6bd2 dc3e b1bb 3a3f e83f bebe
00000080: 09d0 b63e 6705 063f 1180 193f 4c2b b7be
00000090: 968a 523f 6908 68bf 409f 193f 529e f8be
000000a0: c0ba bfbe 7366 acbe 9e96 40bf b3d0 febe
000000b0: cc0e 05bf 7e39 d3be 6efe 25bf 2549 13bf
000000c0: 2414 00bf 3c7f 67bf 6f96 0f3f 5027 8d3f
000000d0: e10e 9d3e 4c5d fd3e 8daf 4d3f 2d1a 0fbf
000000e0: b198 40bf bf77 37bf 8746 0cbf 5eec 07bf
000000f0: d01d b93e 0d92 2e3f f326 ce3e f4ec 09bf

actor.0.weight f4 [128, 16]
0.18712083 -0.15063554 0.12776393 0.38383594 0.2564258 0.20741951 -0.19478586 -0.15161188
-0.6062363 -0.14051574 0.17914358 -0.11239855 0.14582828 -0.044501618 0.096737936 -0.011167892
0.21415687 0.01966802 -0.100157365 0.15342917 0.27235928 -0.5261371 0.06333055 -0.022015031
-0.39977294 0.5192225 0.17349263 -0.05019855 -0.037000384 -0.22466935 0.4394043 -0.16241257
0.08150454 -0.07571042 0.17386045 0.067243315 0.36561856 0.04868537 -0.08489582 -0.12101984
-0.7704052 0.0865811 0.055129725 0.0015753086 0.10423013 0.080476224 -0.100601204 -0.08783028
0.1573863 0.028253525 -0.13887689 -0.06324274 -0.85437036 -0.5669322 0.0228425 0.07928964
0.24725784 -0.051628444 0.014169078 0.15954402 -0.21839564 0.1162766 -0.04261091 -0.043937236
-0.113215916 0.13147624 -0.030707998 0.0068759015 0.023860056 0.32646707 0.15719798 -0.061586853
1.1476868 -0.14656253 -0.06289194 0.023727518 -0.081691585 -0.09724448 -0.13361971 0.105769545
0.16977707 -0.103195705 0.26513854 -0.24709137 -0.39026845 0.2325381 0.24977557 -0.05650072
-0.240427 0.2735896 -0.12175217 -0.10374999 -0.007263362 0.00929355 -0.3437631 0.41407225
-0.05029098 -0.14910991 -0.12764816 -0.1728334 -0.16307299 0.13778087 0.10444958 0.35226896
-0.1300253 0.1177526 -0.1595295 -0.112407446 -0.29615277 -0.123825334 -0.012801038 0.002488657
0.10626971 -0.04283173 0.0059204153 -0.26681706 -0.29693982 -0.5948812 0.25953665 0.054554604
0.29115847 -0.010931749 -0.13912262 0.1647674 -0.21635225 -0.19317399 0.10416782 0.19960523
0.0030926373 -0.18819751 0.094829306 -0.04728795 -0.42748436 0.58982426 -0.05795905 0.07750659
0.07870707 0.07034096 -0.006819634 -0.04695304 0.1282425 0.20958889 0.36240217 -0.26611477
-0.0650942 -0.31127307 -0.21964905 0.16498624 -0.29205775 0.27350366 0.22460592 0.15611671
0.52071375 0.12955783 0.0817362 -0.21723846 -0.2422819 -0.012954319 0.061910287 -0.14273956
-0.07449546 -0.15159339 -0.068188146 -0.16175318 0.28469062 -0.53153896 0.00216413 -0.102753855
-0.16877174 -0.15847732 0.2417389 0.07426092 0.017481871 -0.19009627 -0.2533806 0.12619829
0.028617833 0.3376981 0.08103526 -0.11980677 -0.01095359 0.114812575 -0.20496657 0.10067173
0.3417388 -0.4381335 0.18128096 -0.2702941 -0.13584825 -0.054167114 -0.15138087 -0.00087475893
-0.24068764 0.36080468 0.22984686 -0.40265068 0.69528025 -0.45363268 0.0149092525 0.013065319
0.027668994 0.035884008 0.15762727 0.0074383374 -0.039068393 0.03630682 0.03204093 -0.045968346
0.094760805 -0.087863795 -0.165977 0.29747394 0.04734247 -0.49093926 0.14546713 0.09587319
0.5950277 -0.08508335 -0.15563262 -0.07890917 -0.044453662 -0.13673599 -0.23168243 0.07022611
0.021383991 -0.15422687 0.15873761 -0.121219054 0.038911358 -0.20849773 -0.23254415 0.26776254
-0.40167558 -0.30889416 -0.0600788 -0.060241297 -0.12634897 0.15094033 0.13567585 -0.096697055
0.26502353 0.1176592 -0.12710442 0.19272092 -0.5656032 -0.030953513 0.12162526 -0.29723427
0.39306018 -0.29721698 0.036231305 0.11212647 -0.05220997 -0.079272166 -0.043069374 -0.031006092
00000000: 9a9c 3f3e 3440 1abe 8cd4 023e 2586 c43e
00000010: 3e4a 833e c865 543e f275 47be 2540 1bbe
00000020: 4d32 1bbf 5ce3 0fbe 6a71 373e 3631 e6bd
00000030: 0254 153e 5447 36bd 8a1e c63d 89f9 36bc
00000040: f04b 5b3e d41e a13c 4e1f cdbd 891c 1d3e
00000050: ad72 8b3e ecb0 06bf 73b3 813d de58 b4bc
00000060: 0aaf ccbe c4eb 043f 0da8 313e ff9c 4dbd
00000070: b78d 17bd b90f 66be 9af9 e03e 7b4f 26be
00000080: daeb a63d 110e 9bbd 7908 323e ddb6 893d
00000090: 5b32 bb3e 4f6a 473d dcdd adbd 40d9 f7bd
000000a0: 4639 45bf 6f51 b13d b5cf 613d 967a ce3a
000000b0: 9b76 d53d b8d0 a43d 0108 cebd 5de0 b3bd
000000c0: e029 213e f073 e73c be35 0ebe 6985 81bd
000000d0: 04b8 5abf 7822 11bf 3220 bb3c 9b62 a23d
000000e0: 2931 7d3e 5978 53bd 6c25 683c 825f 233e
000000f0: 1ba3 5fbe 6d22 ee3d c788 2ebd 88f7 33bd
00000100: bfdd e7bd b5a1 063e 578f fbbc 3e4f e13b
00000110: 2a76 c33c b126 a73e 82f8 203e 7f42 7cbd
00000120: 67e7 923f 7d14 16be 7dcd 80bd 3660 c23c
00000130: eb4d a7bd 1d28 c7bd 9bd3 08be b49d d83d
00000140: 0ada 2d3e 4558 d3bd 3dc0 873e 8505 7dbe
00000150: 44d1 c7be 781e 6e3e 2bc5 7f3e 4d6d 67bd
00000160: 7f32 76be f013 8c3e 3459 f9bd e07a d4bd
00000170: 7f01 eebb f943 183c b801 b0be 4701 d43e
00000180: eafd 4dbd 45b0 18be 33b6 02be 3dfb 30be
00000190: 9bfc 26be 6e16 0d3e a9e9 d53d 995c b43e
000001a0: 5a25 05be 4628 f13d b45b 23be e035 e6bd
000001b0: 56a1 97be 2398 fdbd 72bb 51bc bc18 233b
000001c0: efa3 d93d 5370 2fbd 0b00 c23b 3f9c 88be
000001d0: 7f08 98be 224a 18bf fde1 843e a674 5f3d
000001e0: b912 953e 141b 33bc 2976 0ebe c9b8 283e
000001f0: 728b 5dbe 67cf 45be f055 d53d 5065 4c3e
00000200: d8ad 4a3b d9b6 40be de35 c23d 02b1 41bd
00000210: 3bdf dabe b9fe 163f 7866 6dbd c6bb 9e3d
00000220: 2c31 a13d ec0e 903d 3d77 dfbb d551 40bd
00000230: 0052 033e 789e 563e c78c b93e 3240 88be
00000240: 1c50 85bd 2f5f 9fbe aeeb 60be 27f2 283e
00000250: 9888 95be ac08 8c3e 18ff 653e 0fdd 1f3e
00000260: 7f4d 053f cfaa 043e 4f65 a73d c273 5ebe
00000270: bf18 78be 5a3e 54bc a495 7d3d 522a 12be
00000280: 1391 98bd 4c3b 1bbe 3aa6 8bbd a0a2 25be
00000290: f8c2 913e f012 08bf 14d4 0d3b 9d70 d2bd
000002a0: 80d2 2cbe e147 22be 678a 773e 1c16 983d
000002b0: 2436 8f3c 99a8 42be 1abb 81be 203a 013e
000002c0: f26f ea3c c4e6 ac3e d0f5 a53d 405d f5bd
000002d0: b076 33bc db22 eb3d c2e2 51be fb2c ce3d
000002e0: 63f8 ae3e 0953 e0be b7a1 393e fd63 8abe
000002f0: ce1b 0bbe 56de 5dbd 9603 1bbe 1450 65ba
00000300: d276 76be 64bb b83e fa5c 6b3e 3b28 cebe
00000310: e3fd 313f 8b42 e8be f045 743c eb0f 563c
00000320: 16aa e23c 1cfb 123d 0b69 213e 4cbd f33b
00000330: 2e06 20bd 76b6 143d 5a3d 033d 4e49 3cbd
00000340: f411 c23d eff1 b3bd e0f5 29be 814e 983e
00000350: 2eea 413d 645c fbbe 56f5 143e 2a59 c43d
00000360: bc53 183f 2e40 aebd 285e 1fbe 229b a1bd
00000370: 0b15 36bd 8504 0cbe 293e 6dbe b5d2 8f3d
00000380: 7b2d af3c a6ed 1dbe 1d8c 223e b241 f8bd
00000390: 8461 1f3d 6e80 55be 0e20 6ebe 2c18 893e
000003a0: 6ca8 cdbe 6027 9ebe 3015 76bd 94bf 76bd
000003b0: a061 01be 1a90 1a3e 9cee 0a3e 1b09 c6bd
000003c0: 2ab1 873e 4ff7 f03d a927 02be a258 453e
000003d0: 5fcb 10bf 3992 fdbc aa16 f93d 172f 98be
000003e0: 2f3f c93e d32c 98be 4767 143d 90a2 e53d
000003f0: 1fda 55bd 7259 a2bd 8369 30bd 7d00 febc

actor.0.bias f4 [128]
-0.026232196 -0.0077853277 0.06358229 0.03744316 -0.044093687 -0.01751357 -0.041844405 -0.045209765
-0.01302071 -0.041780323 -0.031729095 0.002798814 -0.08512545 -0.044818096 0.0056348317 0.058236986
0.041446842 -0.010786765 0.05722445 0.04824043 -0.058117706 0.038324572 -0.06262337 0.03302766
-0.025411516 -0.12114196 -0.026125817 -0.03776354 0.02743257 -0.1119493 0.06236749 -0.073183976
0.013544982 -0.1282219 0.050175633 0.023230538 0.0834274 0.030855311 -0.03627736 0.017727017
-0.04820211 0.033684514 0.026081558 0.07934171 -0.095563635 0.0522022 -0.047227558 -0.007174247
-0.0070515787 -0.07140745 0.065340616 0.02196763 0.07854304 0.015215313 0.06465557 0.027023373
0.053522054 0.14361754 -0.031113984 -0.039770998 -0.057283923 0.009726212 0.10453257 0.013261808
0.015115535 0.060474914 -0.02928843 0.0124437045 -0.11842354 0.034306277 -0.09516507 0.0017360966
0.009317675 -0.05563121 0.042624142 -0.037062373 -0.05005162 0.011518184 0.00068902475 -0.04023208
0.012781288 -0.18562959 -0.021035641 -0.04454908 0.11438894 0.049273215 0.058044244 -0.011248536
-0.07264798 -0.0031543688 -0.03118682 0.010411675 -0.014589535 -0.038659558 0.021259997 -0.025771456
-0.0692348 -0.012822422 0.005286232 0.018547425 -0.08111007 -0.111487105 -0.00706585 0.0013942556
0.08460365 0.042367116 0.0042897747 -0.12697262 0.032018658 -0.035819016 -0.030994298 -0.061107393
0.0076629906 0.04790703 0.101901256 0.08442608 0.06886466 0.0052711987 0.0106999455 0.06452088
-0.10991502 -0.066884376 0.033391573 -0.049930505 -0.015171601 -0.08131341 -0.08949879 -0.0875623
00000000: e7e4 d6bc 101c ffbb 6f37 823d 005e 193d
00000010: 959b 34bd 9e78 8fbc 0a65 2bbd e02d 39bd
00000020: d154 55bc d821 2bbd 5ef6 01bd 4f6c 373b
00000030: 4056 aebd 2e93 37bd 65a4 b83b e889 6e3d
00000040: 2ac4 293d f9ba 30bc 2f64 6a3d c297 453d
00000050: d50c 6ebd 3afa 1c3d ae40 80bd 0348 073d
00000060: d02b d0bc 4719 f8bd cf05 d6bc f1ad 1abd
00000070: 45ba e03c ad45 e5bd 0e75 7f3d 7be1 95bd
00000080: c6eb 5d3c 9a4c 03be f784 4d3d f84d be3c
00000090: fcdb aa3d 47c4 fc3c 9297 14bd 4038 913c
000000a0: 936f 45bd c6f8 093d fea8 d53c e87d a23d
000000b0: deb6 c3bd f9d1 553d af71 41bd f215 ebbb
000000c0: ee10 e7bb 123e 92bd 4dd1 853d 76f5 b33c
000000d0: 2cdb a03d a649 793c 246a 843d 1f60 dd3c
000000e0: f139 5b3d 7a10 133e c1e2 febc eae6 22bd
000000f0: 8ca2 6abd b15a 1f3c 2c15 d63d 0e48 593c
00000100: 26a7 773c 8bb4 773d 4aee efbc aee0 4b3c
00000110: 0a88 f2bd bd84 0c3d e7e5 c2bd bc8d e33a
00000120: 29a9 183c 8ddd 63bd a796 2e3d b7ce 17bd
00000130: ed02 4dbd c4b6 3c3c ab9f 343a 65ca 24bd
00000140: 9b68 513c af15 3ebe f052 acbc 1979 36bd
00000150: c044 ea3d b6d2 493d cdbf 6d3d c84b 38bc
00000160: 77c8 94bd 87b9 4ebb 807b ffbc bb95 2a3c
00000170: f208 6fbc 7c59 1ebd 7229 ae3c a91e d3bc
00000180: faca 8dbd 2315 52bc 2138 ad3b c5f0 973c
00000190: 091d a6bd 5a53 e4bd a588 e7bb 74bf b63a
000001a0: ae44 ad3d 2489 2d3d 3d91 8c3b 1c05 02be
000001b0: ff25 033d f6b6 12bd c1e7 fdbc bf4b 7abd
000001c0: d319 fb3b 293a 443d 9bb1 d03d 95e7 ac3d
000001d0: ea08 8d3d 05ba ac3b d34e 2f3c 8623 843d
000001e0: 201b e1bd adfa 88bd 9ac5 083d ee83 4cbd
000001f0: 4f92 78bc a587 a6bd 244b b7bd dd53 b3bd

actor.2.weight f4 [64, 128]
-0.24484797 0.02711484 -0.0023687063 -0.09070687 0.09580267 0.091365136 0.05938647 0.1037405
-0.044646766 -0.2846301 0.06998724 0.36632353 -0.16731969 -0.13582315 -0.1965784 -0.026176061
-0.14449151 0.03944705 -0.13912259 0.32897553 0.18710387 0.04524565 -0.03712363 -0.06799708
0.03247567 -0.061761968 0.2708949 0.32015583 0.138442 0.16178311 -0.13353208 -0.07477903
-0.10836387 0.05238149 -0.15006402 0.11322604 -0.050855875 -0.013785212 0.10057569 -0.018930348
0.18460019 0.13908935 -0.29871392 0.12814014 -0.1847849 -0.15421815 0.093606375 0.17904979
-0.08943217 -0.015951315 -0.00686262 -0.059444956 -0.07696381 0.2705823 0.08772542 0.4491561
-0.21534742 0.009933068 0.20830351 0.023406843 -0.072380796 -0.17173752 -0.056249715 -0.34652135
0.19424976 -0.29772234 -0.379761 0.12395737 -0.4227442 -0.022927972 -0.13019684 -0.13407826
-0.30903655 0.19138882 0.30569 -0.04308606 0.011772582 0.058034047 0.039549302 0.04444558
0.20113128 -0.10576427 -0.14228931 -0.13577564 -0.027031522 0.053639136 0.1882104 -0.31554517
-0.14742565 -0.23270229 0.23156345 0.17045762 0.27057147 -0.01830969 0.1281789 -0.03028455
0.11884367 -0.09848764 -0.056271266 -0.088080704 0.11603634 0.25580373 0.095557265 0.09577963
-0.32724336 -0.07628767 -0.0875057 0.055958837 -0.044908468 -0.17759351 -0.099281356 -0.0036058999
-0.2289312 -0.107929714 0.12641306 -0.07431226 0.22482206 -0.15501682 -0.010315273 0.18189286
0.049900528 0.16953525 -0.108641766 0.18115973 -0.15481693 0.3174858 0.04522093 -0.1561664
-0.2912042 -0.1523028 -0.097505584 0.025370749 -0.07729378 0.27547944 0.055734035 0.026266774
-0.08563826 -0.025703171 -0.042284332 0.20962237 -0.14979947 -0.050423555 0.35514483 -0.08911576
0.10549184 0.090499066 -0.048256837 0.27716187 -0.21932068 -0.28154778 -0.15740426 0.50527513
0.3100892 -0.3594635 0.17130339 0.12173247 0.12032176 0.020225355 0.026500322 -0.030837577
-0.053436287 -0.072942995 -0.17515579 0.13839635 0.13141924 -0.29221246 -0.003214788 -0.17796795
0.29606703 0.018176463 0.22347188 0.06583384 0.011433421 0.081018604 0.23640333 -0.1328292
-0.13687684 0.010435549 -0.015423117 -0.021573192 -0.20939496 0.14960939 -0.18199278 0.047906913
-0.040770974 -0.40065315 0.0549107 -0.1574965 0.11982921 -0.24939826 -0.34280524 -0.12429769
0.018752448 -0.1568389 0.06734324 0.029991727 -0.29095727 -0.2535406 -0.2588083 -0.023975901
-0.0019457475 0.32400772 -0.23724471 -0.0069477526 -0.16151968 -0.0796353 0.24579304 -0.0777037
-0.28448945 0.124744356 -0.10538767 -0.24464548 0.2539268 0.15856293 -0.034552746 0.052832227
0.12883809 -0.24347422 0.12074325 0.1876636 -0.049167313 0.2563194 -0.06473614 0.08702076
0.0051995493 -0.021516318 -0.19777802 0.008734974 -0.057109185 0.07539327 0.19388378 -0.08563996
0.16296951 0.16336967 -0.0133042475 -0.31632987 -0.03764431 0.10106812 0.25336426 -0.2999986
0.04181755 -0.014110594 0.14374274 0.03142256 0.42438745 -0.030077396 0.057938043 0.23540786
-0.20525116 -0.06747026 0.061540484 -0.22095813 0.13592602 0.093970306 -0.05364494 0.07391216
00000000: 6db9 7abe f11f de3c 4c3c 1bbb 86c4 b9bd
00000010: 3134 c43d a51d bb3d 3a3f 733d e675 d43d
00000020: 87df 36bd 09bb 91be 7855 8f3d c28e bb3e
00000030: da55 2bbe 3915 0bbe d94b 49be 2e6f d6bc
00000040: 95f5 13be 3b93 213d 2776 0ebe 7b6f a83e
00000050: 2898 3f3e 8153 393d f30e 18bd 0e42 8bbd
00000060: 3505 053d 1efa 7cbd bdb2 8a3e 77eb a33e
00000070: bdc3 0d3e 79aa 253e a2bc 08be c025 99bd
00000080: e0ed ddbd f98d 563d 62aa 19be 0ee3 e73d
00000090: 404e 50bd 5fdb 61bc a1fa cd3d d113 9bbc
000000a0: d507 3d3e 706d 0e3e 08f1 98be 2b37 033e
000000b0: 4138 3dbe 5deb 1dbe b3b4 bf3d d458 373e
000000c0: 3728 b7bd 55ac 82bc d4df e0bb 8e7c 73bd
000000d0: 349f 9dbd c389 8a3e 63a9 b33d caf7 e53e
000000e0: 0984 5cbe 4fbe 223c 844d 553e b5bf bf3c
000000f0: 623c 94bd f6db 2fbe 1a66 66bd 3f6b b1be
00000100: 69e9 463e 106f 98be 0970 c2be 5ddd fd3d
00000110: ee71 d8be 71d3 bbbc 5252 05be d04b 09be
00000120: 0a3a 9ebe 6efb 433e 6683 9c3e 027b 30bd
00000130: cae1 403c 1cb5 6d3d 73fe 213d 920c 363d
00000140: 5cf5 4d3e f09a d8bd 4ab4 11be c508 0bbe
00000150: 3671 ddbc b6b4 5b3d 3aba 403e 238f a1be
00000160: c0f6 16be 8249 6ebe f81e 6d3e 718c 2e3e
00000170: 5888 8a3e 34fe 95bc 5441 033e 4e17 f8bc
00000180: 4f64 f33d e3b3 c9bd b37c 66bd a863 b4bd
00000190: 76a4 ed3d b5f8 823e 87b3 c33d 1c28 c43d
000001a0: 718c a7be b63c 9cbd 3036 b3bd 1835 653d
000001b0: f1f1 37bd 13db 35be 0654 cbbd f650 6cbb
000001c0: f16c 6abe 410a ddbd 6d72 013e 0731 98bd
000001d0: c137 663e bbbc 1ebe 6401 29bc 1f42 3a3e
000001e0: 7f64 4c3d a69a 2d3e 937f debd f081 393e
000001f0: 5488 1ebe 808d a23e 9539 393d 16ea 1fbe
00000200: b818 95be 44f5 1bbe 02b1 c7bd 51d6 cf3c
00000210: 344c 9ebd a40b 8d3e 5f49 643d 6b2d d73c
00000220: 1d63 afbd 758f d2bc 5632 2dbd 3fa7 563e
00000230: 0865 19be ee88 4ebd 8bd5 b53e 5382 b6bd
00000240: 1b0c d83d 9357 b93d f6a8 45bd 29e8 8d3e
00000250: 9a95 60be 0827 90be 952e 21be b659 013f
00000260: 03c4 9e3e 9a0b b8be 286a 2f3e e04e f93d
00000270: 416b f63d a5af a53c 3417 d93c 169f fcbc
00000280: 02e0 5abd 2363 95bd 0a5c 33be c6b7 0d3e
00000290: c492 063e df9c 95be 31af 52bb 3b3d 36be
000002a0: 1996 973e cee6 943c d0d5 643e e4d3 863d
000002b0: 3e53 3b3c 15ed a53d b713 723e 6104 08be
000002c0: 7129 0cbe ddf9 2a3c 3eb1 7cbc 43ba b0bc
000002d0: a26b 56be 3433 193e 515c 3abe 0a3a 443d
000002e0: 77ff 26bd 6922 cdbe 0bea 603d c346 21be
000002f0: 0469 f53d 4262 7fbe 2b84 afbe ca8f febd
00000300: bc9e 993c 609a 20be 41eb 893d 36b1 f53c
00000310: 5af8 94be 13d0 81be 8682 84be 1c69 c4bc
00000320: 7408 ffba 57e4 a53e 47f0 72be f9a9 e3bb
00000330: 6a65 25be d517 a3bd 2cb1 7b3e 1e23 9fbd
00000340: 9aa8 91be f879 ff3d 7ed5 d7bd 5884 7abe
00000350: b202 823e 525e 223e 2e87 0dbd 9b66 583d
00000360: 22ee 033e 4e51 79be 3d48 f73d e32a 403e
00000370: aa63 49bd 4c3c 833e 6294 84bd f137 b23d
00000380: fb60 aa3b fd42 b0bc 5286 4abe 231d 0f3c
00000390: 52eb 69bd c967 9a3d 7889 463e 0164 afbd
000003a0: 7be1 263e 614a 273e 0ffa 59bc fdf5 a1be
000003b0: ec30 1abd cdfc ce3d f6b8 813e 6b99 99be
000003c0: e148 2b3d 1f30 67bc 4c31 133e f1b4 003d
000003d0: 5049 d93e df64 f6bc 7150 6d3d c20e 713e
000003e0: 5c2d 52be d92d 8abd e011 7c3d d942 62be
000003f0: 3130 0b3e 8173 c03d ccba 5bbd 425f 973d

actor.2.bias f4 [64]
-0.09221932 -0.12368748 0.040678162 -0.03143979 0.0113729695 -0.0030617598 0.0009844879 0.21037045
0.11162261 -0.023312852 -0.06712654 -0.03543812 0.004965193 -0.03353945 0.090282 -0.06769167
0.00066341966 0.039018527 -0.0028346644 0.065795794 0.035689525 -0.018997842 0.049576953 0.070055775
-0.008046591 0.016849961 -0.0067539737 -0.12464975 -0.0208865 -0.07767298 -0.055170145 0.016467169
0.08397142 0.09569295 0.056276217 0.013035561 -0.056833796 -0.08756243 -0.040764317 -0.04102121
-0.009237194 -0.013724536 -0.015530184 0.034254815 -0.018080713 0.041028127 0.059968658 0.10159448
-0.07747874 -0.035079915 -0.04581563 0.086704835 -0.0047669113 -0.011114289 0.035364125 0.023040175
-0.041705523 0.049074356 -0.08983975 -0.12817824 0.073364474 0.06132138 0.091281205 -0.0052753985
00000000: 7cdd bcbd dd4f fdbd 259e 263d 02c7 00bd
00000010: b155 3a3c cea7 48bb ef09 813a 5a6b 573e
00000020: 659a e43d 98fa bebc a479 89bd 9027 11bd
00000030: 0fb3 a23b aa60 09bd c5e5 b83d eea1 8abd
00000040: 57e9 2d3a e4d1 1f3d c7c5 39bb f2bf 863d
00000050: 2e2f 123d 5da1 9bbc 3411 4b3d 6779 8f3d
00000060: d9d5 03bc ee08 8a3c 7050 ddbb 5e48 ffbd
00000070: 2a1a abbc 0313 9fbd 17fa 61bd 28e6 863c
00000080: 35f9 ab3d aafa c33d e481 663d 1b93 553c
00000090: 8eca 68bd ee53 b3bd 7cf8 26bd db05 28bd
000000a0: 9a57 17bc e0dc 60bc 5072 7ebc c74e 0c3d
000000b0: 011e 94bc 1c0d 283d b2a1 753d c410 d03d
000000c0: 2cad 9ebd f5af 0fbd 2ca9 3bbd 4e92 b13d
000000d0: c033 9cbb b518 36bc f9d9 103d c0be bc3c
000000e0: 69d3 2abd 3102 493d e7fd b7bd 2841 03be
000000f0: 1d40 963d 212c 7b3d a4f1 ba3d 40dd acbb

actor.4.weight f4 [9, 64]
0.12302401 -0.018534811 0.006570832 -0.026016448 0.00896294 -0.020575035 0.022429703 0.25346076
-0.12130569 0.0634677 -0.08888258 -0.06080978 -0.0597734 -0.010660968 -0.017410485 -0.05724033
-0.15405393 -0.18337862 -0.03239499 0.0012246238 -0.00086609536 -0.08997868 0.09493268 -0.005966782
0.11439105 0.14817713 -0.012397699 0.15636416 -0.11463014 0.078441516 -0.1400013 0.034114536
0.18409425 -0.053217594 0.1090054 0.13714291 0.067141876 0.026615562 0.04637583 -0.15367
0.051854163 0.04143642 -0.10807005 -0.09333565 -0.07285335 -0.111433186 -0.18881075 -0.032651927
-0.03391633 0.02184599 -0.19731373 -0.18296912 0.08653664 0.0029209706 0.01902003 -0.037725817
-0.065895736 -0.12549701 0.09250918 -0.08359582 -0.067920364 -0.06486115 -0.14730965 0.03497553
-0.18600571 -0.15529263 0.08520837 0.23749606 0.35529366 0.22062692 0.3083191 0.3945508
0.12027695 -0.10330551 0.56866217 0.026506906 0.27812988 -0.059110392 -0.23237744 -0.46575847
-0.37745005 -0.04500581 0.29743472 0.083137 0.38829073 0.62362325 -0.38491672 0.16471611
-0.11160296 0.19477296 -0.3481167 -0.16075997 -0.21454 0.33923534 -0.41396368 -0.3396911
-0.45785493 -0.04025373 0.06633353 0.2693199 -0.2808807 0.41123176 0.30340287 -0.15166152
0.014367015 0.09502655 0.23823155 0.24797927 -0.012951043 0.6126504 0.12244007 -0.33272856
-0.35677102 -0.38274795 0.39276767 0.17710106 -0.54324514 -0.18019468 -0.1408422 0.4354135
-0.25125366 0.33692062 -0.06744457 0.5109118 0.2243239 0.4202477 0.015196959 -0.009332418
0.055829726 0.16883348 -0.0849289 -0.1949214 -0.3528158 -0.19494799 -0.3212893 -0.64283055
-0.0026132963 0.04302673 -0.44075736 0.03863185 -0.21556526 0.06686231 0.23914754 0.49827072
0.5379092 0.22243637 -0.2624129 -0.07556313 -0.37368187 -0.4951216 0.2640089 -0.14634153
-0.01222576 -0.33591583 0.3602355 -0.001962412 0.32271075 -0.40429875 0.5468073 0.26969436
0.25894597 0.09217929 -0.16698067 -0.4012555 0.19916093 -0.42120397 -0.3367437 0.30183536
-0.06831536 -0.12949659 -0.12190173 -0.14266787 0.09151375 -0.4758503 0.057328988 0.33614486
0.38510454 0.36429808 -0.17977346 0.013589953 0.4384095 0.16807204 0.108707584 -0.40207466
0.30844885 -0.20526499 -0.024960749 -0.4043381 -0.14502777 -0.34120703 0.12567349 -0.024022456
0.116891704 0.11427827 -0.08704199 0.03401805 0.007883479 0.02187487 0.013763973 0.0053455834
0.003901332 -0.015308527 0.12483784 -0.004478584 0.09583353 0.0120170675 -0.060343243 0.04959545
-0.075914994 -0.09298697 0.022385461 0.06677614 0.08450868 0.025084522 -0.062036056 0.113618836
0.02231023 -0.021041963 0.023458429 0.052011024 -0.086344 -0.02672135 0.074861646 -0.032563284
-0.11141594 0.08316883 -0.004121482 0.027672702 0.09330834 -0.11378392 -0.057631686 -0.030046076
-0.08632462 -0.02602145 0.07710195 0.06174169 0.10800529 0.03543193 -0.12890776 0.033852335
0.034435153 -0.08321582 -0.04766298 -0.026605142 0.04947792 0.0001275324 0.07411089 -0.0022297453
0.020627484 0.0748982 -0.0674255 -0.15924077 -0.00015741268 0.052673284 0.010411135 -0.04183356
00000000: 03f4 fb3d 51d6 97bc 2250 d73b 7220 d5bc
00000010: 4cd9 123c fa8c a8bc 7fbe b73c 9cc5 813e
00000020: 1e6f f8bd 5afb 813d 1208 b6bd ad13 79bd
00000030: f4d4 74bd 57ab 2ebc 6fa0 8ebc d674 6abd
00000040: 50c0 1dbe 9bc7 3bbe 9cb0 04bd 8e83 a03a
00000050: ad0a 63ba be46 b8bd 116c c23d ff84 c3bb
00000060: db45 ea3d bfbb 173e b81f 4bbc ed1d 203e
00000070: 35c3 eabd f2a5 a03d 805c 0fbe afbb 0b3d
00000080: 3483 3c3e b1fa 59bd 393e df3d 316f 0c3e
00000090: ae81 893d e108 da3c 95f4 3d3d ab5b 1dbe
000000a0: 0865 543d 3cb9 293d d553 ddbd c326 bfbd
000000b0: 2334 95bd 1537 e4bd 9b57 41be 07be 05bd
000000c0: daeb 0abd 5df6 b23c 9c0c 4abe 425c 3bbe
000000d0: 1f3a b13d c16d 3f3b e5cf 9b3c 6386 1abd
000000e0: 58f4 86bd 4a82 00be 7475 bd3d 4934 abbd
000000f0: d519 8bbd ecd5 84bd 57d8 16be 8042 0f3d
00000100: 4878 3ebe 0805 1fbe ba81 ae3d 2b32 733e
00000110: 0de9 b53e 06ec 613e 00dc 9d3e 9002 ca3e
00000120: c353 f63d d791 d3bd d893 113f 0325 d93c
00000130: 0a67 8e3e bd1d 72bd 5af4 6dbe e577 eebe
00000140: 2241 c1be 0358 38bd 5d49 983e bb43 aa3d
00000150: 0bce c63e c6a5 1f3f ce13 c5be 57ab 283e
00000160: 1890 e4bd 9072 473e 5a3c b2be 439e 24be
00000170: 60b0 5bbe 41b0 ad3e 0cf3 d3be feeb adbe
00000180: f66b eabe 18e1 24bd e0d9 873d 4ce4 893e
00000190: 98cf 8fbe f88c d23e 9f57 9b3e 284d 1bbe
000001a0: a163 6b3c 489d c23d f9f2 733e 47ee 7d3e
000001b0: 9d30 54bc a8d6 1c3f dcc1 fa3d 665b aabe
000001c0: b1aa b6be 8af7 c3be d818 c93e fb59 353e
000001d0: 1d12 0bbf f484 38be f038 10be 85ee de3e
000001e0: 52a4 80be dc80 ac3e 6120 8abd 1ecb 023f
000001f0: 2ab5 653e b52a d73e aafc 783c 00e7 18bc
00000200: b6ad 643d afe2 2c3e 34ef adbd 7a99 47be
00000210: 46a4 b4be 72a0 47be 0880 a4be 8b90 24bf
00000220: d643 2bbb cc3c 303d f3aa e1be 6e3c 1e3d
00000230: 24bd 5cbe 1bef 883d 18e3 743e 571d ff3e
00000240: 6bb4 093f 5cc6 633e fc5a 86be d8c0 9abd
00000250: 3b53 bfbe 9480 fdbe 2d2c 873e 8eda 15be
00000260: 8e4e 48bc 29fd abbe ca70 b83e cf9b 00bb
00000270: 583a a53e 3f00 cfbe 90fb 0b3f 6115 8a3e
00000280: 9194 843e 7fc8 bc3d fbfc 2abe 5c71 cdbe
00000290: d8f0 4b3e 0ca8 d7be ac69 acbe 2a8a 9a3e
000002a0: ece8 8bbd c19a 04be 9da7 f9bd 8717 12be
000002b0: 906b bb3d a7a2 f3be cdd1 6a3d 2e1b ac3e
000002c0: 6c2c c53e 4785 ba3e 8916 38be 65a8 5e3c
000002d0: 3677 e03e 141b 2c3e 15a2 de3d bbdc cdbe
000002e0: 02ed 9d3e fc30 52be 7c7a ccbc 6705 cfbe
000002f0: 2982 14be b0b2 aebe 8db0 003e beca c4bc
00000300: eb64 ef3d ba0a ea3d 1243 b2bd 8356 0b3d
00000310: b529 013c ed32 b33c 4982 613c 012a af3b
00000320: 7dad 7f3b 9ed0 7abc fbaa ff3d 16c1 92bb
00000330: 5f44 c43d 3ce3 443c 7a2a 77bd 9924 4b3d
00000340: 5279 9bbd f46f bebd b761 b73c eec1 883d
00000350: e312 ad3d 0e7e cd3c 8519 7ebd feb0 e83d
00000360: f2c3 b63c 3260 acbc e42b c03c 8309 553d
00000370: 20d5 b0bd bce6 dabc 1051 993d 1461 05bd
00000380: 0a2e e4bd 6b54 aa3d 7f0d 87bb ddb1 e23c
00000390: 7118 bf3d 8b07 e9bd 340f 6cbd 3023 f6bc
000003a0: f6ca b0bd f02a d5bc a1e7 9d3d dbe4 7c3d
000003b0: e131 dd3d 1221 113d 6500 04be bfa8 0a3d
000003c0: e00b 0d3d 0e6d aabd 423a 43bd 07f3 d9bc
000003d0: 5ca9 4a3d 38ba 0539 73c7 973d eb20 12bb
000003e0: f8fa a83c 3a64 993d 6116 8abd 0310 23be
000003f0: 250f 25b9 f1bf 573d 7793 2a3c ab59 2bbd

actor.4.bias f4 [9]
-0.22390491 0.11584379 0.11411781 -0.0025387397 -0.012809794 0.018796325 -0.019457174 -0.029610991
0.055066682
00000000: 5447 65be 823f ed3d 99b6 e93d fc60 26bb
00000010: 2ce0 51bc c0fa 993c a764 9fbc c092 f2bc
00000020: 9a8d 613d
