Plotting/saliencies_live/Multi_Pong/Sequence_Length_2/multi_pong_2__1__1721945456_checkpoint_2432.pt (torch, 89074 bytes, 11 tensors)

critic.0.weight f4 [128, 12]
0	0x3e576880	0.21035957
1	0x3baf398f	0.0053474377
2	0x3e9a515c	0.30140197
3	0x3c8bd070	0.017067164
4	0x3cd94f58	0.026527092
5	0x3e4f0395	0.2021621
6	0xbff01eaa	-1.8759358
7	0x401610aa	2.344767
8	0x3c620749	0.013795682
9	0x3e233b86	0.15940675
10	0xbed660f5	-0.41870847
11	0x4003fe36	2.0623908
12	0x3c9c86c6	0.019107234
13	0xbbdc928b	-0.0067313365
14	0xbdaa004a	-0.083008364
15	0x3b652a4b	0.0034967836
16	0xbd56d54c	-0.05244951
17	0xbbae954e	-0.005327857
18	0xbf519d94	-0.8188107
19	0x3deaab86	0.11458497
20	0xbda3c455	-0.07996432
21	0x3e211880	0.15732002
22	0xc0132461	-2.2990954
23	0x405fb06f	3.4951437
24	0x3bc30b19	0.0059522507
25	0x3edcdfb8	0.43139434
26	0xbe625f9b	-0.22106783
27	0xbeb88ec3	-0.3604642
28	0x3d44d11e	0.048050992
29	0xbc9f1bf4	-0.019422509
30	0x3da7a76d	0.08186231
31	0x3cd7489b	0.026279738
32	0x3cd25e1a	0.025679637
33	0xbcb7ff65	-0.022460649
34	0x3e4f4ace	0.2024338
35	0x3d2005f6	0.039068185
36	0x3f15db5b	0.58537835
37	0xbe901a76	-0.28145188
38	0x3f26fac7	0.65226406
39	0xbe399546	-0.1812335
40	0x3ce6d7d8	0.028179094
41	0xb89ae731	-7.386355e-05
42	0xbdc3d860	-0.09562755
43	0xbd5586b8	-0.05213043
44	0xbf85e102	-1.0459292
45	0x3ee5a824	0.44854844
46	0xbfdfb986	-1.7478492
47	0x3ed790e4	0.4210273
48	0xbde784c6	-0.113046214
49	0xbb68d734	-0.0035528662
50	0xbc9496c7	-0.018138302
51	0x3ad67489	0.0016361634
52	0x3cfd5a4a	0.030926842
53	0xbb02fcec	-0.001998718
54	0x3e60f127	0.21966992
55	0x3c982413	0.018571889
56	0x3d13bfe7	0.036071684
57	0x3db54f6b	0.088530384
58	0x3fa1e416	1.2647731
59	0x40066d1d	2.1004097
60	0xbd94bcfd	-0.07262609
61	0xbca6b49d	-0.020349795
62	0xbe3b8e15	-0.18315919
63	0xbd311499	-0.043232534
64	0xbeb7b82a	-0.35882694
65	0xbec5004f	-0.38476798
66	0xc01f20f3	-2.486386
67	0xc05f5a02	-3.4898686
68	0x3cc75ef0	0.024337262
69	0x3a8d655a	0.0010787651
70	0xbe5b89c0	-0.21439266
71	0xbda5ca22	-0.080951944
72	0x3e3d8ece	0.18511507
73	0xbc159f6a	-0.009132246
74	0xbda23bab	-0.07921537
75	0xba26a4db	-0.0006356963
76	0x3e0acb9f	0.13554238
77	0xbe0e5c76	-0.13902459
78	0x406224eb	3.5335033
79	0xc066e2f0	-3.6076012
80	0xbc392696	-0.0113007035
81	0x3c72f198	0.014828108
82	0xbe3a1962	-0.18173745
83	0x3b96dbfa	0.00460386
84	0xbd082cf7	-0.033246007
85	0x3b6ad350	0.0035831518
86	0xbcee7052	-0.029106293
87	0x3a3bcd01	0.0007164032
88	0xbb86ef53	-0.004117885
89	0x3c184fbb	0.009296353
90	0xbdac88fe	-0.08424567
91	0x3d5d3755	0.054007847
92	0xbd6e4180	-0.058167934
93	0x3d8f5e84	0.07000449
94	0xbffd213b	-1.9775766
95	0x4086820c	4.203375
96	0xbeb9d18e	-0.3629269
97	0xbc83fa99	-0.016110705
98	0xbe2b3016	-0.16717562
99	0x3bbc9a8e	0.005755729
100	0xbe097ae6	-0.13425788
101	0xbc3dfd2a	-0.011596004
102	0xc05ad76f	-3.419399
103	0x3d945739	0.07243199
104	0xbdec5c55	-0.115410484
105	0x3bada214	0.0052988622
106	0x3f259170	0.64675045
107	0x3cfdf71c	0.03100162
108	0xbe7e4bc6	-0.24833593
109	0xbe9c16b2	-0.30486065
110	0xbee012ac	-0.43764246
111	0x3d9ab8d0	0.075547814
112	0x3cd5b187	0.026085628
113	0xbc7cd5b4	-0.01543181
114	0xbecda699	-0.40166166
115	0x3e369319	0.17829551
116	0x3ebb029d	0.3652543
117	0x3e3b370a	0.18282714
118	0x4004ec5b	2.076926
119	0x3fb0a893	1.3801445
120	0x3ddb7ef5	0.107175745
121	0xbadf69a2	-0.0017045031
122	0x3e42c308	0.19019711
123	0x3ab72663	0.0013973232
124	0x3b61f1d1	0.003447641
125	0x3c155d19	0.0091164345
126	0x3d39ac44	0.0453303
127	0x3d590e54	0.05299218
128	0x3ca6098d	0.020268226
129	0xbc929109	-0.017891424
130	0x402cb371	2.6984522
131	0xbf65c51e	-0.897539
132	0xbe70638c	-0.23475474
133	0x3c1508b4	0.009096313
134	0x3d5f75d7	0.05455574
135	0x3b9f8f0f	0.004869349
136	0xbc66105a	-0.014041984
137	0xbc84e4b6	-0.01622234
138	0xbfd8d4c2	-1.6939929
139	0xbfc3b45f	-1.528942
140	0xbd00b70d	-0.03142457
141	0x3c232f05	0.009959941
142	0xbfd1845b	-1.6368517
143	0x3f1f6b9d	0.6227358
144	0x3e36978f	0.17831253
145	0x3a88f217	0.0010448125
146	0x3c998584	0.018740423
147	0xbbb0a872	-0.005391174
148	0x3d843c77	0.06456845
149	0x3c74a3ce	0.014931632
150	0x3f81807f	1.0117339
151	0x3efeb5bf	0.49748036
152	0xbdcfd81c	-0.101486415
153	0xbce892fc	-0.0283904
154	0xbfb0c7a4	-1.3810925
155	0xbfcf991d	-1.6218601
156	0x3ccdb9fb	0.025113096
157	0xbc4ed499	-0.012623929
158	0x3d70858e	0.058721118
159	0x3c0b20ef	0.008491739
160	0x3d14d83c	0.03633903
161	0x3c5159f4	0.012777794
162	0x3ee67bb1	0.45016244
163	0x3e7a4738	0.2444123
164	0x3e046990	0.12930894
165	0xbb151175	-0.0022746
166	0x40386947	2.8814256
167	0xbbf6e5d5	-0.0075347223
168	0x3dca43b2	0.09876193
169	0xbc4335d3	-0.011914688
170	0x3c1317b1	0.008977816
171	0x3ca6eb2c	0.02037581
172	0xbd1e6e0a	-0.03867916
173	0x3e5b9542	0.21443656
174	0x3e262457	0.162248
175	0x40793fef	3.8945272
176	0xbce4f0ca	-0.027946848
177	0xbe4afefe	-0.19823834
178	0xbec040bc	-0.37549388
179	0xc0698446	-3.6486983
180	0x3e812a5b	0.25227627
181	0xbdee0248	-0.11621529
182	0x3e95ecb8	0.29282165
183	0xbdc9a0ac	-0.09845099
184	0x3d349118	0.044083685
185	0x3d458517	0.048222627
186	0xbf18a367	-0.5962433
187	0x3f54a2a5	0.83060676
188	0xbde9a976	-0.11409275
189	0x3dacccd1	0.08437503
190	0xbfbf7f0c	-1.4960647
191	0xbf84096f	-1.0315379
192	0x3eb1b15d	0.3470563
193	0xbbb4f3fb	-0.005522249
194	0x3d1f5272	0.038896985
195	0x3be4fd96	0.0069882376
196	0x3de9d18c	0.11416921
197	0xbdb61491	-0.088906415
198	0x3f665e8d	0.89988023
199	0xc01a19a8	-2.407816
200	0x3cb9bead	0.02267393
201	0x3db63b24	0.08897999
202	0xbdc14e1b	-0.094387256
203	0x3f8fcabb	1.1233743
204	0x3d126ba0	0.03574717
205	0xbb3f152c	-0.0029156907
206	0xbd811356	-0.06302516
207	0xbc10a344	-0.008827988
208	0xbcf7fe6f	-0.03027269
209	0x3dd4b665	0.103863515
210	0xbed66065	-0.41870418
211	0x3dfda626	0.12385206
212	0xbd5257a5	-0.051353116
213	0xbe192669	-0.14956059
214	0xbff90053	-1.9453224
215	0xbef73209	-0.4828036
216	0x3d6e71a6	0.058213852
217	0x3c05bc49	0.008162566
218	0x3d575154	0.052567795
219	0x3c69ea0b	0.014276992
220	0xbbcacc7a	-0.0061889263
221	0xbec440a6	-0.38330573
222	0x3d1ba654	0.03800042
223	0xc02c6c65	-2.6941159
224	0x3c84acc7	0.016195668
225	0x3ec1dd5b	0.37864193
226	0x3d7c06e7	0.06153002
227	0x4032debd	2.7948449
228	0x3db6457e	0.08899973
229	0x3a7b3214	0.00095823524
230	0xbdd04426	-0.10169248
231	0x3a29d9b0	0.00064792763
232	0xbbc2da41	-0.005946428
233	0xbb290539	-0.0025790466
234	0xbcf997fa	-0.030467976
235	0xbdcac0a3	-0.09900024
236	0x3d926681	0.07148457
237	0xbd40dad9	-0.04708371
238	0x4088559a	4.2604494
239	0xc076cbbc	-3.856185
240	0xbe91d3d1	-0.28481916
241	0xbc39ac16	-0.011332532
242	0x3e176722	0.14785436
243	0xbc097d64	-0.008391712
244	0xbe2fa2e3	-0.1715198
245	0x3bcd8da6	0.0062729893
246	0xbeddf29a	-0.43349153
247	0xbe5b3af2	-0.21409205
248	0x3e47c166	0.1950737
249	0x3ca6ab39	0.020345317
250	0x408b4091	4.3516316
251	0xbdb4614a	-0.08807619
252	0xbd510114	-0.05102642
253	0x3c20a668	0.009805299
254	0xbe3a6499	-0.18202437
255	0x3be8302f	0.007085822

critic.0.bias f4 [128]
0	0x3d976a94	0.07393375
1	0x3d4aa2aa	0.049471535
2	0xbc0b6fc9	-0.008510538
3	0x3f06ea4e	0.5270127
4	0xbda0da11	-0.07854093
5	0xbdf00c86	-0.11721139
6	0x3dfa15ed	0.12211213
7	0xbd6589b3	-0.056039523
8	0xbdb9b2b5	-0.09067289
9	0xbe9b3fcd	-0.30322114
10	0xbd31bf7a	-0.043395497
11	0xbd035def	-0.032072004
12	0x3cdae2fb	0.02671956
13	0x3c74f910	0.014951959
14	0x3c029866	0.007970905
15	0x3e8f78cc	0.28021848
16	0x3dcb595f	0.099291556
17	0x3c8e64f6	0.017382126
18	0xbd7763e4	-0.060397997
19	0xbc1b0345	-0.009461229
20	0x3bf09e09	0.007343058
21	0x3c211cc9	0.009833523
22	0x3b49ad1b	0.0030773345
23	0xbe74c64a	-0.23903766
24	0xbf3db575	-0.74105006
25	0x3dd710ce	0.10501252
26	0xbd7dcb6f	-0.061961588
27	0x3f80dee0	1.0068016
28	0x3da56018	0.08074969
29	0x3e13519f	0.14386605
30	0x3eeb9532	0.46012264
31	0x3cb7ebc8	0.022451296
32	0xbacd2036	-0.0015649858
33	0x3c9d836e	0.01922771
34	0xbc1073aa	-0.008816639
35	0xbc577fd5	-0.013153036
36	0xbdbf79e9	-0.093494244
37	0xbdba3d7a	-0.09093757
38	0xbde0661f	-0.10956978
39	0xbe7c8c82	-0.24662974
40	0x3d61efc4	0.0551603
41	0xbd34f9e4	-0.044183627
42	0x3d77551f	0.060383912
43	0xbc0697fd	-0.008214948
44	0xbe02e0fa	-0.12781134
45	0xbd92a444	-0.071602374
46	0x3eac7b9d	0.3368806
47	0xbcdd29ac	-0.02699741
48	0xbcc269b9	-0.023732053
49	0xbb183027	-0.002322206
50	0x3bef38a7	0.0073004547
51	0x3dbe5b0f	0.09294712
52	0xbdc1e726	-0.09467916
53	0x3dbc0d26	0.09182195
54	0xbb7b73c6	-0.0038368567
55	0xbd69efd6	-0.05711349
56	0x3dae1b8c	0.08501348
57	0x3d25599f	0.040368672
58	0x3b6a89ed	0.0035787777
59	0x3c1b6e32	0.009486722
60	0xbdc529c2	-0.09627105
61	0xbcfe6a06	-0.031056415
62	0xbd804181	-0.06262494
63	0xbde5de2c	-0.112240165
64	0xbc544c08	-0.01295758
65	0x3e41006b	0.18847816
66	0x3db0031c	0.08594343
67	0xbb94527c	-0.0045264345
68	0xbc65fae6	-0.01403687
69	0xbeae398e	-0.34028286
70	0xbcdedc62	-0.027204696
71	0x3ce2facb	0.027707478
72	0x3ae8bdf8	0.001775681
73	0xbd56575d	-0.05232941
74	0xbd0ee0b8	-0.034882277
75	0xbd2514f0	-0.04030317
76	0xbd49d3a1	-0.04927409
77	0x3cb61e32	0.022231195
78	0x3e27b591	0.16377856
79	0xbd4c4c1f	-0.049877282
80	0xbce097c2	-0.027416114
81	0xbda2d89d	-0.07951472
82	0x3dd1c974	0.10243502
83	0xbbe0b16a	-0.006857087
84	0x3de60504	0.112314254
85	0x3d792ce9	0.060833845
86	0xbe815ebe	-0.25267595
87	0xbd85c049	-0.06530816
88	0xbe7c30bb	-0.24627964
89	0xbd874518	-0.066049755
90	0xbcc9dab0	-0.024640411
91	0xbd085102	-0.03328038
92	0xbd02df3f	-0.031951185
93	0x3d084db9	0.033277247
94	0x3da0e8bf	0.07856893
95	0xbd4113ff	-0.04713821
96	0xbcfbe58d	-0.030749107
97	0x3f31a5b6	0.6939348
98	0x3d8de53e	0.0692849
99	0xbd36afcc	-0.044601247
100	0xbd384627	-0.044988777
101	0x3cf5eb83	0.030019527
102	0xbe30f120	-0.17279482
103	0xbd7ec2fb	-0.062197667
104	0xbf022827	-0.5084252
105	0xbd30a2d8	-0.04312405
106	0xbbb4d833	-0.005518937
107	0xbdf1e024	-0.118103296
108	0x3c699426	0.014256513
109	0xbcbd29e3	-0.023091262
110	0x3e867df8	0.26267982
111	0xbd79ed4b	-0.061017316
112	0xba5bf8bc	-0.00083912513
113	0x3b80e8d8	0.003934007
114	0xbe86c277	-0.2632024
115	0x3da3b245	0.079929866
116	0x3ed57fee	0.41699165
117	0x3da4948f	0.08036148
118	0x3ceb808d	0.028747821
119	0x3db77feb	0.08959945
120	0x3d9d141d	0.07669852
121	0xbe8b0594	-0.27152693
122	0xbdedf7ac	-0.11619505
123	0xbda6dac6	-0.081471965
124	0x3d545695	0.051840384
125	0x3d2b2057	0.04177889
126	0xbe1ccf16	-0.15313372
127	0x3e154801	0.14578249

critic.2.weight f4 [64, 128]
0	0x3cabbcf0	0.020964116
1	0x3dd34e1d	0.10317633
2	0x3e022b8f	0.12711929
3	0x3dceb333	0.10092773
4	0xbf2c73d9	-0.6736427
5	0xbd66f62a	-0.056387104
6	0x3e908b4c	0.28231275
7	0x3e5ddd11	0.21666361
8	0x3e7fecd0	0.2499268
9	0xbc026536	-0.007958701
10	0xbdd2bd1f	-0.10289978
11	0x3e884fa5	0.26623264
12	0xbe5b6b1e	-0.2142758
13	0x3e549739	0.20760812
14	0xbdcc9bb4	-0.099906355
15	0x3e4cf95b	0.20016997
16	0x3e3e0360	0.18555975
17	0x3e57c586	0.21071443
18	0x3dfb8cc6	0.1228271
19	0xbf8cf7a2	-1.1013072
20	0x3df72799	0.120680995
21	0x3cde5055	0.027137915
22	0xbed0cdeb	-0.40782103
23	0x3d0727b2	0.03299684
24	0xbe134a70	-0.14383864
25	0x3f12bc0d	0.5731819
26	0xbe6b385e	-0.22970721
27	0xbd38dca1	-0.045132283
28	0x3e8354aa	0.2565053
29	0xbcb4b8ed	-0.022060836
30	0x3da89f7a	0.08233543
31	0xbd17ec73	-0.03709073
32	0xbe072d21	-0.13200809
33	0x3e2f646a	0.17128149
34	0x3efa8ed8	0.48937106
35	0xbd5b3403	-0.0535164
36	0xbedc4278	-0.43019462
37	0x3dc271ad	0.09494338
38	0xbeb6e909	-0.35724667
39	0xbd35c81e	-0.0443803
40	0x3d2163d4	0.039401844
41	0xbe227758	-0.15865839
42	0x3f186c52	0.59540284
43	0xbc5e7471	-0.0135775665
44	0x3de8eb03	0.1137295
45	0x3e9f48ec	0.31110322
46	0xbe2494c4	-0.16072375
47	0xbb88a247	-0.0041697356
48	0x3d2af785	0.04173996
49	0xbc4dd3bc	-0.012562688
50	0x3e14b145	0.14520748
51	0xbcf2ea74	-0.029652812
52	0x3df8b736	0.1214432
53	0x3dfee32e	0.12445675
54	0x3e13e376	0.14442238
55	0xbe076d59	-0.13225307
56	0xbd284293	-0.041079115
57	0x3dc8539b	0.097815715
58	0xbe0d233f	-0.13782977
59	0xbe7b8a66	-0.24564514
60	0xbdc89a1a	-0.097950175
61	0xbea5ed31	-0.32407525
62	0x3dc257a9	0.09489376
63	0xbcd0b6c4	-0.025477774
64	0x3c85afe7	0.016319228
65	0xbda36d22	-0.079798
66	0xbf28f34a	-0.6599623
67	0xbcd7f7ed	-0.026363337
68	0xbe93b337	-0.28847668
69	0x3e5e5154	0.21710712
70	0xbe338fe1	-0.17535354
71	0xbd1d1502	-0.038350113
72	0xbfd15493	-1.6353935
73	0x3ebbd28e	0.36684078
74	0x3caba11c	0.020950846
75	0x3dcbbf5d	0.09948609
76	0xbf1bb6c8	-0.6082578
77	0x3de78840	0.113052845
78	0xbc752ef2	-0.014964806
79	0x3e1d4ed4	0.15362102
80	0x3cbe12d8	0.023202345
81	0xbe599ab1	-0.21250416
82	0x3e46f1d8	0.19428194
83	0x3ca72c23	0.020406788
84	0x3b80e943	0.003934057
85	0x3d425159	0.04744086
86	0xbcee6040	-0.02909863
87	0xbe581ffc	-0.21105951
88	0xbe06b93f	-0.13156603
89	0xbe086d4f	-0.13322948
90	0x3e73483e	0.23758027
91	0x3d9b2380	0.075751305
92	0xbea67451	-0.32510617
93	0xbef5cb57	-0.48006698
94	0xbd7e90c8	-0.062149793
95	0x3e01e2b7	0.12684141
96	0xbef5e462	-0.48025805
97	0x3efe617e	0.49683756
98	0x3e9f45b0	0.31107855
99	0x3e07416c	0.1320855
100	0xbdf52f41	-0.119719036
101	0x3e20d737	0.15707098
102	0xbea5c846	-0.3237936
103	0x3e9bf71e	0.30461973
104	0xbea9812e	-0.3310637
105	0xbe58a4a6	-0.21156558
106	0xbe8843fb	-0.26614365
107	0xbeb58a44	-0.3545705
108	0xbd26c96a	-0.040719427
109	0xbbee60ab	-0.0072747073
110	0xbdfcbb69	-0.12340433
111	0xbec16cc8	-0.37778306
112	0xbf4afa86	-0.7928852
113	0xbcfeabb6	-0.031087738
114	0x3e39084e	0.18069574
115	0xbf499da7	-0.78756183
116	0x3ea51c2c	0.32248056
117	0xbb3a7a2c	-0.0028454168
118	0xbdfeaf3e	-0.124357685
119	0xbd4ad2ab	-0.049517315
120	0xbd818f8b	-0.06326207
121	0xbe24980f	-0.16073631
122	0x3d4dc488	0.050236255
123	0xbdc15603	-0.094402336
124	0xbe8ad73d	-0.2711734
125	0xbf05f5b9	-0.5232807
126	0x3d7b540c	0.06135945
127	0x3d64af55	0.055831272
128	0xbd2bdc5c	-0.041958198
129	0xbea75da2	-0.32688624
130	0x3db23d0b	0.08703049
131	0x3f75d34e	0.9602555
132	0x3fb4304c	1.4077239
133	0x3d186ea2	0.037214883
134	0xbc88b564	-0.016688056
135	0x3e518a20	0.20462847
136	0x3cccd134	0.0250021
137	0x3e164321	0.14674045
138	0xbdc84187	-0.09778123
139	0x3ecd502d	0.40100232
140	0xbe826561	-0.2546797
141	0x3f0c57e4	0.5482161
142	0xbeea99cb	-0.4582046
143	0xbea0da46	-0.3141653
144	0x3e98b279	0.29823664
145	0xbcceda3b	-0.025250545
146	0xbdde0c54	-0.10842195
147	0x3fb1b587	1.3883523
148	0xbe472e1a	-0.1945118
149	0xbd34e246	-0.044161104
150	0x3f833830	1.0251522
151	0xbdb60583	-0.0888777
152	0xbe5ed77a	-0.21761885
153	0x3f46aa6d	0.776038
154	0xbd943512	-0.07236685
155	0xbf180795	-0.5938657
156	0x3e9b5aff	0.30342862
157	0xbe6f95c9	-0.23396982
158	0x3df8ef17	0.12154978
159	0xbee679de	-0.45014852
160	0x3efb488f	0.49078795
161	0xbdb34841	-0.08754016
162	0x3e038f8a	0.12847725
163	0x3e9cfd21	0.30661872
164	0xbf6456f6	-0.8919519
165	0xbebcd73f	-0.3688297
166	0x3f169e05	0.5883487
167	0xbe3b7961	-0.18308021
168	0x3c9d7265	0.019219587
169	0x3d98541f	0.0743792
170	0xbf814c9c	-1.0101504
171	0x3e4727a5	0.19448717
172	0x3e231cd4	0.15928966
173	0xbe6b7cc1	-0.22996809
174	0xbe3b9605	-0.18318947
175	0xbd792bd9	-0.060832832
176	0x3dafd5c8	0.085856974
177	0xbe563154	-0.20917255
178	0xbdcdfb96	-0.10057752
179	0x3d0c9cc7	0.034329202
180	0x3e895fab	0.268308
181	0xbf3a5116	-0.7277998
182	0x3e6e9ed6	0.23302779
183	0xbe27e777	-0.1639689
184	0xbd6a214d	-0.057160664
185	0xbee0b48d	-0.4388775
186	0x3e87e280	0.26539993
187	0x3e714914	0.23563033
188	0x3c8809fd	0.016606325
189	0xbb1a277b	-0.0023522067
190	0xbe669a86	-0.22519884
191	0xbec6d76a	-0.38836223
192	0x3dda726f	0.10666358
193	0x3c5c7571	0.013455735
194	0x3d12b174	0.035813764
195	0x3d5f520a	0.054521598
196	0xbf396842	-0.7242471
197	0xbe82e914	-0.2556845
198	0xbc8c3e2e	-0.017119493
199	0x3e1c9f40	0.15295124
200	0x3e5bd3c6	0.21467504
201	0x3e16fcda	0.14744893
202	0xbca6ab6f	-0.020345418
203	0x3db9ff8c	0.09081945
204	0x3fc51eb2	1.5399992
205	0x3e6b0dd7	0.22954498
206	0xbd55493b	-0.05207179
207	0xbdc6a3ea	-0.09699233
208	0xbe055f8a	-0.13024727
209	0xbe967082	-0.29382712
210	0xbf0b5674	-0.5442879
211	0xbe3aec5f	-0.18254231
212	0x3d4d60f8	0.050141305
213	0x3ec1507e	0.37756723
214	0x3ea187e8	0.31549
215	0xbe8d138a	-0.2755397
216	0xbde0329e	-0.109471545
217	0xbd17fbb7	-0.03710529
218	0xbfb6327f	-1.423416
219	0xbf5cebf5	-0.8629754
220	0x3e9b2187	0.30299017
221	0xbf1d94fb	-0.6155545
222	0xbf164739	-0.5870243
223	0xbeeee9b3	-0.46662673
224	0xbe5f8cbe	-0.21831033
225	0x3f7ad856	0.9798635
226	0xbfd84bd3	-1.689814
227	0x3d2a9c02	0.041652687
228	0x3bfd1d38	0.0077244304
229	0x3cbbaccd	0.022909546
230	0x3e881b60	0.26583385
231	0xbeb63c23	-0.35592756
232	0xbd815307	-0.06314664
233	0x3f3ec9d2	0.74526703
234	0xbecab8a4	-0.39593995
235	0xbfa13850	-1.259531
236	0xbddfcb21	-0.10927416
237	0xbe108829	-0.14114441
238	0x3e0386cf	0.12844394
239	0x3f65f4c7	0.89826626
240	0x3dbd2e16	0.09237306
241	0x3f810177	1.0078572
242	0x3d64a204	0.055818573
243	0xbd1a19a8	-0.037622124
244	0xbebcf850	-0.36908197
245	0xbef956bf	-0.48698995
246	0x3f42ab00	0.76042175
247	0xbc6fd916	-0.01463916
248	0xbccf3dc3	-0.025298005
249	0x3e0be087	0.13659869
250	0xbe006216	-0.12537417
251	0xbee61ea5	-0.44945255
252	0x3fa726ee	1.3058755
253	0xbb13b8e8	-0.0022540633
254	0xbc0a46bb	-0.008439715
255	0xbce41f05	-0.027846823

critic.2.bias f4 [64]
0	0x3e8fb788	0.2806971
1	0x3e89588f	0.26825377
2	0xbddb384d	-0.10704098
3	0x3e3a976f	0.1822183
4	0x3d859c2a	0.065239266
5	0x3e37ca02	0.17948154
6	0xbe06ede1	-0.13176681
7	0x3dfe9b90	0.12432015
8	0x3eae8b97	0.34090874
9	0xbbac7658	-0.005263131
10	0x3f5885a8	0.84578943
11	0x3d7cc032	0.06170673
12	0x3ec7f529	0.3905423
13	0x3eb2738a	0.34853774
14	0x3e8681a0	0.2627077
15	0xbd58bf15	-0.052916605
16	0xbe8c0451	-0.27347043
17	0x3ca74ef2	0.020423386
18	0xbe737a3d	-0.23777099
19	0xbed9dfab	-0.42553458
20	0xbbc2760c	-0.0059344824
21	0x3e8f2488	0.2795756
22	0x3f22847f	0.63483423
23	0xbe14e51c	-0.14540523
24	0x3dd658f9	0.10466189
25	0xbed7f3c5	-0.4217817
26	0xbdf18012	-0.117920056
27	0xbe4598fb	-0.19296639
28	0xbe5fd9c8	-0.2186042
29	0x3d92750c	0.07151231
30	0x3e0efcf1	0.13963677
31	0xbd05629f	-0.032564756
32	0x3e883293	0.26601085
33	0x3e280c60	0.1641097
34	0x3e8d5169	0.27601174
35	0xbe391a05	-0.18076332
36	0x3edf78d5	0.43646875
37	0xbdcdb7d2	-0.100448266
38	0x3dfd626e	0.123722896
39	0xbf306468	-0.6890321
40	0xbeab7927	-0.3349087
41	0xbec0279f	-0.37530228
42	0x3e8f39c9	0.27973774
43	0xbe8a6be5	-0.27035442
44	0x3e89d5f9	0.2692106
45	0xbebbd0fe	-0.36682886
46	0xbe8e3fcd	-0.2778305
47	0xbe5ff0f0	-0.21869254
48	0xbf6f71ee	-0.9353322
49	0xbc21c47e	-0.009873508
50	0xbd1a115e	-0.03761422
51	0x3f5f755d	0.8728846
52	0x3e54cc61	0.2078109
53	0x3e26f427	0.16304074
54	0x3d2b3b3a	0.04180453
55	0xbe92b333	-0.28652343
56	0xbf0f681a	-0.5601822
57	0xbf81acaf	-1.0130824
58	0xbdd4de01	-0.103939064
59	0xbe573dd9	-0.21019687
60	0x3e9c972c	0.30584085
61	0x3f1a8d5d	0.60371953
62	0x39b78649	0.0003500453
63	0xbe31efaa	-0.17376581

critic.4.weight f4 [1, 64]
0	0x3e3f387c	0.18673891
1	0x3e0e4863	0.13894801
2	0x3f214aee	0.6300496
3	0xbf1fd686	-0.6243671
4	0x3eefc4eb	0.46829924
5	0x3de46ed1	0.11153949
6	0xbea70667	-0.32622072
7	0xbe5066cb	-0.20351712
8	0x3e7795c2	0.24178222
9	0xbf005bbf	-0.50139993
10	0x3f2dcec5	0.6789363
11	0x3ecaffca	0.39648277
12	0x3e44a570	0.19203734
13	0xbe34a2e4	-0.17640263
14	0x3e710f6f	0.23541044
15	0x3e8eb4a3	0.2787219
16	0xbe8950ab	-0.26819357
17	0xbe90f9d8	-0.28315616
18	0xbe9497d9	-0.290221
19	0xbe8ec017	-0.27880928
20	0x3e9e1bde	0.30880636
21	0x3e7d18c6	0.24716482
22	0x3e65dc7d	0.22447391
23	0xbe3312a0	-0.17487574
24	0x3e2a89a1	0.16654064
25	0xbe684cfa	-0.22685614
26	0x3e5739b0	0.210181
27	0xbe37074d	-0.17873879
28	0xbea0fbd9	-0.31442145
29	0x3ec56482	0.38553244
30	0x3eb7ea31	0.3592086
31	0xbe068fe1	-0.13140823
32	0x3e0d09b2	0.1377323
33	0x3e6c6e7c	0.23089021
34	0x3e8ce4c9	0.275183
35	0xbe0f53cb	-0.13996808
36	0x3f297ab1	0.6620284
37	0xbeb7ce07	-0.35899374
38	0x3ea2a86f	0.3176913
39	0xbff1ad7d	-1.888107
40	0xbe04fb65	-0.12986524
41	0xbe20be3c	-0.15697569
42	0xbe692b65	-0.2277046
43	0xbe7b4806	-0.24539194
44	0xbe5e5b12	-0.21714428
45	0xbe5748ff	-0.2102394
46	0xbe9f6cc8	-0.3113768
47	0xbf8cbd32	-1.0995238
48	0xbef9c073	-0.4877964
49	0xbea70f2b	-0.3262876
50	0x3f007bcc	0.501889
51	0x3f3df1fb	0.7419736
52	0x3eb27dbe	0.3486156
53	0x3e3c5e23	0.18395285
54	0x3eb8419c	0.35987556
55	0xbe4462e5	-0.1917835
56	0xbfc736f1	-1.5563642
57	0xbf17fae7	-0.5936722
58	0xbfb2c5d5	-1.3966624
59	0xbe35c2c9	-0.17750086
60	0x3e39c6e5	0.18142278
61	0x40038782	2.0551457
62	0x3e212502	0.15736774
63	0xbf275f03	-0.6537935

actor.0.weight f4 [128, 16]
0	0x3ca904f5	0.020632247
1	0xbf070366	-0.5273956
2	0x3ec80928	0.39069486
3	0x3ef3650f	0.4753804
4	0xbf440460	-0.76569176
5	0x3fbded69	1.4838077
6	0xbe186dae	-0.1488559
7	0xbc9cf888	-0.019161478
8	0xbf76cc28	-0.9640527
9	0xbf272763	-0.65294474
10	0x3e921e5d	0.2853879
11	0xbddb4b67	-0.10707741
12	0xbe4f3178	-0.20233715
13	0x3d1eceb8	0.03877136
14	0xbe7fdf8b	-0.24987619
15	0xbd35fa53	-0.04442818
16	0x3e93e8a9	0.28888443
17	0xbcf161b6	-0.029465538
18	0x3bf89f99	0.007587385
19	0x3ae99b97	0.0017822859
20	0x3dbe30bb	0.09286638
21	0xbf934169	-1.1504337
22	0xbbacb644	-0.005270751
23	0x3dc6fef8	0.097166
24	0xbf8bc1bd	-1.0918499
25	0x3fcd3236	1.6030948
26	0x3f238ec0	0.63889694
27	0x3ed837e9	0.42230156
28	0xbf365de0	-0.7123699
29	0xbe237ff2	-0.15966776
30	0x3db77ef3	0.089597605
31	0x3e8ac902	0.27106482
32	0x3e956ccc	0.29184568
33	0xbea4113f	-0.32044408
34	0x3d694693	0.05695207
35	0x3d81f659	0.06345815
36	0x3efc042e	0.4922194
37	0x3fc9fa87	1.577958
38	0xbdbeafea	-0.09310897
39	0x3e31fe8c	0.17382258
40	0xbfacb7c5	-1.3493582
41	0x3f040efa	0.5158535
42	0x3cb525ed	0.022112811
43	0xbecdf550	-0.4022622
44	0x3f689cfb	0.90864533
45	0x3f1da69e	0.6158236
46	0xbd7327e2	-0.059364207
47	0xbe39bce2	-0.1813846
48	0x3e9f3d15	0.3110129
49	0x3ea0c47a	0.313999
50	0x3ca07ced	0.01959082
51	0xbeb0d150	-0.34534693
52	0xbff1e9e5	-1.8899504
53	0xbfcb8b29	-1.5901843
54	0x3d050cff	0.032483097
55	0xbc0c3f4b	-0.008560012
56	0xbdbcca8d	-0.09218321
57	0x3c818cc7	0.015814198
58	0x3e95f58f	0.2928891
59	0xbce0dadc	-0.02744811
60	0x3dc3dc84	0.095635444
61	0x3e9e6108	0.30933404
62	0x3de59e5f	0.112118475
63	0xbd0a6743	-0.033789884
64	0xbdfc36db	-0.1231515
65	0x3c88ee4a	0.016715188
66	0xbd53326b	-0.051561754
67	0x3cd93f2e	0.026519384
68	0xbde14cc3	-0.11000969
69	0x3e6f9dd8	0.23400056
70	0x3e8ce7d5	0.27520624
71	0x3e35f9a2	0.17771009
72	0x404f5369	3.239466
73	0xbe90cd84	-0.28281796
74	0xbc6e6ce1	-0.014552326
75	0x3d3c2a29	0.045938645
76	0xbe2752ad	-0.16340132
77	0xbd33449b	-0.0437666
78	0xbe2467c5	-0.1605521
79	0xbe33470f	-0.17507575
80	0x3eccafc6	0.39977854
81	0xbe5c21da	-0.21497288
82	0x3ed40beb	0.41415343
83	0xbf0b72cc	-0.5447204
84	0xbeae2159	-0.34009817
85	0x3ed3ab12	0.41341454
86	0x3e951317	0.29116127
87	0xbe629fdf	-0.22131298
88	0xbed25b92	-0.41085488
89	0x3f7f0db2	0.9963027
90	0xbda9b022	-0.08285548
91	0xbd47e488	-0.04880193
92	0x3ed1b77d	0.40960303
93	0x3e9a1c11	0.30099538
94	0xbe078e2a	-0.13237825
95	0x3e9cecfe	0.3064956
96	0x3d2448ec	0.040108606
97	0xbe7801bd	-0.24219413
98	0x3db5f358	0.08884305
99	0xbe9e5da8	-0.3093083
100	0x3e9b9b10	0.3039174
101	0xbefad0ce	-0.4898743
102	0x3e7c5360	0.2464118
103	0x3f3de2f8	0.7417445
104	0xbe528326	-0.20557842
105	0x3fa0bafa	1.2557061
106	0xbe0abb4c	-0.1354801
107	0xbd1cd79e	-0.038291566
108	0xbe69479a	-0.2278122
109	0xbe5b14c7	-0.21394645
110	0x3e7eb52a	0.24873796
111	0x3d30366f	0.043020662
112	0xbdce1f1f	-0.1006453
113	0x3d682945	0.056679983
114	0xbe5d676f	-0.21621488
115	0xbe51fb79	-0.20506085
116	0x3cf7ed5c	0.030264549
117	0xbd5496d7	-0.051901665
118	0x3f3b3ba0	0.73137856
119	0x3d6d8223	0.057985436
120	0x3f623bb5	0.88372356
121	0x3cac4828	0.0210305
122	0x3f95d117	1.1704434
123	0xbf1d09d8	-0.61343145
124	0xbf6950a8	-0.91138697
125	0xbee8e184	-0.45484555
126	0xbf292763	-0.66075724
127	0x3f60a0b1	0.87745196
128	0x3e346c20	0.17619371
129	0xbe27f1de	-0.16400859
130	0x3ec06319	0.37575606
131	0xbe86589f	-0.26239488
132	0xbf9144ef	-1.1349162
133	0x3f85d8b7	1.0456761
134	0x3dcb3a63	0.09923246
135	0x3d504c35	0.050853927
136	0xbd8efbd2	-0.06981625
137	0x3f44acd9	0.76826245
138	0xbed0d2c6	-0.40785807
139	0x3de40156	0.11133067
140	0x3f4a0f72	0.7892982
141	0x3eb6fed0	0.35741282
142	0x3f21540d	0.63018876
143	0xbea6c63f	-0.32573125
144	0x3d1e0fb0	0.03858918
145	0xbeba0890	-0.36334658
146	0xbe9a88fa	-0.3018263
147	0x3e9bb22f	0.3040938
148	0xbf83fc4c	-1.031137
149	0x3f3fea61	0.7496701
150	0x3e8bd48c	0.27310598
151	0xbc897d35	-0.016783336
152	0x3fb95e7a	1.4481957
153	0x3fa652bb	1.2993997
154	0xbebf3b22	-0.37349802
155	0xbeee3eb2	-0.46532208
156	0x3f04b9fa	0.5184628
157	0xbd1c589e	-0.03817045
158	0x3da98197	0.082766704
159	0x3c03e0ea	0.008049229
160	0xbd20e815	-0.03928383
161	0x3d1394f0	0.03603071
162	0xbd3f8e38	-0.04676649
163	0xbe88df43	-0.26732835
164	0x3cdbcb89	0.026830452
165	0xc01f72e5	-2.4913876
166	0x3d397d38	0.045285434
167	0xbd68ebdc	-0.056865558
168	0x3efddd73	0.49583015
169	0xbe128a60	-0.14310598
170	0x3d624629	0.05524269
171	0x3f191a27	0.5980553
172	0xbe834eef	-0.2564616
173	0xbdb18bd7	-0.086692505
174	0xbeea4fb1	-0.45763925
175	0x3e62d96c	0.22153252
176	0x3d868de5	0.06570033
177	0x3f31a0af	0.6938581
178	0x3c12723d	0.008938369
179	0xbec75e66	-0.38939208
180	0xbf096a80	-0.5367813
181	0x3f1f4536	0.6221498
182	0xbeb1ef34	-0.3475281
183	0x3d96b4ed	0.073587276
184	0x3ea90a1f	0.33015534
185	0xbf78042d	-0.9688137
186	0x3f3163be	0.6929282
187	0xbe98e1cb	-0.29859766
188	0xbf0ef746	-0.5584606
189	0x3dd48429	0.1037677
190	0xbeaac933	-0.33356628
191	0x3de72367	0.11286049
192	0xbea04aa0	-0.31306934
193	0x3f3ce317	0.7378401
194	0x3ecce47d	0.40018073
195	0xbf39d536	-0.7259096
196	0x3f56ec25	0.8395408
197	0xbf7a9eca	-0.9789854
198	0x3d01758d	0.031606246
199	0x3b7b8b65	0.0038382646
200	0xbc537b6d	-0.012907845
201	0x3ca4a3b1	0.020097585
202	0x3e38f1b0	0.18060946
203	0xbd844168	-0.06457788
204	0xbe39a278	-0.18128383
205	0xbd9f3aaf	-0.07774865
206	0xbdf54e3e	-0.11977814
207	0x3d589424	0.052875653
208	0x3d6daecb	0.058028024
209	0xbea8793b	-0.32904992
210	0xbec7ead1	-0.39046338
211	0x3eeed6a0	0.4664812
212	0x3f44d3be	0.7688559
213	0xbfd111f7	-1.6333607
214	0x3dd4a5ea	0.10383208
215	0xbd2ceaa9	-0.042215977
216	0x3f47d289	0.78055626
217	0xbf28df93	-0.6596615
218	0xbf5a7c6f	-0.8534612
219	0xbe7bdf82	-0.2459698
220	0x3efe083b	0.49615654
221	0xbe9d29d6	-0.3069598
222	0xbd93ada6	-0.07210855
223	0xbc5be7e9	-0.013421991
224	0xbe2db4cd	-0.16963501
225	0xbf1c1057	-0.6096243
226	0x3d2e8d98	0.042615503
227	0xbd897eed	-0.06713662
228	0x3f2b430f	0.668992
229	0xbf65c578	-0.8975444
230	0xbe35f29f	-0.17768334
231	0x3f336296	0.70072305
232	0xbf0e86a4	-0.55674195
233	0x3d402cb3	0.04691763
234	0xbeb346bf	-0.35014912
235	0xbe8de962	-0.2771712
236	0x3d6a10b3	0.057144832
237	0x3e0c6961	0.13712074
238	0xbde92cb1	-0.11385477
239	0xbdf9bfd7	-0.12194794
240	0x3ea5419d	0.3227662
241	0xbdf991c4	-0.12186006
242	0x3f0ce8a5	0.5504249
243	0x3e09a50e	0.1344187
244	0xbf7653ee	-0.96221817
245	0x3f05ab71	0.52214724
246	0x3eedd817	0.46453926
247	0x3e82a981	0.25519946
248	0xbeb52389	-0.35378674
249	0xbee3cda9	-0.44492844
250	0x3d78bb0a	0.06072525
251	0x3f02b5fe	0.5105895
252	0xbe99184c	-0.2990135
253	0xbf2bca79	-0.67105824
254	0xbcca9610	-0.024729759
255	0x3f5394c0	0.8264885

actor.0.bias f4 [128]
0	0xbe445f70	-0.19177032
1	0x3d893845	0.06700186
2	0x3e8bc3ea	0.27297908
3	0x3e4307d9	0.19045962
4	0xbd5c8e0d	-0.053846408
5	0x3e57eb62	0.21085885
6	0x3d43b035	0.047775466
7	0xbe801ddc	-0.2502278
8	0x3e234ca4	0.15947205
9	0x3d7c6b38	0.06162569
10	0x3b4f532f	0.0031635275
11	0x3d2288e9	0.03968135
12	0xbe21277e	-0.15737721
13	0xbda69caa	-0.0813535
14	0xbe3cef77	-0.18450724
15	0x3e06be3d	0.13158508
16	0x3e5999b1	0.21250035
17	0xbcfc91b4	-0.030831195
18	0x3e9bf38d	0.30459252
19	0x3e946dd4	0.28990042
20	0xbdbce049	-0.092224665
21	0x3ed9f124	0.42566788
22	0xbe80649f	-0.25076768
23	0x3e7873ed	0.24262972
24	0xbe681a89	-0.22666372
25	0xbd66dd59	-0.056363437
26	0x3e37800e	0.17919943
27	0xbe1f3891	-0.15548922
28	0x3d1eacf4	0.03873916
29	0x3dc348d3	0.095353745
30	0xbd499ea5	-0.04922356
31	0x3dcf7860	0.101303816
32	0xbc4a85ba	-0.012360984
33	0xbdc569f9	-0.09639353
34	0xbe319dde	-0.17345378
35	0x3d2cbf8d	0.042174865
36	0x3e9727aa	0.2952245
37	0xbebe7ba2	-0.372037
38	0xbe9cb6db	-0.30608258
39	0x3e265f51	0.16247298
40	0xbce25398	-0.027627751
41	0x3d55c3da	0.05218873
42	0x3a3e4b1c	0.0007259117
43	0x3ef3e5a1	0.4763613
44	0xbeda7c2c	-0.4267286
45	0x3ed89fc9	0.42309406
46	0x3bd9e5b4	0.006649697
47	0x3dcd1049	0.10012872
48	0x3dc72217	0.09723299
49	0xbe475114	-0.19464523
50	0x3e2cf485	0.16890152
51	0x3e29084b	0.1650707
52	0x3f0710ea	0.52760184
53	0x3e16e769	0.14736713
54	0x3ce69f74	0.028152205
55	0x3e31d7bf	0.17367457
56	0x3dc48c03	0.095970176
57	0x3cb2eee0	0.02184242
58	0x3c8c06b5	0.017093042
59	0x3e492025	0.19641168
60	0xbe7b604a	-0.2454845
61	0xbe7a7db6	-0.24462017
62	0x3e92bf5f	0.2866163
63	0x3db4b458	0.0882346
64	0xbe3dfb8e	-0.18552992
65	0x3e4acc7a	0.19804564
66	0xbec1ccf3	-0.37851676
67	0x3d9184d2	0.071054116
68	0xbecb008d	-0.39648858
69	0x3ea0f10b	0.314339
70	0xbe52958d	-0.20564862
71	0xbd8f673f	-0.070021145
72	0x3df94eb6	0.12173216
73	0xbc1b95ac	-0.009496134
74	0xbb37bd6c	-0.0028036488
75	0x3cc0bd72	0.023527835
76	0xbc3a4815	-0.011369725
77	0x3db1bd9e	0.08678745
78	0xbeb2d342	-0.34926802
79	0x3d777a80	0.06041956
80	0x3e81439c	0.25246894
81	0xbe70050f	-0.2343943
82	0xbe46da66	-0.1941925
83	0xbe7ecdeb	-0.24883239
84	0x3e711a37	0.23545156
85	0x3e8655e2	0.26237398
86	0xbd0a8060	-0.033813834
87	0x3db8a31c	0.09015486
88	0x3e88fed0	0.26756907
89	0x3d78b494	0.060719088
90	0xbdbc57aa	-0.09196408
91	0xbdce0fa6	-0.100615785
92	0xbe0dd3cf	-0.1385033
93	0x3dbdb847	0.09263664
94	0xbc9de555	-0.019274393
95	0xbd367aa7	-0.044550564
96	0xbeb247ac	-0.34820306
97	0x3d8e2a5e	0.06941675
98	0xbdd7babd	-0.105336644
99	0xbd21be99	-0.03948841
100	0xbe0ee254	-0.13953525
101	0xbe69a7a8	-0.22817862
102	0xbd8ab712	-0.06773199
103	0x3d0acfcf	0.033889588
104	0x3e5a58b5	0.21322902
105	0x3d8187d2	0.06324734
106	0xbe57b1db	-0.2106394
107	0xbe955961	-0.29169753
108	0x3ad39e8a	0.0016145271
109	0x3d068164	0.03283824
110	0xbea1670f	-0.3152394
111	0xbebe998e	-0.37226528
112	0xbe0b1427	-0.13581906
113	0x3e86cbb7	0.26327297
114	0x3df10b5b	0.11769744
115	0xbdf88152	-0.12134041
116	0xbdbdebcf	-0.092734925
117	0xbd361ce0	-0.04446113
118	0x3e252c4a	0.16130176
119	0x3d09dc82	0.03365756
120	0xbf004170	-0.5009985
121	0x3cee0c1b	0.029058507
122	0xbe07cd54	-0.1326192
123	0x3dd85992	0.10563959
124	0xbc902b7a	-0.017598856
125	0xbd668f5f	-0.056289073
126	0x3d48fbac	0.049068138
127	0x3dac7da3	0.08422401

actor.2.weight f4 [64, 128]
0	0xbe23656a	-0.15956655
1	0x3de6bc6c	0.11266407
2	0x3e49a39a	0.19691315
3	0x3f11cef1	0.5695639
4	0x3e1ab69a	0.1510872
5	0x3ea6b38d	0.3255886
6	0x3efd087e	0.49420542
7	0x3e022b9b	0.12711947
8	0xbe4e68ef	-0.20157216
9	0xbf1543d5	-0.5830663
10	0xbe5ac339	-0.21363534
11	0x3ea794bc	0.32730663
12	0xbe3d7a1e	-0.18503615
13	0xbf2117b0	-0.6292677
14	0xbed4fd76	-0.41599625
15	0x3ec3658d	0.38163415
16	0x3eb98b41	0.36239055
17	0x3ef8df1a	0.48607713
18	0x3e102390	0.14076066
19	0x3f38b10d	0.7214516
20	0xbf21b1c9	-0.63161904
21	0x3ec561d1	0.3855119
22	0x3e3e727e	0.18598363
23	0x3f45295f	0.7701625
24	0xbf11c9da	-0.56948626
25	0xbe25227e	-0.16126439
26	0x3efc80a3	0.49316892
27	0x3e8d5a93	0.27608165
28	0x3dccb254	0.09994951
29	0x3e9c97a8	0.30584455
30	0xb9b4b902	-0.00034470117
31	0x3e40e8c9	0.188388
32	0x3e138d99	0.14409484
33	0xbe2bef6a	-0.16790548
34	0xbe01c32f	-0.12672113
35	0x3e9868bc	0.29767406
36	0x3f4cb812	0.7996837
37	0xbe702864	-0.23452908
38	0xbea20f5f	-0.31652352
39	0x3e812839	0.25226
40	0x3f026f21	0.5095082
41	0x3ea5336a	0.32265788
42	0xbe0a9bb4	-0.13535959
43	0x3e85c6ab	0.26128134
44	0xbea3771c	-0.3192681
45	0xbe3e28e2	-0.18570283
46	0xbe37ac78	-0.17936885
47	0x3eeed160	0.46644115
48	0x3e0b3f0d	0.1359827
49	0x3de8877e	0.11353968
50	0xbe729227	-0.23688565
51	0xbe16354d	-0.1466877
52	0x3e00a935	0.12564547
53	0x3e84a59c	0.259076
54	0xbe0a1325	-0.13483866
55	0x3eb095a7	0.34489176
56	0xbef15099	-0.47131804
57	0xbe7e0db6	-0.24809918
58	0xbd57053a	-0.05249522
59	0x3d924341	0.07141734
60	0xbedd32df	-0.43202874
61	0xbf13c0c5	-0.5771602
62	0xbf2935e3	-0.6609785
63	0x3e1027d7	0.14077698
64	0x3e828ca8	0.25497937
65	0xbe389fe3	-0.18029742
66	0xbf40763f	-0.7518043
67	0x3f011179	0.50417286
68	0xbfa6a5cd	-1.3019348
69	0xbe21ff74	-0.15820104
70	0xbe2a5042	-0.16632178
71	0xbf1b260e	-0.6060494
72	0x3cbd17af	0.023082582
73	0xbf0502ec	-0.51957583
74	0xbde15537	-0.110025816
75	0x3c1b4a89	0.00947822
76	0x3e2d1135	0.16901095
77	0x3ed86c4e	0.4227013
78	0x3edc317d	0.43006507
79	0x3e688cf0	0.22710013
80	0x3daf2413	0.085518025
81	0xbe897109	-0.2684405
82	0xbe534445	-0.20631512
83	0x3e0310d8	0.12799394
84	0x3f9678d0	1.1755619
85	0x3e32428e	0.17408201
86	0xbede1fac	-0.4338354
87	0x3e7a71da	0.24457493
88	0xbd940a0c	-0.07228479
89	0x3ecc17cc	0.39861906
90	0x3e9d57e3	0.30731115
91	0xbe2899c1	-0.16464902
92	0xbe5e09e4	-0.2168346
93	0xbda82f4e	-0.08212148
94	0xbdd54f35	-0.10415498
95	0xbeb0eecb	-0.34557185
96	0x3f0446d4	0.51670575
97	0x3e12b0fc	0.14325327
98	0xbf2434b9	-0.6414295
99	0x3dc8c792	0.0980369
100	0xbd58f7ed	-0.052970815
101	0xbddd44b0	-0.10804117
102	0xbed24309	-0.4106677
103	0xbde28ae9	-0.11061651
104	0xbd6f1978	-0.0583739
105	0xbf14803e	-0.5800818
106	0xbe738d3e	-0.23784348
107	0xbf0b47c6	-0.5440639
108	0xbe8cecd3	-0.27524433
109	0x3dccf10d	0.10006914
110	0xbdb22ff9	-0.08700556
111	0x3e888acf	0.26668403
112	0xbeac56bd	-0.33659926
113	0x3e20527c	0.15656465
114	0x3e9f8aa2	0.31160456
115	0x3ee1ea37	0.44124004
116	0x3f150cdd	0.5822275
117	0xbeb7bd63	-0.35886678
118	0x3edd74d3	0.43253192
119	0x3eae1836	0.34002846
120	0x3df91f81	0.12164212
121	0xbdad826f	-0.08472144
122	0xbdbddfd1	-0.09271205
123	0x3d9e947e	0.077431664
124	0x3e50a477	0.20375238
125	0xbbff3eca	-0.0077894675
126	0xbf355a11	-0.70840555
127	0xbcbac8d9	-0.02280085
128	0xbee5487d	-0.44781867
129	0xbe6af5bd	-0.22945304
130	0xbed9515d	-0.42444888
131	0x3d8ba730	0.06818998
132	0x3d1f8f9a	0.03895531
133	0x3efd7b9b	0.49508366
134	0x3e7e448c	0.24830836
135	0x3e66bab2	0.22532156
136	0x3e0fd94f	0.1404774
137	0x3e783e9d	0.24242635
138	0x3e513893	0.20431738
139	0x3e6276fd	0.22115703
140	0xbd0d9b75	-0.034572084
141	0x3dc19cae	0.094537124
142	0x3ed59db0	0.4172187
143	0x3ecb419b	0.3969849
144	0x3f7fa134	0.9985535
145	0xbe06e9be	-0.13175103
146	0x3e4e3b6c	0.20139855
147	0xbdd5a6ef	-0.10432231
148	0xbee47dfb	-0.44627365
149	0x3eb4123b	0.3517016
150	0xbeb786c1	-0.35844997
151	0x3eb3e43f	0.35135075
152	0x3d1d1f19	0.038359735
153	0xbf2473a0	-0.6423893
154	0x3f299dd1	0.66256434
155	0x3e86b6cd	0.2631134
156	0xbcfd2ae0	-0.030904233
157	0x3e031e0b	0.12804429
158	0xbdba228c	-0.090886205
159	0x3f2e8ea0	0.6818638
160	0xbe7571ce	-0.23969194
161	0x3e9414ce	0.28922123
162	0xbccb029f	-0.024781523
163	0xbdc9789d	-0.09837458
164	0x3f1c021f	0.60940737
165	0xbe034fd2	-0.12823418
166	0x3f079c6d	0.5297306
167	0xbe961c6c	-0.2931856
168	0x3e77f148	0.24213135
169	0x3deee222	0.11664225
170	0xbe5f6216	-0.2181476
171	0x3effe8bb	0.49982247
172	0xbe093fc2	-0.13403228
173	0x3e4172bf	0.18891428
174	0x3ef74072	0.48291355
175	0x3bee5706	0.0072735576
176	0x3e9093ae	0.2823767
177	0x3e07f8c4	0.1327849
178	0x3e2ec29d	0.17066427
179	0xbd90c895	-0.07069508
180	0xbc81a874	-0.015827395
181	0xbddd5ab2	-0.108083144
182	0xbec92284	-0.39284146
183	0x3e737e46	0.23778638
184	0xbd4572b2	-0.048205085
185	0xbeb614ea	-0.3556283
186	0xbc8e415c	-0.01736515
187	0xbf012df0	-0.5046072
188	0x3ecbc6ad	0.39800015
189	0x3e845347	0.25844786
190	0xbea24adc	-0.31697738
191	0xbe0202ee	-0.1269643
192	0xbe841556	-0.25797528
193	0xbe51c913	-0.2048686
194	0x3e2cbbac	0.16868466
195	0x3f3a3a60	0.72745323
196	0xbf7ef971	-0.9959937
197	0xbe104b55	-0.14091237
198	0xbf8f1479	-1.1178123
199	0xbe588a32	-0.21146467
200	0x3e624943	0.2209826
201	0x3e8f9e15	0.28050295
202	0xbf21375e	-0.6297511
203	0x3ea7f246	0.32802027
204	0xbece8173	-0.40333137
205	0x3e65536d	0.22395106
206	0x3e17f7fc	0.14840692
207	0x3e42ad31	0.1901138
208	0xbe1f608a	-0.1556417
209	0x3dd02eca	0.10165174
210	0xbb547721	-0.003241964
211	0xbdca37df	-0.09873938
212	0x3f43429d	0.7627352
213	0x3e40e633	0.18837814
214	0xbeee4217	-0.46534798
215	0xbe87e5e6	-0.26542586
216	0x3d92b1da	0.07162829
217	0xbf2057fa	-0.6263424
218	0xbf23bf03	-0.63963336
219	0x3d4c9057	0.04994234
220	0xbd23f91e	-0.0400325
221	0xbe90ca51	-0.28279355
222	0xbee83c49	-0.45358494
223	0xbdda36a8	-0.10654956
224	0x3e2dec4f	0.16984676
225	0xbec823ef	-0.39089915
226	0xbef44e8c	-0.47716177
227	0xbe084b61	-0.13310005
228	0xbea855b1	-0.32877877
229	0xbf1244e2	-0.57136357
230	0xbea0f71f	-0.31438538
231	0xbf26a49d	-0.6509493
232	0x3e8601a5	0.2617313
233	0xbdbc3d70	-0.09191406
234	0x3ee29495	0.44253984
235	0xbead8f03	-0.33898172
236	0xbeffbc84	-0.49948514
237	0x3ec2e873	0.3806797
238	0x3c0bf245	0.008541648
239	0xbe4b3d3b	-0.19847576
240	0xbe900a57	-0.2813289
241	0xbe99adea	-0.30015498
242	0x3f12d0c1	0.57349783
243	0x3d1f8a9a	0.03895054
244	0x3df40718	0.119154155
245	0x3f036076	0.5131906
246	0x3f701ffd	0.9379881
247	0x3e82b416	0.2552802
248	0xbe9ffbcc	-0.31246793
249	0x3c907c8b	0.017637512
250	0xbd957d1c	-0.07299253
251	0x3ed0f55c	0.40812194
252	0xbe783c3a	-0.24241725
253	0xbf2d0b84	-0.67595696
254	0x3dad9c3e	0.084770665
255	0x3de28381	0.11060239

actor.2.bias f4 [64]
0	0x3e96fda1	0.29490378
1	0x3e4efe7a	0.20214263
2	0xbe311a27	-0.17295133
3	0xbe025a02	-0.12729648
4	0x3e06c4c6	0.13161
5	0xbdc10c68	-0.094261944
6	0x3d92179b	0.07133409
7	0x3f2089b4	0.6271012
8	0x3ddc554f	0.10758459
9	0x3e6e1605	0.23250587
10	0xbed45d90	-0.41477633
11	0x3e5adf8d	0.2137434
12	0xbe017820	-0.1264348
13	0xbea047ac	-0.3130468
14	0x3e4af790	0.19821
15	0xbedc0746	-0.429743
16	0x3e3836f1	0.17989708
17	0x3e50513d	0.2034349
18	0x3d18aca3	0.037274014
19	0xbe08bd6a	-0.13353506
20	0x3eb2a7a1	0.34893516
21	0xbdb08cf2	-0.08620633
22	0x3d532804	0.051551834
23	0x3ec779e9	0.38960198
24	0xbc3d0276	-0.011536231
25	0xbe101440	-0.14070225
26	0x3e000c2e	0.12504646
27	0xbe909187	-0.2823603
28	0x3e4de52a	0.2010695
29	0xbe98cda1	-0.29844382
30	0xbeeed5eb	-0.4664758
31	0xbd553759	-0.052054737
32	0x3ebfecbb	0.374853
33	0xbb8ea74d	-0.00435344
34	0xbdaac42e	-0.083381996
35	0x3e13d77c	0.1443767
36	0xbd7ccc4a	-0.061718263
37	0xbe8c5637	-0.27409527
38	0xbdcd3bba	-0.100211576
39	0xbdff2bb9	-0.12459511
40	0xbe04cbaf	-0.12968324
41	0xbdef0d35	-0.11672441
42	0xbe81fe0b	-0.25389132
43	0x3e4e44d1	0.20143439
44	0xbed5ff6e	-0.4179644
45	0x3d07dd96	0.033170305
46	0xbe1c1f4e	-0.15246317
47	0x3f011db3	0.5043594
48	0xbeb140c6	-0.3461973
49	0x3e19189e	0.14950797
50	0xbef26d5d	-0.47349063
51	0xbcbb17a9	-0.02283843
52	0x3df83bd3	0.121207856
53	0xbe1b27bb	-0.15151875
54	0x3cdd5fd0	0.027023226
55	0x3b387e73	0.0028151541
56	0xbe755e26	-0.23961696
57	0x3eba0b48	0.36336732
58	0xbee38073	-0.44433936
59	0xbeced50c	-0.40396917
60	0xbc37201d	-0.01117709
61	0x3bf14ccf	0.0073638926
62	0x3d93904f	0.07205259
63	0x3dc542fc	0.09631917

actor.4.weight f4 [9, 64]
0	0x3e171af2	0.14756373
1	0xbd826bff	-0.06368255
2	0x3d5bce6e	0.053663664
3	0xbd532689	-0.051550422
4	0xbe561bd4	-0.20909053
5	0x3d3cc532	0.046086498
6	0xbdb8f35d	-0.09030793
7	0x3e988e6c	0.2979616
8	0xbc18c52c	-0.009324353
9	0x3cd86eae	0.026419964
10	0xbe8a6854	-0.2703272
11	0x3bc80806	0.006104472
12	0x3dcdf41e	0.10056327
13	0x3dcdd651	0.10050643
14	0xbd5ae88d	-0.053444434
15	0xbc978c3f	-0.018499492
16	0xbf15dfb0	-0.58544445
17	0xbe3fb277	-0.18720423
18	0x3c6426fc	0.01392531
19	0xbd408893	-0.047005247
20	0xbe34abf0	-0.17643714
21	0xbdf1c31f	-0.118047945
22	0xbb9dfc28	-0.004821319
23	0xbe00c571	-0.12575318
24	0xbb8322e2	-0.004001961
25	0x3b86ea8f	0.004117317
26	0x3cccae38	0.024985418
27	0xbd68b779	-0.0568156
28	0xbd95e018	-0.07318133
29	0x3e86f5af	0.26359317
30	0xbeb1680e	-0.346497
31	0x3d2c44ad	0.04205768
32	0x3f5a1aeb	0.85197324
33	0x3b7f8fb0	0.0038995557
34	0x3d6d8208	0.057985336
35	0x3e128765	0.14309461
36	0x3d6865e5	0.0567378
37	0x3d4e4630	0.050359905
38	0x3d057a04	0.032587066
39	0xbd384f59	-0.044997547
40	0x3ce2f57e	0.02770495
41	0x3a0be21e	0.0005336123
42	0xbd8e9169	-0.069613285
43	0xbdf72d61	-0.12069202
44	0x3e4347c3	0.19070344
45	0xbc9e9f88	-0.01936318
46	0xbd29b504	-0.041432396
47	0xbe4707b7	-0.19436537
48	0xbead85d1	-0.33891156
49	0x3e0e3bba	0.13889971
50	0xbf2a5050	-0.665288
51	0xbc428b01	-0.011873961
52	0x3e171d53	0.1475728
53	0xbd0fc1ed	-0.03509705
54	0x3c7639cf	0.015028431
55	0xbe0d42c8	-0.13795006
56	0x3db2939f	0.08719563
57	0xbe15f4ea	-0.14644209
58	0x3e6590eb	0.22418563
59	0x3e10649f	0.14100884
60	0x3dbaf9ce	0.09129678
61	0x3b9d9ed6	0.0048101945
62	0x3cb3b5d6	0.021937292
63	0x3d6edc93	0.058315825
64	0xbde0a23c	-0.10968444
65	0xbb6337ad	-0.0034670637
66	0xbb971fe7	-0.0046119574
67	0x3d5c452d	0.05377691
68	0x3f48f488	0.78498125
69	0x3e827604	0.25480664
70	0x3eaeab09	0.34114864
71	0x3f59ecb9	0.85126835
72	0x3cb7f76a	0.022456843
73	0xbd630053	-0.05542023
74	0x3f583d6a	0.8446871
75	0xbe06e617	-0.1317371
76	0x3ea32f92	0.3187223
77	0xbc8e68de	-0.017383989
78	0x3d886285	0.06659416
79	0xbf0f3e37	-0.5595431
80	0xbe3344dd	-0.17506738
81	0xbdfd36ac	-0.123639435
82	0x3dce7345	0.1008058
83	0x3d90b2e1	0.070653684
84	0x3f866bc4	1.0501637
85	0x3f1f827d	0.62308484
86	0xbeac2bb7	-0.33627102
87	0x3d6b7408	0.057483703
88	0x3d5dfcf5	0.054196317
89	0x3de081df	0.10962271
90	0xbe3f488e	-0.18680021
91	0xbc9d9c6c	-0.019239627
92	0xbf19370c	-0.5984962
93	0x3ed64c93	0.41855296
94	0xbf2bc8cf	-0.67103285
95	0xbed90e42	-0.4239369
96	0xbfb987a7	-1.4494523
97	0xbd492304	-0.04910566
98	0x3cf21203	0.029549604
99	0x3dcb6927	0.099321656
100	0xbe9eda15	-0.31025758
101	0x3ea9952e	0.33121628
102	0x3dd40cb1	0.10353983
103	0xbcef578d	-0.029216552
104	0xbe271a0a	-0.16318527
105	0x3cc05d71	0.023482056
106	0xbd9fa858	-0.07795781
107	0x3e846534	0.25858462
108	0xbe0781be	-0.13233086
109	0x3f08e27e	0.534706
110	0x3defe1a5	0.1171296
111	0xbf415dfc	-0.75534034
112	0xbfa134a5	-1.2594191
113	0xbea2e0fc	-0.31812274
114	0x3f945b40	1.1590347
115	0xbc8ca24a	-0.01716723
116	0xbee9bb54	-0.45650733
117	0xbcb26672	-0.021777365
118	0xbd79116b	-0.060807627
119	0x3ee9f52a	0.45694858
120	0xbeda805f	-0.42676064
121	0x3e9e0f31	0.30870965
122	0xbdfebd26	-0.12438421
123	0x3f907557	1.1285809
124	0x3d440123	0.047852647
125	0x3e960d42	0.2930699
126	0x3b0cb707	0.0021471397
127	0x3d9c03b6	0.07617895
128	0xbc50c6c1	-0.012742699
129	0x3dbf556b	0.09342464
130	0xbd081190	-0.033219874
131	0x3c8c8801	0.017154695
132	0xbefcdfa5	-0.49389377
133	0xbeb3f993	-0.35151348
134	0xbe70ff64	-0.23534924
135	0xbf8d5d78	-1.1044149
136	0xbca31f45	-0.019912371
137	0x3d99b593	0.07505336
138	0xbf0e1177	-0.554954
139	0x3e066927	0.1312605
140	0xbef89ed8	-0.48558688
141	0xbe0ecbca	-0.13944927
142	0x3c7c6052	0.015403824
143	0x3eff4d72	0.49863774
144	0x3f4847ac	0.7823436
145	0x3eb39bda	0.35079843
146	0xbdd691bc	-0.104770154
147	0xbcebd56f	-0.028788297
148	0xbf48797f	-0.7831039
149	0xbeed96f6	-0.46404237
150	0x3eb7a71d	0.35869685
151	0x3e0eee14	0.13958007
152	0xbd48ce23	-0.049024712
153	0xbe07e0bb	-0.13269322
154	0x3e13476f	0.14382719
155	0x3d266734	0.040625766
156	0x3f1fc04c	0.62402797
157	0xbf3a3e54	-0.72751355
158	0x3f7942b4	0.97367406
159	0x3eb357ea	0.3502801
160	0x3f0a7cf2	0.540969
161	0x3d00d80e	0.031456046
162	0xbd829eb0	-0.063779235
163	0xbe479600	-0.19490814
164	0x3e578936	0.21048436
165	0xbed5dc6a	-0.41769725
166	0xbe365a5a	-0.17807904
167	0x3dad6452	0.084664
168	0x3dd2c1c7	0.10290866
169	0xbd079671	-0.033102456
170	0x3e01af94	0.12664634
171	0xbe0dee01	-0.13860323
172	0xbdb4f298	-0.088353336
173	0xbefd0611	-0.4941869
174	0xbdd69f8a	-0.104796484
175	0x3f7c37f9	0.9852291
176	0x3fcb5fff	1.5888671
177	0x3e31ac1a	0.17350808
178	0xbeee1f5f	-0.4650831
179	0x3ce115d0	0.027476221
180	0x3e9096b9	0.28239992
181	0x3d650187	0.05590966
182	0x3d218ffc	0.039443955
183	0xbe8fc0d1	-0.28076795
184	0x3e9436e5	0.2894813
185	0xbe02674b	-0.12734716
186	0xbe25dd42	-0.16197684
187	0xbfa6dd97	-1.3036374
188	0xbe1429ac	-0.14469022
189	0xbe923eb9	-0.2856348
190	0x3b79d48c	0.0038121073
191	0xbe0b38b8	-0.13595855
192	0x3d36f221	0.044664506
193	0x3e04e322	0.1297727
194	0x3e2d4e3d	0.16924377
195	0xbd1b9a53	-0.037988972
196	0x3dfee385	0.1244574
197	0x3df1f238	0.11813778
198	0x3d18cbe7	0.03730383
199	0x3dc4327b	0.09579941
200	0x3d7fa5cb	0.062413972
201	0xbe62fb63	-0.22166209
202	0xbdb85017	-0.08999651
203	0x3e0b7bf3	0.13621502
204	0x3ded3c34	0.115837485
205	0x3eb68a52	0.35652405
206	0x3d9db878	0.077012
207	0xbde3f1dc	-0.111301154
208	0x3da5b347	0.08090835
209	0xbebb184d	-0.36541978
210	0x3d2c3577	0.042043176
211	0x3d830136	0.06396715
212	0x3f0a1528	0.5393853
213	0x3cf286c6	0.02960528
214	0xbe113a89	-0.14182486
215	0x3d58dd7b	0.052945595
216	0x3c05c201	0.00816393
217	0x3e02e93c	0.12784284
218	0xbd3567d3	-0.044288468
219	0xbeb35d25	-0.35032
220	0xbe0ea4c6	-0.13930044
221	0xbd91e3fd	-0.071235634
222	0x3bfb0233	0.0076601743
223	0x3cfccc1f	0.030859051
224	0xbd2239a5	-0.039605755
225	0xbe1335e5	-0.14376028
226	0x3e236d59	0.15959682
227	0xbe81b513	-0.2533346
228	0x3d87c6d6	0.06629722
229	0xbd52ac07	-0.05143359
230	0xbe7ec4f6	-0.24879822
231	0x3dbcd2ad	0.09219871
232	0x3d2ddedf	0.042448875
233	0xbd434f2e	-0.047682934
234	0x3e2f746e	0.17134258
235	0xbc97dd9d	-0.01853829
236	0x3c78ee6b	0.015193562
237	0xbd9e46d4	-0.07728353
238	0xbe1940d8	-0.14966142
239	0xbd368821	-0.044563416
240	0xbd60bc91	-0.05486733
241	0x3a903b2c	0.0011003963
242	0xbd8542bb	-0.065068685
243	0x3d069af7	0.03286263
244	0x3d844cbd	0.06459949
245	0x3cae262e	0.02125844
246	0xbbf99a15	-0.007617245
247	0x3d8ed354	0.069739014
248	0x3d8f4e51	0.069973595
249	0xbe332b1f	-0.17496918
250	0xbe8b7828	-0.2724011
251	0xbc34c381	-0.01103294
252	0xbcb136db	-0.021632602
253	0x3d3f676c	0.04672949
254	0xbd9969d2	-0.07490887
255	0xbccaea8c	-0.024770044

actor.4.bias f4 [9]
0	0xbf675760	-0.903677
1	0x3f06ed23	0.5270559
2	0x3f0235be	0.50863254
3	0xbce1be7c	-0.02755665
4	0xbb00c67d	-0.0019649558
5	0x3da03974	0.07823458
6	0x3c4f77cb	0.012662838
7	0x3d2fe497	0.04294261
8	0xb9e5b859	-0.00043815633
