Plotting/saliencies_live/Multi_Pong/Sequence_Length_2/multi_pong_2__1__1721945456_checkpoint_2888.pt (torch, 89074 bytes, 11 tensors)

critic.0.weight f4 [128, 12]
00000000: d289 583e 1bbd ea3c dfe0 9a3e 5455 c23c
00000010: 3ccc fa3b 5e03 3f3e 9572 f5bf d7fa 1040
00000020: 213c 033d 8de4 073e 2cce c6be bd8f 0c40
00000030: f70c ce3c eefd 7d3b 779e 9dbd 7210 103b
00000040: f4ce d8bc 5074 48bc 6660 38bf c7dd ac3d
00000050: 94cc b5bd 0b37 213e 59d9 15c0 26b2 6240
00000060: e239 aa3c 3798 ce3e db2f 53be a1ea bfbe
00000070: e62c 003d 9751 1ebc 5375 ff3d baf9 a03b
00000080: ad30 fb3b be5e 623b ba98 113e 2c8a 903c
00000090: a849 173f a2a8 8fbe 1469 283f acfa 42be
000000a0: c5c2 dbbb dd16 243d 47d3 223d eb16 80bc
000000b0: faeb 83bf f2bc e63e bf48 e9bf 8ae5 d63e
000000c0: 798f ddbd 6f1c 77bc 5181 59bc afe0 023b
000000d0: d757 e43c 828d a93a 1e0b 6d3e 8727 afbc
000000e0: 119a 2a3d 81d8 b43d dc6a aa3f 6a46 0b40
000000f0: 74d6 9ebd abd1 1dbd 389c 40be 95f7 5bbd
00000100: 975c b9be 0e2b ccbe fb9b 21c0 bbc7 64c0
00000110: d4ee d43c 7c0f 99bc 1645 11be 2e7f c7bc
00000120: cb0d 3c3e bafb 96bb 483e a5bd f64c 0e3b
00000130: 576b fe3d 4b9e 0fbe 2310 6b40 8f59 69c0
00000140: d908 e1ba ef3d 313b 9c76 25be 44a7 7a3b
00000150: fe9c 28bd a4cb 3f3a 92a7 17bd 562e d3bb
00000160: dcf5 d8bb 15e2 d03c b0f6 12be 3750 d23d
00000170: 4504 3ebd af27 4a3d 9174 01c0 18d3 8540
00000180: 96c9 b1be 72db f93a f320 1bbe 7022 ab3b
00000190: 19f5 00be 0bfc fdbb c486 5ec0 a38c 6b3d
000001a0: a728 e2bd 3ab0 0cbc f100 2c3f f09d 523d
000001b0: 278e 7bbe 49ce a5be edb3 debe 1d72 8c3d
000001c0: b596 843c 5c29 9e3b d98c b5be 0426 363e
000001d0: b94e bc3e 24d7 2d3e e417 0740 02bf ae3f
000001e0: e7ab d83d de9c 983b 6159 413e 363c a2ba
000001f0: 31db 4d3b 17b3 c53b f48c 7f3d 59a2 c83c
00000200: 1061 813c 5694 b2bc 5d5a 2f40 5d7d 50bf
00000210: 7207 6dbe 56b6 b2b9 04e4 6c3d eec6 48bb
00000220: d371 60bb a70e 18bd 607e d1bf 9aae c2bf
00000230: 8e1f 19bd 6a61 a63c 9ea5 cfbf a112 283f
00000240: 6ce9 313e c785 50bc 4327 683c c1c5 bebb
00000250: e6eb 823d b099 883b e7c7 843f c128 ef3e
00000260: e7b3 cbbd 04bd cbbc 531a b8bf d89f ddbf
00000270: dde3 be3c e0a1 4c3b db1a 693d cf83 16bb
00000280: 4b6b 593d b992 743b 0349 0b3f dde4 843e
00000290: 2976 003e d8ae 0bbc 33c0 4040 45e5 4bbb
000002a0: 2447 c43d c742 ce3b 1b67 c63b 6225 fc39
000002b0: 1fc8 a3bc a54e 3d3e 19ce a33d f547 8140
000002c0: f92d 45bd 36b7 4ebe 05c4 c2be 0231 6ac0
000002d0: 2b0b 5e3e 79c5 a1bd 6bc8 833e a687 c5bd
000002e0: 3fda e43c 0826 dfbc e022 13bf 51e4 313f
000002f0: 3b97 04be 6c1d 6f3d 605a cbbf ad43 81bf
00000300: b623 ab3e 3782 223c 88d4 d53c d52b 9dbc
00000310: 32f1 c53d 75ba c1bd 8177 7e3f d2c5 17c0
00000320: 9351 ee3c 6fd7 873d c8a7 3dbe e405 953f
00000330: 4804 063d b139 b6bb 3c46 87bd 4b7c 053c
00000340: 6fa5 d4bc c577 c93d 5700 c8be 441f 0b3e
00000350: b40e 5fbd 6348 21be 1ca5 febf b988 27bf
00000360: 9aac 6f3d cc7f c23b b18e 583d c49b 27bc
00000370: 5bdc 3dbc 674f c1be ee75 7abb fd15 2dc0
00000380: f3b7 953c 18f9 bd3e 5984 913d 2368 3740
00000390: c9ea b23d 7de6 c83b db9e d3bd 38ab 003c
000003a0: 9621 eabb 1682 52ba 1cd6 86bd 54c7 babd
000003b0: 08f2 673d 5c1d 46bd ebd6 8840 de59 7cc0
000003c0: c732 91be 7432 9ebb 11a7 183e 5439 333c
000003d0: d643 28be 2c59 543c 5ee9 35bf 3fdd 15be
000003e0: 2d27 563e a26a ce3c f150 8d40 6818 94bd
000003f0: 8baf 65bd 3e01 bbbb 1391 3fbe 862b 04bc
0.21146324 0.028654626 0.30249688 0.023722328 0.007653741 0.18653628 -1.9175593 2.26531
0.032039765 0.13270779 -0.38829172 2.196273 0.025152666 0.003875609 -0.076962404 0.0021982458
-0.02646587 -0.012234762 -0.7202209 0.08440738 -0.08876911 0.15743653 -2.3413908 3.5421233
0.020779554 0.40350506 -0.20623724 -0.37483695 0.03129282 -0.009663007 0.1247355 0.004912582
0.0076657147 0.0034541334 0.14218417 0.01764401 0.59096766 -0.28058344 0.65785336 -0.19040936
-0.006706568 0.040060867 0.03975227 -0.015635928 -1.0306389 0.4506603 -1.8225325 0.41972
-0.10818381 -0.015082463 -0.01327546 0.0019970348 0.027873917 0.0012935849 0.23148772 -0.021381153
0.041650835 0.08830357 1.3313861 2.1761727 -0.077557474 -0.038530033 -0.18809593 -0.05370291
-0.36203453 -0.39876598 -2.5251453 -3.5746906 0.025992788 -0.018684141 -0.1418651 -0.024352636
0.18364637 -0.004607645 -0.0806852 0.0021713353 0.12422817 -0.14025228 3.67286 -3.6460912
-0.0017168775 0.0027044972 -0.16158527 0.003824667 -0.041165344 0.00073164166 -0.037025042 -0.0064447327
-0.0066211056 0.02549843 -0.14351916 0.10269206 -0.04639079 0.04935425 -2.0227396 4.1820183
-0.3472411 0.0019062592 -0.15149288 0.005222611 -0.12593497 -0.007750993 -3.4769754 0.05750717
-0.1104291 -0.008586938 0.67188936 0.051420152 -0.24565946 -0.32383946 -0.43496647 0.06857703
0.016185144 0.0048267078 -0.3545902 0.1778794 0.3677881 0.16976601 2.1108332 1.3652041
0.10579663 0.004657372 0.18881752 -0.0012377563 0.0031411166 0.006033312 0.062390283 0.024491476
0.015793353 -0.021799248 2.7398903 -0.8144129 -0.23147371 -0.00034086657 0.05783464 -0.003063615
-0.0034247532 -0.03712335 -1.6366692 -1.5209534 -0.03738361 0.020310123 -1.6222417 0.65653425
0.173742 -0.0127272075 0.014169517 -0.005821914 0.0639265 0.0041687116 1.0373505 0.4671078
-0.09946423 -0.024870403 -1.4383034 -1.7314405 0.023302013 0.0031224415 0.056910377 -0.0022966748
0.05308084 0.0037318899 0.5440828 0.2595586 0.12545075 -0.008525573 3.011731 -0.0031111997
0.095838815 0.0062945816 0.0060547716 0.00048093038 -0.019992886 0.18487032 0.079982944 4.040034
-0.048139546 -0.20187077 -0.38040176 -3.6592412 0.21683948 -0.07898993 0.25738844 -0.096450135
0.0279361 -0.027239814 -0.5747509 0.6948901 -0.12948315 0.05837767 -1.5886955 -1.0098778
0.33425683 0.009918741 0.02610232 -0.01918594 0.09665145 -0.09459392 0.994011 -2.371449
0.029091632 0.066328876 -0.18521035 1.1642423 0.032718927 -0.0055610766 -0.06605193 0.0081473095
-0.025957791 0.09837297 -0.3906276 0.13586146 -0.05445738 -0.1575027 -1.9894137 -0.65443
0.058514215 0.0059356447 0.052870456 -0.0102300085 -0.011588181 -0.37755892 -0.0038217264 -2.704467
0.01827619 0.37104106 0.071053214 2.865731 0.08736188 0.006130992 -0.10333034 0.007853322
-0.007145117 -0.00080302486 -0.06583807 -0.0912005 0.056627303 -0.048367843 4.276235 -3.942985
-0.28359053 -0.004827792 0.14907481 0.010938961 -0.16432127 0.012960713 -0.71059215 -0.1463518
0.20913382 0.02519733 4.4161305 -0.072312176 -0.056075614 -0.005706935 -0.18707685 -0.008067017

critic.0.bias f4 [128]
00000000: ec1e 9b3d 0ffc 623d 7471 ca3b 444f 083f
00000010: 3a5d 97bd 4138 fabd 235a f73d ff18 82bd
00000020: f6bf 9bbd f3e3 99be f556 37bd 65c9 eebc
00000030: dc20 b63c 26f4 573c 0a47 8c3b 1559 7d3e
00000040: a662 b43d 104a 663c 9d03 79bd e30f 35bc
00000050: 5a3f 143c 0b90 943b 43ee 083c 0ec5 78be
00000060: 5c67 3fbf 4771 e23d b344 8ebd 3ef9 823f
00000070: a956 8d3d 20e1 173e b4e9 e93e edcd ce3c
00000080: 9a1a 1ebc 039f ea3c 184e 55bc 4339 7cbc
00000090: 7303 adbd 2018 c6bd 5043 e9bd bd78 80be
000000a0: 3e07 5d3d 90d8 4bbd 13b1 843d ce9c 60bc
000000b0: dc24 0dbe d888 93bd d83b ae3e b23f babc
000000c0: bd62 9bbc 4dfb 1a3c 2382 423c fc48 9c3d
000000d0: 8f51 c5bd 4bde d63d de2d 16bc d313 8ebd
000000e0: ed5b b43d 9c55 2c3d 8803 4aba d61b 753c
000000f0: f4b2 d2bd 8ba1 0abd 3f99 85bd 56aa d8bd
00000100: 29b1 19bc 8f1c 3e3e d6e4 b13d 5a77 633c
00000110: 25ff d2bc 5765 c3be 3b73 e4bc cc81 b03c
00000120: 2282 a93b 282e 53bd c800 c8bc d05f 3dbd
00000130: 8766 4bbd 90a2 ac3c d974 103e 00a3 3dbd
00000140: 2e28 abbc 7368 77bd 3b6b cf3d ccaa 9cbb
00000150: a7ad ba3d bc07 5b3d f237 88be 905a 8bbd
00000160: 3cb7 61be 0543 83bd 3922 e9bc a0ba 15bd
00000170: ca81 35bd 2703 0b3d 2442 a83d 9070 5bbd
00000180: c3cc 2fbd 5ebb 333f e0d1 863d 9f96 52bd
00000190: e557 53bd 41b5 1b3d 5a01 2cbe 42c4 83bd
000001a0: 80a2 03bf 9cb4 1abd 2e19 39bc df44 05be
000001b0: d626 e23c cce2 84bc 2f45 803e b07a 67bd
000001c0: f712 1c3c 8e02 8b3a 8d0c 91be 645f 9d3d
000001d0: 2a80 db3e ecd2 ac3d f779 593c 9b5f a53d
000001e0: c6b3 c73d ed31 83be a942 dfbd 5edb bbbd
000001f0: 90db 4f3d 7c69 003d df74 27be 1eb0 0d3e
0.07574257 0.055416163 0.0061780754 0.5324595 -0.073908284 -0.12217761 0.12077739 -0.06352424
-0.07604973 -0.30056724 -0.044760663 -0.029148767 0.022232465 0.013180768 0.0042809295 0.24741013
0.08807878 0.014055744 -0.06079446 -0.011051151 0.009048307 0.004533773 0.008357587 -0.2429392
-0.7476709 0.11056762 -0.06946697 1.0232313 0.06901295 0.14831972 0.45686114 0.025244677
-0.009649897 0.028640276 -0.013019107 -0.015394512 -0.084479235 -0.0967257 -0.11389792 -0.25092116
0.053961985 -0.049767077 0.06479087 -0.01370926 -0.13783592 -0.07203835 0.34030032 -0.02273545
-0.01896798 0.009459329 0.011871847 0.07631108 -0.09634697 0.10491618 -0.009166209 -0.06937375
0.08806596 0.04207383 -0.00077062147 0.01496025 -0.10288039 -0.033845466 -0.0652337 -0.10579364
-0.009380617 0.18565582 0.08686225 0.013883436 -0.025756428 -0.38163254 -0.027886977 0.021546267
0.0051729837 -0.05155769 -0.024414435 -0.046233952 -0.049658325 0.02107361 0.14107074 -0.046298027
-0.020893183 -0.060402345 0.101278745 -0.0047811028 0.09115153 0.053474173 -0.26605183 -0.06804383
-0.22042555 -0.06409267 -0.028458701 -0.036554933 -0.04431323 0.033938553 0.0821574 -0.053574145
-0.042919885 0.70207775 0.06582999 -0.051413175 -0.051597495 0.038014654 -0.1679739 -0.064339176
-0.5141983 -0.0377699 -0.011297507 -0.13014553 0.027606409 -0.016221426 0.25052783 -0.05651349
0.009526006 0.001060562 -0.28329888 0.0768421 0.4287122 0.08438668 0.013273708 0.08074876
0.09751086 -0.25624028 -0.10901386 -0.091727 0.0507465 0.031350598 -0.16353177 0.13836715

critic.2.weight f4 [64, 128]
00000000: 33b1 2d3d 4a5b fa3d 61a5 a63d 89aa 453d
00000010: 155f 3cbf 3fe0 95bd aec3 ac3e cf80 903e
00000020: ea52 553e 64cf b93c 970c 8abd 387a 843e
00000030: 710c 99be d894 113e f73c 4fbd ffb5 433e
00000040: abe8 173e 5a99 343e d147 f33d c351 8cbf
00000050: c148 e63d 55e0 15bc e732 06bf 5cee 213d
00000060: de57 22be 0909 263f 45d4 5abe c4bc 71bd
00000070: 2972 903e fd87 2cbd 1ed6 e93d 3063 023c
00000080: 9505 adbd 92d8 463e d761 f93e d81b d3bd
00000090: 1f64 adbe e82c da3d fc8a 94be 484c 85bd
000000a0: beff 80b9 18c6 2cbe 34f8 143f 724e 973c
000000b0: 06e3 0a3e 46b8 a13e 2a4d 35be 65f7 853d
000000c0: 6c15 41bd 5fd9 773d 2084 1c3e 6229 893c
000000d0: fa18 0e3d c9cb 7c3e df97 3d3e be4d 2cbe
000000e0: 8d2b 4fbc c929 fa3d ecab a8bd e22e 9ebe
000000f0: 0353 93bd d418 b3be 5e10 ca3d c31b 2bbd
00000100: aef1 9e3a 64d5 38bd b0b6 31bf 3893 65be
00000110: b6e6 acbe 9dc0 5e3e d02b 45be d6dd e53c
00000120: 0b13 e7bf 70f0 c73e 5fbc dcbc 8bb0 a03d
00000130: 13a1 29bf a22c b23d 28e5 b2bc fff3 473e
00000140: 9067 39bc fecb 56be 0f31 ee3d 8006 d03d
00000150: fc30 d7ba dcc4 323d dc61 80bd f04a 06be
00000160: 5b49 c7bd 9d3e 16be ad36 4b3e ec31 da3d
00000170: 2e8e 9fbe bfa0 01bf 3a41 67bd 7c13 753d
00000180: acf5 02bf b837 f43e f966 c13e 16d3 103e
00000190: 668a a1bd a5f8 913d bad5 93be 01ca a83e
000001a0: cab1 92be eab7 69be 72ec 8cbe 4254 a9be
000001b0: 22c0 973c 3185 0d3c cb9f d4bd 03f6 c7be
000001c0: 1d45 47bf c096 f1bd 5626 3b3e a7f2 3fbf
000001d0: 78b8 8a3e 2b4a 20bb 64e9 8cbe f23a f5bd
000001e0: 7d7f b4bd 90df f0bd 0959 6e3d edd3 a6bd
000001f0: 52a6 80be 372d 0dbf 28ec a03d 9792 9bbb
00000200: b1a2 0b3d ef1e bbbe 1e2e 513d ef5e 503f
00000210: 8008 b23f bd39 0c3d 8d8f ae3d ef6b b53e
00000220: bf54 54bd 1ea8 0c3e 2304 bdbd 44e5 a33e
00000230: 4ee3 89be afef 2b3f 42f9 d3be 6c95 babe
00000240: b4a1 993e 5a57 323d 1adc bebd ff2a c03f
00000250: 4866 f6bd 1e46 ef3c 1a5b 973f 8da6 bfbd
00000260: d476 62be bd63 4a3f f226 c6bc 3c9d 11bf
00000270: 228d a23e db6e 79be 94f8 a63d 7955 e1be
00000280: 4028 003f 4020 1ebe b29e 053e 1c88 873e
00000290: 4d32 7dbf 4380 b3be a7f5 1a3f f877 e9bd
000002a0: f844 993d 359b 1d3e eb3a 84bf 68db 063e
000002b0: 0da7 a53d 1a71 9dbe b3b8 26be 531a c6bc
000002c0: ace2 833c b26c 0fbe ee46 d0bd b276 86bb
000002d0: be20 7e3e c7ab 46bf 15a1 153e 9937 17be
000002e0: bde4 1abd c4f3 edbe f8b4 423e 1fac 863e
000002f0: d3fd 6e3d 04ad a73d e241 27bd ea46 bfbe
00000300: 64b3 e83c ab1b 1bbd 639f e2bb c3cc 903d
00000310: 9cc7 2fbf ae9b b6be 8df8 043d cbb1 e13d
00000320: 007a 453e 7c69 5b3e d872 c3bc e245 0a3e
00000330: 9541 bf3f 33e8 943e d647 20bd 1a8f 44be
00000340: 7864 09be 0d53 abbe c03e e5be 3f3a babd
00000350: 5b95 323a b3fa 363e 580c 873e a4f3 49be
00000360: cc26 81bc 480d 2fbd ddfc bebf 560e 6abf
00000370: aaa9 5e3e dbc3 12bf 2931 f5be 3b50 e2be
00000380: f739 4bbe 60cc 783f 538f d5bf a57d 9c3d
00000390: 919f b03c 80d5 393d 6a11 803e 4b6b c1be
000003a0: 161a bc3c f992 0d3f fd65 87be 8d22 9fbf
000003b0: bb7b 33be 3868 05be 9449 103e 7e3e 4b3f
000003c0: e098 ac3d 4592 803f 4f8e ac3c 950e 81bd
000003d0: 9c0c e1be 4cc9 bcbe d67b 543f fa34 61bd
000003e0: a88d d4bb 0c7d 1b3e 6ad6 05be 0c59 d5be
000003f0: b5da c13f 6526 063b 1409 8d3c b265 bf3c
0.04240532 0.12224443 0.08137012 0.048258338 -0.73582584 -0.07318162 0.33743042 0.28223273
0.2083241 0.0226819 -0.067406826 0.25874496 -0.29892305 0.14216936 -0.05059525 0.19112395
0.1483485 0.17636624 0.11878932 -1.0962452 0.112443455 -0.009147723 -0.5242142 0.039533958
-0.15853831 0.64857537 -0.21370037 -0.05901791 0.28212097 -0.042121876 0.11417793 0.007958218
-0.0844833 0.19418553 0.48707458 -0.10308045 -0.3386545 0.106530964 -0.29012287 -0.0650869
-0.00024604605 -0.16872442 0.5819123 0.018470023 0.13563165 0.31585902 -0.17705217 0.065413274
-0.04713957 0.060510036 0.15284777 0.016743366 0.03469179 0.24687113 0.18514965 -0.16826531
-0.012644661 0.12215001 -0.082359165 -0.30895144 -0.071935676 -0.3497988 0.09866403 -0.041774523
0.001212647 -0.04512538 -0.69419384 -0.22419441 -0.33769768 0.21753164 -0.19254994 0.028059881
-1.8052686 0.39050627 -0.026945291 0.07846173 -0.66261405 0.08699919 -0.021837786 0.19526671
-0.011316195 -0.20976254 0.11630451 0.1015749 -0.0016417797 0.04364477 -0.06268665 -0.13114524
-0.09730788 -0.14672323 0.19845076 0.10654053 -0.31163162 -0.50635904 -0.05645869 0.059833035
-0.51156116 0.4769876 0.37773874 0.14143023 -0.078877255 0.07127503 -0.28873998 0.32966617
-0.28651267 -0.22824064 -0.27524143 -0.33072096 0.018524233 0.008637712 -0.103820406 -0.3905488
-0.77839833 -0.117963314 0.18276343 -0.74979633 0.27093863 -0.002445827 -0.27521813 -0.119741336
-0.08813379 -0.11761391 0.05819038 -0.081458904 -0.25126892 -0.5514712 0.07857543 -0.0047476995
0.0340907 -0.36547038 0.05106937 0.8139486 1.3908844 0.03423475 0.08523474 0.3543391
-0.051838633 0.13736007 -0.09229305 0.32010853 -0.26931232 0.67162603 -0.41401106 -0.36442125
0.30006182 0.043540336 -0.09319325 1.5013121 -0.12031227 0.02920824 1.1824677 -0.09357939
-0.22115642 0.7905844 -0.024188492 -0.56880546 0.317483 -0.24358694 0.08152881 -0.44010523
0.50061417 -0.1544199 0.13048819 0.2647103 -0.9890488 -0.35058793 0.60531086 -0.11399835
0.07483858 0.15391238 -1.033048 0.13169634 0.08088503 -0.30750352 -0.16281395 -0.024182474
0.016099297 -0.14006308 -0.10169779 -0.004103505 0.24817178 -0.7760586 0.14612229 -0.14767303
-0.037815798 -0.4647504 0.19014347 0.26303193 0.058347534 0.08187297 -0.040834315 -0.3735879
0.028405853 -0.037868183 -0.006915973 0.07070305 -0.68663955 -0.3566565 0.0324636 0.110202394
0.1928482 0.21426958 -0.023858473 0.1350322 1.4941889 0.29083404 -0.039131008 -0.19195214
-0.13417232 -0.334618 -0.44774437 -0.09093141 0.0006812417 0.17869072 0.26376605 -0.19721848
-0.01576557 -0.042737275 -1.4920918 -0.91428125 0.21744409 -0.573301 -0.4788907 -0.44201836
-0.1984633 0.9718685 -1.6684364 0.07641152 0.021560462 0.045369625 0.25013286 -0.3777717
0.022961657 0.5530239 -0.26444998 -1.2432419 -0.17527668 -0.13028038 0.14090568 0.7939223
0.08427596 1.0044638 0.021063952 -0.063016094 -0.43954933 -0.36872327 0.8300146 -0.054982163
-0.0064866133 0.1518442 -0.13070074 -0.416695 1.5144869 0.0020469662 0.017216243 0.023363922

critic.2.bias f4 [64]
00000000: 0d1a 923e e1f6 8f3e 74bd ccbd 5afe 5b3e
00000010: c5fa 303d f8f7 4a3e 7d38 00be 2110 183e
00000020: 426d b33e af10 3fbc a9b1 663f 8e2a 823d
00000030: b091 d43e c628 af3e dd79 863e 4da2 c9bd
00000040: 425e 95be 87df 283d 910b 6dbe 3a52 eabe
00000050: fa72 c0bc 2bbc 8f3e e535 283f 0e25 04be
00000060: 61b4 cc3d d014 d2be c41a 05be 0916 46be
00000070: 2a1a 67be fa28 973d 6571 093e 8aa2 94bd
00000080: f7c1 983e 9eaa 283e 6c43 8a3e 4719 42be
00000090: 92c2 fb3e cc73 89bd 0cc5 073e d9bb 39bf
000000a0: 08d1 9fbe 48df c8be 0b2e a33e f644 9ebe
000000b0: a677 9f3e aa77 bebe d135 95be b8f9 46be
000000c0: 1916 72bf 857f 0abd f928 55bd 721c 623f
000000d0: 6a70 5d3e 18c2 183e a727 493c 2065 89be
000000e0: 4fa9 1bbf a0e3 87bf b235 9fbd 553e 5dbe
000000f0: 0561 933e e4f8 233f dd00 eb3c 8a35 2bbe
0.285355 0.2811804 -0.09997073 0.21483746 0.043207902 0.19821155 -0.12521549 0.14849903
0.35044295 -0.0116616925 0.9011484 0.06355773 0.415174 0.34210795 0.2626485 -0.098454095
-0.29173476 0.041228797 -0.23148943 -0.4576586 -0.023492325 0.28073248 0.65707237 -0.1290476
0.09995342 -0.41031504 -0.12998492 -0.19344343 -0.22568575 0.073808625 0.13422163 -0.07257564
0.29835483 0.16471335 0.27004564 -0.18954955 0.49171883 -0.067115396 0.13258761 -0.7255226
-0.31214166 -0.3923285 0.31871065 -0.30911988 0.31145972 -0.3720067 -0.2914262 -0.19431198
-0.9456497 -0.03381302 -0.052041028 0.88324654 0.21624914 0.14917791 0.01227752 -0.26834965
-0.6080522 -1.0616341 -0.077739134 -0.21605809 0.28784958 0.6405165 0.028686935 -0.16719642

critic.4.weight f4 [1, 64]
00000000: 0b9e 393e e884 0f3e 6366 203f b6cc 26bf
00000010: b23a f63e c3bc f53d 6819 8dbe 846d 52be
00000020: d8a6 723e 9411 05bf 287a 313f 695e cc3e
00000030: af7d 493e 1c8a 3dbe 8d06 603e 18e4 833e
00000040: 3fa1 80be b26e 8fbe 6b1b 94be a355 8fbe
00000050: bce4 9e3e 737c 7e3e a845 393e 831a 2bbe
00000060: 42f0 363e 5280 59be 748b 573e d27d 30be
00000070: e917 9abe f7dd bf3e e1f3 b73e 0273 04be
00000080: f224 193e 75af 5c3e bd2d 8a3e 1a08 ffbd
00000090: 9f3e 263f 1009 bbbe 6aba a13e bc3d f8bf
000000a0: fdea 00be aab7 22be eb2c 55be 9ccc 7bbe
000000b0: ba54 67be 550d 3cbe 15ce 9fbe d540 98bf
000000c0: 2878 f6be 65a9 acbe 88fb fe3e ce94 3a3f
000000d0: c839 af3e ea6c 493e 1ece bc3e 386d 46be
000000e0: 597c ddbf 058a 11bf 2ea6 c0bf 8aad 27be
000000f0: 3323 2e3e 66a7 0440 46f0 0e3e 1e03 1dbf
0.18126695 0.14015543 0.6265623 -0.65156114 0.48091656 0.11998894 -0.27558446 -0.2054959
0.23696458 -0.5197995 0.6932702 0.3991578 0.1967685 -0.18509716 0.21877499 0.2575996
-0.2512302 -0.2801414 -0.28927168 -0.27995023 0.31033885 0.24852161 0.18092978 -0.16709332
0.17865089 -0.21240357 0.21049291 -0.17235497 -0.30096367 0.37474033 0.35928252 -0.12934497
0.149555 0.21551307 0.2698802 -0.12452717 0.649393 -0.36530352 0.31587535 -1.939384
-0.12589641 -0.15890375 -0.20817916 -0.24589771 -0.22590914 -0.18364461 -0.31211916 -1.1894785
-0.48138547 -0.33722988 0.49801278 0.7288331 0.3422377 0.19670454 0.36876005 -0.19377601
-1.7303573 -0.56851226 -1.5050714 -0.16374794 0.17005615 2.0727172 0.13958845 -0.6133288

actor.0.weight f4 [128, 16]
00000000: 9e4b 963d 3d10 c9be 44a6 d23e 5c72 0d3f
00000010: 74e0 4bbf 429a bf3f e3db e0bd 64a9 11be
00000020: ac91 77bf 9afe 44bf c3fd 0b3f b5f2 9abe
00000030: a03a e6bd 9a05 2e3e a9bd 00be 0970 1cbe
00000040: bf8f 953e 3e0a 4e3b b59b 2a3d 65c9 2bbd
00000050: ff35 e33d bd66 9cbf ae3d aa3b d4ae 063e
00000060: aaae 94bf 80ac d53f 94b4 1a3f 310f e23e
00000070: c46a 2dbf a96c 073d 5039 4cbd 3dcc 5f3e
00000080: fc34 ab3e 5df7 cabe d0b7 f53d 1017 a53d
00000090: d416 813e 16d8 c53f 865f 05be d6f2 143e
000000a0: 2ef8 b2bf b49e 183f b0b4 273c 88fd 7ebe
000000b0: a845 4d3f 2383 1b3f d4a0 493c 69a6 3cbe
000000c0: 1774 b13e 3038 9d3e 1554 5dbc 462f b1be
000000d0: 40c6 f0bf dfe4 dabf f114 1bbc 27c6 e2bc
000000e0: df75 30be 8871 95bd 10f8 6c3e 4fda 383d
000000f0: 215f 1f3e 05f8 a53e 5827 db3d 001f 083d
00000100: cd5a ecbd fc5a 1e3d a9b3 08bd b8dc 82bc
00000110: 9b7c 00be 5df2 133e 1a8a 873e 0821 163e
00000120: 10a4 5740 7095 02be 8b2f 063d 845c 18bd
00000130: b4b9 10be 7b08 c8bd c5e5 4bbe c351 2ebd
00000140: 00ca 873e 428f 01be 6579 c73e 21c0 1bbf
00000150: fa8d eebe 30e2 8f3e ebe0 d33e b913 94be
00000160: 39c1 dbbe d963 983f ddfd 9fbe ea4e f7bd
00000170: 1be6 f33e 2e11 9a3e 99c6 2dbe f079 c53d
00000180: 3dfa 223d 8170 46be 9a7a 9c3d 9d74 b1be
00000190: 1188 913e cd64 1bbf 3c28 7b3e 6101 423f
000001a0: 3fe9 86bc c809 a53f 0f48 3cbe c4a6 ca3d
000001b0: 4f38 a9be 5e43 79bd a302 523d 6f32 9d3d
000001c0: 07a2 87bc 9d63 933d ad47 80be 7979 4ebe
000001d0: 6e92 a1bd d46f b2bc 4f33 383f 0e8a 91bd
000001e0: 1f2b 7c3f 929d e2bc 18f9 a13f 7610 f7be
000001f0: 8d04 7cbf 472a e0be da88 e4be 9597 453f
00000200: 57ec 033e c8c4 2abe ae3d d73e 320a 9dbe
00000210: b281 94bf b189 7f3f 2eb0 9dbc 1816 a53d
00000220: 64e6 23be 8522 4e3f 3202 aebe 94d3 333d
00000230: 8df8 303f 32ea cd3e 2445 0d3f ed47 bebe
00000240: 7912 ad3d a2a0 c6be 2374 cdbe 12ff be3e
00000250: c624 5dbf 5426 553f 297c 593e f8af 313d
00000260: 3b04 af3f 2b2b 983f cf81 88be 6a2d fbbe
00000270: ed6f 0a3f 4a20 38bd 5b22 323e 49d6 ef3b
00000280: bb9d acbc 66cf b63d 5e9b 323d 5cfe 8fbe
00000290: 7ba2 043d a0eb 26c0 08a7 083d e08c 21bd
000002a0: e35f 023f 516c 293d aa58 1a3d b98a 0b3f
000002b0: 43a3 25be 7818 dbbd eaa4 a5be b0bb 0d3e
000002c0: bd2c 0e3e 7c73 1d3f 2398 74be bd73 9fbe
000002d0: 4c5d f7be d4c1 f03e bff8 08bf 5894 fb3c
000002e0: 6285 cf3e 56e0 64bf 980d 2c3f d7d0 90be
000002f0: 6be4 d5be 1b97 433d 2f7d a1be 496b 923e
00000300: 949c bcbe de56 323f f841 dd3e 90c7 37bf
00000310: 05ac 463f 2c53 7fbf 656c 503d 2425 39bc
00000320: 5c42 78bd b91d a4bd ee66 893d b317 cfbc
00000330: 015b 52be c567 96ba c591 f9bd 346f ebbd
00000340: 787c 943d 1fbe babe f635 bfbe 5ddf 033f
00000350: 865b 543f 0447 cdbf 3cc9 393d e013 c9bc
00000360: 0c20 3a3f 86f5 46bf 3a0f 49bf cea8 8cbe
00000370: 8d9f fd3e 40c1 8ebe b195 7bbd 2c64 2cbb
00000380: f297 f0bd bbc0 21bf 289a 973d 5edc d2bd
00000390: f166 483f bbdd 63bf 009e 65be 4149 383f
000003a0: 4a0c c7be 856c 8b3d c116 77be dda2 89be
000003b0: 34a4 413d 55a2 53bc 60ec 77bc 99c2 5c3d
000003c0: 9e25 d53e a3ca 2dbd a0ac f73e 9246 163b
000003d0: 3143 76bf 8904 df3e 2370 033f 474e 933e
000003e0: 180b 77be 55f4 11bf bfdd e93d 428e 1a3f
000003f0: bc1c 91be be01 18bf 3a34 243d 1d86 5e3f
0.073386416 -0.392702 0.41142476 0.55252624 -0.79639363 1.4968951 -0.1097944 -0.14224774
-0.9670665 -0.7695099 0.54684085 -0.30263296 -0.112416506 0.16994324 -0.1257235 -0.15277113
0.29211232 0.003143921 0.0416524 -0.04194011 0.11094283 -1.2218853 0.005195341 0.13152629
-1.1615803 1.6693268 0.6043179 0.44152215 -0.67741036 0.03306261 -0.049859345 0.21855254
0.3343886 -0.39641848 0.1199795 0.080610394 0.2521273 1.5456569 -0.1302472 0.1454576
-1.3981988 0.5961716 0.01023595 -0.24901402 0.8018441 0.60746974 0.012306411 -0.18422855
0.34658882 0.3070693 -0.013508816 -0.3460638 -1.8810501 -1.7101096 -0.009465442 -0.027682377
-0.17232464 -0.07297045 0.23141503 0.04513007 0.15563633 0.32415786 0.107008636 0.03323269
-0.115407564 0.03866099 -0.033374462 -0.015974388 -0.12547533 0.14447923 0.2647255 0.14661038
3.3693886 -0.12752318 0.032760184 -0.037197605 -0.1413334 -0.097672425 -0.19911869 -0.042558443
0.265213 -0.12652305 0.38959804 -0.6084004 -0.46592695 0.28102255 0.41382536 -0.28921297
-0.42920855 1.1905471 -0.3124837 -0.120755985 0.47636494 0.30091232 -0.1697029 0.09642398
0.039789427 -0.19378854 0.07640572 -0.3465928 0.28424123 -0.60700685 0.24527067 0.75783354
-0.016468642 1.289361 -0.18386863 0.09895089 -0.33050773 -0.060855262 0.051272046 0.07675635
-0.016556753 0.07196734 -0.25054684 -0.20163526 -0.07889257 -0.02178184 0.7195329 -0.0710641
0.985033 -0.027663026 1.2654142 -0.48254746 -0.98444444 -0.43782255 -0.4463566 0.7718442
0.12883125 -0.16676629 0.42039245 -0.3067184 -1.160208 0.99819475 -0.019249048 0.08060855
-0.16005856 0.8052142 -0.3398605 0.04390295 0.6912926 0.4021774 0.55183625 -0.3716425
0.08450789 -0.38794428 -0.40127668 0.37303978 -0.86384237 0.8326161 0.2123877 0.043380708
1.3673166 1.1888174 -0.26661536 -0.49058086 0.54077035 -0.04495267 0.17395918 0.007319246
-0.021071305 0.08926277 0.0436052 -0.28123748 0.032381516 -2.6081314 0.03336242 -0.03944099
0.5092756 0.041363064 0.037682213 0.5450855 -0.1617556 -0.106980264 -0.32352382 0.13841128
0.13884254 0.6150434 -0.2388616 -0.3114299 -0.48313367 0.4702288 -0.53504556 0.030710384
0.4053145 -0.8940481 0.6720824 -0.28284332 -0.41775832 0.047751527 -0.3154082 0.28597477
-0.3683821 0.696638 0.43214393 -0.71788883 0.7760623 -0.99736285 0.050884623 -0.011300359
-0.06061016 -0.08013482 0.067090854 -0.025279855 -0.20542528 -0.0011475018 -0.121860065 -0.1149582
0.07250303 -0.36473176 -0.37345856 0.515127 0.82952154 -1.6037297 0.045357928 -0.02454561
0.7270515 -0.7771839 -0.7853886 -0.27472538 0.4953579 -0.27881813 -0.061422054 -0.0026304824
-0.11747731 -0.6318471 0.0740245 -0.10295938 0.78282076 -0.8901021 -0.22423553 0.71986777
-0.38876563 0.06807808 -0.24129774 -0.26882067 0.047275737 -0.012917121 -0.01513204 0.05389652
0.41630262 -0.042429578 0.4837389 0.0022930247 -0.96196276 0.43558148 0.5134298 0.28770658
-0.24125326 -0.57013446 0.11419248 0.6037332 -0.28342235 -0.5937766 0.04008887 0.8692339

actor.0.bias f4 [128]
00000000: 409a 0ebe bfcc 8f3d d673 a13e 0a58 673e
00000010: a1de 3cbd 6362 9e3d ca62 423d 45cb 2abe
00000020: 0e0b e63d 5fe8 db3d bf5d ae3c 1888 e53d
00000030: 5cac 59be eb0f 89bd a0d3 07be eb96 653e
00000040: 5734 483e 4e6a 0cba 3fba 973e c0e7 8f3e
00000050: d35f adbd 270b e53e f380 63be 0ae9 6b3e
00000060: b5b6 98be 38ce 50be 4690 f13c 04b1 b7bd
00000070: fa0a 463d 2295 453e 4120 cabd 23ba 5d3d
00000080: 3815 bb3c 2c63 c4bd 3652 16be 9de0 353d
00000090: 2fc1 9a3e f2ad adbe 4e73 8fbe e432 f53d
000000a0: 3147 4ebd 2314 083c 0a32 00bd bd14 013f
000000b0: b687 c7be 4407 ea3e f5a7 8ebc 359b 5a3d
000000c0: ef73 f93d 2c4c 73be 1011 5e3d 61d5 383e
000000d0: 00da 073f 3a11 003e ffc3 b83d a470 ed3d
000000e0: 1b03 393d 51a1 ef3c 12f8 bc3d 8a09 283e
000000f0: 98e4 77be 5bb2 3ebe fca6 983e f20c d23d
00000100: ceda eebd 628f 293e 9730 e9be c0dc 3b3d
00000110: 7d32 c5be 9971 a43e 0c24 28be 9458 b8bd
00000120: 8d7c e73d d4de 5fbc 1b46 c33d a755 b13c
00000130: 70f5 5cbc 1e14 b93d 81a8 acbe 481b 073e
00000140: 5d35 6f3e c893 89be 7aad 7bbe daa3 88be
00000150: f83e 4c3e d74b 373e 6931 94bd 2be2 fdba
00000160: 017e 7c3e d8c7 f43c a8ce 0bbe 6a74 30bd
00000170: 23b6 eabd 6b3c bf3d fbc8 90bd ceb5 cf3d
00000180: f2bb adbe 5362 083b 14e8 09be 95b1 59bd
00000190: c385 0fbe e7ef 27be cb62 4bbd b9ed 8ebb
000001a0: c5a1 5e3e 4ae9 dd3c 8096 7cbe 6b08 abbe
000001b0: ef8c 0abd 06a3 ec3d ddd2 9abe dbb9 c2be
000001c0: 4d0b 5dbd 609a 913e 9402 da3d 4678 36bd
000001d0: 5536 a3bd 70b2 ddbc e469 493e 7b2e 843d
000001e0: a421 08bf 59b1 e0bb 13aa 50be 4e7e 133e
000001f0: fc96 95bc 4749 b4bd 449d 8a3d 7615 a33d
-0.13926029 0.07021474 0.31533688 0.22592178 -0.046110753 0.077336095 0.047457494 -0.16679104
0.11232577 0.10737681 0.021284936 0.112075984 -0.21257156 -0.06692489 -0.13264322 0.22420852
0.19551216 -0.0005356417 0.29634282 0.281065 -0.08465543 0.4473507 -0.22217159 0.23038116
-0.29826894 -0.20391166 0.02948774 -0.0896931 0.04835031 0.19295171 -0.09869433 0.054132592
0.022837266 -0.09589228 -0.14679798 0.04440366 0.30225512 -0.33921772 -0.28017658 0.11972597
-0.050360862 0.008305582 -0.03129772 0.5042227 -0.38970727 0.45708668 -0.017414073 0.053370673
0.12180316 -0.23759526 0.05421549 0.18050148 0.53067017 0.12506571 0.09021758 0.1159375
0.045168977 0.029251726 0.09227003 0.16409889 -0.24208295 -0.18622725 0.298149 0.10256375
-0.116628274 0.16558602 -0.45544884 0.04586482 -0.38515082 0.32117918 -0.16420001 -0.0900127
0.11303053 -0.013663966 0.09534856 0.021647288 -0.013486251 0.0903704 -0.33722308 0.13194
0.233602 -0.2687056 -0.24577895 -0.2668751 0.19945896 0.17900024 -0.07235987 -0.0019369771
0.24657442 0.02988045 -0.13653052 -0.04307977 -0.11460521 0.09337696 -0.07069584 0.10142098
-0.33932453 0.002081056 -0.13467437 -0.05314787 -0.1401587 -0.16400109 -0.049654763 -0.004361835
0.21741398 0.02708878 -0.24666786 -0.3340486 -0.03382581 0.11554532 -0.30239 -0.3803242
-0.053965855 0.2843809 0.10645023 -0.044548295 -0.079693474 -0.027062625 0.196693 0.06454178
-0.5317633 -0.006857079 -0.20377378 0.1440365 -0.018260472 -0.08803039 0.06768277 0.07963078

actor.2.weight f4 [64, 128]
00000000: c4b1 2abe e3a5 c53d 04f2 503e cff6 383f
00000010: 1f1f 283e f655 ff3e 746d 193f 13dc 363e
00000020: a396 a9bc 7e38 27bf 19a8 08be e390 bb3e
00000030: 5641 eabd bf9e 22bf 34b6 90be 2c1a e23e
00000040: 5bdb 083f fe69 233f a4ee 0c3e 8266 293f
00000050: 4b1b 33bf 1b56 bd3e 8935 aa3e 2dfc 453f
00000060: 5e36 0fbf 2428 3dbe e7e5 f03e af7e 893e
00000070: d7b7 fc3d d62e 8a3e ad4c 953d 811c d33e
00000080: 516a 623e f5fe 03bd 99ca 893d ca8d 9a3e
00000090: ba0c 423f 81e2 5ebe 23a8 8bbe b405 d03d
000000a0: 6f17 de3e c46a 453e 785d 0fbe ddb7 7b3e
000000b0: cc3e 81be c18e 47be c411 7fbe f935 053f
000000c0: d317 a73d e79c 013e 984d bbbe 1976 24be
000000d0: db42 003e 5dd7 5f3e 763e 52be caf9 ae3e
000000e0: ec7b ffbe e444 20be d8e7 6fbd f8f3 9b3d
000000f0: 6a22 aabe 652d ffbe cbac 40bf 248e 513e
00000100: fbea 6f3e fed7 99be 499e 3cbf ed27 2d3f
00000110: 5539 a9bf b182 98be 110b 58be 9dac 0dbf
00000120: 48f7 99ba c70e 0ebf 77d9 61bd 4010 c83d
00000130: d69b 253e a8a8 ea3e a802 ee3e 97c4 e33d
00000140: 2411 073d 3daa f9bd b9a0 44be 796b 1e3e
00000150: 228f 973f 3136 2f3e 936d f1be cc59 a03d
00000160: 1a9f ebbd f882 443e edb6 943e e6a7 d23b
00000170: 2429 2bbe 8a4b 77bd 32d5 70be d5a1 94be
00000180: 0143 033f c1a0 a33d 92c5 14bf 036e 8a3c
00000190: 7ed4 cabd b45d 9d3c fd63 a6be e75b 3abd
000001a0: 9dc7 3bbd 8f27 10bf 0613 96bd 5ce0 11bf
000001b0: ebf6 cabe e3ea 3c3e 3850 1f3c e0cf b23e
000001c0: 9554 e5be 3f5f 983d 8830 b53e dd16 053f
000001d0: 4f87 1e3f 6e25 b5be 2d34 ec3e eaf9 a63e
000001e0: 06ca 263e f90a 31be c236 18bc 8bd4 80bd
000001f0: cda0 e63d d93e 21be e274 1bbf 1f87 cbbd
00000200: 8dcb 14bf a120 99be a5b7 1ebf 0197 00bd
00000210: 7ead ea3d d5a6 e93e 6704 343e b892 833e
00000220: bb27 753d cb53 a13e f89f 643e 093f 653e
00000230: 241d aa3d f898 203e f731 043f 3c88 ad3e
00000240: 1fcf 6f3f 60d1 1bbe 7995 c13c 42d4 bbbd
00000250: 7e00 1ebf 5299 953e 4c75 89be 66ae 973e
00000260: 924e 193e a36f 1ebf 2aad 013f b37d bd3d
00000270: c344 4bbc 8013 3f3e a0a3 27be 16d1 133f
00000280: 4ea2 cebe abdd 933e e43b e4bc 89bc 1ebe
00000290: d33f 0b3f 475d a8bd afbc 033f d869 c6be
000002a0: 76e5 b33e 3c5e 903e 7391 80be 43dc ee3e
000002b0: ee03 a1bd bb86 8b3d 07cb 1f3f 0343 d8bc
000002c0: 8235 b13d 19c0 703e cc25 723d b206 dbbb
000002d0: db70 0abc fa47 afbd e69e f9be 69fe 2b3e
000002e0: 9c6d 86bd 35ff 97be 4d3b 8dbd cece 12bf
000002f0: 6c6a f53e 6737 aa3d 4352 a7be 8e97 20be
00000300: a94c adbe ec8e 82be 9979 5d3e d3f2 2a3f
00000310: 8b1f 6fbf d147 84be 9104 b8bf 7a80 84be
00000320: 2130 383e 1248 ed3e b4f9 25bf c7be 0b3e
00000330: 8f19 c3be ee71 333e 0b3e 0b3e 9764 413e
00000340: 5b03 04be 95cf 553e 295f 39bd a20e 56be
00000350: 1cb6 413f 633e 133e 66b8 b0be 4ef3 66be
00000360: ddfc a9ba cf29 33bf e6fb 44bf 3bc6 2e3e
00000370: d984 29be 5cd8 85be 4c87 b7be 8a22 91be
00000380: b5a0 1c3e de6e c9be bab0 febe f78b 94bd
00000390: 847c a7be 9e7a 01bf 42f8 81be be29 1abf
000003a0: b349 2f3e b6cc 0cbe b4f5 0a3f 4e19 44be
000003b0: ca94 12bf ef98 a33e 51a7 5a3d f930 d4bd
000003c0: 13fe 19be 5237 d2be 2499 013f d081 32bd
000003d0: 7025 3d3e 47aa c43e 2ac6 783f 70ca 833e
000003e0: 5305 81be c4d0 59be 7370 0ebd 6d55 c43e
000003f0: 6523 84be f974 45bf e624 babc d6c5 0abd
-0.16669375 0.09650781 0.20404822 0.722516 0.16418122 0.4987027 0.5993264 0.17857389
-0.020701712 -0.65320575 -0.13345374 0.36633977 -0.11438243 -0.6352348 -0.2826401 0.44160593
0.5345971 0.63833606 0.13762909 0.6617204 -0.6996352 0.36979756 0.3324397 0.77337915
-0.5594233 -0.18472344 0.47050402 0.26854464 0.12339752 0.26988858 0.07290015 0.41232684
0.22110869 -0.032225568 0.067280956 0.301863 0.7580067 -0.21766092 -0.27276716 0.10157338
0.43377253 0.19279009 -0.14000499 0.24581857 -0.25243223 -0.1948805 -0.24909121 0.5203548
0.08158841 0.1265751 -0.36582637 -0.16060676 0.12525503 0.21859498 -0.2053164 0.3417495
-0.49899232 -0.1565128 -0.058570713 0.07614893 -0.3322938 -0.4983932 -0.7526366 0.20464379
0.23429482 -0.300476 -0.73679024 0.67639047 -1.3220621 -0.2978721 -0.21097971 -0.5534151
-0.0011746669 -0.554913 -0.05513903 0.097687244 0.16172728 0.458318 0.46486402 0.11121481
0.03297533 -0.121906735 -0.19201936 0.15470685 1.1840556 0.17110516 -0.4715391 0.078296274
-0.115049556 0.19190586 0.2904581 0.0064287065 -0.16714913 -0.060374774 -0.23518828 -0.29029718
0.51274115 0.07989646 -0.5811397 0.01689816 -0.09903811 0.01920972 -0.3249816 -0.0454978
-0.045844663 -0.5631036 -0.07327847 -0.5698297 -0.39641508 0.18448977 0.0097237155 0.3492422
-0.44791093 0.07440042 0.3538859 0.5198801 0.61925215 -0.3538012 0.46133557 0.32612544
0.16288003 -0.17289342 -0.009290399 -0.06290539 0.11261139 -0.1574663 -0.60725224 -0.09937882
-0.58123094 -0.29907706 -0.6199897 -0.03139401 0.11458872 0.45635095 0.17579804 0.25697875
0.059852343 0.3150924 0.22326648 0.22387327 0.083063394 0.15683353 0.5163874 0.33893
0.93675417 -0.15216589 0.023630844 -0.09171344 -0.617195 0.29218537 -0.26847303 0.29625243
0.14971378 -0.61889094 0.5065485 0.09252491 -0.012406531 0.18659782 -0.16371012 0.57740915
-0.40358204 0.28880057 -0.02786059 -0.15501608 0.54394263 -0.08220916 0.51459783 -0.38752627
0.35136002 0.28196895 -0.2511097 0.4665242 -0.07862078 0.06812807 0.6241917 -0.026399141
0.08652784 0.2351078 0.059118077 -0.0066841478 -0.008449758 -0.0855865 -0.48754042 0.16796269
-0.06563875 -0.29686895 -0.06896076 -0.5734681 0.47932756 0.083113484 -0.32679948 -0.15682814
-0.3384755 -0.25499666 0.21628417 0.6677677 -0.93407506 -0.25836042 -1.4376394 -0.2587927
0.1798711 0.46344048 -0.6483414 0.13646995 -0.38105437 0.1752393 0.13597886 0.18886028
-0.12891905 0.20879968 -0.045256767 -0.2090402 0.756685 0.14379267 -0.34515685 -0.22553751
-0.0012969036 -0.6998567 -0.76946867 0.17067806 -0.16554584 -0.26141632 -0.3584541 -0.28346664
0.1529568 -0.39342397 -0.49744207 -0.07253259 -0.32712185 -0.50577724 -0.25384718 -0.60219944
0.17117958 -0.13749966 0.54281163 -0.19150278 -0.57258284 0.31952617 0.05338222 -0.10360903
-0.15038328 -0.4105783 0.506243 -0.04358083 0.18471313 0.3841116 0.97177374 0.25740385
-0.25199375 -0.21271044 -0.03477521 0.38346425 -0.25808254 -0.7713161 -0.022722673 -0.033880077

actor.2.bias f4 [64]
00000000: 3499 973e a671 273d 41ff 57be a2ec b3bd
00000010: 129f 033e 400c 7ebd 9904 113e c014 213f
00000020: 4c8e 343e 9880 483e d405 d9be eea3 963e
00000030: 6586 eabd 9937 8bbe 74b2 b73e cdc5 dbbe
00000040: ddd7 273e 45d5 433e 0a81 c93d 76c8 74be
00000050: 40c0 bb3e d320 00be 3878 633d 7268 b43e
00000060: d412 34bd e58d 51be 4d96 863e a8d9 8ebe
00000070: d8ab 563e e74f 9bbe 96e6 01bf 1381 c7bc
00000080: dd74 d83e aeed c7bd 5d7f ecbd 50a0 2f3e
00000090: 32aa ffbd 2c67 8fbe ac4e b2bc 9cdb eabd
000000a0: 8e6e 8a3d 2c53 89be cf10 b2be 6bf0 323e
000000b0: 7a84 b5be 5448 c83d 11ec cabd 2a1c 033f
000000c0: 1b25 ccbe 065c e53d abff fabe a9da 933d
000000d0: 890d 143e 0852 43be b0b6 ddbb a833 093d
000000e0: e601 6bbe bb72 f73e abb1 ecbe d2f5 dabe
000000f0: 9661 89bd 52c1 113c 8ca1 d33d 4763 51bc
0.29609072 0.040879868 -0.21093465 -0.087853685 0.1285365 -0.0620234 0.1416191 0.62922287
0.17632407 0.19580305 -0.4238726 0.29421943 -0.11451415 -0.27190855 0.35878336 -0.42924348
0.16390939 0.19124325 0.098390654 -0.23904595 0.36670113 -0.12512521 0.05553457 0.35235935
-0.04396327 -0.20464285 0.26286545 -0.27900434 0.2096399 -0.30334398 -0.5074247 -0.02435354
0.4227666 -0.09762131 -0.1154773 0.17150998 -0.12483634 -0.280084 -0.02176603 -0.114676684
0.06759368 -0.26821268 -0.3477845 0.17474525 -0.35452634 0.097794205 -0.09908307 0.5121485
-0.3987206 0.11199193 -0.49023184 0.072194405 0.14458288 -0.19074261 -0.006766163 0.03349653
-0.22949943 0.4832972 -0.462293 -0.4276567 -0.06708066 0.008896189 0.10333547 -0.012780017

actor.4.weight f4 [9, 64]
00000000: 3622 ae3d d366 83bd 3142 8cbb ab51 623c
00000010: 21d3 3fbe d13a b43c fc3a e5bd b8ff a83e
00000020: 40c5 5f3c 49d7 ea3c 2b47 a1be 84e5 27bd
00000030: e125 b03d b3a8 eb3d f8a0 f7bc 3bf0 473c
00000040: ed0c 15bf ca42 32be f195 c53c 75f7 68bc
00000050: 51fb 08be f3ce fcbd 950c a4bc e657 8ebd
00000060: 5976 e63c 5241 d03d 4a38 883c 20c5 41bd
00000070: b109 d9bc e0df 673e f577 bfbe 9e3d b93d
00000080: 0cc1 6d3f 2e88 6ebd 9bca 1bbc e902 143e
00000090: 1e13 513d 99d9 ba3d e1c4 a93c 44cc 93bc
000000a0: 4ae5 203d a7b5 8d3d 8baf 70bd eadc 96bd
000000b0: 28cf 1c3e a782 c83a 7234 813c eb2f 3ebe
000000c0: cb00 c7be 2d61 393e 81f9 2abf 0ee3 a0bb
000000d0: d325 da3d 77ae ecbc 3402 9d3c ce85 3dbe
000000e0: 8610 b73d 8978 cabd de72 613e 17d2 333e
000000f0: 1131 0b3d dbe7 65bd 0b2d 553d 8e67 f6bc
00000100: aaff 45bd f310 42bb 072a ceb9 e79f fbbc
00000110: 5ec9 493f 77ae 803e 16a9 a13e 999a 613f
00000120: acc7 09bc 45d6 4ebd 7746 653f 822a febd
00000130: 8ca1 ab3e 67ec 88bb 6677 cebc d7ba 12bf
00000140: 1044 20be f756 a3bd 7891 0c3d ef5c 0bbc
00000150: 80b5 8c3f 7d54 023f fdbb 98be 7653 853d
00000160: 9080 3dbd 75d9 e33d 90cf 38be 2df6 2fbd
00000170: 0ccb 17bf c347 d73e 168c 36bf 4da6 e3be
00000180: b0f0 c3bf 044a 37bc 53a1 5c3d 3728 053e
00000190: 8072 bebe 2a77 9c3e 10f9 153d a8d8 24bd
000001a0: 605b 37be 809c 7bbd 1e28 bfbd 545a 8b3e
000001b0: 3ede 06be e021 093f 0a77 a23d 1ade 49bf
000001c0: ded2 a8bf e1b9 a0be 3ea6 9e3f 6e07 9b3c
000001d0: 535c cbbe 9da4 edbb 0ad2 45bb 2686 f13e
000001e0: 06c7 dfbe 8290 913e 5b31 45be 4965 943f
000001f0: 00da f33d 4c4a 8a3e b4c7 28bc 143a a03d
00000200: 5d0a 7f3a f51e c93d a0c3 b33c e188 ef3c
00000210: 1ecf 02bf 43a8 aabe 2ded 3dbe 1a21 94bf
00000220: df9e 89bc 9a03 9a3d 9092 11bf 5c36 3d3e
00000230: 06a7 febe 4e24 37be fa78 be3d 1e42 f03e
00000240: b9c0 3f3f a31e 9a3e 60b6 32bd 41e5 163c
00000250: f351 5ebf 2c18 b1be a5d0 b03e 1c2e a53d
00000260: 5a97 893c ec2c 81be 0c2a 1a3e ddc9 443d
00000270: b9ea 0e3f 3419 33bf 387f 843f 85b6 a33e
00000280: 1406 0d3f c51a 623d 0be2 88bc 4102 63be
00000290: 4f1f 8a3e 2a61 e4be 1550 d7bd f9fc 8f3d
000002a0: f288 d33d 5ff8 e1bc 65c6 003e 3c0e 58be
000002b0: 1524 71bd b44c 04bf 2af1 0cbe a66b 823f
000002c0: 25a6 d83f 1e72 003e 9696 0dbf 985f 9abc
000002d0: d241 873e 14e2 ea3c aa11 babc 1a3d 72be
000002e0: 258e 953e 6895 14be fd4f cbbd d318 b1bf
000002f0: de80 25be 5a03 48be 7422 4ebc 5f1d 3dbd
00000300: 0f6f ee3c 3d49 f73d 1ade 353c 0137 98b9
00000310: 6ccf 453e fccf 3e3e d845 38bd d93f ec3d
00000320: 6cae af3d 5d4d 37be a3a2 23be 5dd0 f03d
00000330: def9 1c3e 4a57 b03e 403e 373e 7ecf 22be
00000340: a98a 1d3e dea5 aebe 54c8 6f3c bd86 68bc
00000350: aed7 0f3f 9a41 59bc 0f90 23be c12b 81bc
00000360: dab7 9f3c c115 b83d 8823 433d b5da a3be
00000370: ce10 4ebe d252 e5bd ba28 4e3d 1154 e7bc
00000380: a8f9 8ebd 78ee 453c 9ec7 7f3c 9b14 85be
00000390: ac28 a63d 4503 75bd 4a25 64be f9d8 0c3d
000003a0: fa63 30bc 86a9 553c 4d05 f73d b5b9 99bd
000003b0: 46c1 2abc a754 52bd 7525 bcbd 78bb 59bc
000003c0: 3124 903b 5b13 10bd 4eaf 2ebd 3215 e73c
000003d0: 7a90 363d 934a d0bc 485e 853c 4473 403d
000003e0: 908f f9bb 92e2 00be 7293 71be bf8a a53c
000003f0: a6a8 573d 600f 203d 7c5c 05bc 889d f13c
0.08502619 -0.064160965 -0.0042803516 0.0138134165 -0.18732883 0.022000702 -0.11192891 0.33007598
0.013657868 0.02866711 -0.3149961 -0.040990368 0.08600975 0.11506786 -0.030228123 0.0122032715
-0.5822285 -0.1740829 0.02411935 -0.014219155 -0.1337712 -0.1234416 -0.02002553 -0.06950359
0.028132604 0.10168709 0.016628403 -0.047307134 -0.026493879 0.22643995 -0.37396207 0.09044956
0.9287269 -0.05823534 -0.009508754 0.14454235 0.051043622 0.09123535 0.020723762 -0.018041737
0.039281167 0.06919413 -0.05876116 -0.07366355 0.15313399 0.0015297726 0.015772078 -0.18572967
-0.38867792 0.18103476 -0.6678696 -0.0049098795 0.10651746 -0.028891785 0.01916609 -0.18508074
0.089386985 -0.098862715 0.22016475 0.17560612 0.03398234 -0.056129318 0.05204491 -0.030078676
-0.048339523 -0.0029612153 -0.00039322695 -0.030715896 0.78822887 0.25133106 0.31574315 0.8812652
-0.008409422 -0.050497312 0.89560646 -0.124104515 0.33521688 -0.004178572 -0.025203418 -0.57316345
-0.15650964 -0.079755716 0.034318417 -0.008506044 1.099289 0.5091017 -0.29830924 0.065100595
-0.046265185 0.11125461 -0.18047929 -0.04295938 -0.592942 0.42046937 -0.71307504 -0.44462815
-1.5307827 -0.01118708 0.05386479 0.13003622 -0.37196732 0.30559665 0.036614478 -0.040245682
-0.1790595 -0.061428547 -0.093338236 0.27217352 -0.13170716 0.53567314 0.07932861 -0.78854525
-1.3189352 -0.31391814 1.2394483 0.018924441 -0.39718875 -0.0072522894 -0.0030185007 0.4717266
-0.4370653 0.28430563 -0.19257109 1.159341 0.119068146 0.2700981 -0.010301519 0.078235775
0.0009729022 0.09820358 0.021943867 0.029240074 -0.51097286 -0.33331499 -0.18547507 -1.1572602
-0.016799388 0.07520218 -0.5686426 0.18477768 -0.49736804 -0.17884943 0.09300418 0.46925443
0.74903446 0.301015 -0.043630958 0.009209932 -0.86843795 -0.34588754 0.34534183 0.08065435
0.016795803 -0.25229585 0.15055102 0.048044074 0.5582691 -0.6996033 1.0351324 0.3197519
0.550874 0.05520131 -0.016709348 -0.22168829 0.26977012 -0.4460538 -0.10513321 0.070306726
0.103288546 -0.027584253 0.12575682 -0.2109918 -0.0588723 -0.5167954 -0.13763872 1.0189102
1.6925703 0.12543532 -0.553079 -0.01884441 0.26417404 0.028672256 -0.022713501 -0.23656121
0.2921001 -0.14510119 -0.09927366 -1.3835701 -0.1616244 -0.19532529 -0.012581456 -0.04617059
0.029105691 0.12074516 0.011100316 -0.0002903268 0.19317406 0.18634027 -0.044988483 0.115356155
0.0857819 -0.17900605 -0.1598001 0.11758492 0.15329692 0.34441596 0.1789484 -0.15899464
0.15384926 -0.34110922 0.014635164 -0.01419228 0.56188476 -0.01326027 -0.15972923 -0.015767934
0.019496847 0.08988524 0.047641307 -0.32002798 -0.20123598 -0.11197437 0.05033181 -0.028238328
-0.06981212 0.012080781 0.015611557 -0.25992283 0.08113226 -0.05981757 -0.2227985 0.03438661
-0.010766024 0.013040906 0.12061558 -0.07506124 -0.010422057 -0.051350262 -0.09186832 -0.013289325
0.0043988456 -0.03517471 -0.042647652 0.028208349 0.044571377 -0.025426185 0.016280308 0.046984926
-0.007615991 -0.1258643 -0.23591402 0.02020776 0.05265107 0.039077163 -0.008139726 0.029494062

actor.4.bias f4 [9]
00000000: 9ba4 6bbf b3e1 093f c6a5 063f 1f31 54bd
00000010: cfc8 2c3c 5022 c63d c8ba 3fbb c000 253d
00000020: 3cfb dc3c
-0.92048043 0.53860015 0.525967 -0.051804658 0.010545923 0.09674513 -0.0029255617 0.04028392
0.026975267
