Plotting/saliencies_live/Multi_Pong/Sequence_Length_2/multi_pong_2__1__1721945456_checkpoint_1672.pt (torch, 89074 bytes, 11 tensors)

critic.0.weight f4 [128, 12]
00000000: 9dda 533e 8a68 a1bb 7c89 983e daf3 e53b
00000010: 130c 863b 7e9a 393e 1dc7 e2bf 96cd 0940
00000020: 31dd 383d 4da6 1b3e 9602 c5be b68e 0640
00000030: e940 cb3c 5fef d33c c051 9ebd b25f 9bbb
00000040: 0dfa 43bd 4610 09bc c993 35bf 320f 2b3e
00000050: 8788 a4bd 4cb0 1a3e 3032 0ac0 3547 4a40
00000060: f3ea c9ba 6644 c63e 950a 6abe 4f57 bbbe
00000070: 34fc 1d3d c7c2 b1bc ce87 643e ced0 603c
00000080: e380 083d 1c12 a5bb 4797 883e 27e0 923d
00000090: ccd8 0d3f 1bc0 a2be 38f8 1e3f d9f1 35be
000000a0: 4036 a63c 9f29 f13c 466e 61bc 1b4f 00bd
000000b0: 8003 7cbf eab3 f33e 368d d7bf d2a9 0c3f
000000c0: 516d ddbd 08b7 acba 2e7e 58bc 74eb 5e3c
000000d0: d27d 9abb ee03 a9bc cb14 f33e 1660 bf3d
000000e0: f23d 2d3d c50c 4a3d b5ef aa3f 126e 0340
000000f0: e6f0 a7bd 2aab d3bc 9128 45be c7ac 6cbd
00000100: 1b78 a4be ac09 c0be 5b96 14c0 261a 55c0
00000110: 82e7 863c 73ac a0bc fd66 37be c4be 9fbd
00000120: b702 3d3e 2829 26bc 9b54 a3bd c2c7 1b3b
00000130: 6115 fa3d 0e36 11be fb1e 4f40 4b8c 56c0
00000140: d848 94bc 7c58 193c 1613 34be 3b54 63bd
00000150: f8b1 22bd 9894 0a3c 1ebd 11bd 195f 95bc
00000160: d30c 37bc b846 23b9 535e a9bd 9559 42bd
00000170: e04b 96bd 215e 823d 1dd8 fbbf 9684 7e40
00000180: 00ed bbbe c5ef 39bc 3d67 2fbe 2f8f 3f3c
00000190: 0d1f 1ebe a882 e0bb 1417 5cc0 26e5 553e
000001a0: 3c93 00be ee18 283c 9f9e fc3e 2ff1 8f3d
000001b0: 9d34 6fbe 1c04 a9be 1488 d8be 1e69 b83d
000001c0: 566b 543c dceb babc 9128 08bf 2b0e 153e
000001d0: dd5b b83e 9118 4e3e 9f15 f43f 364f b73f
000001e0: 90dc bc3d 6cbb 2a3c 1572 333e 8825 87bb
000001f0: e447 b8bb 5ebf 113c 5be6 243d 9f5f 633c
00000200: 0a8e b43c a0a9 9bbc e180 1f40 5d07 67bf
00000210: 8d3e 72be fd6e 483c 1608 583d b98f e8bb
00000220: e1b6 c9bb c453 0cbd c9f3 cdbf 4225 c0bf
00000230: 3754 23bd 6bc9 fa3a ab3b cdbf 6888 053f
00000240: 7755 2c3e c1fb 05bb 47d6 0e3c 5fbe 7aba
00000250: 2420 4d3d 675d 2abc 829d 6b3f ace8 e73e
00000260: ba33 01be 4ae6 e2bc 7e7b a3bf 5791 cebf
00000270: ee8d 963c b3a7 b43a 86ef 543d 35c3 e03b
00000280: a7ea 7b3c 2810 22ba 4060 863e 269c 4e3e
00000290: 9c6d fe3d d343 2bbc 2b7f 2040 d350 a1bd
000002a0: 2211 bc3d 7d85 013c c11c 063b 0534 9d3a
000002b0: 6d7f 30bc 43a5 5a3e c73c 263e e1e1 6440
000002c0: c646 37bd 0714 48be 6161 babe 6c45 54c0
000002d0: 2b7a 673e d7a7 c1bd b27e 883e 23eb 97bd
000002e0: 4790 a63d 193f c5bc 89b6 06bf 1f74 823f
000002f0: de16 cabd e4cf e63c f0e3 cdbf c254 8fbf
00000300: a614 a63e 6441 5c3c e7e5 843c 9d0b 30bb
00000310: cdb5 a63d 7826 dbbd cd34 513f be44 1dc0
00000320: fcf8 2d3d 81d7 ad3d 8765 abbc 0fe9 8d3f
00000330: 076a 463d d37b d9bc 6d28 4ebd 839e a63c
00000340: 013e dbbc acfb b73d c226 13be 275c 7f3d
00000350: 3cc7 f4bc 4015 00be 728f ebbf 0b1a 12be
00000360: e06a 5a3d a8d8 a13c fa4a 433d 7f89 56bc
00000370: f175 62bc 6504 c6be 0d7f 373d 545e 1ec0
00000380: 80ce a83c e92f b83e cac0 e23d a29e 2440
00000390: 18d0 bf3d 4234 babb 8cb9 c6bd 1510 1ab9
000003a0: e4d1 31bc 3c0c 963b c56e d4bd dc29 92bc
000003b0: 22d2 8e3d ae71 3dbd ece3 8040 9253 67c0
000003c0: 48ed 97be 757d 38bb ae30 0b3e cf08 a0bb
000003d0: 4a6d 30be 2e31 91bc 20cd 57be 211f 1bbe
000003e0: b2a5 2b3e 805b 4f3c 9f85 8340 d5c1 9abd
000003f0: a03b f5bc ab05 993a d8cd 24be dc60 243c
0.20688863 -0.004925792 0.29792392 0.0070175948 0.004090795 0.1812534 -1.7717015 2.153173
0.04513282 0.15200157 -0.38478535 2.1024604 0.024811225 0.025870977 -0.07730436 -0.0047416324
-0.04784589 -0.008365696 -0.7092863 0.16705015 -0.08033853 0.15106314 -2.1593132 3.1605961
-0.0015405103 0.3872406 -0.22855599 -0.3659005 0.038570598 -0.021699322 0.2231743 0.013721658
0.03332604 -0.005037559 0.26677915 0.0717166 0.5540893 -0.3178719 0.620975 -0.17768039
0.02028954 0.029438792 -0.013759201 -0.03132544 -0.9844284 0.475982 -1.6839969 0.54946625
-0.10811866 -0.0013177106 -0.013213677 0.013605941 -0.004714706 -0.020631757 0.474768 0.09344499
0.042295404 0.049328584 1.3354403 2.0535932 -0.082002446 -0.025838453 -0.19253756 -0.05778196
-0.32122883 -0.3750738 -2.321677 -3.329721 0.016467813 -0.01961348 -0.1791038 -0.078000575
0.18458067 -0.010141648 -0.079751216 0.0023770188 0.12211109 -0.14180776 3.236266 -3.3523128
-0.01810114 0.009359475 -0.17585406 -0.05550025 -0.039720505 0.008458279 -0.035580747 -0.018233823
-0.011172491 -0.00015571236 -0.08269944 -0.047448713 -0.07338691 0.0636561 -1.9675328 3.9768424
-0.36704254 -0.011348669 -0.17129226 0.0116918525 -0.15441532 -0.006851513 -3.4389086 0.20888194
-0.12556165 0.01025985 0.49339768 0.07028424 -0.23359914 -0.33010948 -0.4229132 0.090044245
0.012965044 -0.022817545 -0.531869 0.14556186 0.36007586 0.20126559 1.9069098 1.4321048
0.092217565 0.010420661 0.17523988 -0.004124347 -0.0056238044 0.008895723 0.040258747 0.013877778
0.022040386 -0.019001782 2.4922411 -0.9024561 -0.23656674 0.012233493 0.052742086 -0.007097211
-0.006155834 -0.034259573 -1.6090022 -1.501137 -0.039875235 0.0019133514 -1.6033834 0.52161264
0.16829477 -0.0020444246 0.00871808 -0.00095651107 0.05007948 -0.010398245 0.9203721 0.45294702
-0.12617388 -0.027697701 -1.2772062 -1.6138104 0.018378224 0.0013782888 0.05198624 0.006859208
0.01537577 -0.0006182217 0.26245308 0.20176753 0.1242325 -0.010453182 2.5077617 -0.07876744
0.09182955 0.007905361 0.0020463916 0.0011993652 -0.010772568 0.21352105 0.16234122 3.5762866
-0.04474523 -0.1953889 -0.3640242 -3.3167372 0.22605197 -0.09455841 0.2665916 -0.07417896
0.081329875 -0.024077939 -0.52622277 1.0191687 -0.09867643 0.028175302 -1.6085186 -1.1197741
0.32437629 0.013443325 0.016222907 -0.002686239 0.081401445 -0.10700697 0.8172119 -2.4573207
0.042473778 0.0848837 -0.020922435 1.1086749 0.04844096 -0.026548302 -0.05033152 0.020339256
-0.026762964 0.089835495 -0.14370254 0.062343743 -0.029880159 -0.12508106 -1.8403151 -0.14267747
0.05332458 0.01975663 0.047678925 -0.013094305 -0.013822065 -0.38675228 0.0447989 -2.4745073
0.02060628 0.35974053 0.11071928 2.5721822 0.093658626 -0.005682499 -0.09703359 -0.00014692575
-0.0108532645 0.004579095 -0.1037269 -0.017842226 0.069736734 -0.04625099 4.0278225 -3.6144757
-0.2967322 -0.002815095 0.13592789 -0.0048838626 -0.1722919 -0.017723646 -0.21074343 -0.15148593
0.16762426 0.012656093 4.110061 -0.07556502 -0.029935658 0.0011674663 -0.16094148 0.010032859

critic.0.bias f4 [128]
00000000: 045d 8e3d 15cc 613d fd2b 82bc 09cc fd3e
00000010: 949d 96bd 0276 01be fe5d f83d bcff 80bd
00000020: 0c6e c0bd bdc9 93be 0c60 6ebd 4286 09bd
00000030: 83fb 883c 8b92 0d3c ad01 fe3a 082f 803e
00000040: 0410 9a3d 0286 fe3c edfc 84bd beeb a0bb
00000050: aedb abbb 9e9b ff3c b627 e53b 7c2e 80be
00000060: 63c1 31bf f11e b63d 0acc 84bd dadb 6e3f
00000070: 7a27 923d 6a9b 243e 5548 e23e 0843 c83c
00000080: ca00 9dbb fb2c 513c 0e66 dfbb dce8 70bc
00000090: 364b c2bd 0e99 a6bd dbec d5bd 7b90 60be
000000a0: 3ba1 813d 02a0 2ebd e5ce 643d 3ef8 40bc
000000b0: df9c 04be 8a82 9abd 5259 a93e 24dd e7bc
000000c0: e600 aabc 6955 21bc 7c92 833c 7b73 b83d
000000d0: 4b5f c2bd 7e16 b03d 7fd6 65bb 4656 2bbd
000000e0: d119 bf3d ce01 4b3d 854b 0d3c b580 b03c
000000f0: d72f b8bd 3f3c ecbc 41a2 8abd 6748 dfbd
00000100: 35c6 e2bb 1f62 313e 8439 963d 32b2 a8bb
00000110: 5605 96bc 9195 97be 7d59 0abd 4d9f f83c
00000120: 63a3 043b b857 4dbd eb0f 0bbd becb 19bd
00000130: ae22 51bd d3e9 d73c cffb 273e fa6c 2bbd
00000140: ee77 abbc b97a 8ebd 6fc2 e23d 5f3f 12bc
00000150: c636 d33d bef2 8b3d 5d11 74be 5443 66bd
00000160: cc00 50be 52b4 80bd 65fc d8bc 8cb0 13bd
00000170: 4376 02bd af41 f83c 6d0c a03d ece6 2cbd
00000180: f1e1 1cbd 7d26 2c3f 80de 8d3d a613 82bd
00000190: 74dc fdbc 9cfc 9d3b ea78 2abe 88fe 62bd
000001a0: 1e33 f2be 8b81 20bd 9b09 1fbc fb32 03be
000001b0: 98b4 243d 0a1d 87bc cea2 773e 2a56 8fbd
000001c0: b878 b63b ce72 06ba 9f4b 7abe ee7a a53d
000001d0: 3011 c53e a92f a73d 3d28 c33c e1f1 9b3d
000001e0: a5b8 903d 130d 87be 8976 c6bd 62a1 90bd
000001f0: be8f 633d f29e 0b3d e9c2 1fbe 4900 123e
0.06951335 0.05512627 -0.015890116 0.4956973 -0.073542744 -0.12642673 0.121273026 -0.062987775
-0.0939599 -0.28864852 -0.058197066 -0.033575304 0.016721493 0.008640896 0.0019379162 0.25035882
0.07522586 0.03106976 -0.06493554 -0.004910915 -0.0052446937 0.031202134 0.0069932593 -0.25035465
-0.6943571 0.0889262 -0.0648423 0.93304217 0.07136436 0.16074911 0.4419581 0.024446025
-0.004791354 0.012767072 -0.006817586 -0.0147039555 -0.094870016 -0.081346616 -0.10445567 -0.21930115
0.063295804 -0.042633064 0.055861373 -0.011777936 -0.12950467 -0.075444296 0.33075958 -0.02830369
-0.020752382 -0.0098470235 0.01606106 0.09006401 -0.09490832 0.0859804 -0.0035070477 -0.041830324
0.09331096 0.049562268 0.008623962 0.021545747 -0.089935 -0.028837321 -0.06769229 -0.109024815
-0.006920601 0.17322586 0.07335189 -0.0051481957 -0.018313091 -0.29606298 -0.03377675 0.030349398
0.0020238988 -0.050132483 -0.033950727 -0.03754782 -0.051058464 0.026356613 0.16404651 -0.041851975
-0.02093121 -0.06957001 0.110722415 -0.008926242 0.103131816 0.06833409 -0.23834749 -0.056216553
-0.20312804 -0.06284393 -0.026487539 -0.03605704 -0.031851064 0.030304758 0.0781487 -0.04221241
-0.038301412 0.6724623 0.06927204 -0.06351404 -0.03098891 0.004821373 -0.16647688 -0.05541852
-0.47304624 -0.03918604 -0.00970688 -0.12812416 0.04021129 -0.01649334 0.24183199 -0.06998856
0.00556859 -0.00051288016 -0.2444291 0.080800876 0.38489676 0.08163387 0.023822898 0.07614494
0.07066468 -0.26377162 -0.096905775 -0.07062031 0.055557005 0.03408713 -0.15601696 0.14257921

critic.2.weight f4 [64, 128]
00000000: 95c7 03bd 0ace 8c3d 90fa 473e cf05 cd3d
00000010: d01c eebe 1b12 4fbc a14c 953e aeee 293e
00000020: bd83 af3e 114d b53c 14dc 9bbd a164 513e
00000030: 0849 053e 5bf2 8b3e 1756 2abe 98ae 643e
00000040: a8d0 4f3e c6c7 783e f7bc 0a3e 8d9a 73bf
00000050: c3fc 343e 3255 d3bd f809 91be efe4 f93d
00000060: e6c4 14be 2978 003f d4d0 7dbe 7d6d 043d
00000070: f3fa 8a3e 8bf4 c73d edc1 b23d bfec 5cbe
00000080: 1810 76be 69de 093e cc46 fe3e 3b86 cbbd
00000090: 4e6c d9be 886c 0a3d 2ca3 a4be aa37 d63d
000000a0: cf6a 253d f664 1ebe d00f e43e 4d65 a5bd
000000b0: 3345 803d 2c45 953e 3bb4 0abe 9d27 07be
000000c0: 128a 1e3d b6f1 bb3d 41be 6b3d ea6d 153d
000000d0: 5e29 153e 23eb dfbd 68ad 4a3d 0e70 95bd
000000e0: 4859 90bd 650a 233e 3a31 1ebe 1bc2 0fbe
000000f0: 6edb 09be 8dfd 60be e996 1e3e 2573 85bd
00000100: 81bf 50bd a51b 7dbd 0920 0ebf e6b5 ab3b
00000110: ad3f 3abe 7fbd 613e 11d3 6ebe a710 bfbd
00000120: fae3 a1bf 6cd8 913e e12c 963d 8c21 193e
00000130: d85c f5be 94e3 593e 015a 95bc 3cd7 4d3e
00000140: 9355 783d 2134 9bbe 5bbc 8a3e c10e 00be
00000150: 1ed8 463d 8858 803d 29e0 08be 8ffe 73be
00000160: 7c4f 42be 5101 1cbe 7a63 763e 462d b43d
00000170: 0c52 a5be f4f4 9dbe 9e8f 11be 3c8d 903e
00000180: be47 d8be 016e 053f b9d1 cc3d bb8b cfbd
00000190: 3996 7fbd 9779 7b3e 8fa2 a6be 24b6 6b3e
000001a0: a770 2cbe c304 a2be 4844 24be 0d1f bbbe
000001b0: adad d33b 290a c53a 0b09 43bd 31cb e9be
000001c0: 24b4 2bbf 9d77 623e 79eb 1a3e 041e 2dbf
000001d0: e379 a03e edfe 863d 787d 133d 98a4 113e
000001e0: d40c a7bc fc0a 0fbe c07f adbc c31e 9bbd
000001f0: f995 7fbe 7bc3 fbbe 3bfe 433e d605 243d
00000200: a899 df3c 65e5 89be e5a3 c33d 1b7f 6b3f
00000210: 5de9 993f 73e2 c2bc 725a c5bc c385 cd3d
00000220: 69a0 0d3e 273b 3e3e 71bd 72bd 5809 1d3f
00000230: 865f 94be 8bad 773e b1a2 cdbe bada 3abe
00000240: f6ec 873e 2a77 083e 42d7 b6bd 0b0d 983f
00000250: ce46 94be 9631 bdbe 393f 473f b5d5 27be
00000260: 6fef cebd 126d 5e3f 69d1 fcbc 83a5 20bf
00000270: e46d 8a3e 54f3 55be 9dcb f23d 6c43 9ebe
00000280: b5dc 163f 0624 073e faf1 4b3d c556 bd3e
00000290: 365f 21bf 66c9 afbe 4b2a e63e 07f3 18be
000002a0: 095d 233d 0fa8 fabd 3499 4dbf 762a 9b3e
000002b0: e1dd 233d 3631 8fbd b69d 0abe 23dc 45be
000002c0: edcb 1f3e be4f 64be 4954 80be 8529 b7bd
000002d0: 63e9 8b3e ec49 10bf af34 ee3e fe59 c0bd
000002e0: 3acf 84be 4618 a4be d5dc f23e 7a96 d33d
000002f0: 6e78 0abc b436 20bd 865d 50be dede b6be
00000300: f920 933d 41b0 bfbc 6e45 7b3e 9f34 bcbc
00000310: d4ed 48bf f827 d4bc abf0 253d 5000 8b3d
00000320: 2c6d 643e 6531 a93d ed08 52bc 10ba 023d
00000330: 516d d03f 57dd fabc 4255 90bd e757 4fbe
00000340: fdac 4cbe 9c2c a8be 14cc 2ebf a1da 88be
00000350: 9012 a83d 7558 133f 1139 c93e 325d f6be
00000360: 2da9 8dbd e81f 32b9 4033 adbf 3a21 13bf
00000370: 2d85 c13e 82ac 14bf 2618 13bf 70f2 04bf
00000380: 6968 a4be 74e0 683f 8524 cfbf 1dd8 57bd
00000390: 7e49 f53d 86a7 b13d cafa 923e 7a34 acbe
000003a0: 1e64 53be 8733 603f eccf b7be 15fd a3bf
000003b0: b04f b0bb c369 80bd 7be9 983d 6aa8 733f
000003c0: a7e3 833e 2b8a 483f 243c aabc d60e c9bc
000003d0: 4e0e b9be c375 09bf 8781 193f 9a9e a9bc
000003e0: 1ed3 ffbd df5f 953d 9247 0bbe ce80 00bf
000003f0: 8e56 6f3f b355 af3c 8ce1 df3d 147e 0ebe
-0.032172758 0.06875236 0.19529176 0.100108735 -0.46506357 -0.012638594 0.29160026 0.16594955
0.34280196 0.022131475 -0.07610336 0.20448543 0.1301614 0.2733334 -0.16634403 0.22332227
0.2029444 0.24294958 0.13548647 -0.951577 0.17674546 -0.10318984 -0.28327918 0.12201869
-0.14528236 0.5018335 -0.24786693 0.03233098 0.27144584 0.0976344 0.08728395 -0.21574686
-0.24029577 0.13463749 0.4966339 -0.09937712 -0.42465442 0.03379491 -0.3215574 0.10459836
0.040385064 -0.15468201 0.44543314 -0.08075962 0.06263199 0.29154336 -0.13545315 -0.13198705
0.038705893 0.09176962 0.057554487 0.036481775 0.14566562 -0.10933521 0.04948178 -0.07296763
-0.07048279 0.15921934 -0.15448466 -0.14038889 -0.13462612 -0.21971722 0.15487255 -0.06516103
-0.050963882 -0.061793942 -0.5551763 0.00524019 -0.18188353 0.22044943 -0.23322703 -0.09329348
-1.2647698 0.2848543 0.07332779 0.14954203 -0.47922397 0.2127822 -0.018231394 0.20101637
0.060628485 -0.3031321 0.2709683 -0.12505628 0.04854595 0.06266886 -0.1336676 -0.23827575
-0.18975633 -0.15234877 0.24061385 0.08797698 -0.3228916 -0.30850947 -0.14214942 0.28232753
-0.42242235 0.5212098 0.10000939 -0.10134073 -0.062399123 0.24558102 -0.32545897 0.230187
-0.16839848 -0.31644258 -0.16041672 -0.36547127 0.0064599128 0.0015032935 -0.047616046 -0.45662835
-0.6707175 0.22115941 0.15128888 -0.67623925 0.31342992 0.06591592 0.03600833 0.14222944
-0.02039186 -0.13969034 -0.02117908 -0.07574227 -0.24959554 -0.49172577 0.1913995 0.040044628
0.027294949 -0.26932827 0.09552745 0.9199082 1.2024342 -0.02378962 -0.02409098 0.10035279
0.13830723 0.18577252 -0.059262697 0.6134238 -0.2897913 0.24187295 -0.40163186 -0.182475
0.26547974 0.13326707 -0.08927776 1.187898 -0.2896027 -0.36951894 0.77830845 -0.16390117
-0.10104262 0.8688518 -0.030861573 -0.6275255 0.27036965 -0.20893604 0.118552424 -0.30910814
0.5893052 0.13197336 0.049791314 0.36980262 -0.63035905 -0.34333342 0.44954142 -0.14936458
0.039883647 -0.12239086 -0.80311894 0.30305833 0.040006522 -0.06991808 -0.13536724 -0.19322257
0.15605135 -0.22296044 -0.25064304 -0.08943466 0.27326497 -0.56362796 0.4652457 -0.09392165
-0.2593935 -0.3204977 0.47434106 0.103314355 -0.008451564 -0.03911467 -0.20348176 -0.3571691
0.071840234 -0.023399474 0.24538204 -0.02297431 -0.78487897 -0.025897965 0.040512722 0.06787169
0.22307271 0.082613744 -0.012819511 0.031915724 1.6283361 -0.030623121 -0.07047512 -0.20248376
-0.19987865 -0.32846534 -0.6828015 -0.267293 0.082066655 0.5755685 0.3930135 -0.48117977
-0.06917033 -0.00016987289 -1.3531265 -0.57472575 0.37796918 -0.58075726 -0.5745872 -0.5193243
-0.3211091 0.9096749 -1.618302 -0.052696336 0.11976908 0.08674531 0.28706962 -0.33633786
-0.2064366 0.87578624 -0.3590082 -1.281161 -0.0053805932 -0.062701724 0.07466408 0.95178854
0.25759622 0.7833583 -0.02078063 -0.024543207 -0.36143726 -0.53695315 0.5996327 -0.02070551
-0.12491439 0.072936766 -0.1360152 -0.5019654 0.93491447 0.02140317 0.109316915 -0.13915282

critic.2.bias f4 [64]
00000000: 97be a33e a2e9 653e 83c8 e1bd 9993 ed3d
00000010: 4feb d03d 0700 7a3e b457 04be 3f9c 643d
00000020: 0415 9b3e 0d2d 8ebb c140 393f a964 0c3d
00000030: b544 af3e 242a 9f3e 6b8c 913e e63b 74bb
00000040: 54ac 37be 9432 04bc 09b1 6fbe b60c b4be
00000050: 6a2f cebb 1c0c 8e3e 9dc6 0c3f 59d0 dbbd
00000060: b4b0 993d 395d d5be bf5c acbd b05a 7cbe
00000070: 84b7 58be d644 243d f668 2b3e bd94 22bd
00000080: 1148 573e d22f 103e ed2a 8b3e 7e38 2bbe
00000090: a300 ab3e 6381 34be d8d2 173e 2d06 26bf
000000a0: 2159 a7be e686 bfbe e356 773e 7619 80be
000000b0: a604 333e c1e7 acbe d325 75be c4ec 6ebe
000000c0: 2bf4 47bf 7cc9 8b3c 1555 cbba 0d9d 5b3f
000000d0: c102 343e 9d10 483e b256 b33d d4e0 99be
000000e0: 79f7 bbbe b6d5 62bf b72d 34be ab68 3dbe
000000f0: 6e90 9e3e 0353 f43e c682 ee3c 141e 3abe
0.31981346 0.22452405 -0.11024573 0.11600418 0.102011316 0.24414073 -0.12924081 0.05581307
0.3028947 -0.0043388666 0.7236443 0.034275685 0.34232107 0.31086838 0.28427443 -0.0037267148
-0.17936832 -0.008068699 -0.23407377 -0.35165948 -0.0062922733 0.27743614 0.5499056 -0.107330985
0.075044066 -0.41672686 -0.084161274 -0.2464397 -0.21163756 0.04010471 0.16739258 -0.03969263
0.21023585 0.14080742 0.27181187 -0.16720769 0.33398923 -0.17627482 0.14826524 -0.64853173
-0.32685187 -0.37407607 0.24154238 -0.25019425 0.17482242 -0.33770564 -0.2394021 -0.23332506
-0.78106946 0.017063849 -0.0015513027 0.85786515 0.17579176 0.19537587 0.0875677 -0.30054343
-0.36712244 -0.88607347 -0.17595564 -0.18496959 0.30969566 0.47719583 0.029115092 -0.18175536

critic.4.weight f4 [1, 64]
00000000: d405 3d3e 201d 093e 6565 1b3f 41a9 09bf
00000010: 9ac3 003f 9668 c73d 9194 cdbe 776f 40be
00000020: e2b6 933e cae6 dfbe 58f0 293f c873 c63e
00000030: 64b5 6c3e 74d6 44be 2f47 bf3e 074f a63e
00000040: 695d 89be 3b32 9bbe aeda a4be 9330 8dbe
00000050: a427 a53e 0e4b 7a3e e755 b83e 8b2e 3dbe
00000060: b516 553e 1f99 6fbe 8b01 6c3e b144 49be
00000070: 99ef b0be 068a c03e 1594 d03e f1cb 00be
00000080: 4435 4a3e 8941 813e 86d2 953e 2f6b 16be
00000090: 2abd 2d3f b839 b7be 73f9 b33e fe47 e0bf
000000a0: 7033 12be e479 33be e347 8bbe c7cd 8ebe
000000b0: 070c 6bbe 426c 81be a3a2 babe 91b8 61bf
000000c0: 51c2 febe 2709 aebe b6eb f13e 906c 423f
000000d0: faea af3e e8a0 2c3e 6db8 bc3e e6c5 25be
000000e0: 01d6 3abf ac23 1bbf 1ba2 7abf fe41 6ebe
000000f0: a23d 793e c85f fb3f 1f0e 3f3e 7523 3cbf
0.18459255 0.13390017 0.6070159 -0.53773886 0.50298464 0.09736745 -0.4015241 -0.1879252
0.28850466 -0.43730766 0.6638236 0.3876021 0.2311607 -0.19222432 0.37358996 0.32482168
-0.2682908 -0.3031176 -0.3219809 -0.27576122 0.32256806 0.24442694 0.36003038 -0.18474786
0.20809443 -0.23398255 0.23047464 -0.1965511 -0.34557799 0.37605304 0.40737978 -0.12577797
0.19746882 0.25245312 0.2926218 -0.14689325 0.67866766 -0.35786223 0.35151252 -1.752197
-0.14277434 -0.17526966 -0.27203283 -0.2789137 -0.22953807 -0.25277907 -0.36452207 -0.8817225
-0.49757627 -0.33991358 0.47250146 0.75946903 0.3435896 0.16858256 0.36859456 -0.16188774
-0.72982794 -0.60601306 -0.97903603 -0.23267362 0.24339917 1.9638605 0.1865773 -0.73491603

actor.0.weight f4 [128, 16]
00000000: 38a5 f2bc 8874 afbe ecec fc3e 3da7 b03e
00000010: 3d69 e2be 1d22 ab3f d3e6 a1bc 5131 49be
00000020: 1b0d 7ebf eebf 2bbf 8d43 983e 801c 90be
00000030: 1c6a 13be 57cb 16be 5f54 92be 04a1 603d
00000040: 0e5d 3b3e 3449 70bd 614c 40be 1f66 563d
00000050: dc55 0f3d 5f4c 80bf 14fc 843c f9d2 e93d
00000060: eec1 92bf a06d cd3f bc82 043f d2dd 6c3e
00000070: 2c99 2bbf 1853 debc 1dfd 23bc 2eb8 7b3c
00000080: 2f99 803e 27ee 04be cc25 b63d ec22 1e3c
00000090: ab62 0d3f 9776 d23f 6f9d 66be 7639 08bd
000000a0: 019c 99bf 8e93 f43e d722 343e 9501 2abf
000000b0: fc77 7d3f 5803 a43e 76f5 1cbe 58a4 683d
000000c0: 7074 9c3e ffe6 503e fdb0 9b3d 672c 85be
000000d0: 08d8 e5bf 68e7 a4bf 7915 7139 0160 263d
000000e0: 8036 553e 6b54 14be 4764 0f3e 967d b93d
000000f0: c252 ca3d 0c3f 2e3e a7aa 7f3e d251 9cbd
00000100: d491 13be b84a 953d b0ab dfbc 1aa1 cebc
00000110: 6bab 11be 7701 6c3e 7d83 893e 9666 053e
00000120: 83b4 3a40 7ea5 06bf 0384 2d3d 1bdf 2dbe
00000130: 88b4 7bbd 94ad 94bd 07d1 0ebe f5a5 d7bd
00000140: 7db2 c73e 1b35 2dbe 28cc af3e 7ffc 03bf
00000150: c981 6cbe 1544 493f 329b 973e 0345 64be
00000160: 4796 59be adac 813f 1d7c 023d e4aa 1a3d
00000170: a71c 543e c96a 933e e7ba 9abb 487d 2d3e
00000180: 1345 80bb d4dd 17be a057 acbd 4937 6ebe
00000190: 2786 933e c808 00bf 3d31 ad3e 887b 2e3f
000001a0: 9527 2cbe 5503 6f3f f946 79be 76de 193e
000001b0: 0983 d1be 25f1 50be 7726 2d3d 9104 153e
000001c0: 8401 423c c505 b7bd ff9d 29be 8323 84be
000001d0: 80d8 c53d 81ae d2be d833 5b3f 696a cc3d
000001e0: db87 533f da1d 783e 3e86 353f a45a a3be
000001f0: ce1b 28bf 4909 acbe 46b9 86be de52 0c3f
00000200: 026d 1b3e f108 85be dda7 dd3e a4a7 26be
00000210: ca8e 93bf 077d 573f 6d29 62bd 857e 443d
00000220: c72a c73c b020 323f 18fd 34be cfc1 2f3d
00000230: 4328 113f 55d9 923e bab4 283f b272 bcbe
00000240: a606 f13d 99c2 98be d7c8 bebe 9352 943e
00000250: 00d0 8cbf 4102 143f f827 6d3e c7de acbd
00000260: b153 9d3f 81c9 6d3f ae0b 44be 8b37 2bbf
00000270: ad83 373f 98bf 28bc b73a 3a3e d919 0d3d
00000280: dd2b 5fbd 99b6 6bbd bbda 29bd 363c bbbe
00000290: 0e6e 123e ee09 05c0 d26f 5d3d 2d83 38bd
000002a0: a141 be3e 5ec7 d2be 85b3 a73d de49 db3e
000002b0: c55f 15be 3a52 063d f38f 28bf aa0c 933e
000002c0: d814 203e d9c3 393f d240 873b e004 93be
000002d0: 1e18 02bf 8f7d 023f 1b16 92be bf9c 0c3c
000002e0: aed1 cd3e 52c7 6fbf 89a5 f73e 13eb 1ebe
000002f0: 3059 babe 41db 243e f607 b6be 05e2 5e3e
00000300: cd61 90be 3bd7 363f 39f9 b23e f0ea 32bf
00000310: d520 803f 5d07 4ebf 5da4 2a3c e57c 07bc
00000320: dc52 dfbd 9070 8c3d 5698 a03d 5dc7 723d
00000330: 2e88 0cbe 7a83 f6bb 8aca 00be 5bf5 983d
00000340: 2d52 cc3d 8206 c7be 72f7 dfbe 74ee 9c3e
00000350: 3372 fd3e 9233 a7bf 2f7e 023e d242 97bc
00000360: 754f 543f 1faa 2abf bc94 1bbf 3b16 d1bd
00000370: b7d6 7b3e 9870 edbe 52ac 5d3d d638 b73d
00000380: 3055 9c3c 1abf 22bf 2a61 103e 7c29 c1bd
00000390: 0a82 f13e c9e3 4cbf fd44 b5be 1afd 093f
000003a0: 8536 fcbe 290e 60bc c0fa 0bbe 8420 d5be
000003b0: f202 8d3e ce3d e53d 0deb 73bd 5067 323e
000003c0: ce53 e63e dc3a 97be 57c3 a93e 7984 c43d
000003d0: e20b 7ebf 5df8 d73e 52c3 b23e 303a 633e
000003e0: bf5e 2cbc bc2c cabe eb94 8b3c 4115 033f
000003f0: c577 a9bd c21b 00bf 8afc 7d3e 98ac 0f3f
-0.029619798 -0.34268594 0.49399507 0.34502593 -0.44220915 1.3369786 -0.019763386 -0.19647719
-0.9923875 -0.67089736 0.29739037 -0.28146744 -0.14395946 -0.14726005 -0.28579995 0.054841056
0.18297216 -0.058663562 -0.18779136 0.052343484 0.03499399 -1.0023307 0.016233481 0.11417193
-1.1465433 1.604908 0.51761985 0.23131493 -0.67030597 -0.027139232 -0.010009077 0.015363736
0.2511687 -0.12981473 0.08893928 0.009651881 0.5522868 1.6442441 -0.22520994 -0.033257924
-1.2000734 0.47768825 0.17591415 -0.66408664 0.99011207 0.320338 -0.15328011 0.056797355
0.30557585 0.20400618 0.07602117 -0.2601044 -1.7956553 -1.288312 0.0002299155 0.0406189
0.20821571 -0.14485328 0.14003097 0.09057157 0.09879066 0.17016238 0.24967442 -0.076327935
-0.14411098 0.07289642 -0.027303547 -0.025223304 -0.14225547 0.23047434 0.2685813 0.13027415
2.9172676 -0.5259627 0.042362224 -0.16979639 -0.061451465 -0.0725967 -0.13946925 -0.10529701
0.39003363 -0.1691479 0.34335446 -0.51557153 -0.23096384 0.7861951 0.29610592 -0.22291951
-0.21248733 1.0130821 0.031856645 0.03776063 0.20714055 0.28792408 -0.0047219875 0.16942322
-0.0039144843 -0.14830714 -0.08415151 -0.23263277 0.28813288 -0.500134 0.33826628 0.68157244
-0.16811974 0.9336446 -0.2434348 0.15026268 -0.40920284 -0.2040449 0.04227301 0.14552523
0.011841182 -0.08936647 -0.16564177 -0.25808343 0.09660435 -0.4114876 0.8562598 0.099812336
0.82629174 0.24230137 0.7090796 -0.3190509 -0.65667427 -0.33600834 -0.26313227 0.54813945
0.15178302 -0.25983384 0.43292132 -0.16274887 -1.1527951 0.8417515 -0.055215288 0.04797222
0.02431239 0.6958113 -0.17674673 0.04290944 0.5670206 0.28681436 0.65900767 -0.36806256
0.11768846 -0.29835966 -0.37262604 0.2896925 -1.1000977 0.5781594 0.23159778 -0.08440929
1.2291166 0.92885596 -0.1914508 -0.66881627 0.71685296 -0.010299586 0.1818646 0.03444848
-0.05448519 -0.057547186 -0.041468363 -0.36569375 0.14299795 -2.078731 0.05406172 -0.045046974
0.37159446 -0.4116773 0.081885375 0.42829794 -0.14587314 0.03279326 -0.6584465 0.287206
0.15632951 0.72564465 0.0041276 -0.28714657 -0.5081805 0.5097284 -0.2853249 0.008582293
0.40199035 -0.93663514 0.4836848 -0.15519361 -0.3639617 0.16099264 -0.3555295 0.21765907
-0.28199616 0.71422166 0.34955767 -0.69889736 1.001002 -0.80479985 0.010415164 -0.008269523
-0.10904476 0.06857407 0.07841556 0.05927216 -0.13723823 -0.0075229974 -0.12577263 0.07468673
0.09976611 -0.38872153 -0.43743473 0.30650675 0.4950119 -1.3062613 0.12743448 -0.01846448
0.8293374 -0.66665834 -0.60773826 -0.10209318 0.24593626 -0.46374965 0.054119416 0.089463875
0.01908359 -0.6357285 0.14099565 -0.09431741 0.47169524 -0.8003507 -0.35404196 0.5390183
-0.49260345 -0.013675251 -0.13669872 -0.4162637 0.2754131 0.11193429 -0.059550334 0.17422223
0.44985813 -0.29537094 0.33156845 0.0959558 -0.9923688 0.42181674 0.34914643 0.22190166
-0.010520636 -0.39487255 0.017038783 0.51204306 -0.08274797 -0.50042355 0.24803367 0.5612273

actor.0.bias f4 [128]
00000000: a673 77be b6b3 1dbd eaff 6d3e ee80 3d3e
00000010: bd24 99bd 6deb 4d3e 1094 843b 3f11 0ebe
00000020: 4161 0a3e 3dc7 0f3e 6716 44bc 1ec5 043e
00000030: a969 01be f422 23bd ac59 503b d1cb 833e
00000040: 730c 473e 2599 02bc c97c 9f3e db0e 3a3e
00000050: 8ee3 d3bd f702 bf3e 4006 4cbe 8bed 423e
00000060: 5524 4cbe 39cc 643d ed72 4e3e 5591 39bc
00000070: d521 7fbc cd8d dcbd 38cf 78bd 9706 1d3e
00000080: e48b 0ebd 4748 cabd 5c2c 24be dd68 853c
00000090: 4eeb 5d3e 608f 47be afce 2dbe a4e8 9bbd
000000a0: 529f 2cbd 0dec 76bd 7b67 a5bd 2048 c63e
000000b0: e1b7 7ebe ea45 c23e 1094 ba3d 1eb2 0a3e
000000c0: f2ba da3d 861c b5bc dfe5 903e 839a cd3d
000000d0: 3d86 dd3e 9c3e d53d 7731 7b3d 894f 8d3d
000000e0: 49e5 1c3c 1651 953e 035c 3f3e ecbf ea3d
000000f0: d99c fbbd c99d 5dbd a9b4 813e 99a9 5c3d
00000100: 1899 4abe c2a5 b03d 5f9f acbe 26af ed3c
00000110: f1c5 a6be ef41 9e3e 0a29 25be 9061 61bd
00000120: cd92 413d ca8a b1bd 2c4e eebc 1963 033e
00000130: c4f0 46bd bcf5 633d 1fad 0bbe c479 623b
00000140: c6e5 173d 7df1 64be e80d eebd 64f5 7abe
00000150: 8eb1 623e d79f 6e3e bcbe 29be 1849 11bc
00000160: 45f4 8d3e 7196 673e 9217 4dbe f1bf 2dbe
00000170: f860 dfbd 4df5 f0bd b891 43bd 3935 18be
00000180: 7916 9dbe 379b 4cbd d465 d6bd edec 0fbe
00000190: 08e6 a0bd 826a 1cbe 2d7e d23c 8082 303d
000001a0: 4a48 453e 9c15 7a3d 1e0d 86be b2c5 96be
000001b0: cf74 acbb d87b 3dbd 9c41 83be 7331 a3be
000001c0: e3a6 e9bd 4e75 7f3e ea3b 883d 367a 24bd
000001d0: 5c4d cabd 0855 1abd f6d4 223e 3b53 023e
000001e0: 4a80 d7be 7e11 25bc fbb3 19be a81a e83c
000001f0: 438a 313b 9703 f8bd cab9 5bbd 04de 273e
-0.2416521 -0.038501464 0.23242155 0.18506214 -0.074777104 0.20109339 0.0040459707 -0.13873766
0.13513662 0.14040847 -0.011968232 0.12965819 -0.12637962 -0.039828256 0.003179173 0.25741437
0.19438343 -0.007971083 0.3114989 0.1816973 -0.10346137 0.3730695 -0.19924259 0.19035928
-0.19935735 0.055858824 0.20161028 -0.011326154 -0.015572031 -0.10769234 -0.060744494 0.15334545
-0.03480138 -0.09877067 -0.16032547 0.016285354 0.21671793 -0.19488287 -0.16973375 -0.07612732
-0.042144127 -0.06028371 -0.08076378 0.38726902 -0.24874832 0.37943965 0.09110272 0.13544509
0.10680188 -0.022108328 0.28300378 0.100392364 0.43266478 0.104123324 0.06132647 0.06899936
0.00957615 0.29163426 0.18687443 0.114623874 -0.12285776 -0.054105554 0.25333145 0.05387268
-0.19784963 0.08625366 -0.3371534 0.029014181 -0.32572892 0.30909678 -0.16128936 -0.055024683
0.04725914 -0.0866905 -0.02909001 0.12830772 -0.048569456 0.055654272 -0.13640259 0.0034557441
0.037084363 -0.22357745 -0.11623746 -0.24507672 0.22138044 0.23303162 -0.16576666 -0.008867525
0.27725425 0.22615983 -0.20028523 -0.16967751 -0.10907167 -0.117655374 -0.04774639 -0.14864053
-0.30681208 -0.049952712 -0.10468641 -0.14055224 -0.07856375 -0.15275005 0.02569493 0.043093204
0.19265857 0.061055765 -0.26181883 -0.29447705 -0.005262948 -0.046260685 -0.25635993 -0.31873664
-0.11408784 0.24947092 0.06652053 -0.040155612 -0.098780364 -0.03767875 0.1590155 0.12727062
-0.42090064 -0.010074971 -0.15010063 0.028333023 0.0027090467 -0.1211006 -0.05364398 0.16393286

actor.2.weight f4 [64, 128]
00000000: 3c98 6dbe 49a2 e2ba de0a c83c 3ddc ce3e
00000010: e1a9 a63e 7e20 643d e66e cd3e 5154 b83e
00000020: f906 51be a636 1fbf 0030 c5be 85f7 003f
00000030: e2bc 86be a667 2fbf 5e05 07bf c187 913e
00000040: 387b 053d 9051 823e d655 ed3b 8e85 f53e
00000050: d88d 01bf 68e7 1e3e 931f ef3d 9812 063f
00000060: 37f4 cbbe 2d71 9fbd 6e46 0b3f d8be 173f
00000070: 932b d73d 19e2 a73d 4013 903e 7d99 1abd
00000080: e00e 523c 2933 1f3e 8a96 50be f679 5f3e
00000090: e146 dd3e 3460 8ebe 6a76 05be 363c b13d
000000a0: a1d9 1d3f 9bb4 873e b241 38bd 89f2 313e
000000b0: 4a16 0bbf 7857 a6be 6da2 dbbd 0b0d e03e
000000c0: acde 4b3e 490f 843d a345 73be c6b6 cdbe
000000d0: b225 20bd 6dcb 3c3e 4d1d 8bbd b738 033f
000000e0: 5c9b 07bf b394 d2be 8163 a23c 3319 3a3d
000000f0: 3027 a9be 5245 d6be 3615 1cbf 9a0e 803e
00000100: d99e f03d d96c 8dbd be84 29bf dd6c e03e
00000110: 6ac4 88bf 6038 1c3c d875 f03b cccd d9be
00000120: 5650 b4be 64b3 c6be ad61 44be bac1 dcbc
00000130: 2284 9c3e 4d21 c83d a9bb 883e 13be 63be
00000140: 3a73 433e 1de3 83be 36ab 563d c6f8 a03e
00000150: c5b8 593f bc7a b23b 43a4 93be 8b4a 0bbe
00000160: 2505 3f3c ebfa 033e 6192 1b3e f52b d1bd
00000170: 2372 ab3d 1867 55be 0706 53bd c316 fcbe
00000180: fadb 123f 68c2 963e 646f 14bf bb53 3c3e
00000190: 6b2e a63d f3d7 5dbe 763f a8be 407a a5be
000001a0: 7087 a8be 0b9c cfbe e12b fbbd 460c 29bf
000001b0: 97da 32bd 2795 62bc ae04 95bd 08cd bf3e
000001c0: b343 b8be 71ef 32bc b3a9 db3e 2683 f53e
000001d0: caed aa3e e12e 33be 1161 d83e 7ae9 123f
000001e0: e5fe 923d 60c4 533d f70c 273d 9a08 a9bd
000001f0: 895b d13d 36ac 923e 004d d4be 87bf 9a3d
00000200: dd4b 1bbf 7d6a 07bd c445 e1be 82f5 563d
00000210: 039b 60be 2fcf dc3e 25ad 4e3e 3c55 2c3d
00000220: a65e 943d a49d 4e3e 5849 4f3e 7c69 8a3e
00000230: fa0a 5cbd b201 31be 236e ec3e 7f54 483e
00000240: f343 533f f9ae c43d 3c02 a83d 1539 583c
00000250: 5654 86be 25a6 603e f183 09bf df52 213f
00000260: b519 043e ef77 39bf b29b 1e3f d06f 833e
00000270: 1b00 233e f5c1 8f3e af1d 68be 0615 1c3f
00000280: 5ead 92be 4171 713e 5e8f 4bbe 1673 a23d
00000290: 1b3a 0c3f 9621 bebe 63bf 013f db6a 22be
000002a0: 0a40 c83e e692 413e 04ab 8dbe bab1 ad3e
000002b0: 1f6b 05bd 5eb6 863e fba9 823e 96ab 023d
000002c0: 6925 d6bc 426b 793e 260e 873d c407 053d
000002d0: 7de1 1dbd 544b 4f3d a1a6 fabe e041 803e
000002e0: 7d3b 2dbe 5267 b4be 1d77 6bbd 9080 02bf
000002f0: a8bd 0e3f 6582 303d d923 9fbe e172 42be
00000300: da4c 39be 2124 8bbe 130d de3d 26c0 023f
00000310: 7499 2abf bf69 b4bc 0968 76bf 4a7b 72be
00000320: dcd6 a73d a75c fd3e ed36 ecbe 9932 533b
00000330: ba15 f5be 4fbe c53e 05eb 343e 85ce 56bd
00000340: c49f 10be 6099 423e 62b0 8bbd ad7a 37be
00000350: c1c8 2d3f 7893 333e 493b 9cbe 5b5f 60be
00000360: a1dc e13d 9452 02bf 8fde 68be d712 b03d
00000370: b39e 78be caaa 933d b4a2 a7bd 3824 c13d
00000380: 5e16 393e 28c4 cbbe 3104 c9be 02ea 31be
00000390: ed6b f0be e7f9 aebe 11bf 11be 9a16 0ebf
000003a0: ec32 2b3e 7d26 92be 5f10 0f3f 830b 04bf
000003b0: f0e2 d3be 43dc a83d 5818 ec3d 0096 80be
000003c0: e773 58be 22fd 01be 14f7 1d3f 874b e43d
000003d0: aad5 183f 0da2 ac3e 1d80 443f b1f0 263e
000003e0: 0332 37be 38ef f1bd 015f a4bd 1a63 873e
000003f0: 9330 19be 8a67 0cbf 45f9 29bd b259 013d
-0.23202604 -0.0017290796 0.024419244 0.40402403 0.32551482 0.05569505 0.4012367 0.36001828
-0.20412816 -0.6219276 -0.38513184 0.50377685 -0.2631598 -0.6851753 -0.52742565 0.28423885
0.032588214 0.25452852 0.0072428985 0.47953457 -0.5060706 0.15517962 0.11675944 0.5237212
-0.3983476 -0.077852584 0.5440434 0.5927558 0.10506358 0.081974216 0.28139687 -0.037744034
0.012820929 0.1554686 -0.20369926 0.21823868 0.4321814 -0.27807772 -0.13033453 0.086540624
0.616602 0.2650498 -0.044984527 0.17377676 -0.54330885 -0.32488608 -0.1072434 0.4375995
0.19909161 0.06448228 -0.23757033 -0.40178508 -0.03909845 0.18436976 -0.06792698 0.51258415
-0.52971435 -0.41129074 0.019822838 0.045434188 -0.3303771 -0.41849762 -0.60969865 0.2501114
0.11749048 -0.06905527 -0.66218174 0.43833056 -1.0684941 0.009534925 0.007338267 -0.42539823
-0.3521754 -0.3880874 -0.19177885 -0.026947845 0.3056956 0.097719766 0.26705673 -0.22240476
0.19086924 -0.2575921 0.052409373 0.314398 0.8504756 0.00544676 -0.2883626 -0.13602655
0.011658941 0.12888686 0.15192558 -0.10213462 0.08371379 -0.20840108 -0.05151942 -0.49236116
0.5736691 0.29445195 -0.5798247 0.18391316 0.08114322 -0.2166441 -0.32860917 -0.32319832
-0.3291583 -0.4054874 -0.122642286 -0.6603435 -0.043665495 -0.013829506 -0.07276283 0.37461114
-0.3598915 -0.010921345 0.42902908 0.4795162 0.33384544 -0.17498352 0.42261556 0.57387507
0.071775235 0.05170095 0.04078385 -0.08253594 0.10222537 0.28647012 -0.41464996 0.07556062
-0.60662633 -0.03306054 -0.4399854 0.05248023 -0.21934132 0.4312682 0.20183237 0.042073473
0.07244615 0.20177323 0.20242822 0.27033603 -0.053721406 -0.17285803 0.46177778 0.19563483
0.8252556 0.09603686 0.08203551 0.013197203 -0.26236218 0.21938379 -0.5371695 0.63017076
0.12900431 -0.7244863 0.6195632 0.25671244 0.15918009 0.28077665 -0.22667573 0.6096958
-0.28647894 0.23578359 -0.19878909 0.07932107 0.5477616 -0.37135 0.5068266 -0.15861075
0.39111358 0.18903694 -0.27669537 0.33924657 -0.03257286 0.2631101 0.2552031 0.03190192
-0.026140885 0.24357322 0.065944955 0.03247811 -0.03854512 0.050608948 -0.48955253 0.2505026
-0.16917224 -0.35235077 -0.057486642 -0.5097742 0.5575814 0.043093104 -0.31082037 -0.18989135
-0.18095723 -0.27176002 0.108423375 0.51074445 -0.666404 -0.02202308 -0.96252495 -0.23679844
0.08195278 0.4948475 -0.46135655 0.0032226203 -0.4786814 0.38621756 0.17667778 -0.052443046
-0.14123446 0.1900382 -0.06820752 -0.17917891 0.6788445 0.17536724 -0.3051398 -0.21911375
0.1102841 -0.50907254 -0.2274115 0.085973434 -0.24279289 0.0721031 -0.0818533 0.09430736
0.18074939 -0.39798093 -0.3926101 -0.17374423 -0.4695734 -0.34175035 -0.14233042 -0.5550324
0.16718644 -0.2854499 0.55884355 -0.51580065 -0.41384077 0.082451366 0.11528081 -0.2511444
-0.21137963 -0.12694219 0.61705136 0.11147218 0.59701025 0.33717385 0.76757985 0.16302754
-0.17890172 -0.118132055 -0.08025933 0.26442796 -0.14959936 -0.5484549 -0.041497488 0.03157968

actor.2.bias f4 [64]
00000000: 0632 293e ea4e e03d 1d1f b83d f8fa d1bc
00000010: 7d51 3c3e fd7e efbc 8642 c0bc 93cf 0e3f
00000020: 3fd3 033e f3fa 0e3d cc6b b8be 7403 893d
00000030: d96d 0dbe e68c a2be 0c8e ba3e d355 a5be
00000040: f793 1a3e 4f47 1d3e 128c 983c 91ff 0cbe
00000050: c933 813e 53ba 74bd 759a 4b3d fcb1 ad3e
00000060: ad76 1d3d 3a44 debd 3180 d13d a7d2 bfbe
00000070: fafd 283e 5089 7fbe 6eca b6be 13d3 3d3d
00000080: 56a2 9d3e 8aa3 463d 15c0 ad3c cb3f e63d
00000090: 085d 02bd 5498 5dbe dcdd b2bd 43d1 42be
000000a0: f703 adbd 1250 69bd 995c 73be e594 033e
000000b0: fed4 8fbd 2329 39bc 1001 613d 5f80 013f
000000c0: 647c 95be 075e 29bd d49b dfbe 220f 98bd
000000d0: 1a07 213e bde7 1fbe 1489 843c a06f 32bd
000000e0: c290 59be 3b79 813e b211 d4be c136 f2be
000000f0: e606 e73c 49f9 553d 2b23 d53c d630 ff3d
0.16522989 0.10952552 0.089903094 -0.025632367 0.1839046 -0.029235357 -0.02346922 0.55785483
0.12873553 0.034907293 -0.36019742 0.06690112 -0.13811435 -0.31748122 0.36436498 -0.3229204
0.15095507 0.15359233 0.018621478 -0.13769366 0.2523482 -0.059748005 0.04970785 0.33924854
0.038443256 -0.10852857 0.10229529 -0.37465402 0.16503134 -0.24954724 -0.35701317 0.046343874
0.30787915 0.048495807 0.021209756 0.11242636 -0.031827003 -0.2164014 -0.087337226 -0.1902514
-0.08448022 -0.056961127 -0.23765792 0.12849768 -0.07023047 -0.011301312 0.054932654 0.50586504
-0.29196465 -0.041349437 -0.43673575 -0.07424761 0.15725365 -0.15615745 0.016178645 -0.043563485
-0.21246627 0.25287804 -0.4141975 -0.473074 0.028201532 0.05223969 0.026017746 0.124604866

actor.4.weight f4 [9, 64]
00000000: 5fa2 683e 043b 663d de84 fc3d 1b0f e83b
00000010: 802e 66be 808d 1c3c 4d8a 2f3c 452f 793e
00000020: c569 a7bd 5876 c43d 282a 03be 2ccf 65bc
00000030: 377a 523d c0a2 fc3d 7448 e8bd fa52 c33c
00000040: 12e5 f8be 34d9 8bbe 4a75 ca3d f06c be3d
00000050: ff26 85be d619 05be e253 423d d48c 9339
00000060: 1d02 5b3c ef12 f1bc c29c 123e 045a 183d
00000070: bc43 233c 5a3b 333e 09ba 69be 1c26 b93d
00000080: 5aaa 463f 93ec cbbd 9176 83bc 64fc 423e
00000090: 25ed 463c d153 c63d 2058 c83d 5265 103c
000000a0: a614 4abb 384e da3d d435 d93c bc8d 83bd
000000b0: e339 9b3d 5aa5 473d ab3c adbd 3073 0bbe
000000c0: ced4 a1be 5feb 793d bcbd 21bf 6529 283d
000000d0: 5400 e93d 0d65 d13d bc06 d23c 4999 69bd
000000e0: 4cb2 d8bc e9f3 00be c0d8 3a3e 2633 f63d
000000f0: 6c10 00bb 8fe1 203d 5236 f6bd 353c f03c
00000100: 99d7 6abe 7760 babd ff40 6b3c b317 d93d
00000110: 5ec9 393f 6f33 873e e4d9 b03e 2b27 2c3f
00000120: d05b b93d c9e0 4abe a025 223f 5f85 f0bd
00000130: 2917 a83e 3924 89bd ee91 3f3d 2ac0 25bf
00000140: d76c 96be e8d5 97bd 63ff 133e d6d2 0a3d
00000150: de3c 8b3f d264 3e3f 3805 9fbe 3790 383b
00000160: 6ae7 113e 2e37 8b3e c578 aebe d928 bdbd
00000170: 611d 18bf dc07 e73e 5e88 1abf 1973 fabe
00000180: f039 acbf b64b 9b3b 357d a73d fd7f 3e3e
00000190: 3ae4 a6be 2b2a 7d3e e9e7 9e3d 05e2 17be
000001a0: eb99 81bc a755 193d 44e7 82bd 8ca5 813e
000001b0: e90d a6bd 6d06 193f edb0 053e 8f0c 4dbf
000001c0: c141 8abf 4b93 31be 79d2 893f 5856 f63c
000001d0: e117 02bf 27db bcbd e46d 9ebd 218e ec3e
000001e0: 6dcb b6be 8c50 903e 451b dcbd e8b8 893f
000001f0: 4fd9 2c3e 73cd cf3e cdb7 c63d 39e7 c13d
00000200: 7829 013c 981f 173d 233a ffbd 6e4e bbbd
00000210: 8fc5 ddbe 133f 9cbe 0426 b3be 11a4 60bf
00000220: e164 09ba 32a9 033e 7ab6 f5be 1566 fe3d
00000230: 2927 d9be 9885 cabd e03d b13d 193e 0e3f
00000240: d7cb 4f3f 453b c13e 7f42 81be d465 0dbe
00000250: 3b03 40bf ff1d 12bf 10ca 863e 8c48 243d
00000260: 2803 1fbe 26b2 7cbe a833 333e 7034 e53c
00000270: 584b 0b3f 2be4 25bf a589 4a3f ef50 ba3e
00000280: 13d5 003f ff31 c13d af84 03bd 6799 b2be
00000290: 0e7c 943e d034 bbbe ca41 53be bcf0 063e
000002a0: 2c3f 9e3b bf09 1fbe d2f4 8f3c 432d 40be
000002b0: 35dc 62ba f5d3 21bf d833 6abd ca5b 743f
000002c0: 5fb4 b23f 7fdc e13d 58e9 ccbe 7754 98bd
000002d0: daaa bc3e 9262 8dbc 076d 133d 49ab c6be
000002e0: b12e b63e 6218 0fbe 0366 f6bd 2adf 9abf
000002f0: 43ea 1fbe ffb3 dfbe 7a7c 383d efd5 00be
00000300: 6faa 0cbe 2a1d 203e c05b 85bc c3b6 383c
00000310: 705a dc3d 37d5 0b3e daca 0e3d 5dd3 263e
00000320: 0486 453e c5b4 88be 441a 5cbd 8718 a0bc
00000330: 7419 a43d 16eb da3e 5f50 983d c905 ecbd
00000340: 3991 b73d a6a9 b2be 12f2 dd3d d52c 8bbd
00000350: 485e 083f 797b 273e 86c3 04be 5cf5 833c
00000360: 6ec2 9d3d 68e8 f7bc 53b1 8ebd fb7e 51be
00000370: 554a 03be e849 cf3b 4a95 a2bd 7022 d1bd
00000380: 48da 4d3c 7a6c 0abe 0076 e93d 9862 a1bd
00000390: 68b2 e0bc 4a46 443b 9e2b f6bd 6465 513d
000003a0: 2477 c0bd 43f1 6abd 6618 493e 2f80 3b3a
000003b0: 8276 e8bc 98f5 493d 9a1d ccbd c283 d93d
000003c0: 750d 49bc cf7f b13c 71b0 3fbd 8457 b0bd
000003d0: 6890 13bc 7bea df3d d6f5 853d 7c4c 233d
000003e0: bde2 dfbd b099 5fbd d82c 8bbe aed2 223d
000003f0: 803f 9cbc fd84 ca3d c96d 92bd 73e7 38bd
0.2271819 0.056208625 0.1233003 0.007081879 -0.22478676 0.009555221 0.010714126 0.24334438
-0.08174471 0.09592885 -0.1280905 -0.014026444 0.051386084 0.123357296 -0.11341944 0.023843277
-0.48612267 -0.2731415 0.09885652 0.09298122 -0.26006314 -0.12998137 0.047443278 0.0002814295
0.013367203 -0.029427974 0.14317611 0.03719522 0.00996488 0.1750311 -0.22824873 0.09040472
0.77603686 -0.09957232 -0.016047748 0.19041592 0.012141501 0.096839555 0.097824335 0.008813219
-0.0030835061 0.1065945 0.026514925 -0.06423518 0.075794004 0.048741676 -0.08458837 -0.1361816
-0.3160767 0.061015483 -0.63180137 0.041055102 0.11377016 0.10224352 0.025637977 -0.05703095
-0.026452206 -0.12593044 0.18246746 0.120214745 -0.0019541038 0.03927761 -0.120220795 0.029325584
-0.22933806 -0.091004305 0.014358758 0.106002234 0.72572887 0.26406428 0.34541237 0.67247266
0.09050715 -0.19812311 0.6333866 -0.117441885 0.3283017 -0.06696362 0.04677003 -0.64746344
-0.29379913 -0.07413846 0.14452891 0.033892475 1.087795 0.7437259 -0.3105867 0.002816213
0.14248434 0.27190536 -0.34076515 -0.09236307 -0.5941983 0.45123184 -0.6036433 -0.48915938
-1.3455181 0.00473925 0.08178178 0.18603511 -0.32595998 0.24723117 0.07759077 -0.14832313
-0.015820464 0.0374352 -0.06391767 0.25321615 -0.08108122 0.5977543 0.13055773 -0.8009729
-1.0801316 -0.17341344 1.0767356 0.030070469 -0.50817686 -0.092214875 -0.07735804 0.46202186
-0.35702077 0.28186452 -0.10747389 1.0759554 0.16879772 0.40586433 0.09703026 0.0946793
0.007883422 0.036895365 -0.124622606 -0.09145819 -0.43314788 -0.30516872 -0.3498994 -0.87750345
-0.00052411674 0.12857512 -0.4799078 0.12421814 -0.4241269 -0.09888762 0.0865438 0.55563504
0.8117041 0.37740532 -0.25246045 -0.13808376 -0.7500493 -0.5707702 0.26326036 0.04010825
-0.15528548 -0.24677333 0.17500174 0.027979106 0.5441184 -0.6480128 0.7911628 0.36389872
0.50325125 0.09433364 -0.03210896 -0.34882662 0.29000896 -0.3656373 -0.20630565 0.1317777
0.004829308 -0.15531062 0.017572794 -0.18767266 -0.0008654029 -0.63214046 -0.05717835 0.9545256
1.3961295 0.110283844 -0.40021777 -0.074379854 0.368491 -0.017258916 0.03599265 -0.38802555
0.35582498 -0.13974145 -0.12031176 -1.2099354 -0.15616708 -0.43692014 0.045040585 -0.12581609
-0.1373689 0.15636125 -0.016279101 0.011274043 0.10759437 0.13655554 0.034861423 0.16291566
0.19289404 -0.26700416 -0.053735986 -0.019542946 0.08012667 0.4275748 0.074372046 -0.11524541
0.08963246 -0.34895056 0.10837187 -0.067956604 0.5326886 0.16355695 -0.12965211 0.016108207
0.077031 -0.030262187 -0.06967416 -0.20458595 -0.12821324 0.006325949 -0.07938631 -0.102116466
0.012564249 -0.13517943 0.1139946 -0.078801334 -0.02742882 0.0029949122 -0.12020038 0.051122084
-0.09397724 -0.05735899 0.19638214 0.0007152585 -0.028376821 0.049306482 -0.099665835 0.10620834
-0.012271275 0.02166739 -0.046799127 -0.08610442 -0.009006597 0.109333955 0.0654103 0.039867863
-0.10931919 -0.054589927 -0.2718265 0.0397517 -0.019073248 0.09888647 -0.07149846 -0.045142602

actor.4.bias f4 [9]
00000000: e6fd 47bf 2250 ec3e aef0 d93e 8198 053d
00000010: b7ea 88bd c80b 863d c141 a0ba 9cb0 703d
00000020: 9aa8 bcbc
-0.78121793 0.46154886 0.42566437 0.032616142 -0.06685393 0.06545216 -0.0012226627 0.058762178
-0.023029614
