Plotting/saliencies_live/Multi_Pong/Sequence_Length_2/multi_pong_2__1__1721945456_checkpoint_1064.pt (torch, 89074 bytes, 11 tensors)

critic.0.weight f4 [128, 12]
00000000: fe1e 623e 3c87 2f3d f2a9 9f3e e20f 013d
00000010: 0bfd 0bbc 7bda 3d3e 8899 debf 99e8 da3f
00000020: 6687 4c3d a8f2 293e bd72 a4be 8e23 f93f
00000030: f4f0 d73c 23a1 3b3c 9424 9bbd 51ba b13c
00000040: dcf8 10bd e288 e23c 5de5 e5be 547d 203e
00000050: 255b 7fbd f798 fc3d 59d5 ecbf 7dec 3440
00000060: eb17 9cbc 4e13 bf3e 64f9 7bbe f34e bbbe
00000070: b0d8 813d 5757 50bc 0f83 c03e 5548 b23c
00000080: 8361 533d b2b4 cebc dd50 a93e eb8c 013e
00000090: c18e fb3e abb7 16be e9e6 0e3f 5aaf 92be
000000a0: 2d9d d83c 19c7 55bc 4890 d53b 8fe6 c1bd
000000b0: ae70 60bf eb48 dd3e 762c babf 502f 043f
000000c0: 8602 bfbd f3e2 d63c bad7 d63a 9520 cdba
000000d0: b9e2 c33c f5d3 6fbd 1d65 ff3e 5fd7 723d
000000e0: a39c 2d3d 831b 243d d1f2 7f3f 71cf f23f
000000f0: 45bb 99bd d4f5 fdbc 6f0d 3ebe 6ff8 1bbd
00000100: 6371 a6be 4612 b1be 7f4c fdbf 52a8 45c0
00000110: c512 773c 3965 c6bc f4d5 fabd 8c1e 4abc
00000120: b0bc 2f3e 8d0e 95bc 93e2 bdbd d13b 9a3b
00000130: 0a37 de3d e6d2 0ebe 2fbe 3540 9fdb 41c0
00000140: 6ba1 28bc ffce 873c a47b 05be fd65 bb3c
00000150: d3f7 18bd 961f 6abc a102 08bd 8224 1cb9
00000160: d2ce 53bb 809b 1f3c 7df8 183d 9f7e d5bd
00000170: c87f a3bd 2e24 873d 3041 e6bf 0a9d 6240
00000180: e743 b8be bff8 5c3c 8214 28be f152 8dbc
00000190: c71e 22be 78a8 2abc 914b 47c0 97ad 8c3e
000001a0: fb5f f9bd cf38 543b 364d a93d dad2 3e3e
000001b0: c309 5ebe edc0 cdbe 9af2 cfbe a9be 253e
000001c0: 03f5 033d d013 07bd 7f6d 8dbf 0e70 a73d
000001d0: d5b3 ba3e 6b51 fe3d 4bde c93f fe4e bb3f
000001e0: 804b c33d da06 0c3b dba8 363e 1331 e43b
000001f0: 1bc8 f83b b542 ff3b a170 01be c61a 863d
00000200: 9c4b be3c 7f4e 1fbc 9598 ff3f 5666 8bbf
00000210: 3629 61be 511d b83b 592d 8e3d e357 3dbb
00000220: d2fd e5bb e7aa 90bb 1ccb bcbf 57be abbf
00000230: 067f 45bd e1bc 9a3c 5616 90bf 4b28 0e3f
00000240: cb31 283e f026 aaba 8c2d 993b 1b90 d23a
00000250: 8c1d 4b3d 1298 073c 8752 3a3f 4458 c73e
00000260: f1b5 debd 52e4 8dbc bfdb 80bf f4a9 c4bf
00000270: 6e89 693c 6b41 3dbc 760a 443d d759 043c
00000280: 0516 c53c 250f d33b 2848 493e 7579 373e
00000290: e229 f63d a2f9 27bd 3da9 f73f 255c 90bd
000002a0: d90f a93d 4bb3 13bc ca05 edbb 1397 5d3c
000002b0: 9b50 68bc f829 613e 7dff 223e 1a57 3840
000002c0: 3626 e6bc 47a6 4abe 64bd 1bbe f97b 2dc0
000002d0: 11e3 653e fbc7 02be 34b4 873e 5a12 b3bd
000002e0: a350 483d 745e 1cbc f2a7 a5be 038e 713f
000002f0: 577f 01be b37c a23d 7592 b6bf 2544 98bf
00000300: cd25 a43e 5483 3fbc 6011 4c3c c944 f43b
00000310: 6ac0 8a3d 6b0a 5bbd 797c 503f 940a 18c0
00000320: a89f 453d a80f ad3d b81f f5bd 092a 703f
00000330: 2d1b 273d 50f0 87bc 2377 6dbd 73d7 0a3b
00000340: 51e3 e7bc 5485 e43d 74e9 3a3d b2a9 5b3d
00000350: 6fff 52bc 989d dcbd 5cab bebf 1d2a 393d
00000360: 8b0c 483d ec17 eebc c1ec 303d c597 7e3b
00000370: 209f 113c 0aa5 a7be f65a 5e3e 8a54 f4bf
00000380: 30a2 173c 8045 ac3e b0e6 373e 0c20 f93f
00000390: e88b c13d fb1c 3f3b bcfd c4bd 13bd 073c
000003a0: b8ee 2fbb 791a e93b 3ba2 58bd 60ff b5bd
000003b0: ad9e 923d 53bb 74bd e663 7140 3f8e 54c0
000003c0: 5a3e 93be 1e15 343c d28d 143e 1297 823c
000003d0: f974 2cbe 1402 de39 08f8 5fbb a148 72be
000003e0: ea8c 193e 0f05 173c 4096 6a40 fede ad3c
000003f0: 342b fabc b56f 013d 796b 25be 6c7a 24bc
0.22082135 0.04285358 0.31184345 0.031509288 -0.008544217 0.18540375 -1.7390604 1.7102233
0.049933814 0.16596472 -0.32118788 1.9463975 0.026360013 0.011451992 -0.07575336 0.021695288
-0.03539358 0.027653161 -0.44901553 0.15672809 -0.06234278 0.12333863 -1.8502609 2.826934
-0.019054374 0.37319416 -0.24606854 -0.3658367 0.06340158 -0.012716136 0.3759999 0.021763006
0.051606666 -0.025232647 0.33069506 0.12651412 0.4913235 -0.14718501 0.5582109 -0.28649408
0.026442135 -0.013047957 0.006517444 -0.09467804 -0.87671936 0.43219694 -1.4544818 0.51634693
-0.09326653 0.026231265 0.0016391196 -0.0015649969 0.02391182 -0.058551747 0.4988183 0.059287425
0.04238571 0.0400653 0.99979883 1.8969556 -0.07506422 -0.031001009 -0.18559812 -0.03807872
-0.32508382 -0.34584254 -1.978897 -3.0883985 0.015080159 -0.024218189 -0.122478396 -0.0123363845
0.17161822 -0.018195415 -0.09271731 0.0047068377 0.108503416 -0.13947639 2.839733 -3.0290296
-0.010292391 0.016578196 -0.13035446 0.02287578 -0.03734572 -0.014289757 -0.033205632 -0.0001489092
-0.003231932 0.009741664 0.037346352 -0.10424542 -0.07983357 0.065986976 -1.7988644 3.540835
-0.35989305 0.01348704 -0.16414073 -0.017251464 -0.15832053 -0.010416143 -3.1139872 0.2747619
-0.1217651 0.0032382493 0.0826668 0.18635121 -0.21683411 -0.40186253 -0.40614778 0.16186012
0.032216083 -0.03297788 -1.104904 0.081756696 0.36465326 0.12417873 1.5770963 1.4633482
0.09535885 0.0021366389 0.17837851 0.006963858 0.007592214 0.0077899345 -0.12640621 0.065480754
0.023229413 -0.009723305 1.9968439 -1.0890605 -0.21988377 0.005618729 0.06942243 -0.0028891496
-0.007018783 -0.0044149044 -1.4749484 -1.3417462 -0.048216842 0.018888893 -1.1256816 0.5553023
0.16425245 -0.0012981575 0.004674619 0.0016064675 0.049588725 0.0082760025 0.72782177 0.3893453
-0.10874546 -0.017320786 -1.0067061 -1.5364366 0.014253957 -0.011551241 0.04786154 0.00807806
0.024058351 0.0064410144 0.19656432 0.17917426 0.12019707 -0.041009553 1.9348522 -0.07048825
0.08254976 -0.009014915 -0.007233356 0.013524788 -0.014179374 0.21988666 0.15917774 2.8803163
-0.028094392 -0.19789992 -0.15208966 -2.7106917 0.224499 -0.12771599 0.26504672 -0.08743735
0.048905026 -0.009544004 -0.32354695 0.9435732 -0.12646233 0.07933941 -1.4263445 -1.1895796
0.3206009 -0.011689026 0.012455314 0.007454489 0.06774981 -0.053476732 0.8143993 -2.3756456
0.048247963 0.08450252 -0.119689405 0.9381414 0.0407974 -0.016594082 -0.057974946 0.0021185547
-0.028306635 0.11158243 0.045632794 0.05362863 -0.012878283 -0.10772246 -1.4896045 0.045206178
0.048840087 -0.029064141 0.043194536 0.0038847786 0.008888036 -0.32743102 0.21714386 -1.9088299
0.009254977 0.33646774 0.17959094 1.9462905 0.09450513 0.002916156 -0.096187085 0.008284825
-0.0026845168 0.0071137515 -0.05288909 -0.088865995 0.07159171 -0.05974896 3.7717223 -3.321182
-0.28758508 0.010991363 0.14507225 0.015941177 -0.16841497 0.00042344688 -0.0034174938 -0.23660518
0.1499516 0.009217515 3.6654205 0.021224495 -0.030538179 0.031600673 -0.16154279 -0.010038953

critic.0.bias f4 [128]
00000000: d9af a63d ce3a 683d 6f37 08bd 5030 de3e
00000010: 77f8 6fbd b28c f4bd 107a dd3d 6456 7abd
00000020: 1dd2 aebd f965 8bbe b8cb 61bd e6ca 89bc
00000030: a4d3 4d3c cf17 963b 493c b1bb 8b66 7a3e
00000040: e199 8e3d 5938 c63c 3e4c 8cbd 585d 85bb
00000050: deb2 463b 8a9d fe3c 97c5 1a3c 0c39 6fbe
00000060: 3895 18bf 6989 c43d 66d9 68bd 32b5 533f
00000070: 4dbb bd3d 41ba 203e 9f81 d63e 23d1 523c
00000080: 36c6 88bc e9e6 a83b 937a 25bc 782b 68bc
00000090: dcc3 bcbd f94b 98bd 91a1 d5bd 2906 40be
000000a0: ca96 723d c4bd 02bd 8404 623d 46c4 23bc
000000b0: d636 febd 92b5 86bd 732c 983e 0415 c6bc
000000c0: 453f a4bc ee47 bcbc 84b1 5ebb e0b5 c53d
000000d0: a80e 9ebd 091b be3d 04e5 f4bb 9ae9 43bd
000000e0: 79d1 c83d 0958 5e3d 2e86 2a3c a18e 803c
000000f0: 9684 79bd 610b c5bc b66a 97bd 5b4e cdbd
00000100: 3254 123a 03fd 0f3e 4c97 8d3d 97ae 1cbc
00000110: 95d8 6fbc 1bfd 84be e31d b5bc 8afe 0a3d
00000120: ca48 09bb 5f3f 6abd 03ea aabc 06b1 39bd
00000130: c61e 43bd 8859 b53c bcc9 193e 6b40 28bd
00000140: 0398 6ebc b80c 8abd 142e d23d acea 5abc
00000150: 18fa a63d 31de 863d 7715 79be e705 11bd
00000160: 36d5 16be deb8 26bd d9e1 dbbc 9c1b debc
00000170: 7467 1ebd 10a8 dd3c 2c14 a23d 8bc7 0abd
00000180: 1dad 22bd e2d7 1c3f d4e3 8d3d e228 5ebd
00000190: 769f 8abc ef00 96b9 6d58 02be 63f3 1abd
000001a0: 8dda ccbe 45c0 12bd 1a03 a2bb bc84 febd
000001b0: c2af c33c ccf1 f5bc e3be 713e bb13 7bbd
000001c0: 826e 4eba b778 203b 1eb0 53be a7ad b13d
000001d0: 233a ba3e 41b1 9c3d 580e 013d 3161 af3d
000001e0: a9d7 f53d 0fb1 83be dfb2 aabd 4ae8 42bd
000001f0: 74d6 663d 0dec 073d 7dcd 19be eeb1 103e
0.08139009 0.056696706 -0.03325599 0.43396235 -0.058586564 -0.11940898 0.10814297 -0.061117545
-0.0853617 -0.27226236 -0.055125922 -0.016820382 0.012562666 0.004580475 -0.005408798 0.2445318
0.06962944 0.02419679 -0.068504795 -0.0040699653 0.0030319015 0.03108098 0.009446523 -0.23361605
-0.5960269 0.095965214 -0.056847952 0.8269836 0.092642404 0.1569605 0.41895768 0.012867245
-0.016696077 0.0051544798 -0.010100025 -0.01417052 -0.09217045 -0.07436366 -0.10431207 -0.1875235
0.059225835 -0.031919256 0.055180088 -0.009995526 -0.12412803 -0.065776005 0.29721412 -0.024179943
-0.0200497 -0.022983517 -0.003398032 0.096538305 -0.07717639 0.092825 -0.00747359 -0.0478302
0.09805579 0.054283176 0.0104079675 0.01569301 -0.06091746 -0.024053277 -0.073934 -0.10024711
0.0005582004 0.1406136 0.06913623 -0.00956311 -0.0146390395 -0.25974354 -0.022108978 0.033934154
-0.0020947927 -0.05718934 -0.020863539 -0.04533484 -0.04763677 0.022137418 0.15018362 -0.04107706
-0.01456261 -0.06740707 0.10262695 -0.013361614 0.0815317 0.065853484 -0.24324594 -0.03540602
-0.14729771 -0.040703647 -0.026841091 -0.027112775 -0.03867288 0.027057678 0.07914004 -0.033881705
-0.039715875 0.6126691 0.069282204 -0.054238208 -0.01692174 -0.00028610925 -0.12729044 -0.037829768
-0.4001049 -0.035827894 -0.0049442174 -0.12427661 0.023887519 -0.030022524 0.23607974 -0.061298113
-0.00078747433 0.0024486014 -0.20672652 0.086757 0.3637248 0.07650996 0.03150782 0.0856346
0.120040245 -0.25721022 -0.08334898 -0.04758481 0.056356862 0.0331841 -0.15019794 0.14130375

critic.2.weight f4 [64, 128]
00000000: 7410 e2bc 5237 803e 0dbe 5d3e 44cf ac3c
00000010: c7c3 8abe a591 de3c fbb1 883e c8ea 503e
00000020: 5083 ca3e 62e7 e23b bb82 16bd 5c4c 163e
00000030: a068 843e 9b33 b73e e1c3 42be 1f85 743e
00000040: d6ea 533e 629a cf3e 636a 0b3e d756 43bf
00000050: eff2 ee3d cb75 1abe bcab 4bbe 81e1 0f3e
00000060: 4400 8ebd a75b d13e 3914 babe 78c4 1d3c
00000070: d5a6 833e 29df 313e 4e74 ca3d e39c 85be
00000080: fa02 363a d881 ce3d 66a2 d03e 3354 4abe
00000090: b6d0 9bbe a6b3 a23d ce68 3dbe f115 5f3e
000000a0: 90ef 1fbd fc84 d7bd b270 073e c750 16be
000000b0: d3af b13b 9c5f 013e 170a cdbd f480 80be
000000c0: 9f70 243e 6c94 7b3d ad3f 91bd efa8 30bd
000000d0: 5a78 213e 8b94 2dbe 9ba4 353e 7134 833b
000000e0: 8aca d6bd 6891 7a3e fe76 42be cfe1 4d3d
000000f0: c2b6 82bd ddae 27be 0584 463e 0828 b4bc
00000100: 2df7 c4bc deb8 60be a468 f0be dc46 e7bc
00000110: 8e4d b8bd 8b9e 793e fade c1be 0934 c13c
00000120: d3ef 59bf 07d0 b23e 9737 193d 8985 793e
00000130: 8b18 42bf 66b0 8e3e 900f c6bc 06d8 403e
00000140: 4b79 b5bc 2ab9 fbbe 6260 943e b172 2a3d
00000150: ddab c13a 0cff bc3b 892e e8be a06e 4dbe
00000160: b3c4 87be 8ca1 07be 6644 a23e 5b28 553e
00000170: 1018 63be 9f6c 33be 008b e8bd d259 223e
00000180: 8543 7dbe d40e d23e 955c fabc 601a 9ebe
00000190: 1bae 3fbe 6745 8b3e f603 0ebe 857a 163e
000001a0: 1f25 c9bd 893e e0be 5cd2 42be 5f6a 56be
000001b0: 8c4e a43c 2c79 a33c dd99 143d c038 fabe
000001c0: 0a79 23bf d576 c73e 1426 763e 7a04 cfbe
000001d0: 02a5 a83e 30b2 353e 2efc c6bc 2040 733e
000001e0: 1347 52bd 3917 83be 8dfb eabc 05ab debd
000001f0: 44d6 26be 0669 cfbe 1464 8e3e 01ef 8f3d
00000200: df7e 16bd 4464 a0be 15cc 4f3d 02f0 2c3f
00000210: 3593 323f dc86 00bd 43a0 a2be 7cd1 a63d
00000220: a962 663e 7d99 ff3c 24ff 60bd 915c 143f
00000230: 4d0a a5be bf31 b9bc c9d1 70be cdd9 8b3d
00000240: ddf3 563e f032 543e a656 19be 12d5 8a3f
00000250: 78d4 9cbe 461b 98be 4ac5 373f df33 b7bd
00000260: 8622 483d ab36 6b3f 8fe3 5dbe 4a8a 34bf
00000270: e812 1f3e 0892 e1be c22b 0c3e 2181 27be
00000280: 3c09 f63e b04e 193e 2f85 f7bc 054e 343e
00000290: d90f 07bf b5f2 dfbe f664 023f 3183 e7bd
000002a0: 42d5 223d 367e fdbd 4c8c 18bf d98b 143d
000002b0: 9cda 48bd 06a4 9f3d f733 1fbd d714 dbbd
000002c0: 56d4 c83d abd0 48bd f696 74be 8410 a53c
000002d0: 105f 923e 60d3 32be 919e cd3e 2eab 4abe
000002e0: 49c6 2fbe 6b02 80bd daf4 f23e 08b7 d0bc
000002f0: 99ed aebd 99a6 5fbe 28db 313a be55 a6be
00000300: 670c 58be 095f 49bd f6c0 673e 0a4c 2fbd
00000310: 348b f9be 964e c43d a461 52bc af9c 90bc
00000320: 0678 463e 056f 8e3e b7af 37bd 9349 cbbd
00000330: 4bf2 e33f ae86 bdbd 8382 09bd e7a6 9fbe
00000340: bc71 6fbe 38a3 03bf 59e8 62bf 25fb 46be
00000350: 2d01 a63d 6017 093f a6c3 433e 26a6 13bf
00000360: 3926 1bbd 6200 be3d 7bc0 6fbf fbe9 f8be
00000370: ed8c a43e 5d8f b3be f055 9bbe 8a64 18bf
00000380: dba1 bbbe 08c9 2e3f efff 98bf 2c33 82be
00000390: 8c85 603e f1e9 443e 0fac 2e3e 6ded a4be
000003a0: 9f20 5abe a5a6 603f fa34 9f3c 4371 85bf
000003b0: dcaf d03d 0847 0ebe 60a5 bd3d 5b4a 883f
000003c0: 58ad b43e 6068 aa3e d2d3 23bc 3c41 f93a
000003d0: bcfd a5be 2067 e7be fd48 e93e 905d a73d
000003e0: 1c32 1dbe 8f91 f8bd a3a5 08be c6bf dabe
000003f0: eebd 113f 5bec d13c c457 2d3d 4e87 31be
-0.027595736 0.25042206 0.2165453 0.021094926 -0.2710249 0.027169058 0.26698288 0.20402062
0.39553308 0.0069245556 -0.036745768 0.14677566 0.25861073 0.3578156 -0.19020034 0.23878907
0.20695052 0.40547472 0.13614802 -0.7630438 0.1166743 -0.15083997 -0.1988973 0.14050867
-0.069336444 0.40890238 -0.36343554 0.009629361 0.2571322 0.17370285 0.098854646 -0.26096258
0.00069431926 0.100833595 0.407489 -0.19758682 -0.3043267 0.079444215 -0.18497011 0.21785714
-0.039046824 -0.10523412 0.13226584 -0.14679252 0.005422571 0.12634128 -0.1001169 -0.25098383
0.16058587 0.061420843 -0.07092223 -0.043129858 0.15768567 -0.16951196 0.17738573 0.0040040542
-0.1048785 0.2446953 -0.18990704 0.050264176 -0.063825145 -0.16375299 0.19386299 -0.021991745
-0.024043644 -0.21945521 -0.46954834 -0.02823203 -0.089991674 0.24376886 -0.3786543 0.023584383
-0.8513157 0.34924337 0.03740653 0.24367346 -0.758187 0.27868956 -0.024177343 0.18832406
-0.022152564 -0.49164706 0.28979784 0.041613284 0.0014775951 0.0057677086 -0.45348004 -0.20061731
-0.26517257 -0.13245219 0.3169281 0.20816176 -0.22177148 -0.17521904 -0.11354637 0.15854576
-0.24732788 0.41026938 -0.030561725 -0.30879498 -0.1871876 0.27201387 -0.13868698 0.14695175
-0.098215334 -0.4379771 -0.19025558 -0.20939015 0.020056985 0.01995524 0.036279548 -0.48871422
-0.63856566 0.3895785 0.24037963 -0.40433103 0.3293839 0.17743754 -0.02429017 0.2375493
-0.051337313 -0.25603655 -0.028684402 -0.10872463 -0.16292673 -0.40509814 0.2781073 0.07028008
-0.036742087 -0.31326497 0.050731737 0.6755372 0.6975587 -0.031378612 -0.31762895 0.08145425
0.22498573 0.031201119 -0.05493082 0.57953745 -0.3223442 -0.022606729 -0.23517527 0.068286516
0.20991464 0.20722556 -0.1497446 1.0846274 -0.3063085 -0.29708308 0.71785414 -0.089454405
0.04886105 0.9188029 -0.21668838 -0.7052351 0.15534556 -0.44056726 0.13688567 -0.16357853
0.4805392 0.14971423 -0.030214874 0.17607887 -0.52758557 -0.43739858 0.50935304 -0.1130432
0.03975416 -0.123775885 -0.59589076 0.03626618 -0.049036607 0.07794957 -0.038867917 -0.10697334
0.09806125 -0.049027126 -0.23885712 0.020149477 0.28588152 -0.17463446 0.4016004 -0.19791862
-0.17165484 -0.06250461 0.47452432 -0.025477901 -0.08541412 -0.21840896 0.0006784671 -0.3248729
-0.21098481 -0.0491629 0.22632203 -0.042797126 -0.48739016 0.095853016 -0.012840662 -0.017652838
0.19381723 0.27819076 -0.04484531 -0.099261425 1.7808317 -0.09254204 -0.03357173 -0.31182024
-0.2338323 -0.5142093 -0.88635784 -0.19431742 0.08105693 0.5355129 0.19117603 -0.576754
-0.03787825 0.09277417 -0.93653077 -0.48616013 0.32138768 -0.35070315 -0.30339003 -0.5952841
-0.36646923 0.682755 -1.1953105 -0.25429666 0.21925944 0.19229867 0.17057823 -0.32212391
-0.21301506 0.8775428 0.01943444 -1.042519 0.101897925 -0.13894284 0.092600584 1.0647691
0.352885 0.33282757 -0.009999232 0.0019016634 -0.32420146 -0.45195866 0.45563498 0.081721425
-0.15351146 -0.12137138 -0.13344435 -0.42724437 0.56930435 0.025625398 0.042320028 -0.17336771

critic.2.bias f4 [64]
00000000: 1173 853e 3b06 493e d75b c8bd 9d73 3f3d
00000010: def0 913d 1b5e 933e 21b8 15be 1bc4 9abb
00000020: b6b5 813e cacb 29bc 58ee 1f3f 5a40 ab3d
00000030: 6f96 993e fb85 5f3e f727 783e c224 8b3c
00000040: b35a 19be e67b 933b 07f9 62be 814d 94be
00000050: d62f ee3c 8c58 9f3e 613b e53e ebdc c1bd
00000060: 2e1d ae3d f502 aabe 52fb 61bd 2ab9 7cbe
00000070: 90da 57be 0567 9c3c 28a5 263e 690f 80bd
00000080: d284 143e a4cc f93d 3d90 823e 4876 edbd
00000090: fd99 7f3e 979d 74be a2d9 0d3e 4d53 0ebf
000000a0: 409b 85be 592d a3be 2e2b 293e d447 59be
000000b0: c8b2 c13d 1af5 a6be 9d10 5ebe 5631 70be
000000c0: 5f94 1ebf 7ad3 003d 1eb2 2b3d 6e15 4b3f
000000d0: 3691 0c3e 00da 2f3e ede0 0c3e 192b 99be
000000e0: 5a5d 93be 805a 3ebf 2940 1abe 96a0 1ebe
000000f0: 50e8 843e 6382 be3e 52d3 c33d ccaa 27be
0.2606435 0.19631283 -0.09783142 0.046741117 0.0712602 0.28782734 -0.14621021 -0.0047230846
0.25333947 -0.0103635285 0.6247306 0.083618835 0.29997584 0.21828453 0.24233995 0.0169853
-0.14976005 0.004500854 -0.22165309 -0.2896538 0.029075544 0.31122243 0.44771865 -0.09465965
0.08501659 -0.3320538 -0.05517132 -0.2468001 -0.21079469 0.019092092 0.1627394 -0.06252939
0.14503792 0.12197235 0.2550067 -0.11594826 0.24961086 -0.23888241 0.13852552 -0.55595857
-0.2609501 -0.31870535 0.16520378 -0.21218807 0.09457928 -0.32608873 -0.21686025 -0.2345632
-0.61945146 0.03145168 0.041917913 0.79329574 0.13727269 0.17173004 0.13757677 -0.29915693
-0.2878216 -0.7435684 -0.15063538 -0.15490946 0.2595849 0.37208852 0.095617905 -0.16373748

critic.4.weight f4 [1, 64]
00000000: 16bd 723e 89c7 113e f524 0d3f 7d1b 0abf
00000010: b87c 0a3f 8b1d e93d cb38 babe eb75 66be
00000020: 20f7 ae3e 65cf f2be da01 203f 12e7 d53e
00000030: d3f4 623e b1f9 50be d580 de3e 8395 d13e
00000040: ebe2 8dbe e790 a9be 83be a8be 235e a3be
00000050: 9b44 c83e c02b 7b3e 17b8 c03e 8711 41be
00000060: 3203 7f3e aebd 6dbe 4dbd 933e f055 71be
00000070: 091c cbbe ed58 cc3e b907 f03e 5fa9 1dbe
00000080: 60fe 513e 67b7 ac3e 71ed b03e 3eaa 32be
00000090: aa25 433f 0943 debe 7bb3 c73e be02 bebf
000000a0: 0cb6 4abe dc95 47be 756b a2be d9d6 a4be
000000b0: ac37 9dbe dfaf 9abe adf4 e2be 25d6 39bf
000000c0: 8c56 dcbe d72c b4be 4c3e e13e 5d3a 403f
000000d0: 4ae1 af3e 70bb 563e 8323 e53e 9f43 53be
000000e0: bc2f 1fbf 7d14 31bf 54fb 3cbf 50f5 96be
000000f0: 93be a83e 7669 ec3f 475e 7f3e 5bcc 65bf
0.23704943 0.14236273 0.55134517 -0.53948194 0.54096556 0.11382588 -0.36371455 -0.2250592
0.34172916 -0.47423854 0.62502825 0.41777855 0.22163706 -0.2040775 0.43457666 0.4093438
-0.27712187 -0.33118364 -0.3295785 -0.31907758 0.39114842 0.24528408 0.3764045 -0.18854342
0.24903563 -0.23216888 0.28855363 -0.23567939 -0.39669827 0.39911595 0.46880892 -0.15396641
0.20507193 0.33733675 0.34556153 -0.17447755 0.76229346 -0.4341052 0.3900412 -1.4844587
-0.19796008 -0.1949076 -0.31722608 -0.32195166 -0.30706537 -0.30212304 -0.44327298 -0.72592384
-0.4303478 -0.3519046 0.4399284 0.75089055 0.3435157 0.20969939 0.44753656 -0.20631264
-0.6218221 -0.6917189 -0.73820996 -0.29484034 0.32957897 1.8469684 0.24938308 -0.89764947

actor.0.weight f4 [128, 16]
00000000: ce29 963d fff6 51be b4f8 973e 0f97 083f
00000010: 95b8 85be 062b 803f 9582 62bd 4cc2 16be
00000020: 406a 69bf 544a 3abf 8d93 be3e fc82 cebe
00000030: 063b d63d f900 21be 0c2a 70bd 8cb7 443c
00000040: 1b6f 2f3e 7d0c 4d3c cc1e 60be a666 723e
00000050: bc7d bdbd 406f 89bf 7a98 843d 9810 32bd
00000060: 27f0 72bf 6e14 8d3f 0d6e 353f da1f 07bc
00000070: 0ed3 26bf 4d67 0f3e 6450 333c 0e12 3abe
00000080: a0ad 293e d7f8 3bbe ecd9 b0bd 298e 46bc
00000090: 5416 0c3f 4601 b63f 767c c5be 2c1b 143d
000000a0: 5f47 91bf 0a94 f53e a163 833e d9ba a2be
000000b0: 02c2 c03e 2934 0e3d f891 c5bd bf46 af3d
000000c0: 2082 7c3e 9771 1f3e 15ee c23d d1a4 1fbe
000000d0: 41ca d0bf ba9b 8bbf fd56 643d e1d9 cb3d
000000e0: d1ba dd3c 5106 a03d b646 5cbe e27d b63d
000000f0: a3fb 9a3e c1b3 573e 77f9 493e 0dca 45be
00000100: 78bd 19be fcbb 3d3d a96e 52bc 6258 47bc
00000110: e70e a3bd cace e93e 789e 6a3e 0139 9d3d
00000120: 649b 1e40 2feb 50bf 1dd0 d7ba dbb4 8abd
00000130: 4b01 fbbd 2a3e 89be 759a bbbd dc65 863d
00000140: 38a1 4e3e 8f94 45be 241d 173f 0b0c eabe
00000150: ffb4 0cbe 7a98 0a3f 719d 433e 8003 9ebc
00000160: 6e4c 88be 2052 493f acb9 77bd 5a82 8bbe
00000170: e72a 783e 2107 943e 54db d1be 0ce7 7d3e
00000180: 5fda df3c 3872 2abe d290 a7bd 5e63 9bbe
00000190: c7c9 933e 8f3a f2bd aa8f 153e a2b8 1b3f
000001a0: 31da d2be 0920 023f 8fdb 31be 5e21 3d3e
000001b0: a355 f0be 1011 91bc 1405 c43d 1018 6fbd
000001c0: d3fb febc ed84 05be 16ca 603d 3e5e 81be
000001d0: 6c18 48be 741c 40bf 11e7 253f 0676 8eba
000001e0: a073 693f f76d a03c 9bb6 e93e 01f8 86be
000001f0: a172 19bf 3e4d 2bbe d979 09bf 39bf 133f
00000200: 6278 cb3d 8b15 55be ba12 b53e 0130 893c
00000210: 9859 80bf a296 8d3f f9f3 15be 80ab a93d
00000220: cb92 383c 6b32 0c3f 8eab 57be b047 29be
00000230: 5479 393f 54a1 ec3e 19d9 883e 1fe4 a2be
00000240: 7940 6b3d 49bd 7cbe 312d a8be 1ec5 a33e
00000250: fb32 72bf a54b 363f d760 a13e 9822 e3ba
00000260: f1cc 753f 2697 f93e 53e0 b3be d835 00bf
00000270: 9e72 233f 9006 263e 7767 963d d28c c4bd
00000280: e96b 14bd 6e00 f3bd bb7b ffbd 3df9 07be
00000290: 2d46 c33d d992 d6bf d52e 283e 45fd 663d
000002a0: 74b4 223d 47e5 05bf 0038 d53e 4d78 153e
000002b0: 4b6e 07be 7df7 273e 57a1 46bf 396f 9e3e
000002c0: 48a8 2b3e e775 c33e 717b ffbd 6d42 96be
000002d0: aa20 edbe bdc2 b73e 8e15 a9be 1985 003e
000002e0: 115d 2b3f 486b 1ebf 0a2c 1b3f 891b 7bbe
000002f0: ffb9 bbbe beb0 c6bd 522d 90be d863 cb3e
00000300: 9220 98be 84ca 243f 209a a33e d7a0 29bf
00000310: 9056 433f b5e8 00bf e170 54bb 0f38 f6ba
00000320: a879 14bd c62d 383d 0540 b13d f1cc 11be
00000330: 2bb9 463d be21 51bd cbfd e3bd 9cac b43d
00000340: 2963 9f3d da90 90be 9ed5 a6be c041 b53e
00000350: 2924 623e f900 a6bf 041f 08ba a1d6 cabd
00000360: 547c 5a3f 12ec 11bf 2844 20bf 9a16 923d
00000370: 3a72 b63d aca3 4bbe df33 57bd 60f2 a4bd
00000380: cbee cb3d 0732 d8be dee1 54bd ee46 d0bd
00000390: d703 123c 0dd7 65bf 7be2 c8be 8155 f33e
000003a0: 88de 86be 1809 a1bc a72e b43b 949f ecbe
000003b0: 69aa a83e d2e0 7d3e 0102 3e3e 14ca 8dbd
000003c0: 05bf b93e 4f0e 5c3d efe2 8f3e 2b6a f5bc
000003d0: 42d3 83bf 4273 f1bb c585 a23e 4fbd bc3e
000003e0: b6e0 ed3d b872 debe 68b6 5e3d d7e6 c63e
000003f0: 369a 39be f1a5 86be b473 89bd 00e7 d83e
0.07332192 -0.20504378 0.29681933 0.533555 -0.26117387 1.001313 -0.055300314 -0.14722556
-0.9117775 -0.72769666 0.37221947 -0.40334308 0.104604766 -0.15723027 -0.05863385 0.012006652
0.17132227 0.0125151845 -0.21886748 0.2367197 -0.092524976 -1.0737076 0.06474395 -0.043472856
-0.94897693 1.102186 0.7087105 -0.00824734 -0.65165794 0.1400425 0.01094446 -0.1817095
0.16570139 -0.18356644 -0.08635315 -0.012118855 0.5472157 1.4219139 -0.3857152 0.036158726
-1.1349906 0.47964507 0.25661948 -0.31783178 0.37648016 0.034717713 -0.09646982 0.085584156
0.24659014 0.15570675 0.09518067 -0.15590216 -1.6311723 -1.0906899 0.05574702 0.099536665
0.02706662 0.07813705 -0.21511349 0.08910729 0.3027011 0.21064664 0.1972407 -0.19315358
-0.15013683 0.046321854 -0.012843766 -0.012167068 -0.07961827 0.4566558 0.22912014 0.07676888
2.4782343 -0.8160886 -0.0016465221 -0.06772777 -0.12256106 -0.2680524 -0.0916032 0.06562397
0.20178688 -0.19294952 0.5902884 -0.45712313 -0.1374092 0.5413891 0.19103028 -0.019288778
-0.2662081 0.7864094 -0.060479805 -0.27247888 0.24235116 0.2891169 -0.40987647 0.24795169
0.027325807 -0.16645133 -0.08181919 -0.3034925 0.2886488 -0.118275754 0.14605585 0.608286
-0.41182092 0.5083013 -0.17368911 0.1846976 -0.46940336 -0.017708331 0.09571281 -0.058372557
-0.031125939 -0.13038988 0.054880224 -0.25267214 -0.19540566 -0.75043416 0.64805704 -0.0010868914
0.91192055 0.019583685 0.4564713 -0.26361087 -0.59940535 -0.16728684 -0.5370155 0.5771366
0.099350706 -0.20808999 0.3536585 0.016746523 -1.0027342 1.1061594 -0.1464385 0.08284664
0.011265467 0.5476443 -0.21061537 -0.16531253 0.7245076 0.46216834 0.26728132 -0.31814668
0.057434533 -0.24681582 -0.32846978 0.31986326 -0.9460904 0.71209174 0.31519195 -0.0017329035
0.9601584 0.4874813 -0.35132083 -0.5008216 0.63846767 0.16213441 0.07343953 -0.09597172
-0.036235724 -0.11865316 -0.124747716 -0.1327867 0.09534869 -1.6763564 0.16424115 0.05639388
0.039722875 -0.52302974 0.41644287 0.14596672 -0.13225667 0.16403003 -0.77589935 0.3094423
0.16763413 0.3817589 -0.124747165 -0.29347554 -0.46313983 0.3589076 -0.33024257 0.12550773
0.66938883 -0.6188245 0.60614073 -0.24522223 -0.3666534 -0.0970168 -0.28159577 0.39724612
-0.2971235 0.64371514 0.31953526 -0.6626105 0.7630396 -0.5035508 -0.0032415914 -0.0018785017
-0.036248833 0.044965528 0.08654789 -0.14238335 0.048516434 -0.05105757 -0.111323915 0.08821985
0.07782585 -0.28235513 -0.32584852 0.35401726 0.22084107 -1.2969047 -0.000519261 -0.099042185
0.8534596 -0.5700084 -0.62604 0.07133217 0.08908506 -0.19886655 -0.052539703 -0.08054042
0.099576555 -0.42225668 -0.051973216 -0.10169779 0.008912048 -0.89781266 -0.3923529 0.47526172
-0.26341653 -0.019657657 0.0054987255 -0.46215498 0.32942513 0.24792793 0.18555452 -0.06923309
0.3627855 0.053724583 0.28102824 -0.029957851 -1.0298846 -0.007368476 0.31742683 0.3686318
0.11615126 -0.43446898 0.054373175 0.38847992 -0.18125233 -0.26298478 -0.06711522 0.4236374

actor.0.bias f4 [128]
00000000: 21a7 0ebe 484f 4dbd add8 163e 4f58 013e
00000010: 6b75 a5bd 5e23 693c a0bc 0f3d ca9f 39be
00000020: 23b8 a93d 8297 a43d ae0a cc3b 725a 103e
00000030: b2dd 10be 8c68 7cbd 0862 aa3d 778c 2e3e
00000040: db32 203e fcc4 2dbe dae4 453e 0570 f83d
00000050: 489e 9ebd fb6c 873e a992 4bbe 5e96 973d
00000060: 4565 8abd d575 97bd 73d9 c33d 6e1c d6bc
00000070: 1822 a13c 85ad 0ebc 268a 8fbd 56ff 003c
00000080: c490 19be 0e9d e03c f03c 82bd aef7 123d
00000090: 92de c93d 7b66 f1bd ae7b 4bbb fd34 733d
000000a0: 4500 4c3c 2a51 76bd ea30 eabd 00d9 a63e
000000b0: c43e 96be 8cac 893e 184f 1b3e d760 cc3d
000000c0: ef6e 853d adbd 393d 2435 553e 92c5 2b3e
000000d0: 44c6 b83e f21e 023e 690e 1f3e 3606 643d
000000e0: 9204 443e e17a b43d 8744 60bd 37cc eb3d
000000f0: cefc cc3c c96f 11bd e785 473e 2373 413d
00000100: 5c9d f3bd b185 c03d cf4c 78be eff0 203e
00000110: b5d6 71be e535 773e 1100 1ebe 2e60 42bd
00000120: 114d 60bc ca88 a4bd cfcb e4bd 0220 333e
00000130: 1b84 a43b fcf3 003d 6725 06be ee2e 1a3d
00000140: aa37 57bd 94c1 1abe bae4 fdbd 6ba0 25be
00000150: 3ed6 5d3e 95fc 693e 2170 59be af52 733d
00000160: e0bd eb3d fda1 40bc fc63 39be f8ea 04be
00000170: d706 17bd 5c41 7abe 75f6 013d 9671 29be
00000180: cc3f 32be fd0c 403d 5f99 dcbd 764c 36bb
00000190: a597 3ebe 1540 33be a6db 8839 3b00 09bd
000001a0: 5d99 4b3e 011b a63d bc73 6dbd e208 6abe
000001b0: 7a98 533c 5312 c7bd c5a0 fbbc 2e92 5abe
000001c0: 6bf1 473d 9923 113e ce48 7d3d 2fd3 fe3d
000001d0: dedb e9bd d7b6 61bd c203 0d3e d6e7 ca3d
000001e0: f343 a7be cd90 e63b 7b02 fbbd 7401 a0bd
000001f0: 59aa ef3d 0b23 c0bd 28b0 1e3d 1f38 123e
-0.13930942 -0.050124437 0.14731093 0.12631343 -0.08079036 0.014229624 0.035091996 -0.18127361
0.082870744 0.0803671 0.006226859 0.14097002 -0.1414707 -0.06162314 0.08319479 0.1704577
0.156444 -0.16969675 0.19325581 0.12130741 -0.077450335 0.26450333 -0.19880165 0.07401727
-0.06757597 -0.073955216 0.095629595 -0.026136603 0.019669577 -0.0087083625 -0.070087716 0.007873377
-0.1499663 0.02741864 -0.06359279 0.035880737 0.09856905 -0.11787125 -0.003104906 0.059376705
0.012451236 -0.060135998 -0.11435111 0.32587433 -0.2934476 0.26889455 0.1516689 0.09979408
0.065152995 0.045346905 0.20821053 0.16774586 0.36088765 0.12707117 0.15532841 0.055669986
0.19142368 0.088125 -0.054752853 0.1151356 0.02502289 -0.035506997 0.19484673 0.047228944
-0.11895248 0.094004996 -0.2424805 0.15716909 -0.2361706 0.24141653 -0.15429713 -0.047455005
-0.013690249 -0.08033903 -0.11171686 0.17492679 0.005020631 0.03148268 -0.13100205 0.037642412
-0.05254332 -0.15112907 -0.12397142 -0.16174476 0.21663758 0.22850259 -0.2123418 0.059405025
0.11510825 -0.011757371 -0.18104547 -0.12980258 -0.036871757 -0.24438995 0.03172918 -0.16547236
-0.17407149 0.046887387 -0.10771441 -0.002781657 -0.18612535 -0.17504914 0.00026103592 -0.033447485
0.19882722 0.08110619 -0.0579717 -0.22854951 0.012914771 -0.09720292 -0.03071631 -0.21344826
0.04881422 0.14173736 0.06183701 0.12442624 -0.114188895 -0.05510601 0.13770965 0.099075004
-0.3266903 0.0070363046 -0.122563325 -0.07812777 0.11702413 -0.09381684 0.038742214 0.14279221

actor.2.weight f4 [64, 128]
00000000: bd41 20be d346 eb3d a902 0abe 2d65 873e
00000010: 09ef 753e 4c13 753e 0b2e 8e3e a1b7 d33e
00000020: 244d dc3a 78f5 36bf fbe3 a23c d909 eb3e
00000030: e906 0ebe 96e9 07bf 7869 d8be 1fcc 6f3e
00000040: eb1b 423e e3df 643e 8fc8 093c 7aaf e33e
00000050: 0219 54be 8487 3b3e d62e 513e a2d2 e63e
00000060: 1e57 c3be 0717 26be 82f9 bc3e 34ae 083f
00000070: 13c8 7f3e fd60 0c3e d660 ec3e 61ee dfbd
00000080: 17d0 7e3e 46ad e63e 3545 d7be ca7d f93e
00000090: 4817 683e 02af 89be 6220 aa3d 0ed1 2f3e
000000a0: 4ff6 e33e bedb 193e c3d6 d5bd 1273 3d3e
000000b0: 967f d3be e306 70be 04d7 9ebd cbbe d23e
000000c0: 686a 083e 43f7 ab3d 77aa 66bd 27b0 c6be
000000d0: ba57 1dbd f473 a13e c4a6 4ebc 8eb6 173f
000000e0: e9f2 ecbe 3171 b6bd 389f b83e fb78 ad3c
000000f0: 818d cdbe cfbd 45be d8eb 00bf cecf 6d3c
00000100: 7644 9e3e daca c7bd 7542 13bf ac19 d83e
00000110: 0eeb 38bf 33bf 6d3c c2af 99bc 2bf1 99be
00000120: b1c0 d1be cf10 babd e36c 5b3e 4039 c6bc
00000130: 28d8 8c3e afd6 1e3e e6d7 3b3e d719 7ebe
00000140: 4d83 ab3e 5eae 8abe 22fc 0c3c 932e 3d3e
00000150: c987 e83e 3da3 003e 51f5 53be b078 54be
00000160: 8362 eabc fab9 1a3e c026 073e c92d 15be
00000170: 7737 083e 2db7 0ebe c230 8d3d a55a 83be
00000180: 7ec8 b23e e379 ad3e 6cf3 bcbe 9632 fa3c
00000190: 57e3 84bc e586 bfbd 889f 2bbd 79bc 02bf
000001a0: 0fcc bbbe d626 e0be dd82 22bd d724 f7be
000001b0: 9214 76bd d553 fcbd e060 78be 53c6 a93e
000001c0: 4f0a 9fbe d178 933d 51d4 1a3f 9341 753e
000001d0: bce2 143e 1294 78be 0d0b 9e3e 1e84 ee3e
000001e0: 42c8 bb3c 4d6a 013c 5d6a 2abd 581b d9bc
000001f0: 6103 f8bd 6c0b 503e 9838 7dbe c231 603e
00000200: 160e 0abf 2110 973d c50f 90be 68f1 4abc
00000210: 927a 92be 1c46 6c3e a076 1b3e 7247 7d3e
00000220: d058 8ebe 689c a33e 72be d93d 13b1 793d
00000230: 3097 2bbd aef7 44bd 2219 ca3e 48e0 b63d
00000240: e5b2 d73e 132b 04bc ac1a 4c3c 5d0f 0f3e
00000250: 419e 16bf 1445 093e 6868 9cbe f224 123f
00000260: 588b 953e 0c60 12bf 88c5 fa3e 277e 923e
00000270: cee9 4f3e 72e4 363e 262c 2dbe 2da2 883e
00000280: 1c56 06bf 753c 0b3e cde2 863c 4ce6 efbc
00000290: 0f4e e93e dc17 9bbe 9685 e03e 43bb 8abe
000002a0: 38be ea3e c21a c93e ed45 18be 1355 603e
000002b0: 8636 3dbd 4f95 973e 998a e63e 6837 abbe
000002c0: 2dc7 82bd 2523 a43d ca7b 9fbe f09b 423e
000002d0: 1f77 19bc b393 90bd 4817 9cbe 6c25 6f3e
000002e0: 4f70 cf3c 0551 1ebe f083 c2bd 3345 93be
000002f0: ab8e 8b3e 259d d4bd 3df9 c0be 26d8 8cbe
00000300: ae64 80be 9a91 e6bd 2a0d 623d bb10 ef3e
00000310: aa83 35bf 0ffb 89be e7fe 1dbf e90d c3be
00000320: 4d3a d6bd 8784 b43e d917 1dbf 92a7 913d
00000330: 0d0e bdbe 804d 333e 5c99 143e e173 06bd
00000340: 11a9 d9bd 5750 22be 422f 64be 4843 d2be
00000350: 8011 4d3f aa5d 4a3e 45ef 01bd 2bcc 46bc
00000360: 377b b13e 77cc d8be 8f0a 8abd c514 c23b
00000370: 7f10 f7be f1b2 b13d aa11 5ebe b725 653d
00000380: 4a4a 883e d2ca 67be 3f7a dbbe 57be f3bd
00000390: e9db 8abe 6a75 fbbe 8fdf 72be a4c0 85be
000003a0: 1c05 163e 5a72 d9be 924d 233e 2760 a5be
000003b0: 26a5 d6be 7a1d 873e d1e4 a03d a462 bcbe
000003c0: 43c5 dc3d 5cd0 81bd 8944 5d3e 7d73 73be
000003d0: 0a28 d33e 3f09 e5bd 5d05 103f 40ab a33e
000003e0: 19be 9ebd 34d3 e4be e4fc be3c 1a57 0a3d
000003f0: 7492 233e 2cd4 52be 9086 a3be 943d 42be
-0.15650077 0.11488118 -0.13477577 0.26444378 0.24016966 0.23933142 0.27769503 0.41351035
0.0016807658 -0.71468306 0.0198841 0.4590595 -0.13869824 -0.530908 -0.42267966 0.2341771
0.18955962 0.22351031 0.008409633 0.44469815 -0.20712665 0.18313414 0.20428023 0.45082575
-0.38152403 -0.16219722 0.3690911 0.5339081 0.24978666 0.13708873 0.4616763 -0.10934139
0.24884067 0.45054072 -0.42044988 0.48728782 0.22665131 -0.26891333 0.08306958 0.17169592
0.44523856 0.15025231 -0.10441353 0.18500927 -0.41308278 -0.23440127 -0.07755855 0.41161188
0.13321841 0.08396771 -0.05631491 -0.3880627 -0.03841374 0.31533778 -0.012613002 0.5926293
-0.46279076 -0.08908308 0.36058974 0.021175852 -0.4014702 -0.19310687 -0.5035987 0.0145148765
0.30911607 -0.09755488 -0.5752328 0.42207086 -0.72233665 0.0145109175 -0.018760566 -0.3006681
-0.40967324 -0.09085237 0.21428256 -0.02419722 0.27508664 0.15511583 0.18344077 -0.24814545
0.33498612 -0.27086157 0.008605035 0.18474798 0.45416096 0.1256227 -0.2069905 -0.20749164
-0.028611427 0.15110007 0.13198376 -0.14568247 0.13302408 -0.13937064 0.068940654 -0.25655094
0.34918588 0.33882055 -0.36904466 0.0305417 -0.016221685 -0.09351901 -0.041900188 -0.51068836
-0.36679122 -0.4377963 -0.039675582 -0.48270294 -0.06007821 -0.12320677 -0.24255705 0.33159122
-0.31062552 0.07200778 0.6048022 0.23950796 0.14539617 -0.24275234 0.30867806 0.46585172
0.022922639 0.007898879 -0.041605342 -0.026502296 -0.121100195 0.20316857 -0.2472862 0.21893981
-0.53927743 0.07376123 -0.2813703 -0.012386657 -0.2860914 0.2307362 0.1518197 0.24734285
-0.27802134 0.31955266 0.10632028 0.060959887 -0.04189223 -0.04808777 0.394723 0.08929497
0.42128673 -0.00806691 0.012457531 0.13970704 -0.58835226 0.13405257 -0.30548406 0.57087624
0.29207873 -0.57177806 0.4897883 0.28611872 0.20304033 0.17860582 -0.16911373 0.2668623
-0.5247514 0.13597281 0.016465569 -0.029284619 0.45567366 -0.3029164 0.43851918 -0.27095994
0.4584825 0.39278227 -0.14870425 0.21907453 -0.046194576 0.296061 0.45027617 -0.3344071
-0.06385646 0.08014516 -0.3114913 0.19004798 -0.00936678 -0.070594214 -0.30486512 0.23354119
0.025322108 -0.15460594 -0.09497821 -0.28763732 0.27257285 -0.103815354 -0.37690154 -0.27508658
-0.25076813 -0.1125824 0.055188335 0.46692452 -0.7090403 -0.26949355 -0.61717075 -0.3809655
-0.10460339 0.3525736 -0.61364514 0.071120396 -0.36924782 0.17510033 0.14511627 -0.032825354
-0.1062795 -0.1585096 -0.22283652 -0.41066957 0.8010483 0.19762293 -0.031722326 -0.012133638
0.34664318 -0.42343494 -0.06740295 0.005922886 -0.48254773 0.086767085 -0.21686426 0.05594417
0.26619178 -0.22635964 -0.42866704 -0.11901539 -0.27120903 -0.49113017 -0.23718093 -0.26123536
0.14650387 -0.42470056 0.1594756 -0.3229992 -0.41922873 0.26389676 0.07856143 -0.36794007
0.10779812 -0.063385695 0.21608175 -0.23774524 0.41241485 -0.11183404 0.56258184 0.3196659
-0.07751102 -0.44692385 0.023313947 0.033774473 0.15973836 -0.2058875 -0.319386 -0.18968803

actor.2.bias f4 [64]
00000000: 1c78 213e 8ee7 1c3d 5c83 c73d 1778 923d
00000010: f229 1c3e 14ae 633d 2e59 913d bdc8 ea3e
00000020: 08c7 de3d 74c4 993d 019e 69be 0eac 17bd
00000030: ef4f b4bd c0aa 0cbe 552d 563e 5b75 2dbe
00000040: cad5 9f3d 44bc ca3d b95e 973c 00ad bfbc
00000050: 816e 333e e1c9 6fbc e4f1 6c3d 2375 5f3e
00000060: 385c 1ebc 2899 c6bd 37b1 083d e4ee 94be
00000070: 79c3 f73d 9417 49be 1391 8bbe 1d54 563b
00000080: 5b85 743e 2db5 18bd 3a70 983d 8446 91bc
00000090: 7b77 c1bd 76f2 6dbe 823b f9bd 7f7c 3dbe
000000a0: 5967 93bc 9d2c d839 85de 1ebe 5ee8 053e
000000b0: 3e88 9fbc 4170 c53c cba2 2c3e 9b08 c73e
000000c0: fd56 71be 9ade 933d 0ed5 b7be f314 f7bd
000000d0: 62d5 073e cdad 0bbe 0b07 f5bd 70f8 f7bc
000000e0: 7354 37be 6787 413e 4ff0 a9be 67ab bdbe
000000f0: 8a5b 6bbc ff4e 003e a6f0 c43d a1ac fe3c
0.15768474 0.038306765 0.09741852 0.071518116 0.15250376 0.055585936 0.07097088 0.45856276
0.10877806 0.075081736 -0.2281418 -0.03702932 -0.088043086 -0.13737011 0.2091573 -0.16939299
0.07804449 0.0989919 0.018477784 -0.023397923 0.17522623 -0.014635534 0.057847872 0.21822028
-0.009665541 -0.09697181 0.03337213 -0.2908851 0.1209783 -0.196379 -0.2725912 0.0032703944
0.23878996 -0.037282158 0.074432805 -0.01773382 -0.09446617 -0.23237023 -0.12169553 -0.18504523
-0.017993616 0.0004123197 -0.15514572 0.13076922 -0.019474145 0.024101378 0.16858976 0.38873753
-0.2356834 0.07220192 -0.35904735 -0.120645426 0.13264993 -0.13640518 -0.11964234 -0.030269831
-0.17903309 0.18899308 -0.33191153 -0.37044832 -0.014365086 0.12530135 0.096162125 0.031088175

actor.4.weight f4 [9, 64]
00000000: b9c6 fb3d d596 0bbd 7f0a 773d 0569 70bc
00000010: de75 57be 63dd 4d3e 060b 413d 64b7 603e
00000020: 71e6 73bd 8233 5c3d 52fc 57be 9e1a 483d
00000030: 2ada f63d 245e c23d 72e1 6fbd 2a94 3b3e
00000040: b039 09bf d94d 81be 5512 7e3c 14ab f03b
00000050: 2d62 30be 4dd5 46be 8c98 283e 4480 553d
00000060: bb49 193e 74eb 263e 9d6e 2b3e ee42 e33d
00000070: 5dd2 fabd 974a 0c3e 1eb1 16be 0ff0 b1bd
00000080: df67 293f d6ff a03d a9fa a33b 4e9c f83d
00000090: e74a c73d 806e 8d3d 60ea ec3c 780c 0d3d
000000a0: 3696 a53d 6e17 013d 5a79 15bd ec9f f9bd
000000b0: 163e 153d de0b 85bc edb3 29be fb5b 61be
000000c0: 9273 80be 994e 313e d69f 05bf 42b8 7fbd
000000d0: 52c5 993d 5198 f73c f624 6b3d 2c32 58bd
000000e0: 4753 47bd 0bed aebc 97be 2b3e 026f b0bb
000000f0: 207a 273c 0eb7 51bd a874 31be 7fd4 183e
00000100: f6af 5ebe e544 2dbe 86aa b23b ebce 2f3e
00000110: 1509 0b3f a921 913e 06a4 8e3e 1751 283f
00000120: 7678 023d 91a7 36be 6ea3 273f 59cd b1bd
00000130: 50a3 aa3e cbed 9ebd ef2e 48bd f516 3abf
00000140: bb88 7cbe 577f a5bc 7364 233e ed68 5b3d
00000150: baf0 5f3f 66bf 533f 4d7a f4be 0737 e13a
00000160: 2096 b7bd 7e40 103e efc4 b2be d463 17be
00000170: a36f edbe 7490 bf3e 36c2 16bf a885 b3be
00000180: 22a1 8ebf a1c5 62be 47f1 7f3d 3a94 553e
00000190: 34a3 cebe bd49 a03e ee67 0c3e 1a45 8ebe
000001a0: df3c 1abd 59da 9e3b 0dec 6c3d cf56 a73e
000001b0: ca62 2ebe 3818 2a3f 8fd5 283e dc72 1abf
000001c0: bbed 56bf c535 9abe 8713 573f 3e53 0d3d
000001d0: ef34 2fbf de6f c93c 6e0a 3dbd 7589 fb3e
000001e0: 44ae a2be 86ad 813e 792b 01be 7b2d 813f
000001f0: f790 093e 84c8 d63e 162d 283e 3d9c fbbc
00000200: 1501 c73d 9a5a 513e 584a 5dbd 6cf1 0cbe
00000210: b637 8ebe ad8f 05bf 66c6 a3be b54c 5abf
00000220: 5a84 043d d0f3 133e 56cd cdbe 3f28 c83c
00000230: 1c84 fdbe 5e5c 35bd c102 e23d 52fb f23e
00000240: edbc 553f b90d 943e f645 3bbe 2cd7 80bd
00000250: c640 25bf dd0b 16bf 3a07 933e bf64 f6bc
00000260: 28ca 93bd 1801 a1be 14fe 1d3e 49a4 a53c
00000270: 7c96 113f bfa2 04bf 9f3a 343f 56bf d23e
00000280: 79fc c33e 7fc3 f83d 93f4 06bd 3331 9ebe
00000290: 7687 913e 03d6 c8be c7d0 32be c04d 633e
000002a0: db01 5fbd 9818 1ebd b360 debc 0e63 48be
000002b0: 65dd 063e 6682 20bf 2b3c 18bc 08ca 543f
000002c0: c818 8c3f 440f ee3d 93ad 89be dc44 cb3c
000002d0: fee9 153f 0480 5ebd 15a9 fcbc 0e9c dcbe
000002e0: 2cba b43e d7e7 6abe 4664 99bd c9cf 7ebf
000002f0: 4a20 04be fa62 b7be fd58 bb3c 5059 04be
00000300: 446a fcbc 2f91 1b3e 0377 30be 4719 563d
00000310: 964c 523d c286 b83d 1a7e 953d a420 ad3d
00000320: 0716 723e 78ef 4fbe a63d cb3d 7e0d a83d
00000330: e7b9 053e c196 9e3e bf4c 6e3a 7086 a6bd
00000340: 6d3c a63d 2cfd adbe 3afe 1f3c 4c44 a039
00000350: 6dd9 023f 8042 0d3e d4f9 abbb aa6f 5e3e
00000360: a60f 273e cc77 b8bd 11cc 333c 0053 85be
00000370: f772 98bd 9190 d73c 0005 243d c44d 25be
00000380: 7549 91bd bb48 14be f371 083e f5ed 0ebe
00000390: 7a54 2f38 c715 07be c13e 1bbd dc71 32be
000003a0: 7415 e2bd c2f8 12be 41bf 963e 485b 3e3d
000003b0: 1771 c03d 63a9 8c3d 4ee5 b138 3c84 9f3d
000003c0: 0fc4 013e 043d 593e 10de d9bd 9e2c 09be
000003d0: 3a34 05bc 698a 8d3b 1fb6 1c3e 3b94 253d
000003e0: 8e92 3ebd 1f56 6dbd 8534 81be f9c7 2e3c
000003f0: 2c17 97bd 4ae0 113e f2e7 03be b73c dd3c
0.12293763 -0.03407939 0.060312744 -0.014673476 -0.21041057 0.20103984 0.047129653 0.21944958
-0.059545938 0.05376006 -0.21092346 0.04885351 0.1205333 0.09490612 -0.05856461 0.18318239
-0.5360365 -0.25254706 0.0155073 0.007344613 -0.17224951 -0.19417305 0.16464442 0.052124277
0.14969532 0.16300756 0.16741414 0.1109675 -0.12247155 0.13700329 -0.14716002 -0.08688366
0.6617412 0.07861297 0.0050042463 0.12139188 0.09731083 0.06905842 0.028920352 0.03443572
0.08085291 0.031516485 -0.036492683 -0.12188706 0.036436163 -0.01624101 -0.16572542 -0.22007744
-0.25088173 0.17315139 -0.52197015 -0.06243158 0.07508339 0.030223997 0.057408296 -0.052782223
-0.048663404 -0.021353265 0.16771923 -0.005384327 0.010221988 -0.051199965 -0.17329657 0.14924811
-0.21746811 -0.16920812 0.005452457 0.17168777 0.54310733 0.28345993 0.27859515 0.65748733
0.03185316 -0.17837359 0.6548375 -0.08681745 0.33327723 -0.07760199 -0.048872884 -0.7269128
-0.24661534 -0.020202322 0.15956287 0.053566862 0.87476695 0.82713926 -0.47749558 0.0017182537
-0.08964181 0.14087102 -0.34915873 -0.14784175 -0.46374235 0.37414896 -0.5889009 -0.3506291
-1.1142924 -0.22145702 0.06248596 0.20857325 -0.4035889 0.31306258 0.13711521 -0.27787095
-0.037655707 0.0048478064 0.057842303 0.32683417 -0.17029873 0.66443205 0.16487716 -0.6033151
-0.839565 -0.30119148 0.8401417 0.034503214 -0.68440145 0.024589475 -0.046152525 0.4912831
-0.3177358 0.253277 -0.1261424 1.0092005 0.13434206 0.41949856 0.16423449 -0.030714149
0.09717003 0.20444718 -0.054025978 -0.1376397 -0.2777688 -0.52172357 -0.31987303 -0.85273296
0.032352783 0.14448476 -0.4019572 0.024433253 -0.49514854 -0.04427754 0.110356815 0.47457367
0.834914 0.2891672 -0.18288407 -0.06291041 -0.6455196 -0.5861185 0.2871645 -0.030077336
-0.072162926 -0.31446147 0.15428954 0.020219939 0.56870246 -0.5181083 0.7040195 0.41161603
0.3827856 0.12146663 -0.032948088 -0.3089691 0.2842366 -0.39225778 -0.17462455 0.22197628
-0.05444513 -0.038597673 -0.02714572 -0.19569036 0.13170393 -0.6269897 -0.009291689 0.83120775
1.0945063 0.116240054 -0.2689024 0.024813108 0.5856017 -0.054321304 -0.030842343 -0.4308781
0.35298288 -0.22940002 -0.07489829 -0.99535805 -0.12902942 -0.358177 0.022869581 -0.12924695
-0.03081239 0.15192102 -0.172329 0.0522702 0.05134257 0.09010078 0.072994426 0.08453491
0.23641215 -0.20306194 0.09923868 0.082056984 0.13059197 0.3097439 0.00090904156 -0.08131111
0.08116994 -0.33982217 0.009765202 0.00030568463 0.51113015 0.13794899 -0.0052482877 0.21722284
0.16314563 -0.090072244 0.010973946 -0.26039886 -0.07443803 0.026314052 0.04004383 -0.16142946
-0.07094089 -0.1448087 0.13324718 -0.13957961 4.1801926e-05 -0.13191901 -0.037901644 -0.17426246
-0.11039248 -0.14352706 0.2944279 0.04647377 0.0939657 0.068682455 8.482729e-05 0.077888936
0.12672447 0.21214682 -0.10638058 -0.13395926 -0.008130128 0.0043194783 0.15303849 0.040424567
-0.046526484 -0.05794346 -0.25235382 0.010667794 -0.073774666 0.14245716 -0.12881449 0.02700649

actor.4.bias f4 [9]
00000000: e655 15bf 1516 ac3e 7cdf a53e eda9 c03b
00000010: ef3d 89bd 3791 a93d e8bf 93bd a619 f13d
00000020: bdd4 c7bc
-0.58334196 0.33610597 0.32397068 0.0058796317 -0.06701266 0.08279651 -0.072143376 0.1177247
-0.024393434
