Plotting/saliencies_live/Multi_Pong/Sequence_Length_2/multi_pong_2__1__1721945456_checkpoint_3496.pt (torch, 89074 bytes, 11 tensors)

critic.0.weight f4 [128, 12]
0	0x3e5884a6	0.21144351
1	0x3b041622	0.0020154794
2	0x3e9adfd1	0.30248883
3	0x3c8cfe86	0.01721121
4	0x3bf1ec20	0.0073828846
5	0x3e3f849e	0.18702933
6	0xbff023b8	-1.87609
7	0x4015bd32	2.3396726
8	0x3cc24ca6	0.02371819
9	0x3e134d95	0.14385064
10	0xbeaa42a4	-0.33253968
11	0x400665eb	2.0999706
12	0x3ced5314	0.028970279
13	0x3bfb1b4d	0.0076631666
14	0xbd95cb3e	-0.07314156
15	0x3c42a453	0.011879998
16	0xbd167adf	-0.036738273
17	0x3b521fc1	0.0032062384
18	0xbf4a2b31	-0.78972155
19	0x3da75a46	0.08171515
20	0xbd8fff45	-0.07031111
21	0x3e15e388	0.14637578
22	0xc01796e2	-2.3685842
23	0x406861c8	3.630968
24	0x3ccba0c1	0.024856927
25	0x3ed26219	0.41090468
26	0xbe4f0244	-0.20215708
27	0xbec60eac	-0.3868307
28	0x3d285fc4	0.041106954
29	0xbc761fa7	-0.015022195
30	0x3d1a1f5c	0.037627563
31	0x3c054365	0.008133744
32	0x3c93aa51	0.01802555
33	0xbc1639ec	-0.009169083
34	0x3dc7584e	0.0973364
35	0x3d6c3f45	0.057677526
36	0x3f171c9d	0.59028035
37	0xbe91c3f2	-0.28469807
38	0x3f283c09	0.65716606
39	0xbe37299d	-0.17886968
40	0x3d1d6129	0.038422737
41	0x3cd5d716	0.026103538
42	0x3d48ed5e	0.049054496
43	0xbb5a2cb4	-0.0033290805
44	0xbf85ea74	-1.0462174
45	0x3edf2c54	0.43588507
46	0xbfe77b4e	-1.8084505
47	0x3ed5c050	0.41748285
48	0xbdd613a6	-0.104529664
49	0xbc06d8ef	-0.008230432
50	0xbc1daa4a	-0.00962312
51	0x3b048cc7	0.0020225511
52	0x3cd30955	0.025761286
53	0xbb9fd070	-0.0048771426
54	0x3e547c9f	0.20750664
55	0xbc667879	-0.014066809
56	0x3cd151b6	0.025551658
57	0x3da8953b	0.082315885
58	0x3fb9448f	1.4474047
59	0x400def07	2.217714
60	0xbda58786	-0.0808249
61	0xbd1c706f	-0.038193163
62	0xbe43f31d	-0.19135709
63	0xbd0091ac	-0.031388924
64	0xbeba07d8	-0.3633411
65	0xbec5885c	-0.38580596
66	0xc0231744	-2.548295
67	0xc06c3021	-3.6904376
68	0x3c51218c	0.012764346
69	0x3bc33d62	0.005958245
70	0xbe24896f	-0.16068052
71	0xbd0bef5c	-0.034163818
72	0x3e3c97c1	0.18417265
73	0xbb54af23	-0.0032453022
74	0xbda42c49	-0.08016259
75	0xba71a68e	-0.0009218239
76	0x3e059145	0.13043697
77	0xbe015653	-0.12630586
78	0x40737973	3.8042877
79	0xc06b47ec	-3.6762648
80	0xbc4f44f9	-0.012650722
81	0x3c26e5ba	0.010186607
82	0xbe4b4536	-0.1985062
83	0x3bf8b2aa	0.007589658
84	0xbd10c192	-0.035340853
85	0xbc7766b4	-0.01510017
86	0xbcff97bc	-0.031200282
87	0xbc33e145	-0.010979001
88	0xbb6213a0	-0.003449656
89	0x3c849c13	0.016187703
90	0xbdfd71bf	-0.12375211
91	0x3d1a2283	0.03763057
92	0xbd7a845d	-0.061161388
93	0x3d8efc76	0.06981747
94	0xbfff3538	-1.9938116
95	0x40865a76	4.1985426
96	0xbeac7fc1	-0.33691218
97	0x3c300372	0.010743009
98	0xbe109422	-0.14119008
99	0xbb38b4da	-0.0028183968
100	0xbdd6d661	-0.10490108
101	0xbc079d3c	-0.008277234
102	0xc056faf9	-3.3590682
103	0x3d2f7063	0.04283179
104	0xbde3ab01	-0.11116601
105	0x3b09bf51	0.0021018574
106	0x3f1d78d5	0.615125
107	0x3ccb30e9	0.024803596
108	0xbe7cfc01	-0.24705507
109	0xbea1639a	-0.31521302
110	0xbedf69d1	-0.4363542
111	0x3d91ad7d	0.071131684
112	0x3ced153b	0.028940788
113	0x3b89ba11	0.004203089
114	0xbed74589	-0.4204524
115	0x3e02366c	0.12716073
116	0x3ebd0018	0.36914134
117	0x3e336c1e	0.17521712
118	0x400a65d6	2.1624656
119	0x3fa7d067	1.3110474
120	0x3dda715b	0.10666152
121	0x3a451a94	0.0007518914
122	0x3e423b9d	0.18968053
123	0x3bcf3883	0.0063238754
124	0x3c1c6c6f	0.009547337
125	0x3b61cabe	0.003445312
126	0x3cfdf77d	0.0310018
127	0x3d89c94c	0.067278475
128	0x3cc283ca	0.023744483
129	0xbcd40048	-0.02587904
130	0x4030d938	2.763258
131	0xbf5ff270	-0.87479305
132	0xbe67a78d	-0.2262251
133	0xbb1f0f88	-0.0024270732
134	0x3d813240	0.063084126
135	0xbb8c9226	-0.004289883
136	0xbcbdc54b	-0.023165366
137	0xbd244d86	-0.040112995
138	0xbfd38731	-1.6525632
139	0xbfc76173	-1.5576614
140	0xbd187292	-0.037218638
141	0x3cb31303	0.021859651
142	0xbfcace29	-1.5844165
143	0x3f2e32ab	0.68046063
144	0x3e36350e	0.17793676
145	0xbc23aa01	-0.009989263
146	0x3c9676cc	0.018367194
147	0xbadbd304	-0.0016771262
148	0x3d64392c	0.055718586
149	0x3cebc421	0.028780045
150	0x3f878162	1.058636
151	0x3f0c4fbc	0.54809165
152	0xbdc4a76c	-0.09602246
153	0xbcf3063c	-0.029666059
154	0xbfba83fd	-1.457153
155	0xbfdf0301	-1.7422792
156	0x3cd27bca	0.025693793
157	0xbc239689	-0.009984621
158	0x3d72e85f	0.059303638
159	0xbb3d1c6e	-0.0028856057
160	0x3d6f288a	0.05838827
161	0x3c4b568e	0.012410773
162	0x3f26f13d	0.6521185
163	0x3e45ede4	0.1932903
164	0x3df77725	0.12083272
165	0x3b988a52	0.004655161
166	0x404810c8	3.1260242
167	0x3c75ce6e	0.01500283
168	0x3db1da24	0.08684185
169	0x3b44c1ef	0.003002282
170	0xbb40d27d	-0.0029422336
171	0x3c790051	0.015197829
172	0xbd1fa71e	-0.038977735
173	0x3e3a2af8	0.18180454
174	0x3de2da3c	0.11076781
175	0x4081cd0d	4.0562806
176	0xbd43d3ae	-0.047809295
177	0xbe41ade1	-0.18913986
178	0xbe98bc2b	-0.2983106
179	0xc0720b4f	-3.7819402
180	0x3e4e3b0d	0.20139714
181	0xbdcd6845	-0.100296535
182	0x3e77bfae	0.24194214
183	0xbd6b2337	-0.05740663
184	0x3d6c0a2d	0.057626892
185	0xbb5bcc32	-0.0033538458
186	0xbef14bed	-0.4712824
187	0x3f1de9a9	0.6168466
188	0xbde5077c	-0.11183068
189	0x3d86cc06	0.06581883
190	0xbfc90036	-1.5703189
191	0xbf5bd13b	-0.85866135
192	0x3ea8a873	0.32941017
193	0xbc3802f9	-0.0112311775
194	0x3cae1e7f	0.021254776
195	0x3ae61327	0.0017553315
196	0x3ddc1908	0.10746962
197	0xbdaeabc4	-0.085288554
198	0x3f8a4d44	1.080483
199	0xc013e661	-2.3109362
200	0x3caac83a	0.020847429
201	0x3d8f4722	0.069959894
202	0xbe7afa86	-0.2450963
203	0x3f9cbd7a	1.2245324
204	0x3ce4a131	0.027908893
205	0xbc05582f	-0.0081387
206	0xbd911fad	-0.0708612
207	0xbb1a24ae	-0.0023520398
208	0xbd1be0e9	-0.038056288
209	0x3dc9c3f1	0.09851826
210	0xbeea8e38	-0.4581163
211	0x3e4bf3fa	0.19917288
212	0xbd805713	-0.06266608
213	0xbe179e7f	-0.14806555
214	0xc001a975	-2.0259678
215	0xbf2604f5	-0.64851314
216	0x3d82a0d9	0.063783355
217	0xbbe5b872	-0.007010513
218	0x3d6e2197	0.058137503
219	0xbbf8a001	-0.0075874333
220	0xbb6dd5b9	-0.0036290719
221	0xbec08e6b	-0.37608656
222	0x3bccaf07	0.006246451
223	0xc033a4f4	-2.806943
224	0x3c271cc7	0.010199732
225	0x3ec4e7d5	0.38458124
226	0x3bf28449	0.0074010235
227	0x403950bf	2.8955534
228	0x3db77ca4	0.0895932
229	0x3b95cd49	0.004571591
230	0xbdcf0d00	-0.101099014
231	0x3b5a0fa2	0.0033273478
232	0xbb2bd966	-0.002622211
233	0xbb08a7f2	-0.0020852056
234	0xbbd7947b	-0.0065789795
235	0xbdb06766	-0.08613472
236	0x3d769c43	0.060207617
237	0xbd45fe66	-0.048338316
238	0x408a64a7	4.3247867
239	0xc07ffdec	-3.9998732
240	0xbe8a74c7	-0.2704222
241	0x3bf98b0d	0.007615453
242	0x3e26244b	0.16224782
243	0x3a99a647	0.0011722528
244	0xbe216cde	-0.15764186
245	0xbad5c67a	-0.0016309761
246	0xbf546019	-0.82959133
247	0xbe0e00d3	-0.13867502
248	0x3e585b8d	0.21128674
249	0x3ce39c7c	0.027784579
250	0x408fc139	4.4923368
251	0xbdfc6e7a	-0.12325759
252	0xbd5e2023	-0.054229867
253	0x3c85cd46	0.016333234
254	0xbe3dad22	-0.18523076
255	0xbc63da7d	-0.013907072

critic.0.bias f4 [128]
0	0x3d9cb8b1	0.076524146
1	0x3d723c31	0.059139434
2	0x3c26d0e9	0.010181644
3	0x3f08201b	0.5317399
4	0xbd905f40	-0.070494175
5	0xbe0086e6	-0.1255146
6	0x3df8de06	0.121517226
7	0xbd6beda3	-0.057599675
8	0xbd870d4e	-0.065943345
9	0xbe9aa814	-0.30206358
10	0xbd33c374	-0.04388757
11	0xbcc67c36	-0.02422915
12	0x3cd825bf	0.026385186
13	0x3c7b019d	0.015320209
14	0xbba9d973	-0.0051833927
15	0x3e70f2b0	0.23530078
16	0x3dad6850	0.08467162
17	0x3c112006	0.008857733
18	0xbd65c400	-0.056095123
19	0xbc0fe38b	-0.008782278
20	0x3cb6726d	0.02227136
21	0x3bc202c4	0.00592074
22	0x3b8b9460	0.004259631
23	0xbe77b098	-0.24188459
24	0xbf4382f7	-0.7637171
25	0x3dd381e9	0.10327513
26	0xbd8cf39c	-0.06882402
27	0x3f858333	1.0430664
28	0x3da5309d	0.08065913
29	0x3e06dfd9	0.13171329
30	0x3ee8fddd	0.45506182
31	0x3ce64edc	0.028113775
32	0xbc4d30d7	-0.012523851
33	0x3d30107a	0.042984463
34	0xbc441037	-0.011966757
35	0xbca7755e	-0.020441707
36	0xbdbf1588	-0.09330279
37	0xbdd47881	-0.10374547
38	0xbdeb8da9	-0.11501629
39	0xbe8171f5	-0.25282255
40	0x3d49fba6	0.049312256
41	0xbd41b830	-0.047294796
42	0x3d895b6d	0.06706891
43	0xbc6bd78f	-0.014394655
44	0xbe0df6e8	-0.13863719
45	0xbd85e481	-0.06537724
46	0x3eae54ce	0.34049076
47	0xbcc2480e	-0.023715999
48	0xbca48a54	-0.020085491
49	0xbbbf6740	-0.005841166
50	0x3c5515a6	0.01300565
51	0x3d8f5d10	0.07000172
52	0xbdbda648	-0.09260231
53	0x3dc957b6	0.09831183
54	0xbc0d6a9c	-0.008631375
55	0xbd9386f5	-0.072034754
56	0x3da2547e	0.07926272
57	0x3d1af5b2	0.03783197
58	0xbb7c0033	-0.0038452267
59	0x3c9322ad	0.01796087
60	0xbdcd9c9c	-0.100396365
61	0xbcddd25e	-0.02707785
62	0xbd8b02e7	-0.06787663
63	0xbdce5e01	-0.100765236
64	0xbc2e888b	-0.010652672
65	0x3e3f0a66	0.1865631
66	0x3db36667	0.08759766
67	0x3c7e9e7f	0.015540718
68	0xbc997739	-0.018733608
69	0xbed1d078	-0.40979362
70	0xbd061097	-0.032730665
71	0x3c944c21	0.018102707
72	0x3be1c12e	0.006889484
73	0xbd45cfe3	-0.04829396
74	0xbcb854ac	-0.022501312
75	0xbd6f57b6	-0.058433257
76	0xbd49cfa0	-0.049270272
77	0x3cc15161	0.023598375
78	0x3e132915	0.1437114
79	0xbd3cb3f3	-0.04607005
80	0xbca68718	-0.02032809
81	0xbd97c239	-0.07410092
82	0x3dd65a3c	0.104664296
83	0xbbb600da	-0.0055543007
84	0x3da4835b	0.080328666
85	0x3d740ffb	0.059585553
86	0xbe858634	-0.2607895
87	0xbd975171	-0.073885806
88	0xbe58a2da	-0.21155873
89	0xbd9dc80d	-0.07704172
90	0xbcf1cb0f	-0.029515771
91	0xbd0a83d9	-0.033817146
92	0xbd00f31f	-0.03148186
93	0x3d16b3a0	0.036792397
94	0x3da97954	0.08275095
95	0xbd576e91	-0.05259568
96	0xbd1f781e	-0.038932912
97	0x3f3470d5	0.7048467
98	0x3d8dc335	0.069219984
99	0xbd1e7514	-0.038685873
100	0xbd694968	-0.05695477
101	0x3d431e5d	0.04763638
102	0xbe39044c	-0.18068045
103	0xbd6fc963	-0.058541667
104	0xbf03efa1	-0.5153752
105	0xbd3323c7	-0.04373529
106	0xbc11c754	-0.008897621
107	0xbdfe918a	-0.12430103
108	0x3cecc1a9	0.028900938
109	0xbc9f08bf	-0.01941335
110	0x3e80c94f	0.25153586
111	0xbd7962bb	-0.060885172
112	0xbb9f3bbc	-0.004859416
113	0xba3f5858	-0.0007299236
114	0xbe954933	-0.2915741
115	0x3da5f3c7	0.081031375
116	0x3edbe494	0.4294783
117	0x3da8077f	0.08204555
118	0x3c656164	0.0140002705
119	0x3db51387	0.08841615
120	0x3db61b7b	0.0889196
121	0xbe86316d	-0.26209584
122	0xbde7dcdf	-0.11321425
123	0xbdb76894	-0.089554936
124	0x3d4811a3	0.048844945
125	0x3d13dcac	0.03609912
126	0xbe3084d5	-0.17238171
127	0x3e11b7d9	0.14230289

critic.2.weight f4 [64, 128]
0	0x3db9b385	0.09067444
1	0x3e189822	0.14901784
2	0x3dc5da68	0.09660798
3	0xbcb166b5	-0.02165542
4	0xbf469e86	-0.7758564
5	0xbb282edc	-0.0025662696
6	0x3eba32ab	0.36366782
7	0x3e87c8df	0.2652044
8	0x3e4fa388	0.20277226
9	0x3d642fd2	0.055709668
10	0xbccdec0e	-0.025136974
11	0x3e9f0e97	0.3106582
12	0xbea21c2f	-0.31662127
13	0x3d1d7042	0.038437136
14	0xbd0360e0	-0.03207481
15	0x3e5bae7c	0.2145328
16	0x3de11c8b	0.10991772
17	0x3e148132	0.14502409
18	0x3e08e25f	0.13367604
19	0xbf868afc	-1.0511165
20	0x3e06d109	0.13165678
21	0xbd7572bf	-0.059923884
22	0xbf171193	-0.5901119
23	0x3d4d7a24	0.05016531
24	0xbe170b40	-0.14750385
25	0x3f2ff4bc	0.6873281
26	0xbe5af63c	-0.21382993
27	0xbdac4db8	-0.08413261
28	0x3e9b3e55	0.30320993
29	0xbd4eac07	-0.050457027
30	0x3e13bef2	0.14428309
31	0x3deadd52	0.11467995
32	0xbdddf0c8	-0.10836941
33	0x3e73a4cd	0.23793335
34	0x3ee3375b	0.4437817
35	0xbdd921ec	-0.10602173
36	0xbe9176ec	-0.28411043
37	0x3db679ad	0.089099266
38	0xbe7fe313	-0.24988966
39	0xbdac7303	-0.08420374
40	0x3c10f151	0.008846597
41	0xbe2fb5e2	-0.17159227
42	0x3f127eb0	0.5722456
43	0x3e01ea0a	0.12686935
44	0x3e2e926e	0.17048046
45	0x3eb1c762	0.3472243
46	0xbe089176	-0.13336739
47	0x3d77e109	0.060517345
48	0xbdf3aa77	-0.11897748
49	0xbc2450a2	-0.01002899
50	0x3e62f90e	0.2216532
51	0xbce790d2	-0.028267298
52	0x3c416de5	0.011805986
53	0x3eadf779	0.3397787
54	0x3e2d5203	0.16925816
55	0xbe27dfe6	-0.16394004
56	0xbc368413	-0.011139887
57	0x3de83876	0.11338894
58	0xbd480b6f	-0.04883903
59	0xbec31cb3	-0.38107833
60	0xbd224286	-0.039614223
61	0xbec80226	-0.3906414
62	0x3de50e15	0.111843266
63	0xbd66d8d6	-0.056359135
64	0xbc49d14b	-0.012317966
65	0xbcc6e44b	-0.02427878
66	0xbf2fe4c5	-0.6870845
67	0xbea17bd4	-0.31539786
68	0xbeae599a	-0.34052736
69	0x3e5cbb9c	0.21555942
70	0xbe3dfa0e	-0.1855242
71	0xb912a38d	-0.00013984572
72	0xbff6e7b2	-1.9289458
73	0x3ed3b735	0.41350713
74	0x3c519211	0.012791173
75	0x3cf970de	0.030449327
76	0xbf4b0f4e	-0.7932023
77	0x3d54ab2a	0.051921047
78	0x3ad3ffab	0.0016174217
79	0x3e4a8161	0.19775917
80	0xbcfedd30	-0.03111133
81	0xbe7fa59a	-0.24965516
82	0x3d8569c1	0.065143116
83	0x3e39b48d	0.18135281
84	0xbc6cbcc4	-0.014449302
85	0x3db0ae0f	0.08626949
86	0xbdc991c7	-0.09842258
87	0xbe0757e9	-0.13217129
88	0xbb9fbdad	-0.004874906
89	0xbe33d9c2	-0.17563537
90	0x3deb08a1	0.11476255
91	0x3e3cdda8	0.1844393
92	0xbe8eadee	-0.27867073
93	0xbf07b653	-0.5301258
94	0xbd0ab80e	-0.033866934
95	0xbc30d436	-0.0107927825
96	0xbefcca05	-0.4937288
97	0x3ee4710f	0.44617507
98	0x3eeafdfb	0.45896897
99	0x3d7f7ce7	0.062374976
100	0xbd8135cd	-0.0630909
101	0x3dca6480	0.0988245
102	0xbe8c0bfe	-0.273529
103	0x3ea03216	0.31288213
104	0xbe5c88ab	-0.2153651
105	0xbe79b082	-0.24383739
106	0xbeaa87fc	-0.33306873
107	0xbe5751e2	-0.2102733
108	0x3b735f03	0.0037135489
109	0xbc058628	-0.008149661
110	0xbdf8dffe	-0.12152098
111	0xbecb5b23	-0.3971797
112	0xbf347bda	-0.7050148
113	0xbdcf60cf	-0.10125887
114	0x3e7300d0	0.23730779
115	0xbf349cdc	-0.7055185
116	0x3e674297	0.22583996
117	0xbc93f34f	-0.018060355
118	0xbebc66cc	-0.36797178
119	0xbe2de768	-0.16982806
120	0xbd0b3854	-0.033989266
121	0xbdb4ffdf	-0.08837866
122	0x3d9701fb	0.073734246
123	0xbd5d0d63	-0.053967845
124	0xbe7675ca	-0.2406837
125	0xbf134b9f	-0.57537264
126	0x3dbe2acb	0.09285506
127	0xbd24561b	-0.04012118
128	0x3dabe1df	0.08392691
129	0xbeeff54f	-0.46866843
130	0x3d417daa	0.047238983
131	0x3f316190	0.69289494
132	0x3fb06e1c	1.3783603
133	0x3d00e47d	0.031467903
134	0x3e0f78dd	0.1401095
135	0x3ea2fe80	0.31834793
136	0xbd7cd914	-0.06173046
137	0x3e1be5bb	0.15224354
138	0xbd7191ba	-0.058976866
139	0x3eb5b3f1	0.35488847
140	0xbe6476ba	-0.22310916
141	0x3f43035c	0.76177
142	0xbeb63860	-0.35589886
143	0xbebe1260	-0.37123394
144	0x3e9f40e8	0.31104207
145	0xbd2d5367	-0.042315867
146	0xbdad6444	-0.0846639
147	0x3fc7ced0	1.5609989
148	0xbd62464a	-0.055242814
149	0x3d423694	0.04741533
150	0x3f989342	1.191994
151	0xbd9eae05	-0.07748035
152	0xbe4af5c4	-0.19820315
153	0x3f440ed6	0.7658514
154	0x3b01236d	0.0019704953
155	0xbf154bca	-0.5831877
156	0x3ea1f42e	0.31631607
157	0xbe98b7e9	-0.29827812
158	0x3d37af91	0.044845168
159	0xbeb7b7af	-0.35882327
160	0x3ee82f16	0.45348424
161	0xbe58d70a	-0.21175781
162	0x3da43757	0.08018368
163	0x3e7f41b7	0.24927412
164	0xbf7f523f	-0.9973487
165	0xbea57af7	-0.32320377
166	0x3f19385a	0.5985161
167	0xbe068210	-0.13135552
168	0x3d84ad77	0.06478398
169	0x3e7651f7	0.24054705
170	0xbf818d3d	-1.0121228
171	0x3e1b12de	0.15143916
172	0x3d1fa762	0.038977988
173	0xbed83b07	-0.42232534
174	0xbe0e8428	-0.13917601
175	0xbd0288fc	-0.03186892
176	0x3ccece90	0.025244981
177	0xbe45374d	-0.19259377
178	0xbcb85e3d	-0.022505874
179	0x3d8dd8cc	0.06926116
180	0x3e5d0bc2	0.21586516
181	0xbf4bc84c	-0.79602504
182	0x3cd70da7	0.026251627
183	0xbdce8fbb	-0.10086008
184	0xbd024cac	-0.0318114
185	0xbef8036c	-0.4844011
186	0x3ddf76ef	0.10911357
187	0x3e96715e	0.29383367
188	0x3cfddf51	0.030990275
189	0x3d05d03d	0.032669295
190	0xbc38f7a3	-0.01128951
191	0xbead3aff	-0.33834073
192	0x3c97830e	0.018495109
193	0xbd14922e	-0.03627222
194	0x3c47941d	0.012181309
195	0x3e47dfe2	0.19518998
196	0xbf38884f	-0.7208299
197	0xbedae7be	-0.4275493
198	0x3d82ea44	0.06392339
199	0x3e102eb6	0.14080319
200	0x3e170957	0.14749657
201	0x3e23ef32	0.16009215
202	0xbc84ec2f	-0.016225902
203	0x3e41895a	0.18900052
204	0x3fbbc711	1.4670125
205	0x3ea86f67	0.32897493
206	0xbcd27813	-0.025692021
207	0xbe26ec1a	-0.16301003
208	0xbdbf2685	-0.09333519
209	0xbeab2731	-0.33428338
210	0xbed3002e	-0.41211075
211	0x3d3b6a16	0.04575547
212	0x3d626c74	0.05527921
213	0xbc71343c	-0.014721926
214	0x3e7e456c	0.2483117
215	0xbe4c8f15	-0.19976456
216	0xbd97b24c	-0.07407054
217	0xbc0adb31	-0.008475111
218	0xbfb846ba	-1.4396584
219	0xbf6f0960	-0.9337368
220	0x3df51753	0.11967339
221	0xbf0de0ca	-0.55421126
222	0xbed84339	-0.42238787
223	0xbeb9da05	-0.36299148
224	0xbe3ea7a9	-0.18618645
225	0x3f7202e7	0.9453568
226	0xbfd2a046	-1.6455162
227	0x3d953395	0.07285229
228	0x3bd63132	0.0065366263
229	0x3d0e13b1	0.034686748
230	0x3e5e80f3	0.21728878
231	0xbec6e3fd	-0.38845816
232	0x3d717854	0.058952644
233	0x3ef03675	0.46916547
234	0xbe8bc658	-0.27299762
235	0xbf9b5b88	-1.2137308
236	0xbd752398	-0.059848398
237	0xbe048914	-0.12942916
238	0x3df20a93	0.11818423
239	0x3f48424c	0.7822616
240	0x3d9ec162	0.077517286
241	0x3f7b06ef	0.98057455
242	0x3cc77e3a	0.024352182
243	0xbe0db88f	-0.13839935
244	0xbf01e975	-0.5074685
245	0xbed509ec	-0.41609132
246	0x3f5d8fd4	0.8654759
247	0x3d832f50	0.064055085
248	0x3cc14cbb	0.023596158
249	0x3e3e5b5e	0.18589541
250	0xbdf5206b	-0.11969074
251	0xbeb328f7	-0.3499219
252	0x3fd5e59e	1.6710699
253	0xbcc736a2	-0.024318043
254	0x3d93e769	0.07221872
255	0xbcad6a24	-0.021168776

critic.2.bias f4 [64]
0	0x3e9a27ec	0.30108583
1	0x3e8d6e4a	0.27623206
2	0xbdc703c5	-0.09717516
3	0x3e7fd1b9	0.24982347
4	0x3cafb0af	0.021446554
5	0x3e6cadea	0.23113218
6	0xbe008aca	-0.12552944
7	0x3e355267	0.17707215
8	0x3eac7be4	0.3368827
9	0xbc9657e6	-0.01835246
10	0x3f6bf55a	0.9217125
11	0x3d78825f	0.060671207
12	0x3edd4280	0.43214798
13	0x3eb25a87	0.34834692
14	0x3e85116a	0.25989848
15	0xbde6280e	-0.112381086
16	0xbea9376a	-0.3305009
17	0x3d81e496	0.063424274
18	0xbe6d2241	-0.23157598
19	0xbef1b60e	-0.4720921
20	0xbd1504a0	-0.036381364
21	0x3e977ac1	0.2958584
22	0x3f388011	0.72070414
23	0xbe1cf166	-0.15326461
24	0x3e030365	0.12794264
25	0xbecd373c	-0.40081203
26	0xbe15af19	-0.14617576
27	0xbe324e2b	-0.17412631
28	0xbe568b53	-0.20951585
29	0x3d954132	0.07287826
30	0x3e0740e3	0.13208346
31	0xbda73612	-0.0816461
32	0x3ead104e	0.33801502
33	0x3e334204	0.17505652
34	0x3e930f33	0.28722534
35	0xbe4419ed	-0.19150515
36	0x3f0876ea	0.5330645
37	0xbd3ce227	-0.046114113
38	0x3e02f7e1	0.12789871
39	0xbf3dab13	-0.74089164
40	0xbe9e873b	-0.30962548
41	0xbec3938a	-0.381985
42	0x3ea7659d	0.32694712
43	0xbeabccf7	-0.33554813
44	0x3eafa0bb	0.34302315
45	0xbecd2401	-0.4006653
46	0xbe956566	-0.29178923
47	0xbe425207	-0.18976603
48	0xbf7886cf	-0.970807
49	0xbd7913a5	-0.06080975
50	0xbd81f6ba	-0.063458875
51	0x3f664ec6	0.8996395
52	0x3e661924	0.22470528
53	0x3e15e2f3	0.14637356
54	0x3bc559a1	0.0060226475
55	0xbe87aea1	-0.2650042
56	0xbf28fdf3	-0.66012496
57	0xbf905af9	-1.1277763
58	0xbd8e0f83	-0.069365524
59	0xbe616020	-0.22009325
60	0x3e939ed8	0.28832126
61	0x3f30ecc1	0.6911126
62	0x3d4a8c6e	0.04945033
63	0xbe177508	-0.14790738

critic.4.weight f4 [1, 64]
0	0x3e3aead0	0.18253636
1	0x3e0e6a2d	0.1390769
2	0x3f1b9187	0.6076893
3	0xbf27a46a	-0.6548525
4	0x3ef402de	0.47658437
5	0x3e09c398	0.1345352
6	0xbe9200b6	-0.28516167
7	0xbe4863ad	-0.19569273
8	0x3e4fafa1	0.20281841
9	0xbf08f0b3	-0.5349228
10	0x3f35186d	0.70740396
11	0x3ecde8e1	0.40216735
12	0x3e442eca	0.19158474
13	0xbe31965a	-0.17342511
14	0x3e55581c	0.20834392
15	0x3e7d0eab	0.24712627
16	0xbe69b90b	-0.22824495
17	0xbe8bfef7	-0.2734296
18	0xbe8fba50	-0.28071833
19	0xbe95fd28	-0.29294705
20	0x3ea5018d	0.32227746
21	0x3e86ed9a	0.2635315
22	0x3e2936d1	0.16524817
23	0xbe2960a1	-0.16540767
24	0x3e264cc0	0.16240215
25	0xbe6c17ec	-0.23056
26	0x3e401427	0.18757688
27	0xbe3bb682	-0.1833134
28	0xbe9ab354	-0.30214942
29	0x3ec19587	0.37809393
30	0x3eb16b27	0.34652063
31	0xbe0bc83d	-0.13650604
32	0x3e0adc4e	0.13560602
33	0x3e6482cc	0.2231552
34	0x3e95480d	0.29156533
35	0xbe02622b	-0.1273276
36	0x3f27dce4	0.6557143
37	0xbebe74df	-0.3719854
38	0x3e9c438c	0.30520284
39	0xc00044a1	-2.0041888
40	0xbdfdf723	-0.12400653
41	0xbe23e739	-0.16006173
42	0xbe4f75a8	-0.20259726
43	0xbe6c90e1	-0.23102142
44	0xbe541562	-0.20711282
45	0xbe4bc67d	-0.19899936
46	0xbea38741	-0.31939128
47	0xbfa2bbc0	-1.2713547
48	0xbef5bd96	-0.47996205
49	0xbeb3e378	-0.35134482
50	0x3f086e8a	0.5329367
51	0x3f3b8cd8	0.73261786
52	0x3eb0b1e6	0.34510726
53	0x3e461645	0.19344433
54	0x3ebfae6e	0.37437767
55	0xbe597704	-0.21236807
56	0xbff10a88	-1.8831339
57	0xbf0f7d80	-0.5605087
58	0xbfcdfa2b	-1.609197
59	0xbe24304e	-0.16034052
60	0x3e416e66	0.1888977
61	0x4006bfd5	2.1054585
62	0x3e0c2179	0.13684644
63	0xbf1dc68c	-0.61631083

actor.0.weight f4 [128, 16]
0	0x3df21262	0.118199125
1	0xbec1f628	-0.37883115
2	0x3ec644f5	0.38724485
3	0x3f1e42ee	0.61820877
4	0xbf304b13	-0.68864554
5	0x3fc4241b	1.5323519
6	0xbdd10eb3	-0.10207882
7	0xbe446012	-0.19177273
8	0xbf58c01e	-0.8466815
9	0xbf5b02af	-0.8555097
10	0x3f1adef6	0.6049646
11	0xbea8a66c	-0.3293947
12	0xbd32f34d	-0.04368906
13	0x3d249d9b	0.040189367
14	0x3baf242f	0.0053448896
15	0xbd98deef	-0.07464396
16	0x3ea3632d	0.31911603
17	0xbd35dc8f	-0.044399794
18	0x3dc357cf	0.095382325
19	0xbd4daf33	-0.05021591
20	0x3e15d3fe	0.1463165
21	0xbf9e2e68	-1.2357912
22	0x3d861e1d	0.065487124
23	0x3ca87820	0.020565093
24	0xbf9d0be4	-1.2269254
25	0x3fccb6c0	1.5993271
26	0x3f5f07e8	0.8712144
27	0x3ecafbf1	0.3964534
28	0xbf45ff85	-0.77343017
29	0xbc0285db	-0.007966484
30	0xbd62d131	-0.05537528
31	0x3e9e7230	0.30946493
32	0x3eac9859	0.33709982
33	0xbeb57175	-0.35438123
34	0x3df9555d	0.12174485
35	0x3d90777e	0.07054041
36	0x3e28787f	0.16452216
37	0x3fb88706	1.4416206
38	0xbe2f0f93	-0.17095785
39	0x3e2b91a1	0.16754772
40	0xbfbf5c53	-1.495005
41	0x3f22c895	0.63587314
42	0xbe093701	-0.13399889
43	0xbe686733	-0.22695617
44	0x3f79052d	0.9727352
45	0x3f378d25	0.71699744
46	0x3dbb8cd2	0.09157719
47	0xbea138e4	-0.31488717
48	0x3ea39386	0.3194849
49	0x3e8af689	0.27141216
50	0xbca89376	-0.020578127
51	0xbea07190	-0.3133664
52	0xbffb1f67	-1.9618958
53	0xbff43cd3	-1.9081062
54	0x3c8fcfac	0.01755508
55	0xbce8331f	-0.028344689
56	0xbe5d2bd9	-0.21598758
57	0xbdc7e3ee	-0.09760271
58	0x3dfb5c25	0.122734345
59	0x3ce9b39d	0.02852803
60	0x3e7b3662	0.24532464
61	0x3e887556	0.2665202
62	0x3e2e8258	0.1704191
63	0x3bcb9b84	0.0062136073
64	0xbe157d84	-0.14598662
65	0x3d0e65cd	0.034765054
66	0xbd24c189	-0.040223632
67	0x3d28d488	0.04121831
68	0xbe2e1500	-0.17000198
69	0x3e0bfdeb	0.13671081
70	0x3e6d597e	0.2317867
71	0x3e099904	0.13437277
72	0x405e6c95	3.4753773
73	0xbd5b2c1d	-0.053508867
74	0xbd491a2c	-0.049097225
75	0xbca16d9d	-0.019705588
76	0xbe1c8586	-0.1528531
77	0xbe0f78aa	-0.14010873
78	0xbe011341	-0.12605001
79	0xbe33b2b6	-0.17548642
80	0x3e9e8e84	0.30968106
81	0xbe5e69fd	-0.21720119
82	0x3eba944c	0.36441267
83	0xbf04de4a	-0.51901686
84	0xbed0a0bd	-0.40747634
85	0x3eabcdf3	0.33555564
86	0x3ed507b0	0.41607428
87	0xbeb56e9c	-0.3543595
88	0xbea2e100	-0.31812286
89	0x3fa98647	1.3244103
90	0xbe7483fb	-0.23878472
91	0xbe4e745b	-0.20161574
92	0x3f12ec4a	0.573918
93	0x3e9594a3	0.29214963
94	0xbe405861	-0.18783714
95	0x3e413fcf	0.18871997
96	0xbc5f500b	-0.013629924
97	0xbe6e75f5	-0.23287185
98	0x3cf2903d	0.029609794
99	0xbe9dd587	-0.3082697
100	0x3e883205	0.26600662
101	0xbf4a6edd	-0.79075414
102	0x3e57cc6c	0.21074075
103	0x3f34b786	0.70592535
104	0xbc9c3af5	-0.019071082
105	0x3fb9d856	1.4519145
106	0xbe98cb44	-0.2984258
107	0x3e44eeab	0.1923167
108	0xbec6841d	-0.3877267
109	0xbdc277a4	-0.09495476
110	0x3e43c463	0.19117884
111	0xbdc4912d	-0.095980026
112	0xbcb3b2fc	-0.021935932
113	0x3d6e2b6d	0.058146883
114	0xbeb9ef25	-0.36315265
115	0xbe518e9a	-0.20464554
116	0xbe768a3f	-0.24076174
117	0xbceddc88	-0.029035822
118	0x3f1781b1	0.5918227
119	0xbe09fa65	-0.13474424
120	0x3f8921e2	1.0713465
121	0x3daa7414	0.083229214
122	0x3fb04a26	1.3772628
123	0xbee1c271	-0.4409366
124	0xbf8e320c	-1.1109023
125	0xbed4e64c	-0.41581953
126	0xbee8208c	-0.4533733
127	0x3f3f6761	0.7476712
128	0x3e3983cd	0.18116684
129	0xbe54a25e	-0.20765063
130	0x3ee826b5	0.4534203
131	0xbe72121b	-0.23639719
132	0xbf960b25	-1.1722151
133	0x3f845fcb	1.0341734
134	0x3c4d4ae0	0.012530059
135	0xbbec8921	-0.0072184955
136	0xbe04fa6d	-0.12986155
137	0x3f3f1763	0.7464506
138	0xbe8d0816	-0.27545232
139	0x3d8678ed	0.065660335
140	0x3f3616b3	0.71128386
141	0x3efcabcc	0.4934982
142	0x3ecda059	0.40161398
143	0xbe7a8b68	-0.24467242
144	0x3d97e665	0.07416991
145	0xbee40770	-0.44536924
146	0xbec43b12	-0.38326317
147	0x3e8243db	0.25442395
148	0xbf63daf7	-0.8900599
149	0x3f771094	0.9650967
150	0x3e78a52f	0.24281763
151	0xbd950e7b	-0.072781526
152	0x3fb24b56	1.3929241
153	0x3fa1c030	1.2636776
154	0xbe67074b	-0.22561376
155	0xbf1578c1	-0.5838738
156	0x3f0ce174	0.55031514
157	0x3b6e3ad0	0.0036350973
158	0x3e98c3a3	0.2983676
159	0xbe361409	-0.1778108
160	0xbda79840	-0.08183336
161	0x3d9dfff7	0.07714837
162	0x3d8507a9	0.06495602
163	0xbe832178	-0.25611472
164	0xbc5fcfa1	-0.013660342
165	0xc031c517	-2.7776544
166	0x3b999b1b	0.0046876795
167	0xbce961fa	-0.028489102
168	0x3f0e4f9e	0.55590236
169	0x3e04ef24	0.1298185
170	0xbcf8a7f7	-0.03035353
171	0x3ea8db4d	0.32979813
172	0xbd20f640	-0.039297342
173	0xbe03571b	-0.12826197
174	0xbea72626	-0.32646292
175	0x3d35acb1	0.044354144
176	0x3e2646da	0.16237965
177	0x3f1656c1	0.58726126
178	0xbd4c851c	-0.04993163
179	0xbe583dce	-0.21117327
180	0xbf025070	-0.5090399
181	0x3f27f1a0	0.65603065
182	0xbf1d606f	-0.6147527
183	0x3d5023ed	0.05081551
184	0x3eb626b3	0.355764
185	0xbf84b74b	-1.0368437
186	0x3f3b10e5	0.73072654
187	0xbe8cd723	-0.27507886
188	0xbede6105	-0.43433395
189	0xbc305056	-0.010761341
190	0xbeae2d44	-0.3401891
191	0x3ec5e956	0.38654584
192	0xbeb49a86	-0.35274142
193	0x3f379af3	0.7172081
194	0x3ecbff06	0.39843005
195	0xbf3fc329	-0.74907166
196	0x3f4b2114	0.7934735
197	0xbf730f72	-0.9494544
198	0x3d032fce	0.032028012
199	0x3cd14483	0.025545364
200	0xbda15123	-0.07876804
201	0xbdb7c401	-0.08972932
202	0xbc7a23ec	-0.0152673535
203	0xbd50fe81	-0.051023964
204	0xbdb94f50	-0.09048331
205	0x3c3bb2b4	0.01145618
206	0xbe0e7d57	-0.13915001
207	0xbdb68697	-0.0891239
208	0x3d1328e7	0.03592768
209	0xbe90a70f	-0.28252456
210	0xbedf7931	-0.4364715
211	0x3f1a062a	0.60165656
212	0x3f847c8c	1.0350509
213	0xbfa6df6d	-1.3036934
214	0xbbbebcf5	-0.0058208653
215	0xbda78da7	-0.08181315
216	0x3f362607	0.71151775
217	0xbf4ee40f	-0.8081674
218	0xbf74490f	-0.9542398
219	0xbeab01bf	-0.3339977
220	0x3f19356d	0.59847146
221	0xbe986f0b	-0.2977222
222	0xbca2ff70	-0.019897193
223	0xbdae0788	-0.0849753
224	0xbd8ad0ee	-0.067781314
225	0xbf2eab64	-0.6823027
226	0x3d21afd1	0.039474312
227	0xbe06cb08	-0.13163388
228	0x3f5b4433	0.8565094
229	0xbf5dfe33	-0.86716
230	0xbe90eb2e	-0.28304428
231	0x3f276645	0.65390426
232	0xbeb85985	-0.36005798
233	0x3cf279ba	0.02959906
234	0xbe7cbd6d	-0.24681635
235	0xbe7f525e	-0.24933764
236	0x3dcdbc06	0.10045628
237	0x3d143e91	0.03619248
238	0x3de75d46	0.11297087
239	0xbc930bd1	-0.01794997
240	0x3ed5b2ac	0.41737878
241	0xbcbeb47e	-0.023279425
242	0x3eccafd2	0.3997789
243	0x3d6b7165	0.05748119
244	0xbf863dfb	-1.0487665
245	0x3f12eaba	0.57389414
246	0x3f072dea	0.52804434
247	0x3e76c23e	0.24097535
248	0xbe97f6f5	-0.296806
249	0xbef3c187	-0.47608587
250	0x3e87d347	0.2652838
251	0x3f24adbf	0.64327615
252	0xbed6b0e9	-0.41931847
253	0xbf138777	-0.5762858
254	0x3bcdff3d	0.0062865303
255	0x3f679430	0.9046049

actor.0.bias f4 [128]
0	0xbdc21ce4	-0.09478167
1	0x3dc6de1d	0.097103335
2	0x3ea2d93d	0.31806365
3	0x3e4ba92a	0.1988875
4	0xbd9cf37e	-0.0766363
5	0x3df8b99e	0.12144779
6	0xbbb7c700	-0.0056084394
7	0xbe303913	-0.17209272
8	0x3e285af2	0.16440943
9	0x3dc6d5d5	0.09708754
10	0xbd20b5b1	-0.039235774
11	0x3e0aa34d	0.13538857
12	0xbe49b417	-0.19697605
13	0xbdd3848f	-0.10328018
14	0xbdaa9fa8	-0.08331233
15	0x3e66b178	0.22528636
16	0x3e6725c4	0.22573
17	0xbe228dd5	-0.15874417
18	0x3e99e19e	0.30054945
19	0x3eade88f	0.3396649
20	0xbd93870c	-0.072034925
21	0x3ef51bf3	0.47872886
22	0xbe67343c	-0.2257852
23	0x3e5cee39	0.2157525
24	0xbeaa2d92	-0.33237892
25	0xbe2d4be3	-0.1692348
26	0x3e267dfb	0.16258995
27	0xbd3d37b6	-0.04619571
28	0x3d14939b	0.03627358
29	0x3e94cd15	0.29062715
30	0xbda9728b	-0.082738005
31	0x3e0446d0	0.12917638
32	0x3daca61e	0.08430122
33	0xbd9912b1	-0.07474268
34	0xbe104437	-0.14088522
35	0x3d7fa72c	0.062415287
36	0x3ea4faf2	0.32222706
37	0xbeb0ca1f	-0.34529206
38	0xbe7329d7	-0.2374643
39	0x3dd9cd7f	0.106348984
40	0xbcf6758c	-0.030085348
41	0x3c2d1cbd	0.010565934
42	0x3d798289	0.060915504
43	0x3efbdab9	0.4919031
44	0xbecef67b	-0.40422425
45	0x3efb5560	0.49088573
46	0x3cf1bd5a	0.029509235
47	0x3d69556f	0.05696624
48	0x3dfb6d2a	0.12276681
49	0xbe8d40e8	-0.27588582
50	0x3e102ca7	0.14079534
51	0x3e370efe	0.17876813
52	0x3f0b6a94	0.544595
53	0x3e579079	0.21051206
54	0x3e52398d	0.20529766
55	0x3e217c59	0.15770091
56	0x3d6e55fc	0.05818747
57	0x3c59dcc1	0.013297261
58	0x3e1517ce	0.14559862
59	0x3e0826da	0.1329607
60	0xbe8ae34b	-0.27126536
61	0xbde8877d	-0.11353967
62	0x3ea8f946	0.3300268
63	0x3e022611	0.12709834
64	0xbdba7e98	-0.09106177
65	0x3e7a9d52	0.24474075
66	0xbee8c090	-0.45459414
67	0x3e644fb9	0.22296037
68	0xbed55d82	-0.41672903
69	0x3e9c14ee	0.30484718
70	0xbe5f048f	-0.21779083
71	0xbda5132d	-0.08060298
72	0x3e23f220	0.16010332
73	0xbd71e764	-0.059058562
74	0x3c9bd43e	0.019022103
75	0xbc58a3a6	-0.013222611
76	0xbcd6e416	-0.026231807
77	0x3d7d1411	0.061786715
78	0xbea16827	-0.31524774
79	0x3d9f6e28	0.077846825
80	0x3e8a3e73	0.2700077
81	0xbeaa62e6	-0.3327858
82	0xbe87fff5	-0.26562467
83	0xbe742b8d	-0.23844738
84	0x3e43d1f3	0.19123058
85	0x3e487fa7	0.19579946
86	0xbe265aa6	-0.16245517
87	0x3ca58e0c	0.020209335
88	0x3ebfb20a	0.3744052
89	0xbb42d4c3	-0.0029728867
90	0xbe2b89f2	-0.1675184
91	0xbddb0197	-0.106936626
92	0xbdc7c287	-0.097539
93	0x3d94c1b8	0.072635114
94	0xbd86a9ec	-0.06575379
95	0x3dc07dfb	0.09399029
96	0xbea90f0a	-0.33019286
97	0xbd18f23c	-0.037340388
98	0xbe191fb8	-0.14953506
99	0xbd6d5991	-0.057946745
100	0xbe0d9938	-0.1382798
101	0xbe1b6022	-0.1517339
102	0xbd4935b4	-0.04912348
103	0x3cd0692f	0.02544078
104	0x3e5619e7	0.20908318
105	0x3cd1bb9d	0.025602156
106	0xbe7dc949	-0.24783815
107	0xbe9d1655	-0.306811
108	0xbdd968fd	-0.10615728
109	0x3df95594	0.12174526
110	0xbe90c14c	-0.28272474
111	0xbeb8120d	-0.35951272
112	0xbd245ae9	-0.04012576
113	0x3ea0d564	0.31412804
114	0x3df09f43	0.11749127
115	0xbcfb642a	-0.03068741
116	0xbdd8436c	-0.10559735
117	0xbd8c93f1	-0.06864155
118	0x3e516852	0.20449951
119	0x3c67e993	0.0141548095
120	0xbf0b3058	-0.5437064
121	0xbaed2fe3	-0.0018095936
122	0xbe5b46bf	-0.21413706
123	0x3d3ff3ba	0.046863295
124	0xbbdf82d3	-0.0068210154
125	0xbda1c0b7	-0.078980856
126	0x3cc1b07c	0.023643725
127	0x3da02a18	0.07820529

actor.2.weight f4 [64, 128]
0	0xbe0831af	-0.13300203
1	0x3d442ed7	0.047896232
2	0x3e7575ac	0.2397067
3	0x3f279ef2	0.65476906
4	0x3e3b9e73	0.18322162
5	0x3e9d1035	0.30676427
6	0x3ef66203	0.48121652
7	0x3db33417	0.0875017
8	0xbe0aace8	-0.13542521
9	0xbf3fd65f	-0.7493648
10	0xbe095d6d	-0.13414545
11	0x3eff005d	0.49804965
12	0xbdfa777d	-0.12229822
13	0xbf0f4ab4	-0.5597336
14	0xbeaaf429	-0.33389404
15	0x3eb850cf	0.35999152
16	0x3f1bc367	0.60845035
17	0x3f0ca1e3	0.5493452
18	0x3e2576b7	0.16158567
19	0x3f2dd828	0.67907953
20	0xbf3a1d6b	-0.7270114
21	0x3eb8b680	0.36076736
22	0x3e68cb81	0.2273388
23	0x3f3fb03c	0.7487829
24	0xbf15788a	-0.58387053
25	0xbd9e7397	-0.07736891
26	0x3f1229b3	0.5709488
27	0x3e2d3f05	0.16918571
28	0xbc9f7478	-0.019464716
29	0x3e3f8966	0.18704757
30	0x3d5c15cd	0.05373173
31	0x3e6e9965	0.23300703
32	0x3e32b28d	0.17450924
33	0xbd4aeed3	-0.049544167
34	0xbd5430c7	-0.05180433
35	0x3e8d8595	0.27640978
36	0x3f648ce9	0.8927751
37	0xbebad917	-0.3649375
38	0xbeeb1e72	-0.45921665
39	0x3e0cd194	0.13751823
40	0x3ec10002	0.37695318
41	0x3ea0f432	0.31436306
42	0xbe347e89	-0.17626394
43	0x3e984af2	0.2974468
44	0xbeb5a008	-0.35473657
45	0xbe0a1e64	-0.13488156
46	0xbe91d96f	-0.284862
47	0x3f0aa16e	0.5415257
48	0x3e3c72df	0.18403195
49	0x3e35101d	0.17681928
50	0xbeb4aed8	-0.35289645
51	0xbcbd40e2	-0.023102228
52	0x3e045bb3	0.12925605
53	0x3eba9dc4	0.3644849
54	0xbe64ac4e	-0.22331354
55	0x3e984121	0.2973719
56	0xbf068335	-0.52543956
57	0xbeae54f7	-0.34049198
58	0xbde1060a	-0.1098748
59	0x3e1e259a	0.15444031
60	0xbea0e671	-0.31425813
61	0xbeff0822	-0.49810892
62	0xbf48ca58	-0.7843375
63	0x3e32585e	0.17416522
64	0x3e6975ae	0.22798797
65	0xbe3386dc	-0.17531914
66	0xbf3cd6fa	-0.7376553
67	0x3f2f57e0	0.6849346
68	0xbfa5f464	-1.2965207
69	0xbe6a1bb8	-0.22862136
70	0xbe87c769	-0.26519325
71	0xbf1982f9	-0.59965473
72	0x3d50bf5c	0.050963745
73	0xbf2a5127	-0.6653008
74	0xbe32594f	-0.17416881
75	0x3cf8c7c8	0.0303687
76	0x3e51c17c	0.20483965
77	0x3ebf0b37	0.37313244
78	0x3eeaf59b	0.45890507
79	0x3e491772	0.1963785
80	0x3d672bfd	0.056438435
81	0xbdcea536	-0.10090105
82	0xbeb631e9	-0.35584953
83	0x3db2245b	0.086983405
84	0x3f9e6b64	1.2376523
85	0x3eaf7659	0.3426998
86	0xbe947451	-0.28994992
87	0x3e3cdd5c	0.18443817
88	0xbe12b9d8	-0.14328706
89	0x3e56dd01	0.20982744
90	0x3eaced63	0.33774862
91	0xbd9639c7	-0.07335239
92	0xbe2a8ab1	-0.16654469
93	0xbd935e6a	-0.071957424
94	0xbe880d5e	-0.26572698
95	0xbec86a48	-0.39143586
96	0x3ebd9cee	0.3703379
97	0x3d9b21c0	0.07574797
98	0xbf3af33e	-0.7302741
99	0x3e0a8b96	0.1352981
100	0xbd458827	-0.048225548
101	0xbc515565	-0.012776707
102	0xbebb2b02	-0.3655625
103	0xbe6f4792	-0.23367146
104	0x3d79d606	0.060995124
105	0xbef5d822	-0.4801646
106	0xbd63104c	-0.055435464
107	0xbf1c43c7	-0.6104092
108	0xbeb6acd4	-0.35678732
109	0x3e821b13	0.2541128
110	0xbd7a6a38	-0.061136454
111	0x3ea9c06e	0.33154625
112	0xbec06454	-0.37576544
113	0x3e206aa4	0.1566568
114	0x3eb3ca3e	0.35115236
115	0x3ec1ee5d	0.3787717
116	0x3f1998ab	0.5999858
117	0xbecab579	-0.39591578
118	0x3f004e83	0.501198
119	0x3e306fe6	0.17230186
120	0x3e0e1aa7	0.13877355
121	0xbdf54fce	-0.11978112
122	0xbce704c8	-0.028200522
123	0x3a929755	0.0011184016
124	0x3df01a15	0.11723725
125	0xbe266588	-0.16249669
126	0xbf1eed76	-0.62081087
127	0xbc539ed9	-0.01291629
128	0xbedf2615	-0.43583742
129	0xbe5d9b65	-0.2164131
130	0xbf0b0389	-0.5430227
131	0xbd4dd129	-0.0502483
132	0xbcf01ea6	-0.02931149
133	0x3ed127f9	0.4085081
134	0x3cc0b658	0.023524448
135	0x3c7f1d96	0.015571019
136	0x3d76226e	0.06009143
137	0x3e947d9b	0.2900208
138	0x3e19dd35	0.1502579
139	0x3ef95f0b	0.48705325
140	0xbd76b2ad	-0.060228992
141	0x3e96b58b	0.2943538
142	0x3f148c03	0.5802614
143	0x3e6bca60	0.23026419
144	0x3f7c2087	0.9848713
145	0xbeb6ac44	-0.35678303
146	0x3df86226	0.12128095
147	0xbd9c1ea7	-0.07623034
148	0xbf1871a6	-0.59548414
149	0x3ebe42af	0.3716025
150	0xbecf3fac	-0.40478265
151	0x3ea3b2a8	0.3197224
152	0x3d8f5bc5	0.069999255
153	0xbf31f8d2	-0.69520295
154	0x3f134d36	0.5753969
155	0xbc6f6816	-0.014612218
156	0xbccae596	-0.024767678
157	0x3ea65b53	0.3249155
158	0xbe9196d4	-0.28435385
159	0x3f0b7315	0.54472476
160	0xbece224a	-0.40260535
161	0x3e083329	0.13300766
162	0xbd4f6259	-0.0506309
163	0x3c38e960	0.01128611
164	0x3f19ec61	0.6012631
165	0xbddad979	-0.10686011
166	0x3edb0c72	0.42782933
167	0xbe956b1a	-0.29183275
168	0x3ed9e3c4	0.42556584
169	0x3eaac010	0.33349657
170	0xbe691d33	-0.22765045
171	0x3f148846	0.58020437
172	0xbe59c6de	-0.21267268
173	0x3e02ef38	0.12786567
174	0x3f0e817c	0.5566633
175	0xbd864bce	-0.06557427
176	0x3e3ce8bc	0.18448156
177	0x3eb29f5d	0.3488721
178	0x3caaba75	0.020840863
179	0x3e6fa6a8	0.23403418
180	0x3d6afce1	0.05737007
181	0xbd85e062	-0.06536938
182	0xbee023c9	-0.43777302
183	0x3e87b017	0.26501533
184	0xbc335b39	-0.010947042
185	0xbed64cfb	-0.41855606
186	0xbde11590	-0.10990441
187	0xbf082bca	-0.53191817
188	0x3eb6a997	0.35676262
189	0x3c95fd92	0.018309388
190	0xbe3cb1a3	-0.18427138
191	0xbe658bed	-0.22416659
192	0xbeca26b0	-0.3948264
193	0xbe0a7398	-0.13520658
194	0x3e0e00bc	0.13867468
195	0x3f255010	0.6457529
196	0xbf7f7794	-0.99791837
197	0xbe495562	-0.19661477
198	0xbface5fb	-1.3507684
199	0xbe904633	-0.28178558
200	0x3e52495b	0.20535795
201	0x3eba433b	0.36379418
202	0xbf1f744c	-0.6228683
203	0xbd183d8c	-0.03716807
204	0xbedffd12	-0.43747765
205	0x3ea4fd73	0.32224616
206	0x3a96bae0	0.0011499785
207	0x3e874bdc	0.26425064
208	0xbde475b8	-0.111552656
209	0x3c885303	0.016641146
210	0xbe13342c	-0.1437537
211	0xbe8f6fa7	-0.2801487
212	0x3f4f1c14	0.8090222
213	0x3e3126a4	0.17299896
214	0xbe681923	-0.22665839
215	0xbe181167	-0.14850388
216	0xba74a7e7	-0.0009332881
217	0xbf394014	-0.723634
218	0xbf45adcb	-0.7721831
219	0x3ac2c9d1	0.0014861171
220	0xbe6a4c84	-0.22880751
221	0xbe887fe9	-0.26660088
222	0xbe7c2494	-0.24623328
223	0xbe918f16	-0.28429478
224	0x3dc9a65b	0.09846183
225	0xbeadb81b	-0.33929524
226	0xbf1e1f5b	-0.61766595
227	0xbe4e03c5	-0.20118625
228	0xbebc282b	-0.36749396
229	0xbf388bea	-0.7208849
230	0xbe9ff01d	-0.3123788
231	0xbf384eab	-0.7199504
232	0x3e9c9d2b	0.3058866
233	0xbe080c2c	-0.13285893
234	0x3ec97edc	0.393546
235	0xbe25689d	-0.16153188
236	0xbecc59cc	-0.3991226
237	0x3ecb02f7	0.396507
238	0xbde1db57	-0.11028164
239	0xbe9bfea5	-0.30467716
240	0xbd1476ea	-0.036246218
241	0xbea5bbec	-0.32369936
242	0x3f1c36a0	0.6102085
243	0xbdd52427	-0.10407286
244	0x3ebb984c	0.3663963
245	0x3e64e6ff	0.22353743
246	0x3f816182	1.0107882
247	0x3e24a0b9	0.16076936
248	0xbeaf2a3b	-0.34211907
249	0xbe840146	-0.25782222
250	0xbdbc0576	-0.09180729
251	0x3ef9025b	0.4863461
252	0xbeb3acfe	-0.3509292
253	0xbf2b4c1f	-0.66913027
254	0xbcc8d83b	-0.02451717
255	0x3cca50d3	0.024696743

actor.2.bias f4 [64]
0	0x3e9d537f	0.30727765
1	0x3df96b37	0.12178653
2	0xbe6a5191	-0.22882678
3	0xbc809068	-0.015693858
4	0x3e07f892	0.13278416
5	0xbd94097e	-0.07228373
6	0x3e07f2b2	0.13276175
7	0x3f226476	0.6343454
8	0xbb90d216	-0.0044195754
9	0x3e0ce33a	0.13758555
10	0xbec8da6b	-0.3922914
11	0x3eae4d8d	0.34043542
12	0xbe12f309	-0.14350523
13	0xbe6c3168	-0.23065722
14	0x3ec490a6	0.38391608
15	0xbee39993	-0.44453105
16	0x3e45d3e2	0.19319108
17	0x3e338174	0.17529851
18	0x3e6dc7a3	0.23220687
19	0xbe878223	-0.26466474
20	0x3ebd3bac	0.3695959
21	0xbdf9ea79	-0.12202925
22	0x3e0d4982	0.13797572
23	0x3eab5817	0.33465645
24	0xbb844e98	-0.0040376894
25	0xbe21879a	-0.15774384
26	0x3e34fed8	0.1767534
27	0xbe9d4100	-0.30713654
28	0x3e1237d3	0.14279108
29	0xbe9e6901	-0.30939487
30	0xbf089d50	-0.5336504
31	0xbd2b2d14	-0.041791037
32	0x3ee1830c	0.44045293
33	0xbdfd9d34	-0.123835
34	0xbdd2801d	-0.10278342
35	0x3e6ce902	0.2313576
36	0xbe08eddf	-0.1337199
37	0xbe873699	-0.26408842
38	0xbd8b5ec2	-0.06805183
39	0xbdf963a5	-0.12177209
40	0xbd99b91f	-0.07506012
41	0xbe9d080b	-0.306702
42	0xbe97d128	-0.2965176
43	0x3e0a4dc4	0.13506228
44	0xbe9a4138	-0.30127883
45	0x3e0189c6	0.12650213
46	0xbe3f04f7	-0.18654238
47	0x3f0ac0f4	0.54200673
48	0xbece3dd5	-0.4028155
49	0x3de9717e	0.113986
50	0xbeff68c4	-0.49884617
51	0x3ccd0597	0.02502708
52	0x3e38f823	0.18063407
53	0xbe45abd7	-0.19303833
54	0xbdbe5870	-0.09294212
55	0x3d0c5d36	0.03426858
56	0xbe472517	-0.19447742
57	0x3eedbf53	0.4643503
58	0xbee06bf6	-0.43832368
59	0xbed5e2a3	-0.41774473
60	0x3d9b1010	0.07571423
61	0x3cfe0684	0.031008966
62	0x3de7125a	0.11282797
63	0xbe00f592	-0.12593678

actor.4.weight f4 [9, 64]
0	0x3d8049c6	0.06264071
1	0xbd47b315	-0.04875477
2	0x3ae09974	0.0017135576
3	0x3bb6c483	0.0055776252
4	0xbe80a9ad	-0.25129452
5	0xbcf0bd5e	-0.029387172
6	0xbd5526e1	-0.05203903
7	0x3ea4cd7b	0.3218802
8	0x3d031647	0.032003667
9	0x3d30cb39	0.04316256
10	0xbe81c0ba	-0.2534235
11	0xbd341e9e	-0.04397451
12	0x3d3cb54e	0.046071343
13	0x3d9466c7	0.07246166
14	0xbde06c39	-0.10958142
15	0x3dd00d9c	0.10158846
16	0xbf1ca243	-0.6118509
17	0xbe06bbfc	-0.13157648
18	0x3c463a61	0.01209888
19	0xbb71f215	-0.0036917974
20	0xbdb377c7	-0.0876308
21	0xbdbb3166	-0.091402814
22	0x3ca3067a	0.01990055
23	0xbc2a54d2	-0.010396199
24	0x3d8a1b2f	0.06743466
25	0x3defbc4d	0.117058374
26	0x3b8ced54	0.0043007527
27	0xbd8ba161	-0.0681789
28	0xbd417762	-0.047232993
29	0x3e4bb93e	0.19894883
30	0xbebf9bf6	-0.37423676
31	0x3dc9a750	0.098463655
32	0x3f710407	0.9414677
33	0xbcb6f8d2	-0.022335444
34	0xbd08b6e0	-0.03337753
35	0x3e1de678	0.15419948
36	0x3cf7cd6d	0.030249322
37	0x3e00a4f8	0.1256293
38	0x3b5be3ed	0.0033552602
39	0x3ca02077	0.01954673
40	0xbcc04e0e	-0.02347472
41	0x3dbd35dd	0.09238789
42	0xbd508e04	-0.050916687
43	0xbd9f8815	-0.077896275
44	0x3e2aa339	0.16663827
45	0xbc9e1015	-0.019294778
46	0xb936223f	-0.0001736963
47	0xbe6d1d13	-0.23155622
48	0xbed1448f	-0.4087262
49	0x3dca1fa0	0.09869313
50	0xbf37baa4	-0.71769166
51	0x3caf2f5c	0.021384887
52	0x3e18570d	0.14876957
53	0xbcde03f1	-0.027101489
54	0xbd4d4aeb	-0.050120275
55	0xbe2331b0	-0.15936923
56	0x3dc7609f	0.09735226
57	0xbe29b57d	-0.16573139
58	0x3e89e0f3	0.26929435
59	0x3e1e46d5	0.15456708
60	0x3d2ab25c	0.041674003
61	0xbbf4da11	-0.0074722846
62	0x3d55849c	0.05212842
63	0xbd257093	-0.040390562
64	0xbcf43676	-0.029811125
65	0xbaa379bc	-0.0012472193
66	0x3d204719	0.039130304
67	0xbc0b76ff	-0.008512258
68	0x3f5c61cd	0.8608673
69	0x3e8cfa41	0.2753468
70	0x3e8a7e71	0.27049592
71	0x3f80a100	1.0049133
72	0x3c6f6cd9	0.014613354
73	0xbd4c04d1	-0.04980928
74	0x3f6423b7	0.89116997
75	0xbe140bf6	-0.14457688
76	0x3ebddb74	0.37081492
77	0x3b399f76	0.0028323806
78	0x3bf1e4dc	0.0073820185
79	0xbf131916	-0.57460153
80	0xbe53cc83	-0.20683484
81	0xbdc1536e	-0.09439741
82	0x3d66aba0	0.056316018
83	0xbd7620a1	-0.06008971
84	0x3f8bb4c3	1.0914539
85	0x3eddf26c	0.43349016
86	0xbeaae81b	-0.33380207
87	0x3d7a130c	0.06105332
88	0x3d7004dd	0.058598388
89	0x3daf76b2	0.08567561
90	0xbdfbf9ad	-0.12303481
91	0xbd45a9d2	-0.048257656
92	0xbf131d9e	-0.5746707
93	0x3ee3fe64	0.44530022
94	0xbf4c2bd2	-0.79754364
95	0xbed9bb61	-0.4252577
96	0xbfcb89e8	-1.5901461
97	0xbcb8aadc	-0.02254241
98	0x3d89cfad	0.06729064
99	0x3de7b03f	0.11312913
100	0xbec1d2c4	-0.37856114
101	0x3ea03860	0.3129301
102	0x3d411073	0.047134828
103	0xbdc9c8b6	-0.09852736
104	0xbddf9e92	-0.10918917
105	0xbd88a199	-0.06671447
106	0xbd801caa	-0.06255467
107	0x3ea55760	0.32293224
108	0xbe0663a2	-0.13123944
109	0x3ee639c0	0.44965935
110	0x3dae9c3f	0.08525895
111	0xbf4e7b79	-0.80657154
112	0xbfb4bf14	-1.4120812
113	0xbe8899a1	-0.2667971
114	0x3fae1212	1.3599265
115	0xbb54ac47	-0.0032451318
116	0xbec7c036	-0.39013833
117	0xbacf724a	-0.0015826907
118	0x3daf2c82	0.08553411
119	0x3ee1969d	0.4406022
120	0xbedb1093	-0.42786083
121	0x3eb593de	0.35464376
122	0xbe891693	-0.26775035
123	0x3f9b595a	1.2136643
124	0x3db42309	0.08795745
125	0x3e6e999d	0.23300786
126	0xbd3fd1c6	-0.046830915
127	0x3ca904d1	0.02063218
128	0x3c85fe6d	0.016356671
129	0x3dacc61b	0.08436223
130	0xbcd1e101	-0.025619986
131	0x3bf700e8	0.00753795
132	0xbf008d15	-0.50215274
133	0xbe9f3a12	-0.31098992
134	0xbe52d46b	-0.20588844
135	0xbfa1b728	-1.263402
136	0xbd6b84a7	-0.057499554
137	0x3d8cc0c0	0.06872702
138	0xbf248219	-0.64261013
139	0x3e629548	0.22127259
140	0xbf002319	-0.50053555
141	0xbe1b56af	-0.15169786
142	0x3e2196f5	0.15780242
143	0x3eb94e18	0.36192393
144	0x3f529a05	0.82266265
145	0x3e8ee88b	0.2791179
146	0xbd4ecfbc	-0.05049108
147	0x3d2a20e6	0.04153528
148	0xbf66499a	-0.8995606
149	0xbe9c3219	-0.3050697
150	0x3eb29412	0.34878594
151	0x3cff5be6	0.03117175
152	0xbe0923e1	-0.13392593
153	0xbe81d24a	-0.2535575
154	0x3de0a9fd	0.10969923
155	0x3d8cf871	0.06883324
156	0x3f0e1938	0.5550723
157	0xbf34f3c1	-0.7068444
158	0x3f8e281a	1.1105988
159	0x3e95b9f9	0.29243448
160	0x3f1bcf54	0.6086323
161	0x3cc219b5	0.023693899
162	0xbc4fb70e	-0.012677921
163	0xbe505eb2	-0.20348623
164	0x3e92a623	0.28642377
165	0xbf004a80	-0.5011368
166	0xbddf3038	-0.10897869
167	0x3dc0770a	0.09397705
168	0x3dcd380a	0.10020454
169	0xbd63f4eb	-0.055653494
170	0x3d9ba771	0.07600296
171	0xbe871566	-0.26383513
172	0xbdac88a8	-0.084245026
173	0xbed020fc	-0.40650165
174	0xbe0b2e68	-0.13591921
175	0x3f8c88d7	1.097926
176	0x3fe60833	1.7971252
177	0x3e286b37	0.16447149
178	0xbf21b053	-0.63159674
179	0xbcb578c4	-0.022152312
180	0x3e59b9a6	0.21262226
181	0x3c9b84d4	0.018984236
182	0xbd105326	-0.035235547
183	0xbe64f5ab	-0.2235934
184	0x3e8b977d	0.27264014
185	0xbe0a5466	-0.13508758
186	0xbdb3d153	-0.0878016
187	0xbfb661b1	-1.4248563
188	0xbe17be9e	-0.14818808
189	0xbe5ad24f	-0.21369289
190	0x3d060ed0	0.03272897
191	0x3c5bed28	0.013423242
192	0x3d745cd4	0.05965884
193	0x3d9714fe	0.07377051
194	0x3ca2e156	0.01988284
195	0xbd6afe9e	-0.057371728
196	0x3dfaeb25	0.122518815
197	0x3e1fe99a	0.15616456
198	0xb9db04a1	-0.00041774384
199	0x3dac1356	0.084021255
200	0x3d302fcf	0.043014344
201	0xbe1aec88	-0.15129292
202	0xbe1d7139	-0.15375222
203	0x3e47c47e	0.1950855
204	0x3d9af058	0.07565373
205	0x3ea6011b	0.32422718
206	0x3e48f1d5	0.19623502
207	0xbe281cc0	-0.16417217
208	0x3e2a4222	0.1662679
209	0xbea6f088	-0.32605386
210	0x3d1228e3	0.035683524
211	0xb74b5f6a	-1.2121958e-05
212	0x3f180d6f	0.593955
213	0xbd5f99e8	-0.054590136
214	0xbe0d0b9c	-0.1377396
215	0xbd629041	-0.055313352
216	0x3ceb3dd2	0.028716002
217	0x3d7dd8cf	0.061974343
218	0x3ddb63cd	0.10712395
219	0xbe756c4d	-0.23967095
220	0xbe2735d4	-0.16329128
221	0xbe15b4ce	-0.14619753
222	0x3d94b729	0.072614975
223	0xbd4b681c	-0.049659833
224	0xbd2529d9	-0.040323112
225	0xbd042008	-0.03225711
226	0xbca1dad2	-0.019757662
227	0xbe535854	-0.20639163
228	0x3df0e13f	0.11761712
229	0x3bb06a0f	0.005383737
230	0xbe613a3c	-0.21994871
231	0x3c861081	0.016365292
232	0xbd99bec3	-0.07507088
233	0xbc4d7dec	-0.012542229
234	0x3d8244a5	0.06360749
235	0x3c896013	0.016769445
236	0x3cc1b3f8	0.023645386
237	0x3d305800	0.043052673
238	0xbe37c840	-0.17947483
239	0xbd18f92d	-0.037347008
240	0x3c95ae5e	0.018271621
241	0x3caebb5a	0.02132957
242	0xbbe64a57	-0.007027905
243	0xbc6fa6d1	-0.0146271745
244	0xb8ec85ff	-0.00011278316
245	0xbb37de72	-0.0028056172
246	0x3d1b4dc6	0.037915967
247	0x3da9b0dd	0.08285687
248	0xbc9a3b4a	-0.0188271
249	0xbd9102ea	-0.07080634
250	0xbe415796	-0.18881068
251	0x3dc30aaf	0.09523522
252	0x3d468bc0	0.04847312
253	0x3d03138e	0.03200107
254	0x3c2330de	0.009960381
255	0x3d84f027	0.06491118

actor.4.bias f4 [9]
0	0xbf78a0a6	-0.9712013
1	0x3f148506	0.5801548
2	0x3f0ce2b3	0.55033416
3	0xbd63cc22	-0.055614598
4	0x3ce0fae9	0.027463393
5	0x3dbf5f12	0.09344305
6	0x3d858d7e	0.06521128
7	0xb99778d5	-0.0002889099
8	0x3c0d97e5	0.0086421715
