Plotting/saliencies_live/Multi_Pong/Sequence_Length_1/multi_pong_1__1__1721853303_checkpoint_912.pt (torch, 86690 bytes, 11 tensors)

critic.0.weight f4 [128, 12]
0.4670091 -0.012171678 0.05852215 -0.381892 -0.28235322 0.40646794 -1.3372543 1.2062639
-0.038589932 -0.06675971 0.26583958 0.076349996 -0.005835272 -0.0053766845 -0.06517874 0.012298231
-0.010505227 -0.3034774 -0.026090933 -1.7378618 -0.010344013 0.31239238 -0.0009941919 1.7872553
0.20521353 -0.004263086 -0.09397921 0.01360863 -0.033786885 -0.0045967773 -0.003529416 0.03048981
0.1453135 0.18884331 -0.20010315 2.1907034 -0.31208816 0.138305 -0.22746271 0.12105174
0.28868714 -0.14784478 2.0009725 -1.1485788 0.036739804 0.028702965 -0.72862434 -0.07013677
0.050067693 0.004872341 -0.033873037 0.01090722 0.18853939 -0.094630726 3.0858066 -1.838304
0.018030815 -0.08129293 0.26603273 -1.5274354 -0.07484291 0.008433878 -0.09894528 -0.004365055
0.011201842 0.03246869 0.30086827 2.6826112 0.009425758 0.020839037 -0.0026782604 0.10616562
0.11991704 0.038857494 -0.21003824 0.022480335 0.0018391495 -0.009708406 -0.19535889 0.00029687257
-0.28450677 0.28115037 -1.75124 2.0850217 0.23173997 -0.024751842 -0.048795104 -0.00046110252
-0.060447477 0.06638671 -2.34556 1.0639591 0.09138395 -0.033942383 0.30614254 -0.7260286
-0.1710237 -0.009037989 0.03587229 -0.0022039844 -0.0056112884 0.0030566775 -0.030831877 0.1024881
-0.12269659 -0.1197563 -3.9444451 -4.211809 0.5484094 -0.2505511 0.5626537 -0.19888806
-0.9710224 0.4156019 -1.0017372 0.36137155 0.049445525 0.010627773 0.46855313 -0.17741917
0.7600266 -0.0010666895 0.5548953 0.011447012 -0.0036989984 0.0067707906 0.2022935 0.07914402
-1.178382 0.0020705715 -0.1298995 -0.015555562 -0.08976358 0.0072635603 0.024476452 0.0057062004
0.09992464 -0.09641045 3.169165 -3.2056153 0.018633312 0.013238443 0.134208 -0.016002906
0.02395322 -0.03315623 -0.081284 0.122168615 0.08673919 -0.16746475 0.56209725 -0.12332663
-0.09796198 0.005029444 -0.25344843 -0.26043627 0.09674206 -0.005661157 0.115057744 0.025758723
0.05944294 0.002370512 -0.3627095 -0.1290524 -0.109560646 -0.04547043 -2.1192734 -0.051983908
0.01257249 -0.0032185556 0.009049056 -0.0080458885 0.0016741372 0.013498475 1.4115616 0.83353007
0.013797628 -0.0033493799 -0.92871207 -0.13412702 -0.03514584 0.017324245 -0.0902719 -0.009430068
-0.14038074 0.009363435 -1.7818538 0.09679694 0.14674106 0.00025459874 2.3511539 0.05397348
0.040871542 -0.009618529 -0.023724053 0.0022982536 -0.06925959 -0.038431663 -2.405219 -0.7885595
0.005872987 0.073832944 0.60611725 2.9061615 -0.07353811 -0.0038226612 0.12744825 -0.011710282
0.24322006 -0.0080477595 1.7801102 -0.29569572 -0.2216632 0.0002196573 -1.7348807 0.25700796
0.30517143 0.0319262 0.07297603 0.25691423 -0.143191 -0.39229172 -0.39281577 -0.16610974
-0.122557335 0.072852224 -0.012074743 0.00283329 -0.0043945713 -0.019467462 0.06064763 -0.021174477
-0.036223117 -0.013613939 0.60659325 -1.1538349 0.08632018 -0.015495127 1.7907643 -0.55381393
-0.056067992 -0.009277215 0.097924374 -0.0016810556 0.08125044 -0.0014462767 0.3371688 0.062117834
0.10762165 -0.012788242 2.830068 -0.03829557 0.31607777 0.00606343 0.16492425 -0.30779815
00000000: d11b ef3e b86b 47bc ecb4 6f3d 5987 c3be
00000010: 9a90 90be 911c d03e 262b abbf db66 9a3f
00000020: 7a10 1ebd 51b9 88bd 201c 883e 635d 9c3d
00000030: cf35 bfbb e62e b0bb 6e7c 85bd 857e 493c
00000040: 1e1e 2cbc 6461 9bbe a7bc d5bc 4172 debf
00000050: ef79 29bc e5f1 9f3e 8b4f 82ba c8c4 e43f
00000060: 7f23 523e 5bb1 8bbb 2c78 c0bd bbf6 5e3c
00000070: 1e64 0abd 90a0 96bb c64d 67bb c4c5 f93c
00000080: 10cd 143e 2460 413e d7e7 4cbe 7c34 0c40
00000090: 05ca 9fbe d39f 0d3e fceb 68be fae9 f73d
000000a0: cdce 933e 9f64 17be ef0f 0040 a104 93bf
000000b0: 7a7c 163d 7b22 eb3c 2087 3abf dea3 8fbd
000000c0: c813 4d3d 29a8 9f3b 74be 0abd 32b4 323c
000000d0: 7810 413e c1cd c1bd db7d 4540 8c4d ebbf
000000e0: 5cb5 933c e87c a6bd 7135 883e 0183 c3bf
000000f0: 3d47 99bd 402e 0a3c d3a3 cabd bc08 8fbb
00000100: ee87 373c e4fd 043d 680b 9a3e e7af 2b40
00000110: 7f6e 1a3c a1b6 aa3c c185 2fbb 5c6d d93d
00000120: 1197 f53d 0929 1f3d 4414 57be ae28 b83c
00000130: 9e0f f13a 0210 1fbc 290c 48be 90a5 9b39
00000140: dfaa 91be f1f2 8f3e a228 e0bf ff70 0540
00000150: 3e4d 6d3e 60c4 cabc 60dd 47bd 22c0 f1b9
00000160: c697 77bd c1f5 873d a81d 16c0 d02f 883f
00000170: 8227 bb3d 2b07 0bbd b7be 9c3e 03dd 39bf
00000180: d620 2fbe 1314 14bc d3ee 123d b970 10bb
00000190: e6de b7bb 8a52 483b 2293 fcbc 48e5 d13d
000001a0: 5a48 fbbd ca42 f5bd ca71 7cc0 24c7 86c0
000001b0: 8f64 0c3f 3c48 80be 130a 103f 50a9 4bbe
000001c0: ed94 78bf c6c9 d43e ed38 80bf b105 b93e
000001d0: 6487 4a3d 1c20 2e3c 32e6 ef3e 5fad 35be
000001e0: 1a91 423f 29d0 8bba 9e0d 0e3f 408c 3b3c
000001f0: e56a 72bb 82dd dd3b 0726 4f3e 4316 a23d
00000200: 39d5 96bf 6db2 073b 6004 05be c2dc 7ebc
00000210: f8d5 b7bd 2903 ee3b d782 c83c 14fb ba3b
00000220: 4aa5 cc3d d872 c5bd 99d3 4a40 cd28 4dc0
00000230: e3a4 983c 0ee6 583c d26d 093e 8718 83bc
00000240: 8b39 c43c d4ce 07bd 3a78 a6bd 8a33 fa3d
00000250: 51a4 b13d e17b 2bbe 9be5 0f3f ac92 fcbd
00000260: 4aa0 c8bd 09ce a43b fec3 81be e757 85be
00000270: b320 c63d 3a81 b9bb 65a3 eb3d f503 d33c
00000280: 717a 733d 985a 1b3b 0fb5 b9be 5026 04be
00000290: 5561 e0bd 343f 3abd 2da2 07c0 14ed 54bd
000002a0: d8fc 4d3c 67ee 52bb 7e42 143c e7d2 03bc
000002b0: b96e db3a b528 5d3c 0dae b43f 3a62 553f
000002c0: 720f 623c 4581 5bbb 13c0 6dbf 9858 09be
000002d0: 16f5 0fbd 93eb 8d3c 79e0 b8bd 9280 1abc
000002e0: f8bf 0fbe 1869 193c c913 e4bf 793d c63d
000002f0: 4a43 163e aa7b 8539 4e79 1640 4c13 5d3d
00000300: eb68 273d 0997 1dbc f258 c2bc 4c9e 163b
00000310: f9d7 8dbd 856a 1dbd 1cef 19c0 09df 49bf
00000320: 3072 c03b ba35 973d 802a 1b3f 8dfe 3940
00000330: 269b 96bd 9d85 7abb cb81 023e 7cdc 3fbc
00000340: ae0e 793e c0da 03bc a7da e33f 6e65 97be
00000350: aefb 62be cf53 6639 9210 debf 8c96 833e
00000360: 6e3f 9c3e 0cc5 023d 7574 953d 438a 833e
00000370: a9a0 12be 76da c8be 261f c9be ac18 2abe
00000380: 57ff fabd 8c33 953d 25d5 45bc b8ae 393b
00000390: 5600 90bb 3a7a 9fbc a669 783d 1976 adbc
000003a0: b15e 14bd 000d 5fbc b249 1b3f ddb0 93bf
000003b0: a2c8 b03d 46df 7dbc c437 e53f c0c6 0dbf
000003c0: 8da7 65bd 76ff 17bc 938c c83d de56 dcba
000003d0: a166 a63d fe90 bdba 64a1 ac3e 456f 7e3d
000003e0: bd68 dc3d c685 51bc d61f 3540 d1db 1cbd
000003f0: f2d4 a13e bdaf c63b e7e1 283e b897 9dbe

critic.0.bias f4 [128]
0.23097564 0.02441711 0.04614032 -0.110386364 -0.031242535 0.029520039 -0.0076732947 0.043187816
0.05846561 0.46712688 0.539076 -0.030024981 -0.06936652 -0.0015182979 -0.020780897 0.041063044
-0.07923335 -0.07965792 0.07269096 0.023717929 0.006937443 0.1512054 -0.08958182 -0.11859826
0.063456066 0.037288453 0.12670241 -0.010393333 -0.08867714 -0.02308357 -0.10695237 0.08914247
-0.023676587 0.18181863 0.2795369 -0.037242174 0.03571796 -0.053694516 0.0338367 -0.01890808
0.11919437 -0.11787685 0.025670325 -0.09186677 0.15129468 0.57055867 -0.07750578 0.037261378
0.03829344 0.060166523 -0.058130205 0.011633476 0.0034485518 -0.0007083369 0.06594448 0.21118791
0.06483927 0.02991171 -0.055355597 -0.31784216 -0.013567685 -0.037390843 -0.20309988 0.6690924
-0.075753495 0.37338984 -0.04672145 -0.04462479 -0.010486106 -0.13115294 -0.074955836 0.042647358
0.04436835 -0.09545613 -0.07028539 0.070812285 0.06543584 0.047841668 -0.3007621 0.013217365
0.07576828 0.22207277 0.04339197 0.07940935 -0.06870732 -0.039504364 -0.0013638785 0.40222585
0.02118345 -0.044783287 0.023756104 -0.06776714 -0.03614469 0.033170983 0.036205616 -0.1354608
0.060355175 -0.12526292 0.0056847543 0.16590698 -0.017131966 0.029972466 -0.033943072 -0.09211418
-0.09207914 -0.08480306 0.45997 -0.01766527 0.053134006 0.044014283 0.07406968 -0.011434503
-0.051426016 0.006088593 -0.056664146 0.027204765 -0.029423237 -0.07374542 -0.0185208 0.21643108
-0.084605366 -0.014183265 0.015482328 -0.05477485 0.016415818 -0.06988671 0.053286877 -0.037187573
00000000: e184 6c3e 6406 c83c a2fd 3c3d 3f12 e2bd
00000010: 58f0 ffbc 02d4 f13c 4370 fbbb b5e5 303d
00000020: a379 6f3d 412b ef3e e200 0a3f f3f6 f5bc
00000030: 0910 8ebd a001 c7ba b33c aabc b931 283d
00000040: 1845 a2bd b123 a3bd ffde 943d 1a4c c23c
00000050: 7d53 e33b 97d5 1a3e ac76 b7bd a5e3 f2bd
00000060: 41f5 813d c7bb 183d 47be 013e cc48 2abc
00000070: 5c9c b5bd c119 bdbc d809 dbbd 5490 b63d
00000080: 67f5 c1bc aa2e 3a3e 761f 8f3e 408b 18bd
00000090: ff4c 123d c8ee 5bbd 5a98 0a3d 1ee5 9abc
000000a0: 2e1c f43d 6b69 f1bd 934a d23c a524 bcbd
000000b0: feec 1a3e 2210 123f 5abb 9ebd 639f 183d
000000c0: 95d9 1c3d 2c71 763d f019 6ebd 569a 3e3c
000000d0: 1901 623b afaf 39ba e60d 873d a541 583e
000000e0: 74ca 843d 6709 f53c 8dbc 62bd 35bc a2be
000000f0: ff4a 5ebc 2427 19bd 6af9 4fbe a449 2b3f
00000100: a624 9bbd f42c bf3e fe5e 3fbd 7cc8 36bd
00000110: ebcd 2bbc f54c 06be 7282 99bd ffae 2e3d
00000120: 96bb 353d 817e c3bd c9f1 8fbd 0806 913d
00000130: 3a03 863d a0f5 433d 7dfd 99be a68d 583c
00000140: 662c 9b3d 0b67 633e c7bb 313d 5fa1 a23d
00000150: 6cb6 8cbd 54cf 21bd 2bc4 b2ba 8cf0 cd3e
00000160: ea88 ad3c ae6e 37bd 299c c23c 80c9 8abd
00000170: 740c 14bd 4cde 073d 574c 143d 3cb6 0abe
00000180: fd36 773d ec44 00be 2d47 ba3b 85e3 293e
00000190: 5658 8cbc d188 f53c e407 0bbd 5ca6 bcbd
000001a0: fd93 bcbd 3aad adbd 3081 eb3e c2b6 90bc
000001b0: 0ba3 593d 5248 343d d8b1 973d c857 3bbc
000001c0: 16a4 52bd d282 c73b aa18 68bd 87dc de3c
000001d0: 0009 f1bc d707 97bd efb8 97bc 1ca0 5d3e
000001e0: 9445 adbd ed60 68bc 97a9 7d3c 985b 60bd
000001f0: 777a 863c c320 8fbd 5743 5a3d ff51 18bd

critic.2.weight f4 [64, 128]
-0.38779446 0.16049984 -0.06609362 0.45227888 0.49948615 0.040944893 -0.21777005 -0.16081607
0.1792118 -0.38360962 -0.053974144 0.15810679 0.045934357 -0.07430554 0.01873733 -0.2521227
-0.4809997 0.023304215 0.0050544734 0.16775171 -0.3830887 -0.0072922423 0.18619141 0.11463514
-4.4369386e-05 -0.09886814 0.14212555 0.24624158 -0.567861 0.12392645 -0.11510619 0.43275577
-0.13817607 0.27561986 0.1392053 0.23161937 0.2358098 0.3546881 0.16937624 -0.23453039
0.009433265 -0.17172578 0.13076843 0.36091822 0.35311157 0.3412798 -0.07240484 -0.15134251
-0.24137151 -0.05990778 0.002835241 0.061068006 0.2888355 0.12769456 -0.3457536 0.16537178
-0.2346079 0.26909232 -0.36415175 0.08478901 0.089710504 0.021677617 -0.25886527 -0.56983054
-0.11863555 0.18125719 0.18131085 -0.23910551 0.010412925 -0.12623012 0.34287244 0.2765874
0.032877363 0.31356236 0.0058488124 -0.12459119 0.03543892 0.055784088 0.051795416 -0.7047351
-0.07043921 -0.10205066 -0.07683647 0.14057015 -0.065899596 -0.43755597 -0.26725894 -0.08300231
-0.3142653 0.38622743 -0.14418091 -0.15063767 0.3446681 0.42683384 -0.16107704 0.104545176
-0.11305125 -0.43130636 0.2142858 0.03084282 0.45498478 -0.34784734 -0.102401175 0.15075111
0.05384634 0.10138553 0.1097599 0.08198386 -0.2754328 0.66351056 -0.32892984 -0.009665741
0.18809699 0.226534 -0.18901092 0.06728584 -0.07930732 0.19055259 -0.0804726 0.002222821
0.705806 0.02962438 0.11762313 -0.20519102 -0.11684216 -0.024917396 0.02115098 -0.18516465
0.08917364 -0.022255737 0.089659736 0.23311558 -0.39264995 -0.070588954 0.118114464 0.3238588
-0.7044652 -0.20199433 -0.100111015 -0.77179635 0.12043931 -0.6699334 -0.1415024 -0.4261477
0.35064387 0.2514587 0.07704802 0.087320305 0.56493354 -0.14483324 0.40378642 -0.0058644144
-0.11352383 -0.32600668 0.21575329 -0.77570534 -0.01081242 -0.22621876 0.09298946 0.116775766
-0.2584444 -0.18325022 0.13721494 -0.14853317 -0.40345898 -0.15352225 0.30883908 -0.43877655
0.61086005 -0.30285323 -0.77914476 -0.09400273 -0.2289687 -0.23746689 -0.06027804 0.1920269
-0.43483883 -0.017581295 0.06431223 -0.2655293 0.07828473 0.39603275 -0.2167906 -0.36935735
0.2918268 0.41378048 0.026525846 -0.046249762 -0.041903384 0.40103006 -0.44818023 0.17068528
-0.08517558 -0.2346632 0.23546568 -0.13737307 -0.028930565 0.5092315 0.030832693 -0.1787563
0.21368301 -0.034772817 -0.4313178 -0.2339134 0.02194101 0.6999939 0.26609454 0.31047654
-0.032289237 -0.044531252 -0.021024644 -0.16764049 -0.17754066 0.26986724 0.24085563 -0.032938983
-0.5484222 0.08051507 -0.30761164 -0.21404395 0.06502769 -0.3223094 0.18017444 -0.08536872
-0.29884434 -0.2485323 -0.13872288 0.3417725 0.13498504 0.31531516 0.26454416 0.09888708
0.34833992 -0.31854233 -0.27399462 -0.027568782 -0.04746154 -0.3555354 0.640001 0.49973696
-0.019992491 -0.34176448 -0.7867178 0.0288311 -0.013107635 0.47099188 -0.030747933 -0.2862973
-0.03454302 0.09025612 0.10339018 -0.17173591 0.16574217 -0.06391076 -0.16806647 0.5436757
00000000: ff8c c6be 125a 243e 185c 87bd 1991 e73e
00000010: a6bc ff3e d5b5 273d 1dff 5ebe f8ac 24be
00000020: 4c83 373e 7b68 c4be fe13 5dbd bfe6 213e
00000030: aa25 3c3d 812d 98bd 077f 993c 3a16 81be
00000040: 9845 f6be 7be8 be3c ff9f a53b 1bc7 2b3e
00000050: 3424 c4be c3f3 eebb f6a8 3e3e d4c5 ea3d
00000060: 4419 3ab8 617b cabd 5c89 113e c126 7c3e
00000070: 575f 11bf 27cd fd3d cbbc ebbd 2a92 dd3e
00000080: 077e 0dbe 0c1e 8d3e d68b 0e3e a12d 6d3e
00000090: 2078 713e ae99 b53e f770 2d3e bc28 70be
000000a0: fb8d 1a3c e2d8 2fbe 29e8 053e 46ca b83e
000000b0: 0acb b43e 3abc ae3e fd48 94bd 88f9 1abe
000000c0: 182a 77be dc61 75bd 73cf 393b 7222 7a3d
000000d0: 3fe2 933e 5dc2 023e 9e06 b1be 3857 293e
000000e0: 0e3d 70be 78c6 893e 1972 babe dca5 ad3d
000000f0: 24ba b73d 4295 b13c fd89 84be 6ae0 11bf
00000100: 32f7 f2bd 7c9b 393e 8da9 393e 13d8 74be
00000110: f99a 2a3c 7842 01be fa8c af3e dd9c 8d3e
00000120: 6aaa 063d 3f8b a03e 65a7 bf3b aa29 ffbd
00000130: 6728 113d db7d 643d 6e27 543d 8569 34bf
00000140: 6f42 90bd f0ff d0bd 705c 9dbd 9ff1 0f3e
00000150: 5ef6 86bd 5607 e0be 2ad6 88be 1dfd a9bd
00000160: 62e7 a0be 9abf c53e 29a4 13be c340 1abe
00000170: 5678 b03e f789 da3e 61f1 24be c81b d63d
00000180: 6a87 e7bd 30d4 dcbe bd6d 5b3e 15aa fc3c
00000190: c4f3 e83e 0c19 b2be b5b7 d1bd 805e 1a3e
000001a0: fb8d 5c3d 37a3 cf3d ccc9 e03d 27e7 a73d
000001b0: 8705 8dbe d4db 293f 7e69 a8be 0e5d 1ebc
000001c0: 7f9c 403e 87f8 673e 148c 41be 29cd 893d
000001d0: e06b a2bd 3820 433e d2ce a4bd bfac 113b
000001e0: b4af 343f d4ae f23c 65e4 f03d 981d 52be
000001f0: f14a efbd 911f ccbc d244 ad3c cd9b 3dbe
00000200: aba0 b63d aa51 b6bc 869f b73d dab5 6e3e
00000210: 6a09 c9be f190 90bd ffe5 f13d d2d0 a53e
00000220: d557 34bf 9ad7 4ebe 0107 cdbd 7294 45bf
00000230: e3a8 f63d c180 2bbf 01e6 10be 0830 dabe
00000240: 9887 b33e 32bf 803e 5acb 9d3d fdd4 b23d
00000250: 7c9f 103f 2a4f 14be 18bd ce3e 462a c0bb
00000260: 2f7f e8bd 59ea a6be 6eee 5c3e a094 46bf
00000270: 9426 31bc e4a5 67be 4271 be3d 2228 ef3d
00000280: d352 84be f2a5 3bbe 1382 0c3e 1419 18be
00000290: 2d92 cebe f034 1dbe 2820 9e3e 52a7 e0be
000002a0: 5361 1c3f 940f 9bbe 0876 47bf 8184 c0bd
000002b0: c576 6abe 852a 73be 1be6 76bd b3a2 443e
000002c0: 32a3 debe a606 90bc 21b6 833d 75f3 87be
000002d0: bf53 a03d cec4 ca3e 5bfe 5dbe 681c bdbe
000002e0: 536a 953e 09db d33e bb4c d93c 6470 3dbd
000002f0: e2a2 2bbd d053 cd3e e177 e5be 1fc8 2e3e
00000300: 8970 aebd 8d4b 70be ea1d 713e 87ab 0cbe
00000310: cbff ecbc ff5c 023f d894 fc3c e40b 37be
00000320: b8cf 5a3e f16d 0ebd b0d5 dcbe ff86 6fbe
00000330: a2bd b33c cd32 333f 8b3d 883e c8f6 9e3e
00000340: b841 04bd 6766 36bd e03b acbc f3a9 2bbe
00000350: 38cd 35be 0a2c 8a3e dca2 763e 07eb 06bd
00000360: 6665 0cbf 16e5 a43d 467f 9dbe 562e 5bbe
00000370: 3d2d 853d bd05 a5be a67f 383e ccd5 aebd
00000380: 2002 99be 407f 7ebe 5f0d 0ebe cefc ae3e
00000390: 8539 0a3e fd70 a13e 5572 873e 4f85 ca3d
000003a0: 9c59 b23e fb17 a3be 0649 8cbe edd7 e1bc
000003b0: 0867 42bd bc08 b6be 1bd7 233f 86dd ff3e
000003c0: 4bc7 a3bc c1fb aebe 5666 49bf 332f ec3c
000003d0: 68c1 56bc d925 f13e 17e3 fbbc 8f95 92be
000003e0: fb7c 0dbd 33d8 b83d 3bbe d33d 8adb 2fbe
000003f0: 51b8 293e a5e3 82bd 9e19 2cbe 552e 0b3f

critic.2.bias f4 [64]
0.2345415 -0.18851021 -0.49032938 0.46696958 0.45468324 -0.30957878 0.10117698 -0.16288936
-0.16458996 0.017464321 0.13543996 0.25009832 0.124412425 -0.2714977 0.17117967 0.19273038
0.3154941 0.42087376 0.27034602 0.07099956 -0.16531515 0.17491522 0.43054953 -0.015530388
-0.25533053 -0.1510504 0.2939396 0.14705123 0.28409603 0.33069435 -0.13129085 -0.057905864
0.15414006 0.25789985 -0.04315796 -0.30932334 -0.35894734 0.16834566 0.20783597 -0.14258549
-0.704662 0.15325114 0.29038286 0.14461513 0.037899695 0.14917819 -0.34783185 0.018749245
0.09760491 0.20468527 -0.078071885 0.16753148 0.24410899 -0.06642992 0.19323695 -0.099808134
0.41958067 0.32926232 0.20604822 0.25806782 -0.050748765 0.0057342458 -0.10088048 -0.273266
00000000: a62b 703e d208 41be 740c fbbe a316 ef3e
00000010: 3ecc e83e 1c81 9ebe e035 cf3d 78cc 26be
00000020: 458a 28be 5611 8f3c c6b0 0a3e e30c 803e
00000030: f1cb fe3d bf01 8bbe b949 2f3e 1d5b 453e
00000040: 7188 a13e c47c d73e cb6a 8a3e 3868 913d
00000050: 6048 29be fa1c 333e fd70 dc3e 2b73 7ebc
00000060: afba 82be f5ac 1abe 407f 963e 9994 163e
00000070: 0975 913e c550 a93e 1c71 06be b32e 6dbd
00000080: e4d6 1d3e 730b 843e 67c6 30bd a15f 9ebe
00000090: f2c7 b7be ce62 2c3e f4d2 543e ee01 12be
000000a0: bb64 34bf deed 1c3e 10ad 943e fd15 143e
000000b0: b63c 1b3d 2bc2 183e 0417 b2be 0498 993c
000000c0: 15e5 c73d 0499 513e 27e4 9fbd 5f8d 2b3e
000000d0: b5f7 793e 690c 88bd e8df 453e 3568 ccbd
000000e0: 47d3 d63e 1295 a83e 4efe 523e 7721 843e
000000f0: f0dd 4fbd 57e6 bb3b 6d9a cebd 85e9 8bbe

critic.4.weight f4 [1, 64]
0.41459227 -0.3273057 -0.32442874 0.2755647 1.5964065 -0.22520427 -0.4231474 -0.31047693
-0.5623181 0.28720412 0.31390452 0.17287906 0.46603742 -0.28160805 0.18288481 0.25442463
0.31465235 0.38194638 0.3252505 0.2371194 0.505901 -0.46921325 0.4260354 -0.24085152
-0.38463122 -0.23626451 0.26314756 0.50265706 0.1754479 0.33085713 -0.28457212 0.26341838
0.3427872 0.3923151 -0.4258684 -0.9719714 -0.3779784 0.62515986 -0.5335863 -0.7599486
-1.5179766 0.25059396 0.22527379 -0.57055694 -0.26462305 0.27368796 -0.27397996 -0.24105121
0.23566434 0.2366622 -0.18060319 0.49216253 0.43114462 0.24162301 0.9234403 -0.37437162
0.6685382 0.2739493 0.45875448 0.21215609 -0.3033574 -0.38873225 -0.2243185 -0.34005597
00000000: 7045 d43e 9d94 a7be 861b a6be d116 8d3e
00000010: 0c57 cc3f f39b 66be c7a6 d8be d5f6 9ebe
00000020: 14f4 0fbf 6b0c 933e 18b8 a03e 3507 313e
00000030: 759c ee3e ee2e 90be 2846 3b3e f243 823e
00000040: 1d1a a13e 7a8e c33e 3c87 a63e 6ecf 723e
00000050: ba82 013f b83c f0be 5021 da3e c8a1 76be
00000060: 62ee c4be 53ef 71be 47bb 863e 22ae 003f
00000070: 9da8 333e 1b66 a93e 70b3 91be c6de 863e
00000080: ce81 af3e 86dd c83e 6c0b dabe 1ed3 78bf
00000090: 6386 c1be 7a0a 203f 1d99 08bf fe8b 42bf
000000a0: 0f4d c2bf da4d 803e 2cae 663e 0510 12bf
000000b0: ac7c 87be d420 8c3e 1a47 8cbe 21d6 76be
000000c0: fe51 713e 9357 723e 0bf0 38be bafc fb3e
000000d0: fdbe dc3e 066c 773e 9566 6c3f a3ad bfbe
000000e0: 5225 2b3f 1543 8c3e dee1 ea3e 723f 593e
000000f0: a951 9bbe ea07 c7be c0b3 65be d11b aebe

actor.0.weight f4 [128, 13]
-0.0066349334 -0.24266645 0.41602698 -0.40333387 0.5784071 -0.542761 -0.13889301 0.082607284
0.4462087 -0.3181286 -0.3090157 0.4819826 0.12484675 0.09605809 0.045942776 -0.026351552
0.0552948 -0.11011485 0.3267608 -0.3436262 0.19284493 -1.9731025 -0.63324034 0.043053146
0.25241473 -0.090653166 -0.064137995 -0.2663686 0.40548798 -0.41076258 0.40071714 0.31649676
-0.017178517 0.13761054 0.9162858 -0.25017345 -0.30001915 0.12199828 0.19111867 0.07743809
-0.0992519 -0.47039548 -0.062489133 -0.07996401 1.5887822 -0.014986661 -0.11513911 0.2982781
-0.32302815 -0.022224141 0.070363045 0.016525988 0.26099846 -0.5453602 -0.036129598 0.11115073
-0.15176252 -0.40663102 0.22095373 -0.52215546 -0.22487177 -0.49201652 -0.28260636 0.061905053
0.28823513 0.0146667035 -0.033621326 -0.18310021 -0.28835598 -1.1185952 -0.89145505 -0.03104494
0.06607222 -0.7915009 -0.59777457 -0.3510396 0.4255559 -0.2457124 -0.17260814 0.20701943
-0.029909575 -0.07887803 0.4407379 -0.38860673 -0.56642735 0.41241232 -0.17041221 0.25824338
-0.052660197 -0.12133179 0.07156932 0.048338905 -0.48385856 -0.23123342 -0.009362319 0.60450786
-0.80127066 -0.24949098 -0.41300216 -0.37408346 -0.27037376 -0.11814376 0.14056352 -0.13829055
-0.14109756 -0.1445099 0.70706224 -0.07014846 0.31718543 0.35708633 0.20465684 -0.022995906
0.6380937 -0.42678097 -0.38591102 0.07938725 0.020291101 -0.022015024 0.33327782 -0.26810417
-0.43097708 -0.68795013 -0.65750724 0.23789033 -0.056581605 1.0735275 0.5874481 -0.5187549
0.4019653 -0.1572612 0.14384434 -0.48654252 -0.464203 0.42909032 -0.65886694 0.068528116
0.03638595 -0.046233747 0.73241323 -0.3232227 0.6374957 -0.5461214 0.1706885 0.11258582
0.038628366 -0.043768823 0.024620997 0.25821263 -0.16357218 -0.35320482 -0.06730465 -2.381092
-0.11543957 0.22955433 -0.08898327 -0.24539088 0.018632311 -0.18080822 -0.3987612 0.24781382
0.66374165 -1.2930213 0.06013311 0.009350387 7.9805424e-05 0.31259903 -0.027317217 -0.1299885
0.070002235 -0.039374802 -0.27000636 0.12402636 -0.1656621 0.97678673 -0.9687842 -0.33141917
0.40217972 -1.0422825 0.7012875 0.09324051 0.20673262 -0.13067073 0.11254562 0.29322305
-0.020564124 -0.13659473 0.5003178 0.22433597 0.4733259 0.3184406 -0.5242937 0.5256773
0.1825435 0.23450808 -0.597629 0.18069355 0.27298242 -0.16895464 0.30552846 -0.5169005
0.603357 0.11537152 -0.29431072 0.9004156 -0.47121477 -0.0712882 0.17248344 0.25154728
0.023576174 -0.02183508 0.322079 0.116486266 0.4442083 0.118648075 -0.11828071 -0.07910605
-1.5129901 -0.3636659 0.5597304 -0.37981808 -0.007533601 0.2872305 0.204498 0.17180939
-0.4837329 0.49311444 -0.07943686 -0.12933241 0.28632382 -0.49385315 0.7370984 0.24840717
0.10680744 0.14559664 0.05484736 -0.5848345 -0.21227632 0.3052366 0.059882604 0.23715995
-0.009447088 0.07606702 -0.9517263 -0.14080566 0.15230618 -0.32792395 0.63395864 0.11965544
-0.12059278 -0.35083494 0.0686977 0.12364277 0.4634851 0.5554003 0.15151328 0.12624863
00000000: db69 d9bb 8e7d 78be 7d01 d53e c781 cebe
00000010: 7d12 143f 63f2 0abf f839 0ebe 022e a93d
00000020: 7775 e43e c0e1 a2be 4e37 9ebe 6cc6 f63e
00000030: a7af ff3d 1bba c43d 7e2e 3c3d 36df d7bc
00000040: cd7c 623d e583 e1bd 314d a73e c6ef afbe
00000050: 2479 453e 9f8e fcbf 0a1c 22bf 7f58 303d
00000060: 813c 813e 5ea8 b9bd c85a 83bd 7761 88be
00000070: 1f9c cf3e 794f d2be cc2a cd3e dd0b a23e
00000080: f6b9 8cbc c7e9 0c3e b591 6a3f bc16 80be
00000090: 1c9c 99be 3cda f93d 9db4 433e dd97 9e3d
000000a0: 9544 cbbd add7 f0be 9bf4 7fbd 2cc4 a3bd
000000b0: 375d cb3f 9d8a 75bc 0ece ebbd e8b7 983e
000000c0: f263 a5be 670f b6bc 801a 903d 8261 873c
000000d0: 97a1 853e ba9c 0bbf a1fc 13bd fea2 e33d
000000e0: a267 1bbe f131 d0be b241 623e fbab 05bf
000000f0: c944 66be 97e9 fbbe c8b1 90be 2790 7d3d
00000100: 8e93 933e 9d4c 703c 84b6 09bd 9f7e 3bbe
00000110: 65a3 93be 212e 8fbf 6636 64bf f551 febc
00000120: df50 873d ce9f 4abf c107 19bf 76bb b3be
00000130: 77e2 d93e 089c 7bbe 30c0 30be e7fc 533e
00000140: ed04 f5bc ce8a a1bd 66a8 e13e 76f7 c6be
00000150: 6201 11bf b527 d33e 8a80 2ebe 7a38 843e
00000160: 38b2 57bd cd7c f8bd f092 923d 04ff 453d
00000170: 4fbc f7be 74c8 6cbe 6964 19bc 07c1 1a3f
00000180: 1320 4dbf 907a 7fbe 0575 d3be de87 bfbe
00000190: 6e6e 8abe 5bf5 f1bd e2ef 0f3e 0a9c 0dbe
000001a0: e17b 10be 67fa 13be 0802 353f ffa9 8fbd
000001b0: 2166 a23e 05d4 b63e 9091 513e e961 bcbc
000001c0: 1c5a 233f 0983 dabe 2196 c5be c895 a23d
000001d0: 8639 a63c da58 b4bc 64a3 aa3e f344 89be
000001e0: 07a9 dcbe 801d 30bf 6552 28bf 8699 733e
000001f0: 1dc2 67bd 5969 893f 0063 163f 1fcd 04bf
00000200: 65ce cd3e 1409 21be ee4b 133e 1a1c f9be
00000210: 04ac edbe bab1 db3e 81ab 28bf 7858 8c3d
00000220: 6f09 153d 995f 3dbd 6f7f 3b3f 727d a5be
00000230: eb32 233f 9dce 0bbf f7c8 2e3e 6593 e63d
00000240: c738 1e3d f046 33bd f9b1 c93c 7234 843e
00000250: 777f 27be 43d7 b4be 05d7 89bd d063 18c0
00000260: 956b ecbd 4a10 6b3e dc3c b6bd bf47 7bbe
00000270: caa2 983c ca25 39be 6e2a ccbe e8c2 7d3e
00000280: f9ea 293f b981 a5bf 234e 763d 5e32 193c
00000290: 365d a738 fb0c a03e 5bc8 dfbc b51b 05be
000002a0: 555d 8f3d 7947 21bd 463e 8abe 8801 fe3d
000002b0: 53a3 29be b20e 7a3f 3e02 78bf c6af a9be
000002c0: 80ea cd3e 8369 85bf 9487 333f e1f4 be3d
000002d0: b7b1 533e 8cce 05be 517e e63d 5521 963e
000002e0: 1876 a8bc 7ddf 0bbe d414 003f 54b8 653e
000002f0: c657 f23e a50a a33e 1d38 06bf ca92 063f
00000300: afec 3a3e e322 703e 37fe 18bf bb07 393e
00000310: 5ac4 8b3e 7202 2dbe 3a6e 9c3e 9753 04bf
00000320: 9b75 1a3f e747 ec3d e5af 96be a381 663f
00000330: 1043 f1be 8cff 91bd 809f 303e ceca 803e
00000340: d222 c13c 7bdf b2bc 8ae7 a43e 5a90 ee3d
00000350: 456f e33e c3fd f23d 283d f2bd 5a02 a2bd
00000360: a9a9 c1bf 6b32 babe 7e4a 0f3f 8477 c2be
00000370: 6ddc f6bb e00f 933e ec67 513e cdee 2f3e
00000380: d7ab f7be 7f79 fc3e cbaf a2bd b76f 04be
00000390: 0999 923e 52da fcbe 7bb2 3c3f 735e 7e3e
000003a0: dcbd da3d 4917 153e a0a7 603d b7b7 15bf
000003b0: f75e 59be f947 9c3e 7647 753d 0fda 723e
000003c0: f6c7 1abc 07c9 9b3d 56a4 73bf 5c2f 10be
000003d0: 27f6 1b3e a6e5 a7be 1d4b 223f e90d f53d
000003e0: 59f9 f6bd a3a0 b3be 61b1 8c3d 6c38 fd3d
000003f0: eb4d ed3e b72e 0e3f 4c26 1b3e 5247 013e

actor.0.bias f4 [128]
0.015967138 0.18059507 -0.04015143 -0.012449541 0.17416954 -0.10130572 -0.046743438 0.13631971
-0.1875933 0.092467174 0.20165595 -0.010998019 0.009309135 -0.0054675974 0.04170038 0.21802418
0.04549709 0.04656265 0.14018252 0.05037725 0.17010528 0.22629151 -0.028912589 -0.018269442
0.2238568 -0.17454511 -0.19079188 0.3116571 -0.20395415 0.06905128 -0.14099455 0.0086194035
-0.18247272 0.08939795 -0.11290128 -0.02820396 0.13656205 0.08182549 0.08283438 0.14530802
-0.06794438 0.2513738 -0.08742949 0.0066858674 0.11536783 0.05520647 -0.13913113 -0.12577972
0.08658653 0.20346437 -0.22307268 0.19894707 0.07271839 0.0043655788 0.026789106 0.031957276
-0.17805925 0.18543248 0.17006381 -0.016980702 -0.10984336 -0.061257552 0.045258474 0.27425468
0.13388942 0.0615226 -0.03678413 0.13911267 -0.09258439 -0.06799727 0.3283938 0.055360917
0.009759492 0.13279818 -0.10007662 -0.17381716 0.11379441 -0.119423196 -0.095227465 0.23377562
0.10599442 -0.15855965 -0.19811526 0.033801362 0.24268353 -0.11581355 0.03007717 0.049838565
0.105118364 0.000987485 -0.16861008 0.09950971 -0.14752683 -0.0180596 0.06902784 0.21102303
-0.18602431 0.18411006 -0.21037672 0.20405398 -0.22900005 -0.027849322 0.14927107 0.2621911
-0.01583225 -0.035156358 -0.018054243 0.06614538 0.12016451 -0.10121062 -0.002382081 -0.053560704
0.006133577 -0.22542666 0.10765789 0.07803921 -0.023184588 0.11959731 0.029515557 0.17474048
0.14221172 -0.21702991 0.1581922 -0.050985247 0.099574834 -0.031233866 -0.0985123 0.01738235
00000000: 84cd 823c eaed 383e d375 24bd 29f9 4bbc
00000010: 8059 323e 6079 cfbd 0c76 3fbd 6597 0b3e
00000020: 7518 40be 6e5f bd3d e67e 4e3e 0931 34bc
00000030: 5885 183c 8829 b3bb 05ce 2a3d bb41 5f3e
00000040: 285b 3a3d 7ab8 3e3d 028c 0f3e 6058 4e3d
00000050: 1430 2e3e f6b8 673e 18da ecbc cca9 95bc
00000060: b83a 653e f4bb 32be f25e 43be 8591 9f3e
00000070: 5bd9 50be c26a 8d3d e060 10be 6638 0d3c
00000080: 21da 3abe 4616 b73d c938 e7bd fe0b e7bc
00000090: ecd6 0b3e 1f94 a73d 12a5 a93d a0cb 143e
000000a0: 6c26 8bbd 11b4 803e 3c0e b3bd 1f15 db3b
000000b0: f845 ec3d 2e20 623d 6478 0ebe 66cc 00be
000000c0: 4754 b13d f758 503e 2a6d 64be c8b8 4b3e
000000d0: 61ed 943d 210d 8f3b d474 db3c a2e5 023d
000000e0: 2a55 36be 03e2 3d3e 3525 2e3e 1d1b 8bbc
000000f0: 8ef5 e0bd 33e9 7abd f360 393d 1c6b 8c3e
00000100: 4f1a 093e 1fff 7b3d f5aa 16bd 8d73 0e3e
00000110: e29c bdbd 2742 8bbd 3b23 a83e 21c2 623d
00000120: 47e6 1f3c 3ffc 073e f9f4 ccbd 20fd 31be
00000130: 0b0d e93d 2694 f4bd 9e06 c3bd e062 6f3e
00000140: 9a13 d93d 765d 22be bade 4abe 4c73 0a3d
00000150: 0882 783e a82f edbd 6664 f63c 8623 4c3d
00000160: 4c48 d73d 806e 813a 1fa8 2cbe bfcb cb3d
00000170: 4611 17be baf1 93bc 785e 8d3d 6c16 583e
00000180: 287d 3ebe 5987 3c3e ff6c 57be 87f3 503e
00000190: fd7e 6abe 4324 e4bc 84da 183e e93d 863e
000001a0: a2b2 81bc 1d00 10bd 7ee6 93bc 3b77 873d
000001b0: d018 f63d 8347 cfbd b01c 1cbb 7862 5bbd
000001c0: 2cfc c83b 3fd6 66be bd7b dc3d 05d3 9f3d
000001d0: 9bed bdbc 6fef f43d 9cca f13c 2bef 323e
000001e0: f39f 113e 173d 5ebe 23fd 213e e8d5 50bd
000001f0: e4ed cb3d 2ade ffbc d1c0 c9bd 6e65 8e3c

actor.2.weight f4 [64, 128]
0.22871764 0.74153453 -0.09132318 -0.035102617 -0.14854005 0.04135303 0.3822307 0.077688895
-0.27754158 -0.25964254 0.017344004 0.7135776 0.013307545 0.14908168 0.25095955 0.047294404
-0.3384907 -0.5440078 -0.04418663 -0.13642563 -0.38149628 0.15080188 0.16580948 -0.05323303
-0.43939903 0.1900024 0.15586215 0.39409402 0.2336324 -0.22220509 -0.010620823 0.45222032
0.21095257 0.22815765 0.1954002 -0.17806037 -0.2347172 0.030857502 0.41424185 -0.068767995
-0.014781365 -0.2782707 0.08475624 -0.18489903 -0.58860326 -0.03826898 -0.06490552 -0.064215764
-0.34145817 0.26757193 0.31580642 -0.34369278 -0.5068813 -0.07221473 -0.48553637 0.17001294
0.32750908 0.22908898 0.08091044 0.21310739 0.005729555 0.109326735 0.110197864 0.37996975
0.012320348 0.09660297 0.43569037 0.8198278 0.031478677 0.15978578 -0.34778354 0.4068731
-0.1966507 0.39148384 -0.31788892 0.7333572 -0.085066766 0.28643933 0.028250879 0.012663144
0.08344696 -0.12047953 -0.4322584 0.5305991 -0.3734667 -0.17908649 0.21939094 -0.0001501824
-0.4425546 0.06430071 0.04893167 -0.117977165 0.14250956 0.07289627 0.064108886 0.2807551
0.058852177 -0.09676923 -0.45249403 -0.04999319 0.26767907 0.28973153 -0.18454531 0.09724687
-0.3279901 0.2165034 0.2671705 0.35382125 -0.11604627 -0.030459853 -0.092852324 0.2113088
0.093793035 0.541303 -0.14594878 -0.020544756 0.11979147 0.37150097 -0.11894457 -0.27139837
0.0014327043 -0.020156102 -0.16432545 0.050963636 -0.15263161 -0.4808525 0.12245759 -0.3101288
0.19185781 0.35168263 0.24339637 -0.13473278 -0.2518696 -0.2376005 -0.09606114 0.08553832
-0.20842732 0.10022763 -0.51805043 0.45983434 0.027627485 -0.2287858 -0.066770524 -0.38635126
-0.03412132 -0.103011325 0.17472163 -0.07138289 -0.45732012 0.2189744 -0.45393974 0.187581
0.09441935 -0.011946571 -0.52326334 0.5563275 0.21861938 -0.30070493 0.09101909 0.23236494
0.0705279 0.3718789 -0.16102628 0.30681247 0.24632663 -0.10206309 0.28118318 -0.1541641
-0.14797804 -0.1237976 -0.05366837 -0.055796232 -0.16354595 -0.5189424 0.17393573 -0.2638382
0.5134362 0.26389286 0.29139644 0.0650541 -0.66523784 0.39291224 0.1943088 -0.3475469
0.27984768 -0.14490002 0.14730506 0.3997548 0.07831446 0.41112456 -0.04764988 -0.044293858
-0.11548901 -0.2387675 0.021133795 0.14444642 -0.09578356 0.34075743 -0.63157916 0.10863097
-0.19128081 -0.074983254 0.36165854 0.33560178 0.11468527 -0.34339356 -0.11842606 0.076827876
0.23822945 0.110613056 -0.087121435 0.11142586 -0.12728165 -0.21480177 -0.5315112 -0.42806727
-0.13995719 0.085706994 0.18303734 -0.44195107 0.2810557 0.24118109 -0.14371495 -0.2912788
0.2953685 -0.07180564 0.059019383 -0.13480431 0.042894572 0.51837397 0.38317928 -0.15555425
-0.54256546 0.3065678 -0.009289232 0.05205506 0.11305847 0.1917738 0.27229223 -0.015101677
0.6669529 0.19948004 -0.25437742 0.053080294 -0.2621644 -0.19301078 -0.48522308 -0.07852886
0.5187441 -0.042596903 0.07899612 0.37705737 -0.30570653 -0.31754738 -0.17403169 -0.38071078
00000000: f534 6a3e 35d5 3d3f a607 bbbd c3c7 0fbd
00000010: e21a 18be cb61 293d beb3 c33e 5b1b 9f3d
00000020: ee19 8ebe deef 84be 0315 8e3c 06ad 363f
00000030: e407 5a3c dea8 183e c57d 803e c7b7 413d
00000040: a74e adbe 1844 0bbf 0afd 34bd 29b3 0bbe
00000050: 7b53 c3be cf6b 1a3e f6c9 293e e10a 5abd
00000060: e9f8 e0be fd8f 423e 549a 1f3e b1c6 c93e
00000070: 553d 6f3e bb89 63be f602 2ebc 6c89 e73e
00000080: f303 583e 29a2 693e fd16 483e 7555 36be
00000090: b559 70be dfc8 fc3c 8217 d43e 3cd6 8cbd
000000a0: 8a2d 72bc 7f79 8ebe ae94 ad3d 2c56 3dbe
000000b0: b4ae 16bf efbf 1cbd 2fed 84bd 8e83 83bd
000000c0: 9bd3 aebe 30ff 883e 61b1 a13e 80f8 afbe
000000d0: f9c2 01bf 51e5 93bd 3998 f8be df17 2e3e
000000e0: 45af a73e 4d96 6a3e 5fb4 a53d d338 5a3e
000000f0: febe bb3b b2e6 df3d 6baf e13d 658b c23e
00000100: 49db 493c c7d7 c53d cf12 df3e 3ce0 513f
00000110: c9ef 003d e29e 233e af10 b2be ac51 d03e
00000120: cd5e 49be 9270 c83e 56c2 a2be 4cbd 3b3f
00000130: 7c37 aebd 2da8 923e 636e e73c 1379 4f3c
00000140: 3de6 aa3d f9bd f6bd f950 ddbe 58d5 073f
00000150: 0737 bfbe 7362 37be 05a8 603e 487a 1db9
00000160: 8496 e2be 17b0 833d 936c 483d 039e f1bd
00000170: 07ee 113e a44a 953d 854b 833d 22bf 8f3e
00000180: fb0e 713d f22e c6bd 4cad e7be a9c5 4cbd
00000190: 3b0d 893e b157 943e 72f9 3cbe 5e29 c73d
000001a0: 52ee a7be 11b3 5d3e 92ca 883e 0f28 b53e
000001b0: aba9 edbd f186 f9bc 5c29 bebd 5661 583e
000001c0: 9016 c03d d592 0a3f 9973 15be 7a4d a8bc
000001d0: 3b55 f53d 6035 be3e 3699 f3bd baf4 8abe
000001e0: 94c9 bb3a 691e a5bc ee44 28be 3fbf 503d
000001f0: 764b 1cbe 4d32 f6be 0ccb fa3d 34c9 9ebe
00000200: 6076 443e bf0f b43e e63c 793e 64f7 09be
00000210: 0df5 80be 8c4d 73be b4bb c4bd b72e af3d
00000220: f96d 55be 2544 cd3d f49e 04bf 686f eb3e
00000230: 0953 e23c d346 6abe fcbe 88bd d5cf c5be
00000240: ccc2 0bbd 9af7 d2bd 3aea 323e 3131 92bd
00000250: dd25 eabe d33a 603e ca6a e8be 3c15 403e
00000260: ef5e c13d 8dbb 43bc 96f4 05bf 7b6b 0e3f
00000270: c2dd 5f3e fff5 99be 3768 ba3d 13f1 6d3e
00000280: ee70 903d e966 be3e 13e4 24be 8616 9d3e
00000290: 0c3d 7c3e 7406 d1bd 3ef7 8f3e 32dd 1dbe
000002a0: 8e87 17be 9989 fdbd 5dd3 5bbd 978a 64bd
000002b0: 9778 27be 69d9 04bf 351c 323e cd15 87be
000002c0: 8e70 033f f71c 873e ea31 953e 153b 853d
000002d0: 074d 2abf cb2b c93e e3f8 463e abf1 b1be
000002e0: 3248 8f3e ac60 14be 23d7 163e a9ac cc3e
000002f0: 5563 a03d eb7e d23e 852c 43bd 7a6d 35bd
00000300: 8185 ecbd 787f 74be c820 ad3c c3e9 133e
00000310: 2c2a c4bd c277 ae3e 2caf 21bf ea79 de3d
00000320: 1edf 43be d290 99bd 4f2b b93e ffd3 ab3e
00000330: 1ce0 ea3d 48d1 afbe 5d89 f2bd ef57 9d3d
00000340: 6cf2 733e 1989 e23d b96c b2bd 3e33 e43d
00000350: 1f56 02be fff4 5bbe 1e11 08bf a22b dbbe
00000360: f050 0fbe 2687 af3d 246e 3b3e 6947 e2be
00000370: 88e6 8f3e 2df8 763e 032a 13be 7f22 95be
00000380: 8a3a 973e d60e 93bd 4fbe 713d 240a 0abe
00000390: 38b2 2f3d 28b4 043f 1330 c43e 9d49 1fbe
000003a0: 92e5 0abf 74f6 9c3e dd31 18bc b037 553d
000003b0: 338b e73d 5a60 443e e369 8b3e 066d 77bc
000003c0: 6dbd 2a3f 7f44 4c3e c23d 82be b96a 593d
000003d0: 6a3a 86be 9ea4 45be 296f f8be bdd3 a0bd
000003e0: 6acc 043f 177a 2ebd b8c8 a13d aa0d c13e
000003f0: 9185 9cbe 9295 a2be 5d35 32be 86ec c2be

actor.2.bias f4 [64]
-0.10758025 -0.1474173 0.23277713 -0.036064584 -0.14442526 0.27145118 -0.2787208 -0.20454334
0.07602724 0.060618766 0.08101994 0.10135038 0.08066104 -0.017618677 0.10517885 0.047620222
0.3796941 -0.06517378 -0.1505956 0.2475458 -0.08366444 -0.20372146 -0.09199833 0.12754025
-0.228505 -0.19068128 0.25672764 -0.24242327 0.017511293 -0.1795295 -0.32178828 -0.103041604
0.033614393 0.023403347 0.035418384 0.057283275 0.2244988 0.3312266 9.2478906e-05 0.31080803
-0.03155027 0.06812533 -0.11518674 -0.24299113 0.16634707 0.2865558 0.18852508 -0.07506596
-0.1012779 0.06556591 0.38804847 -0.065122075 -0.10043739 -0.035341594 0.42509565 0.30714113
0.4985766 -0.3385229 0.28800014 0.027887957 -0.14817704 0.08498011 0.0019607835 -0.1338597
00000000: 0953 dcbd 90f4 16be 215d 6e3e 75b8 13bd
00000010: 37e4 13be a6fb 8a3e 7eb4 8ebe cf73 51be
00000020: 2bb4 9b3d 624b 783d c8ed a53d ca90 cf3d
00000030: 9e31 a53d 0b55 90bc 0268 d73d 6c0d 433d
00000040: 4467 c23e d579 85bd bc35 1abe a57c 7d3e
00000050: 4358 abbd 5c9c 50be 9f69 bcbd e999 023e
00000060: 37fd 69be f441 43be ce71 833e ce3d 78be
00000070: d873 8f3c 95d6 37be 6fc1 a4be 7a07 d3bd
00000080: 3faf 093d 60b8 bf3c de12 113d dea1 6a3d
00000090: 03e3 653e 8896 a93e 3cf1 c138 3b22 9f3e
000000a0: db3a 01bd 4b85 8b3d 07e7 ebbd abd2 78be
000000b0: e356 2a3e 71b7 923e b80c 413e 2fbc 99bd
000000c0: ca6a cfbd 6b47 863d 4aae c63e b95e 85bd
000000d0: 1eb2 cdbd 59c2 10bd 23a6 d93e 9a41 9d3e
000000e0: 6f45 ff3e e052 adbe c174 933e 4975 e43c
000000f0: b9bb 17be 0d0a ae3d 7d80 003b 8412 09be

actor.4.weight f4 [6, 64]
0.055487473 0.078549005 0.00061635696 0.11789051 0.3973246 -0.4248882 0.026521908 0.04499069
0.038314313 0.21252818 0.06934689 -0.1262409 -0.3564963 -0.1109241 -0.16936158 -0.076048315
-0.3062927 -0.08836153 -0.024023717 -0.061539356 0.13889016 0.00039462044 0.10126935 0.019256083
-0.11825003 -0.12848848 0.02245105 0.15938719 0.05018949 0.06465163 -0.013428929 0.077909306
0.06616858 -0.12425726 -0.031120287 -0.045945495 -0.11974588 0.17431252 0.09176262 0.086650535
-0.013402617 0.13916616 0.1724492 0.15971982 -0.0672102 0.2372324 -0.058783222 0.18233915
-0.09409884 -0.039100315 0.37565792 -0.44781622 -0.011450368 0.18266109 0.028576555 0.15486136
0.04750145 -0.2555497 0.26372036 -0.033317804 0.0049111224 0.23134512 0.054231916 -0.09512557
0.2760034 0.005837699 -0.018416602 0.27037644 -0.4349222 0.24587311 -0.5319773 -0.030878795
0.8597086 -0.12686953 0.09127338 0.34181067 -0.47381225 0.11389665 0.4585382 -0.22469775
0.5411095 0.09942638 0.08135852 -0.3281299 -0.11761764 -0.08413365 0.07674353 -0.10304601
-0.21348123 -0.53020823 0.084662616 0.43555394 -0.35855997 -0.13388108 0.25150716 -0.77577317
-0.41986382 0.13599391 0.4315855 -0.2903023 0.16057281 -1.1214995 -0.21213296 -0.8546786
-0.5487772 -0.47372803 -0.02908827 -0.071961805 0.19729109 -0.65880483 -0.3609939 0.17386068
0.42435375 -0.375728 -0.73275244 -0.66161746 -0.17885675 -0.13645972 0.08785342 -0.22831671
0.9021747 -0.61289847 -0.28582862 -0.069218226 0.39096132 -0.3082195 -0.48691565 0.110096365
-0.33555678 -0.09313872 0.01820643 -0.3881036 -0.024177032 0.21280052 0.45777684 -0.029932521
-0.8685637 -0.12554961 -0.17281343 -0.20290512 0.85724396 -0.0009824351 -0.24468914 0.3038421
-0.18454362 -0.031044895 -0.047016244 0.40418696 -0.057814486 0.042852193 -0.17316027 0.084237896
0.32325053 0.64150476 -0.09001007 -0.59578466 0.29807177 0.056854926 -0.2270587 0.6639177
0.34294352 0.008135006 -0.38179237 0.34382045 -0.028442824 0.90959 0.11958658 0.7475558
0.54904 0.30229998 -0.15367812 -0.11497575 -0.11259395 0.38109976 0.4228484 -0.3864942
-0.28054994 0.42113137 0.31907135 1.1186608 0.18642494 -0.073780484 -0.113911085 0.056011155
-0.9300807 0.8682263 0.021764725 0.08194139 -0.3787002 0.0455708 0.43302986 0.0050787535
0.15872034 0.15846717 0.16596043 0.09270423 -0.24903709 0.11891185 -0.10286139 -0.13881536
-0.04070007 -0.15072638 -0.13741264 -0.0028458051 0.14396879 0.28674912 0.037625287 -0.2178446
0.060963243 -0.15730782 0.33230215 -0.07053087 -0.37989053 0.14750998 -0.13091296 0.014006229
-0.017137496 0.03146501 0.10292427 0.13319612 -0.008279108 -0.16363928 -0.34134832 -0.012262826
-0.21399023 0.12814873 -0.26615342 0.06688533 -0.035802316 0.017087622 0.21503653 -0.14826812
-0.25797278 0.2729987 0.17827469 0.1740924 -0.18407816 0.14936012 0.12769617 0.16924934
-0.117821574 0.12559153 -0.015979543 0.032694798 0.25503063 0.03883741 -0.13223441 0.42500612
0.09612903 -0.024550136 0.11752062 0.15625407 -0.19347367 0.13520381 0.040756896 0.10044271
00000000: d546 633d 4dde a03d 0493 213a 9470 f13d
00000010: 216e cb3e f28a d9be 7944 d93c 2848 383d
00000020: 78ef 1c3d fda0 593e be05 8e3d 4b45 01be
00000030: af86 b6be 2d2c e3bd 1f6d 2dbe 38bf 9bbd
00000040: 66d2 9cbe e4f6 b4bd 63cd c4bc b110 7cbd
00000050: 3939 0e3e 0fe5 ce39 4e66 cf3d efbe 9d3c
00000060: 122d f2bd 7c92 03be 44eb b73c 6536 233e
00000070: 7f93 4d3d 1368 843d 0305 5cbc ea8e 9f3d
00000080: 6483 873d 977a febd f9ef febc 5831 3cbd
00000090: 543d f5bd fb7e 323e 0aee bb3d d675 b13d
000000a0: a696 5bbc 9381 0e3e 8696 303e 988d 233e
000000b0: 80a5 89bd 0ded 723e adc6 70bd 1db7 3a3e
000000c0: e5b6 c0bd a727 20bd 3c56 c03e 2b48 e5be
000000d0: 539a 3bbc 820b 3b3e 6119 ea3c fa93 1e3e
000000e0: e190 423d 69d7 82be 5b06 873e 4078 08bd
000000f0: 7bed a03b bce5 6c3e 4922 5e3d 32d1 c2bd
00000100: 5150 8d3e 2b4a bf3b 6ade 96bc c86e 8a3e
00000110: 1fae debe 29c6 7b3e aa2f 08bf 87f5 fcbc
00000120: dd15 5c3f 16ea 01be 8aed ba3d cf01 af3e
00000130: 8597 f2be a642 e93d 85c5 ea3e 2b17 66be
00000140: 2786 0a3f 0fa0 cb3d 4c9f a63d a400 a8be
00000150: 84e1 f0bd 434e acbd b62b 9d3d c909 d3bd
00000160: d39a 5abe babb 07bf 9863 ad3d ed00 df3e
00000170: 2c95 b7be 1f18 09be 8cc5 803e 1299 46bf
00000180: 64f8 d6be fd41 0b3e c6f8 dc3e 81a2 94be
00000190: 336d 243e 4c8d 8fbf 6239 59be 37cc 5abf
000001a0: aa7c 0cbf 7b8c f2be 864a eebc b660 93bd
000001b0: ad06 4a3e 6fa7 28bf 31d4 b8be 8908 323e
000001c0: e544 d93e 6c5f c0be aa95 3bbf c35f 29bf
000001d0: 3926 37be 19bc 0bbe 7eec b33d dbcb 69be
000001e0: ecf4 663f eae6 1cbf 2158 92be 49c2 8dbd
000001f0: 152c c83e f2ce 9dbe 024d f9be 347a e13d
00000200: 19ce abbe 83bf bebd a725 953c 84b5 c6be
00000210: e90e c6bc 61e8 593e ba61 ea3e 0c35 f5bc
00000220: 315a 5ebf 1490 00be 01f6 30be 5cc6 4fbe
00000230: 5774 5b3f 0dc5 80ba ca8f 7abe 3191 9b3e
00000240: 01f9 3cbe dd51 febc 1b94 40bd 98f1 ce3e
00000250: e2ce 6cbd c885 2f3d ed50 31be eb84 ac3d
00000260: 1881 a53e a839 243f 3357 b8bd 5885 18bf
00000270: dd9c 983e b6e0 683d 1382 68be 83f6 293f
00000280: 4b96 af3e b048 053c 4a7a c3be 3c09 b03e
00000290: ed00 e9bc e4da 683f cfe9 f43d d15f 3f3f
000002a0: e38d 0c3f 10c7 9a3e cc5d 1dbe 6878 ebbd
000002b0: a897 e6bd 821f c33e 967f d83e 91e2 c5be
000002c0: 3ea4 8fbe 889e d73e 525d a33e 4730 8f3f
000002d0: 2ee6 3e3e 391a 97bd 374a e9bd f46b 653d
000002e0: c519 6ebf 1444 5e3f f04b b23c e3d0 a73d
000002f0: fee4 c1be 72a8 3a3d 17b6 dd3e ac6b a63b
00000300: 9687 223e 3845 223e 88f1 293e b7db bd3d
00000310: 9403 7fbe 0e88 f33d fea8 d2bd 9d25 0ebe
00000320: 1eb5 26bd 0458 1abe e6b5 0cbe b080 3abb
00000330: 8e6c 133e c8d0 923e f91c 1a3d a812 5fbe
00000340: 98b4 793d 4d15 21be 8223 aa3e 7d72 90bd
00000350: 0381 c2be db0c 173e 0c0e 06be 627a 653c
00000360: ef63 8cbc 74e1 003d f6c9 d23d 9064 083e
00000370: 19a5 07bc 0e91 27be 35c5 aebe 05ea 48bc
00000380: 4120 5bbe 6c39 033e 4345 88be 2dfb 883d
00000390: 73a5 12bd 57fb 8b3c 8932 5c3e 99d3 17be
000003a0: 0215 84be 7cc6 8b3e a48d 363e 4745 323e
000003b0: fc7e 3cbe dcf1 183e c9c2 023e b34f 2d3e
000003c0: 704c f1bd 119b 003e 88e7 82bc fbea 053d
000003d0: 6093 823e fa13 1f3d 7568 07be 679a d93e
000003e0: 4cdf c43d 5e1d c9bc a7ae f03d 1101 203e
000003f0: f61d 46be de72 0a3e b4f0 263d e8b4 cd3d

actor.4.bias f4 [6]
-0.30120224 0.19256552 0.15155986 -0.018816674 0.0467927 -0.0011137377
00000000: 2e37 9abe e52f 453e 8232 1b3e 6d25 9abc
00000010: b4a9 3f3d d6fa 91ba
