Plotting/saliencies_live/Multi_Pong/Sequence_Length_1/multi_pong_1__1__1721853303_checkpoint_2736.pt (torch, 86706 bytes, 11 tensors)

critic.0.weight f4 [128, 12]
000000 52 fa ff 3e 39 0e 03 3d be 51 bb 3d 16 ad d7 be
       0.49995667 0.031995986 0.091464505 -0.42124242
000010 cd 4c 81 be 71 a2 b0 3e 74 79 11 c0 fe 13 fc 3f
       -0.25253907 0.34498933 -2.273038 1.9693601
000020 65 44 18 bd 5b f6 fd bc cf 84 9e 3d 77 21 77 3e
       -0.0371746 -0.03100126 0.07740175 0.2413386
000030 3c ea 80 3b ee 3f 8f bb 6a f9 62 bd 40 fc f8 3b
       0.003934173 -0.0043716347 -0.05541364 0.00759843
000040 fa f2 06 3c 3f 21 86 be 21 f4 82 3d 3a 62 78 c0
       0.008236641 -0.2619724 0.0639422 -3.8809953
000050 87 e4 ae ba 84 2b 8c 3e 3d e2 fc 3c 37 46 7b 40
       -0.0013343253 0.2737695 0.030869598 3.9261606
000060 91 57 6b 3e 86 72 08 bd 74 15 8e bd 92 e7 8d bb
       0.22982623 -0.033312343 -0.069376856 -0.004330584
000070 13 70 23 bc ae 95 dd b9 49 09 14 bd e2 ed b1 bd
       -0.009975451 -0.00042263925 -0.036141668 -0.08687951
000080 a5 91 5b 3e f0 d9 48 3e 98 d8 28 3e dc 22 4f 40
       0.21442278 0.19614387 0.16488874 3.2365026
000090 50 f9 9b be 1b 10 4f 3e 7a 4d 61 be c9 f5 46 bd
       -0.30463648 0.20220987 -0.22002211 -0.048574243
0000a0 96 fb 8f 3e e4 ff b1 bd 42 42 1b 40 e0 d8 49 bf
       0.28121632 -0.086913854 2.425919 -0.7884655
0000b0 eb 9b 24 3d 5e 5c 0c 3d c7 35 28 bf e1 f9 8d bd
       0.040187757 0.034267776 -0.6570706 -0.06932426
0000c0 32 d6 1c 3d d2 1b 20 bb c0 fb 3a bd ca 07 72 bb
       0.03829021 -0.0024430645 -0.045650244 -0.0036930912
0000d0 bf 41 0a 3e 4a 8f ab bd ba e3 7c 40 8e e9 07 c0
       0.13501643 -0.083769396 3.9513993 -2.12363
0000e0 6b 91 e4 3c d4 45 e6 bd bf 52 2b 3e f2 ae 22 c0
       0.027901372 -0.112437874 0.16730784 -2.5419278
0000f0 9f 8f 9e bd 2d 98 dd 3b 78 ec cf bd 89 37 f5 b8
       -0.07742237 0.0067625255 -0.10152525 -0.000116928546
000100 8f 13 d0 3b 7d 15 ae 3c a3 75 dc 3e 3f 6a 4e 40
       0.006349988 0.02125048 0.430585 3.2252347
000110 27 fb 49 3c 57 2c 47 3c 98 0d 04 3e e4 d8 b1 3e
       0.012327946 0.012156568 0.1289581 0.34735787
000120 eb e8 fb 3d 62 27 37 b9 a8 ec 53 be 8c a0 1b 3a
       0.12300285 -0.00017466911 -0.20695746 0.0005936704
000130 59 5c cf bc 34 0d ff bc f4 6b 3d be 28 a3 12 be
       -0.02531259 -0.031134225 -0.18498212 -0.14320052
000140 22 6f 8f be 44 a2 a2 3e 33 3d 43 c0 39 74 42 40
       -0.28014475 0.31764424 -3.0506103 3.0383437
000150 f9 36 7e 3e bc 37 2c bc e2 3a 04 bd ca 2b 22 bd
       0.24825658 -0.010511335 -0.032282718 -0.03959254
000160 09 bb a5 bd b9 5f 10 3e 3e fc 20 c0 b4 39 de 3f
       -0.08092315 0.14099015 -2.5153956 1.736136
000170 77 df ed 3d c7 9f 8b bd 5b b3 ea 3e 3a 8e a5 be
       0.11614888 -0.068175845 0.45839962 -0.32335073
000180 0c 69 2b be e4 63 38 bb 61 d0 21 3d 47 74 a3 bb
       -0.16739291 -0.0028135711 0.039505366 -0.0049882266
000190 7c bc 88 3b 30 e6 ec 3b 64 e7 5c 3d 82 64 fb 3c
       0.0041728597 0.007229589 0.05393161 0.030687574
0001a0 03 d0 f2 bd 00 59 f9 bd 1b c1 91 c0 a7 64 93 c0
       -0.11856081 -0.121751785 -4.5548224 -4.6060367
0001b0 cd 64 24 3f 2f a1 da be 51 0a 28 3f 28 27 95 bd
       0.6421631 -0.42701098 0.6564074 -0.07282859
0001c0 1a e2 98 bf 5c b6 f8 3e fe 81 5e bf aa 9b d6 3e
       -1.1944001 0.4857663 -0.869171 0.41915637
0001d0 ad 5f 3e 3d 2c 42 93 3c ac 0f ff 3d ca 41 c4 bd
       0.046477962 0.01797589 0.12454161 -0.09582861
0001e0 7c 10 8c 3f 5a d8 94 bb 01 9a 63 3f 95 75 c2 3b
       1.0942531 -0.0045423927 0.88906866 0.005934427
0001f0 a1 e2 45 bc 7c 1c 0d bc 9d 41 b6 3e 6c cc 0b 3d
       -0.012077958 -0.008612748 0.35596934 0.0341305
000200 4a 59 ea bf 96 7c 3a 3c 4e 54 15 be 9f 37 bc bd
       -1.8308499 0.011382243 -0.14582941 -0.091902964
000210 63 2c c4 bd fc aa b0 3a a0 26 97 3c 83 e3 b6 3a
       -0.095787786 0.0013478692 0.018451035 0.0013953302
000220 cd e1 e6 3d 2f 45 e2 bd d2 44 80 40 57 2c 7e c0
       0.11273537 -0.11048352 4.008401 -3.9714563
000230 66 78 95 3c 5b a1 ee 3a 0a b1 1d 3e 06 ed 02 3d
       0.018245887 0.0018206047 0.15399566 0.031964324
000240 db d6 2f 3d 03 61 d7 3c 07 33 7f bd 74 a1 24 3d
       0.04292951 0.026291376 -0.062304523 0.040193036
000250 9c 7f 15 3d 14 2c 53 be e4 91 c5 3e 2e 50 1f bf
       0.03649865 -0.20622283 0.38587868 -0.6223172
000260 6a 24 e6 bc 6f 65 ba 3c 00 0a 14 be 12 45 fa bd
       -0.028093535 0.022753445 -0.1445694 -0.12220205
000270 66 5d d4 3d 94 33 d4 bb ce e0 f9 3d 18 2d c4 3b
       0.10369377 -0.006475875 0.12201081 0.005986821
000280 b5 c7 20 b9 a9 aa 13 bb 33 e8 22 bf 48 bb 3d bd
       -0.00015333186 -0.0022532141 -0.6363556 -0.046321183
000290 fa 7b 6e bd f6 be 42 bc 0e 02 27 c0 f4 92 d9 3c
       -0.058223702 -0.011886349 -2.6095004 0.02655933
0002a0 46 e5 a1 3c e1 c8 e2 bc e7 08 85 3c 99 4d 94 3c
       0.019762646 -0.027683677 0.016239597 0.018103408
0002b0 d4 85 d5 ba 99 f2 e3 3b 1e 50 f5 3f 33 4b ca 3f
       -0.0016290494 0.00695641 1.9165075 1.5804199
0002c0 31 cf c7 3a f5 33 1c 3c bb 51 c5 bf cb 20 c4 bc
       0.0015244243 0.009533872 -1.5415567 -0.023941418
0002d0 2f 90 04 bd 17 98 9f 3b 4b 2d b3 bd 56 28 ff bb
       -0.032364067 0.0048704254 -0.08748873 -0.007786791
0002e0 81 4c 12 be e6 cf c0 3c 04 24 2a c0 80 05 10 3e
       -0.14286996 0.023536634 -2.6584482 0.14064598
0002f0 6a 36 2f 3e 2c b5 d0 3c 26 ec 51 40 c6 75 94 3d
       0.17110601 0.025477014 3.2800384 0.07249026
000300 70 cd 07 3d 7c ef 24 3c 5d c7 00 bd 59 6d 8c bc
       0.033154905 0.010066863 -0.031440128 -0.017141985
000310 6b 31 99 bd 5d d6 e8 bc b0 16 50 c0 00 6c 3b bf
       -0.07480129 -0.028422529 -3.2513847 -0.7321167
000320 b2 a2 e8 3c ac ac af 3d dc 79 7e 3e d5 86 6b 40
       0.028397892 0.085778564 0.24851173 3.6801045
000330 2f c9 81 bd 57 3e 1e bc f2 e9 0c 3e 06 2d c0 3c
       -0.06337201 -0.009658418 0.13761118 0.023458969
000340 3d e9 85 3e 85 20 e4 3c 04 70 29 40 b0 29 be bb
       0.2615451 0.027847538 2.647462 -0.0058033094
000350 b1 fa 7a be 97 bc bc 3c 98 2a 13 c0 08 d5 10 3e
       -0.24509694 0.023039145 -2.2994747 0.14143765
000360 3d 30 c7 3e f5 8f 0b bc 02 95 20 3e b5 6d 1a 3f
       0.3890399 -0.008518209 0.15681842 0.6032365
000370 55 f7 4f be 2a 81 11 bf 06 0c 9d bd 2e 7c 8b bf
       -0.20309193 -0.56837714 -0.07668309 -1.0897272
000380 2c 42 e4 bc 7b 04 60 3d 25 60 a8 3d 63 ff 59 3e
       -0.027863584 0.054691773 0.08221463 0.21288829
000390 6e 64 66 3a fb ea cc 39 60 02 87 3d da 89 1c bc
       0.0008788769 0.00039084986 0.0659225 -0.009554351
0003a0 c5 0b fe bb 8c 2c 47 bd c1 6e a4 3e f3 8d cc bf
       -0.007752868 -0.048626468 0.3211575 -1.598082
0003b0 b8 66 9b 3d 28 d0 c7 3b 66 bb 09 40 f7 71 6f be
       0.075879514 0.006097812 2.152063 -0.23383318
0003c0 a8 e4 32 bd 5d 0b 55 bb e9 ea e1 3d 71 59 9b 3b
       -0.043675095 -0.0032507994 0.11031134 0.004740887
0003d0 14 de a8 3d 9c f7 0b 39 79 9f 8c 3f d7 20 6d 3d
       0.08245483 0.00013348315 1.0986167 0.057892647
0003e0 a1 c9 07 3e d5 17 54 bc 18 26 88 40 c1 2c eb 3c
       0.13260509 -0.012945135 4.25465 0.028707864
0003f0 cd f9 93 3e bc 5e 03 3d ed 24 0d 3e a8 20 91 be
       0.2890152 0.032072768 0.13783617 -0.28345227

critic.0.bias f4 [128]
000000 78 20 86 3e ae 15 0e 3d b3 bd 8e 3d 07 d6 d2 bd
       0.26196647 0.034688644 0.06969776 -0.10294729
000010 81 94 29 bd e5 17 f0 3c c5 14 b3 bb 00 6a 70 3d
       -0.04140139 0.029308269 -0.0054651224 0.05869484
000020 17 c9 7c 3d 56 58 0f 3f 93 09 5f 3f 94 e3 14 bd
       0.06171521 0.55994165 0.87123984 -0.036349848
000030 e6 d9 50 bd 90 7a ae 3b fb 98 70 bc 9a c6 30 3d
       -0.050989054 0.005324669 -0.014684911 0.04315815
000040 af ba b1 bd 49 9b 8c bd ea ea 1c 3e 8a b2 f8 3c
       -0.08678185 -0.06865556 0.15323988 0.030358572
000050 5c 4d 96 3c fe 5e fe 3d c5 8d c6 bd af f8 3c be
       0.018347435 0.12420462 -0.09695009 -0.1845424
000060 6f ef 6e 3d 7a 1b f9 3c aa 49 36 3e f0 1e 5b bc
       0.05833381 0.03040861 0.17801538 -0.013374075
000070 6e 7b ab bd 0f 9e 24 bd 65 ca 7e bd 29 f6 c9 3d
       -0.08373152 -0.0401898 -0.062204737 0.098614044
000080 c2 00 95 bc 73 a3 4e 3e ca 03 8f 3e 60 be 2a bd
       -0.018188838 0.20179538 0.27932578 -0.041685462
000090 39 00 24 3d df 6f c9 bc c0 11 f9 3c ee cb 9e 3b
       0.040039275 -0.024589477 0.030403972 0.0048460877
0000a0 56 c1 20 3e b3 53 fe bd 17 e2 c7 3c 03 ea a8 bd
       0.15698752 -0.12418308 0.0243998 -0.08247759
0000b0 18 bf d6 3c 2d 2e 3c 3f 6e 0d 97 bd d4 28 04 3d
       0.026214167 0.7350796 -0.073756084 0.0322655
0000c0 24 52 de 3c e2 53 e1 3c de b5 81 bd f0 15 6e 3c
       0.027138777 0.027505819 -0.063335165 0.0145315975
0000d0 ea 7f 54 3e db 47 52 3c fe b6 9b 3d 91 de 57 3e
       0.2075192 0.0128345145 0.07603262 0.21080996
0000e0 c6 23 62 3d 3f 92 04 3b 48 a1 60 bd fc d3 a9 be
       0.055209897 0.002022877 -0.05484131 -0.33169544
0000f0 6f 37 93 bc f2 15 09 bd 82 59 5f be 0d 65 60 3f
       -0.017970769 -0.033468194 -0.21811488 0.8765419
000100 b5 35 8f bd 47 a4 a7 3e f7 f8 6f bd c5 6d 20 bd
       -0.06992666 0.3274252 -0.05858704 -0.039167184
000110 a9 f1 db 3c d7 11 11 be 45 50 9f bd 33 68 a2 3c
       0.026848631 -0.14166962 -0.07778982 0.019825077
000120 65 f3 60 3d ce 33 d6 bd 40 5d 9c bd ad 4b f6 3c
       0.05491962 -0.104591 -0.076349735 0.030065382
000130 70 a8 95 3d 9d 66 39 3d b0 60 b9 be 59 41 a8 3b
       0.073075175 0.045263875 -0.3620658 0.005134743
000140 d1 11 b4 3d 26 5c 6f 3e e1 fd 22 3d 93 99 8d 3d
       0.08792461 0.23374996 0.0397929 0.069140576
000150 1f dd a1 bd 42 f1 61 bd b0 a6 de bc 3b 57 d9 3e
       -0.079035036 -0.055161722 -0.027179092 0.42449364
000160 12 fc b4 3c 39 88 ed bd 43 e5 d2 3c d6 fb 98 bd
       0.022092853 -0.11598248 0.025744086 -0.07469909
000170 a9 9f 09 bd b6 2d f7 3c 68 fa 39 3d 13 93 24 be
       -0.03359953 0.030173164 0.04540482 -0.1607173
000180 1f cc 5c 3d 61 93 ec bd 5a 7d 69 bb 27 a6 46 3e
       0.053905603 -0.11551548 -0.0035627694 0.1939932
000190 a4 7b 80 bb 93 59 ba 3c c3 62 6a bd 0f 33 9f bd
       -0.003920989 0.02274779 -0.057223093 -0.077734105
0001a0 af 70 b6 bd 02 39 0e be d7 6b f2 3e 48 55 74 3c
       -0.089082114 -0.13888934 0.473479 0.014912911
0001b0 7b c0 63 3d 52 b4 44 3d bb 1f ae 3d 46 de 2a bc
       0.055603486 0.04802353 0.08502146 -0.010428971
0001c0 61 fe 55 bd 5a c3 f8 bb 49 79 32 bd ec d0 02 3d
       -0.052244548 -0.007591647 -0.043572698 0.031937525
0001d0 6d d2 12 bd f1 27 8d bd 00 b8 86 bc 9e 4d 3f 3e
       -0.03584521 -0.06892384 -0.01644516 0.18681952
0001e0 a4 8b c9 bd 0e 53 37 3d fe a1 c8 3b 46 a2 98 bd
       -0.098410875 0.04475694 0.0061228266 -0.07452826
0001f0 55 d2 36 3d 05 b6 68 bd 91 3e 28 3d 0e 59 2f bd
       0.044634182 -0.056814212 0.041075293 -0.04280954

critic.2.weight f4 [64, 128]
000000 70 b5 a8 be 42 bd 7f 3e d2 c5 9c bd aa fe 0b 3f
       -0.32950926 0.2497454 -0.07654919 0.5468546
000010 e6 55 09 3f 5d be 11 be 33 67 7a be 52 6f 7e bd
       0.53646696 -0.14232774 -0.2445343 -0.062117882
000020 0d 52 d5 3e 8d f5 49 bf 8a c3 44 3d 28 c1 af 3d
       0.41664162 -0.78890306 0.048038043 0.085817635
000030 28 bc 8d 3d 82 34 fe be e5 dc 82 3e 64 4d 43 be
       0.069206536 -0.49649435 0.25559154 -0.19072491
000040 1c 64 c6 be e1 91 96 3d 5a 0c 4f bd 7b 37 98 3e
       -0.38748252 0.07352043 -0.05054889 0.29729828
000050 c9 e5 7a be 35 1f e0 3d a8 2b a3 bd f8 e5 1a 3e
       -0.24501719 0.10943452 -0.07967311 0.15126789
000060 d0 9c 8c 3d 78 b7 bd 3d 34 dc 2f 3d 3f f9 be 3e
       0.06865847 0.092635095 0.04293461 0.37299535
000070 29 1c a6 be 6a 6c 8c 3e b8 03 e4 bc bf c9 2c 3f
       -0.3244336 0.27426463 -0.027833804 0.6749534
000080 78 50 5a be 52 d3 86 3d 37 93 2e 3e 51 be dd 3e
       -0.21319759 0.06583275 0.17048346 0.43309262
000090 94 0a da 3e c1 98 a9 3e 6e be b4 3e 71 6a 35 be
       0.42586195 0.33124354 0.35301536 -0.17716385
0000a0 26 f0 a1 bd 99 c5 5c be 1f 66 23 3b 31 98 bf 3e
       -0.07907133 -0.21559753 0.0024932695 0.374208
0000b0 fd 11 c1 3e fe 47 dc 3e 37 06 9f 3d 71 ee c7 be
       0.37709036 0.43023676 0.07764857 -0.39049104
0000c0 25 61 fb be e5 ff 2d be ef 36 0c 3e c4 19 0a 3d
       -0.49097553 -0.16992147 0.1369283 0.03371598
0000d0 69 18 be 3e 56 6c 60 be 28 a0 7b be 54 04 7b bd
       0.37127998 -0.21916327 -0.24572814 -0.061283424
0000e0 0e da 72 be 67 ea b9 3d 65 af 97 be 85 cf 89 3e
       -0.23715994 0.09077912 -0.29626003 0.26916137
0000f0 9a 1c ee 3d 97 20 66 3d 6c ac be be b1 2f e7 be
       0.11626549 0.056183424 -0.37240922 -0.45153573
000100 41 8a 58 be c1 dd 8f 3e 3d 05 4e 3e f8 33 1d be
       -0.2114649 0.28098872 0.20119186 -0.15351856
000110 6f b8 31 be 05 95 2a be 6d b2 cd 3e 90 d9 eb 3e
       -0.17355512 -0.16658409 0.4017519 0.46064425
000120 93 1e a2 3d 23 4d 16 3e 94 a4 e8 bc 24 43 25 3c
       0.07915988 0.14677863 -0.02839879 0.010086808
000130 ed fe 9c 3e 0b 84 a6 bc 45 ca f3 3c 7d 89 02 bf
       0.30663243 -0.020326635 0.029759536 -0.5099104
000140 2d fd cd bd a9 23 04 3c 12 ed 4f 39 0e 85 c9 3e
       -0.10058055 0.008065143 0.00019829374 0.39359325
000150 ad c4 34 3d a8 4c d5 be 76 f9 54 be 7f 83 2f 3e
       0.044132877 -0.41660047 -0.20798287 0.17140006
000160 7c d4 cf be 91 35 67 3e 45 4f ec bd ea 41 20 be
       -0.405918 0.22579028 -0.11538557 -0.15650144
000170 d3 51 32 3e d9 90 a6 3e bf cb 77 3d c0 cf b1 3d
       0.17414026 0.32532385 0.06049704 0.08682203
000180 42 04 7a be db 4b 34 be 59 f0 9a 3e f4 06 0e 3e
       -0.24415687 -0.17607062 0.30261496 0.1386984
000190 ae 17 57 3e 5a 43 2d be c6 c5 51 be c6 2f a0 3d
       0.21005127 -0.16920224 -0.20485601 0.07821612
0001a0 e3 32 2d bd 23 48 be bd cf 2b 21 bd 64 49 6e 3c
       -0.042284857 -0.09291103 -0.03934842 0.014543865
0001b0 e6 e1 b0 be a2 2d a7 3e a4 75 b9 be b5 c5 53 3d
       -0.34547347 0.32652003 -0.36222565 0.05170222
0001c0 ad c4 cd 3e b5 72 c9 3e e5 e0 96 bd 01 94 9d 3c
       0.40189114 0.39345327 -0.07367114 0.019235613
0001d0 cc eb 80 be 89 3d 90 3e 8a ad 05 3d 42 7d 8e 3e
       -0.251799 0.28171948 0.032636203 0.2782994
0001e0 84 3c 4d 3f 39 71 87 3d 2c f1 6a 3e da d2 33 bb
       0.80170465 0.066133924 0.22943562 -0.002743891
0001f0 83 64 37 bc 9e 02 9a 3d 47 3c 82 bd 05 67 ab be
       -0.011193397 0.075200304 -0.06359153 -0.33477035
000200 c7 ad 53 3e 82 db 91 be 27 7e 81 bc 0f 2a a4 3e
       0.2067176 -0.28487784 -0.015807224 0.32063338
000210 20 25 3a be 1a b1 1e bc 9c e6 e6 3d 64 22 51 3e
       -0.18178225 -0.009685779 0.11274454 0.20423275
000220 6b c8 65 bf 4c d5 24 bf 6a ac 45 3c 77 4f 0b bf
       -0.8975894 -0.64387965 0.0120650325 -0.5441813
000230 4c 8c 51 3d 48 b5 3b bf eb ea 1f 3e 09 b8 19 bf
       0.05115919 -0.7332349 0.15616958 -0.6004644
000240 c8 41 d9 3e a6 68 f5 3d b6 23 8c bd c3 c6 01 bd
       0.42433 0.11982851 -0.06842749 -0.031683695
000250 f6 4b 06 3f 63 d6 36 be b9 2a ef 3d 33 a8 0c bd
       0.5245966 -0.1785522 0.116780706 -0.034340095
000260 d2 86 b7 3e 9e 0d 92 be 58 05 9b 3d 7b d6 4d bf
       0.35845047 -0.28526014 0.075693786 -0.80405396
000270 68 fc 00 3e 5a 1f 04 bf be ee d0 3d f9 ad 08 3e
       0.12596285 -0.5161034 0.102017865 0.13347615
000280 92 e6 f4 be 70 c4 c4 bd 29 2d 36 3e 5b c5 dd be
       -0.4783216 -0.0960778 0.17790665 -0.43314633
000290 5d 3d d3 be 54 12 8e 3e c9 33 50 3e ec cf a1 be
       -0.41257754 0.27748358 0.20332254 -0.31603944
0002a0 1a eb 69 3f 37 25 a2 be 80 3c 35 bf 58 01 25 be
       0.9137436 -0.31669018 -0.7079544 -0.16113794
0002b0 76 9a ed 3c e0 f3 fe be df 25 c2 bd b3 75 19 3e
       0.029004317 -0.49795437 -0.094798796 0.14986305
0002c0 4b 99 cb be 58 3a 3f bd 61 7e eb 3d aa 02 29 bf
       -0.3976539 -0.0466865 0.11498714 -0.6601969
0002d0 8e d9 26 3d 76 84 a2 3e f5 1c 6f be 09 64 2b bf
       0.04073482 0.31741685 -0.2335089 -0.66949517
0002e0 3c cd 87 3e 81 63 a2 bc 0e 90 9b 3d 6a f3 56 3e
       0.2652377 -0.019822838 0.075958356 0.20991293
0002f0 d0 de ec ba 02 e7 60 3e 17 b5 f0 be 4e 46 13 bd
       -0.0018071774 0.21963122 -0.4701316 -0.03595572
000300 a6 b3 90 3d e6 0c 93 be 03 46 8e be 1c bb a8 bc
       0.07065515 -0.28720778 -0.2778779 -0.020597033
000310 80 47 79 3d 64 70 a1 3f 4a 81 a7 3e 4a fd 2c be
       0.060859203 1.2612424 0.32715827 -0.16893497
000320 67 16 8a 3e db f6 22 3c a4 77 06 3e 2f da 6d 3d
       0.26970217 0.00994655 0.13131577 0.058069404
000330 ed 6a f3 3d 76 24 0e 3f 7d 57 8f 3e 30 bd ea 3e
       0.11885629 0.55524385 0.27996436 0.45847464
000340 09 9d 6f be 3e 5f ac be 90 7f 19 3e 53 7d cd be
       -0.23399748 -0.33666414 0.14990067 -0.40134677
000350 7b a6 14 bf 51 86 bc 3e fa 64 78 3e 69 d5 86 3d
       -0.5806653 0.36821225 0.2425727 0.065836735
000360 a2 e8 16 bf 34 49 67 bb f2 ba 69 be b4 ee 28 be
       -0.5894872 -0.0035291435 -0.2282522 -0.16497308
000370 70 f2 05 3f 7a c5 a1 bd 83 4c bb 3a 9d 74 39 3d
       0.52323055 -0.07898994 0.001428977 0.045277227
000380 a1 f3 79 3d d2 f9 0a bf 71 01 2c bf 5f 98 7f 3e
       0.06102336 -0.54287446 -0.671897 0.24960469
000390 37 ed 57 be df 6b f9 3d 8c e7 a8 3e 72 10 de bd
       -0.21086584 0.12178778 0.32989156 -0.108429804
0003a0 3f 6b 02 3e 5f ec ff be 50 a5 24 be 0d 50 36 be
       0.12736224 -0.49985024 -0.16078687 -0.17803974
0003b0 59 6a f9 bd 1f 0b 39 bf 9f ca f5 3e c6 a0 50 3f
       -0.12178487 -0.72282594 0.4800615 0.8149532
0003c0 7d c1 c4 bd 44 28 d7 be b9 39 06 bf 98 88 85 bd
       -0.096072175 -0.42022908 -0.5243183 -0.06520194
0003d0 a4 03 18 be f7 5f 4c 3f 4d b3 5d 3d 75 0b c6 bd
       -0.14845139 0.7983393 0.054126073 -0.09670154
0003e0 a1 90 f4 3d f4 5f 11 bb 1c 65 c3 3e 21 1f e9 be
       0.11941648 -0.0022182437 0.38163078 -0.45531562
0003f0 a8 5c a9 3e 3d a7 46 3d bb 76 1a bf 60 c3 b4 3e
       0.33078504 0.048499335 -0.6033742 0.3530531

critic.2.bias f4 [64]
000000 f7 a9 a9 3e 16 22 73 be a1 94 49 bf f6 50 45 3f
       0.33137485 -0.23743472 -0.78742415 0.7707666
000010 b6 d7 46 3f 78 1a e1 be e4 74 b2 3d 60 3a c4 bd
       0.776729 -0.43965507 0.08713701 -0.09581447
000020 cb 68 79 be b4 1e 55 3d f2 a4 ec 3d cf e4 8d 3e
       -0.24356382 0.052031234 0.11554898 0.2771363
000030 f3 c1 48 3e 93 33 91 be d1 39 31 3e 5d 31 e4 3e
       0.19605236 -0.2835966 0.17307211 0.4456891
000040 c9 10 e0 3e 6f 32 15 3f 42 3c eb 3e 98 32 a4 3e
       0.43762806 0.5828008 0.4594441 0.3206985
000050 d7 68 15 be 93 cf 15 3e 4a 00 19 3f d8 9e 8a bb
       -0.14590774 0.14629965 0.59766066 -0.0042303614
000060 68 84 c0 be 33 0c a3 be 48 18 f1 3e 5f c5 0c 3c
       -0.37601018 -0.31845245 0.47088838 0.008591979
000070 c7 75 0b 3f 86 0d db 3e c4 b3 86 be 48 95 63 3d
       0.5447659 0.42783755 -0.26309025 0.055562288
000080 af b6 94 3d b3 7a 1a 3f 14 37 30 bc cb 90 cc be
       0.07261407 0.60343474 -0.010755319 -0.39954218
000090 3e d1 09 bf 10 f8 06 3e 4a 1c 13 3e 86 6f 37 be
       -0.53834903 0.13180566 0.1436626 -0.17913637
0000a0 97 00 9a bf 19 1d 7e 3e 35 0b c1 3e 21 a9 34 3c
       -1.203143 0.24815787 0.37703863 0.011026652
0000b0 6f 4b d2 3d 1e a5 8d 3e 66 ac e1 be 0b d9 92 3d
       0.10268294 0.27665037 -0.44076842 0.07170304
0000c0 74 0d b2 3c 9f ab 4d 3e 53 22 3b be fd df ca 3e
       0.02173493 0.20085 -0.18274812 0.39624014
0000d0 0c 5f 92 3e 8f 8a d8 3c b2 f8 a3 3e 4d 6a 82 be
       0.2858814 0.026433257 0.32025677 -0.25471726
0000e0 61 c6 36 3f 6c 35 15 3f 4b 74 95 3e 3d 41 85 3e
       0.7139645 0.5828464 0.29190287 0.26026335
0000f0 57 75 16 be 07 1f e4 3d f1 1b fd bd bb d1 06 bf
       -0.14693199 0.111387305 -0.12358845 -0.52663773

critic.4.weight f4 [1, 64]
000000 71 fe 52 3e 3c 41 75 be fc 02 3f be f0 3a 40 3e
       0.20604874 -0.23950666 -0.18653482 0.18772483
000010 d7 86 fa 3f 29 16 3a be 70 dd ba be 4e 61 4f be
       1.95724 -0.18172516 -0.36497068 -0.20251963
000020 93 1b b6 be 63 a3 45 3e 02 2b 35 3e 78 d9 e1 3d
       -0.35567912 0.19300608 0.17692187 0.11027807
000030 e3 08 86 3e 53 4a 15 be b7 e9 f8 3d 89 e7 4c 3e
       0.26178655 -0.14579134 0.121539526 0.20010199
000040 9d 30 7f 3e 00 b2 78 3e 17 46 88 3e e1 2e 6d 3e
       0.24920888 0.24286652 0.26615974 0.23162414
000050 42 af e1 3e 90 36 d0 be 4f 8f 8c 3e f7 f4 4f be
       0.44079024 -0.40666628 0.27453086 -0.2030829
000060 00 17 5f be 58 3c 35 be c1 6f 98 3e 0d 5a b7 3e
       -0.21786118 -0.176988 0.2977276 0.3581089
000070 a9 81 f1 3d 93 f7 77 3e 16 16 d6 be d6 f1 43 3e
       0.11792309 0.24215536 -0.41813725 0.19135222
000080 34 0a 81 3e 7f 50 a1 3f 0c 7b 96 be cd 59 8e bf
       0.25203097 1.260269 -0.29390752 -1.1121155
000090 30 59 6e be 93 ae 33 3f 4c 08 05 bf 5c a3 91 bf
       -0.2327621 0.70188254 -0.51965785 -1.1377978
0000a0 85 2d b5 bf 5a 92 3f 3e 90 83 26 3e 92 1b fa be
       -1.4154516 0.18708172 0.16261125 -0.4884916
0000b0 32 d5 35 be 2b fd 38 3e fa 40 41 be fc 97 32 be
       -0.17757109 0.18065326 -0.18872443 -0.1744079
0000c0 e2 17 53 3e 5c d9 30 3e 5b 0a 31 be a7 a9 ca 3e
       0.2061458 0.17270416 -0.17289107 0.3958256
0000d0 22 78 a0 3e 55 3b 4c 3e 00 b0 5a 3f b1 75 98 be
       0.31341654 0.19944508 0.85424805 -0.2977729
0000e0 8c be 18 3f 23 2b 47 3e 7e 33 92 3e f2 09 2c 3e
       0.5966575 0.19450049 0.2855491 0.16800669
0000f0 68 29 65 be 32 19 50 be d1 11 0e be ef ca 0a bf
       -0.22379076 -0.20322111 -0.13873984 -0.542159

actor.0.weight f4 [128, 13]
000000 b1 05 24 bc 10 eb 97 be 61 25 28 3f 79 b5 02 bf
       -0.010011123 -0.29671526 0.65682036 -0.51058155
000010 06 fa 27 3f 21 48 11 bf 46 80 38 be 67 4f b1 3b
       0.6561588 -0.56750685 -0.18017682 0.005411077
000020 37 fc 0d 3f aa 27 3d bc 9c 39 36 bf 3a 09 87 3e
       0.55462974 -0.011545101 -0.71181655 0.26374227
000030 ef 8e 25 3f 06 68 d4 3d 78 7e 6f 3b b5 53 c6 3d
       0.64671224 0.103714034 0.0036543887 0.096839346
000040 ee 75 f4 3c de 2d 3f 3e 8b 2b 89 3e 2e 90 9a be
       0.02984139 0.1866984 0.26791033 -0.30188125
000050 8c 86 14 3e 99 d2 3a c0 8e 85 aa be 09 63 3f be
       0.1450445 -2.9191039 -0.3330502 -0.18690123
000060 97 63 a3 3e 8e 1a 23 3e 30 d7 a5 3c 0e b6 ec be
       0.3191192 0.15928099 0.020244211 -0.46232647
000070 fe 4c 29 3f 8e 98 e2 be b2 99 3d 3f 3e cf 29 3f
       0.66133106 -0.44257015 0.74062645 0.6633185
000080 ba cc 4d be 6c 40 2f 3e 81 9a b2 3e 25 9d 86 3e
       -0.20097628 0.17114419 0.34883502 0.26291767
000090 99 08 10 be 68 61 9e 3e 84 ff c3 bc b1 80 fd 3d
       -0.1406578 0.3093369 -0.02392555 0.123780616
0000a0 fd 62 2d 3b 5b e3 2a bf d0 f1 c4 bc 1c c4 fd 3e
       0.0026456707 -0.66753167 -0.024041086 0.49563682
0000b0 df 8f e7 3f 0b 96 19 3d 01 f3 1f 3e c5 cc db 3e
       1.8090781 0.037496608 0.15620042 0.42929664
0000c0 36 d9 ba be da 4b 4f 3e 46 30 b3 3e c1 cc b0 be
       -0.36493844 0.20243779 0.34997767 -0.34531215
0000d0 0e e8 36 bd 1a 1c 1d bf d5 62 cb bd f1 25 7f 3d
       -0.0446549 -0.61371005 -0.0993096 0.062292043
0000e0 0f 7c be 3e b4 bd 1e bf a9 e1 37 3f 2d f2 e5 be
       0.37204024 -0.62008214 0.71828705 -0.44911328
0000f0 8e 6c 36 be 52 ca af be ec f9 bf 3d 01 79 66 bf
       -0.17814848 -0.34334046 0.09373841 -0.9002839
000100 3b 2a 62 3e 32 32 6c 3d 0b 25 86 bd 9b 49 d0 3d
       0.22086422 0.057665057 -0.06550034 0.10170289
000110 bc e9 11 be d3 45 bf bf d7 07 64 bf 01 ec 75 3e
       -0.14249319 -1.4943184 -0.8907446 0.2401581
000120 1c 62 84 3d 51 d2 a1 bf 7b 6c 88 bf 5b c0 9c be
       0.064640254 -1.2642308 -1.0658106 -0.30615506
000130 30 bb 0a 3f 3c 92 9d be 01 19 42 be a2 c6 4c 3d
       0.54191875 -0.3077563 -0.1895485 0.04999412
000140 5d e9 1e be 77 f7 71 3b e5 7b 24 3f b9 51 32 bf
       -0.15518709 0.0036921182 0.6425155 -0.6965595
000150 23 48 27 bf ae 30 eb 3e bd df 84 3d c6 1f 4c 3f
       -0.65344447 0.45935577 0.06487987 0.7973598
000160 61 a3 f9 3e 6c b7 ba be 44 4b 8e be 92 3e a0 bd
       0.4875746 -0.36468065 -0.27791798 -0.07824434
000170 4e ae 82 be 65 35 05 be b7 2d 7f 3e 93 ac 78 3f
       -0.2552361 -0.1300865 0.24919783 0.9713833
000180 dc 6c ee be 32 57 47 3e 00 d7 8d bf c3 8e 0a bf
       -0.46567428 0.19466856 -1.1081238 -0.5412409
000190 90 7c 75 be 0c 58 41 be 68 1f fc 3d 7d 70 27 be
       -0.23973298 -0.18881243 0.12310678 -0.16351505
0001a0 dd c9 86 be ce a9 11 3e 81 7f 0d 3f de 08 90 3d
       -0.26325884 0.14224932 0.5527268 0.07032941
0001b0 9f 1a c1 3e 0c 63 a0 3d 3a 7a e0 3e 3c 44 61 be
       0.37715623 0.07831392 0.4384325 -0.21998686
0001c0 21 19 85 3f 0f bc ed bd b1 df 89 be ea a4 88 3e
       1.0398294 -0.11608135 -0.26928475 0.2668832
0001d0 9f 40 01 bf f5 28 60 bd 0e 67 f2 3e 27 78 93 be
       -0.5048923 -0.05472656 0.4734425 -0.28802606
0001e0 05 ec db be aa 4d dc be 9c 5c 7b bf d4 96 bb 3e
       -0.42953506 -0.43028003 -0.98188186 0.3663851
0001f0 4d a0 6a be b1 95 cb 3f da 57 fd 3e 45 e2 17 bf
       -0.22912712 1.5905057 0.49481088 -0.59329635
000200 92 7e b6 3e a4 43 a5 bd 1d 44 81 3e c5 1c 05 bf
       0.3564344 -0.08069542 0.2524728 -0.51997024
000210 87 2b 15 bf 21 1e 05 3f e6 e3 78 bf 5e ed 94 3e
       -0.5826954 0.519991 -0.97222745 0.29087347
000220 46 df 3e 3d 21 5e b2 bc 69 2b 39 3f 53 6c 5d be
       0.04659965 -0.0217734 0.72331864 -0.21623354
000230 7c 23 97 3e f5 87 89 3d 91 50 08 3e 6f ea f7 3d
       0.2951926 0.06715385 0.13311984 0.121052615
000240 52 f8 55 3a f4 27 c7 bd 78 5b 6a 3d 1c f7 3d 3e
       0.0008162308 -0.09724417 0.057216138 0.18551296
000250 6d f0 1d be cc ec 8e be 8f cd 3c be 66 ea 56 c0
       -0.15423746 -0.27915037 -0.1843779 -3.3580565
000260 93 78 bf bd 23 01 d6 bd 45 89 e5 be 01 53 9c 3e
       -0.093491696 -0.104494356 -0.4483129 0.30532077
000270 ff 46 01 bc af fc 3b be 10 c4 d7 be 1b 2a 5b 3e
       -0.007890462 -0.1835811 -0.4214177 0.2140278
000280 a0 15 68 3f de 36 04 c0 fe 9f 36 bd 3a d7 ac 3d
       0.90658 -2.0658488 -0.044586174 0.08439489
000290 e5 e4 b4 3c 61 4d 01 be 85 24 4a 3d 0a a7 90 be
       0.022081802 -0.12627174 0.049351234 -0.2825244
0002a0 14 59 10 3e 8a 45 42 3d bb 4d 59 be 31 b3 c8 3d
       0.1409648 0.0474296 -0.21221058 0.09799803
0002b0 d0 b3 2a be 80 0e ca 3f 1f b6 c0 bf 6c d9 08 bf
       -0.16670156 1.5785675 -1.5055579 -0.5345676
0002c0 ea 78 de 3e c7 48 8c bf 0c 77 79 3f 15 d7 07 bd
       0.43451625 -1.095971 0.97447276 -0.033164103
0002d0 9e ee 8c 3e aa e0 41 3d 5f 45 f4 3d ae 18 8a 3e
       0.275258 0.047333397 0.11927294 0.26971954
0002e0 3a 04 cb 3d 07 b9 02 bd a0 fc a3 3f fe 33 b9 3d
       0.099129155 -0.031914737 1.281147 0.0904312
0002f0 8e aa ce 3e 71 92 b1 3e 37 5e ea be a2 98 2b 3f
       0.40364498 0.34682038 -0.45775005 0.67029774
000300 4e e9 64 3f 34 c6 9d 3e 7e 7f af bf 82 13 b5 bd
       0.89418495 0.3081528 -1.3710783 -0.088416114
000310 da b7 26 3e d0 bd 8d be 8d ac cd 3e 31 dc 7c bf
       0.16281071 -0.27683878 0.40170708 -0.98773485
000320 37 cc 39 3f 84 94 5a be 4f ed 89 bb 0a 17 4e 3f
       0.7257723 -0.21345717 -0.0042091976 0.80503905
000330 42 80 ce bf c2 75 c4 be c9 f7 90 3e 0d c9 28 3d
       -1.6132891 -0.38371092 0.28314045 0.041207362
000340 8e 14 24 3d 23 ad 85 be 4d 07 4d 3e 50 19 27 3e
       0.040058665 -0.26108655 0.20022316 0.1631825
000350 e9 4c 35 3f bc 83 1b 3e 4e e6 b5 be 50 59 64 3e
       0.7082048 0.15186971 -0.3552727 0.22299695
000360 e8 03 e7 bf 40 2a 1a bf 4f 83 29 3f 81 52 ef be
       -1.8048067 -0.6022072 0.66215986 -0.46742633
000370 32 8f 48 bb 9a 09 a3 3e 45 35 b7 3e 7b bc b3 3c
       -0.003060293 0.31843263 0.3578283 0.02194046
000380 4d 0e 0f bf 21 3e 93 3f 33 e5 2d bf b7 a6 6f be
       -0.55881196 1.1503335 -0.67927855 -0.2340344
000390 51 ad 65 3e 77 c6 10 bf ab 2e 2e 3f 02 eb 00 be
       0.22429396 -0.56552833 0.6803996 -0.12589648
0003a0 67 cb 18 bd 4c 5d 3d 3f bb 9c 32 3d 4f d4 54 bf
       -0.037303355 0.73970485 0.0436065 -0.8313646
0003b0 09 16 0c be 5e b6 cd 3e 85 41 8c be da e2 8a 3e
       -0.1368028 0.40178198 -0.27393737 0.271262
0003c0 ab 68 82 bd ee 74 05 bc 8c d0 a0 bf 97 57 3e be
       -0.0636762 -0.008145554 -1.2563643 -0.185881
0003d0 b4 75 fb 3e af 37 30 bf b0 27 1e 3f ee cd bf 3e
       0.49113238 -0.68834966 0.6177931 0.374618
0003e0 74 3a dd be 41 a1 a4 be dc 8d c7 bc 34 6c a2 3e
       -0.4320866 -0.32154277 -0.024359636 0.31723177
0003f0 b4 e1 18 3f bf 90 18 3f d4 9d f7 3d c5 f6 42 3e
       0.59719396 0.59595865 0.1209065 0.19039448

actor.0.bias f4 [128]
000000 a7 12 4e 3c 8f ac 40 3e 26 c6 33 3d c3 46 09 3d
       0.012577689 0.18815826 0.04389014 0.03351475
000010 58 43 04 be c5 aa 6f bd 47 ad 82 bd cc 25 31 3c
       -0.12916315 -0.058512468 -0.06380706 0.010812234
000020 5e 05 9e be ec 7d 75 3d 00 b0 9e 3e 77 6e 2b bb
       -0.3086347 0.05993454 0.30993652 -0.0026158371
000030 7b 18 8c bc 83 ff a5 3d ae 6f 46 3d 70 dd 4a bd
       -0.017101517 0.081053756 0.04844635 -0.049527586
000040 da 1f 7d 3d c2 d2 9e 3d 1d ff 03 3e 68 f2 9a 3e
       0.061797954 0.077550426 0.12890287 0.30263066
000050 3d ca 4e 3e a6 ca 86 bd ad 66 74 be c1 dd 34 bc
       0.20194335 -0.06581621 -0.23867293 -0.011039198
000060 ce be f3 3d 25 13 00 bf 30 d1 92 be 74 9b a7 3e
       0.119016275 -0.5002921 -0.28675222 0.3273579
000070 ae 99 82 be b8 fa 38 bd dc 78 e3 bd a0 82 f3 bd
       -0.25507873 -0.04516098 -0.111070365 -0.11890149
000080 d4 03 95 be 70 aa 0c 3e e0 1f 6d be e0 2d cb 3d
       -0.29104483 0.13736892 -0.2315669 0.09920859
000090 85 59 d5 3e 97 a5 a7 3d e7 01 1f 3e 3e cc 0c 3e
       0.4166986 0.08185881 0.1552807 0.13749787
0000a0 c2 e8 32 be d2 80 f3 3e bf b8 48 be 51 f6 4d be
       -0.17471603 0.4755922 -0.19601725 -0.20113494
0000b0 bf 1f b4 3d b3 45 1a 3e 04 cd 9d bd 42 36 c7 bd
       0.087951176 0.1506565 -0.07705119 -0.09727146
0000c0 23 44 8b 3d 88 e9 83 3e 49 52 e8 be d1 3a 69 3e
       0.068001054 0.25764108 -0.4537528 0.22776343
0000d0 7c dc cf 3d 70 de 66 be 34 3b ee bd bf 91 3a 3e
       0.10149476 -0.2254579 -0.11632386 0.1821966
0000e0 36 dd aa bd e1 aa 8f 3e b0 70 d6 3e d3 cc 1c 3c
       -0.08342974 0.28060058 0.4188285 0.009570318
0000f0 b4 6b c0 bd 16 65 63 be 67 b8 83 3d e5 32 0c 3f
       -0.09395543 -0.2220653 0.06431656 0.5476516
000100 39 00 81 3e 5d 15 05 3d f6 25 4f 3c 08 0e 33 3e
       0.25195482 0.032491077 0.012643328 0.17485821
000110 8f 61 2c 3c 49 be f0 bd 8c d5 bd 3e af 2b 9b 3d
       0.010521307 -0.11755044 0.37076986 0.07576691
000120 df c4 ce bd 6d 2c f8 3c 9f 0e 5e be bd 74 76 be
       -0.10096144 0.030294621 -0.21685265 -0.2406797
000130 79 c2 af 3d ec 35 59 be b4 e7 2d be 68 29 53 3e
       0.085820146 -0.21211976 -0.16982919 0.20621264
000140 0e e7 28 3e 7e c3 78 be 0a 9d 58 be e4 cf 19 bd
       0.1649439 -0.24293324 -0.21153656 -0.037551776
000150 c4 55 90 3e 0c 72 9e 3d b0 e8 9f 3e 9f 01 b8 bd
       0.28190434 0.077365965 0.31232214 -0.08984684
000160 6b c5 29 3d f0 5f ae 3d 6c e3 23 be 38 c6 c2 3d
       0.041448038 0.085143924 -0.16004723 0.095104635
000170 2a 2e b4 be 36 12 82 3d 99 34 d0 bc 08 02 a6 3e
       -0.3519147 0.0635113 -0.025415706 0.32423425
000180 04 66 d4 be 8e 1f 75 3e 6c e7 bc be 09 4d 96 3e
       -0.41484082 0.23937818 -0.3689531 0.29355648
000190 66 7c 92 be fa 6f 5b 3d 29 b8 28 3d 7c a3 9e bd
       -0.28610533 0.053573586 0.041191254 -0.07746026
0001a0 f5 fd 83 bd dc d2 27 3d 7f 34 4b 3d 29 00 47 3b
       -0.06444923 0.040972576 0.04961061 0.0030365086
0001b0 e4 6c 2b 3e 78 4f 10 be 14 7d 99 bd bc 22 e8 bc
       0.16740757 -0.14092815 -0.0749456 -0.028336875
0001c0 5f d5 af 3d e3 42 e5 be bd e3 6b 3d c4 8e 1e 3e
       0.08585619 -0.44777593 0.057590235 0.15484148
0001d0 76 7c c2 3c c6 ea 40 3e 04 ef 7b bd 62 87 70 3d
       0.023740988 0.18839559 -0.06150724 0.05872286
0001e0 96 34 a6 3b 56 a3 d9 bd 74 a3 5d 3e 16 64 16 bd
       0.0050721867 -0.10626857 0.21644384 -0.036716543
0001f0 71 a6 ca 3d 06 47 eb bd a2 90 a0 3d 93 69 01 3e
       0.098950274 -0.11488156 0.078400865 0.1263793

actor.2.weight f4 [64, 128]
000000 04 65 f6 3d 17 ff 7c 3f 3b d4 ec 3d 0c 58 a8 bd
       0.12030986 0.98826736 0.11563917 -0.082199186
000010 dc ef 38 be c9 8e 42 3e c8 d8 10 3f 4f ee 8a bd
       -0.18060249 0.1899978 0.5658078 -0.06783735
000020 65 48 f7 be 4c ce 10 bf c9 7f 64 3e 1c 2e 70 3f
       -0.4829742 -0.56564784 0.22314371 0.9382036
000030 ba 6f 92 3d a7 5b b6 3e a6 7d 12 be ab 29 b1 bd
       0.071502164 0.356168 -0.14305744 -0.08650526
000040 ac 08 0d 3d 66 f9 ae be 4a 12 97 3e bd ac d0 bd
       0.0344321 -0.3417465 0.2950614 -0.10189197
000050 fe d9 1f bf 27 b1 11 3e c5 66 a2 3e 39 99 89 3c
       -0.62442005 0.14227735 0.31719032 0.016796695
000060 48 82 03 bf e9 b5 46 3e 22 45 97 3d f1 cf b6 3e
       -0.5137067 0.1940533 0.07386233 0.35705522
000070 cc a4 a8 3e 17 11 49 be c1 75 39 3e 50 89 99 3e
       0.3293823 -0.19635426 0.18111326 0.29987574
000080 b8 89 be 3e 5f b5 80 be 69 0f 8c 3d 81 ba 8e be
       0.37214446 -0.25138375 0.06838877 -0.27876666
000090 a3 74 ab bd 11 a0 0c 3f 5a 53 92 3c ba 5d ca 3d
       -0.08371856 0.5493174 0.01786201 0.09881158
0000a0 ef 51 fa bc a0 b4 10 bf ec d4 29 be 07 64 55 be
       -0.030556647 -0.5652561 -0.1658513 -0.20838939
0000b0 f6 b5 9a bf 18 d9 51 3e 1f d3 ab 3e fe 50 08 be
       -1.208678 0.20492971 0.3355951 -0.13312146
0000c0 f3 06 ff bd e8 23 7c 3e 66 ea 74 3e 54 7f 9a be
       -0.12452497 0.24623072 0.23917541 -0.3017527
0000d0 2b 38 ce be e3 e3 80 be f0 83 12 bf 5b 53 9d 3e
       -0.40277228 -0.25173864 -0.5723257 0.30727658
0000e0 a2 29 8d 3e b8 64 d5 3e 71 ea 1b bd 4f 6a bf 3d
       0.27570826 0.41678405 -0.038065378 0.09346449
0000f0 55 9b b2 be b8 5e 05 be 09 2a 54 3e 05 4e 14 3f
       -0.34884134 -0.13024414 0.2071916 0.5793155
000100 af e9 0e be 78 27 f9 3d 44 07 1c 3f c8 8c 5a 3f
       -0.1395633 0.12165731 0.60948586 0.85371065
000110 1a cd 59 be d0 f2 b8 3c 9f 9e 10 bf 2d 1c 12 3f
       -0.21269646 0.02257672 -0.56492037 0.5707424
000120 18 ef 47 be 52 6b fe 3e e2 ee f3 bd 61 f9 c7 3e
       -0.19524801 0.49691254 -0.11910798 0.39057449
000130 4f ba d5 3c 43 47 c1 3d f3 f5 15 3e ae 26 05 be
       0.026089815 0.0943742 0.14644603 -0.13003036
000140 54 3a b7 3e e6 37 ca bd 3a 7d e9 be 3f 1d 31 3f
       0.35786688 -0.09873943 -0.45603353 0.6918525
000150 15 65 22 bf 50 fb 17 be 5a 30 66 3e 16 2e 29 3d
       -0.6343549 -0.14841962 0.22479382 0.041303717
000160 72 0b 35 bf ff ea 0b 3e d5 63 89 3e 67 33 20 be
       -0.7072059 0.13663863 0.26833978 -0.15644608
000170 6b b4 83 be f1 5e e3 3c 65 be 3d 3e a7 fd b2 3e
       -0.25723585 0.027755233 0.18529661 0.34959146
000180 1a 03 1b 3e 7f 71 f7 be b1 08 2a bf a1 d6 95 3e
       0.15137902 -0.48328778 -0.6641951 0.2926531
000190 a2 0e b3 3e a2 3d ff 3e af 5e 9b 3b a4 ae 5d bd
       0.349721 0.4985171 0.004741512 -0.05412163
0001a0 6c 69 fa be a8 84 53 3e 0c 6d ba 3e ed 1a 93 3e
       -0.48908556 0.20656073 0.3641132 0.2873148
0001b0 9c 58 9e bd 9f ac 56 be a1 06 40 be 82 bf 02 3f
       -0.07731745 -0.20964287 -0.18752529 0.5107347
0001c0 1d 0d 8d bc 23 ab 87 3e 35 17 e8 be 4c fd 13 be
       -0.017218167 0.26497754 -0.45330206 -0.14452094
0001d0 ab 96 2c bd 26 b1 2c 3e e6 b5 24 bf 7e c8 a5 be
       -0.042135876 0.16864452 -0.64340055 -0.32379526
0001e0 f3 1b 46 3d a6 a6 48 3d c3 80 f6 be d7 72 41 bd
       0.0483665 0.048987053 -0.48145112 -0.04722866
0001f0 fe 6e a6 3e 9d 3c e0 be 2c 12 44 3c e4 cb d4 be
       0.32506555 -0.43796244 0.011967223 -0.41561806
000200 b6 9b cd 3e 5c ed c5 3d d8 e0 e0 3e 26 30 6f be
       0.4015786 0.09664413 0.43921542 -0.23358211
000210 26 bc 81 be 54 1b da be ab 4c a1 be 8b 45 51 3e
       -0.25338858 -0.42598975 -0.31503806 0.20436685
000220 68 d8 a7 bd eb 3a cd 3e 2f ba 31 bf d9 2c d1 be
       -0.08195573 0.40084013 -0.6942472 -0.4085453
000230 c3 86 e9 3d aa 46 c3 be c3 07 6c be c7 64 e0 bd
       0.11402657 -0.3813985 -0.23049836 -0.10956722
000240 fb fd c8 be e1 b1 de be 1a a1 42 3c 1d 36 06 3e
       -0.39256272 -0.43495086 0.01187923 0.1310658
000250 16 4e 1f bf d4 3b be 3e a4 3d 1f bf 9a ec bb 3e
       -0.62228525 0.3715502 -0.6220343 0.3670395
000260 1f 67 ce bc 1d 15 00 3e 4d a5 c6 be 2c 0b a3 3e
       -0.025195656 0.12508054 -0.3879799 0.3184446
000270 c5 4a 79 3e 29 56 ba be 9c 4d d4 bc c3 fb 33 3e
       0.24344929 -0.3639386 -0.025915913 0.17576508
000280 2e bc 56 3e ee b4 fc 3e 3b 5f bc be 45 04 e6 3e
       0.20970222 0.49356788 -0.36791405 0.44925132
000290 7f 9d 20 3f 95 58 aa be a5 b0 52 3e 71 63 dd be
       0.6274032 -0.33270708 0.20575197 -0.4323993
0002a0 49 60 83 bd 71 1d d4 be 3c e4 83 3d 80 9e 15 be
       -0.06414849 -0.41428712 0.064400166 -0.14611244
0002b0 2f a1 64 be f5 a0 61 bf e2 12 4c 3d ac 71 a7 3d
       -0.22327112 -0.88136226 0.049822696 0.08175978
0002c0 ce c0 05 3f 75 7c 22 3e 70 0d 2f 3f af 07 bc be
       0.5224732 0.15867789 0.6837988 -0.36724612
0002d0 dc 32 6d bf af 84 bb 3e 75 11 61 3e 37 b3 3e bf
       -0.9265573 0.36624667 0.21979316 -0.7449221
0002e0 42 d2 fd 3d 47 be 15 bf 12 29 83 3e ab c2 ae 3e
       0.12393619 -0.58493465 0.25617272 0.34132895
0002f0 30 f0 d1 3d dc 27 1b 3f f9 2e dc bd 5a 0c da be
       0.1025089 0.60607696 -0.10751147 -0.42587548
000300 7d 53 64 3d 99 05 a8 be e3 a7 ba 3d 64 87 a0 3e
       0.055743683 -0.3281677 0.09114053 0.31353295
000310 27 5d 4d 3e 46 34 da 3e 0f 63 7b bf 78 fc be 3d
       0.20055066 0.42618006 -0.98198026 0.09325498
000320 de e0 a9 be 37 4a 38 3e 9a 98 93 3e a2 1b 01 3f
       -0.33179373 0.1799706 0.28827363 0.5043279
000330 a9 02 73 3e 92 99 b7 be 35 5e d5 3e 22 ad cc 3e
       0.23731484 -0.35859352 0.41673437 0.3997584
000340 21 5c 35 3e 6d 05 ac 3e 3b c8 99 be bc 4a 13 3d
       0.17710926 0.3359789 -0.30035576 0.035959944
000350 2a 73 c7 be bf d8 e7 bd b9 c7 18 bf 3f 87 03 bf
       -0.3895505 -0.11320638 -0.5967975 -0.51378244
000360 40 cd 4b 3e 90 64 33 3e 3f 32 4d be af 78 04 bf
       0.19902515 0.1751883 -0.20038699 -0.5174665
000370 c8 8f 0a 3f 56 5d 6d be 27 93 b5 be 36 99 dc be
       0.5412564 -0.23180136 -0.3546383 -0.4308564
000380 cf 03 0f 3f d8 d3 e9 be 77 a6 0b 3b eb 2e 30 be
       0.55865186 -0.45669436 0.0021308938 -0.17205398
000390 8f 93 ba 3c e7 b1 ba 3e 6a 91 d9 3d 09 99 9e 3c
       0.02277544 0.36463854 0.10623439 0.019360082
0003a0 1f a9 04 bf 18 d2 c7 3d 49 b5 f3 be 4c ab 8f 3c
       -0.5182056 0.09756869 -0.47599247 0.017537735
0003b0 1a bf c7 bc 66 16 b2 3e 28 9e 3c 3f 01 e9 8d 3e
       -0.024383117 0.34782714 0.7367883 0.2771683
0003c0 6c 43 07 3f 7a d3 b5 3e f7 0d c7 be 8d 80 80 bd
       0.5283725 0.35512906 -0.38877842 -0.06274519
0003d0 da f9 92 3d 34 f6 74 be 7b b0 c1 bc 14 83 d3 bd
       0.07176562 -0.23922044 -0.023643723 -0.103277355
0003e0 01 07 14 3f 7c a1 2c 3e 51 de c5 be e0 ba b1 3e
       0.5782319 0.16858476 -0.38646176 0.34712887
0003f0 86 0e 27 bf b6 dc cf bd be 98 26 3d 85 a8 d8 be
       -0.65256536 -0.10149519 0.04067301 -0.4231607

actor.2.bias f4 [64]
000000 74 59 04 be f8 59 8e be 6f d8 ba 3c 09 f7 f2 bd
       -0.12924749 -0.27803016 0.022808282 -0.118635245
000010 7c c2 91 be 5a 00 6a 3e 22 62 27 bf 4f 92 84 be
       -0.28468692 0.22851697 -0.65384114 -0.25892875
000020 da 5a b9 3d b5 fc c0 3d 6f 6b 39 3e 7c 61 a5 3e
       0.09050532 0.094232 0.18107389 0.32300937
000030 59 60 3c 3e af 2d 2e 3d a3 fb ee 3d 7b 05 30 3e
       0.18396129 0.042524036 0.1166909 0.1718959
000040 fa 78 ee 3e 1c e5 c5 be 66 1c a2 be 4b bc b6 3e
       0.46576673 -0.3865136 -0.3166229 0.3569053
000050 49 f6 a8 be 26 b4 36 be 1a 7f f5 bd 88 3c 9d 3e
       -0.330004 -0.17842159 -0.11987133 0.30710244
000060 4e 0e 95 be 37 d1 97 be 5e 5e b8 3e b2 eb ac be
       -0.29112476 -0.29651806 0.36009496 -0.3377357
000070 1f f8 81 3d d0 2a e4 be 06 6f af bd 2e 87 ad bd
       0.063461535 -0.44563913 -0.08566098 -0.08473049
000080 0c 93 80 3c 46 a4 e0 3c e7 80 63 bc 74 f0 89 bc
       0.015695117 0.027422082 -0.013885713 -0.01683829
000090 5f 59 d5 3e 30 3b f4 3e 5d 67 e9 bb 9f 98 fe 3e
       0.41669747 0.47701406 -0.0071229176 0.49725816
0000a0 3d 5b 8f 3d cc 46 95 3d 62 e9 c7 3d 42 ef 58 be
       0.06999824 0.07288894 0.09761311 -0.2118502
0000b0 4f 5d 58 3e 60 f2 04 3f 00 89 5a 3d 7a a9 ac bd
       0.21129344 0.51932335 0.05335331 -0.084307626
0000c0 e3 5c 94 bc 9c ce 8d be 1f 86 23 3f 0c 97 2f bb
       -0.018110698 -0.27696693 0.6387653 -0.0026792912
0000d0 78 63 49 be 91 d2 64 3d 7d 67 fd 3e 4c b1 c6 3e
       -0.1966685 0.055864874 0.49493018 0.38807142
0000e0 70 2d 17 3f 34 32 00 bf 10 a7 d1 3e 63 40 92 3e
       0.5905371 -0.50076604 0.4094777 0.28564748
0000f0 5c f8 49 bc 39 6f e7 bd 04 ee 96 bd 39 5a bf be
       -0.01232728 -0.11300511 -0.07369617 -0.37373522

actor.4.weight f4 [6, 64]
000000 c5 11 de bb 21 88 79 3e 8c 47 94 bd 1e 23 13 bc
       -0.0067770206 0.24368335 -0.07240209 -0.008980541
000010 dc 5f d9 3e fd 18 5d be b9 10 c3 3d a7 5f 95 bd
       0.42455947 -0.21591564 0.09524674 -0.07293635
000020 0f e6 66 bd 0e 1f 06 3d 18 dd 96 bd 89 fd d8 bd
       -0.056371745 0.03274446 -0.07366389 -0.10595233
000030 99 2a a3 be a0 53 c5 bd cf 32 f8 bd bd 06 c7 bb
       -0.31868437 -0.09635091 -0.12119066 -0.0060738013
000040 a6 60 b5 be fd 58 d4 3c c7 57 d9 3d 16 01 32 bd
       -0.354253 0.02592134 0.10612445 -0.043458067
000050 02 6b 2d bd 58 ed bb bb 0a 55 cb 3c e3 68 a1 bc
       -0.04233838 -0.0057350807 0.024820823 -0.019703334
000060 60 77 54 bc 43 65 89 bd 0b 87 36 be 11 f8 b8 bc
       -0.012967914 -0.06708767 -0.17824952 -0.022579225
000070 90 9c 83 3c a4 6c d0 3d 7a 1e 64 3d e1 07 33 3d
       0.016065866 0.101769716 0.055693127 0.043708686
000080 87 71 20 bd 21 7f cf bd d7 b5 3a 39 5f 00 09 be
       -0.039170768 -0.1013167 0.00017806083 -0.13379048
000090 a0 07 e0 bd 5b c4 04 3d ef b9 27 3e e2 56 1b 3d
       -0.10938954 0.03241382 0.16379522 0.037924655
0000a0 90 e3 a9 3c 91 7f 2b 3b fd 1a 92 3d 3b a2 62 3d
       0.020738393 0.0026168565 0.07134054 0.055330496
0000b0 60 a3 54 bc 8c 14 fa 3e f2 b5 a5 bb d6 f4 5d 3d
       -0.012978405 0.488438 -0.00505709 0.054188572
0000c0 46 f0 c7 3d dc f6 80 bd 74 7b 14 3f d9 19 5a bf
       0.097626254 -0.06297085 0.58000875 -0.8519569
0000d0 6e 67 06 be 72 c3 ac 3d 18 5e 19 bd 46 cf 47 3e
       -0.13125393 0.08435716 -0.03744325 0.19512662
0000e0 80 55 95 3d 1b a8 ae be a6 e5 67 3e 42 2c 59 bb
       0.072916985 -0.3411263 0.22646198 -0.0033137952
0000f0 1e 9a 72 bd cb 25 92 3d 1e 0b 98 3d 80 6c ef 3d
       -0.05922901 0.07136115 0.074239954 0.116906166
000100 c3 83 14 3e 1b 7f 66 bd c4 2d e6 bd 33 bd b8 3e
       0.14503388 -0.05627356 -0.11239198 0.36081848
000110 d2 d2 d9 be 1d 90 8d 3d 7d c5 50 bf ac b8 e5 bd
       -0.42543656 0.06912253 -0.81551343 -0.11216864
000120 6c 7c 2f 3f a2 68 84 3c 5f a0 12 3e 3d 41 a0 3e
       0.6854923 0.016163174 0.14318989 0.31299773
000130 57 af c1 be c9 4e 00 3d a0 bc 0e 3f 5a 8c 6b bd
       -0.37829086 0.031325135 0.5575657 -0.057506897
000140 a1 a6 32 3f 62 ee 84 bd b7 d8 12 3e fb 2d c5 be
       0.69785506 -0.064907804 0.14340483 -0.38511643
000150 ff 5a a1 bd 0c 8f d7 3d 5c 46 a4 3d 26 d7 8e 3d
       -0.07878684 0.10525331 0.080212325 0.0697463
000160 2d a4 13 be 26 a1 1a bf 26 94 5e 3e 4e b2 f2 3e
       -0.14418097 -0.60402143 0.21736202 0.4740166
000170 8d 3c af be f8 82 13 be 52 90 84 3d 77 80 19 bf
       -0.34225884 -0.1440543 0.064728394 -0.59961647
000180 1a 76 a7 be 5f 6a 79 bb 2a 32 5b 3e 5a 97 d4 bd
       -0.32707292 -0.0038057787 0.21405855 -0.103804305
000190 b7 a3 9e 3e 5f 9a a6 bf e0 2a cf be 2f a5 92 bf
       0.3098428 -1.301586 -0.404624 -1.145666
0001a0 45 30 d5 be 77 49 47 be 8d c2 8a bd fc d8 b6 bd
       -0.4163839 -0.19461618 -0.06775389 -0.08928105
0001b0 a6 9a 03 3e 62 65 7a bf 63 36 1d be fe 24 b9 3e
       0.12851962 -0.9781095 -0.15352778 0.36161035
0001c0 5d b1 95 3e f3 07 6a be 5d 00 8e bf d8 2c 25 bf
       0.2923688 -0.22854595 -1.1093861 -0.6452155
0001d0 fc a3 a7 3d e4 42 00 bc d2 a9 d2 3e 97 da 4f be
       0.081855744 -0.007828448 0.41145188 -0.20298229
0001e0 51 09 8c 3f 6c 9d 1f bf ee 8b 8e bd 67 79 df be
       1.0940343 -0.6234958 -0.06960283 -0.4364731
0001f0 2b e8 9f 3e 5d d6 b6 bd 0e 4e 80 be cf aa 0b be
       0.31231818 -0.08927605 -0.2505955 -0.13639377
000200 19 05 1a be fb 62 80 be f1 7b 47 3e 3b 88 ae be
       -0.15041007 -0.25075516 0.19480874 -0.3408831
000210 d1 50 c3 bd b0 71 4c 3e 17 b3 1e 3f 99 d6 0e 3e
       -0.09536899 0.19965243 0.6199202 0.1394905
000220 7a ee 18 bf 52 52 96 bd bf 4d 32 bd a8 18 27 be
       -0.59738886 -0.0733992 -0.043531176 -0.16318
000230 fd cf 2f 3f d0 42 44 3d 25 56 c4 be bf 5d aa 3d
       0.6867674 0.04791528 -0.38346973 0.08318662
000240 47 f6 82 be e2 bc bd bc 3f e1 93 be 20 15 f4 3e
       -0.2557852 -0.023161355 -0.28882787 0.47672367
000250 ec 37 b7 3d e3 26 2e be 9d 95 e7 bd 40 37 1b bd
       0.08946213 -0.17007022 -0.11307833 -0.037894487
000260 e0 d9 fb 3d 01 d6 1d 3f 93 fa 0d 3d 9c c0 eb be
       0.12297416 0.6165467 0.034662794 -0.46045387
000270 3a 77 ab 3e e4 ef a9 bb 50 66 0c be 80 0d 05 3f
       0.334894 -0.005186068 -0.13710904 0.51973724
000280 3a e2 bb 3e d2 bf f3 3d 58 8e 5b be 5d c1 8c 3e
       0.36696035 0.11901821 -0.21441019 0.27491274
000290 39 20 39 be 97 85 a4 3f 68 0f 77 3e b0 bf 90 3f
       -0.18078698 1.2853268 0.24126971 1.1308498
0002a0 51 5f d4 3e 90 43 27 3e 24 a6 8a 3c 4c 20 5b bc
       0.4147897 0.16334367 0.016924925 -0.013374399
0002b0 08 43 9d bd 51 bc ee 3e e6 7f 1f 3e 22 64 ef be
       -0.07678801 0.4662805 0.15576133 -0.46756083
0002c0 49 a0 b5 be ba 37 9a 3e c5 26 03 3f 33 b1 bf 3f
       -0.3547385 0.3012064 0.5123103 1.4975952
0002d0 ee 89 cc 3c 59 7a c1 bd 22 71 a8 be 5f 5f f1 3c
       0.024968114 -0.09447164 -0.32898813 0.029464422
0002e0 23 67 8e bf 44 f4 6f 3f 0c a5 e9 bd 6b 32 ed 3e
       -1.1125225 0.93732095 -0.11408433 0.46327528
0002f0 dc 56 62 be d0 b8 1d bc 1a 43 2a 3e e9 dd bc bb
       -0.22103447 -0.009626582 0.1662716 -0.0057637584
000300 3d 90 d3 3d 1c 4f 98 3e 89 db 0a bc 12 6f 26 3e
       0.10330246 0.29747856 -0.008475193 0.16253307
000310 75 a7 44 be dd da 29 3e 6e 89 d9 be f3 fa 6f be
       -0.19204505 0.16587396 -0.42487663 -0.23435573
000320 7c ea 00 be 0c 2e 00 be a9 87 3d be 0f 52 6a 3c
       -0.12589449 -0.12517565 -0.18508781 0.014301791
000330 75 3d 41 3e 84 90 0f bd 37 8c 80 3d 31 7d bb bd
       0.188711 -0.03504993 0.06276744 -0.09154738
000340 88 4a 7d 3d 0a 10 27 be 54 c6 20 3f ef a7 03 bc
       0.061838657 -0.16314712 0.62802625 -0.008035644
000350 39 dc 12 be ef 98 10 be 5d 77 e5 bd 09 5d b0 bd
       -0.14341821 -0.1412084 -0.11204407 -0.08611495
000360 cb 2d 5a be 57 aa 15 3e 9e eb 70 3e 60 71 c6 3c
       -0.21306531 0.1461576 0.23527381 0.024223983
000370 38 6c 0c 3d 3e 8f 4c 3d 69 90 1f be 68 3a d5 3c
       0.034282893 0.049941294 -0.15582432 0.026028827
000380 56 a2 1f bd b6 7a 0e 3e bd 32 97 bd 36 a0 81 3e
       -0.038973175 0.13913998 -0.073827244 0.25317544
000390 d0 89 ef bd df da 9e 3e d5 41 34 bd a5 ba 08 bf
       -0.116962075 0.3102636 -0.044008095 -0.53409797
0003a0 b7 39 7b be 78 ab ec 3d dd b8 84 3e 4c 5f 96 3e
       -0.24533735 0.115561426 0.2592229 0.2936958
0003b0 06 a3 80 be 45 f6 b3 3e 92 61 74 be 28 c0 47 3d
       -0.25124377 0.35148826 -0.23865345 0.04876724
0003c0 58 09 8b bd 43 d8 72 3e 66 0b 23 be ef 7e 4e 3c
       -0.067888916 0.2371531 -0.15922317 0.0126035055
0003d0 97 7c 99 3e 98 a7 cb bc af b0 8d be 9c 3f 23 3f
       0.29977867 -0.024860188 -0.2767386 0.63768935
0003e0 3f 5a 66 3d 0f 4d 80 bd e4 da 38 3e 4d 29 15 3f
       0.05623841 -0.06264698 0.1805225 0.58266145
0003f0 7a f3 1a bd 57 9d 34 3e d7 d0 46 bd cf 6b 3a 3e
       -0.037829854 0.17638145 -0.04853901 0.18205188

actor.4.bias f4 [6]
000000 5a 1a 16 bf 73 fd cc 3e fe 32 97 3e be d4 43 3d
       -0.5863396 0.40037116 0.2953109 0.04781031
000010 75 f0 c0 3c b5 6b 3d bc
       0.023552159 -0.011561324
