Plotting/saliencies_live/Multi_Pong/Sequence_Length_1/multi_pong_1__1__1721853303_checkpoint_1064.pt (torch, 86706 bytes, 11 tensors)

critic.0.weight f4 [128, 12]
0	0x3f07b51d	0.5301073
1	0x3d6da25a	0.05801616
2	0x3df9145d	0.12162087
3	0xbefdeeb7	-0.49596187
4	0xbecaa4a4	-0.39578736
5	0x3edf27c5	0.4358503
6	0xbfc8ce5e	-1.5687978
7	0x3f9de1d5	1.2334543
8	0xbda2e400	-0.07953644
9	0xbd79e241	-0.06100679
10	0x3ec7e4cb	0.39041743
11	0x3e537505	0.20650108
12	0x3b1f84d0	0.0024340637
13	0x3c16db74	0.009207595
14	0xbd6919cb	-0.056909364
15	0xbb9d4720	-0.0047997385
16	0xbbdb2fc6	-0.0066890446
17	0xbe8d7aa4	-0.2763263
18	0x3cfa8fdf	0.030586181
19	0xc002a110	-2.0410805
20	0xbc5dc333	-0.013535309
21	0x3e8faf2b	0.2806333
22	0xbd9d554e	-0.07682286
23	0x4003c0df	2.058647
24	0x3e628b16	0.2212337
25	0x3ca1c22d	0.01974591
26	0xbd9fa884	-0.07795814
27	0x3c16617f	0.009178518
28	0xbc2bf78e	-0.010496033
29	0x3b04adf6	0.002024529
30	0xbc8ae46f	-0.016954629
31	0x3dae1ad2	0.08501209
32	0x3e23594e	0.15952036
33	0x3e595ff6	0.21228012
34	0xbe4d9e9a	-0.20080033
35	0x401bb09a	2.432654
36	0xbea069a7	-0.31330606
37	0x3e35b62a	0.17745271
38	0xbe6a2b03	-0.2286797
39	0x3ca5debf	0.020247815
40	0x3e82eb86	0.25570315
41	0xbdd9111c	-0.105989665
42	0x400a7da1	2.1639178
43	0xbf9512d8	-1.1646376
44	0x3bfa992d	0.0076476545
45	0x3d37804b	0.044800084
46	0xbf38940c	-0.721009
47	0xbd4d3573	-0.0500998
48	0x3d4eff08	0.050536186
49	0x3cb49d18	0.022047564
50	0xbd08d36a	-0.033404745
51	0x3a4ebb1e	0.0007886159
52	0x3e2a69f1	0.16641976
53	0xbdbc1d8e	-0.091853246
54	0x4051faf8	3.280943
55	0xbffbe716	-1.9679897
56	0x3bfe7e4f	0.007766522
57	0xbdbc4b54	-0.09194055
58	0x3e1d81a0	0.1538148
59	0xbfcd781d	-1.6052281
60	0xbda50868	-0.08058244
61	0x3a35b19c	0.0006931068
62	0xbdd664fa	-0.104684785
63	0x3cb3c5ac	0.021944843
64	0x3bc13fdf	0.0058975066
65	0x3d10ba21	0.035333756
66	0x3e920f05	0.28527084
67	0x4033eb6e	2.8112445
68	0x3c1b6a2f	0.009485765
69	0x3c8d7f90	0.01727274
70	0xbcf434d6	-0.02981035
71	0x3e014392	0.12623432
72	0x3dddd337	0.10831302
73	0x3c9629a9	0.018330412
74	0xbe62f625	-0.22164209
75	0x3d440433	0.047855567
76	0xba3b5285	-0.000714578
77	0xbca54fad	-0.020179594
78	0xbdba4253	-0.090946816
79	0xbcbf878d	-0.023380065
80	0xbe8e435b	-0.27785763
81	0x3e9d127a	0.3067816
82	0xbff8a065	-1.9423949
83	0x400e736d	2.225795
84	0x3e6e3dd9	0.2326578
85	0xbc8d0a1e	-0.017216738
86	0xbd441e07	-0.0478802
87	0x3c5b102e	0.013370557
88	0xbdce50a4	-0.10073975
89	0x3da836d8	0.082135856
90	0xc01b5ab3	-2.4274108
91	0x3f939637	1.1530217
92	0x3da02bec	0.078208774
93	0xbd4d406f	-0.050110277
94	0x3ec4bc5e	0.38424963
95	0xbf223f7e	-0.6337813
96	0xbe311d3f	-0.17296313
97	0xbbc6c645	-0.006066116
98	0x3d0aff6b	0.03393499
99	0xbc76926e	-0.01504956
100	0xbc681c6c	-0.014166933
101	0x3c4afd9d	0.012389568
102	0x3c548c8a	0.01297296
103	0x3daed583	0.08536818
104	0xbdf737ea	-0.12071212
105	0xbe002aae	-0.12516281
106	0xc0823022	-4.0683756
107	0xc0894dec	-4.290762
108	0x3f0fef92	0.5622493
109	0xbe9f1630	-0.31071615
110	0x3f139516	0.5764936
111	0xbe253e9c	-0.16137165
112	0xbf8139ed	-1.0095803
113	0x3eda8210	0.42677355
114	0xbf8a50ac	-1.0805869
115	0x3ecaf05f	0.39636514
116	0x3d59d213	0.053178858
117	0x3cdb6777	0.026782734
118	0x3ede4e5a	0.43419152
119	0xbdef5f67	-0.116881184
120	0x3f50bc4d	0.81537324
121	0xbba83b00	-0.0051339865
122	0x3f1c38d1	0.61024195
123	0x3c0d10d9	0.008609974
124	0xbc6ae45a	-0.01433667
125	0x3b6a85b2	0.0035785255
126	0x3e59e1ca	0.21277538
127	0x3d5ae9f4	0.05344577
128	0xbfa5bb50	-1.2947788
129	0x3b3feb9f	0.0029284728
130	0xbe18decb	-0.14928739
131	0xbd085089	-0.03327993
132	0xbdc35605	-0.09537891
133	0x3c02fe47	0.007995195
134	0x3c9a82e4	0.018861242
135	0x3c4e4c79	0.012591475
136	0x3df366ec	0.11884865
137	0xbdd40078	-0.10351652
138	0x4051e695	3.2796986
139	0xc05aa1da	-3.4161286
140	0x3c836466	0.016039085
141	0x3b947865	0.0045309537
142	0x3e1dcacc	0.15409392
143	0x3cdb6d4a	0.026785512
144	0x3d293c09	0.04131702
145	0xbcc8269e	-0.024432477
146	0xbd82e8fb	-0.06392094
147	0x3e1695bb	0.14705555
148	0x3dbf2f05	0.0933514
149	0xbe632dcb	-0.22185437
150	0x3f03c2ee	0.51469314
151	0xbe5a2b88	-0.21305668
152	0xbd9d98cf	-0.076951616
153	0xbb190052	-0.0023346138
154	0xbe8bfaf9	-0.27339914
155	0xbe2c388a	-0.16818443
156	0x3dd2343d	0.1026387
157	0x3b9876cd	0.004652834
158	0x3df7b719	0.1209547
159	0x3cd0e5e8	0.025500253
160	0x3d706ac1	0.05869556
161	0xbb3c4747	-0.0028729008
162	0xbeba8d59	-0.36435965
163	0xbe0acdb1	-0.13555028
164	0xbddfdb57	-0.10930508
165	0xbd2a1290	-0.04152161
166	0xc00d449c	-2.2073126
167	0xbd83570f	-0.064130895
168	0x3ad6a8f4	0.0016377256
169	0x3ca605c4	0.020266421
170	0xbaf730b5	-0.001885912
171	0xbcee909a	-0.029121686
172	0x3c6705a1	0.014100463
173	0x3c564c0b	0.0130796535
174	0x3fbc71d8	1.4722242
175	0x3f64a20b	0.8930976
176	0x3c4e51c3	0.012592736
177	0xbc58dbce	-0.013235999
178	0xbf7444b8	-0.95417356
179	0xbd81e0f0	-0.063417315
180	0xbd3cb3ea	-0.046070017
181	0x3bfa44e2	0.007637606
182	0xbdcf4050	-0.101196885
183	0xbd283d82	-0.041074283
184	0xbe05acdd	-0.13054223
185	0x3c03da1c	0.008047607
186	0xbff7ae67	-1.9350098
187	0x3dc901ca	0.09814794
188	0x3e1c4840	0.15261936
189	0x3cbf5cf3	0.023359751
190	0x401d2315	2.4552662
191	0x3d8e8f1c	0.0696089
192	0x3d32f351	0.043689076
193	0xbc3104ad	-0.010804337
194	0xbcab447d	-0.020906681
195	0x3c11d789	0.008901485
196	0xbd715049	-0.058914457
197	0xbd447011	-0.047958437
198	0xc024d0c2	-2.5752416
199	0xbf4472db	-0.76737756
200	0x3ccd4b1d	0.02506023
201	0x3db28ee6	0.08718662
202	0x3f06171a	0.52379
203	0x404257b4	3.036603
204	0xbd87905a	-0.0661933
205	0xbcf4c7ec	-0.029880486
206	0x3e0a0704	0.13479239
207	0x3a033d04	0.00050063455
208	0x3e7f50cf	0.2493317
209	0x3b347585	0.0027535867
210	0x3ff2e61e	1.8976476
211	0xbe02555b	-0.12727873
212	0xbe54d329	-0.20783676
213	0x3cc2c349	0.02377476
214	0xbff481ae	-1.9102075
215	0x3e94b0c9	0.29041126
216	0x3ea25bc8	0.3171065
217	0xbc090785	-0.008363609
218	0x3dade327	0.084905915
219	0x3ebd48ba	0.36969548
220	0xbe244de6	-0.16045341
221	0xbec2ea0a	-0.38069183
222	0xbe8ea776	-0.27862138
223	0xbeeab696	-0.45842427
224	0xbd8e5b5d	-0.0695102
225	0x3d59a755	0.053138096
226	0x3d64966e	0.055807523
227	0x3e225899	0.1585411
228	0x3a882566	0.0010387122
229	0xbcb5fe85	-0.022216091
230	0x3d87559f	0.06608128
231	0xbc3ec912	-0.011644619
232	0xbcc5ba2d	-0.024136627
233	0xbbf0ee7d	-0.007352649
234	0x3f0a035d	0.5391138
235	0xbfa3e4da	-1.2804215
236	0x3dbb6d12	0.09151663
237	0x3c5bc5cf	0.01341386
238	0x3fee2581	1.8605195
239	0xbf178b39	-0.5919681
240	0xbd3e7cfa	-0.046505906
241	0xbabffcf9	-0.0014647535
242	0x3ddc2258	0.10748738
243	0xba0751b7	-0.0005162018
244	0x3db577f8	0.08860773
245	0x3bc55841	0.0060224836
246	0x3effd887	0.49969885
247	0x3d4d7b22	0.050166257
248	0x3db209a1	0.08693243
249	0xbc6d9bff	-0.014502524
250	0x403e4ec4	2.9735575
251	0xbd4222cf	-0.047396477
252	0x3e9eb5c6	0.30998057
253	0x3d1bcacc	0.0380352
254	0x3e22a33a	0.15882578
255	0xbe95b9db	-0.2924336

critic.0.bias f4 [128]
0	0x3e95e623	0.29277143
1	0x3d05aae6	0.032633685
2	0x3d7d7915	0.06188305
3	0xbde4a318	-0.1116392
4	0xbcfb7faf	-0.030700533
5	0x3cc479b2	0.02398381
6	0xbc9d906c	-0.019233905
7	0x3d346f98	0.044051737
8	0x3d678133	0.0565197
9	0x3ef62d04	0.4808122
10	0x3f1819b0	0.59414196
11	0xbd11d756	-0.03560575
12	0xbd560dad	-0.052259136
13	0x3b8dabda	0.004323465
14	0xbd013498	-0.031544298
15	0x3cf725f7	0.03016947
16	0xbd9c8a9c	-0.07643625
17	0xbd942f15	-0.07235543
18	0x3dacdcbc	0.08440539
19	0x3cef3caf	0.02920374
20	0x3c845732	0.01615486
21	0x3e14aaac	0.14518231
22	0xbdb139e2	-0.086536184
23	0xbe0ca84b	-0.13736074
24	0x3d80ada9	0.06283123
25	0x3cfeff33	0.031127548
26	0x3e12e773	0.14346103
27	0xbc4d07e7	-0.012514091
28	0xbdb19e30	-0.0867275
29	0xbcbab538	-0.02279149
30	0xbdadf2ce	-0.08493577
31	0x3dc59a67	0.096485905
32	0xbc61ccae	-0.01378171
33	0x3e55c93f	0.2087755
34	0x3e917a65	0.28413692
35	0xbd2a2e91	-0.041548315
36	0x3d06a7e9	0.032874975
37	0xbd2404ee	-0.040043764
38	0x3d0de62a	0.03464333
39	0xbc467122	-0.012111934
40	0x3e05ab03	0.13053517
41	0xbdf185a6	-0.117930695
42	0x3cc38f24	0.023871966
43	0xbdb5c1da	-0.08874865
44	0x3dd25c3a	0.10271497
45	0x3f181b88	0.5941701
46	0xbdb86bff	-0.090049736
47	0x3d358443	0.044315588
48	0x3d0c469e	0.034247033
49	0x3d6a6443	0.057224523
50	0xbd5f5700	-0.05452633
51	0x3c279778	0.010228984
52	0x3d1dd0a3	0.03852905
53	0x3c095d8a	0.008384118
54	0x3d6c4901	0.05768681
55	0x3e6afd76	0.2294825
56	0x3d5431e9	0.05180541
57	0x3cc68fc0	0.024238467
58	0xbd4cf2c0	-0.050036192
59	0xbe9e75a4	-0.30949128
60	0xbc8e0015	-0.017334023
61	0xbd2baaad	-0.041910816
62	0xbe61500f	-0.22003196
63	0x3f358c4b	0.70917195
64	0xbd9649f1	-0.07338322
65	0x3ebc568f	0.3678479
66	0xbd341acd	-0.04397087
67	0xbd273db5	-0.040830333
68	0x3aa59687	0.0012633362
69	0xbdf7c517	-0.12098139
70	0xbd9fdc73	-0.07805719
71	0x3d21fad7	0.03954586
72	0x3d43762d	0.047720123
73	0xbdb85320	-0.0900023
74	0xbda8c2f9	-0.08240313
75	0x3daf5aae	0.08562218
76	0x3d5dfa93	0.054194044
77	0x3d5340a2	0.05157531
78	0xbe980686	-0.29692477
79	0x3cb2fcda	0.021849085
80	0x3d9f065c	0.07764885
81	0x3e5bb701	0.21456529
82	0x3d34de39	0.04415724
83	0x3daca5e8	0.084300816
84	0xbd941bd4	-0.0723187
85	0xbd22bfc6	-0.03973367
86	0x3c3d0c03	0.011538508
87	0x3ed46b8f	0.4148831
88	0x3caa56a4	0.020793267
89	0xbd911d14	-0.07085624
90	0x3cced433	0.025247669
91	0xbd948ea4	-0.07253769
92	0xbd1d0aa7	-0.038340237
93	0x3d0d9d83	0.034574043
94	0x3d1712d3	0.036883187
95	0xbe0dd8bf	-0.13852213
96	0x3d6fae3a	0.058515765
97	0xbdf967ce	-0.12178002
98	0xbb3013c2	-0.0026867245
99	0x3e342ad0	0.17594457
100	0xbc5cb80d	-0.0134716155
101	0x3d0d4839	0.034492705
102	0xbd25063d	-0.040289152
103	0xbdb16ff5	-0.08663932
104	0xbdba23a2	-0.09088828
105	0xbdbc32f7	-0.09189408
106	0x3ef5a93f	0.47980687
107	0xb91602c9	-0.00014306152
108	0x3d9306df	0.07179045
109	0x3d348c59	0.04407916
110	0x3d9cf911	0.07664693
111	0xbc37fe32	-0.0112300385
112	0xbd63568e	-0.055502467
113	0x3c162275	0.009163489
114	0xbd6ccd60	-0.05781305
115	0x3cbc2352	0.02296606
116	0xbcfc08bf	-0.03076589
117	0xbd95ab14	-0.07308021
118	0xbc976cf6	-0.018484574
119	0x3e5023aa	0.20326105
120	0xbdb1f5fc	-0.08689496
121	0xbaf42abe	-0.0018628461
122	0x3cc370ea	0.023857553
123	0xbd5f9538	-0.054585665
124	0x3cb16ab5	0.021657327
125	0xbd90439b	-0.07044145
126	0x3d4f840c	0.05066304
127	0xbd20a4a3	-0.03921951

critic.2.weight f4 [64, 128]
0	0xbee8edfe	-0.45494074
1	0x3e04d271	0.12970902
2	0xbd28c514	-0.041203573
3	0x3ef3fa93	0.4765211
4	0x3f0877b5	0.5330766
5	0xb9d8389b	-0.00041240905
6	0xbe0004f5	-0.12501891
7	0xbe06203e	-0.13098237
8	0x3e41ceeb	0.18926589
9	0xbef43260	-0.47694683
10	0xbd3cc3ff	-0.046085354
11	0x3e0121aa	0.12610498
12	0x3da04e0b	0.078273855
13	0xbdffad99	-0.12484283
14	0x3c8405bb	0.016116014
15	0xbe4ef4d5	-0.20210584
16	0xbed25697	-0.41081688
17	0xbb997342	-0.0046829293
18	0xbc8a29a0	-0.016865551
19	0x3e406734	0.18789369
20	0xbec2c396	-0.38039845
21	0xbd15a63a	-0.03653548
22	0x3ddfea52	0.10933365
23	0x3e11d936	0.14243016
24	0x3d5029eb	0.050821226
25	0xbdbd2b1b	-0.09236737
26	0x3e160791	0.14651324
27	0x3e842294	0.2580763
28	0xbf004549	-0.5010572
29	0x3dd7e503	0.105417274
30	0xbde42db2	-0.11141528
31	0x3f035460	0.5130062
32	0xbe1c4728	-0.15261519
33	0x3e8c2f11	0.2737966
34	0x3e3e2936	0.18570408
35	0x3e758eef	0.23980306
36	0x3e93abb5	0.2884194
37	0x3ea9c80e	0.33160442
38	0x3e5bb9d0	0.214576
39	0xbe79007f	-0.24316595
40	0xbc97abee	-0.0185146
41	0xbe0debee	-0.13859531
42	0x3dd9edd5	0.10641066
43	0x3eb39892	0.3507734
44	0x3ec40900	0.38288116
45	0x3eb38fa3	0.35070524
46	0xbce22e42	-0.027609948
47	0xbe3dac36	-0.18522725
48	0xbe841eef	-0.2580485
49	0xbd83854e	-0.0642191
50	0xbd20fd7c	-0.03930424
51	0x3d232d01	0.03983784
52	0x3ea5552f	0.32291552
53	0x3d4a5bba	0.049403884
54	0xbeaba45a	-0.33523828
55	0x3e0d0507	0.13771449
56	0xbe71789d	-0.23581167
57	0x3e8d1f54	0.27562964
58	0xbe998024	-0.29980576
59	0x3e16984f	0.14706539
60	0x3d913f65	0.0709217
61	0x3d0920f1	0.03347868
62	0xbeb2aa93	-0.34895763
63	0xbf158191	-0.5840083
64	0xbdf8d359	-0.12149686
65	0x3e5e2ae2	0.21696046
66	0x3e3a10e2	0.18170503
67	0xbe771226	-0.24128017
68	0xbd287614	-0.041128233
69	0xbe185537	-0.14876257
70	0x3eae8517	0.34085914
71	0x3e9f753f	0.3114414
72	0x3d43a34a	0.047763146
73	0x3e83738b	0.2567409
74	0xbceb744c	-0.028741978
75	0xbdfad2ff	-0.122472756
76	0x3d7ec355	0.062198002
77	0x3d2afa91	0.041742865
78	0x3ca4ec3a	0.020132173
79	0xbf2d6ec7	-0.6774716
80	0xbd2a1e93	-0.041533064
81	0xbd8430c3	-0.06454613
82	0xbe0124ed	-0.12611742
83	0x3e3e6549	0.18593325
84	0xbd85b6fc	-0.06529042
85	0xbee292a7	-0.44252512
86	0xbe603e9c	-0.21898884
87	0xbc8cb6d1	-0.017177017
88	0xbe961317	-0.2931144
89	0x3edc7a91	0.4306226
90	0xbe098410	-0.13429284
91	0xbdc9a02c	-0.098450035
92	0x3e9d35bc	0.3070506
93	0x3eb4a2f6	0.3528058
94	0xbd262e98	-0.04057178
95	0x3e3f3ce2	0.18675569
96	0xbdfeb106	-0.12436108
97	0xbee04cc9	-0.43808582
98	0x3e44695b	0.19180815
99	0x3d84457f	0.06458568
100	0x3ee312e7	0.4435036
101	0xbeaef11c	-0.34168327
102	0xbdc66d3d	-0.09688804
103	0x3e117c42	0.14207557
104	0x3d70968b	0.05873732
105	0x3e02fb6c	0.12791222
106	0x3ddde6d1	0.1083504
107	0x3d37ad80	0.044843197
108	0xbe9439c1	-0.28950313
109	0x3f08b378	0.5339885
110	0xbeb98b82	-0.3623925
111	0xbc1791eb	-0.009251098
112	0x3e2e6927	0.170323
113	0x3e652599	0.22377624
114	0xbe2b8007	-0.16748057
115	0x3d229d4b	0.039700788
116	0xbde50466	-0.111824796
117	0x3e35de59	0.177606
118	0xbda43e4a	-0.08019693
119	0x3bf06134	0.0073358063
120	0x3f4764da	0.7788826
121	0x3dd0c284	0.10193351
122	0x3e0fefec	0.14056367
123	0xbe652f3d	-0.22381301
124	0xbdbe2e6d	-0.09286199
125	0xbc5c1695	-0.013433118
126	0x3b90326b	0.0044005415
127	0xbe72a21a	-0.2369465
128	0x3e09e490	0.13466096
129	0xbd53403a	-0.051574923
130	0x3d20f3d3	0.03929503
131	0x3e5db85e	0.21652362
132	0xbeb6c5de	-0.35697836
133	0xbdbef8e2	-0.093248144
134	0x3db63142	0.08896114
135	0x3eb8ee49	0.36119297
136	0xbf37d355	-0.7180684
137	0xbe8a99c7	-0.27070448
138	0xbdb8fbe0	-0.09032416
139	0xbf3e6151	-0.74367243
140	0x3e1b7af7	0.15183626
141	0xbf303595	-0.6883176
142	0xbde05216	-0.10953157
143	0xbeb879d4	-0.36030447
144	0x3ec3dfa0	0.3825655
145	0x3e727b1c	0.23679775
146	0x3b2ac8f1	0.0026059712
147	0x3d76cffb	0.06025694
148	0x3f16fc12	0.5897838
149	0xbdbbd364	-0.09171179
150	0x3eb85e59	0.36009482
151	0xbdc024b2	-0.09381999
152	0xbca0864d	-0.01959529
153	0xbeb5ceed	-0.35509434
154	0x3e290086	0.16504106
155	0xbf4a0c66	-0.7892517
156	0x3c0d84c5	0.008637612
157	0xbe48fd68	-0.19627917
158	0x3e005605	0.12532814
159	0x3de305dd	0.11085103
160	0xbe80f71a	-0.25188524
161	0xbe2625b7	-0.16225325
162	0xbc039ce4	-0.008033011
163	0xbe618e8d	-0.22027035
164	0xbee2db0d	-0.44307747
165	0xbdf9d7c3	-0.121993564
166	0x3ea019bc	0.31269634
167	0xbedf9e48	-0.43675447
168	0x3f24bc06	0.643494
169	0xbe9405af	-0.28910586
170	0xbf491d24	-0.7856009
171	0xbddac573	-0.10682192
172	0xbdf4467b	-0.119275056
173	0xbe8d38ae	-0.27582306
174	0xbd599111	-0.05311686
175	0x3e6087f1	0.21926858
176	0xbee2f924	-0.44330704
177	0x3d08a466	0.033359908
178	0x3d22c355	0.039737064
179	0xbeb49b28	-0.35274625
180	0x3d7299f9	0.05922887
181	0x3eb5bc8c	0.35495412
182	0xbe6f1cf8	-0.23350894
183	0xbebbf217	-0.36708137
184	0x3e91a06e	0.2844271
185	0x3ebe6915	0.37189546
186	0xbce98b58	-0.028508827
187	0x3b5570bc	0.0032568416
188	0xbd24cf4e	-0.040236764
189	0x3ec55255	0.38539377
190	0xbef3fa53	-0.4765192
191	0x3e245124	0.16046578
192	0xbd81ce02	-0.06338121
193	0xbe862c65	-0.26205745
194	0x3e1b989b	0.15194933
195	0xbdaa5623	-0.083172105
196	0xbc8a6d10	-0.016897708
197	0x3f114c2d	0.5675686
198	0x3dc1068d	0.094250776
199	0xbe537ebc	-0.20653814
200	0x3e5a2192	0.21301869
201	0x3d632236	0.055452548
202	0xbec34f82	-0.38146597
203	0xbe140ff5	-0.14459212
204	0x3de56739	0.11201329
205	0x3f3c4f22	0.7355825
206	0x3e9724e7	0.29520342
207	0x3ed4c340	0.41555214
208	0xbcc9c155	-0.02462832
209	0xbe33607d	-0.17517276
210	0x3d8c4b94	0.06850353
211	0xbe6a3c09	-0.22874464
212	0xbe9e2bb2	-0.30892712
213	0x3e7df7a0	0.24801493
214	0x3e9b3b14	0.3031851
215	0xbda6f485	-0.08152107
216	0xbf148a44	-0.58023477
217	0x3dde82a4	0.108647615
218	0xbe8a0cc4	-0.26962864
219	0xbe75b729	-0.23995651
220	0x3e3112dc	0.1729235
221	0xbe898c55	-0.26864877
222	0x3df8705d	0.121308066
223	0xbdb8e973	-0.09028902
224	0xbe97627e	-0.2956733
225	0xbe849233	-0.2589279
226	0xbe82fe5c	-0.25584686
227	0x3eb63d3e	0.355936
228	0x3e49b5d8	0.19698274
229	0x3ea428f9	0.3206251
230	0x3eb8286b	0.35968336
231	0x3d76a31b	0.060214143
232	0x3e866ff6	0.26257294
233	0xbece19c5	-0.40254036
234	0xbe98eb71	-0.29867128
235	0x3c62b7be	0.013837753
236	0xbc8c1db7	-0.017104013
237	0xbed50c5d	-0.41610995
238	0x3f2551ab	0.6457774
239	0x3f23fdb6	0.6405901
240	0xbd3133f4	-0.043262437
241	0xbea576ed	-0.32317296
242	0xbf468372	-0.7754432
243	0xbc9427ae	-0.018085327
244	0xbcd4de4f	-0.025984911
245	0x3f075998	0.52871084
246	0xbdd574ce	-0.10422669
247	0xbe81aa6c	-0.25325334
248	0xbd971f73	-0.07379045
249	0x3da8e0e6	0.08246021
250	0x3de8b2a2	0.113621965
251	0xbe206a2f	-0.15665506
252	0x3e559094	0.20855933
253	0xbc6d0751	-0.014467076
254	0xbe9b96a6	-0.30388373
255	0x3f0f1f16	0.5590681

critic.2.bias f4 [64]
0	0x3e8a66c2	0.27031523
1	0xbe5c79ae	-0.21530792
2	0xbf0f947d	-0.5608595
3	0x3f007ee4	0.5019362
4	0x3f03c4cf	0.5147218
5	0xbeaa6131	-0.33277276
6	0x3de5705b	0.11203071
7	0xbe15f0a5	-0.1464258
8	0xbe2550bf	-0.16144083
9	0x3d0bb986	0.034112476
10	0x3e18d642	0.14925483
11	0x3e87dcd8	0.26535678
12	0x3e02b2c5	0.12763508
13	0xbe8f4551	-0.27982572
14	0x3e478ec8	0.1948806
15	0x3e67ae33	0.22625045
16	0x3eab188c	0.33417165
17	0x3edb0e18	0.4278419
18	0x3e936dc6	0.28794688
19	0x3dbff601	0.093730934
20	0xbe364023	-0.17797904
21	0x3e2a0ece	0.1660721
22	0x3eea9853	0.4581934
23	0x3c8c51d3	0.01712886
24	0xbe853074	-0.2601353
25	0xbe2d56d4	-0.16927654
26	0x3e985802	0.29754645
27	0x3e0ffcba	0.14061251
28	0x3ea55854	0.32293952
29	0x3eb1e7a5	0.34747043
30	0xbe10395f	-0.14084385
31	0xbd5725a0	-0.052526116
32	0x3e355d98	0.17711484
33	0x3e850473	0.25979957
34	0xbd7c307e	-0.061569683
35	0xbeacf6e5	-0.33782116
36	0xbebec893	-0.372624
37	0x3e2048a0	0.15652704
38	0x3e5cd87f	0.21566962
39	0xbe172300	-0.14759445
40	0xbf472ea2	-0.7780553
41	0x3e28a934	0.16470796
42	0x3ea0c715	0.31401888
43	0x3dfdf81a	0.12400837
44	0x3d0b658c	0.03403239
45	0x3e36b698	0.17843091
46	0xbeb78ad4	-0.35848105
47	0x3d350c3b	0.044201117
48	0x3db60ebf	0.08889531
49	0x3e4b7cbe	0.19871804
50	0xbdeaf32a	-0.11472161
51	0x3e4ecb21	0.20194675
52	0x3e81e8e9	0.2537301
53	0xbcf1ec5a	-0.029531647
54	0x3e32a97c	0.17447466
55	0xbdee292d	-0.116289474
56	0x3ef131f8	0.47108436
57	0x3ec2fd3a	0.38083822
58	0x3e5a252a	0.2130324
59	0x3e83e9d5	0.25764337
60	0xbd849705	-0.06474117
61	0x3c8bd7f1	0.017070742
62	0xbdcc1aba	-0.09966035
63	0xbe9c9d15	-0.30588594

critic.4.weight f4 [1, 64]
0	0x3ed86321	0.4226313
1	0xbe96e64a	-0.29472572
2	0xbe991827	-0.2990124
3	0x3e80f6f5	0.25188413
4	0x3fe0dd9d	1.7567631
5	0xbe590891	-0.21194674
6	0xbeda9b5b	-0.42696652
7	0xbe8ee91d	-0.27912226
8	0xbefc69fc	-0.4929961
9	0x3e6ba0d6	0.23010573
10	0x3e88a276	0.26686448
11	0x3e342142	0.17590812
12	0x3ed8173b	0.42205223
13	0xbe6ad019	-0.22930945
14	0x3e2b410e	0.16724035
15	0x3e5cf371	0.2157724
16	0x3e92a3ad	0.286405
17	0x3eb0bce0	0.345191
18	0x3e9c2eed	0.30504552
19	0x3e57ac01	0.21061708
20	0x3ef42359	0.47683218
21	0xbee849a5	-0.45368686
22	0x3ec09d43	0.3761998
23	0xbe6e3e7d	-0.23266025
24	0xbeb28394	-0.3486601
25	0xbe4ff7d7	-0.20309387
26	0x3e7fc112	0.24975994
27	0x3ee3dba2	0.44503504
28	0x3e0b8f01	0.1362877
29	0x3ea18e39	0.3155382
30	0xbe9a6ab0	-0.3015952
31	0x3e735c50	0.23765683
32	0x3ea4b95e	0.32172674
33	0x3ec37996	0.381787
34	0xbec724f8	-0.38895392
35	0xbf83707b	-1.0268701
36	0xbeb3b7b7	-0.351011
37	0x3f1f3b69	0.6220003
38	0xbf046f30	-0.5173216
39	0xbf474ffa	-0.7785641
40	0xbfd0eef7	-1.6322926
41	0x3e6c8d31	0.23100735
42	0x3e5c772c	0.21529835
43	0xbf0deeee	-0.554427
44	0xbe6f4abe	-0.23368356
45	0x3e742ae0	0.2384448
46	0xbe6bc6f7	-0.23025118
47	0xbe65f131	-0.22455288
48	0x3e421810	0.18954492
49	0x3e62d61f	0.22151993
50	0xbe2f3b67	-0.17112504
51	0x3ef8c3f3	0.48586997
52	0x3eca0871	0.39459565
53	0x3e635e75	0.22204001
54	0x3f7dea2b	0.99185437
55	0xbeac53d5	-0.3365771
56	0x3f225a19	0.6341873
57	0x3e67a149	0.22620119
58	0x3ee62c5a	0.44955713
59	0x3e4065e5	0.1878887
60	0xbe84296f	-0.2581286
61	0xbeac9005	-0.33703628
62	0xbe5715e1	-0.2100444
63	0xbea39072	-0.3194614

actor.0.weight f4 [128, 13]
0	0xbd5af687	-0.053457763
1	0xbe5856d3	-0.21126871
2	0x3ee0b579	0.43888453
3	0xbed0622b	-0.40699896
4	0x3f11b40b	0.5691535
5	0xbf1972b5	-0.59940654
6	0xbe7607d6	-0.24026427
7	0x3da138ef	0.07872187
8	0x3ebfa428	0.3742993
9	0xbf070273	-0.5273811
10	0xbeae5da7	-0.34055826
11	0x3eddc9d1	0.43318036
12	0x3e01a981	0.12662317
13	0x3dfcef19	0.12350292
14	0x3d797364	0.06090106
15	0xbd4c3dee	-0.04986375
16	0x3c4ef62b	0.012631933
17	0xbe37e33c	-0.17957777
18	0x3ea17d0e	0.31540722
19	0xbea73e62	-0.32664782
20	0x3e29fbed	0.16600008
21	0xc00710d7	-2.1104028
22	0xbf031efd	-0.5121916
23	0x3d25e916	0.04050549
24	0x3e832fde	0.25622457
25	0xbd22d88d	-0.0397573
26	0xbd83416a	-0.06408961
27	0xbec002af	-0.37502047
28	0x3ede3c68	0.4340546
29	0xbebf1a29	-0.37324646
30	0x3eca0c4d	0.3946251
31	0x3ec1f597	0.37882683
32	0xbdc0220e	-0.093814954
33	0x3d58e98a	0.052957095
34	0x3f626591	0.8843623
35	0xbeca8e36	-0.39561623
36	0xbed43d11	-0.4145284
37	0x3e8be1a7	0.27320597
38	0x3e33b893	0.17550878
39	0x3db7eeff	0.08981132
40	0xbd999e0c	-0.07500848
41	0xbefb12c7	-0.49037763
42	0xbd717f83	-0.058959495
43	0x3de205c0	0.11036253
44	0x3fcc9e2e	1.5985773
45	0x3dc19fd0	0.0945431
46	0xbd1cc291	-0.03827149
47	0x3efd8e48	0.49522614
48	0xbe2c6f5d	-0.16839357
49	0x3d9afac9	0.07567365
50	0x3e23af1f	0.15984772
51	0xbe12f4d8	-0.14351213
52	0x3e3cb722	0.18429235
53	0xbf258531	-0.6465636
54	0xbc1cc089	-0.009567388
55	0x3e631098	0.22174299
56	0xbe22307d	-0.1583881
57	0xbeb0859a	-0.3447693
58	0x3eb81687	0.35954687
59	0xbec61398	-0.38686824
60	0xbe8bc661	-0.2729979
61	0xbedfd7e3	-0.43719396
62	0xbe8e58eb	-0.27802214
63	0xbd6addfe	-0.057340614
64	0x3e6ac376	0.22926125
65	0x3ca06970	0.019581527
66	0xbc87122d	-0.01648816
67	0xbd10b4bf	-0.035328623
68	0xbec42158	-0.3830669
69	0xbf763a4c	-0.96182704
70	0xbf5a435b	-0.85259026
71	0x3da2b92c	0.07945475
72	0x3d9b0c7d	0.07570741
73	0xbf4947f5	-0.7862542
74	0xbf34411f	-0.70411867
75	0xbea62918	-0.32453227
76	0x3ef654c0	0.48111534
77	0xbeaf4411	-0.34231618
78	0xbe5c18b9	-0.21493806
79	0x3e390a1e	0.18070266
80	0xbde06f9e	-0.10958789
81	0x3bf5b348	0.0074981786
82	0x3f0a1b45	0.5394786
83	0xbf025cf6	-0.509231
84	0xbf04618d	-0.5171135
85	0x3ee11bc1	0.43966487
86	0xbe13235f	-0.14368962
87	0x3eca1004	0.39465344
88	0x3db01b98	0.08599013
89	0xbe7d2e82	-0.24724773
90	0xbc79191e	-0.015203742
91	0xbe1b0256	-0.1513761
92	0xbeefb061	-0.46814254
93	0xbe77be2f	-0.24193643
94	0x3dc96688	0.098340094
95	0x3f54c001	0.83105475
96	0xbf31754f	-0.69319624
97	0xbd9bad86	-0.07601456
98	0xbf054a31	-0.5206633
99	0xbeb8ed07	-0.36118338
100	0xbeb309a3	-0.3496829
101	0xbe7cb6f3	-0.24679165
102	0xbcbec0ac	-0.023285232
103	0xbe3cb7eb	-0.18429534
104	0xbda02fa1	-0.078215845
105	0xbe15307b	-0.14569275
106	0x3f6ee5dc	0.9331949
107	0xbdcf5070	-0.10122764
108	0x3eb7a6c8	0.35869431
109	0x3e9abd59	0.30222586
110	0x3e2f2470	0.17103744
111	0x3be2f144	0.0069257338
112	0x3f4190d5	0.7561162
113	0xbe21948a	-0.1577932
114	0xbea7141f	-0.3263254
115	0x3d9d38bf	0.07676839
116	0x3d9bf29f	0.07614636
117	0xbc891faf	-0.01673874
118	0x3e873b4e	0.26412433
119	0xbeabb7e6	-0.3353874
120	0xbea85b19	-0.32882002
121	0xbf154594	-0.5830929
122	0xbf3b9ca2	-0.7328588
123	0x3e9d8637	0.3076646
124	0xbe168e61	-0.1470275
125	0x3fa4a606	1.2863166
126	0x3f1d0b9b	0.61345834
127	0xbf0f2339	-0.5591312
128	0x3f19fe20	0.6015339
129	0xbeb81bfc	-0.3595885
130	0x3e347cf7	0.17625795
131	0xbedaf8e3	-0.4276801
132	0xbf0d884c	-0.552861
133	0x3ecbc2e2	0.3979712
134	0xbf1df71c	-0.61705184
135	0x3df71e44	0.120663196
136	0x3d31c52e	0.043400936
137	0xbd39a0d0	-0.04531938
138	0x3f312659	0.6919914
139	0xbe6f30b0	-0.23358417
140	0x3f3795b7	0.7171282
141	0xbf19369a	-0.5984894
142	0x3e4fab8a	0.2028028
143	0x3de8f059	0.11373968
144	0xbcc837ab	-0.024440607
145	0x3bd7f2f5	0.006590242
146	0x3d53937a	0.051654316
147	0x3e6d317e	0.23163411
148	0xbe5e99e0	-0.21738386
149	0xbe60af09	-0.2194177
150	0xbd1fa062	-0.038971312
151	0xc026c430	-2.6057243
152	0xbd99455e	-0.07483934
153	0xbce7ef42	-0.02831233
154	0xbdde8de9	-0.10866911
155	0xbd11166f	-0.035421785
156	0xbc8c717b	-0.017143955
157	0xbe865efc	-0.26244342
158	0xbee119df	-0.4396505
159	0x3e4c41d4	0.19946986
160	0x3f45f585	0.7732776
161	0xbfa816c0	-1.3131943
162	0x3bfbae1b	0.007680667
163	0x3e0c0dce	0.13677141
164	0xbd8151a4	-0.063144
165	0x3ec47823	0.38372907
166	0xbdbdf25b	-0.09274741
167	0xbdb71668	-0.089398205
168	0x3d256ec2	0.04038883
169	0x3d08a27d	0.033358086
170	0xbe820482	-0.25394064
171	0x3d871443	0.065956615
172	0xbe026cd2	-0.12736824
173	0x3f96c16a	1.1777775
174	0xbf83b414	-1.028933
175	0xbeba3251	-0.36366513
176	0x3edc24d0	0.42996836
177	0xbf823d8c	-1.0175033
178	0x3f3d5e82	0.7397233
179	0x3dc16902	0.09443857
180	0x3eb7a26a	0.358661
181	0xbe026c97	-0.12736736
182	0x3e45c337	0.1931275
183	0x3e741a62	0.23838189
184	0xbc8f6c42	-0.017507676
185	0xbe335d90	-0.1751616
186	0x3f3f4807	0.7471928
187	0x3e9275a9	0.28605393
188	0x3ed20ddb	0.41026196
189	0x3e988ddd	0.29795733
190	0xbefd9416	-0.49527043
191	0x3f17cda3	0.5929815
192	0x3ecc6970	0.39924192
193	0x3eaba86d	0.33526936
194	0xbf3ee767	-0.7457184
195	0x3e6d9543	0.2320147
196	0x3e5b16a7	0.2139536
197	0xbe5e2e00	-0.21697235
198	0x3e0c808a	0.13720909
199	0xbf1159e6	-0.567778
200	0x3f471dd7	0.77779907
201	0x3c181afa	0.009283775
202	0xbea3aa04	-0.3196565
203	0x3f6c4f5a	0.9230858
204	0xbf2f7294	-0.6853421
205	0xbe625296	-0.22101817
206	0x3e9a2b71	0.30111268
207	0x3ec19374	0.3780781
208	0x3c4fd163	0.012684199
209	0xbd9b8abf	-0.07594823
210	0x3ec8f7b0	0.3925147
211	0x3e318177	0.17334543
212	0x3ee930b1	0.4554496
213	0x3e4a6b8e	0.19767591
214	0xbe0d462b	-0.13796298
215	0x3ad8c59a	0.0016538382
216	0xbfc66f05	-1.550263
217	0xbef9994b	-0.48749766
218	0x3f255e5e	0.6459712
219	0xbecf92d5	-0.4054171
220	0xbdccc978	-0.099993646
221	0x3e8fd298	0.28090358
222	0x3e1aedcb	0.15129773
223	0x3e20f462	0.15718225
224	0xbeff22ea	-0.49831325
225	0x3f1db5fc	0.6160581
226	0xbe6039ef	-0.218971
227	0xbe1b03d1	-0.15138175
228	0x3e8924fd	0.26786032
229	0xbed8e24b	-0.42360148
230	0x3f37f98c	0.71865153
231	0x3dd80159	0.10547132
232	0x3e191b06	0.14951715
233	0x3e75b575	0.23995002
234	0xbd124285	-0.03570797
235	0xbf195100	-0.5988922
236	0xbe15c2d0	-0.14625096
237	0x3eb2da27	0.34932062
238	0xbd594e4e	-0.053053193
239	0x3ec02897	0.37530968
240	0xbdbe2db0	-0.09286058
241	0x3da80ae9	0.08205206
242	0xbf88e986	-1.0696266
243	0xbe59e835	-0.21279986
244	0x3dc4be06	0.096065566
245	0xbec6cc82	-0.38827902
246	0x3f1b1ee2	0.60594
247	0x3dc868a0	0.09785581
248	0xbc272301	-0.010201217
249	0xbe181305	-0.14851005
250	0x3e5860d9	0.21130694
251	0x3f02adfc	0.5104673
252	0x3efb05fa	0.49027997
253	0x3f2ef5bd	0.68343717
254	0x3dd230cf	0.10263216
255	0x3e4acb11	0.19804026

actor.0.bias f4 [128]
0	0xbcfaa201	-0.030594828
1	0x3e54f557	0.20796715
2	0xbd242ccd	-0.040081788
3	0xb92069eb	-0.00015298247
4	0x3dc8c475	0.09803096
5	0xbdc57308	-0.09641081
6	0xbdb5dcab	-0.0887998
7	0xbd7cb395	-0.0616947
8	0xbe003c3e	-0.1252298
9	0x3dc82268	0.097721875
10	0x3e6f976b	0.23397605
11	0xbc218205	-0.009857659
12	0xbcd7667a	-0.026293982
13	0x3d894e60	0.06704402
14	0x3df9a7c0	0.12190199
15	0x3e89c1b5	0.269056
16	0x3d0df6c1	0.03465915
17	0x3d250a1e	0.04029285
18	0x3d4ce645	0.05002429
19	0x3cec5d8a	0.028853197
20	0x3e35e034	0.17761308
21	0x3e668472	0.22511461
22	0xbddf875e	-0.10914491
23	0xbc983d4f	-0.018583922
24	0x3e5ce1c2	0.21570495
25	0xbe811edb	-0.25218853
26	0xbe1462d6	-0.14490828
27	0x3e978fe7	0.29601976
28	0xbe6d7770	-0.23190093
29	0x3cf48886	0.029850256
30	0xbdc78c9a	-0.097436145
31	0x3bd85e7b	0.00660306
32	0xbe7f1e1c	-0.2491383
33	0x3da2da51	0.07951797
34	0xbd32db7f	-0.04366636
35	0xbd09e070	-0.033661306
36	0x3e54fea7	0.20800267
37	0x3cb7fe9e	0.022460278
38	0x3e273f09	0.1633264
39	0x3def091f	0.116716616
40	0xbda87056	-0.082245514
41	0x3e947971	0.28998902
42	0xbd756d6d	-0.05991881
43	0xbc8b200e	-0.016983058
44	0x3e4d1f96	0.2003158
45	0x3dc5f90a	0.09666641
46	0xbe0b9e94	-0.13634712
47	0xbe26717b	-0.16254227
48	0x3d3d3e4c	0.04620199
49	0x3e253940	0.1613512
50	0xbe811ac4	-0.25215733
51	0x3e5ea7e2	0.2174373
52	0x3db13561	0.08652759
53	0xbd2b88be	-0.041878454
54	0x3bc53369	0.0060180915
55	0x3da6901a	0.08132954
56	0xbda535ea	-0.08066924
57	0x3e6de699	0.23232497
58	0x3e48c396	0.1960586
59	0xbbb68ce8	-0.0055709966
60	0xbe080213	-0.13282041
61	0xbe29c018	-0.16577184
62	0x3bedab8d	0.0072531165
63	0x3ea7bc0e	0.32760662
64	0x3e76ae5d	0.24089952
65	0x3de540d0	0.11194003
66	0xbe1f686a	-0.15567175
67	0x3dde7885	0.10862831
68	0xb905c210	-0.00012756162
69	0xbd64eea9	-0.055891667
70	0x3ee23c00	0.441864
71	0x3df23795	0.11827008
72	0xbd7decd5	-0.06199344
73	0x3dfef680	0.1244936
74	0xbe07109a	-0.13189927
75	0xbe38ef1e	-0.18059966
76	0x3e1686da	0.1469988
77	0xbe1f3180	-0.15546227
78	0xbda5e691	-0.08100618
79	0x3e21eea2	0.15813687
80	0x3de9e5ba	0.1142077
81	0xbe2f399d	-0.17111821
82	0xbe0cac89	-0.13737692
83	0x3d44790e	0.04796701
84	0x3e7b7ca5	0.24559267
85	0xbe0b044d	-0.1357586
86	0x3e2aa82d	0.16665716
87	0x3ce9220e	0.028458621
88	0x3e67f378	0.2265147
89	0x3c1831ad	0.009289187
90	0xbe09cf3f	-0.13457964
91	0x3dc1a905	0.09456066
92	0xbddc6440	-0.10761309
93	0x3c86f20b	0.016472837
94	0x3d9dce5a	0.07705374
95	0x3e592190	0.2120421
96	0xbe84d6bf	-0.25945088
97	0x3e1cad3d	0.1530046
98	0xbe7993dd	-0.24372812
99	0x3e5d069f	0.21584557
100	0xbe4b31ac	-0.19843167
101	0xbd4c31e3	-0.049852263
102	0x3e02f5c5	0.12789066
103	0x3e5f983b	0.21835415
104	0xbd8f2e91	-0.06991304
105	0xbd05227c	-0.03250359
106	0x3b811144	0.003938826
107	0x3deea5d6	0.116527244
108	0x3d98a48c	0.0745326
109	0xbd6f26d6	-0.058386646
110	0xbc59f840	-0.013303816
111	0xbda4d6a3	-0.08048751
112	0x3ca90cd4	0.020636
113	0xbe8228dc	-0.25421798
114	0x3dc89c45	0.09795431
115	0x3d7d1c0b	0.061794322
116	0xba747f8c	-0.00093268673
117	0x3e0ee3db	0.13954107
118	0x3cf8e193	0.030381
119	0x3e2980a1	0.16552974
120	0x3e3af32d	0.18256827
121	0xbd9726c1	-0.073804386
122	0x3e65178c	0.22372264
123	0xbdb8bec5	-0.090207614
124	0x3dda6da1	0.10665441
125	0xbe044fca	-0.12921062
126	0xbe03c602	-0.12868503
127	0xbca69f6d	-0.020339692

actor.2.weight f4 [64, 128]
0	0x3e1ef5ca	0.15523449
1	0x3f58b601	0.84652716
2	0xbde1b148	-0.11020142
3	0xbde60466	-0.11231308
4	0xbe847603	-0.25871286
5	0x3e1837ba	0.14865008
6	0x3ee1d0fe	0.4410476
7	0x3e058a40	0.1304102
8	0xbe8b3937	-0.2719209
9	0xbe7639f9	-0.24045552
10	0xbd18af46	-0.03727653
11	0x3f564ffa	0.83715785
12	0xbc41f101	-0.011837245
13	0x3e383d86	0.1799222
14	0x3db702d8	0.08936089
15	0xbd2135b1	-0.039357845
16	0xbe6271b6	-0.2211369
17	0xbf0143d8	-0.50494146
18	0xbcd890ac	-0.026436172
19	0xbe3b34f7	-0.18281923
20	0xbecbc860	-0.39801311
21	0x3e585610	0.2112658
22	0x3db7fee0	0.089841604
23	0xbd338c1d	-0.043834794
24	0xbf099816	-0.5374769
25	0x3e4f33c7	0.20234595
26	0x3dfdca61	0.12392116
27	0x3ebce69d	0.36894694
28	0x3ea2737f	0.31728742
29	0xbd855f16	-0.06512277
30	0x3cffe8f4	0.03123901
31	0x3ee526c6	0.44756144
32	0x3e30de17	0.1727222
33	0x3e08a187	0.13342868
34	0x3e7b0275	0.24512656
35	0xbdc7b2b4	-0.09750882
36	0xbe7fc3a1	-0.2497697
37	0x3d13af93	0.036056112
38	0x3ef28ed7	0.47374603
39	0x3c19553e	0.009358702
40	0xbd4dda7a	-0.050257184
41	0xbeae11fd	-0.339981
42	0x3e1e9dd9	0.15489902
43	0xbe5f7b34	-0.21824342
44	0xbf300d00	-0.68769836
45	0xbd192f16	-0.03739842
46	0x39d4359f	0.00040475742
47	0xbdd73e94	-0.10509983
48	0xbe91e859	-0.2849758
49	0x3e5a8716	0.21340594
50	0x3ed806c5	0.42192665
51	0xbe91923c	-0.2843188
52	0xbf122efa	-0.5710293
53	0x3ccac249	0.024750846
54	0xbf0cc1d0	-0.54983234
55	0x3dfd667c	0.12373063
56	0x3e9c606f	0.30542323
57	0x3e4f4497	0.20241009
58	0x3d890e3f	0.0669217
59	0x3e8af732	0.2714172
60	0x3ccf048f	0.025270728
61	0x3e23f8f5	0.16012938
62	0x3e4bd10f	0.19903968
63	0x3eb8f7f8	0.36126685
64	0xbe4576c5	-0.19283588
65	0xbcfa2170	-0.030533522
66	0x3f0503ad	0.51958734
67	0x3f4885e2	0.7832929
68	0x3d93cd2e	0.07216869
69	0x3e4aff64	0.19823986
70	0xbed4134d	-0.41420975
71	0x3edc76ee	0.43059486
72	0xbe896734	-0.2683655
73	0x3ea551fb	0.3228911
74	0xbe44d744	-0.19222742
75	0x3f2e9d95	0.682092
76	0xbc814a1e	-0.015782412
77	0x3ea99dce	0.33128208
78	0x3d11d474	0.035603
79	0x3c304f46	0.010761088
80	0x3e256897	0.16153179
81	0xbd99d4f2	-0.07511319
82	0xbec6c2fe	-0.38820642
83	0x3f0d3905	0.5516513
84	0xbebed5ff	-0.3727264
85	0xbc0a5bf0	-0.008444771
86	0x3e3de986	0.18546113
87	0x3d8ad273	0.06778421
88	0xbed028a6	-0.40656012
89	0x3d3592cb	0.044329446
90	0x3da55db0	0.0807451
91	0xbe3d433d	-0.1848268
92	0x3e1ffe93	0.15624456
93	0x3e43434f	0.19068645
94	0x3d72d701	0.059287075
95	0x3e90456c	0.28177965
96	0x3d8ef9ce	0.0698124
97	0xbd8d24b0	-0.06891763
98	0xbef19b7f	-0.47188947
99	0xbcd55b65	-0.026044557
100	0x3e7c855b	0.24660246
101	0x3e8e6f28	0.2781918
102	0xbd951c3c	-0.07280776
103	0x3d41e3a3	0.047336232
104	0xbeac92bd	-0.33705702
105	0x3e8181a1	0.25294212
106	0x3e8568ae	0.26056427
107	0x3e86546a	0.26236278
108	0xbe4f98f3	-0.20273189
109	0xbd274382	-0.040835865
110	0xbdb77c4c	-0.089592546
111	0x3eb93c3d	0.3617877
112	0x3d18aeec	0.037276193
113	0x3f037115	0.51344424
114	0xbe44fc1c	-0.19236797
115	0x3d735af4	0.05941291
116	0x3e041964	0.12900311
117	0x3ec52d8e	0.38511318
118	0xbe511508	-0.20418179
119	0xbe671d8e	-0.22569868
120	0x3d14e166	0.03634777
121	0xbd813d30	-0.06310499
122	0xbdce379a	-0.10069199
123	0x3d8cd7e1	0.06877113
124	0xbd74fbfd	-0.059810627
125	0xbf07c555	-0.5303548
126	0x3e005cc6	0.1253539
127	0xbeb644d9	-0.35599402
128	0x3e84fb99	0.25973204
129	0x3def97da	0.11698885
130	0x3ecfc726	0.40581626
131	0xbe88abea	-0.2669366
132	0xbe1ea14b	-0.15491216
133	0xbe11facd	-0.14255829
134	0xbe4150ce	-0.18878481
135	0x3e171f58	0.1475805
136	0xbe324100	-0.17407608
137	0x3dc9f86e	0.09861837
138	0xbed3c221	-0.41359046
139	0x3e64009a	0.22265854
140	0x3e02c2b4	0.12769586
141	0xbe9c6af0	-0.30550337
142	0x3d03402b	0.032043617
143	0xbec10cbd	-0.3770503
144	0xbd6b3ccb	-0.057431024
145	0xbe4048bc	-0.18777746
146	0x3e814b16	0.252526
147	0x3cf5cb2e	0.03000411
148	0xbf1e5208	-0.6184392
149	0x3e5030ac	0.20331067
150	0xbf0fe5e1	-0.5621014
151	0x3e59d0a0	0.2127099
152	0x3d350a9d	0.044199575
153	0xbcf152d4	-0.02945844
154	0xbee7ec01	-0.45297244
155	0x3f295be3	0.66155833
156	0x3d9ca160	0.07647967
157	0xbf02b6a0	-0.51059914
158	0x3db1bf56	0.086790726
159	0x3df9cb10	0.12196934
160	0x3e359f9e	0.1773667
161	0x3ec75389	0.3893092
162	0xbedd5ec8	-0.43236375
163	0x3e8105ec	0.2519983
164	0x3e9b7b95	0.30367723
165	0xbd80c019	-0.0628664
166	0x3e9e506f	0.3092074
167	0xbee2383a	-0.44183522
168	0xbe865389	-0.26235607
169	0xbe38c068	-0.18042147
170	0xbcdb8709	-0.026797788
171	0xbd0045ec	-0.031316683
172	0xbe88c0e1	-0.26709655
173	0xbf185011	-0.5949717
174	0x3e21532f	0.15754388
175	0xbe0e449e	-0.13893363
176	0x3ef9e13a	0.48804647
177	0x3ecd7429	0.40127686
178	0x3ecbc487	0.39798376
179	0xbd80f3c4	-0.062964946
180	0xbf48ccb7	-0.7843737
181	0x3e4326ac	0.19057721
182	0x3e81f0dc	0.25379074
183	0xbef95632	-0.48698574
184	0x3e8b6bc1	0.27230647
185	0xbe55d898	-0.20883405
186	0x3e1aa830	0.15103221
187	0x3ebc9a91	0.36836675
188	0x3cd746dc	0.026278906
189	0x3f0d7a60	0.55264854
190	0xbdafa44b	-0.08576258
191	0xbdbef9d7	-0.09324997
192	0x3db17327	0.08664542
193	0xbe36bdb3	-0.17845802
194	0x3e025934	0.12729341
195	0x3dab4a67	0.083638005
196	0xbb933596	-0.004492472
197	0x3ead56fa	0.3385542
198	0xbf231096	-0.63697183
199	0x3e02dbf5	0.1277922
200	0xbd711270	-0.058855474
201	0xbcd06d95	-0.025442878
202	0x3e2a1441	0.16609289
203	0x3edec972	0.43513066
204	0xbc5fba65	-0.01365528
205	0xbea752a5	-0.3268024
206	0x3e357696	0.17721018
207	0x3d9d13af	0.0766977
208	0x3e9ce9b5	0.30647054
209	0x3ddddb42	0.10832836
210	0xbde74942	-0.1129327
211	0x3d711460	0.05885732
212	0xbe7fdf9f	-0.24987648
213	0xbe6f966c	-0.23397225
214	0xbeea00f1	-0.45703843
215	0xbf1774ed	-0.5916279
216	0xbd7c77f3	-0.06163783
217	0x3d982a79	0.07429976
218	0x3e626854	0.2211011
219	0xbeb3cbb4	-0.3511635
220	0x3eb0ffeb	0.3457025
221	0x3c98ea18	0.018666312
222	0xbe73723a	-0.23774043
223	0xbeb2ce5e	-0.3492307
224	0x3ea69da3	0.32542142
225	0xbe3c2197	-0.18372189
226	0x3d960bfb	0.07326504
227	0xbdce3e15	-0.10070435
228	0xbcffd3c9	-0.031228917
229	0x3f0064b0	0.50153637
230	0x3ea2a3d4	0.31765616
231	0xbe259589	-0.16170324
232	0xbf15e328	-0.5854974
233	0x3e9645fd	0.29350272
234	0xbd949464	-0.07254866
235	0x3e0f63bc	0.1400289
236	0x3e3ee577	0.18642221
237	0x3e3c1282	0.18366435
238	0x3eaddddc	0.33958328
239	0x3d8ceb3b	0.06880804
240	0x3efdfb00	0.4960556
241	0x3e80717e	0.25086588
242	0xbea678d9	-0.32514074
243	0x3aa9bd0a	0.0012950015
244	0xbdf5306c	-0.11972126
245	0xbdefbe92	-0.1170627
246	0xbea9a4fc	-0.33133686
247	0xbd92baba	-0.071645215
248	0x3f21ec11	0.63250834
249	0x3d75f1f0	0.060045183
250	0xbe2a5c8d	-0.16636868
251	0x3e9c30fa	0.30506116
252	0xbe890dc2	-0.2676831
253	0xbe281d8e	-0.16417524
254	0xbe49e167	-0.1971489
255	0xbec0113d	-0.37513152

actor.2.bias f4 [64]
0	0xbdf9f23d	-0.122044064
1	0xbe0978d9	-0.13425006
2	0x3dbba25d	0.09161828
3	0xbd89fefd	-0.06738088
4	0xbe2e176a	-0.1700112
5	0x3e964e77	0.2935674
6	0xbe9f6bd8	-0.31136966
7	0xbe5dba80	-0.21653175
8	0x3dd1b8a0	0.102402925
9	0x3d6bacd9	0.057537887
10	0x3dc6a47d	0.096993424
11	0x3deb916c	0.115023464
12	0x3d327fb2	0.04357881
13	0x39a982a2	0.0003233152
14	0x3e036bd4	0.12834102
15	0x3dea8a8e	0.114522085
16	0x3ecc9e20	0.3996439
17	0xbe4291a2	-0.19000867
18	0xbdfdf06c	-0.123993725
19	0x3e79b85d	0.24386735
20	0xbdb23662	-0.08701779
21	0xbe87ac87	-0.26498815
22	0xbe3a6e6e	-0.18206188
23	0x3da66230	0.081241965
24	0xbe92c123	-0.28662977
25	0xbe2726ad	-0.16323347
26	0x3ea75ace	0.32686466
27	0xbe4bcf60	-0.19903326
28	0x3ce31e22	0.02772433
29	0xbe6c2797	-0.23061977
30	0xbe7d30bd	-0.24725623
31	0xbded9c33	-0.11602058
32	0x3d1bdf93	0.038055014
33	0xbc20f1de	-0.009823291
34	0x3d152446	0.036411546
35	0x3d92a5b0	0.07160509
36	0x3e1aeb07	0.15128718
37	0x3eb15c4b	0.34640726
38	0xbb65b406	-0.003504993
39	0x3eb6de52	0.35716492
40	0x3c202157	0.009773574
41	0x3d99aa8a	0.07503231
42	0xbd5ca7c7	-0.053870942
43	0xbe945439	-0.28970507
44	0x3e0ec280	0.13941383
45	0x3e914ba2	0.28378016
46	0x3e695591	0.22786547
47	0xbda60f77	-0.081084184
48	0xbdc16a4b	-0.09444102
49	0x3b95289c	0.00455196
50	0x3ee9d722	0.45671946
51	0xbd90ec25	-0.07076291
52	0xbe033601	-0.1281357
53	0xbbc1c7c7	-0.005913708
54	0x3ec60834	0.38678133
55	0x3ea3b456	0.31973523
56	0x3f05b146	0.5222362
57	0xbeb64bae	-0.35604614
58	0x3ea037f9	0.31292704
59	0x3e08b1ae	0.1334903
60	0xbe234f0a	-0.1594812
61	0x3d4d9a69	0.050196085
62	0x3c717620	0.014737636
63	0xbe850e59	-0.2598751

actor.4.weight f4 [6, 64]
0	0x3e03967a	0.12850371
1	0x3da06639	0.078319974
2	0xbd0dc4b5	-0.034611423
3	0x3de8c51c	0.11365721
4	0x3ede9d81	0.4347954
5	0xbeca7288	-0.39540505
6	0x3d066bab	0.032817524
7	0x3c2b02c5	0.010437672
8	0x3dab8efb	0.08376881
9	0x3e60d621	0.21956684
10	0xbc327e7d	-0.010894415
11	0xbda894a9	-0.0823148
12	0xbec85350	-0.39126062
13	0xbd9288fe	-0.071550354
14	0xbe0894f6	-0.13338074
15	0xbd349a7b	-0.044092637
16	0xbe832a5e	-0.2561826
17	0x3d20a7c2	0.039222486
18	0x3d932336	0.0718445
19	0xbda1ef33	-0.07906952
20	0x3dadb5af	0.08481919
21	0x3d2e429b	0.04254399
22	0x3db30ad9	0.087423034
23	0x3d879969	0.066210575
24	0xbe049fd7	-0.12951599
25	0xbe2afc49	-0.16697802
26	0x3cefa3a5	0.029252836
27	0x3dcef8e1	0.10106064
28	0x3d33f5d3	0.043935608
29	0x3d8c6633	0.068554305
30	0xbd4cc145	-0.049989004
31	0x3d224701	0.039618496
32	0x3dbf006d	0.09326253
33	0xbdfe7b60	-0.12425876
34	0xbdd29a2b	-0.102833115
35	0xbd596b85	-0.053081054
36	0xbcaaa91a	-0.020832587
37	0x3de0053e	0.109385
38	0x3de48040	0.11157274
39	0x3d02b601	0.031911854
40	0xbd1d5a79	-0.03841636
41	0x3db90714	0.09034553
42	0x3df7bef2	0.12096967
43	0x3e12501f	0.14288376
44	0xbd469f48	-0.048491746
45	0x3e597009	0.21234144
46	0xbc11dfb0	-0.008903429
47	0x3e335736	0.17513737
48	0xbd295ebd	-0.041350115
49	0xbd65782e	-0.056022815
50	0x3ecf4c54	0.4048792
51	0xbf0a7bfb	-0.5409543
52	0xbd18e04c	-0.03732328
53	0x3e3c955a	0.18416348
54	0xbcded17c	-0.0271995
55	0x3ddfa508	0.10920149
56	0x3d4da52e	0.050206356
57	0xbe6f8527	-0.23390637
58	0x3e6dfd3a	0.2324113
59	0x3ae76a62	0.0017655606
60	0xbc2029ab	-0.009775559
61	0x3e7726ba	0.24135867
62	0xba233367	-0.0006225616
63	0xbb86505c	-0.004098935
64	0x3e6b2e3f	0.2296686
65	0x3d2e5980	0.042565823
66	0x3c408c4e	0.011752201
67	0x3e956d70	0.29185057
68	0xbedf3c76	-0.43600816
69	0x3e6e6edd	0.23284478
70	0xbeeb4e63	-0.45958242
71	0xbd6c82f4	-0.057742074
72	0x3f45d774	0.7728188
73	0xbdb33b61	-0.0875156
74	0x3e489567	0.19588242
75	0x3e967676	0.29387254
76	0xbee69601	-0.4503632
77	0x3dc904b2	0.09815349
78	0x3ec9ed7a	0.39438993
79	0xbe119e97	-0.14220653
80	0x3f054073	0.52051467
81	0xbd9f3733	-0.077742
82	0x3c2e5230	0.010639712
83	0xbec5ba47	-0.3861868
84	0xbdb1a8be	-0.08674763
85	0xbde3a46b	-0.111153446
86	0x3dbff64c	0.09373149
87	0xbdd8a0b1	-0.105775245
88	0xbde20205	-0.110355414
89	0xbf0cdb87	-0.5502247
90	0x3db8ba6b	0.090199314
91	0x3ee24b17	0.44197914
92	0xbeaf84cc	-0.34281003
93	0xbd97a1de	-0.074039206
94	0x3e8d529c	0.27602088
95	0xbf3a9814	-0.728883
96	0xbedbe53b	-0.42948326
97	0x3dea0f12	0.11428656
98	0x3ee3ee97	0.44517967
99	0xbe46b8ca	-0.19406429
100	0x3e246c1b	0.16056864
101	0xbf8cb0d2	-1.0991461
102	0xbe8eec4b	-0.27914652
103	0xbf50e6fd	-0.8160246
104	0xbf0705d8	-0.5274329
105	0xbee8e5e3	-0.4548789
106	0xbd4a1e7a	-0.04934547
107	0xbd250705	-0.040289897
108	0x3e119dfc	0.14220423
109	0xbf25c055	-0.647466
110	0xbed65f10	-0.41869402
111	0x3de02a2e	0.10945545
112	0x3eed68fe	0.46369165
113	0xbeab022a	-0.3340009
114	0xbf4969e4	-0.786772
115	0xbf1d6cbf	-0.6149406
116	0xbe109d2c	-0.14122456
117	0xbe2b4769	-0.1672646
118	0x3e050ced	0.12993212
119	0xbe3877ed	-0.18014498
120	0x3f674cf7	0.90351814
121	0xbf1a5542	-0.60286343
122	0xbe711316	-0.23542437
123	0xbd84dd63	-0.06487539
124	0x3ec5d7b8	0.38641143
125	0xbea165c0	-0.31522942
126	0xbedfe016	-0.43725652
127	0x3d9122e3	0.07086732
128	0xbebdfd8c	-0.37107503
129	0xbe0a3c31	-0.13499524
130	0x3cefbed6	0.029265802
131	0xbecf8a4c	-0.405352
132	0xbd8ddabb	-0.06926485
133	0x3e493df5	0.19652541
134	0x3ebff603	0.3749238
135	0x3d0c34ff	0.03423023
136	0xbf54cb70	-0.8312292
137	0xbe31cd54	-0.17363483
138	0xbe42e7a1	-0.19033672
139	0xbe4dde92	-0.20104435
140	0x3f5e3d01	0.86811835
141	0xbcfc1940	-0.030773759
142	0xbe626c49	-0.2211162
143	0x3e44e327	0.19227277
144	0xbe5dfc2e	-0.2167823
145	0x3bc9ff26	0.0061644493
146	0xbdae8f0e	-0.08523379
147	0x3ef88709	0.48540524
148	0xbcf2eb3e	-0.029653188
149	0x3c9929cb	0.018696686
150	0xbe32531b	-0.17414515
151	0x3d1dd2bf	0.03853106
152	0x3e6ea686	0.23305711
153	0x3f334b6f	0.7003698
154	0xbdcc2b44	-0.0996919
155	0xbf0b11c1	-0.54323965
156	0x3e942df5	0.28941312
157	0xbc2d5aac	-0.0105807
158	0xbe5b3005	-0.21405037
159	0x3f285cec	0.6576679
160	0x3ea58789	0.32329968
161	0x3ccfd294	0.025368966
162	0xbea249aa	-0.31696826
163	0x3e842543	0.25809678
164	0xbe0a64d7	-0.1351503
165	0x3f75e003	0.9604494
166	0x3e29581d	0.16537519
167	0x3f4647ef	0.7745351
168	0x3f0e01e6	0.55471647
169	0x3eab797d	0.33491126
170	0xbd9e4205	-0.07727436
171	0xbe0525b3	-0.13002662
172	0xbda1f3ba	-0.07907815
173	0x3ecbfa8e	0.39839596
174	0x3ed9b194	0.42518294
175	0xbea27e67	-0.31737062
176	0xbec18eff	-0.3780441
177	0x3ecc8872	0.3994785
178	0x3eaf87b0	0.3428321
179	0x3f95ce46	1.1703575
180	0x3e33b599	0.17549743
181	0xbd3266e3	-0.04355515
182	0xbdb6a470	-0.08918083
183	0x3d841117	0.06448572
184	0xbf6df90e	-0.9295815
185	0x3f5502df	0.83207506
186	0x3c224fd3	0.009906727
187	0x3d326622	0.043554433
188	0xbeb6d429	-0.3570874
189	0x3d2d4dc3	0.042310487
190	0x3ee26cc8	0.44223619
191	0xbd5ab6b2	-0.053396888
192	0x3e427c72	0.18992785
193	0x3e52b015	0.20574982
194	0x3da96166	0.082705304
195	0x3de34b51	0.1109835
196	0xbe773513	-0.2414134
197	0x3e0b6748	0.13613617
198	0xbe0ca6d9	-0.13735522
199	0xbe43d3a8	-0.19123709
200	0xbd059f29	-0.03262249
201	0xbe210213	-0.15723448
202	0xbd9e4778	-0.07728475
203	0x3c6c324b	0.014416288
204	0x3e68040e	0.22657797
205	0x3e98e975	0.29865614
206	0x3e3b925c	0.1831755
207	0xbe0c1bf2	-0.13682535
208	0xbd46141a	-0.048359014
209	0xbe631205	-0.22174843
210	0x3eb0097a	0.3438223
211	0xbd96d0d9	-0.07364053
212	0xbe9ed998	-0.31025386
213	0x3dde8776	0.10865681
214	0xbdcf5285	-0.10123161
215	0xbd361aa1	-0.04445899
216	0xbdaee537	-0.08539813
217	0x3cceb254	0.025231518
218	0x3db00e4c	0.08596477
219	0x3de933f3	0.11386862
220	0xbd8a1eaf	-0.06744134
221	0xbe3e12dd	-0.18561883
222	0xbec84657	-0.39116165
223	0x3b8ea3d9	0.0043530283
224	0xbe87ba65	-0.26509395
225	0x3e4836e5	0.1955219
226	0xbe33fdea	-0.1757733
227	0x3e22a5b2	0.1588352
228	0xbdbd294e	-0.09236394
229	0x3d7f4662	0.06232298
230	0x3e3b682c	0.18301457
231	0xbe2c6294	-0.1683448
232	0xbe8cdb60	-0.2751112
233	0x3e3d6e51	0.18499114
234	0x3e15cff7	0.14630114
235	0x3e3912f4	0.18073636
236	0xbe2e8d0d	-0.17045994
237	0x3d966d6e	0.07345091
238	0x3d5fbdf3	0.05462451
239	0x3e3760e0	0.17908049
240	0xbe0f12cc	-0.13972014
241	0x3e0decdc	0.13859886
242	0x3ca8bce4	0.020597883
243	0x3d06ee4d	0.032942105
244	0x3e80d3f7	0.25161716
245	0x3d707717	0.058707323
246	0xbe4f78ca	-0.20260921
247	0x3ef23884	0.47308743
248	0x3d76ed94	0.060285166
249	0xbc3eb1de	-0.0116390865
250	0x3d0ae98d	0.033914138
251	0x3e80103a	0.2501238
252	0xbdb71e69	-0.08941347
253	0x3e1a3a0d	0.15061207
254	0xbd8cd422	-0.068763986
255	0x3d1eb3d6	0.038745724

actor.4.bias f4 [6]
0	0xbeabe144	-0.33570302
1	0x3e70bfd1	0.23510672
2	0x3e1a1623	0.15047507
3	0x3c3b445d	0.011429873
4	0x3cec20dc	0.028824262
5	0xbc555448	-0.0130205825
