Plotting/saliencies_live/Multi_Pong/Sequence_Length_1/multi_pong_1__1__1721853303_checkpoint_304.pt (torch, 86690 bytes, 11 tensors)

critic.0.weight f4 [128, 12]
0	0x3eb200db	0.34766278
1	0xbe1805bb	-0.14845936
2	0xbd792458	-0.060825676
3	0xbe459d2a	-0.19298235
4	0xbddc1422	-0.107460275
5	0x3eb7ebd8	0.35922122
6	0xbf021318	-0.50810385
7	0x3e1f43ec	0.15553254
8	0xbcaa85a9	-0.020815687
9	0xbd6f82f9	-0.058474515
10	0x3f64bbcb	0.8934905
11	0x3c96e12f	0.018417923
12	0xbcc193c9	-0.02363004
13	0xbc87c309	-0.016572492
14	0xbda9ed90	-0.082972646
15	0x3bd0be16	0.0063703163
16	0xbadd7e1a	-0.0016898543
17	0xbec25f24	-0.37963212
18	0xbd1b20f5	-0.037873227
19	0xbf0b2519	-0.5435348
20	0xbc3647f0	-0.01112555
21	0x3ecefc93	0.40427074
22	0x3d16ca0b	0.036813777
23	0x3f42ce0c	0.7609565
24	0x3e329c33	0.17442398
25	0x3c9fdec0	0.019515395
26	0xbdff8525	-0.12476567
27	0x3ca8e3e0	0.020616472
28	0xbcb34626	-0.021884035
29	0xbc42d3b2	-0.011891292
30	0x3df8b526	0.12143926
31	0x3c768ec6	0.015048688
32	0x3db4177c	0.08793542
33	0x3dd406ad	0.10352836
34	0xbf126d16	-0.571977
35	0x3f916e6f	1.1361827
36	0xbe9bdd49	-0.30442265
37	0x3df03367	0.11728554
38	0xbe611250	-0.21979642
39	0x3e0fba61	0.14035942
40	0x3e927f24	0.28612626
41	0xbe463c04	-0.19358832
42	0x3fa58b73	1.2933182
43	0xbf2614c1	-0.6487542
44	0x3d9db9f3	0.077014826
45	0x3d207e7a	0.039183117
46	0xbe6d0e96	-0.23150095
47	0xbb4ae922	-0.0030961712
48	0x3d895e56	0.06707446
49	0x3c1218ef	0.008917077
50	0xbc8a2afe	-0.016866203
51	0x3bab9e13	0.00523735
52	0x3e36a358	0.17835748
53	0xbdff493c	-0.1246514
54	0x40040875	2.0630162
55	0xbfcafa5b	-1.5857652
56	0x3d15d171	0.036576692
57	0xbdceafba	-0.10092111
58	0x3e6f045c	0.23341507
59	0xbf419854	-0.7562306
60	0xbdbfaf61	-0.09359623
61	0x3b81e986	0.0039646057
62	0xbdf10b8b	-0.1176978
63	0xbad83164	-0.0016494212
64	0x3c61b008	0.013774879
65	0x3d6a0a4b	0.057138722
66	0x3e188d7d	0.14897723
67	0x3ffa4d74	1.9554887
68	0xbcd2f14a	-0.025749821
69	0x3d3c9e3c	0.04604934
70	0xbedff57a	-0.4374197
71	0x3ed29fcc	0.4113754
72	0x3dc1530c	0.09439668
73	0x3d803a29	0.06261093
74	0xbe7135c7	-0.2355567
75	0x3d5648ee	0.052315645
76	0x3d323247	0.04350498
77	0xbd40c379	-0.047061417
78	0xbf33ce1f	-0.7023639
79	0x3dea1e2c	0.11431536
80	0xbe4051f6	-0.18781266
81	0x3e00aedb	0.12566702
82	0xbee943a1	-0.4555941
83	0x3fa98b14	1.3245568
84	0x3e66106b	0.224672
85	0xbab3a872	-0.0013706817
86	0xbd64cedf	-0.05586135
87	0xbaaf4cb8	-0.0013374304
88	0xbd966ae9	-0.0734461
89	0x3cf6efa0	0.030143559
90	0xbfe6f920	-1.8044777
91	0x3f3ace31	0.72970873
92	0x3dab37be	0.08360241
93	0xbd4066be	-0.046972983
94	0x3d080677	0.03320929
95	0xbf544195	-0.8291257
96	0xbe2a8d0f	-0.16655372
97	0xbc1df737	-0.00964146
98	0x3d253b66	0.04033985
99	0x3bc2ec77	0.005948599
100	0xbac6ade5	-0.0015158026
101	0x3ba39b8a	0.004992907
102	0xbde22077	-0.110413484
103	0x3df573b7	0.119849615
104	0xbddc56e2	-0.10758759
105	0xbdd57b97	-0.104239635
106	0xc03d0fca	-2.9540887
107	0xc04158d4	-3.0210466
108	0x3ec06783	0.37578973
109	0xbe3405c4	-0.17580324
110	0x3ec7b323	0.39003858
111	0xbe12498c	-0.14285868
112	0xbf2ccd6a	-0.67500937
113	0x3e8c68eb	0.27423796
114	0xbf4f30e7	-0.80933994
115	0x3e8c4829	0.27398804
116	0xbc197178	-0.009365432
117	0x3d102972	0.035195775
118	0x3e6c5f1f	0.23083161
119	0xbdc2b311	-0.095068105
120	0x3ed479c0	0.41499138
121	0xbdb2caaf	-0.08730065
122	0x3e56e820	0.20986986
123	0x3dc68f75	0.09695331
124	0xbccc2b84	-0.024923094
125	0x3ba319f6	0.00497746
126	0xbe33c368	-0.1755501
127	0x3d6480ef	0.055787023
128	0xbf039c9d	-0.5141085
129	0x3807224a	3.2218442e-05
130	0xbf0b4531	-0.5440245
131	0xbead74ca	-0.33878165
132	0xbdbff1e6	-0.0937231
133	0x3cbc0615	0.022952119
134	0x3ca80d9e	0.020514306
135	0x3cda5bd3	0.026655113
136	0x3dc0460b	0.0938836
137	0xbe01cdbc	-0.12676138
138	0x4002c277	2.0431192
139	0xc0115352	-2.2707105
140	0x3d00bcfa	0.031430222
141	0x3ad0a909	0.0015919517
142	0x3d8d0753	0.068861626
143	0x3e84b1ae	0.2591681
144	0x3d2554b7	0.040363993
145	0x3d48fbd6	0.049068294
146	0xbd84dc94	-0.064873844
147	0x3d7bb64a	0.06145314
148	0x3dbc710e	0.09201251
149	0xbe33edf4	-0.1757124
150	0x3f2a5d93	0.6654903
151	0x3d62e473	0.055393647
152	0xbdce3a4a	-0.100697115
153	0x3d9d628a	0.076848105
154	0xbf0392a7	-0.5139565
155	0xbde19a6c	-0.11015782
156	0x3dba31df	0.090915434
157	0xbbe21b00	-0.0069001913
158	0x3ddfb491	0.10923112
159	0xb97fbd4a	-0.00024389211
160	0x3dc9c798	0.098525226
161	0x3c937a3f	0.018002627
162	0xbf069294	-0.5256741
163	0xbe50fab6	-0.20408139
164	0xbe0e6104	-0.13904196
165	0xbce53eba	-0.027984012
166	0xbfe310e5	-1.7739531
167	0xbe3052f9	-0.17219152
168	0x3c1b576e	0.009481294
169	0xba9b4c57	-0.0011848313
170	0x3bc3398c	0.005957788
171	0xbb272556	-0.0025504432
172	0xb94700da	-0.00018978436
173	0x3ae7d568	0.0017687501
174	0x3fb37e9b	1.4023012
175	0x3ee94f14	0.45568144
176	0x3d3a2cc8	0.045452863
177	0xbcd7be2d	-0.0263358
178	0xbf7214b8	-0.94562864
179	0xbea3c1e8	-0.31983876
180	0xbd22da23	-0.039758813
181	0x3a4c43c6	0.00077920815
182	0xbdc251ff	-0.09488296
183	0xba94bad4	-0.0011347183
184	0xbdf82361	-0.12116123
185	0xbbd86fc0	-0.0066051185
186	0xbf9ec345	-1.2403342
187	0xbe0322b7	-0.12806211
188	0x3e29dc75	0.16588004
189	0xbccff956	-0.025387447
190	0x3fc18717	1.5119351
191	0xba0fa3a4	-0.00054794014
192	0x3d3e38e6	0.04644098
193	0xbbdb0dae	-0.0066849804
194	0xbc94b830	-0.018154234
195	0xbb82a163	-0.003986524
196	0xbd8b6a4d	-0.06807385
197	0xbe0fc019	-0.14038123
198	0xbfc7ab01	-1.5599061
199	0xbf9f8b08	-1.2464304
200	0x3d82e3ec	0.06391129
201	0x3e1b362f	0.15157388
202	0x3f265ded	0.6498707
203	0x4017914d	2.3682435
204	0xbd9da2ef	-0.07697093
205	0x3c9ecd42	0.019384984
206	0x3dfdfc19	0.124015994
207	0xb968353c	-0.00022145075
208	0x3e3eaecb	0.18621366
209	0x3beb2de8	0.0071771033
210	0x3f8f2b39	1.1185066
211	0xbf1225a6	-0.57088697
212	0xbe67577a	-0.22591963
213	0xbbd9ecc6	-0.00665054
214	0xbf1a3a69	-0.60245377
215	0x3e65fc6d	0.22459574
216	0x3e914f6a	0.283809
217	0x3dbb722e	0.091526374
218	0x3d536450	0.051609337
219	0x3e107164	0.14105755
220	0xbdae3737	-0.08506625
221	0xbe9e2cef	-0.30893657
222	0xbea629ca	-0.32453758
223	0x3cf637fb	0.03005599
224	0xbdf6a0cc	-0.12042388
225	0x3e0144cb	0.12623899
226	0xbe87b4eb	-0.26505217
227	0x3d88e84a	0.066849306
228	0xbc65eacc	-0.014033031
229	0xbb4ffadd	-0.003173522
230	0x3d50eec5	0.05100896
231	0xbc66ec3b	-0.014094408
232	0x3c5b7fa8	0.013397135
233	0xbd95db6e	-0.073172435
234	0x3f3f3249	0.74686104
235	0xbf555ddc	-0.83346343
236	0x3da8221f	0.08209633
237	0xbd23a891	-0.03995568
238	0x3f80012d	1.0000359
239	0xbf31ab36	-0.6940187
240	0xbd4011bb	-0.04689191
241	0x39f8d162	0.00047458248
242	0x3ddb5581	0.10709668
243	0x3aff3963	0.0019472059
244	0x3d8c5392	0.06851877
245	0x3c98cf68	0.018653587
246	0xbdf1baee	-0.11803232
247	0xbe68c0de	-0.22729823
248	0x3db7fb3d	0.08983467
249	0xbd8f831b	-0.07007428
250	0x4034e71e	2.8266063
251	0xbe15e658	-0.1463865
252	0x3e94c32d	0.29055157
253	0xbe224daa	-0.15849939
254	0x3e0ebf81	0.1394024
255	0xbdfe6793	-0.12422099

critic.0.bias f4 [128]
0	0x3de91ba6	0.11382227
1	0x3be3886f	0.0069437544
2	0x3c7ef9b6	0.015562465
3	0xbdd299ab	-0.10283216
4	0xbc6e346c	-0.014538866
5	0x3c32539f	0.010884195
6	0xbd0607fa	-0.03272245
7	0x3d1429f9	0.03617284
8	0x3d810a5a	0.063008025
9	0x3e97a049	0.29614475
10	0x3e4852f8	0.195629
11	0xbd0adbb8	-0.033900946
12	0xbd592e7d	-0.05302285
13	0xbbeeffb3	-0.0072936653
14	0xbcc33cfa	-0.023832787
15	0x3d16031d	0.036624063
16	0xbd972ff0	-0.0738219
17	0xbdaa50f1	-0.083162196
18	0x3d558091	0.052124564
19	0x3c654b31	0.013994978
20	0x3c852abf	0.016255734
21	0x3e012e6a	0.12615362
22	0xbdb495f8	-0.08817667
23	0xbc77c327	-0.015122212
24	0x3d6dfa56	0.058100067
25	0x3cd2e482	0.025743727
26	0x3e1e7fa7	0.15478383
27	0xbb052c73	-0.0020320683
28	0xbdacbcd9	-0.08434457
29	0xbc721ef2	-0.014777886
30	0xbdb546a7	-0.088513665
31	0x3cfce517	0.030870957
32	0xbb9fa4fb	-0.004871962
33	0x3ddac295	0.10681645
34	0x3e761653	0.24031954
35	0xbd2d498c	-0.042306468
36	0xbbefa307	-0.0073131355
37	0xbd52f90f	-0.051507052
38	0x3cc9cc0f	0.024633436
39	0xbb5d8086	-0.003379853
40	0x3d936ffb	0.07199093
41	0xbdcf2ea8	-0.10116321
42	0x3cfcdfc9	0.030868428
43	0xbda82ed9	-0.082120605
44	0x3e4dc2e5	0.20093878
45	0x3ed24324	0.4106685
46	0xbd822968	-0.06355554
47	0x3c61c2e0	0.013779372
48	0x3d013eb1	0.031553928
49	0x3d81ffce	0.06347619
50	0xbd3a68dd	-0.04551016
51	0x3be4d74e	0.006983674
52	0x3c97068c	0.018435739
53	0xbba21573	-0.0049464046
54	0x3cf21a95	0.02955369
55	0x3e0643e2	0.13111833
56	0x3da19bfa	0.07891078
57	0x3d401426	0.046894215
58	0xbd81e017	-0.0634157
59	0xbe83e2de	-0.25759023
60	0xbc8fd106	-0.017555725
61	0xbd2059a7	-0.039148
62	0xbe079897	-0.13241802
63	0x3ec72a9e	0.38899702
64	0xbdc7beec	-0.09753212
65	0x3e82ffc9	0.25585774
66	0xbd6049bf	-0.05475783
67	0xbd007f14	-0.03137119
68	0x3bc1a8ac	0.00591
69	0xbdf44f6f	-0.11929213
70	0xbd668ae6	-0.056284808
71	0x3d8710c8	0.06594998
72	0x3c598582	0.01327646
73	0xbda6fa6e	-0.081532344
74	0xbdb85dfb	-0.090023
75	0x3dafd2eb	0.08585151
76	0x3d651d8a	0.055936374
77	0x3d62c16a	0.055360235
78	0xbe1f5359	-0.15559138
79	0x3b5505fd	0.003250479
80	0x3d837a1f	0.06419777
81	0x3e14f0f5	0.14545043
82	0x3cd6285c	0.026142292
83	0x3da90bd5	0.0825421
84	0xbd573044	-0.052536264
85	0xbce65581	-0.028116943
86	0x3beaa2c3	0.007160516
87	0x3e4d9c6b	0.200792
88	0x3d0ce29c	0.0343958
89	0x3e0d570b	0.13802736
90	0x3cdfcaf0	0.027318448
91	0xbdab00d5	-0.08349768
92	0xbd04fa96	-0.03246554
93	0x3ccad581	0.02476001
94	0x3d27ac49	0.04093579
95	0xbd8c4430	-0.06848943
96	0x3d7166d3	0.05893595
97	0xbdea7727	-0.11448508
98	0x39f7bb63	0.00047251125
99	0x3e22b5a3	0.15889601
100	0xbcf464ff	-0.029833315
101	0x3d07f805	0.033195514
102	0x3ba2b40b	0.0049653105
103	0xbdb30ed1	-0.087430604
104	0xbdbde734	-0.09272614
105	0xbd8cf314	-0.06882301
106	0x3eab9775	0.3351399
107	0xbc8ba2df	-0.017045436
108	0x3c158fea	0.00912855
109	0x3d2abf09	0.04168609
110	0x3ceaec75	0.028677205
111	0xbcb35079	-0.021888958
112	0xbd78683f	-0.06064629
113	0xbb04da6f	-0.0020271798
114	0xbd8059c6	-0.06267123
115	0x3d96c81f	0.07362389
116	0xbca0c383	-0.019624477
117	0xbd161d86	-0.03664925
118	0xbc1f7b09	-0.009733924
119	0x3e5190ed	0.20465441
120	0xbd6c64a3	-0.057713162
121	0xbbc8b84c	-0.0061254855
122	0xbcf84f9a	-0.030311394
123	0xbd29009c	-0.041260347
124	0xbccb6160	-0.024826705
125	0xbd8e9bf1	-0.06963337
126	0x3d43273b	0.047644835
127	0xbce8e5a3	-0.028429812

critic.2.weight f4 [64, 128]
0	0xbead348c	-0.33829153
1	0x3e8fa2ca	0.28053886
2	0x3e0a39b9	0.13498582
3	0x3e004dab	0.12529628
4	0x3f16442f	0.5869779
5	0x3dca1e23	0.098690294
6	0xbe16ce73	-0.14727192
7	0xbe490c89	-0.19633688
8	0xbe233389	-0.15937628
9	0xbe8db6de	-0.2767858
10	0x3d4b4163	0.049622905
11	0x3cb6290e	0.022236373
12	0xbe1c4d9d	-0.15263982
13	0x3c1fbc50	0.009749487
14	0xbd288a34	-0.041147426
15	0xbec5e7a8	-0.38653302
16	0xbdc258e7	-0.09489613
17	0x3eb50430	0.35354757
18	0x3e4ce2e7	0.20008431
19	0x3e83f68c	0.25774038
20	0xbdc3e6e0	-0.0956552
21	0x3d3abfc3	0.045593034
22	0x3e66a81e	0.22525069
23	0x3e2c6b91	0.16837908
24	0x3ea67ee9	0.325187
25	0xbd1d0218	-0.038332075
26	0x3e5da642	0.21645454
27	0x3dd990b9	0.10623307
28	0xbf074818	-0.5284438
29	0x3ee95b6a	0.45577556
30	0x3cb9a5c8	0.022662058
31	0x3e7b8e98	0.24566114
32	0x3d2c8fa9	0.042129193
33	0x3e7bb9c8	0.24582589
34	0xbd106088	-0.03524831
35	0x3df8c1a1	0.12146307
36	0xbd96d4fa	-0.07364841
37	0x3e9283a4	0.2861606
38	0xbcc63019	-0.024192857
39	0xbdf24e0c	-0.118312925
40	0x3d3731a0	0.04472506
41	0x3d9042d1	0.07043994
42	0x3e936fcf	0.2879624
43	0x3ecf7d76	0.40525407
44	0x3e1229ec	0.14273804
45	0x3e8f4de6	0.2798912
46	0x3de05762	0.10954167
47	0xbd9f951f	-0.077921145
48	0x3ca29552	0.019846592
49	0x3d88374a	0.066511706
50	0xbd624a24	-0.055246487
51	0x3e55e094	0.20886451
52	0x3e47f1ef	0.19525884
53	0x3e9d4cef	0.30722758
54	0xbe8fdcac	-0.28098047
55	0x3e368985	0.17825897
56	0x3d3eeacf	0.04661065
57	0x3e2a15f4	0.16609937
58	0xbe791217	-0.24323307
59	0x3bbe695a	0.0058108987
60	0x3ea1fa91	0.3163648
61	0x3ecb0ce1	0.39658263
62	0x3c892d91	0.01674536
63	0xbf006ffd	-0.5017088
64	0xbe958b5c	-0.29207885
65	0x3daee459	0.085396476
66	0x3da7402d	0.081665374
67	0x3d1beaf4	0.038065866
68	0xbd465c2a	-0.04842774
69	0xbced18a8	-0.028942421
70	0x3ebdd045	0.3707296
71	0x3da1ce0a	0.07900627
72	0x3e85f6d2	0.2616487
73	0x3df109cc	0.11769447
74	0x3d12c454	0.035831764
75	0x3c739c43	0.014868799
76	0xbe1574cf	-0.1459534
77	0x3e146ae7	0.14493905
78	0x3ca31220	0.019906104
79	0xbf1fe3cc	-0.62456965
80	0xbe25db2b	-0.16196887
81	0xbcaf88c7	-0.021427525
82	0x3e0b802b	0.13623111
83	0xbcef321e	-0.029198702
84	0x3c5c14ae	0.013432665
85	0xbe211ea1	-0.1573434
86	0xbe48d835	-0.19613726
87	0xbe6116ec	-0.219814
88	0xbe84d4a3	-0.2594348
89	0x3dbfd712	0.09367193
90	0xbd0e5701	-0.034750942
91	0x3db36667	0.08759766
92	0x3efccaab	0.49373373
93	0x3e434f8b	0.19073312
94	0xbebfb770	-0.3744464
95	0x3e1175d9	0.14205112
96	0xbe8651af	-0.26234195
97	0xbe1af221	-0.15131427
98	0x3e88bcec	0.26706636
99	0xbe093ba3	-0.13401656
100	0x3eb6b092	0.35681587
101	0xbeb5fb50	-0.355433
102	0xbe5bb2e9	-0.21454968
103	0xbba0021a	-0.004883063
104	0xbe980979	-0.29694727
105	0xbd0b78f1	-0.034050886
106	0xbccbeb83	-0.024892574
107	0x3e670d9a	0.22563782
108	0xbe42b31a	-0.19013634
109	0x3f2ab596	0.6668333
110	0xbe2e7d18	-0.17039907
111	0xbcdcc6ea	-0.026950318
112	0x3ddf8546	0.10914092
113	0x3e41a453	0.18910341
114	0xbe586869	-0.2113358
115	0x3e733c63	0.23753504
116	0xbe194ac1	-0.14969923
117	0x3e84b5a9	0.25919846
118	0x3cacc58d	0.021090293
119	0xbdb447c0	-0.08802748
120	0x3ed393e8	0.4132378
121	0xbd646472	-0.055759855
122	0x3dc0ad0e	0.094080076
123	0xbeb00f26	-0.34386557
124	0xbcfb83b8	-0.030702457
125	0xbe4084d3	-0.18800668
126	0x3e3b2b8a	0.18278328
127	0xbe57ed9f	-0.21086739
128	0xbd7f396d	-0.062310625
129	0x3dc0dca3	0.09417083
130	0xbca2b49b	-0.01986151
131	0x3e686d09	0.22697844
132	0xbe91c95f	-0.28473946
133	0x3d8290be	0.06375264
134	0x3eb94797	0.3618743
135	0x3edd132f	0.43178698
136	0xbf15cddd	-0.5851725
137	0x3d8469a2	0.0646546
138	0xbe2849a8	-0.16434348
139	0xbf477257	-0.77908844
140	0x3da0625d	0.07831261
141	0xbf444c1e	-0.76678646
142	0xbde7fc34	-0.11327401
143	0xbeb44995	-0.3521239
144	0x3dbe4023	0.09289577
145	0x3e7b7d1c	0.24559444
146	0xbe312047	-0.17297469
147	0x3dbe0bc1	0.09279586
148	0x3f000ca0	0.50019264
149	0xbe44657d	-0.1917934
150	0x3f0718b8	0.5277209
151	0x3e9d9d6c	0.30784166
152	0xbea94421	-0.3305979
153	0xbe0d10f3	-0.13775997
154	0x3e9fe86b	0.31232008
155	0xbe5068a1	-0.20352413
156	0xbe1b1a1b	-0.15146677
157	0xbda8d11d	-0.0824301
158	0x3e4aef0c	0.19817752
159	0x3c4ac8d1	0.01237698
160	0xbea4096e	-0.32038444
161	0x3c94dc3c	0.018171422
162	0x3e59574b	0.21224706
163	0xbe67460f	-0.22585319
164	0xbe0400f4	-0.12890989
165	0xbe812212	-0.25221306
166	0x3ead6fe4	0.33874428
167	0xbf05468a	-0.5206076
168	0x3df15cb1	0.117852576
169	0xbdf264b8	-0.11835617
170	0xbdf3770c	-0.11887941
171	0xbea61474	-0.3243748
172	0xbebb7076	-0.36609238
173	0xbd1473a4	-0.036243096
174	0xbe20f26d	-0.15717478
175	0x3e8e2ed3	0.277701
176	0xbe4b00fb	-0.19824593
177	0x3d8852f7	0.06656449
178	0xbded219f	-0.11578678
179	0xbe7b6eef	-0.24554037
180	0x3e1656e1	0.14681579
181	0x3eaef4a3	0.34171018
182	0xbdac129a	-0.084019855
183	0x3cbca196	0.023026269
184	0x3eb2628a	0.34840804
185	0x3e85d75c	0.2614087
186	0x3d10a40b	0.035312694
187	0xbb6aac8b	-0.003580841
188	0xba3e3d93	-0.00072571
189	0x3ecf2afc	0.40462482
190	0xbe87878e	-0.26470608
191	0x3db537d9	0.08848543
192	0xbe5dad6f	-0.21648191
193	0xbe24d375	-0.1609629
194	0x3eb4a3b5	0.3528115
195	0xbe4e8f93	-0.20171957
196	0xbd23722f	-0.039903816
197	0x3e99a39a	0.3000763
198	0xbdaec8e9	-0.08534414
199	0xbe42d465	-0.19026335
200	0x3e80a7b5	0.2512795
201	0x3e0461dd	0.12927957
202	0xbdacc733	-0.08436432
203	0x3c8bd981	0.017071487
204	0x3e0a37f1	0.13497902
205	0x3eee69f9	0.46565226
206	0x3dc5a871	0.09651268
207	0x3d47fd83	0.048825752
208	0xbe5c3440	-0.21504307
209	0x3dffcfc7	0.12490802
210	0xbd360973	-0.044442605
211	0xbdfc82d9	-0.12329645
212	0xbd2c7b7c	-0.04210995
213	0x3e2e55a9	0.17024864
214	0x3e7e9678	0.24862087
215	0x3ba55262	0.005045221
216	0xbe537adb	-0.20652334
217	0xbe42cca7	-0.19023381
218	0xbe81e97c	-0.25373447
219	0xbe9b2eee	-0.30309242
220	0xbe16e8ad	-0.14737196
221	0x3d9838bc	0.07432696
222	0x3e47fdc7	0.19530402
223	0xbe2fabea	-0.17155424
224	0xbe8a3e3d	-0.2700061
225	0x3d995308	0.0748654
226	0xbe42831a	-0.18995324
227	0x3d4932d0	0.049120724
228	0x3ea11bfc	0.31466663
229	0x3ede5d65	0.4343063
230	0x3adf537b	0.0017038429
231	0x3e19874e	0.14993021
232	0x3f0c40f1	0.5478659
233	0xbed28646	-0.41118068
234	0xbde13989	-0.10997302
235	0x3b7ff614	0.0039056586
236	0x3ce61530	0.028086275
237	0x3d810ff4	0.06301871
238	0x3ec1ec2b	0.37875494
239	0x3f1a2898	0.6021819
240	0xbd612c3a	-0.05497382
241	0xbeb1ddfe	-0.3473968
242	0xbf19ceed	-0.6008137
243	0xbd1fcaa9	-0.03901163
244	0x3e35c1d5	0.17749722
245	0x3e5925ab	0.21205775
246	0xbdf8bcbb	-0.121453725
247	0xbdf9db7f	-0.12200069
248	0xbdb816b7	-0.089887075
249	0x3de06990	0.109576344
250	0x3d50138e	0.0507999
251	0xbe058424	-0.13038689
252	0x3db46235	0.08807794
253	0x3b1a62b4	0.0023557367
254	0x3ec41792	0.38299233
255	0x3ed41b79	0.4142721

critic.2.bias f4 [64]
0	0x3e13ceb5	0.14434321
1	0xbde3a694	-0.11115757
2	0xbe7ede67	-0.24889527
3	0x3e81dbae	0.25362915
4	0x3e23838b	0.15968148
5	0xbe1535e4	-0.14571339
6	0x3d14b2ba	0.03630326
7	0xbd710517	-0.058842745
8	0xbd81f1e8	-0.06344968
9	0x3d8a33de	0.06748174
10	0x3d599eed	0.05313008
11	0x3e325d41	0.17418386
12	0x3d751e77	0.059843507
13	0xbe5041cc	-0.203376
14	0x3d49f480	0.04930544
15	0x3e08f887	0.13376056
16	0x3e44a79b	0.19204561
17	0x3e975117	0.29554054
18	0x3e7b7885	0.24557693
19	0x3cb2b254	0.02181355
20	0xbe186dce	-0.14885637
21	0x3d12939f	0.035785314
22	0x3e845cfa	0.25852185
23	0xbd0bf8f8	-0.034172982
24	0xbe173f71	-0.14770295
25	0xbd9eb6fa	-0.07749744
26	0x3e251395	0.16120751
27	0x3e03a36f	0.12855314
28	0x3e0b0a72	0.13578203
29	0x3e8ce1e2	0.27516085
30	0xbddb2b2f	-0.10701596
31	0x3dbba5ad	0.091624595
32	0xbbe23d52	-0.0069042826
33	0x3e74d925	0.23910959
34	0xbdd3e304	-0.10346034
35	0xbe2044a4	-0.15651184
36	0xbe0970a4	-0.13421875
37	0x3df93a2c	0.121692985
38	0x3e145e82	0.14489177
39	0xbd81c774	-0.06336871
40	0xbe6ce5cb	-0.23134534
41	0x3dd21a37	0.10258906
42	0x3e59bd7a	0.21263686
43	0x3e37f144	0.1796313
44	0xbd2a3386	-0.041553043
45	0x3dab9332	0.08377685
46	0xbe91b05f	-0.28454873
47	0xbd2b6233	-0.041841697
48	0x3d8d5491	0.069008954
49	0x3e06a8c2	0.13150313
50	0xbd97476b	-0.07386669
51	0x3d87cc6d	0.06630788
52	0x3dd4646e	0.10370718
53	0xbd27b795	-0.04094656
54	0x3e1b7160	0.15179968
55	0xbcdc4f77	-0.02689336
56	0x3e5bc8e3	0.21463351
57	0x3e1504ba	0.14552584
58	0x3db8c809	0.09022529
59	0x3e21598f	0.1575682
60	0xbcff5fed	-0.03117367
61	0x3d1ae9c0	0.037820578
62	0xbd805b0b	-0.06267365
63	0xbe22673f	-0.15859698

critic.4.weight f4 [1, 64]
0	0x3efb5cc5	0.49094215
1	0xbf4e84b5	-0.80671245
2	0xbf45eb61	-0.77312285
3	0x3f0cdea3	0.55027217
4	0x3f04de76	0.5190195
5	0xbf20bc7c	-0.62787604
6	0xbf5bc954	-0.8585408
7	0xbf0e07f8	-0.5548091
8	0xbf514aaa	-0.81754553
9	0x3ef7c352	0.48391205
10	0x3f144f04	0.5793307
11	0x3eee1b1e	0.46505064
12	0x3f415b51	0.7552996
13	0xbf1cd388	-0.6126027
14	0x3f075097	0.52857345
15	0x3eeac4f6	0.45853394
16	0x3eed9ec9	0.46410206
17	0x3f31872f	0.693469
18	0x3f3276dd	0.6971262
19	0x3ebb3439	0.3656328
20	0x3f4e4b55	0.805837
21	0xbf768d16	-0.9630903
22	0x3f50604c	0.8139694
23	0xbee4c357	-0.44680282
24	0xbf015958	-0.5052695
25	0xbf1ea0d9	-0.61964184
26	0x3edeb9e9	0.43501213
27	0x3f549709	0.8304296
28	0x3ed52073	0.4162632
29	0x3f06f5fa	0.5271908
30	0xbede4221	-0.43409827
31	0x3f0a0e7b	0.53928345
32	0x3f283443	0.65704745
33	0x3f1bbe41	0.6083718
34	0xbf2ea503	-0.6822054
35	0xbf5d0d52	-0.8634845
36	0xbf12c2af	-0.57328314
37	0x3f1cbf69	0.6122957
38	0xbf6fbd6b	-0.93648404
39	0xbf3d43ec	-0.73931766
40	0xbf3e769e	-0.74399745
41	0x3ecee4de	0.40408987
42	0x3e9c9afe	0.30587
43	0xbf6fb539	-0.936359
44	0xbf008cf2	-0.50215065
45	0x3f061225	0.52371436
46	0xbef92273	-0.48659095
47	0xbf009a8c	-0.5023582
48	0x3ee3d96b	0.44501814
49	0x3efd3a27	0.4945843
50	0xbec46ace	-0.38362736
51	0x3f2f1fd7	0.6840796
52	0x3f38b301	0.7214814
53	0x3ee76976	0.45197648
54	0x3f24efa0	0.6442814
55	0xbf0a876e	-0.541129
56	0x3f8481e0	1.0352135
57	0x3f0b7a6b	0.5448367
58	0x3f26f346	0.65214956
59	0x3ec512b4	0.38490832
60	0xbefdd73f	-0.49578282
61	0xbf42d2e9	-0.76103073
62	0xbf0d25b2	-0.55135643
63	0xbf14045e	-0.57819164

actor.0.weight f4 [128, 13]
0	0xbc5a66e8	-0.013330199
1	0xbdfff773	-0.12498369
2	0x3ed5494b	0.4165748
3	0xbe77de65	-0.2420593
4	0x3e811dd0	0.25218058
5	0xbf00b260	-0.5027218
6	0xbcca81e9	-0.02472015
7	0xbd61c719	-0.055121515
8	0x3e3b93d6	0.18318114
9	0xbeb4a386	-0.35281008
10	0xbccf1ca0	-0.025282204
11	0x3e9bc0a4	0.3042041
12	0x3aa54212	0.0012608191
13	0x3dc2ec80	0.09517765
14	0x3dc40158	0.09570569
15	0x3abec814	0.0014555478
16	0xbd290fea	-0.041274942
17	0xbdad095a	-0.08449049
18	0x3c06adfe	0.008220194
19	0xbea16831	-0.31524804
20	0x3e3bedea	0.18352476
21	0xbfa7f5a6	-1.3121841
22	0xbf0cfd16	-0.5507368
23	0xbbf77022	-0.007551209
24	0x3db6c4d4	0.08924261
25	0x3e065c47	0.13121139
26	0xbdb1ad75	-0.086756624
27	0xbe7beecc	-0.24602813
28	0x3e86ab71	0.26302674
29	0xbe51ba15	-0.20481141
30	0x3e8c0a5b	0.2735165
31	0x3d9a0bb5	0.07521764
32	0xbd0c141b	-0.03419886
33	0x3cd00f51	0.025397928
34	0x3f2bca95	0.6710599
35	0xbe6a4e00	-0.22881317
36	0xbdb1f07c	-0.08688447
37	0x3e9c7715	0.30559602
38	0xbe4e8a82	-0.20170024
39	0x3d6a552f	0.057210144
40	0x3d8d8d65	0.069117345
41	0xbeec7ec7	-0.46190473
42	0xbda4c773	-0.080458544
43	0x3d98517c	0.07437417
44	0x3f4fa9b5	0.8111833
45	0x3dbdbcd9	0.092645355
46	0xbe5a2d6a	-0.21306387
47	0x3e63d6a5	0.22249849
48	0xbe69a15c	-0.2281546
49	0x3db2ea6c	0.08736119
50	0xbeafcbf2	-0.34335285
51	0x3e32a955	0.17447408
52	0x3e6089fb	0.21927635
53	0xbed4aea8	-0.41539502
54	0xbd1e0621	-0.038580064
55	0xbe11f391	-0.1425307
56	0xbe8af1db	-0.27137646
57	0xbde604b6	-0.11231367
58	0x3e873b8c	0.26412618
59	0xbe12ddf9	-0.14342488
60	0xbed7d4c9	-0.4215453
61	0xbf12cd00	-0.57344055
62	0xbe55f0bc	-0.20892614
63	0x3ce3ae9e	0.027793225
64	0x3e5366fe	0.20644757
65	0x3e26357a	0.16231337
66	0x3df580a3	0.11987426
67	0xbe83ad84	-0.2571832
68	0xbe504fcb	-0.20342939
69	0xbf14af9a	-0.58080447
70	0xbe98a76d	-0.29815236
71	0xbd7ae72d	-0.061255623
72	0xbe01003b	-0.12597744
73	0xbeb2736d	-0.34853688
74	0xbefa6ea0	-0.48912525
75	0xbdceea34	-0.101032645
76	0x3df42ffc	0.11923215
77	0x3dddffa2	0.10839774
78	0xbe3039ca	-0.17209545
79	0x3e40e39a	0.18836823
80	0x3d6ee546	0.05832412
81	0xbda9b3c1	-0.082862385
82	0x3f350ddd	0.7072428
83	0xbe694ead	-0.22783919
84	0xbe8c8dac	-0.27451837
85	0x3e1913d6	0.14948973
86	0xbd8d5122	-0.069002405
87	0x3f078c6b	0.52948636
88	0x3e723bda	0.23655644
89	0xbd4cad4d	-0.04996996
90	0xbe94e827	-0.29083368
91	0xbe00b90c	-0.1257059
92	0xbeb96831	-0.36212304
93	0xbe2b280f	-0.167145
94	0x3e01eaae	0.1268718
95	0x3e88c7e0	0.26714993
96	0xbf286722	-0.6578237
97	0xbe028cc3	-0.12749009
98	0xbe7059f4	-0.23471814
99	0xbe32dc59	-0.17466868
100	0xbee3adcc	-0.44468534
101	0xbebdbbf2	-0.37057453
102	0xbe16bb61	-0.14719917
103	0x3dd0972b	0.10185083
104	0x3ddab636	0.10679285
105	0xbe9e2317	-0.30886146
106	0x3ecdb496	0.4017684
107	0xbde69c7c	-0.11260316
108	0x3da57b0f	0.08080112
109	0x3d935f49	0.071959086
110	0x3e25a82f	0.16177438
111	0xbc2be3ae	-0.010491295
112	0x3e9e3361	0.30898574
113	0xbe54186e	-0.20712444
114	0x3d411cc2	0.047146566
115	0xbd9659f9	-0.0734138
116	0x3df1812f	0.11792218
117	0xbe047669	-0.12935795
118	0x3ea823c3	0.32839784
119	0xbe10b79f	-0.14132546
120	0xbe91549a	-0.28384858
121	0xbed52432	-0.41629177
122	0xbee64cea	-0.44980556
123	0x3e8113c0	0.2521038
124	0xbc2801f6	-0.010254374
125	0x3eb2ce79	0.3492315
126	0xbb3f16cb	-0.0029157873
127	0xbe847716	-0.25872105
128	0x3d9619f4	0.07329169
129	0xbe90127d	-0.28139105
130	0x3d644e6b	0.055738848
131	0xbec0c4fc	-0.37650287
132	0xbed290d9	-0.41126135
133	0x3ec3560a	0.3815158
134	0xbee8d5b7	-0.4547555
135	0xbd139401	-0.03602982
136	0x3e05d8de	0.1307101
137	0x3ced933e	0.029000875
138	0x3e97dd90	0.29661226
139	0xbd5451e3	-0.051835906
140	0x3d38f7a8	0.04515806
141	0xbd037ac3	-0.032099497
142	0x3da6e898	0.081498325
143	0x3db1e2b2	0.08685817
144	0xbd2ce5d6	-0.042211376
145	0xbd98d36d	-0.07462201
146	0x3c5d2a4b	0.013498853
147	0x3eb293ec	0.3487848
148	0xbe24a59a	-0.16078797
149	0xbe16ffe3	-0.1474605
150	0xbc31132e	-0.010807795
151	0xbfda81f4	-1.7070909
152	0x3de0b04e	0.109711275
153	0x3d5a2fcc	0.05326824
154	0x3dd8fe3c	0.10595366
155	0xbe9e07fe	-0.30865473
156	0xbc4fe185	-0.012688045
157	0xbd0a11ba	-0.03370831
158	0xbe8b8881	-0.27252582
159	0x3daa6676	0.08320324
160	0x3f149a74	0.58048177
161	0xbf7e6cb6	-0.9938463
162	0xbd574f8f	-0.052566107
163	0xbd425263	-0.04744185
164	0xbd8bd8f0	-0.06828487
165	0xbd4be3f4	-0.04977794
166	0xbe28e5bc	-0.16493887
167	0x3e0b3fc3	0.13598542
168	0xbdedac8c	-0.11605176
169	0xbd67e24d	-0.0566123
170	0xbdae8beb	-0.08522781
171	0x3e40a52c	0.18813008
172	0xbe0f15c3	-0.13973145
173	0x3f26615e	0.6499232
174	0xbf2e1037	-0.6799349
175	0xbe52f57c	-0.20601457
176	0x3e7e6aab	0.24845378
177	0xbf21516b	-0.6301486
178	0x3efacf95	0.48986498
179	0x3d474e21	0.048658494
180	0xbc0775d0	-0.008267835
181	0x3d56ef35	0.05247422
182	0x3be1daba	0.0068925293
183	0x3de04e04	0.1095238
184	0xbbd1afa0	-0.00639911
185	0xbd91fe12	-0.07128538
186	0x3ea1b992	0.3158689
187	0xbda4bcf3	-0.08043852
188	0x3eed681d	0.46368495
189	0x3e0b3c37	0.13597189
190	0xbf126dc5	-0.57198745
191	0x3ed763f5	0.4206845
192	0xbe4e0ee3	-0.20122866
193	0x3e6707c5	0.22561558
194	0xbeb3a88c	-0.3508953
195	0x3dc91cba	0.09819932
196	0x3e54a7e5	0.20767172
197	0xbe2377a7	-0.15963612
198	0x3e38b545	0.18037899
199	0xbe74d153	-0.23907976
200	0xbda344a8	-0.079720795
201	0x3e18b065	0.14911039
202	0xbeabaeed	-0.33531895
203	0x3f037843	0.5135538
204	0xbe7127ee	-0.23550388
205	0xbd85a98a	-0.06526478
206	0x3dcab293	0.098973416
207	0x3e4775fe	0.19478604
208	0x3a2c6e52	0.00065777183
209	0xbd815897	-0.06315725
210	0x3e1c3a5e	0.1525664
211	0xbdd576b9	-0.10423035
212	0x3eaa2ded	0.33238164
213	0x3e829d16	0.25510472
214	0xbe0dc4f7	-0.13844667
215	0xbe0bc842	-0.13650611
216	0xbf8dcbfc	-1.1077876
217	0xbe377b07	-0.17918025
218	0x3ef4aaa8	0.4778645
219	0xbed5045a	-0.41604882
220	0x3d88d662	0.06681515
221	0x3e546e46	0.20745191
222	0xbd877c2a	-0.06615479
223	0x3e891a80	0.2677803
224	0xbeb8a001	-0.36059573
225	0x3e7ffbba	0.2499837
226	0xbc35363e	-0.011060296
227	0xbe52aaa5	-0.20572908
228	0x3e245b39	0.16050424
229	0xbce697ae	-0.028148498
230	0x3f1a40f2	0.6025535
231	0x3e2473d4	0.1605981
232	0x3dfefeee	0.12450968
233	0x3daf215f	0.08551287
234	0x3c568224	0.013092551
235	0xbee25a7f	-0.44209668
236	0x3d7dce8e	0.061964564
237	0x3ddad654	0.10685411
238	0x3e8b042e	0.27151626
239	0xbce111da	-0.027474333
240	0x3d88af50	0.06674063
241	0x3e1685ac	0.1469943
242	0xbec46c53	-0.38363895
243	0x3d2f0983	0.04273368
244	0xbea668da	-0.3250187
245	0x3e8f3854	0.27972662
246	0x3ed97975	0.42475477
247	0x3d996200	0.07489395
248	0x3d4ad43f	0.04951882
249	0xbe7aecf3	-0.24504451
250	0x3da2dc72	0.07952203
251	0xbe4c7ec3	-0.19970231
252	0x3c9fb575	0.019495705
253	0x3ead152e	0.3380522
254	0xbe3d5082	-0.18487743
255	0xbe25feff	-0.16210555

actor.0.bias f4 [128]
0	0x3c190663	0.009339902
1	0x3e381246	0.17975721
2	0xbd7fd695	-0.0624605
3	0xbd05302e	-0.03251665
4	0x3e07f90b	0.13278596
5	0x3d3a6fc2	0.045516737
6	0xbd3cf3c6	-0.046130918
7	0xbd14be79	-0.03631446
8	0x3d6d9105	0.05799963
9	0xbc63f186	-0.013912564
10	0x3de9281e	0.11384605
11	0xbd15f0d8	-0.03660664
12	0xbcb2fdcb	-0.021849534
13	0xbcb9404e	-0.02261367
14	0xbd81e689	-0.06342799
15	0x3e0b6379	0.13612165
16	0x3cba49a8	0.0227402
17	0xbd05e21d	-0.03268634
18	0x3dc9ee3a	0.09859891
19	0x3bc27b61	0.005935118
20	0x3dde9574	0.1086835
21	0x3dbba2bf	0.09161901
22	0x3dd9b089	0.106293745
23	0xbd8b12b1	-0.067906745
24	0xbc806731	-0.015674205
25	0xbdfc88a2	-0.12330748
26	0xbe11b475	-0.14228995
27	0x3b91e158	0.004451912
28	0xbe2d7e3c	-0.16942686
29	0xbcd35027	-0.025795056
30	0xbdef24e6	-0.1167696
31	0x3c315c69	0.010825255
32	0xbe30c260	-0.17261648
33	0x3da76f6d	0.0817555
34	0xbdf1b249	-0.11801583
35	0xbd7be5cc	-0.06149845
36	0x3d8c2d8c	0.06844625
37	0xbb9b7cd4	-0.0047451053
38	0x3d8374f8	0.064187944
39	0x3dfefe58	0.12450856
40	0xbd803ab9	-0.062612005
41	0x3e0d1237	0.1377648
42	0xbe159196	-0.14606318
43	0xbd8d0231	-0.068851836
44	0x3db4f669	0.088360615
45	0x3d31b8c6	0.043389104
46	0x3cb23213	0.021752393
47	0xbd36c3a4	-0.04462017
48	0x3db2df4f	0.08733999
49	0xbcaa8e95	-0.020819942
50	0xbe0c14c8	-0.13679802
51	0x3df27867	0.11839371
52	0x3d183f0d	0.037169505
53	0xbd0b3233	-0.03398342
54	0x3d46e6a5	0.048559804
55	0x3d7f77c3	0.062370073
56	0xbdea7f01	-0.11450005
57	0x3dc99747	0.09843307
58	0x3d8bfd8b	0.06835469
59	0x3c418146	0.011810606
60	0x3c0419c9	0.008062788
61	0xbcb2cf4b	-0.02182736
62	0xbd26719c	-0.04063569
63	0x3e20d0bf	0.1570463
64	0x3e156f84	0.14593321
65	0x3dfa541e	0.12223075
66	0x3ce58375	0.028016785
67	0x3da088b6	0.078385755
68	0xbcca34d2	-0.02468339
69	0x3d104ab5	0.035227496
70	0x3e2a2a43	0.16617684
71	0x3cf0f2e3	0.029412692
72	0xbd294058	-0.04132113
73	0x3e702f5b	0.23455565
74	0xbd917216	-0.07101838
75	0xbe00e713	-0.12588148
76	0xbd0e6b7a	-0.034770466
77	0xbc9bb313	-0.019006288
78	0xbda3b644	-0.07993749
79	0x3ddae5e9	0.10688383
80	0x3c1f0d4b	0.009707759
81	0xbda79485	-0.08182625
82	0xbdd7bb52	-0.105337754
83	0x3d976980	0.073931694
84	0x3e2a1525	0.16609628
85	0xbdae297b	-0.085040055
86	0x3c996b7f	0.018728016
87	0x3d96653e	0.07343529
88	0xbb97feb6	-0.004638518
89	0xbcd71356	-0.026254337
90	0x3d984aa7	0.07436114
91	0x3d90fab3	0.07079067
92	0xbc742e3c	-0.014903601
93	0x3c90c9cd	0.017674351
94	0x3d59c280	0.053164005
95	0x3d86141f	0.065468065
96	0xbe4857bf	-0.19564722
97	0x3e32862f	0.17434
98	0xbdc7a925	-0.09749059
99	0x3e0b68f8	0.13614261
100	0xbdb3768d	-0.08762846
101	0xbd1a9920	-0.037743688
102	0xbc3933d2	-0.011303859
103	0x3e41df5f	0.18932866
104	0xbdd9b329	-0.10629875
105	0xbdb74be1	-0.0895002
106	0x3e05900e	0.13043234
107	0xbd0eaa8e	-0.034830622
108	0x3d0fdfe3	0.035125624
109	0xbd35d5b4	-0.044393256
110	0x3d167c8e	0.03673988
111	0x3dd407e0	0.103530645
112	0x3cfb964a	0.030711312
113	0xbe0f0bdf	-0.13969372
114	0xbd8a2c2e	-0.06746708
115	0x3da390ee	0.079866275
116	0xbc9db984	-0.0192535
117	0xbc2f7b38	-0.01071053
118	0x3ddbe7a9	0.10737545
119	0x3dab4d1a	0.08364315
120	0x3df36246	0.118839785
121	0xbc288649	-0.010285922
122	0x3df0353e	0.11728905
123	0xbe0b5893	-0.13608007
124	0x3d296813	0.04135902
125	0xbdfc7608	-0.123272
126	0x3c7139e2	0.014723273
127	0x3a02a808	0.0004984145

actor.2.weight f4 [64, 128]
0	0xbdba63e0	-0.09101081
1	0x3f14c3a1	0.58111006
2	0xbeb813ee	-0.35952705
3	0x3e356081	0.17712595
4	0xbdc9caac	-0.0985311
5	0xbdf159e9	-0.11784727
6	0x3eaee11d	0.34156123
7	0x3dfa29e1	0.12215019
8	0xbedd1040	-0.4317646
9	0xbe45b4c7	-0.19307242
10	0x3d12541d	0.035724748
11	0x3f0a2bb1	0.5397292
12	0x3e4dae8e	0.20086119
13	0x3d3d1ad7	0.046168175
14	0xbd0f3267	-0.034960177
15	0x3e87df84	0.26537716
16	0xbdacf89a	-0.084458545
17	0xbeb5a4e8	-0.35477376
18	0xbdbf2054	-0.09332338
19	0xbc8159d3	-0.015789902
20	0xbdd9ac09	-0.10628516
21	0xbe5e7d85	-0.2172757
22	0x3d79ffa9	0.061034832
23	0xbe911e03	-0.2834321
24	0xbe86a253	-0.2629572
25	0x3e40f67a	0.18844023
26	0x3dee0e63	0.11623838
27	0x3e279f2b	0.16369312
28	0x3e6c9fa4	0.23107773
29	0xbe13b25d	-0.14423509
30	0xbd9a3955	-0.075304665
31	0x3e9cda4b	0.30635294
32	0x3d5691bf	0.052385088
33	0x3e2e9ede	0.1705279
34	0x3d6b76ef	0.05748647
35	0xbe224d74	-0.15849859
36	0xbe267610	-0.16255975
37	0x3dc1d56d	0.09464536
38	0x3eba7982	0.36420828
39	0x3bbfdb40	0.005854994
40	0x3dfcc797	0.12342756
41	0xbdd832f9	-0.10556597
42	0x3b9f8115	0.0048676827
43	0xbd6f427c	-0.058413014
44	0xbea73b3a	-0.32662374
45	0x3c1996b0	0.009374306
46	0xbe0a3177	-0.13495432
47	0xbe45a24f	-0.19300197
48	0xbeda109d	-0.425908
49	0x3e86c4d5	0.26322046
50	0x3e904838	0.281801
51	0xbe1ac7f7	-0.15115343
52	0xbee1ab3a	-0.44075948
53	0x3e0a268d	0.13491268
54	0xbee52960	-0.4475813
55	0x3e9d218e	0.30689663
56	0x3e3383d1	0.17530753
57	0x3e0c36bf	0.13692759
58	0x3cbd4df1	0.023108454
59	0x3df07acb	0.11742171
60	0x3e2b60b2	0.16736105
61	0x3da88cce	0.08229981
62	0xbe0589f6	-0.13040909
63	0x3e7e1b51	0.24815108
64	0xbe82c9a0	-0.25544453
65	0x3dc907dc	0.09815952
66	0x3e652535	0.22377475
67	0x3f04a269	0.5181032
68	0x3e402fff	0.18768309
69	0xbd021911	-0.031762186
70	0xbe8be95f	-0.27326486
71	0x3f00e5bf	0.50350565
72	0xbe285165	-0.164373
73	0x3e2a6138	0.16638649
74	0xbd44b90f	-0.048028048
75	0x3ecaf01e	0.3963632
76	0xbd20eb95	-0.03928717
77	0x3e69901d	0.22808881
78	0xbda81f8c	-0.08209142
79	0xbe47fc1f	-0.1952977
80	0x3e472275	0.19446738
81	0xbe09c936	-0.13455662
82	0xbe530de6	-0.2061077
83	0x3e6df8e7	0.2323948
84	0xbd3b57fc	-0.045738205
85	0xbdc85772	-0.09782304
86	0x3e315d68	0.17320788
87	0x3e886231	0.26637414
88	0xbe55d902	-0.20883563
89	0xbba8e10e	-0.0051537817
90	0x3e4202d9	0.18946399
91	0xbe1acd23	-0.15117316
92	0xbccff0d7	-0.025383396
93	0x3d91c948	0.071184695
94	0x3dd4aa1a	0.10384007
95	0x3eacc9af	0.33747622
96	0xbda65415	-0.08121506
97	0x3d62543e	0.05525612
98	0xbe5df178	-0.21674144
99	0x3d8820a2	0.06646849
100	0x3e0493cc	0.12947005
101	0x3e22ada7	0.15886556
102	0x3e0281d7	0.12744842
103	0x3d55c53d	0.052190054
104	0xbe54b900	-0.20773697
105	0x3e4b75f3	0.19869213
106	0x3e4733e5	0.1945339
107	0x3dddf976	0.108385965
108	0xbe573561	-0.21016456
109	0xbd2d1deb	-0.04226486
110	0x3dbb6d7c	0.09151742
111	0x3e956b9d	0.29183665
112	0x3eb79b5a	0.3586071
113	0x3e307b0d	0.1723444
114	0xbe176761	-0.1478553
115	0x3ddb9e92	0.10723604
116	0x3ce596a1	0.028025927
117	0x3ef23c78	0.4731176
118	0xbd077df2	-0.033079095
119	0xbe363a87	-0.17795764
120	0xbe0d0b0c	-0.13773745
121	0x3d55a249	0.05215672
122	0x3d998e77	0.07497876
123	0x3ea644fb	0.32474503
124	0x3d053959	0.032525394
125	0xbee5f015	-0.4490973
126	0x3d8806c1	0.06641913
127	0xbc933a38	-0.017972097
128	0xbe4ecbe1	-0.20194961
129	0x3eb01ed9	0.34398535
130	0x3cd8c36c	0.026460372
131	0xbdab7969	-0.083727665
132	0xbed999d0	-0.42500162
133	0xbe4b8de2	-0.19878343
134	0xbd02a9a8	-0.031900078
135	0xbdcc6601	-0.09980393
136	0xbe6e5cd8	-0.23277605
137	0xbd48e7a2	-0.049049027
138	0xbe2ee53b	-0.17079632
139	0x3e2cda75	0.1688021
140	0x3d056311	0.03256518
141	0xbe5ff669	-0.21871342
142	0x3d5b5338	0.05354616
143	0xbc86a5e5	-0.016436527
144	0xbe4109ed	-0.18851443
145	0x3db6a1b6	0.08917563
146	0x3d0150cf	0.031571206
147	0x3da84b69	0.08217508
148	0xbe271c75	-0.16319449
149	0xbcb6c5e6	-0.022311162
150	0xbe9d590b	-0.30731997
151	0xbd8db4f2	-0.06919278
152	0xbd45ee19	-0.04832277
153	0xbdd262ef	-0.10272776
154	0xbebb37f3	-0.36566123
155	0x3eec2ed0	0.46129465
156	0x3e74e999	0.23917235
157	0xbe833de5	-0.2563316
158	0xbdd22715	-0.102613606
159	0x3e55d5ac	0.2088229
160	0x3d811596	0.06302945
161	0x3e7b9b7d	0.24571033
162	0xbd863b30	-0.06554258
163	0x3e9e215c	0.30884826
164	0x3e936490	0.2878766
165	0xbd823087	-0.06356912
166	0x3dc38d8e	0.09548484
167	0x3dd83892	0.10557665
168	0x3d02a10a	0.03189186
169	0x3cc30560	0.023806274
170	0xbe1a8697	-0.15090404
171	0x3deac4a6	0.11463289
172	0x3df5f390	0.120093465
173	0xbe489f01	-0.19591905
174	0xbd40888a	-0.047005214
175	0xbe88bcdc	-0.26706588
176	0x3df6f4c8	0.12058407
177	0x3dfb9082	0.12283422
178	0x3dee1df9	0.116268106
179	0x3d8fc943	0.070208095
180	0xbedc5b7e	-0.43038553
181	0x3e4bf2e2	0.19916871
182	0x3e5e94ae	0.21736404
183	0xbe3cba56	-0.18430457
184	0x3e93d285	0.2887155
185	0xbcbb42a0	-0.022858918
186	0x3c24f25d	0.0100675495
187	0x3e258701	0.16164781
188	0x3b628621	0.003456481
189	0x3e1c6b64	0.15275341
190	0xbcaca020	-0.021072447
191	0x3d87ae91	0.06625093
192	0xbeddaa94	-0.43294203
193	0xbe1f5a06	-0.15561685
194	0xbe95fdb3	-0.2929512
195	0x3ddcd3a8	0.10782558
196	0xbdbd5de9	-0.092464276
197	0x3e555a88	0.20835316
198	0xbece9c3c	-0.40353572
199	0x3e83e7c2	0.25762755
200	0xbdfa8af3	-0.12233534
201	0xbe76bd2a	-0.24095598
202	0x3ebd1964	0.36933434
203	0xbce7303a	-0.028221238
204	0x3e94bd06	0.29050463
205	0xbe8800db	-0.26563153
206	0xbdfd1ba5	-0.123587884
207	0x3d409b57	0.047023144
208	0x3e4d49f3	0.2004774
209	0x3dc15ae2	0.09441163
210	0x3d522c55	0.05131181
211	0xbe83a416	-0.25711125
212	0x3d85c53c	0.0653176
213	0xbeba283c	-0.3635882
214	0xbec5fe74	-0.38670695
215	0xbe964a76	-0.29353684
216	0xbb9fefd0	-0.004880883
217	0x3e56c11a	0.209721
218	0xbc9edc88	-0.019392267
219	0xbe819f04	-0.25316632
220	0x3cb4468f	0.022006301
221	0x3e2a36d6	0.16622481
222	0xbcbb9a50	-0.02290073
223	0xbe58a025	-0.2115484
224	0x3ebb07cb	0.36529383
225	0x3b935be3	0.0044970377
226	0x3e26ddfd	0.1629562
227	0xbd565396	-0.052325808
228	0xbc6a3e96	-0.014297148
229	0x3d4060bd	0.046967257
230	0x3df75c95	0.120782055
231	0xbceef814	-0.029171027
232	0xbe3b7c99	-0.18309249
233	0x3e702cb1	0.23454548
234	0x3e3f6090	0.1868918
235	0xbdbd429a	-0.09241219
236	0x3e5ca099	0.21545638
237	0x3d5afcf5	0.053463895
238	0x3db3a087	0.087708525
239	0x3d9b485d	0.075821616
240	0x3e9389aa	0.28815967
241	0x3d851f13	0.065000676
242	0x3cb4e4d7	0.022081776
243	0x3e0023ae	0.1251361
244	0xbe288bde	-0.16459605
245	0x3d607508	0.05479911
246	0xbe93a9d4	-0.28840506
247	0xbdb8be4f	-0.090206735
248	0x3eb506d4	0.35356772
249	0xbcecac55	-0.028890768
250	0xbc995fb6	-0.018722396
251	0x3f0f4161	0.55959135
252	0xbe86c563	-0.2632247
253	0x3c3ce45e	0.011529056
254	0xbd869c8a	-0.06572826
255	0xbe2af4d1	-0.16694953

actor.2.bias f4 [64]
0	0x3cdb1b81	0.026746513
1	0xbdaa46cc	-0.08314285
2	0xbd310df9	-0.043226216
3	0xbdbcc105	-0.09216503
4	0xbe1d1372	-0.15339449
5	0x3e722346	0.23646268
6	0xbd774f02	-0.060378082
7	0xbd736c83	-0.059429657
8	0x3db514c4	0.08841851
9	0x3db378d4	0.087632805
10	0xbd9600ca	-0.07324369
11	0xbb96673d	-0.0045899437
12	0xbc274e0d	-0.01021148
13	0x3d7778e7	0.060418036
14	0x3de39e6f	0.11114203
15	0x3ccf303b	0.025291553
16	0x3e856b67	0.26058504
17	0xbdd84098	-0.10559195
18	0xbe2a55c1	-0.16634275
19	0x3da0b291	0.07846559
20	0xbd4888a5	-0.04895844
21	0xbcdcf583	-0.026972538
22	0xb9880418	-0.00025942991
23	0xbd53ebf3	-0.05173869
24	0xbdebbba5	-0.115104
25	0xbd934cc1	-0.07192374
26	0x3dd90bc5	0.10597948
27	0xbd5a8f89	-0.053359542
28	0x3d7881d8	0.060670704
29	0xbd838f92	-0.06423868
30	0xbd12418b	-0.035707038
31	0xbc1dd23b	-0.009632642
32	0x3d004bda	0.031322338
33	0xbe211f7b	-0.15734665
34	0x3d65b2ba	0.05607865
35	0xba0e8868	-0.0005437196
36	0x3e282abc	0.16422552
37	0x3e37cba0	0.1794877
38	0xbcbd2f6b	-0.0230939
39	0x3e917f78	0.28417563
40	0x3cde3b4b	0.027127882
41	0xbd1de033	-0.03854389
42	0x3c7d1b22	0.0154483635
43	0xbdd1fcf3	-0.10253324
44	0x3e7ff0fb	0.2499427
45	0x3e32a1ec	0.17444581
46	0x3de9258b	0.11384114
47	0xbd94a01e	-0.072571024
48	0x3c33470e	0.010942234
49	0x3caeadc2	0.021323089
50	0x3e1378ce	0.14401552
51	0xbd0ef0a4	-0.03489746
52	0xbd25ed3a	-0.04050944
53	0xbd55ba2a	-0.052179493
54	0x3e3000fd	0.17187877
55	0x3daf45d7	0.08558243
56	0x3e78d5db	0.2430033
57	0xbe6772c1	-0.22602369
58	0x3e17e476	0.14833245
59	0xbd8f631e	-0.07001327
60	0xbcfc1de6	-0.030775975
61	0x3d8f457c	0.06995675
62	0x3d319e98	0.043364137
63	0xbdbf338f	-0.09336006

actor.4.weight f4 [6, 64]
0	0xbd4344c3	-0.047673
1	0x3e651b95	0.22373803
2	0xbc80f3e2	-0.015741292
3	0x3db22e74	0.087002665
4	0x3e46f80e	0.19430563
5	0xbeb1218b	-0.34595904
6	0xbdff1aed	-0.124563076
7	0xbd2fa5cf	-0.042882737
8	0xbd0dba8d	-0.034601737
9	0x3d820be8	0.06349927
10	0x3c2da28f	0.010597839
11	0xbe00b639	-0.12569512
12	0xbe74fbc1	-0.23924161
13	0x3d788f02	0.060683258
14	0xbdf05036	-0.11734049
15	0xbd4a7155	-0.049424488
16	0xbe4a8570	-0.19777465
17	0xbce89246	-0.028390061
18	0x3e33ef9f	0.17571877
19	0xbd83cacd	-0.064351656
20	0x3d541c89	0.051785026
21	0xbdbacb18	-0.09120768
22	0x3e341fb1	0.17590214
23	0x3dab034c	0.08350238
24	0xbe5431fd	-0.20722194
25	0xbde98d67	-0.114039235
26	0x3c5bdeb1	0.013419793
27	0x3dbf73b3	0.0934824
28	0x3da3ee26	0.080044076
29	0xbd02b5b5	-0.03191157
30	0xbde10221	-0.10986734
31	0xbd47e474	-0.048801854
32	0x3e7444db	0.23854391
33	0xbdbbfe70	-0.091793895
34	0xbd67b0b3	-0.056564998
35	0xbd2e85c9	-0.042608056
36	0xbc5d77b2	-0.013517307
37	0x3db310c1	0.0874343
38	0x3be881cf	0.0070955525
39	0x3c3ffed8	0.011718474
40	0x3df256f2	0.1183299
41	0xbcb4ab4f	-0.022054343
42	0xbcc5d9f3	-0.024151778
43	0x3e07671d	0.13222928
44	0xbc40bb24	-0.011763368
45	0x3df5711f	0.11984467
46	0xbddc230d	-0.10748873
47	0x3d91d3d0	0.07120478
48	0x3d726840	0.05918145
49	0xbbf8debf	-0.007594913
50	0x3e2c0e97	0.1680244
51	0xbe75773a	-0.23971263
52	0xbd3db5b7	-0.046315875
53	0xbc521556	-0.01282247
54	0xbd1985a6	-0.037480973
55	0x3d1c337b	0.038135033
56	0x3d42385a	0.047417022
57	0xbc761e5b	-0.015021886
58	0x3e9a7675	0.301685
59	0xbd8c89aa	-0.06862195
60	0xbd288706	-0.041144393
61	0x3df230d2	0.11825718
62	0x3e23d804	0.16000372
63	0xbd668025	-0.056274552
64	0x3e9fe65d	0.3123044
65	0xbe0aa1c3	-0.1353827
66	0xbdfd41ce	-0.12366067
67	0x3eb484bc	0.35257518
68	0xbe573e6e	-0.21019909
69	0x3e6f5ea2	0.23375943
70	0xbea268b6	-0.31720513
71	0x3e049d74	0.12950689
72	0x3f39a4fd	0.7251738
73	0xbe51bf72	-0.20483187
74	0x3e1e2109	0.1544229
75	0x3e71619a	0.23572388
76	0xbecc3632	-0.39885098
77	0xbd82c6ae	-0.063855514
78	0x3ea9c4e1	0.3315802
79	0xbe9cba24	-0.30610764
80	0x3edadf3e	0.42748445
81	0x3cfb2674	0.030657984
82	0xbe014e39	-0.12627496
83	0xbe8c6d44	-0.27427113
84	0x3b9328ab	0.004490932
85	0xbe006543	-0.12538628
86	0x3d8713b8	0.06595558
87	0xbba34f84	-0.0049838442
88	0xbe041427	-0.12898313
89	0xbecbdea6	-0.39818305
90	0x3d832048	0.064026415
91	0x3e9a0df6	0.30088776
92	0xbe4ebbd7	-0.20188843
93	0xbe563f52	-0.20922592
94	0x3ebb192c	0.36542642
95	0xbf25b719	-0.6473251
96	0xbee810ac	-0.4532522
97	0x3e932c24	0.28744614
98	0x3ebfdc24	0.3747264
99	0xbebc7f3e	-0.36815828
100	0x3d8f5ef3	0.07000532
101	0xbf5e3a51	-0.86807734
102	0xbde2ca65	-0.1107376
103	0xbf2ea665	-0.6822265
104	0xbf1cdcec	-0.612746
105	0xbeb41ed0	-0.35179758
106	0x3dfe58c9	0.12419278
107	0xbd319bd8	-0.043361515
108	0x3e38fa63	0.18064265
109	0xbef13ea4	-0.47118104
110	0xbe9ebf1d	-0.31005183
111	0x3e077384	0.1322766
112	0x3ef768c4	0.48322117
113	0xbe6df7c9	-0.23239054
114	0xbedf8ccd	-0.4366211
115	0xbf1ab873	-0.604377
116	0xbe2bc3f3	-0.16773967
117	0xbdcd1c6e	-0.10015188
118	0x3e1cb07b	0.15301697
119	0xbe57fbf2	-0.21092203
120	0x3f1648dd	0.5870493
121	0xbf25eeb1	-0.6481734
122	0xbedf65ba	-0.436323
123	0xbd46bad9	-0.048518036
124	0x3ecca4b6	0.39969414
125	0xbea2fb6c	-0.31832445
126	0xbeae48a9	-0.3403981
127	0x3da2abcb	0.07942923
128	0xbe7fd895	-0.24984963
129	0xbddbe4c7	-0.10736995
130	0x3e148fed	0.14508028
131	0xbedd63e7	-0.43240282
132	0xbc222de4	-0.0098986365
133	0x3e00c5e2	0.12575486
134	0x3ed919ec	0.4240259
135	0xbda64c5b	-0.081200324
136	0xbf27ba88	-0.65519
137	0x3dfaa811	0.122390874
138	0xbe2abff6	-0.1667479
139	0xbdd61ae1	-0.104543455
140	0x3f29296b	0.66078824
141	0xbc85a6f6	-0.016314965
142	0xbe40836e	-0.18800136
143	0x3eb41e1f	0.3517923
144	0xbe4fe5be	-0.20302483
145	0xbc813ebb	-0.015776983
146	0xbd7a9564	-0.061177626
147	0x3eacd2d5	0.33754602
148	0xbd962165	-0.07330588
149	0x3e4f4a3c	0.20243162
150	0xbe7a149f	-0.24421929
151	0xbdc124df	-0.09430861
152	0x3eafb319	0.34316328
153	0x3f007a60	0.5018673
154	0xbd989d44	-0.07451871
155	0xbec02c18	-0.3753364
156	0x3dd6059e	0.1045029
157	0x3e77b0c7	0.24188529
158	0xbe69ef01	-0.22845079
159	0x3f2e125a	0.6799675
160	0x3e426331	0.18983151
161	0xbe34737f	-0.17622183
162	0xbe988fcc	-0.29797208
163	0x3ed5c1e4	0.4174949
164	0xbd758abc	-0.05994676
165	0x3f3d25d8	0.7388587
166	0x3ddb6d63	0.10714223
167	0x3f2422af	0.6411542
168	0x3ee895e5	0.4542686
169	0x3eb9bd3b	0.36277184
170	0xbdb4aa62	-0.088215604
171	0xbddbe975	-0.10737888
172	0xbe218b4c	-0.15775794
173	0x3ea6ce5a	0.3257931
174	0x3ed80350	0.42190027
175	0xbe569941	-0.20956899
176	0xbf05dfa1	-0.52294356
177	0x3e6fa902	0.23404315
178	0x3e7c3edf	0.24633358
179	0x3f5461a2	0.82961476
180	0x3e64fadb	0.22361319
181	0x3dd2b026	0.10287504
182	0xbde8343e	-0.113380894
183	0x3e2ccb3d	0.16874404
184	0xbf1edfc2	-0.6206018
185	0x3f23b3ed	0.6394642
186	0x3df41f72	0.1192006
187	0x3dde1370	0.10843551
188	0xbeac1c7e	-0.33615488
189	0x3e3cd61a	0.18441048
190	0x3e191a7e	0.14951512
191	0xbbd44341	-0.006477744
192	0xbc1cfddd	-0.00958201
193	0xbde27b7e	-0.110587105
194	0xbcabc716	-0.020968955
195	0x3d736a6c	0.059427664
196	0xbb7335fa	-0.003711103
197	0x3d87c9f2	0.06630315
198	0x3d9a78ed	0.07542596
199	0x3bf25cc8	0.0073963143
200	0xbd426cc8	-0.047467023
201	0xbd33470e	-0.043768935
202	0xbe40c595	-0.18825372
203	0xbdacfae5	-0.08446292
204	0x3d36a655	0.04459222
205	0x3e1e4f21	0.15459873
206	0x3d0e56eb	0.03475086
207	0xbe1e4fb4	-0.15460092
208	0x3cc15496	0.023599904
209	0xbe494fca	-0.19659343
210	0x3e2a956c	0.16658562
211	0xbdfebdae	-0.12438522
212	0xbe20d63d	-0.15706725
213	0xbd003ee6	-0.031309985
214	0xbd66c00f	-0.056335505
215	0x3d7fdf52	0.062468834
216	0xbde6c405	-0.112678565
217	0xbc937398	-0.017999455
218	0x3d0aa9be	0.033853285
219	0x3d0d49a2	0.03449405
220	0xbdf30b1c	-0.11867353
221	0xbe197bc7	-0.14988624
222	0xbd6c70a6	-0.057724617
223	0xbd8262ce	-0.06366502
224	0xbd3e6fec	-0.046493456
225	0x3d5a6d5b	0.053326946
226	0xbe5a4cf3	-0.21318416
227	0x3d0e6089	0.03476003
228	0xbcd01122	-0.025398795
229	0xbb949259	-0.0045340476
230	0x3e27db7c	0.1639232
231	0xbda274aa	-0.07932408
232	0xbd9533e0	-0.07285285
233	0xbd92be37	-0.07165187
234	0x3e2d7c17	0.16941868
235	0x3da21185	0.07913498
236	0xbe2bf73f	-0.16793536
237	0x3d97d8cd	0.07414398
238	0x3e32d335	0.17463382
239	0x3ce79466	0.028269004
240	0xbd8df8b0	-0.06932199
241	0x3e45a01c	0.19299358
242	0xbcbe3c9d	-0.023222262
243	0x3d08c831	0.033394042
244	0x3e56f047	0.20990096
245	0x3e05ff6f	0.13085721
246	0x3dd83338	0.10556644
247	0x3e3a9f5a	0.1822485
248	0xbd3fd206	-0.046831153
249	0xbd5299d7	-0.051416244
250	0x3bb9435b	0.0056537814
251	0x3e0562c1	0.13025953
252	0xbd5e6e0a	-0.05430416
253	0x3dac8538	0.08423847
254	0x3d5f42a3	0.05450691
255	0xbd4fa8d7	-0.050698128

actor.4.bias f4 [6]
0	0xbe412e04	-0.1886521
1	0x3d8e1f05	0.0693951
2	0x3e0cd50c	0.13753146
3	0xbab6f969	-0.0013959828
4	0xbd9374ce	-0.07200013
5	0x3dab691a	0.08369656
