Plotting/saliencies_live/Multi_Pong/Sequence_Length_1/multi_pong_1__1__1721853303_checkpoint_2432.pt (torch, 86706 bytes, 11 tensors)

critic.0.weight f4 [128, 12]
00000000: 7515 003f b3f3 4b3c 9114 bc3d e1cf e4be
00000010: 2725 93be 5882 af3e 32c7 15c0 ca48 e43f
00000020: eb55 dcbc c85e 0abd 8e13 fc3d 381c 833e
00000030: d73f 19b8 041c f03a 803d 73bd 9092 273c
00000040: 2221 d53c 3c93 7bbe b12c 443d 2da8 6bc0
00000050: 30c5 72bc 37eb 7b3e cf38 943c bbe4 7040
00000060: cfb1 623e dc5f 2abd 5160 9fbd 7ac6 813c
00000070: ee2d 24bc 24d3 ed3b 33a8 1f3d 28a6 a1bd
00000080: 27da 4d3e b6f0 393e 77d4 143e 9b36 4740
00000090: f5b9 98be 3bb9 5a3e 8ace 5abe 5bb8 30bd
000000a0: 3a40 803e fe85 80bd 5201 1b40 881d 5fbf
000000b0: e4dc 333d a179 e73b f10f 25bf 3971 ebbd
000000c0: ad98 393d 1bb7 e13b 2f39 1ebd c4af 3dbc
000000d0: 1dd0 263e ec2c a6bd 976b 7b40 3907 04c0
000000e0: 486b 863c b6f1 e8bd 98e5 1d3e af6c 25c0
000000f0: 70fb 90bd 888f b33c 3e58 c2bd 7412 c5bb
00000100: ffad 8b3c 1bff a73c f6ce d03e 3302 4a40
00000110: 3ed8 f23c 7757 09bc ff32 483e 2e47 ae3e
00000120: 8977 f53d 186d 63bc 1a25 57be 8f69 a3ba
00000130: 7cba 02bd 8830 ecbc d3b8 1fbe 66fc 31bd
00000140: 1092 8ebe 769c a33e cb88 3bc0 9058 3d40
00000150: 217b 813e 595b bfba bc80 e2bc a364 06bd
00000160: 27a9 6dbd ef8e 083e 0e80 1fc0 963d dd3f
00000170: bfec f03d 9788 77bd 7383 c03e 00f1 bcbe
00000180: b69a 29be 4fc3 be3b 720a 293d 6e2c 89bb
00000190: 81e3 573c 5b9b e4b9 f47d c23d d960 a03d
000001a0: f4b7 f4bd 98da f2bd 5290 91c0 f065 94c0
000001b0: c8d6 223f 47ae c8be 4c7c 263f 86cf a9bd
000001c0: 1868 96bf 0b49 f03e caac 77bf c164 d83e
000001d0: 303f 083d 6527 0b3c 334a 3b3d 296f f4bc
000001e0: 8a6e 883f bc4c 3a3c 6f57 5c3f 2b4a 19bc
000001f0: 30aa 0bbc ea27 babb 56a1 a53e 924b ba3b
00000200: 8332 e3bf d855 233c a423 28be 076c 03bd
00000210: 79f3 c2bd 06c1 0d3c 2c0c 9c3c 4683 cc3b
00000220: 018b fa3d 13ae f1bd eb31 7e40 db04 7ac0
00000230: 0a2f 3f3c 5294 e3bb 2dea 1b3e e3f3 76bb
00000240: f55c 4f3d 5521 0e3d 1fad 5fbd 7ab2 e23c
00000250: ecfa 633d ef63 63be 228c a83e 9677 1abf
00000260: 62cc 3cbd d74b 6e3c 54dc 27be 4038 5ebd
00000270: 8c7d d03d 9151 bd3a 3000 f63d 4639 50bb
00000280: 2451 223c d891 52ba fc0e 16bf 5a04 a4bd
00000290: d437 6abd 38be f3bb 21a2 23c0 6ca3 e73b
000002a0: fedb 6f3c 4548 d0ba c521 363c 127a fbbb
000002b0: fb8a 34bb 7b80 b8bb 2854 ed3f d789 c83f
000002c0: 42f5 c9b9 85af bcbb 2bd0 b4bf 1b94 cdbc
000002d0: 9eaa 10bd 75fd 54bc 563b b9bd c900 233b
000002e0: 4038 1dbe 68a9 023c 5b1b 25c0 a140 373e
000002f0: 7b45 2e3e c522 cf3c 3865 4c40 a33c 24bb
00000300: 0ca6 1d3d 6586 a83b 43df d5bc e41c a63a
00000310: 5765 9fbd 711b e0bc 4249 4cc0 bff0 3abf
00000320: 5a94 8f3c b770 9b3d f1cd ba3e 3d75 6640
00000330: 03e6 7ebd 0051 e6bc 9e15 0e3e 439f e53b
00000340: 6c86 873e 8c22 f83c 7217 2440 014b cf3d
00000350: f76f 85be 7026 b23c 940c 0ec0 6929 8f3d
00000360: 5487 c93e b438 69bd e444 253e cd6a 173f
00000370: 2588 43be 3eee 0ebf 839b 54be 35a1 76bf
00000380: 0a6f 88bd db8c 8b3d d4ed de3d be25 283e
00000390: 5e82 05bb d2b4 78bb fe08 813d c078 87bb
000003a0: b1b0 f5bb 903a 11bd fa97 aa3e 7743 c9bf
000003b0: 52a1 843d 9213 00bc 861d 0340 7778 b7be
000003c0: cf43 2abd 38b1 10bc bf3c e63d 5590 7f3b
000003d0: 9cfd 8c3d 9c04 8fbb 9583 8c3f 1c69 d23d
000003e0: 5733 ea3d d537 51bc f69d 8240 62cf 85bd
000003f0: 409e 983e 93b2 f1ba e86f 163e 60e8 8ebe
0.5003274 0.012448239 0.0918361 -0.4468985 -0.28739282 0.34279132 -2.340283 1.7834713
-0.026896438 -0.033781797 0.12308417 0.25607467 -3.6537498e-05 0.0018318896 -0.059384823 0.010227814
0.026016776 -0.24567884 0.047894184 -3.6821396 -0.014817521 0.24601446 0.018093495 3.7639606
0.22138141 -0.041595325 -0.07782043 0.015841711 -0.010020716 0.007257836 0.038978767 -0.0789302
0.2010275 0.1815823 0.14534174 3.1127079 -0.29829374 0.21359722 -0.21367851 -0.043144565
0.25049 -0.06275557 2.4219556 -0.87154436 0.04391183 0.00706406 -0.6447745 -0.11496205
0.04531162 0.006888283 -0.038628753 -0.01157755 0.16290326 -0.08114037 3.9284418 -2.0629408
0.016408578 -0.11374228 0.15419614 -2.5847585 -0.07079208 0.021919027 -0.09489487 -0.0060141627
0.017050741 0.020507386 0.407829 3.1563842 0.029644128 -0.00838267 0.19550703 0.3403868
0.1198569 -0.01388099 -0.21010247 -0.0012467372 -0.031916127 -0.028831735 -0.15597849 -0.043453597
-0.27845812 0.31955308 -2.9302242 2.9585304 0.25289252 -0.0014599367 -0.027649276 -0.03281082
-0.058022644 0.13335775 -2.4921908 1.728442 0.11763906 -0.060432997 0.37600288 -0.36902618
-0.16562924 0.0058216224 0.041269727 -0.0041862046 0.0131768 -0.00043603298 0.0949668 0.07830972
-0.11949149 -0.118581 -4.548867 -4.6374435 0.6360898 -0.39195463 0.6503341 -0.08291535
-1.1750517 0.46930727 -0.9674803 0.4226437 0.033263385 0.008493279 0.04572506 -0.029838162
1.0658734 0.011370834 0.86070913 -0.009356062 -0.008524463 -0.0056810277 0.32349652 0.005685278
-1.774979 0.009969197 -0.16419846 -0.032085445 -0.09519095 0.008651977 0.019048773 0.006241235
0.12233544 -0.1180078 3.9717968 -3.9065464 0.01166893 -0.0069451714 0.1522605 -0.003768199
0.05062576 0.034699757 -0.05460846 0.027672995 0.05565922 -0.2220609 0.32919413 -0.60338724
-0.046093352 0.014544449 -0.16392642 -0.054252863 0.10180196 0.0014443864 0.120117545 -0.003177242
0.009907041 -0.00080325967 -0.58616614 -0.080086425 -0.057182148 -0.0074384473 -2.5567706 0.007069042
0.014639853 -0.0015890679 0.01111645 -0.007674464 -0.002754866 -0.0056305504 1.8541307 1.5667065
-0.0003852044 -0.0057582282 -1.4126028 -0.025095036 -0.035318963 -0.012999882 -0.090445206 0.0024872294
-0.15353489 0.00797496 -2.5797946 0.17895748 0.17018692 0.025285134 3.193678 -0.0025060556
0.038488433 0.005142974 -0.026107436 0.0012673405 -0.07783001 -0.027356835 -3.1919713 -0.730236
0.017526794 0.07589858 0.36485246 3.6009057 -0.062231075 -0.028114796 0.13875434 0.007007511
0.26469743 0.03028991 2.563931 0.10121728 -0.26061985 0.021746844 -2.2195177 0.0699032
0.3936106 -0.056938842 0.16139561 0.5914734 -0.19094904 -0.5583228 -0.20762448 -0.9633973
-0.06661804 0.068139754 0.10885206 0.16420648 -0.0020371894 -0.0037949574 0.06300543 -0.0041342676
-0.00749787 -0.03545624 0.33319074 -1.5723714 0.06476082 -0.007817166 2.048677 -0.35834095
-0.041568574 -0.008831315 0.11242055 0.003899594 0.0688431 -0.004364563 1.0977656 0.10273954
0.114355735 -0.012769659 4.0817823 -0.06533696 0.29808235 -0.001844006 0.14691126 -0.27911663

critic.0.bias f4 [128]
00000000: 636a 863e 882b fc3c bf5a 7b3d 5514 c6bd
00000010: 72a7 0dbd ae14 103d eb95 0bbc 4d5a 813d
00000020: 6a1f 823d efc8 0d3f 3dd5 573f 4646 12bd
00000030: d4c8 31bd e11c 623b a6a0 9ebc 7aee 243d
00000040: a409 a7bd a78e 8abd 35f5 213e 9c3b e03c
00000050: 40fa a83c d76f 083e df08 c3bd 433f 34be
00000060: 0e77 603d 91d4 003d cc35 363e de8b 4fbc
00000070: d197 c9bd a85f 39bd 2c90 73bd 80a6 d13d
00000080: e560 c7bc 5f3f 483e d0b2 933e f0f2 5abd
00000090: e940 563d 3131 d3bc d126 e73c 0103 023b
000000a0: 58f8 1d3e a168 f6bd 9ead be3c 6220 b3bd
000000b0: b2ff 143d 0a8f 393f 9750 acbd c4ae fc3c
000000c0: faba e43c aa74 d03c 116d 99bd 723a 5a3c
000000d0: acda 353e 5d0f 3d3b e6d4 a63d c375 623e
000000e0: 2630 403d d317 8b3b 8e97 58bd 0175 a8be
000000f0: 24ac 98bc 2531 10bd 6c56 67be c498 5c3f
00000100: aeaf 90bd a5c1 a23e 4e10 71bd 8bb4 26bd
00000110: f87d 0e3d b045 0bbe b88c aabd 7eb9 003d
00000120: 1806 493d a8d3 cebd 9266 a7bd 07aa 2c3d
00000130: 6cba 7d3d cce5 3c3d 094b b7be c9ff 913c
00000140: 984c c43d d698 713e b0c3 2b3d 04cc 873d
00000150: 6b59 9abd 6df5 50bd a34e 85bc 10c3 dc3e
00000160: 05ba 9c3c 8a44 d6bd 203f b53c ffe0 9cbd
00000170: 1f6d 19bd 4b34 e33c ad62 553d 9bd9 2bbe
00000180: a9bd 533d 1878 fbbd e249 b43a 58b5 433e
00000190: cdff 2ebc 37c5 f03c e6f3 6bbd c85f a2bd
000001a0: e9b7 c5bd df68 12be 06ae f73e f1d0 423c
000001b0: e027 5c3d fe14 323d b63f aa3d 1e24 26bc
000001c0: e39f 71bd 4ccf 42bc 67e6 42bd 3f17 e43c
000001d0: d2ee 2bbd bdbc 94bd be87 82bc 76c1 443e
000001e0: b256 c5bd 3300 ae3c f981 b23c a323 a1bd
000001f0: faeb 3a3d f264 5dbd 660e 343d 4f20 3bbd
0.26253042 0.030782476 0.06136584 -0.09671847 -0.034583516 0.03517597 -0.00851963 0.06316052
0.06353648 0.55384725 0.8430975 -0.03571155 -0.043404415 0.0034502076 -0.019363713 0.04026649
-0.08156136 -0.0676549 0.15816195 0.027372174 0.020627141 0.13323914 -0.095231764 -0.17602257
0.05480104 0.03145272 0.1779396 -0.012667624 -0.0984341 -0.04525724 -0.059463665 0.102368355
-0.024338195 0.19555424 0.2884736 -0.05345434 0.052307997 -0.025780292 0.028216751 0.0019838216
0.15426767 -0.12031675 0.023276147 -0.08746411 0.036376663 0.72483885 -0.08413809 0.030845053
0.027921189 0.025446255 -0.07491506 0.0133195985 0.17759198 0.0028848269 0.08146076 0.22115235
0.046920918 0.0042447834 -0.05287891 -0.32901767 -0.01863677 -0.035203118 -0.22591561 0.861706
-0.07064758 0.31788364 -0.05885344 -0.040699523 0.034788102 -0.13600802 -0.08327621 0.0314269
0.049078077 -0.10098964 -0.081738606 0.04215434 0.061945364 0.04611759 -0.35799435 0.017822163
0.095849216 0.23593459 0.04193467 0.0663071 -0.075365864 -0.051015306 -0.016272848 0.4311757
0.01913167 -0.104622915 0.022124827 -0.07660102 -0.03745758 0.027734896 0.052096058 -0.16782229
0.051694546 -0.122787654 0.0013754929 0.19112146 -0.010681105 0.029390914 -0.057605647 -0.07928425
-0.09654219 -0.14297818 0.48374957 0.011890636 0.053748965 0.04347705 0.08312933 -0.010140447
-0.05899037 -0.011890244 -0.04758301 0.027843116 -0.041975804 -0.072625615 -0.015933868 0.19214424
-0.096356764 0.02124033 0.021790491 -0.07868125 0.0456352 -0.054051347 0.043959044 -0.04568511

critic.2.weight f4 [64, 128]
00000000: f990 a7be a325 8a3e 492f 09bd 8aa8 193f
00000010: 36f1 083f f9d9 c0bd 2332 77be 1911 16bd
00000020: 5885 ba3e a74f 46bf 0cdf 853c 2e91 d83d
00000030: 2cf6 873d 6d30 eebe 4f6e 913e ce6d 4cbe
00000040: dabd c7be 0309 9b3d 5070 44bc b9a5 943e
00000050: 354c 77be 1441 8b3d d31e 92bd 73b9 463e
00000060: c36f 7b3d 79d4 a63d e998 8a3d b91d a93e
00000070: aab5 a2be a472 663e de8c 0abd ac6e 2a3f
00000080: 4dca 5fbe dd1e b63d 658c 483e 3b12 e93e
00000090: 17f1 d13e 3c37 a53e 7c4f b83e 4363 49be
000000a0: c911 d6bd 7bb6 4ebe e420 3cbc f4a3 af3e
000000b0: 2273 e73e dcd8 d63e 4d67 883d 305b b5be
000000c0: 7d64 e9be 542f 35be e32e c13d b853 2b3d
000000d0: 9c62 c33e 4ab3 54be 469d 93be 4166 75bd
000000e0: 26d6 66be a626 163e 006e 87be b89e 8b3e
000000f0: 6230 e33d 962d 9c3d 7f25 c1be fab4 f6be
00000100: 7baf 6dbe 4f3d 963e 9dd9 403e 7755 26be
00000110: 563a 18be 9254 23be 22d8 c23e 68cf df3e
00000120: 9138 893d 1706 273e ad2f 9cbc 9fb5 1aba
00000130: ee9b 903e 600b e939 f241 563d cb21 02bf
00000140: 5fc6 c9bd 4ac4 83bc 0368 09bd be47 b23e
00000150: 066e dbba f80b d6be 1fa7 4fbe daeb 1e3e
00000160: 9787 afbe 2507 8b3e de70 2dbe b3f2 06be
00000170: d486 4c3e b4ac a23e 6827 033d 082e c63d
00000180: 9383 57be 8e20 6bbe a464 983e 534d d93d
00000190: c84c 373e 73dd 18be 2fe8 3abe f977 023d
000001a0: ec48 96bc 89c0 64bd 846f 0abd 4c89 2f3d
000001b0: 659c b9be c521 a53e 6371 bcbe 08b5 753c
000001c0: 83e1 c53e 6a49 9d3e 697e b3bd aea3 9abc
000001d0: 69e7 4cbe 18a6 923e 1559 423d 5b7f 763e
000001e0: 3001 503f 028a e33c 59bc 723e ed71 41bd
000001f0: a3b6 6bba fbcf 833d f236 cfbc e429 93be
00000200: 358f 423e 2930 93be 4485 c9bd 0b21 a53e
00000210: 9763 1dbe 6b78 05bc 3705 ea3d 267f 9f3e
00000220: 2a7d 79bf 4868 21bf 6371 28bc c095 10bf
00000230: ae1f 1c3d ef4e 2ebf a05e 043e fc88 16bf
00000240: be6d d53e 6c56 513e fdce 9ebd 7bf0 13bc
00000250: 0acf 083f 8c6f 67be 637a 1c3e 2762 c8bb
00000260: 05b8 a83e 411a 9ebe 364f be3d 31d6 43bf
00000270: 7e0a fc3d a3e9 f1be d825 aa3d 796f c63d
00000280: 918d d4be 9e86 5bbd 81d7 243e e5de 01bf
00000290: f869 e2be 1f7b 7c3e 2e76 783e be24 b7be
000002a0: 07b1 673f 6a21 b9be 206f 3cbf 1eba 1fbe
000002b0: f6ef e93b ad16 f0be ad45 81bd 8378 333e
000002c0: cc74 bcbe 4ed8 c439 7174 ed3d 465e 23bf
000002d0: 4177 063d 5164 873e 331b 80be 0981 24bf
000002e0: 4a75 833e c084 e43b 3c73 e23d 1362 493e
000002f0: 165d e5bc cb48 643e ee1e d9be 0bff 033c
00000300: e86f db3c 666d 96be 5e08 81be 05ba 96bc
00000310: 0278 4e3d 2a9b 983f 2200 a73e 1377 29be
00000320: a126 7d3e 6224 103d 7a23 533d cefe 953d
00000330: 8ee6 d63d d1ab 0d3f a5e4 923e 96e1 f53e
00000340: 0d3d 62be 15e9 b4be d55c 303e c1a1 bdbe
00000350: 6284 0ebf c00f be3e 4c1d 5c3e 495b f03b
00000360: 87e6 11bf 0550 f53c cace 6ebe e161 36be
00000370: 842c eb3e 276c 86bd 2986 033d 662d 9a3c
00000380: dd54 a4ba 9163 f9be 1206 23bf a25e 713e
00000390: f1ca 06be b731 1e3e afec ac3e f777 91bd
000003a0: 6230 a63d 3619 e7be 3501 3abe 89fe dabd
000003b0: 690d f4bd 076c 2abf afac f93e 718f 443f
000003c0: ecf5 bfbd 0b3e e8be 00ef 00bf 9e56 4cbd
000003d0: e18b 20be 7df3 3a3f d463 143d bc89 d4bd
000003e0: e96b 193e 3683 acbc 111e c23e e68c cdbe
000003f0: 135c 9f3e c7fb 94bc 5844 2dbf e9c1 c03e
-0.32727793 0.2698184 -0.03349236 0.60022795 0.5349306 -0.09416575 -0.2414022 -0.0366374
0.36429858 -0.7746529 0.016341709 0.10574566 0.066387504 -0.4652132 0.2840447 -0.19963762
-0.39012033 0.07570078 -0.011989668 0.29032686 -0.24150164 0.06799522 -0.071347855 0.19406681
0.06138588 0.08145995 0.067674465 0.3303049 -0.31779224 0.2250467 -0.033825748 0.6657512
-0.21854515 0.088926055 0.19584806 0.4552172 0.4100425 0.32268703 0.35998142 -0.19666772
-0.10452611 -0.20186798 -0.011482451 0.34304774 0.45205027 0.41962326 0.06660328 -0.35421133
-0.4558448 -0.17693835 0.09432771 0.041827887 0.3816117 -0.20771518 -0.28830928 -0.05991197
-0.22542629 0.1466318 -0.2645111 0.2726953 0.11093213 0.07625882 -0.3772392 -0.4818495
-0.23211472 0.2934365 0.18833013 -0.1624354 -0.14866003 -0.1595023 0.3805552 0.43712926
0.06700242 0.16310917 -0.019065702 -0.00059016974 0.28243965 0.00044449698 0.052308984 -0.50832814
-0.098522894 -0.016084809 -0.03354646 0.3482036 -0.0016741164 -0.41806006 -0.20278595 0.15519658
-0.34283134 0.27153888 -0.16937587 -0.1317852 0.19973308 0.31772387 0.032020003 0.096767485
-0.21046285 -0.22961637 0.29764283 0.106104515 0.17900383 -0.14928226 -0.18252634 0.031852696
-0.018345319 -0.05584768 -0.033797756 0.042855546 -0.36252132 0.32252327 -0.36805257 0.0149967745
0.38648614 0.30720073 -0.08764345 -0.018876877 -0.20010151 0.28642344 0.047448236 0.2407202
0.8125181 0.027775768 0.23704661 -0.04722779 -0.00089917536 0.064361535 -0.025294755 -0.28742898
0.18999942 -0.2874768 -0.098398715 0.32251772 -0.15370022 -0.008146386 0.11426776 0.31151694
-0.9745661 -0.63049746 -0.01028094 -0.564785 0.03811615 -0.68089193 0.12926722 -0.5880277
0.4168529 0.20443124 -0.07754324 -0.009029503 0.53440917 -0.22601146 0.15281062 -0.0061152163
0.32952896 -0.30879405 0.09292452 -0.76498705 0.12306689 -0.47248563 0.08307999 0.096892305
-0.41514257 -0.053595178 0.16097833 -0.50730735 -0.44221473 0.24656342 0.24263832 -0.3577022
0.905045 -0.36158305 -0.73607063 -0.15598342 0.0071392013 -0.468923 -0.06312118 0.1752644
-0.3680786 0.00037545193 0.11594475 -0.63815725 0.032828573 0.26443723 -0.2502075 -0.6425939
0.25675422 0.006973833 0.110571355 0.19666319 -0.027998488 0.22293393 -0.4240641 0.008056412
0.02678676 -0.2938034 -0.25201696 -0.018399248 0.050407417 1.1922352 0.3261729 -0.1654933
0.24721767 0.035190947 0.051547505 0.07323991 0.104931936 0.55340296 0.28690067 0.4802367
-0.22093602 -0.35334077 0.17222913 -0.3703747 -0.5567075 0.3712139 0.21495551 0.007335101
-0.5699238 0.029945383 -0.23321071 -0.17810775 0.459324 -0.06563597 0.032110367 0.018820476
-0.0012537498 -0.48708776 -0.6368114 0.23571256 -0.13163354 0.15448652 0.33774325 -0.071029596
0.08114697 -0.45136422 -0.18164523 -0.1069308 -0.1191662 -0.66571087 0.4876456 0.76781374
-0.09373078 -0.45359835 -0.50364685 -0.049887292 -0.1567836 0.73027784 0.036228016 -0.10377833
0.1498257 -0.02105866 0.37913564 -0.4014656 0.31124935 -0.018186463 -0.6768241 0.37647942

critic.2.bias f4 [64]
00000000: 9938 af3e 2466 7cbe c887 43bf bc48 3c3f
00000010: b604 423f 2042 debe 6606 a73d 7af2 b9bd
00000020: a7d8 63be 5a87 8c3d 6f0d 123e 3c00 963e
00000030: 2d65 443e a4b2 8dbe beaf 343e d0aa d93e
00000040: 602a d73e 7cf4 133f fb01 e03e 3de2 a43e
00000050: 3c36 20be 0a1d 213e 4e0f 133f 4917 ab3b
00000060: 45f4 afbe f12a 98be a396 eb3e 6075 0f3d
00000070: 774f 0f3f 1214 df3e eca6 79be fdc9 673d
00000080: bef2 b33d 4857 183f 0ea1 93bc a02b c8be
00000090: 5a8f 08bf deb6 f03d fe26 133e 6024 31be
000000a0: 35ae 94bf 2d8c 833e d655 bb3e bed6 883c
000000b0: ff08 b53d d2d1 7d3e dc1d dfbe 3ae4 5e3d
000000c0: 9478 e63c f9d3 403e 0c51 34be ac0c c23e
000000d0: 2e96 983e 287a 893c 138e a23e 8565 7fbe
000000e0: 1020 333f babd 0e3f 9948 933e 0907 863e
000000f0: f058 1ebe ad6f aa3d 9133 10be f413 05bf
0.34222868 -0.24648339 -0.7637906 0.73548484 0.7578844 -0.43409824 0.08155517 -0.09079452
-0.22250615 0.06861754 0.14262937 0.29297054 0.1917922 -0.27675354 0.17645165 0.42513132
0.42024517 0.5779493 0.4375151 0.32203856 -0.15645689 0.15733734 0.5744523 0.0052212817
-0.3436605 -0.29720262 0.46013364 0.035024047 0.5598063 0.4357 -0.24380082 0.056589115
0.08786534 0.5950818 -0.018021133 -0.39095783 -0.5334374 0.11753629 0.14370343 -0.17299032
-1.1615664 0.25692883 0.36588925 0.01670396 0.088396065 0.24787071 -0.43577468 0.054416873
0.028133668 0.18830861 -0.17609042 0.37900293 0.29802078 0.016781881 0.3174902 -0.2494107
0.699708 0.5575825 0.28766325 0.26177242 -0.15463614 0.08322082 -0.14082171 -0.5198357

critic.4.weight f4 [1, 64]
00000000: 7b34 623e ae3f 77be 1c92 4abe 7050 413e
00000010: 90b3 f83f a308 42be 54d5 b4be 8124 3abe
00000020: c84f b7be a626 473e 2c92 353e 786f df3d
00000030: 9e0a 913e afbc 07be c686 f73d c221 3e3e
00000040: cbb5 6e3e 8994 833e 715d 843e 3102 5e3e
00000050: 76f4 db3e 5111 c8be 6490 903e 07e2 4abe
00000060: 995c 5ebe 1115 29be 13b4 8d3e bdf7 b33e
00000070: f4e1 fa3d 8d40 833e c15b cbbe cd36 423e
00000080: 0459 7c3e 8581 993f c1bc 9fbe 1652 89bf
00000090: 356f 69be d89f 2f3f 32e6 01bf c592 8dbf
000000a0: 1ca4 b7bf 794f 3a3e c4bd 1c3e be12 f9be
000000b0: bb67 19be a03a 2b3e cc70 3ebe 4785 28be
000000c0: f4e8 433e a337 2c3e 2955 30be 0f24 cd3e
000000d0: d741 993e 0e11 4b3e 6616 5a3f 946d 95be
000000e0: 21a9 203f 7670 333e aea0 963e ee9c 1e3e
000000f0: 0e37 51be 01cd 52be 728b 11be 2d08 fdbe
0.22090332 -0.24145386 -0.19782299 0.1887834 1.9429798 -0.18948607 -0.35319006 -0.18177988
-0.35803056 0.19448337 0.17731541 0.10909933 0.28328413 -0.13255571 0.12086253 0.18567565
0.23311536 0.2569926 0.2585254 0.21680523 0.42959946 -0.3907571 0.2823516 -0.19812785
-0.2171501 -0.16511942 0.27676448 0.35149947 0.122501284 0.25635186 -0.3971844 0.18966217
0.24643332 1.1992651 -0.31198695 -1.0728176 -0.22796328 0.6860328 -0.50741875 -1.1060416
-1.4346957 0.18194379 0.15306765 -0.48647112 -0.14980976 0.16721582 -0.18597716 -0.16457091
0.19131833 0.16818099 -0.17219986 0.40066573 0.29933044 0.19830725 0.8519043 -0.29185164
0.6275807 0.17523369 0.29419464 0.15489551 -0.20431158 -0.20586015 -0.1421335 -0.494203

actor.0.weight f4 [128, 13]
00000000: 940e bb3c 0154 8bbe 7a04 203f 1c72 fcbe
00000010: fd7b 323f 689a 1cbf 26b5 0dbe 47e7 d63b
00000020: f651 f63e 4c46 86bd a416 39bf 0759 b73e
00000030: 5ad7 243f 230c dc3d ce22 203d 3bb2 d63d
00000040: f33e 903d adc1 453e 2c2c 943e 6549 9abe
00000050: 27df 3a3e 0eca 37c0 3ba1 bdbe 47d3 94bd
00000060: ba7b 953e 8ffe bb3d 15a7 e23d 72ca b7be
00000070: 2c18 103f 9380 e8be 1dff 463f a57c 1a3f
00000080: 0b58 62be afee 953e b821 003f b972 173e
00000090: 1f95 7fbe 6e7b b53e 437c 423e b804 903d
000000a0: 4dbb 12be c385 10bf 2e1e 94bb a1b4 1e3f
000000b0: 4b26 f13f b29c e23d 21f6 183e 8769 e83e
000000c0: b6ec c8be 214a 5d3e 313d d03e a041 01bf
000000d0: 3869 45bd a0cb 0cbf fc7c a8bb baca 60b8
000000e0: 6e11 943e df62 10bf 1e69 473f ca2b edbe
000000f0: 592a 6bbe b249 e2be 06b4 523b e1ee 2ebf
00000100: 980b d23d 4043 663c b1af e1bd a0c9 603d
00000110: 355a 35be 1524 b0bf 5fc3 70bf b700 6a3e
00000120: 010f 4b3e 35f0 a8bf 70e5 63bf e1c8 b3be
00000130: 8e41 ce3e 040e 4abe 79fd 3abe f75e 303d
00000140: e9fd 42be c831 3fbc c100 143f 85b9 22bf
00000150: aaeb 1fbf 10fd f93e 2e46 9f3c 73f7 433f
00000160: 2c56 f73e d10a 83be 467a bfbe febe 35bd
00000170: bdce c7be e46b 2ebe b12b 913e edd9 793f
00000180: 7242 06bf ba7f a63e 634e 4abf 4ba9 27bf
00000190: e401 65be 4e1e 9cbc fca1 873d ccf3 6abe
000001a0: 312c 57be 96d3 c13d 407c 103f 99e6 f0bb
000001b0: 7f15 f13e d16a 853e 8398 cb3e b63d 71be
000001c0: d719 823f 9865 5bbe 9be0 e1be 47d5 cc3e
000001d0: 6619 babe 0ef8 1e3d 3baa ce3e 2f77 bfbe
000001e0: 2469 eebe 2fd5 d8be e2cf 80bf 365b 993e
000001f0: c549 fbbd e3d6 c93f 52ea 043f e8fa 22bf
00000200: 4607 c93e e08e c23d de6d 5d3e 21eb 05bf
00000210: ea50 0cbf 1914 023f 7331 8bbf 49b6 2d3e
00000220: 5ee4 4b3d 0c0f 44bd 9d72 393f 91bd 27be
00000230: cba4 053e d8be e93d b231 2c3e b421 cd3d
00000240: a32e 58bc 8604 edbd 7241 b13d 2b09 8c3e
00000250: fed4 15bd 428a 98be 3c01 fbbd eecb 53c0
00000260: ccd1 2c3c 55fc 87bd f7b6 ccbe cd52 603e
00000270: df97 6cbd ae2d 4fbe 5f34 e0be 58c0 8e3e
00000280: 3964 4d3f 9105 fdbf d5d3 0cbd a065 063e
00000290: c23e 3abe 36c9 0abe fbbe b1bd 4cc6 3dbe
000002a0: 10a1 a83d 0c67 4c3d 1f5a 9dbe cd88 423e
000002b0: 0167 2cbd 7e5a d83f d55f b1bf b686 02bf
000002c0: 2f2c c03e 98a1 7cbf 8e63 763f 8f8d 37be
000002d0: 9e5e c23e 4d9f 103e 57e7 1d3e 951a 703e
000002e0: b9a1 203c bde3 19bd 17d2 a03f 6af5 533e
000002f0: 1014 ba3e 8590 c63e cf7f 04bf 84c9 043f
00000300: a0b2 663f 1fae a33e caeb abbf 79b3 59bc
00000310: 6856 3c3e 6455 6abe 7709 d03e 63dd 7dbf
00000320: fa02 383f 09c0 7ebe 152f cc3c 698f 4f3f
00000330: 361c c9bf 50c9 55be 7101 d73d 0bba 0b3e
00000340: 2c00 083d 8283 86be 6c40 8a3e 1f6b fe3d
00000350: 4f99 163f 44db cd3d 4c28 d7be 2224 2c3e
00000360: d481 d7bf df17 39bf 888b 323f 7fd4 02bf
00000370: c9a6 02bc 5fb2 873e 9bb7 cc3e 19a6 2e3d
00000380: 1c84 ebbe 6bb2 8e3f 857e 2ebf 157a abbe
00000390: dca6 903e 6570 21bf 40a3 193f 1316 6dbe
000003a0: 631b f73c 6669 313f ae00 cb3c 5ca2 4cbf
000003b0: 0c02 11be cb37 b03e abec b4be f75e a53e
000003c0: 96fb 953d 4770 24bd 3072 a6bf 969e 5cbe
000003d0: dc68 fb3e 98be 2bbf b93d 163f 1981 ba3e
000003e0: b504 dbbe 93ff abbe 0c56 1bbe f1fe 913e
000003f0: 8757 013f e2f9 163f c0a3 143e 79e5 b73d
0.0228341 -0.27212527 0.6250683 -0.4930581 0.6972044 -0.61173105 -0.13838634 0.006558332
0.48109406 -0.06556377 -0.7230017 0.3581011 0.643911 0.107445024 0.039095692 0.104832135
0.070432566 0.19312163 0.2893995 -0.3013412 0.18249188 -2.8717074 -0.37037072 -0.072668605
0.29195958 0.091794126 0.110670246 -0.3589664 0.56286883 -0.45410594 0.7773302 0.6034644
-0.22103898 0.29283664 0.5005145 0.14789857 -0.24959229 0.35445732 0.18992715 0.0703215
-0.14329262 -0.56454104 -0.0045201993 0.6199437 1.8839811 0.110650435 0.1493764 0.4539301
-0.39243096 0.21610309 0.40671685 -0.5049076 -0.048196048 -0.5499821 -0.0051418524 -5.3594566e-05
0.28919548 -0.56400865 0.7789477 -0.4632247 -0.22965373 -0.4419685 0.003215076 -0.6833325
0.102561176 0.01405412 -0.110198386 0.054879785 -0.17710193 -1.3761011 -0.9404811 0.22851835
0.19829942 -1.3198305 -0.8902197 -0.35114196 0.4028439 -0.19731909 -0.18260755 0.043059316
-0.19042172 -0.011669584 0.5781365 -0.6356433 -0.6246897 0.48825884 0.019442644 0.7654945
0.4830793 -0.2559419 -0.37397975 -0.044371597 -0.39024916 -0.17033345 0.28353646 0.97598153
-0.5244514 0.32519323 -0.7902586 -0.65492696 -0.22364002 -0.01905742 0.06622693 -0.22944564
-0.21012951 0.09464185 0.5643959 -0.007351708 0.47086713 0.26058057 0.39764795 -0.23558697
1.0164136 -0.21425474 -0.44116673 0.40006468 -0.36347502 0.038810782 0.4036425 -0.37395617
-0.4656459 -0.42350146 -1.0063441 0.299524 -0.1226993 1.5768703 0.51920044 -0.636641
0.39263362 0.094999075 0.21623942 -0.52311903 -0.54810965 0.50811917 -1.0874466 0.16964068
0.049778335 -0.047865912 0.7244051 -0.16380908 0.13051145 0.11413354 0.16815832 0.10016194
-0.013194713 -0.115731284 0.08655061 0.27350745 -0.03658008 -0.29792982 -0.12256095 -3.3093219
0.010548066 -0.066399254 -0.3998334 0.21906586 -0.057762023 -0.20232269 -0.43789956 0.27881122
0.8023105 -1.9767324 -0.034381706 0.13124704 -0.18188003 -0.13553318 -0.08679005 -0.18532676
0.08233845 0.04990296 -0.3073282 0.18997498 -0.04209042 1.6902616 -1.3857371 -0.509868
0.3753371 -0.9868407 0.9624566 -0.17925094 0.37962812 0.14123268 0.1542028 0.2344764
0.009804183 -0.037570704 1.2564114 0.20699087 0.3634343 0.38782135 -0.5175752 0.5186999
0.9011631 0.3196878 -1.3431332 -0.0132874185 0.18392336 -0.22884136 0.4063222 -0.99165934
0.7187954 -0.24877943 0.024924794 0.810782 -1.5711734 -0.20877576 0.10498322 0.13645189
0.03320329 -0.26272207 0.27002275 0.124227755 0.5882768 0.10051587 -0.42022932 0.16810659
-1.6836495 -0.7230205 0.6974416 -0.51105493 -0.007974335 0.26503274 0.3998383 0.04263887
-0.4599923 1.1148199 -0.68161803 -0.3349158 0.28252304 -0.63062125 0.60014725 -0.23152952
0.030164426 0.6930145 0.024780598 -0.7993524 -0.14160937 0.34417567 -0.35336813 0.32299015
0.07323377 -0.04014614 -1.3003597 -0.2154487 0.4910344 -0.670877 0.5868793 0.3642662
-0.4277703 -0.33593425 -0.15169543 0.28514817 0.5052418 0.5897504 0.1451559 0.08979315

actor.0.bias f4 [128]
00000000: bd60 393d 4f80 443e 8fe6 083e d7ed a0bc
00000010: 44e0 07be 62cd d0bd b3ce 68bd 8163 353d
00000020: ff0e 83be f0b0 1c3e 0a32 8c3e 1924 c0bc
00000030: bfc5 88bd 3910 ab3d 1c6a aa3d 2b06 ce3c
00000040: fa39 613d 5c25 c93c d9aa e13d 65b3 953e
00000050: 4c63 403e ca27 1ebd 34e1 88be 0610 463b
00000060: b565 213e 9342 febe 2503 15be 8dd9 9e3e
00000070: e70b a7be 3783 a8bd 0763 b5bd 1fe8 7cbd
00000080: 435f a6be 51d5 453e ea77 69be ef67 c53d
00000090: 9321 cf3e 8b82 ae3d 10f6 de3d 71ae 193e
000000a0: 21f8 fabd aa9f e13e 8e81 11be 88e8 78be
000000b0: 90eb 073e ad13 f23d 317b d8bd c8c4 01be
000000c0: 5ebb 013d 82aa 573e 108c ddbe 0b37 683e
000000d0: a6ae e73d 3c4b 62be aa0b 04be a612 4c3e
000000e0: ee39 0ebd 96ff 8a3e 1e09 a23e 6793 093c
000000f0: 3159 abbd 6b3a 67be e862 373d 1936 043f
00000100: e242 713e bfab c53c f6cf 403d a439 2e3e
00000110: 04df 9d3c 49ce f0bd 99e4 e93e 3396 c23d
00000120: 9c8b 90bd 412a ac3d 5f35 3dbe c0f4 43be
00000130: 859e 663d d78e 62be 5c08 17be ba41 b43d
00000140: aa0a 103e d67e 68be 26b6 80be c457 ebbc
00000150: 8a75 a23e 52e7 dc3d ce12 c33e d1ff 84bd
00000160: 1904 4a3c 4341 953d 8353 3bbe 6487 de3d
00000170: 4c38 dcbe 0c11 243d 0d1f 64bd 3ad9 893e
00000180: 23be c3be 5890 823e 23fe bdbe 1627 8f3e
00000190: 7a38 99be 3657 1b3d 4719 563d b427 1bbe
000001a0: 6e98 eebc 95c0 f73c 5d54 6dbd 82f4 84bd
000001b0: 10bf 0c3e 0ed0 f6bd 5801 c9bd 618d 2bbb
000001c0: d868 dd3d 7cb2 e1be 911a 123e 78aa 293e
000001d0: bffc 803d 6675 6c3e ccd8 9cbd 76b3 313d
000001e0: 0268 1b3d f903 82be d774 583e bd05 ac3b
000001f0: dd2a c63d 485b 9dbd 2794 0d3d 6499 223d
0.045258272 0.19189571 0.13369201 -0.01964466 -0.13269144 -0.10195424 -0.05683775 0.044284347
-0.2559738 0.15301871 0.27381927 -0.023454713 -0.06678342 0.083527036 0.0832102 0.025149425
0.05498693 0.024553947 0.11018915 0.2923843 0.18787879 -0.038612165 -0.26734316 0.0030221953
0.15761454 -0.49660167 -0.14551981 0.31025353 -0.32626268 -0.08228152 -0.088567786 -0.061744805
-0.32494554 0.19319655 -0.2279965 0.096389644 0.40455303 0.08520993 0.108867764 0.1500795
-0.12254358 0.44067127 -0.14209577 -0.24307454 0.13273454 0.11820159 -0.10570372 -0.12672722
0.031672828 0.21061137 -0.43270922 0.22677247 0.113126084 -0.22099012 -0.12895074 0.19928989
-0.034723215 0.27148122 0.3164758 0.00839696 -0.08366621 -0.22580878 0.04477206 0.51645046
0.2356067 0.024129746 0.047073327 0.17014176 0.019271381 -0.11758096 0.4568222 0.095013045
-0.070578784 0.08406497 -0.1847739 -0.19136333 0.05630352 -0.22124802 -0.14749283 0.08801599
0.14066568 -0.22704634 -0.25138968 -0.028728373 0.317303 0.10786308 0.38100284 -0.064941056
0.0123300785 0.07287838 -0.18293576 0.108656675 -0.430117 0.04005532 -0.055693675 0.26923543
-0.38231 0.2550075 -0.37107953 0.27959508 -0.299259 0.037924968 0.0522702 -0.15151864
-0.029125419 0.030243197 -0.057941783 -0.06491949 0.1374476 -0.12051402 -0.098147094 -0.0026176798
0.10811013 -0.44081485 0.14267947 0.16568935 0.062982075 0.23091659 -0.07658538 0.043384038
0.037940986 -0.25393656 0.21138321 0.0052497075 0.09676144 -0.07683426 0.034565117 0.039697066

actor.2.weight f4 [64, 128]
00000000: 81fb c83d 632a 713f 4941 453d 9bb7 99bd
00000010: 2057 58bd 4041 8a3e 6aa0 e83e 31af a73d
00000020: c430 c4be 0c26 eebe 7998 4e3e 5c8d 703f
00000030: e4f6 a53d b0ba 543e 8a39 2dbe 9eda 52be
00000040: 9760 29bd 6ceb ffbe 850e 763e 25f2 ddbd
00000050: 8e4b 21bf 2553 1d3e 32cc c13e c0d6 573b
00000060: 02cb 0fbf a802 953e 2575 603e 75fe 2c3e
00000070: 9fc7 b03e 8c4c 38be 0e80 c43d 3326 a23e
00000080: 18eb cb3e e82b 3dbe 6ab4 6d3e d987 d5be
00000090: 2ae6 57be cd91 053f 57df 06bd 6669 233d
000000a0: feea dfb8 0e00 18bf 8e91 a4be 9d9c e8bd
000000b0: eac7 9abf d70a bc3d 7f65 a53e 5f33 e2bc
000000c0: b8cd 36be a7db 853e 675d 9e3e 18a7 b5be
000000d0: 2085 c6be b9a7 10be 0d12 01bf 3059 913e
000000e0: 76c1 7f3e a04c aa3e 5f9c 32be 03e5 043d
000000f0: 8a17 b7be 54cf ebbc 3418 683e 0a35 033f
00000100: 7d08 4bbe 1c90 883d 37ae 093f 5452 723f
00000110: d13f 62be 762d cf3d 4dcc 04bf eeeb 0e3f
00000120: d4be bbbc 4173 033f 02a1 5cbe 4253 c93e
00000130: 7e20 d1bd eb8f bf3d 203b 893e d14b 15be
00000140: 0f84 8e3e 340e c3bc 3922 b8be 597f 213f
00000150: 259a 3dbf 5383 d7bd 9490 f23d 2253 153e
00000160: 9cda 3cbf a806 a93d 3d03 3c3e 009e 35be
00000170: f79e 15be 4658 0bbd 8f0c 9b3e 17ef 7b3e
00000180: 53c7 343e a30f ebbe cc5c 0dbf 6e6f 913e
00000190: 193e e63e 47a9 d13e 682f f4bd 4fe9 f4bd
000001a0: 8b7f dcbe af19 0d3e 59d6 b93e 3c07 433e
000001b0: 2e82 d9bd 547c 17be 3ae1 f6bd ccfc c13e
000001c0: cf10 b5bb 38a0 a33e 0a67 f7be f090 54be
000001d0: ab52 673e b51e 653e 6519 02bf 3592 70be
000001e0: 606f e33d 8152 6f3d 2695 f8be 9377 7ebd
000001f0: 4b21 433e 0200 acbe 0c1f e3ba d989 b1be
00000200: bb3c ed3e f498 1e3e 35a0 fd3e 0a61 aebe
00000210: 6746 f4bd 84a4 adbe f833 e1be f595 953e
00000220: 5467 cf3c dcab f43e 92a4 20bf 68f1 64be
00000230: 6627 8a3d fed6 cdbe 0d0f 59be d211 6bbe
00000240: 88b3 cabe a2ab e6be 6c9c 533c dd2e 0f3e
00000250: 14bf 0dbf c8d9 af3e 8384 28bf b4f2 b13e
00000260: 4e08 143d 16d7 9d3d 9637 90be 1696 2c3e
00000270: 8539 313e 1341 e1be 448d 9f3d 7e4e 293e
00000280: ab48 8d3e a457 ec3e 7904 65be f5e7 fb3e
00000290: f6e6 123f b5e4 a0be dbe9 803e f53d 07bf
000002a0: 3e3b 1abd c63d ebbe 154c 923d 02f5 cbbd
000002b0: c507 8dbd 0e70 52bf 2abf 343c 2c26 0e3e
000002c0: 14e2 063f 9250 8d3e d80e 263f 6a12 8dbe
000002d0: c90e 78bf c08e 9a3e 78a5 383e dcb3 5bbf
000002e0: 8bdf 2f3c efb8 2dbf 943e 6b3e d123 cc3e
000002f0: 1d64 d63d aedf 0f3f 2d6f a3bd 76e0 eebe
00000300: 84dd 053e 2add 5dbe 2861 70bd e5ca a73e
00000310: 88bc 4d3e 018a e13e 4d39 66bf f2ae 023e
00000320: f22a 71be ccc7 633e 52e4 683e 0e40 043f
00000330: aafc 823e 405b 8cbe da75 ed3e 6646 be3e
00000340: 8bc0 113e 8370 aa3e d39e 8cbe af5f 79bb
00000350: 2401 92be 1a07 60be 6c98 12bf b27d ebbe
00000360: 8306 383e 7045 6b3e f9e7 8cbe 811a dfbe
00000370: f018 fe3e 201e 88be 88a3 a2be d482 d8be
00000380: b5df 243f 8b14 ffbe 0f23 d23d 033b 08be
00000390: 4245 29bd 9b36 c23e dace d43d 849e d93d
000003a0: feff f3be 4019 1f3e f9f0 a9be 8f2c b33b
000003b0: e7de 2fbd 2a24 d33e 2485 1e3f bd97 9d3e
000003c0: 8561 183f 3626 9b3e c7ac a1be 8237 bfbd
000003d0: 6d36 173e 8991 55be 1faf ffbd fd3f 17be
000003e0: 6585 043f 09af 903d 60b2 c0be 0188 533e
000003f0: 0cdc 12bf 492e 00be 2f08 053e bedc bcbe
0.098135956 0.942053 0.048157964 -0.07505723 -0.052817464 0.27002907 0.45434886 0.08187712
-0.38318455 -0.46513402 0.20175351 0.939657 0.08103731 0.2077434 -0.1691648 -0.20591208
-0.04135188 -0.499843 0.24028976 -0.10837201 -0.6300591 0.15363748 0.378511 0.0032934397
-0.5616914 0.2910359 0.21919687 0.16893943 0.345273 -0.1799795 0.09594737 0.3166977
0.398278 -0.1847378 0.23213354 -0.41705206 -0.21083894 0.521756 -0.032927837 0.039895438
-0.00010677239 -0.59375083 -0.321423 -0.113579966 -1.2092259 0.09181755 0.32303998 -0.027612386
-0.17851913 0.26144144 0.30930635 -0.35479045 -0.3877344 -0.14126481 -0.5041817 0.28388357
0.24976143 0.33261585 -0.17442463 0.032444965 -0.35760146 -0.028785385 0.22665483 0.51252806
-0.19827457 0.06668112 0.53781456 0.9465687 -0.22094657 0.10116093 -0.5187424 0.5582875
-0.022918142 0.5134774 -0.21545795 0.39321333 -0.102112755 0.09353622 0.2680292 -0.14579703
0.27835128 -0.023810484 -0.3596361 0.6308494 -0.7406333 -0.10523095 0.11843982 0.14582494
-0.7377107 0.08253223 0.1836061 -0.17736053 -0.14611422 -0.03401973 0.3028302 0.24602924
0.17654161 -0.45910367 -0.5521972 0.28405327 0.44969252 0.4094946 -0.119231045 -0.119585626
-0.43066058 0.13779329 0.36296347 0.19045728 -0.10620533 -0.14793521 -0.12054677 0.3788818
-0.0055256854 0.31958175 -0.483208 -0.20758414 0.22590129 0.22374995 -0.5082 -0.23493274
0.111052275 0.05842829 -0.4855129 -0.062125754 0.19055669 -0.33593756 -0.0017327978 -0.34675482
0.46335396 0.15488034 0.4953629 -0.3405841 -0.11927491 -0.33914578 -0.43984962 0.2921597
0.025317825 0.47787368 -0.62751114 -0.22357714 0.06745796 -0.4020309 -0.21197148 -0.22956017
-0.39590096 -0.4505282 0.012915712 0.1398272 -0.5536969 0.3434584 -0.65827197 0.3475548
0.036140732 0.0770704 -0.2816741 0.16854128 0.17307098 -0.4399496 0.07790616 0.16533849
0.27594504 0.46160614 -0.22364987 0.49200407 0.5738367 -0.3142449 0.25178418 -0.52828914
-0.037654154 -0.45945567 0.07143418 -0.09958841 -0.068862475 -0.8220223 0.011031905 0.13881749
0.5268872 0.27600533 0.648664 -0.2755311 -0.9689756 0.30187035 0.18031871 -0.8582132
0.010734449 -0.6786031 0.2297309 0.39871076 0.10468314 0.56200683 -0.079801895 -0.46655625
0.13072783 -0.21666399 -0.058686405 0.32771984 0.2009145 0.440506 -0.89931184 0.12762049
-0.23551539 0.22244185 0.22743347 0.5166024 0.25583392 -0.27413368 0.46378976 0.37163085
0.14233606 0.33288965 -0.27464923 -0.0038051417 -0.28516495 -0.21877709 -0.5726383 -0.45994335
0.17971234 0.22975707 -0.2752073 -0.43574908 0.496284 -0.26585484 -0.3176539 -0.42287314
0.6440385 -0.4982036 0.10260593 -0.13303761 -0.041325815 0.37932286 0.10391016 0.106259376
-0.47656244 0.15536976 -0.3319166 0.0054679583 -0.042937186 0.41238528 0.61921906 0.3077983
0.59523803 0.3030259 -0.3157713 -0.09336759 0.14766856 -0.20856299 -0.124845736 -0.14770503
0.51766044 0.07064635 -0.3763609 0.2065735 -0.57367015 -0.12517656 0.12991403 -0.36887163

actor.2.bias f4 [64]
00000000: 43aa 67be 1f8b 6bbe b037 ceba e4fb d4bd
00000010: aa7a 92be 64cd 5e3e 487f 14bf e69d 8fbe
00000020: 8207 cd3d 51ae 323d 127d 5d3e 2500 9c3e
00000030: 11da 2b3e 0512 003d e369 093e 8a10 763e
00000040: d0e2 eb3e 7988 a1be c2f3 a0be de98 b13e
00000050: 27ab 23be 5e5f 6abe 6cf2 55bd fa30 8a3e
00000060: 832f 94be 0a77 8ebe 8f01 b73e 50fb 9ebe
00000070: 4595 5d3d 0b57 00bf aabd d0bd 37bf e9bd
00000080: fce2 2e3d dfd1 0ebd 171d d3bc e885 b73b
00000090: 6f49 b03e 6e47 ec3e 4314 333d fec4 f23e
000000a0: ac5e 923d 4323 b93d ba25 193e f8d8 68be
000000b0: 2f24 843e be34 073f 2565 593d 683f e2bd
000000c0: f042 b2bc 446f 39be 4fbf 1e3f 0e94 d5bc
000000d0: 6ce4 babd 711a 103e 1386 eb3e 01f2 c93e
000000e0: d3e0 193f 7740 ffbe c030 b63e 876d 7c3e
000000f0: 708b bfbd c460 92bd f76d 19be b9fc a3be
-0.22623543 -0.23002289 -0.0015733149 -0.10399607 -0.2860921 0.21758038 -0.58006716 -0.28050154
0.100111976 0.043623272 0.21629742 0.3046886 0.16782404 0.031267185 0.13419299 0.24029747
0.46071482 -0.31549433 -0.31435972 0.3468694 -0.15983258 -0.22887942 -0.052233145 0.2699049
-0.289425 -0.27825195 0.35743377 -0.3105111 0.054097433 -0.5013282 -0.101924255 -0.114134245
0.042696938 -0.034868117 -0.025770707 0.0056006797 0.34431025 0.46148247 0.043720495 0.47415918
0.071469635 0.09039929 0.14955798 -0.22739017 0.25808856 0.52814853 0.053074975 -0.1104725
-0.021760434 -0.1810885 0.62010664 -0.026071575 -0.09125599 0.14072587 0.46000728 0.39442447
0.6010868 -0.4985387 0.35584068 0.24651156 -0.093527675 -0.07147363 -0.14983355 -0.3202875

actor.4.weight f4 [6, 64]
00000000: a463 fbba 33de 6a3e 7cf1 39bd c7ef fe3b
00000010: c417 b63e ab16 84be c54b dc3d c629 99bd
00000020: 961a 73bd 3a2e a03b cf97 c9bd 2121 e0bd
00000030: 241b c2be 8236 e4bd b4fe 1fbe e99c c4bc
00000040: 37c2 aebe 49f8 b93d 62c8 b43d a5eb 88bc
00000050: 9093 a1bd 30ee 013d 6b96 8f3c 0079 5bbd
00000060: 3378 17bd 2d6c 0ebe a5a6 21be 9b18 0b3c
00000070: 7bc2 b3bb 51b4 b53d 2607 823d 76b3 62bb
00000080: b7da a3bd 462e 85bb 61a1 03bd 6a73 b7bd
00000090: 7f1e 83bd 9440 883d cbcf 283e 843d 1a3c
000000a0: 473f 723d 4a62 5c3d 577c db3c 8779 c13d
000000b0: 7662 f33c c1a7 d53e e492 1f3c ab95 da3d
000000c0: 769a 723d 6feb 82bd 9949 123f faf4 4abf
000000d0: 1949 e4bd 36c8 0f3e 5a5f dfbc c03a 473e
000000e0: ae46 9e3d b736 9abe abd5 523e da3b c33c
000000f0: b7e7 edbd bab3 533d c0fd 813c 4c06 e73d
00000100: ffff d23d 68ce 3cbd 2830 4dbe 7838 ce3e
00000110: 635d bebe 9cc1 d73d 465b 3ebf 3286 d9bd
00000120: 4a09 2d3f 461e c43c 4152 283e 436c 853e
00000130: 30a5 cabe 936e ae3d 4b22 093f 5d35 c8bd
00000140: a2e5 293f a4c5 a6bd 5198 203e 9008 ccbe
00000150: e2ce 64bd 0172 bc3d b766 0c3e 87e9 123c
00000160: 8a6f dabd 25dc 06bf 4e7b 5a3e a3f4 e23e
00000170: 605f c3be 63b2 eabd 6f65 e03d cba6 0abf
00000180: fc0d b1be e955 54bd 5efd 513e 80e6 3fbe
00000190: 5982 9b3e f446 a5bf 65a6 d3be a1a6 8bbf
000001a0: d66d e8be 74e8 89be afbf 40bd 0b94 f9bd
000001b0: a3a2 893d 2bde 64bf bb63 2abe 5b91 b13e
000001c0: e364 923e 1001 7cbe dca8 86bf 4a83 27bf
000001d0: 5774 bcbb 4d35 adbb 8456 b83e dc3c 3fbe
000001e0: 8d74 873f 9033 19bf f217 babd cf74 dfbe
000001f0: b173 9d3e 4bc0 07be c49a 68be 183e 8dbd
00000200: 4cc2 e8bd f270 74be ff09 813e 0efb cdbe
00000210: c5ce 91bd 0b98 503e 7244 0a3f 35e3 0f3e
00000220: 8331 15bf 1e24 5ebd 8c30 2bbd f606 e4bd
00000230: db57 463f 36af 283c bf22 a6be 9930 0f3e
00000240: 23d2 76be 50dd 8ebd 853a 8ebe ec77 e93e
00000250: a529 dd3d 9df4 43be d027 23be ece0 6a3d
00000260: 91ee ef3d e94e 1f3f 4677 283c 4315 ebbe
00000270: 003a cb3e 42e4 80bc 294b 46be df88 023f
00000280: e966 de3e 11d7 883d 825c 2dbe 3a0c 9c3e
00000290: 4df0 5ebe 0498 9d3f f98b 793e 80ef 8c3f
000002a0: 7600 cf3e def7 393e e9d0 193d 7b86 8dbc
000002b0: 3741 80bd c2c2 e73e a88b 1c3e b3bf 00bf
000002c0: 356a 9ebe 2a35 a43e 85e0 ea3e 6f7a b93f
000002d0: 7e66 c93d a72e 1cbe 277b 95be 77cb 063c
000002e0: be11 8bbf 39f4 5f3f 2b18 9ebd 2ff0 da3e
000002f0: 8f7c 22be 8de3 713d 7a30 543e a27f 7cbd
00000300: 9bcd 9a3d d488 963e 1b05 1abd 28d2 523e
00000310: a28d 62be ae82 043e dc28 d2be c202 3bbe
00000320: 1862 47be 9c89 ebbd 97cf 1fbe 8dff 483d
00000330: fb52 2c3e 98d3 b1bd fdc9 4e3e d933 70bd
00000340: baee a63c 2b31 78be 812c 193f 42ee 573d
00000350: 278e 0ebe 6512 aebd ed86 d6bd e284 3fbd
00000360: fd01 05be 434e 113e 0e7a 4b3e 5d53 6b3d
00000370: 5e1c a43d adac 683d 2d80 2abe 26ed 6c3c
00000380: b989 8fbb 900f e53d 5d4a e1bd ef10 423e
00000390: 3001 e6bd 73eb 783e afe3 02bc 44e9 fabe
000003a0: 7fb6 9fbe 2f63 f03d 937f 883e 1a75 983e
000003b0: 5a70 a6be 9d77 b73e 4261 1ebe e0e2 7a3d
000003c0: 35dd bcbd b46c 5e3e 6cb8 48be ac1a 083a
000003d0: 0df6 973e cce1 093e 365d 6cbe c0f3 183f
000003e0: 7862 863d 81c3 b3bd 637e 1a3e a16b 053f
000003f0: 30e1 f5bd 0d1f b83d e988 b63b 9ecb 173e
-0.0019179475 0.22936325 -0.045396313 0.0077800485 0.35565007 -0.25798544 0.107566394 -0.07478671
-0.059351526 0.004888323 -0.09843408 -0.10943819 -0.37911332 -0.11143209 -0.15624505 -0.024000602
-0.3413255 0.0908056 0.088272825 -0.016713927 -0.078894734 0.031721294 0.01752778 -0.05358219
-0.036979865 -0.13908453 -0.15786226 0.008489753 -0.0054858304 0.08872283 0.0634902 -0.003459183
-0.08000701 -0.004064354 -0.032136325 -0.0895756 -0.06402301 0.06652942 0.16485517 0.0094140805
0.059142377 0.053804673 0.026792688 0.094470076 0.029710036 0.4172955 0.009739611 0.10673078
0.059229337 -0.06392562 0.5714355 -0.79280055 -0.11146755 0.14041218 -0.027267147 0.19456005
0.07728325 -0.3011987 0.2058932 0.02383225 -0.11616462 0.051685072 0.015868068 0.11280498
0.10302734 -0.04609528 -0.20037901 0.40277457 -0.37180623 0.10534975 -0.7435802 -0.10621299
0.675923 0.023940217 0.16437627 0.2605916 -0.39579153 0.08517184 0.5356795 -0.09775803
0.66366017 -0.08143166 0.15683104 -0.39850283 -0.05586136 0.09201432 0.13711058 0.00896681
-0.10665806 -0.52679664 0.213361 0.44327268 -0.38158703 -0.11459806 0.10956847 -0.54160756
-0.34580982 -0.051839743 0.20506808 -0.18740273 0.30372885 -1.2912278 -0.41337886 -1.0910226
-0.45396298 -0.2693516 -0.047057804 -0.1218644 0.067204736 -0.894015 -0.16639607 0.3468121
0.28592595 -0.2460978 -1.0520282 -0.65434706 -0.0057511735 -0.005285895 0.36003506 -0.1867556
1.0582443 -0.59844303 -0.090865985 -0.43643805 0.30752328 -0.13256948 -0.22715288 -0.06896609
-0.11365184 -0.2387121 0.2520294 -0.40230602 -0.07119516 0.203705 0.5401069 0.14051516
-0.58278674 -0.054233663 -0.041794345 -0.1113414 0.77477807 0.01029568 -0.32448384 0.13983382
-0.24103598 -0.06975806 -0.27779022 0.45599306 0.10798959 -0.19136281 -0.15933156 0.05734341
0.11715425 0.6222978 0.010282343 -0.4591466 0.39692688 -0.015733842 -0.19364609 0.509901
0.4343789 0.06681646 -0.1692982 0.30478078 -0.21771355 1.2312016 0.24369802 1.101059
0.4043004 0.1816096 0.037552748 -0.01727604 -0.06262439 0.45265776 0.1528765 -0.5029251
-0.30940405 0.3207181 0.4587442 1.4490489 0.09834002 -0.15252171 -0.2919552 0.008227221
-1.086479 0.8748203 -0.077194534 0.4276137 -0.15867828 0.0590549 0.20721617 -0.061645158
0.075587474 0.29401267 -0.037602525 0.20587981 -0.22124341 0.12940475 -0.41046798 -0.18262771
-0.19471014 -0.11500856 -0.15606533 0.049071837 0.1682853 -0.086829364 0.2019424 -0.058643196
0.020377506 -0.24237506 0.5983353 0.052717455 -0.13921414 -0.08499602 -0.10474954 -0.046757586
-0.1298904 0.1419001 0.19870779 0.05745255 0.08013223 0.0568053 -0.16650458 0.0144608375
-0.0043804315 0.11184609 -0.11000512 0.18951772 -0.11230695 0.24308567 -0.007988854 -0.49006093
-0.3119392 0.11737668 0.2665983 0.2977684 -0.32507592 0.35833445 -0.15466788 0.06125152
-0.092218794 0.21721154 -0.19601601 0.00051919627 0.2967991 0.13465041 -0.23082432 0.59746933
0.0656175 -0.08777524 0.15087275 0.52117354 -0.12005842 0.089902975 0.00557052 0.14823768

actor.4.bias f4 [6]
00000000: 41cd 0ebf 5d3b b43e 0189 9d3e 2940 183d
00000010: 3a67 9f3c 7273 f1ba
-0.5578194 0.3520154 0.30768588 0.037170563 0.019458402 -0.0018421246
