Plotting/saliencies_live/Multi_Pong/Sequence_Length_1/multi_pong_1__1__1721853303_checkpoint_1368.pt (torch, 86706 bytes, 11 tensors)

critic.0.weight f4 [128, 12]
000000 f5 cc 07 3f 3f 26 3b 3d d9 d4 f9 3d ba e2 09 bf
       0.53047115 0.04569077 0.121988006 -0.5386158
000010 36 62 b7 be cd 08 ff 3e 68 30 01 c0 67 b0 c6 3f
       -0.35817116 0.49811402 -2.0185795 1.5522584
000020 5f 7e 1c bd 00 9b 38 bd a8 6f b3 3e f1 b0 98 3d
       -0.038206454 -0.045069695 0.35046124 0.07455624
000030 e4 b4 15 ba 40 f7 2d 3c b8 69 75 bd d3 04 a1 bb
       -0.0005710854 0.010618031 -0.059915274 -0.004913905
000040 d3 21 bb 3a 7c b8 8c be be 6e 93 bc 0e 3a 19 c0
       0.0014277048 -0.274845 -0.017997142 -2.3941684
000050 f4 f3 13 3c 7e 82 92 3e e8 45 46 3d 2e 0d 25 40
       0.009030331 0.28615183 0.04840651 2.5789294
000060 68 46 5d 3e 81 e1 6f bc 14 33 aa bd 69 a3 01 3c
       0.21608889 -0.014641167 -0.08310524 0.007912495
000070 d3 c9 20 bd da 03 00 3c ce 05 25 3c 60 7b 7a bc
       -0.039254975 0.007813418 0.010072185 -0.015288204
000080 91 0b 53 3e 47 53 46 3e ac 56 25 bd f2 9e 31 40
       0.20609881 0.19367705 -0.04036586 2.7753263
000090 90 75 9c be 0d df 5d 3e 80 44 62 be 79 05 b6 bc
       -0.30558443 0.21667118 -0.22096443 -0.022219406
0000a0 53 e0 89 3e 0a a6 b1 bd 63 a1 12 40 67 aa 96 bf
       0.26928958 -0.086742476 2.2911003 -1.1770753
0000b0 91 1d ec 3c 4a 2e 1b 3d 59 48 15 bf 4a d0 f2 bd
       0.028822692 0.03788594 -0.5831352 -0.11856134
0000c0 dd ca 39 3d 7a a8 60 3c a5 07 1e bd 18 8e 34 3c
       0.04535948 0.013712043 -0.03858151 0.011020206
0000d0 48 b5 22 3e 6c 93 a4 bd ac 89 60 40 c4 0f 00 c0
       0.15889466 -0.08035931 3.5084028 -2.0009623
0000e0 d8 41 cd 3c 4a 02 d4 bd 20 83 29 3e f1 fa eb bf
       0.02505581 -0.10351999 0.16553926 -1.8435956
0000f0 84 2d 91 bd bb 4a 2d 3c 22 8a c2 bd 9b 72 da 3b
       -0.070887595 0.010576899 -0.09499003 0.006666494
000100 01 8e 14 3c 40 43 1f 3d e0 3b ee 3e a1 5d 43 40
       0.0090670595 0.038882494 0.46530056 3.0525897
000110 06 a8 5f 3c 93 e3 8f 3c d1 2b 27 3d 52 ab 49 3e
       0.0136509 0.01756457 0.04081327 0.1969426
000120 9a 66 03 3e 2d f2 24 3d 0b 79 4e be 74 65 30 bc
       0.12832108 0.04027002 -0.20163362 -0.010766376
000130 80 9f 53 bc a9 6c 8a bc 13 45 9b bd 50 8d 99 3c
       -0.012916446 -0.016897516 -0.07581534 0.01874414
000140 46 06 88 be e5 c7 98 3e b2 fe 16 c0 65 75 15 40
       -0.26567286 0.29840007 -2.3592954 2.3352902
000150 ee 7d 79 3e 0b 2a fd bb c2 18 17 bd 1e 34 6c bb
       0.24364445 -0.007725959 -0.036888845 -0.0036041806
000160 ac fd be bd 9d 4a a4 3d 25 fc 1e c0 b0 c0 a8 3f
       -0.09325728 0.08022044 -2.4841397 1.3183804
000170 ba 02 d0 3d 40 b9 6b bd a4 70 e5 3e da b1 28 bf
       0.1015677 -0.057549715 0.448125 -0.6589638
000180 b1 20 32 be f0 57 29 3a ae f0 06 3d 38 4c 4d bc
       -0.17395283 0.0006459942 0.032944374 -0.012530379
000190 e7 d4 3e 3b a7 d8 4d 3b f9 6c 81 3d 03 02 9e 3d
       0.00291186 0.0031409652 0.06319613 0.077152275
0001a0 2e 80 ec bd 5b 3e fd bd a0 f2 87 c0 1f f3 8d c0
       -0.11547886 -0.12365409 -4.2483673 -4.435928
0001b0 39 bc 18 3f a0 6f c8 be bd 61 1c 3f c5 92 01 be
       0.59662205 -0.39147663 0.61086637 -0.12653644
0001c0 6b 55 89 bf 01 87 e9 3e 64 4a 82 bf 15 ec c1 3e
       -1.0729192 0.45610812 -1.0178952 0.3787543
0001d0 ee eb 4e 3d 90 49 08 3d 87 cd 90 3e 82 da ed bd
       0.05051797 0.03327328 0.28281805 -0.11613943
0001e0 38 28 67 3f 88 70 8c 3c bc a4 32 3f 0a 03 b8 ba
       0.90295744 0.017143503 0.69782615 -0.0014038992
0001f0 9d a0 a1 bc 55 c5 c5 ba 52 a3 91 3e 1a 52 2d 3b
       -0.019729907 -0.0015088717 0.28444916 0.0026446641
000200 c6 db b9 bf 23 9c 55 3b 6a ad 12 be 3f 16 07 bd
       -1.4520195 0.0032594285 -0.14323965 -0.0329802
000210 85 3e c0 bd 0c 12 fb 3a a5 e4 a6 3c 7d 29 0a 3d
       -0.09386925 0.0019155159 0.020372698 0.033730973
000220 42 9d 04 3e 74 2c f3 bd 0b 63 61 40 94 9f 60 c0
       0.12950614 -0.11873713 3.52167 -3.5097399
000230 9a 54 a1 3b 20 66 a5 ba 49 0b 29 3e 50 1d 8e 3a
       0.0049234154 -0.0012618937 0.16508211 0.0010842476
000240 30 03 1f 3d c9 7d 69 3d 9f 04 88 bd 91 dc 70 3d
       0.0388214 0.057004724 -0.066415064 0.0588041
000250 11 bc af 3d 59 5e 77 be 95 fe e0 3e 43 26 ec be
       0.08580793 -0.24157085 0.4394423 -0.4612294
000260 9a d6 92 bd 94 82 8c 3b 3b 98 54 bd d3 c2 0c 3d
       -0.07169838 0.004288027 -0.05190299 0.034365486
000270 86 95 ca 3d 30 e9 97 bb 82 18 f0 3d 24 fd 76 3c
       0.098918006 -0.0046359524 0.117234245 0.015075002
000280 28 0f d7 3c ac 77 ac bb 86 db e8 be 43 80 ef bc
       0.026252344 -0.0052632894 -0.45479983 -0.029235965
000290 fb a6 b2 bd 6f 70 ba bc a8 1d 13 c0 19 95 32 bd
       -0.08723255 -0.02275869 -2.298685 -0.04359922
0002a0 cd 15 9b 3a 11 98 18 3c c0 62 19 bb 43 31 0b bd
       0.0011832059 0.009313599 -0.0023404807 -0.033982527
0002b0 29 38 3f 3c 2f e5 cc 3c 8b ec cc 3f 32 d8 87 3f
       0.0116711045 0.025011627 1.6009687 1.0612853
0002c0 34 a1 3c 3c e2 64 0f bc 69 a2 83 bf cd 38 54 bd
       0.011513043 -0.00875208 -1.0283939 -0.051811982
0002d0 fb 8f 3a bd d9 5f d2 3b a6 2e ce bd e1 08 b8 ba
       -0.045547467 0.0064201173 -0.10067491 -0.0014040732
0002e0 8a 3b 0c be f8 a4 00 3d 06 d9 07 c0 ac 81 be 3d
       -0.13694587 0.031407326 -2.122621 0.09302077
0002f0 ff 10 22 3e ab cb a7 3c d4 88 2f 40 dc 67 de 3d
       0.15826796 0.020482859 2.7427263 0.10859653
000300 31 5e 0c 3d fa 93 af 3b 3b 6f f8 bc 6e d3 1b 3b
       0.034269515 0.0053582164 -0.030326476 0.0023777145
000310 58 03 98 bd b5 34 8a bc 86 fe 33 c0 8b 35 41 bf
       -0.07422513 -0.016870836 -2.8124099 -0.75472325
000320 7f c6 19 3c 16 7b a1 3d e6 4f cc 3e b6 4d 51 40
       0.009385704 0.07884805 0.39904708 3.270368
000330 0d c5 a5 bd b1 4e ad bc cc d9 f5 3d eb 42 b2 bc
       -0.08094225 -0.021155687 0.12004432 -0.021760425
000340 4d f2 89 3e 7f 98 c3 ba 8a eb 05 40 7f 5c 50 bd
       0.26942673 -0.0014922767 2.0925012 -0.05086946
000350 bc b7 76 be ab 69 e0 3c ce ea 03 c0 7c 34 36 3e
       -0.24093527 0.027394136 -2.0612063 0.17793459
000360 60 6d a9 3e dc f5 fc bc 15 27 ca 3d b1 3f d6 3e
       0.3309126 -0.030878954 0.098707356 0.41845468
000370 3c 93 4c be f2 d9 d7 be ad 53 a7 be 73 b8 45 bf
       -0.1997804 -0.42158467 -0.32681027 -0.7723457
000380 d4 0a 84 bd 43 ce 97 3d 8b f1 23 3e 13 e3 82 3e
       -0.06447378 0.07412388 0.1601011 0.2556387
000390 91 b6 b8 bb 0d 79 d4 bc e3 52 73 3d c4 f4 01 bc
       -0.005636998 -0.025936628 0.05940522 -0.007931892
0003a0 4f af 90 bc 9c 07 2c bb 74 93 02 3f ea 42 af bf
       -0.017661719 -0.0026249653 0.51006246 -1.3692296
0003b0 46 9e 9f 3d 5f 57 ee bb 25 e1 fa 3f af 4d 0d bf
       0.0779386 -0.007273599 1.9599959 -0.5519666
0003c0 30 69 61 bd 2d 6e 4d 3b df aa ca 3d 60 8f 8f 3b
       -0.055031955 0.0031346187 0.09895872 0.0043811053
0003d0 ae 3e a4 3d b5 38 2e bb b8 51 3a 3f 16 83 28 3d
       0.08019768 -0.0026584093 0.7278094 0.04114064
0003e0 1b 36 cb 3d f2 d7 44 bc 52 ec 49 40 4a 13 6e 3c
       0.09922429 -0.012014376 3.1550488 0.014530966
0003f0 61 e1 98 3e 37 71 0e 3d 90 fa 16 3e a0 1e ab be
       0.2985945 0.03477594 0.1474402 -0.33421803

critic.0.bias f4 [128]
000000 27 f7 95 3e 14 e7 f3 3c 4a 6b 68 3d d5 ed d4 bd
       0.29290125 0.029773273 0.056742944 -0.10396925
000010 08 b4 12 bd 20 99 0a 3d 36 7d a4 39 7c b2 5f 3d
       -0.035816222 0.033837438 0.00031373807 0.054613575
000020 06 46 63 3d 07 cd 03 3f 4b 63 2e 3f 91 11 0c bd
       0.0554867 0.5148472 0.6812026 -0.03419644
000030 79 98 60 bd f4 9b 24 3a 0c c0 02 bd f2 58 fa 3c
       -0.05483291 0.00062793423 -0.03192143 0.03055999
000040 7a 88 af bd b1 cd b1 bd 04 d0 c7 3d 57 08 bc 3c
       -0.08570953 -0.08681811 0.09756473 0.022953195
000050 50 13 fb 3b 60 20 09 3e a6 65 b1 bd af 7c 24 be
       0.0076622143 0.13391256 -0.08661966 -0.16063188
000060 7f ff 5d 3d aa 0a 06 3d b1 f8 11 3e b4 37 64 bc
       0.05419874 0.032725014 0.14255024 -0.013929296
000070 82 45 ad bd 07 eb 09 bd b1 90 92 bd c8 bb c3 3d
       -0.08460523 -0.033671405 -0.07156504 0.09557301
000080 98 be 73 bc 60 9a 6b 3e 6f 47 91 3e 0d 07 21 bd
       -0.014876984 0.23008108 0.28374812 -0.039313365
000090 62 54 cd 3c 01 fc 29 bd d3 0f d0 3c d6 5d 36 bc
       0.02506465 -0.041500095 0.02539817 -0.011130771
0000a0 4f 5b 14 3e c9 1b 06 be b2 35 b9 3c 72 0d b5 bd
       0.14487956 -0.13096537 0.022608612 -0.08840455
0000b0 10 c1 95 3d f9 db 23 3f 54 a9 8a bd 1d e0 24 3d
       0.073122144 0.64007527 -0.06770578 0.040252794
0000c0 d9 0b c0 3c bd ce 5c 3d 3a 97 80 bd 8a 89 2f 3c
       0.02344315 0.0539081 -0.06278844 0.010713944
0000d0 d0 97 ba 3d a0 20 3e bc 7b e1 83 3d ca 63 6a 3e
       0.09110987 -0.011604458 0.06439491 0.22889629
0000e0 84 38 5f 3d 0f 07 9c 3c 84 ad 42 bd bd ff 9d be
       0.054497257 0.019046335 -0.04752876 -0.30859175
0000f0 6e 3c b1 bc a3 d2 2a bd 87 44 57 be a2 5c 43 3f
       -0.02163526 -0.041704785 -0.21022235 0.7631322
000100 1a 13 8d bd 74 6b c3 3e f4 82 80 bd 9f 45 5a bd
       -0.06888409 0.38167918 -0.06274977 -0.053289052
000110 ff 50 93 3c cf df f8 bd 1d 7d 99 bd ba 45 0e 3d
       0.017982958 -0.12152063 -0.074945666 0.034734465
000120 5f d9 22 3d d3 5f b5 bd f8 5b 8f bd 72 71 7a 3d
       0.039758082 -0.08856168 -0.069999635 0.061143346
000130 c6 b9 8b 3d 60 99 45 3d c6 68 a4 be 16 2b 4d 3c
       0.06822543 0.048241973 -0.32111186 0.0125224795
000140 af ee bb 3d 87 df 54 3e 9d d0 32 3d a1 17 90 3d
       0.09176385 0.20788394 0.04365598 0.07035757
000150 3e 29 96 bd a7 78 33 bd 41 f5 78 bb 21 c5 d9 3e
       -0.07332085 -0.043816235 -0.003798798 0.4253321
000160 3a 5e dc 3c fd fd ac bd cb 02 bb 3c 86 3d 8d bd
       0.0269004 -0.08446882 0.02282848 -0.068965
000170 6f 1d 2a bd f9 eb ea 3c e8 99 1d 3d b9 45 27 be
       -0.041531976 0.028676974 0.038476855 -0.16335191
000180 26 07 59 3d 3e 7a 02 be db 37 31 3c 87 a6 45 3e
       0.052985333 -0.12741944 0.01081654 0.19301806
000190 a1 3a 3b bc 23 d6 d5 3c d8 68 47 bd 0f cf ab bd
       -0.011427552 0.026103085 -0.04868397 -0.08389103
0001a0 39 01 b6 bd b6 a2 cf bd c7 18 f7 3e 62 22 9e bb
       -0.08886952 -0.101384565 0.4826109 -0.004825876
0001b0 e4 67 88 3d d4 5c 40 3d a0 a6 aa 3d 2d e4 48 bc
       0.066604406 0.046963528 0.083325624 -0.012261433
0001c0 87 ab 6e bd 74 e1 e5 ba e0 cb 60 bd 5e 69 50 3d
       -0.05826905 -0.0017538504 -0.05488193 0.050881736
0001d0 95 32 25 bd 63 4c 8d bd 62 a9 af bc ef 7e 50 3e
       -0.040331442 -0.06899335 -0.021443073 0.20360921
0001e0 de cf cf bd 28 09 6a 3c 8d 63 49 3c 3b 5f 8c bd
       -0.101470694 0.01428441 0.012291801 -0.06854101
0001f0 21 b7 0f 3d ca 60 6f bd ba a3 3f 3d c3 46 2f bd
       0.035086755 -0.058441915 0.046787 -0.042792093

critic.2.weight f4 [64, 128]
000000 6d 95 f0 be e2 3a 0a 3e 88 57 8c bd 64 29 02 3f
       -0.46989003 0.13499025 -0.06852633 0.5084441
000010 31 cd 0e 3f 30 eb 53 bd 2a 77 fb bd b5 48 97 bd
       0.5578185 -0.051737964 -0.12278588 -0.07386915
000020 09 82 87 3e b7 c7 22 bf 3a d1 0c bd c5 fd 03 3d
       0.26466396 -0.6358599 -0.03437922 0.032224435
000030 b8 ae 61 3d 18 ab 5e be 5d ac 46 3d 3b 60 26 be
       0.055098265 -0.21744955 0.048504222 -0.16247647
000040 73 0f 9f be eb c4 af 3c e6 50 0c bd 1f 9b 34 3e
       -0.31066474 0.021456202 -0.03425684 0.17637299
000050 a5 9d a4 be ad bc 94 bc a0 67 2e 3d 3b 4d 11 3e
       -0.32151523 -0.018156374 0.042579293 0.14189617
000060 d7 c5 89 3c 8b 0c f7 bc 10 ec c5 3d 89 d2 6c 3e
       0.01681797 -0.030157348 0.09664166 0.23127188
000070 90 f0 e1 be 4d c4 c0 3d 9d d0 0f bd 61 8e 1f 3f
       -0.44128847 0.094124414 -0.03511106 0.6232663
000080 7a 9f fc bd 55 54 07 3e 4d 8b 7b 3e bb 9f 91 3e
       -0.12335105 0.13215764 0.24564858 0.28442177
000090 03 23 b0 3e 36 67 97 3e ad 6b 80 3e 9c 35 5b be
       0.34401712 0.2957093 0.2508215 -0.21407169
0000a0 08 1b 7d bd cf 8d 01 be f4 31 4d 3d 17 90 99 3e
       -0.061793357 -0.12651752 0.050096467 0.29992744
0000b0 66 6c ec 3e 28 08 b5 3e 51 64 e7 3c cd 74 40 be
       0.4617645 0.35357785 0.028246077 -0.18794556
0000c0 1f 19 9a be c8 e2 70 bd 01 cb ce 3b 29 75 50 3d
       -0.3009729 -0.058810025 0.006310821 0.050892983
0000d0 59 9b b7 3e 99 5f bf bc be 48 a4 be 8b 89 cc 3d
       0.35860708 -0.023361014 -0.32086748 0.09987172
0000e0 3b a6 5d be bc 5a 47 3e 47 55 70 be 86 a6 42 3e
       -0.21645443 0.19468206 -0.2347003 0.19008836
0000f0 84 7c a6 3d f7 13 eb 3c ce 74 d7 be bd fa 13 bf
       0.08129218 0.028696043 -0.42081302 -0.5780447
000100 83 35 1d be e8 d0 82 3e 69 a9 40 3e 16 a0 81 be
       -0.15352444 0.25550008 0.18814625 -0.25317448
000110 bf ce 09 be d6 1b 22 be 3d af a6 3e 78 2d c6 3e
       -0.13457774 -0.15830931 0.3255557 0.38706565
000120 8e 33 0b 3d 71 f6 6c 3e ae dc 43 bc 89 ad c5 bd
       0.033984713 0.23140885 -0.01195447 -0.0965224
000130 df 5c da 3d 8c 4d b0 3c 43 d6 c8 3c 89 c3 1e bf
       0.10662245 0.021521352 0.02451623 -0.6201711
000140 ab f9 d9 bc f5 3d da bc 1c 69 ba bd a8 52 4b 3e
       -0.026608309 -0.026640872 -0.09102079 0.1985575
000150 27 b8 04 bd 26 7d d2 be dc 4f 4c be 45 95 36 3d
       -0.032402184 -0.41111106 -0.19952339 0.04457595
000160 cd 23 8c be 17 41 f6 3e 5f 86 de bd 1e 5c b4 bd
       -0.27371064 0.48096535 -0.10865473 -0.088066325
000170 26 bc af 3e f9 78 8f 3e e1 56 1d bc 9e ee 5f 3e
       0.34323233 0.28021982 -0.009603233 0.21868369
000180 83 d6 17 be 6c fe c0 be 68 61 36 3e 4e e2 90 3d
       -0.14827923 -0.37694108 0.17810595 0.07074414
000190 94 2b d6 3e e6 4f 8c be 4a a1 ef bd 87 2e dd 3d
       0.41830122 -0.27404708 -0.11700685 0.1079989
0001a0 df 94 c9 bb 98 b3 bf 3d 35 db fa 3c a8 1e 11 3a
       -0.00615178 0.09360427 0.030622104 0.0005535879
0001b0 89 34 99 be 81 e7 d0 3e 38 da c5 be 00 aa 35 bd
       -0.29922894 0.40801623 -0.3864305 -0.044351578
0001c0 07 85 5b 3e 74 e9 5c 3e 1d 55 cf bd 0e 17 b4 bc
       0.21437465 0.2157343 -0.10123656 -0.02198365
0001d0 6d c6 09 be df 85 6c 3e 5b 57 18 bd 10 d1 e5 3c
       -0.134546 0.23097943 -0.037192684 0.02805379
0001e0 ac 6e 5f 3f 05 e0 2d 3e 80 ea e0 3d 31 54 51 be
       0.87278247 0.16979988 0.10982227 -0.20442273
0001f0 63 a4 86 bd 29 f2 a4 3c d8 65 21 bd d4 9a 53 be
       -0.06574323 0.020135002 -0.039403766 -0.20664531
000200 5e 02 68 3e d8 0c fc bd 7e 03 2e 3d 66 4a a6 3e
       0.22657153 -0.12307137 0.0424838 0.32478637
000210 98 a1 9e be 5f a2 d0 bd f1 3c f1 3d 17 5a e1 3e
       -0.3098266 -0.1018722 0.11779202 0.44014046
000220 05 80 50 bf 50 73 e8 be 57 ae 83 bd 18 2c 2d bf
       -0.8144534 -0.45400476 -0.06429737 -0.67645407
000230 7c ec 95 3d 8e 0e 13 bf b4 ad 54 bc 86 66 b0 be
       0.073204964 -0.57444084 -0.012980867 -0.3445322
000240 59 a4 b8 3e 09 ef 51 3e d9 9e 2f 3b 84 cd 7f 3d
       0.36062887 0.20501341 0.0026797561 0.062451854
000250 5d fd 1c 3f d3 72 d5 bd d4 fc 84 3e 0e 40 94 bd
       0.613241 -0.104222916 0.25974143 -0.0723878
000260 c2 0a 30 3e 42 22 c3 be 72 f6 70 3e 8d 53 55 bf
       0.17191604 -0.38112074 0.23531511 -0.83330613
000270 ff cb c5 3d 07 5a 80 be 9d db 0c 3e 84 19 83 3d
       0.0965805 -0.25068685 0.13755651 0.06401351
000280 69 29 51 be ff 72 f5 bd 29 89 23 bd 79 b6 b9 be
       -0.20425953 -0.119848244 -0.039925728 -0.36272028
000290 aa ad 08 bf eb ca 5a 3c 5d 90 9c 3e 76 db cd be
       -0.5338999 0.0133540435 0.3057889 -0.40206498
0002a0 cb 9d 2e 3f 3c c1 a6 be d4 ec 68 bf e7 0d 05 be
       0.6820952 -0.325693 -0.9098637 -0.12993585
0002b0 09 bc 60 bd 8e a5 bc be 44 d3 ff 3c 64 07 98 3e
       -0.054866824 -0.36845058 0.031228669 0.2969314
0002c0 97 97 af be 63 d4 f9 3c 46 85 ca 3d 12 19 f7 be
       -0.3429534 0.030496782 0.09888701 -0.48261315
0002d0 5b c0 48 3d 82 6e aa 3e 50 67 5d be 3f fc d2 be
       0.04901157 0.33287436 -0.21621442 -0.41208073
0002e0 03 cc a8 3e f6 a6 84 3e 74 10 ec 3b 8a 8c 85 3d
       0.3296815 0.2590863 0.00720411 0.06520946
0002f0 4f c3 d4 3c 17 3c 9d 3e 12 c3 e3 be 2b e8 d3 3d
       0.025972037 0.30709907 -0.44484764 0.10347017
000300 36 e2 f6 bd ee d6 91 be c1 3a c5 39 c6 f0 8f bd
       -0.12054865 -0.2848429 0.00037618543 -0.07028346
000310 fd 17 a9 3d 14 b5 45 3f a9 39 3d 3e 88 b4 5d be
       0.082565285 0.7722943 0.18479027 -0.21650898
000320 c7 31 52 3e 26 98 b3 3d fd 09 6a be f4 ff a1 bd
       0.20526801 0.087692544 -0.22855373 -0.07910147
000330 9e bc 26 3e 2f 6f 37 3f 04 78 96 3e 0b 73 ee 3e
       0.16282889 0.7165403 0.2938844 0.46572146
000340 1a 45 cc bd c4 6d 83 be 5f 8e 20 3e 8c 6d 8b be
       -0.099741176 -0.25669682 0.1567931 -0.27232015
000350 7f a3 bb be 17 b2 9f 3e b5 75 22 3e 46 80 9d bd
       -0.36648175 0.3119056 0.15865214 -0.07690482
000360 1a 36 12 bf 18 30 49 3d ae 8d 77 be 47 b0 5c be
       -0.571138 0.04911813 -0.2417514 -0.2155162
000370 74 56 6f 3e a0 01 0a be 09 34 b1 3d 53 27 1e bd
       0.23372823 -0.13477182 0.08652503 -0.03861172
000380 5b 13 7d be ed 13 c0 be 2c 57 c3 be e6 e9 85 3e
       -0.24714415 -0.37515202 -0.38152444 0.26155013
000390 ce 7e b3 3d 5c 62 9e 3e 26 af bf 3e 7c ac 45 3b
       0.087644204 0.30934417 0.37438315 0.0030162623
0003a0 75 49 3e 3e c8 2c 96 be 36 eb 73 be 62 a3 80 3c
       0.18582709 -0.2933104 -0.23820195 0.015702907
0003b0 a2 ef f2 bb 91 2f 04 bf de 49 22 3f 49 5e 44 3f
       -0.0074138204 -0.5163508 0.6339396 0.7670637
0003c0 86 e8 9e bc 20 0b dd be c2 ca 2e bf 19 1c 67 bd
       -0.019397985 -0.4317255 -0.68278134 -0.05642328
0003d0 22 26 72 bd d1 ea e3 3e 3d 7a 5f bd 90 70 46 be
       -0.059118398 0.44515088 -0.054559935 -0.19378877
0003e0 56 fa 84 bd 08 8e 84 3c fa 2f 59 3e 27 60 76 be
       -0.0649306 0.016181007 0.21209708 -0.24060117
0003f0 0d ac 86 3e bf 3b 8f 3b 08 cd 20 bf f3 b7 04 3f
       0.2630314 0.004371136 -0.6281285 0.51843184

critic.2.bias f4 [64]
000000 f2 e9 9d 3e f5 fa 72 be 89 b1 22 bf d7 ae 11 3f
       0.3084255 -0.23728545 -0.6355215 0.5690741
000010 59 11 1d 3f 32 00 b4 be bc 2d b2 3d bc 1a e1 bd
       0.61354595 -0.351564 0.087001294 -0.10991427
000020 39 b3 3f be 71 78 98 3d a0 2c 35 3e fd 6c 9c 3e
       -0.18720712 0.074448474 0.17692804 0.305519
000030 0c 11 1b 3e d7 80 9e be e4 1c 52 3e f1 ed 8d 3e
       0.15143222 -0.30957672 0.20518833 0.27720597
000040 e1 de c2 3e 53 88 ee 3e 85 f1 ab 3e cd 9b 1f 3e
       0.38060668 0.46588382 0.33582702 0.15586777
000050 1a ae 39 be 41 9c 19 3e a1 da f8 3e cf a9 e8 3c
       -0.1813282 0.15001012 0.486043 0.028401284
000060 66 30 9e be 07 79 3d be 92 53 b1 3e 15 eb e4 3d
       -0.308963 -0.185032 0.34634072 0.11177651
000070 55 b1 e2 3e f4 0b c2 3e b8 ae 41 be 7d 09 4c 3a
       0.4427592 0.37899745 -0.18914306 0.0007783396
000080 21 ea 27 3e a0 ab 9d 3e d8 f8 df bd 74 55 c2 be
       0.16397907 0.30795002 -0.10936135 -0.3795582
000090 00 c1 d9 be 61 d1 0c 3e 3e 41 4c 3e af ab 2c be
       -0.4253006 0.13751747 0.19946763 -0.16862367
0000a0 19 7b 69 bf 6a 35 5b 3e 92 61 aa 3e b0 4a 66 3d
       -0.9120346 0.21407095 0.33277565 0.05622357
0000b0 fc 94 db 3c 5a c5 6a 3e 73 ac bc be 08 87 96 3d
       0.02680444 0.22926846 -0.36850318 0.07349974
0000c0 93 92 28 3d de fc 35 3e 0a 69 12 be 07 8a 77 3e
       0.04115541 0.17772242 -0.14297882 0.24173747
0000d0 19 6c 8d 3e dd 06 f5 bb 4e 2f 4e 3e 33 46 28 be
       0.27621534 -0.007477625 0.20135233 -0.16433029
0000e0 fe 9f 0b 3f 29 e8 e4 3e 2b 03 79 3e 05 08 86 3e
       0.54541004 0.44708374 0.24317615 0.26177993
0000f0 ea b0 9a bd 96 83 97 3c 7b 82 12 be 08 a2 c0 be
       -0.07553275 0.018495362 -0.14307587 -0.3762362

critic.4.weight f4 [1, 64]
000000 10 d4 bb 3e 5a 1c 8d be 61 09 67 be 8c 91 5f 3e
       0.36685228 -0.27560693 -0.22562172 0.21832865
000010 96 92 ec 3f aa 3f 53 be 51 da c1 be 0c 5e 63 be
       1.8482234 -0.20629755 -0.37861875 -0.22203845
000020 2a 0c e3 be ba 13 59 3e 47 29 6d 3e b9 64 19 3e
       -0.44345218 0.21198931 0.23160277 0.14979829
000030 13 ba b9 3e fb 32 44 be 02 3d 14 3e b9 e8 51 3e
       0.36274776 -0.19160073 0.14476398 0.20498933
000040 f1 ec 7d 3e a5 0c 9d 3e ba c6 91 3e e9 9f 4b 3e
       0.24797417 0.3067371 0.2847193 0.1988522
000050 b9 9b d6 3e b0 b0 d0 be b6 ca a8 3e 75 3a 64 be
       0.41915682 -0.40759802 0.32967156 -0.22287925
000060 2a da a0 be a9 e5 4b be f5 45 80 3e bf 64 c8 3e
       -0.31416446 -0.19911827 0.25053373 0.39139363
000070 34 11 00 3e b1 07 90 3e 05 63 9f be 46 7e 58 3e
       0.12506562 0.28130868 -0.31130233 0.2114192
000080 e3 44 90 3e 55 72 12 3f 7c f7 b5 be 94 b3 8b bf
       0.28177556 0.57205707 -0.35540378 -1.0914178
000090 c2 d9 99 be 80 98 1e 3f 57 89 fc be 35 00 54 bf
       -0.3004895 0.61951447 -0.49323532 -0.82812816
0000a0 8a b9 d5 bf 0a 71 56 3e 8d 17 36 3e 88 5a fa be
       -1.6697247 0.20941558 0.17782421 -0.48897195
0000b0 58 17 3b be ce ee 58 3e 92 22 38 be e8 1b 49 be
       -0.18270624 0.21184847 -0.17981938 -0.19639552
0000c0 e1 85 3c 3e 82 77 46 3e f2 4c 35 be 09 d3 e2 3e
       0.18410446 0.19381526 -0.17705134 0.44301632
0000d0 55 91 b4 3e 50 fa 4e 3e d7 af 83 3f 1b ef aa be
       0.3526713 0.20212674 1.0288037 -0.33385548
0000e0 00 93 17 3f c6 93 5c 3e 93 7f dd 3e c8 15 2e 3e
       0.5920868 0.21540746 0.43261394 0.17000496
0000f0 08 d1 64 be 49 63 83 be 3a 0f 36 be 02 a3 ae be
       -0.22345364 -0.25661686 -0.17779246 -0.3410874

actor.0.weight f4 [128, 13]
000000 0c 01 8b 3a f2 9c b7 be a9 97 0d 3f 92 67 ba be
       0.001060517 -0.35861927 0.5530954 -0.36407143
000010 76 17 17 3f 63 3e 08 bf 25 b5 55 be 04 ee 89 3d
       0.59020174 -0.53220195 -0.20869882 0.06734851
000020 47 08 e6 3e 07 bf e3 be 1d 94 a7 be 9f fd 81 3e
       0.4492819 -0.4448168 -0.3273019 0.2538881
000030 d9 ca b2 3e 5c 88 12 3e 38 2a f2 3d df e3 f5 3c
       0.34920385 0.1430983 0.11824459 0.030015884
000040 a4 74 a7 bc 19 df ab bd b6 6e a3 3e 2f 4c c4 be
       -0.02044136 -0.08392162 0.31920403 -0.38339373
000050 c6 78 0c 3e 59 0e 12 c0 a2 41 d5 be 4f 6e 4f bd
       0.13717946 -2.2821257 -0.41651636 -0.050642308
000060 73 ab ad 3e ed a4 6a 3c bd fd 92 3c 2d a6 f4 be
       0.33919868 0.014321548 0.017943257 -0.47783032
000070 4f ae 09 3f c5 33 93 be 1a f1 15 3f 9c 07 fc 3e
       0.537816 -0.28750435 0.58571017 0.49224555
000080 5e d5 ff bc 0b 39 3f 3e 51 1b 45 3f 0c f4 a3 be
       -0.031229671 0.18674104 0.76994807 -0.3202213
000090 2d 5c 64 be 61 3e f5 3d 98 76 7b 3e 0e 9f a1 3c
       -0.22300787 0.119747885 0.24556959 0.019729163
0000a0 51 1e be bc a7 0c 22 bf ce 6e 04 be a0 19 24 3e
       -0.023207815 -0.63300556 -0.12932894 0.160254
0000b0 b5 87 bb 3f 60 dc 77 3d 9b 51 de 3c fc c1 09 3f
       1.465079 0.0605129 0.027138522 0.5381162
0000c0 8c 2c 9c be 8b 5c a2 3c 49 2d 9d 3e 24 66 b8 be
       -0.30502737 0.019819519 0.30698612 -0.36015427
0000d0 83 97 60 3d 9a ea 2e bf 45 68 d8 ba 22 f8 07 3e
       0.054831993 -0.68326724 -0.0016510567 0.13278249
0000e0 26 61 d3 bd 44 33 eb be b8 ac e3 3e 15 7e 11 bf
       -0.10321264 -0.4593755 0.4446771 -0.5683301
0000f0 7a 02 9e 3d 00 9f ca be 71 bb f2 be e0 55 02 be
       0.07715316 -0.39574432 -0.4740863 -0.12728071
000100 54 8c 81 3e a7 ab 2c 3c 21 ce a0 3d fd f2 fd 3d
       0.25302374 0.010538972 0.07851816 0.12399862
000110 2a 1d 65 be b0 83 94 bf a3 e2 4f bf 68 f6 53 3e
       -0.22374406 -1.1602688 -0.81205195 0.20699465
000120 07 af db 3d f9 79 69 bf 8f 2e 36 bf a4 0c c9 be
       0.10726743 -0.9120174 -0.7116479 -0.39267457
000130 ca 05 19 3f d1 de c1 be c6 5b 34 be bc 2b 95 3d
       0.5977446 -0.37865308 -0.17613134 0.07283732
000140 59 85 91 bd bc 6d 24 3e b2 fc 2e 3f 18 47 25 bf
       -0.07105512 0.16057485 0.6835433 -0.64561605
000150 eb 96 f0 be 08 77 00 3f 70 2c 8e bc 21 2d a8 3e
       -0.4699014 0.5018163 -0.017355174 0.3284693
000160 80 1a ee 3e e6 30 26 bf 7f 71 46 3c a9 a8 95 be
       0.46504593 -0.64918363 0.0121120205 -0.2923024
000170 8f 48 b1 be 8b f2 c2 bd cb 0f 3f 3e 4f 44 7b 3f
       -0.3462567 -0.09518918 0.18658368 0.98151106
000180 fe 7e 48 bf 6a 29 99 bc b9 03 03 bf 19 dc e5 be
       -0.78318775 -0.018696506 -0.51177555 -0.44894484
000190 a5 2a 04 bf e8 2f 37 be 57 66 95 3e f0 7a 4c bf
       -0.5162757 -0.17889369 0.29179642 -0.7987509
0001a0 36 99 3b bd 62 40 77 3d 32 24 71 3f 36 9a e3 bc
       -0.04580041 0.060364135 0.94195855 -0.027783494
0001b0 8c 44 d7 3e 35 ee e3 3e f7 10 95 3d 16 ea fc bd
       0.42044485 0.44517675 0.072786264 -0.12349336
0001c0 de d6 5e 3f 19 11 6d bd 4c cf ce be 4a b4 b0 3e
       0.8704661 -0.057877634 -0.4039253 0.3451255
0001d0 c3 eb e7 bc a2 14 b2 3d 24 82 5b 3e 95 24 ef be
       -0.028310662 0.08695342 0.21436363 -0.46707597
0001e0 38 41 a9 be e0 f0 21 bf b9 01 5c bf ed 78 3e 3e
       -0.3305757 -0.6325817 -0.8594013 0.18600817
0001f0 5e 9b f7 bd 25 d6 c3 3f 69 54 23 3f ce 25 d8 be
       -0.12090181 1.5299727 0.63800675 -0.42216343
000200 2b 2f fc 3e 11 e4 20 be 05 16 63 3e 55 55 f9 be
       0.49254736 -0.15712 0.22176369 -0.48697916
000210 4d f3 08 bf 57 c4 d3 3e e7 aa 46 bf 82 5c 9c 3d
       -0.5349625 0.41360733 -0.77604526 0.07634832
000220 c7 26 9c 3d 6b 32 4a bd d4 35 38 3f 1b a6 b8 be
       0.07624584 -0.04936449 0.71957135 -0.36064228
000230 6a c7 0d 3f 54 80 9b be cd 6a 39 3e 24 f9 01 3e
       0.55382407 -0.30371344 0.18107148 0.12692696
000240 76 0d 02 bd 0e cf 95 bc 2d 72 07 3c ae 19 3e 3e
       -0.03175112 -0.018287208 0.008266968 0.18564484
000250 61 c3 9b be cb 47 72 be a3 27 7e bd a6 15 3b c0
       -0.304225 -0.236602 -0.06204952 -2.9231963
000260 a3 61 c1 bd 96 ee 44 3b af 74 56 bd bf 10 9a bd
       -0.09442451 0.0030049435 -0.052357372 -0.07522725
000270 95 c0 e1 3c 3d c6 60 be b5 7d eb be 54 aa 52 3e
       0.02755765 -0.21950622 -0.45994344 0.20572788
000280 33 31 54 3f 62 ca cd bf a3 c9 15 3c 93 4e eb 3d
       0.8288757 -1.6077387 0.009142312 0.11489596
000290 6a 2b eb 3d 01 1b 6b 3d db 60 b9 bc 1d eb 1b be
       0.1148289 0.0573988 -0.022629192 -0.15226407
0002a0 ea 07 d2 3d 8c 6d 1b 3d 1c 43 6e be e5 d7 29 3e
       0.10255416 0.03794627 -0.23267788 0.16586263
0002b0 c4 01 27 be 65 ee b0 3f 6d e7 92 bf 0b 8a fa be
       -0.16309267 1.3822752 -1.1476876 -0.48933443
0002c0 b8 85 e1 3e e6 ba 42 bf f8 b8 40 3f d9 e8 b0 3a
       0.44047332 -0.76066434 0.7528224 0.0013497128
0002d0 f6 2b 6e 3e c5 ed 9b 3d d0 02 d1 3d 49 41 81 3e
       0.23258957 0.0761371 0.102056146 0.2524512
0002e0 59 5b ef 3a e9 b2 ca bc 21 9a 5f 3f d4 3d 21 3f
       0.0018261477 -0.024743514 0.8734456 0.6298497
0002f0 54 b6 c8 3e e6 99 e4 3e 19 c0 ca be 71 cd 1a 3f
       0.39201605 0.44648665 -0.39599684 0.6046973
000300 11 c3 8d 3e 06 0d c5 3e c8 6a 4f bf 9d 8e d6 3d
       0.27687886 0.384865 -0.8102231 0.1047642
000310 ee 82 2e 3e 7f f3 87 be 17 65 1e 3e 49 c1 38 bf
       0.17042133 -0.2655296 0.1546825 -0.7216993
000320 33 99 3b 3f 1d dd 45 be 1f 4e ab be 3a 2a 56 3f
       0.7328064 -0.1932263 -0.3345804 0.8365818
000330 83 f6 90 bf 36 b3 36 be 53 4f 16 3e a4 11 70 3e
       -1.132523 -0.17841801 0.14678697 0.2344423
000340 83 3c b6 3d b8 7c 00 be e8 88 51 3e 30 62 14 3e
       0.088982604 -0.12547576 0.20462382 0.1449058
000350 01 cb 7b 3e a6 e1 9a 3e 11 9b d4 be 5d b3 a8 3b
       0.24589159 0.3025028 -0.41524556 0.005148335
000360 a3 3a c8 bf 7b 61 c2 be a8 12 26 3f d5 7a a5 be
       -1.5642895 -0.37964997 0.6487222 -0.32320276
000370 40 26 8d bd af 02 95 3e 75 6e 36 3e 34 2b f9 3d
       -0.06892061 0.2910361 0.17815574 0.121664435
000380 1d 9d fe be 00 ea 32 3f 7d 21 c4 be 37 f2 08 be
       -0.49729243 0.69888306 -0.383068 -0.13373648
000390 ee f5 99 3e 7a 27 f9 be 33 74 50 3f 91 41 76 bd
       0.30070442 -0.4866293 0.81427306 -0.060121123
0003a0 34 49 81 3d a3 44 00 3f dd 7d 12 bd 70 d3 2b bf
       0.063127905 0.5010473 -0.035764564 -0.67119503
0003b0 b4 0b 18 bc 25 07 c2 3e 19 fa 0d be 50 28 33 3e
       -0.009280134 0.37896076 -0.13864936 0.17495847
0003c0 a3 cf 79 bd 9c 2e 99 3d 83 47 a7 bf 7f b2 40 be
       -0.060989033 0.07479593 -1.3068699 -0.18818091
0003d0 63 ee 2e 3e b7 c3 e8 be 97 0a 1a 3f ac 60 59 3e
       0.17083125 -0.4546182 0.6017241 0.21228284
0003e0 1d 77 45 be 37 b8 65 be bf 71 2b 3e 94 6f 93 3e
       -0.1928372 -0.22433554 0.1674261 0.28796065
0003f0 eb af b1 3e cd e9 32 3f aa 55 ff 3d db b3 04 3e
       0.34704527 0.69888 0.12467511 0.12959234

actor.0.bias f4 [128]
000000 8f 3c c1 3c 6b f7 68 3e 9c 08 2a 3d 15 ff 8e bd
       0.023588447 0.22750632 0.041512117 -0.06982247
000010 d0 3b f9 bc ae f3 d7 bd 64 b2 4d bd 82 5e 4e be
       -0.030424029 -0.10544525 -0.050218955 -0.2015324
000020 5c bf be bd b7 c0 4d 3e 36 06 8f 3e b1 1d 57 3b
       -0.09313843 0.20093046 0.27934426 0.0032824094
000030 11 1d 95 3c 4f af 92 3d dd 0e 00 3d be f3 11 3e
       0.018202337 0.07162344 0.031264175 0.14253137
000040 69 76 e2 3d 8d 57 4e 3d b4 86 4c 3d 90 85 11 3e
       0.11057741 0.050376464 0.04993315 0.14211106
000050 76 10 16 3e 40 32 0f 3e 34 6d 2b be 12 59 e5 3d
       0.14654717 0.13984013 -0.16740876 0.111986294
000060 9a 14 8f 3e e0 df ca be cf 99 3c be d0 c7 72 3e
       0.27945405 -0.39623928 -0.18418048 0.23709035
000070 78 5c 99 be 45 c9 c5 3d cf 8b 2f be 7b e5 1b 3e
       -0.2995336 0.0965753 -0.17143176 0.15224259
000080 ee 66 7e be 23 e3 a3 3d 58 dc 64 be 13 44 47 3c
       -0.24843952 0.08002307 -0.2234968 0.012162226
000090 95 2b 92 3e c9 19 00 3e 9e af ab 3d 2d f4 f3 3d
       0.28548875 0.12509836 0.08383106 0.11911807
0000a0 da b5 92 bc 69 8b b3 3e 6c 84 2d 3c a1 11 66 bd
       -0.01790898 0.350673 0.010590654 -0.056169156
0000b0 2a ae 36 3e 76 6e 0e 3e 39 0d 27 be b2 7a ff bd
       0.17839876 0.13909325 -0.16313638 -0.12474574
0000c0 ea 59 77 3d 5e ea 65 3e db 44 94 be a6 54 5c 3e
       0.060388483 0.22452685 -0.28958783 0.21516666
0000d0 0c 19 99 3d 08 f4 96 bd 20 5f b2 bd 5e be 5d 3e
       0.074754804 -0.07370764 -0.0870955 0.2165465
0000e0 73 71 69 bd 10 54 71 3e 12 c6 82 3e 28 e5 31 3c
       -0.05699296 0.23567224 0.2554174 0.010857858
0000f0 2c 3c c0 bd bd c9 4f be ea d9 0d bd 92 6d c5 3e
       -0.09386477 -0.20291801 -0.034631647 0.38560158
000100 5d a8 6c 3e de 12 d0 3d 7c 2d 59 be b2 61 d3 3d
       0.231111 0.10159849 -0.21208757 0.10321368
000110 55 83 69 bd 7c bc 93 bd d7 0a 9d 3e 85 32 a6 3d
       -0.057010014 -0.07213685 0.30672333 0.081151046
000120 fe 85 72 bc db cc b6 3d 36 41 78 be 84 73 50 be
       -0.014802454 0.08925792 -0.24243626 -0.20356566
000130 ff f8 bb 3d 42 29 13 be 17 ed c4 bd 16 e1 18 3e
       0.091783516 -0.14371207 -0.09615534 0.14929613
000140 ab ba dc 3d 94 94 4e be 52 c9 33 be 49 1d 47 3d
       0.107777916 -0.20173866 -0.17557266 0.048611913
000150 37 48 92 3e 03 e6 fe bb f2 a4 46 3e 71 19 9b bc
       0.2857072 -0.0077788844 0.19398859 -0.01893303
000160 36 62 01 3e 0a 52 6c 3c 55 5e 3a be 13 7e d6 3d
       0.12635121 0.0144238565 -0.18200047 0.104732655
000170 c6 45 29 bd 08 16 36 3c ac d6 b9 3d bd e0 8d 3e
       -0.041326307 0.011113651 0.090741485 0.27710524
000180 51 37 ae be 82 40 3d 3e 81 5e 8a be 2e 93 56 3e
       -0.34026578 0.18481639 -0.27025226 0.20954582
000190 a7 44 69 be 08 ee d3 3c 2f bf c7 3d fa a3 80 3e
       -0.22780095 0.025870338 0.09753262 0.25125104
0001a0 b6 a6 a1 bd f8 4a d4 bd bc 10 97 bc 13 42 b0 3c
       -0.07893126 -0.10365862 -0.018440597 0.021515882
0001b0 a7 b6 dc 3d f3 d1 a9 bd 67 77 0a bd 22 37 a0 bd
       0.10777026 -0.08291998 -0.033805277 -0.07823016
0001c0 48 12 46 bc d6 3e ae be 4d f9 da 3d 7a f1 d0 3d
       -0.0120893195 -0.34032315 0.106920816 0.10202308
0001d0 2f 41 05 3d 20 d6 15 3e 1d 8f d1 bc 3c 85 60 3e
       0.032532867 0.14632463 -0.025580937 0.21925825
0001e0 68 6d 7c 3e c6 29 8b be 8d 46 84 3e b2 3d 29 bd
       0.2465111 -0.27180308 0.25835076 -0.041318603
0001f0 7d c0 be 3d e2 0b 2c 3c dc 37 9c bd 74 20 57 3c
       0.09314058 0.01050088 -0.07627842 0.013130296

actor.2.weight f4 [64, 128]
000000 95 b6 94 3e d4 1c 60 3f 65 12 92 3d ce 19 32 be
       0.2904555 0.8754399 0.07132415 -0.17392656
000010 76 19 5f be a2 0c 4c 3d 79 d5 b6 3e e1 25 31 3e
       -0.21787056 0.049816735 0.35709742 0.17299606
000020 fd 9f f0 bd 10 25 d3 be a4 e2 31 3e 85 0c 50 3f
       -0.11749265 -0.41239214 0.17371613 0.81269103
000030 c2 6a 14 be bb 0a 61 3e d3 04 9b bd 59 5a 16 be
       -0.1449385 0.2197675 -0.075692795 -0.14682902
000040 e3 8e ef bc 0e 3c e4 be 8a ef c6 3d a0 28 64 be
       -0.029242938 -0.44577068 0.09713657 -0.22281122
000050 15 9d 0a bf b4 29 b0 3e 0e a0 2c 3e a9 ae ca 3d
       -0.5414594 0.34406817 0.16857931 0.09896595
000060 23 e9 e0 be 28 de 4c 3e ea 04 c7 3b 1e 56 bf 3e
       -0.4392787 0.20006621 0.006073584 0.3737039
000070 45 c5 a3 3e 6e f9 8d bd 6f 97 1a 3e c8 a4 e8 3e
       0.31986442 -0.069323406 0.1509683 0.45438218
000080 6f 1e 51 3e a2 b4 83 3d 26 f6 69 3e 28 f8 d7 bd
       0.20421766 0.06430937 0.22847804 -0.10545379
000090 ec 48 8b be e7 63 89 3e a1 07 db 3e 32 7c 8b bd
       -0.27204072 0.26834032 0.42779258 -0.06810798
0000a0 69 6b 29 be cf 29 df be 10 02 92 3b 20 fb 57 be
       -0.1654488 -0.43586585 0.0044558123 -0.2109189
0000b0 a4 fb 59 bf 0a 88 dc bc 9f 3c 01 3e 17 85 5a be
       -0.851496 -0.026920337 0.12620781 -0.21339832
0000c0 d3 b5 91 be df dd 54 3e c1 b4 c4 3e 0d da 8a be
       -0.28459033 0.20787762 0.38419154 -0.27119485
0000d0 3f 9f 0e bf 68 db b6 bc c2 4b e8 be b8 0d 84 3c
       -0.5571174 -0.022321418 -0.453703 0.016119823
0000e0 b2 31 e6 3d 61 16 9d 3e 5b 6f 11 3d f1 82 83 3e
       0.112399474 0.30681136 0.035506587 0.25685838
0000f0 91 0d e8 bd 09 c7 46 3e 1d ec 96 3e b0 3a bf 3e
       -0.113307126 0.19411863 0.29477015 0.37349463
000100 f9 ad f4 bd c5 80 d1 3d a3 78 3c 3f 21 35 1e 3f
       -0.11947245 0.10229639 0.7362158 0.6179982
000110 be 15 04 3e ab a2 9b 3d 98 33 aa be 29 24 f6 3e
       0.12898919 0.07599386 -0.33242488 0.48074463
000120 6f 0d a3 be ca ae ea 3e 4f 4f ec bd 24 20 24 3f
       -0.31846187 0.45836478 -0.115385644 0.6411154
000130 96 a5 9f 3d de 7c 74 3e a0 95 51 3e 96 c6 1f 3d
       0.07795255 0.23875758 0.20467234 0.039007746
000140 c1 db af 3e 5f c0 8d bd 62 cd fc be a2 1e 26 3f
       0.34347346 -0.069214575 -0.49375445 0.6489049
000150 0a 82 0f bf ad 89 63 3d 86 e8 71 3e 0b 70 d9 3c
       -0.560578 0.05555122 0.23623857 0.026542684
000160 4c ee 03 bf 45 d4 a9 3d 0e ac 80 3d 0c 4c 5d be
       -0.5153549 0.0829244 0.06282817 -0.21611041
000170 40 6a 1e bd bd 4b 06 3e 15 bf ef 3d 07 a6 a6 3e
       -0.038675547 0.1311483 0.11706368 0.32548544
000180 d2 08 13 3e 57 62 3c be 4b 2c 0a bf 09 ff 5f 3e
       0.14358833 -0.18396889 -0.53973836 0.21874632
000190 98 9f 56 3e 0a 6f d5 3e 61 68 fe bd ab 32 17 3e
       0.20959318 0.4168628 -0.124222524 0.14765422
0001a0 92 54 9c be 4b a4 9b 3e de be 41 3c 8f a5 25 3e
       -0.30533272 0.30398783 0.011825291 0.16176437
0001b0 20 10 c8 3d 83 c8 c7 bc 9f c4 1e be 5a 9c f4 3e
       0.097687006 -0.024387604 -0.15504692 0.47775537
0001c0 1d c3 08 bd c6 8c df 3e 32 79 4f be b1 f3 1f 3e
       -0.0333892 0.4366209 -0.20261076 0.15620305
0001d0 e7 2f 6f 3e 8a a4 26 3e 77 12 74 be 3d 03 2b be
       0.23358117 0.16273704 -0.23835169 -0.16700454
0001e0 c5 eb 75 3e b4 db 8b bd 1c 23 4c be c5 80 02 bd
       0.2401572 -0.068290144 -0.19935268 -0.031861085
0001f0 05 37 5a 3d 09 7a af be 31 1e 69 3e 42 34 f9 be
       0.053275127 -0.34272793 0.22765423 -0.48672682
000200 38 3d a4 3e e0 52 2b 3e 9b c6 d8 3e f9 b6 bd be
       0.32077956 0.16730833 0.42339024 -0.3705366
000210 73 b9 a8 be b1 85 5e be 25 e8 9e be 92 16 56 3e
       -0.32953987 -0.21730687 -0.31036487 0.20907047
000220 ca 99 22 be 5a a0 fa 3d 46 58 28 bf de 1c 0f 3e
       -0.15878978 0.12237616 -0.65759695 0.13975856
000230 53 e0 93 3d 3a 38 ab be f3 37 39 be 70 df b7 be
       0.07220521 -0.33441335 -0.18087749 -0.35912657
000240 5c 7a 0f be c4 fc 9a be a4 88 17 3e 07 ba b6 3d
       -0.1401152 -0.3027097 0.14798218 0.08922201
000250 c9 1f 02 bf 87 d7 c2 3d 07 3b 07 bf 73 27 3b 3e
       -0.5082975 0.09513765 -0.52824444 0.18276767
000260 86 67 cf 3c c4 7d 8b 3d 77 6a b4 be 97 01 ea 3e
       0.025317919 0.06811097 -0.35237476 0.45704338
000270 28 f1 06 3e 35 b9 ed be 8e c2 b6 3c d1 5c a7 3d
       0.13177931 -0.46430364 0.022309568 0.08172
000280 97 f4 8e 3e 45 81 a3 3e 2f 9a b0 be 26 26 ec 3e
       0.27920982 0.31934562 -0.34492633 0.46122855
000290 be 3e 85 3e 66 2f 89 be b0 d3 85 3e 78 29 da be
       0.2602443 -0.26793975 0.26138067 -0.42609763
0002a0 29 56 90 be 88 71 7c be 98 c2 76 bd d4 5e 75 bd
       -0.28190735 -0.24652684 -0.060244173 -0.05990489
0002b0 fa a3 8c be 0f 4d 46 bf 11 1d 74 3d 2b 59 bb bd
       -0.27468854 -0.7746133 0.059598032 -0.09147867
0002c0 ed b7 0a 3f 62 5e 2c 3e 25 6a 06 3f ca 4e 0f be
       0.541869 0.16832879 0.52505714 -0.139949
0002d0 73 67 5b bf d1 e5 ae 3e 5c dd 56 3e 1b 8a 1d bf
       -0.85704726 0.3415971 0.2098288 -0.6153886
0002e0 34 7f 43 3e 88 b1 0e bf 8d c2 e4 3d 10 e4 ec 3e
       0.19091493 -0.5573964 0.1116992 0.46267748
0002f0 4d 2a 90 ba d6 d1 35 3f aa 9b 54 bd 84 0d ac be
       -0.0010998935 0.7102331 -0.051906265 -0.33604062
000300 53 2c 22 3e 76 56 81 be 08 38 a9 bc 2a 22 51 3e
       0.15837221 -0.25261277 -0.0206566 0.20423189
000310 44 98 0c 3d d1 c8 19 3f e2 14 4e bf 36 a2 61 3b
       0.0343249 0.60072047 -0.80500615 0.003442896
000320 4d 73 0b be 7b f5 94 3b 0d 42 4a 3e d2 7d 0d 3f
       -0.13618203 0.004545865 0.19751759 0.5527011
000330 c0 4a 01 3e 21 df 63 be d4 0b 87 3e 23 a6 e9 3d
       0.12626171 -0.22253086 0.26376212 0.11408641
000340 8c 27 c3 3e 12 30 29 3e 34 ea 11 be 6c 76 99 bd
       0.3811611 0.16522244 -0.14249498 -0.0749329
000350 25 a4 2f be e6 b6 52 be d2 b1 0c bf 4b 67 ba be
       -0.1715246 -0.20577583 -0.5495883 -0.3640693
000360 5f 9e 6d bd b1 92 05 3e 87 1e 00 3e c1 3c c4 be
       -0.058012363 0.1304424 0.12511645 -0.38327602
000370 2e 2d b5 3e 05 0e 42 be ce 41 6a be cc 47 fd be
       0.35386032 -0.1895066 -0.22876665 -0.4946884
000380 a0 13 e5 3e 91 2e 94 be 72 ce cc 3d 63 43 67 be
       0.44741535 -0.28941777 0.10000314 -0.225843
000390 c5 8b cd bd 79 63 98 3e 45 c1 8d 3e c0 76 26 bd
       -0.100364245 0.29763392 0.27686515 -0.040640593
0003a0 f0 6f 13 bf c4 76 a9 3e 2c 7d f1 bd a6 81 a3 3d
       -0.5759268 0.33098423 -0.11791453 0.07983713
0003b0 3e 82 9b 3c 6f 73 4a 3e b0 41 df 3e 0b 9d a3 3e
       0.018983003 0.19770597 0.43604803 0.31955752
0003c0 7f a9 e5 3e e4 ce d0 3e 37 0c a1 be cf 45 a7 bd
       0.44855878 0.40782845 -0.31454632 -0.08167612
0003d0 cf be 77 bd 36 65 4d be 6e ca 29 be fa 20 61 bd
       -0.060484704 -0.2005814 -0.16581127 -0.05496309
0003e0 25 10 07 3f 11 be 8c 3c bb 23 99 be 6f 83 83 3e
       0.5275901 0.017180474 -0.29910073 0.25686213
0003f0 83 8d d9 be 26 46 8c be b8 cf 4d 3d 24 a2 8b be
       -0.42490777 -0.2739727 0.050246924 -0.2727214

actor.2.bias f4 [64]
000000 70 4b f8 bd 4d 81 64 be d3 e1 fc 3c b3 7e bf bd
       -0.121237636 -0.2231495 0.0308694 -0.09350338
000010 cc b7 4a be c4 07 96 3e dd fe a8 be de 9d 35 be
       -0.19796675 0.293028 -0.33006945 -0.17736003
000020 32 fa a2 3d 3d 22 b4 3d f1 1c 92 3d 81 b3 3a 3e
       0.07957877 0.08795593 0.071344264 0.18232538
000030 9a e6 bc 3d e8 4c 1b bd f5 e9 94 3d fc 25 2b 3e
       0.09223671 -0.03791514 0.07271186 0.16713709
000040 c3 95 d9 3e 2b 3f 60 be 5b 86 47 be 5d 08 a0 3e
       0.42497072 -0.21899097 -0.19484846 0.3125638
000050 5f 07 06 be 36 bf 5d be 31 86 7b bd f5 b6 28 3e
       -0.1308875 -0.21654972 -0.06140727 0.16476043
000060 4e 13 90 be b4 35 38 be c5 90 c8 3e 2b e1 a5 be
       -0.28139728 -0.17989236 0.3917295 -0.32398352
000070 de 2d a9 3d bb 09 bf bd 63 b1 5f be e6 b7 e4 bd
       0.082607016 -0.09328028 -0.21845011 -0.11167888
000080 69 55 d8 3d c2 a5 36 3c e1 7c 26 3d 0b cf 8a 3d
       0.10563166 0.011147918 0.040646438 0.067777716
000090 99 5a 87 3e 43 51 b9 3e 59 b5 f6 3c dc 7a dc 3e
       0.26436308 0.3619481 0.03011577 0.43062484
0000a0 bc fd 15 3d 62 3f e6 3d a3 68 18 3d 50 57 8d be
       0.036618933 0.11242558 0.037209164 -0.27605677
0000b0 05 25 84 3e db 9c 8c 3e 1a b1 51 3e 86 c3 c2 bd
       0.25809494 0.2746342 0.20477715 -0.095099494
0000c0 22 a1 c3 bd be 14 6a bd f9 f9 04 3f 68 8e 9a bd
       -0.09552218 -0.057148688 0.5194393 -0.07546693
0000d0 26 98 17 be ce b4 ba bb ee 3e ac 3e 1d 6a 9f 3e
       -0.14804134 -0.005697823 0.33641762 0.31135646
0000e0 55 5b 19 3f 84 b2 ca be bf 38 bd 3e 6e e8 09 3e
       0.59904987 -0.39589322 0.36957356 0.13467571
0000f0 90 5e 09 be 4e 2c a2 bd bc 9d 0f bd 58 5e 8b be
       -0.13414979 -0.07918607 -0.035062537 -0.27220416

actor.4.weight f4 [6, 64]
000000 f5 d5 77 3d f8 b9 45 3e 7b e2 9f bd 50 3c 07 3e
       0.06050678 0.19309223 -0.078068696 0.13206601
000010 65 cf 0c 3f a9 07 a3 be d6 79 83 3c 5b 7d 96 bd
       0.5500396 -0.31841782 0.016049307 -0.073481284
000020 d6 cb 88 bd 23 50 c4 3d 21 01 3d 3c 94 1f 14 be
       -0.066795036 0.09585597 0.011535914 -0.14465171
000030 6b 9c b0 be 7b 0d e7 bd 06 8a c9 bd db df 06 3d
       -0.34494337 -0.11281868 -0.09840779 0.03292833
000040 29 04 80 be 6c 00 32 3d bc 26 93 3c e5 0f b0 bd
       -0.25003174 0.043457434 0.017962806 -0.08596782
000050 d9 1b ba 3c 3f 23 81 3d a4 a2 33 3e 8a eb 72 3d
       0.022718357 0.06305551 0.17542511 0.05930666
000060 15 be 98 bd 2b 13 ea bd 52 a7 84 3c 47 5b cc 3d
       -0.0745813 -0.11429437 0.016193066 0.09978347
000070 3e 98 58 3d da 19 94 3d 37 4b 8d bc d6 d4 2f bd
       0.052879564 0.07231493 -0.01724778 -0.042927586
000080 19 12 3d 3d 83 aa 9f bd 0f fe b1 bd 8f a6 69 bd
       0.046159837 -0.077961944 -0.08691036 -0.05704361
000090 7f ec 2e bd 4a 43 f3 3d aa 2c 18 3d e8 5d 29 3d
       -0.04270601 0.11878069 0.03715197 0.04134932
0000a0 a9 9b c1 ba 3c a4 6d 3d 84 ce ce 3d 1b 72 1a 3e
       -0.0014771122 0.058017954 0.100979835 0.1508259
0000b0 55 f2 a1 3c b4 26 bd 3e 6b d2 d6 3c 4b 8b c9 3d
       0.019768873 0.3694359 0.026223382 0.09841021
0000c0 00 2b 64 bd 84 7d 13 3d 64 eb 00 3f f8 79 21 bf
       -0.05570507 0.036008373 0.5035918 -0.63076735
0000d0 b6 1f 45 bd d3 06 03 3e 33 84 f1 bc 53 26 2f 3e
       -0.048125945 0.12795572 -0.029481983 0.17104463
0000e0 e2 fa 65 3d 6c 7e 80 be f6 fa 55 3e 4c 4e 72 bc
       0.056147464 -0.25096452 0.20896515 -0.014789175
0000f0 52 63 09 bb 88 1c 40 3e 08 a3 33 bd 93 49 ab 3d
       -0.002096374 0.18760884 -0.04385665 0.083636425
000100 37 0e 74 3e 59 c6 e6 bd b1 ea 1c bd 7f 57 93 3e
       0.23833548 -0.112683006 -0.038309757 0.28777692
000110 e3 d2 ee be 95 ad 50 3e 95 71 00 bf 76 b3 74 bd
       -0.4664527 0.20378716 -0.5017331 -0.05974146
000120 3c bc 4e 3f 83 68 de bb 34 a2 09 3e 41 bf a8 3e
       0.8075597 -0.006787361 0.13440782 0.32958415
000130 36 03 ee be 8f 88 ec 3d 55 08 e4 3e 6a 00 62 be
       -0.46486825 0.11549484 0.44537607 -0.2207047
000140 be a6 11 3f c9 4f fe bc 1e b6 c6 3c 11 d5 bc be
       0.56895053 -0.031043904 0.024256762 -0.36881307
000150 11 d7 b4 bd 0b 80 0a be aa 17 af 3d 63 8e 2c be
       -0.08830083 -0.13525407 0.085494354 -0.16851191
000160 37 aa 34 be d8 7e 13 bf 00 7f f2 3d 46 bd e9 3e
       -0.17643057 -0.57615423 0.118406296 0.45652217
000170 b3 d6 9c be ed 0d 68 bd a3 25 7e 3e ce 3f 2d bf
       -0.30632553 -0.056653906 0.24819045 -0.67675483
000180 a7 92 ba be 23 fb d0 3d ae de dd 3e c9 f9 11 be
       -0.36440012 0.102041505 0.43333954 -0.14255442
000190 d1 71 6c 3e ba 1a 95 bf 04 94 88 be 20 f1 58 bf
       0.23090293 -1.1648781 -0.26675427 -0.8474293
0001a0 94 70 00 bf d1 02 9a be d3 b7 09 be cd b4 fd bd
       -0.5017178 -0.30080274 -0.1344903 -0.12388001
0001b0 5f fd 50 3d 51 87 33 bf 09 7c bd be 36 5e 61 3e
       0.051022884 -0.7012835 -0.37008694 0.22008595
0001c0 86 5b a4 3e 7f f7 aa be 9e 16 6e bf da ad 28 bf
       0.32101077 -0.3339195 -0.9300326 -0.65890276
0001d0 ad b7 87 bd ff 3d 2f be c0 57 28 3e 14 3f 36 be
       -0.0662683 -0.17113493 0.16439724 -0.177975
0001e0 dc c3 6f 3f 28 9a 1f bf b9 fc 28 be 61 0a 04 be
       0.9365823 -0.623446 -0.16502656 -0.12894584
0001f0 57 0b b1 3e 2d cd 5b be 26 8f be be 4d 32 d3 3d
       0.34578964 -0.21464987 -0.3721859 0.103123285
000200 4d af 9c be 01 2c e2 bd e4 e0 ff 3d bd 44 d8 be
       -0.30602494 -0.11043549 0.12494066 -0.42239943
000210 69 a7 29 be 86 06 18 3e d7 35 d9 3e 2b 1c f2 3d
       -0.16567768 0.14846238 0.4242389 0.11821779
000220 5f 7c 34 bf b3 5a 03 be 27 f0 18 be f4 2b 27 be
       -0.70502275 -0.12827568 -0.14935361 -0.1632536
000230 18 8f 53 3f 95 12 38 bc 38 3a 9e be d1 d7 43 3e
       0.8264022 -0.011234899 -0.30903792 0.19125296
000240 b8 29 87 be 3c 83 56 bd e8 28 30 bd a1 90 f5 3e
       -0.26399016 -0.05237125 -0.04300776 0.47961906
000250 ec 96 05 3d 39 02 4b 3c b9 a6 89 be 92 81 df 3d
       0.032614633 0.012390667 -0.26885012 0.109133855
000260 ef 8a 73 3e f6 ec 29 3f 6c 28 dc bd 94 5b 0f bf
       0.23783468 0.663772 -0.10749897 -0.5599911
000270 94 bb 7e 3e 4b 40 10 bd 76 3b 69 be 21 4e 31 3f
       0.24876243 -0.035217565 -0.22776589 0.6925984
000280 9c 35 9e 3e 9f b7 78 bc 58 ae a5 be 13 5f 5b 3e
       0.30900276 -0.015180497 -0.32359576 0.21422987
000290 7d 03 36 be c4 d3 82 3f c0 8d 73 3e ae 46 4d 3f
       -0.17774768 1.0220876 0.23784542 0.80185974
0002a0 f5 c7 fd 3e 26 45 5d 3e 3e a9 14 3d 66 b4 79 bd
       0.49566618 0.2160841 0.036294214 -0.060963057
0002b0 54 ae 72 bd cf aa 94 3e 73 61 ac 3e 26 0c b2 be
       -0.059248284 0.29036567 0.33668098 -0.34774894
0002c0 5d 58 62 be 11 85 9b 3e 30 27 c6 3e 6a bb a6 3f
       -0.2210402 0.3037496 0.38701773 1.3025944
0002d0 2b 6f dd 3d 90 24 c1 3c 41 74 ec bd a2 60 dc 3a
       0.10812219 0.023577005 -0.11545611 0.0016813467
0002e0 60 2e 77 bf 7a 5d 5d 3f 8c a8 ce bc e7 0d 09 3e
       -0.9655514 0.8647076 -0.025226854 0.1338421
0002f0 eb 70 a6 be 89 8b 73 ba a6 64 da 3e 11 8e 39 be
       -0.32508025 -0.0009290507 0.42654914 -0.181206
000300 38 af 19 3e d2 54 a9 3e 5e a4 cf 3d 2e a0 2f 3e
       0.15008247 0.33072525 0.101387724 0.17150947
000310 f3 e2 bb be df 2e 74 3e 08 4a 60 be 43 5f 92 be
       -0.36696586 0.23846005 -0.2190324 -0.28588304
000320 b3 87 12 be 2e b5 3a be 70 c3 1b be 8f f5 cf bd
       -0.14309578 -0.18233177 -0.15211272 -0.101542585
000330 de ce 4a 3e cc 1b 0d 3e 9b 69 1c 3e 86 6e 80 bd
       0.19805476 0.13780135 0.1527466 -0.06271081
000340 a2 b4 f2 bc e3 af 51 be 85 d4 de 3e f1 ad 32 bd
       -0.029627148 -0.20477252 0.43521515 -0.043622915
000350 bd 9e 9d be 73 15 ea 3d de d5 80 bd 2d 4d 54 bb
       -0.3078517 0.11429872 -0.06290792 -0.0032394633
000360 70 6c 38 be d6 4b 24 3e be 94 38 3e 72 8d f7 3d
       -0.18010116 0.16044554 0.1802549 0.120875254
000370 e3 4b e3 3d 05 02 1f be 0d 1c 94 be 86 b7 80 bd
       0.110984586 -0.15528114 -0.2892765 -0.06285004
000380 f4 b8 29 be d1 cf f0 3d 89 f2 ac bd 0e 64 b2 3d
       -0.1657446 0.11758388 -0.084446974 0.0871049
000390 0b 38 04 be 92 04 dc 3d a9 06 17 3e 4e 1e 76 be
       -0.12912004 0.10743059 0.14748634 -0.24034998
0003a0 28 f7 55 be c5 e1 20 3e 76 1c 1e 3e 7a fa 70 3e
       -0.20895064 0.15711124 0.15440544 0.23533049
0003b0 82 0d 28 be 9d cc 5c 3e 5e 97 d4 bc cf 0d 0b 3e
       -0.16411403 0.21562429 -0.025951084 0.13579486
0003c0 cc fd 9c bd 03 e6 b6 3d b1 76 be 39 31 0e a8 bc
       -0.076655954 0.0893059 0.00036328056 -0.02051458
0003d0 23 0d c8 3e 87 42 f4 3d a6 6e 94 be a0 ca 0b 3f
       0.39072523 0.119267516 -0.28990668 0.54606056
0003e0 45 84 1a 3e 3f 84 9b bc dd 06 87 3d ea 3b 8a 3e
       0.1508952 -0.018983958 0.06593106 0.26998836
0003f0 12 ba de bd 3e 0c d9 3d 87 01 30 bd b7 f9 ee 3d
       -0.10875334 0.10598038 -0.042970207 0.11668723

actor.4.bias f4 [6]
000000 b3 ba d0 be 4f a2 a1 3e 73 f9 1e 3e cc 71 85 3c
       -0.4076744 0.31569144 0.15524845 0.016289614
000010 eb a5 0f bd 56 2f 59 3d
       -0.03507034 0.05302366
