Plotting/saliencies_live/Multi_Pong/Sequence_Length_1/multi_pong_1__1__1721853303_checkpoint_152.pt (torch, 86690 bytes, 11 tensors)

critic.0.weight f4 [128, 12]
0	0x3e9a93d0	0.30190897
1	0xbe25559f	-0.16145943
2	0xbdda49c5	-0.10658602
3	0xbe24108f	-0.16021942
4	0xbd83c0bc	-0.064332455
5	0x3e93e9bd	0.28889266
6	0xbed5466d	-0.41655293
7	0x3e87b887	0.2650797
8	0xbc851301	-0.016244413
9	0xbd338906	-0.043831848
10	0x3f14bf21	0.5810414
11	0x3dfde79b	0.12397691
12	0xbcc6d034	-0.0242692
13	0x392c17ac	0.00016412017
14	0xbdab3bfe	-0.08361052
15	0x3b9cd08a	0.004785602
16	0xbd4332db	-0.04765592
17	0xbec26f08	-0.37975335
18	0x3e1bd92e	0.15219566
19	0xbea79d14	-0.3273703
20	0x3b2d88e3	0.0026479296
21	0x3ed22465	0.41043392
22	0xbd214179	-0.03936908
23	0x3ef4d2f1	0.47817186
24	0x3e3518de	0.17685267
25	0x3cf89fec	0.030349694
26	0xbdfa8bd3	-0.122337006
27	0x3d114182	0.035462864
28	0xbc8d0c9c	-0.017217927
29	0xbcc16daa	-0.023611862
30	0x3e3697d4	0.17831355
31	0x3d605b1e	0.054774396
32	0x3d99f8bd	0.07518146
33	0x3dc91069	0.09817583
34	0xbf1d81b0	-0.6152601
35	0x3f67e2be	0.90580356
36	0xbe79adaa	-0.24382654
37	0x3de57b8a	0.11205204
38	0xbe230648	-0.15920365
39	0x3de67d80	0.11254406
40	0x3e77da02	0.24204257
41	0xbe391b75	-0.1807688
42	0x3f64f00c	0.8942878
43	0xbf064a83	-0.52457446
44	0x3d18135f	0.03712785
45	0x3c64491d	0.013933447
46	0x3d5bb029	0.053634796
47	0xbd8d4f57	-0.068998985
48	0x3d853d46	0.065058276
49	0xbb0afe7f	-0.002120882
50	0xbc9aae93	-0.018882072
51	0x3c84a632	0.01619253
52	0x3e7b72c7	0.24555503
53	0xbe68ce2e	-0.22734901
54	0x3fada42d	1.3565727
55	0xbf8d243d	-1.1026684
56	0x3dffbaf2	0.12486829
57	0xbe1a5a59	-0.15073527
58	0x3ecf3a2c	0.4047407
59	0xbf39e209	-0.7261053
60	0xbdea2c60	-0.11434245
61	0xbcdd7f58	-0.027038261
62	0xbe0dc427	-0.13844357
63	0xbca4ed04	-0.02013255
64	0x3d363f7d	0.04449414
65	0x3e09c593	0.13454275
66	0xbe45dbfc	-0.19322199
67	0x3fd7f706	1.687226
68	0xbd104fb4	-0.03523226
69	0x3de3945b	0.11112281
70	0xbf17a10c	-0.59230113
71	0x3eb8c69a	0.3608902
72	0x3da76319	0.08173198
73	0x3d8879c8	0.06663853
74	0xbe7e2d5f	-0.24821995
75	0x3d8772be	0.06613682
76	0x3d99b2bd	0.07504795
77	0xbd705338	-0.058673114
78	0xbf1d25cd	-0.61385804
79	0x3ddf4005	0.10900883
80	0xbe6a3533	-0.22871856
81	0x3e346843	0.17617898
82	0xbe80a6f0	-0.25127363
83	0x3f63326e	0.88748825
84	0x3e71e41b	0.23622172
85	0xbd09c0b0	-0.033631027
86	0xbd357dd4	-0.044309452
87	0xbc8628ba	-0.016376842
88	0xbe1013e6	-0.1407009
89	0x3d985b53	0.07439294
90	0xbfc4fe7c	-1.5390162
91	0x3f1994fd	0.59992963
92	0x3e0f5e4f	0.1400082
93	0xbd904078	-0.070435464
94	0x3da8e0a9	0.082459755
95	0xbf51ec12	-0.8200084
96	0xbe2ea789	-0.17056097
97	0xbc94cc4f	-0.018163828
98	0x3d14d3a3	0.036334645
99	0xbc8ee46a	-0.0174429
100	0xbc4cde7d	-0.012504217
101	0x3bfd16c9	0.0077236635
102	0xbe9b2096	-0.302983
103	0x3c214792	0.009843724
104	0xbddceeff	-0.107877724
105	0xbde7a4ac	-0.113107055
106	0xbfe4f0d6	-1.7885997
107	0xc01192b3	-2.2745788
108	0x3e773df3	0.24144726
109	0xbe027d67	-0.1274315
110	0x3e82ea93	0.2556959
111	0xbe267a7f	-0.16257666
112	0xbedb30b0	-0.42810583
113	0x3e5459b3	0.20737343
114	0xbf842a8f	-1.0325488
115	0x3ea95fb7	0.33080837
116	0xbcc2b7b8	-0.023769245
117	0x3d32c65a	0.043646194
118	0x3dc4f61d	0.09617255
119	0xbe3cba4a	-0.18430439
120	0x3e9b239c	0.30300605
121	0xbdb64805	-0.089004554
122	0x3dc87668	0.09788209
123	0xbce693bc	-0.028146617
124	0xbd578495	-0.052616674
125	0xbb9e708d	-0.0048351944
126	0xbde5a614	-0.112133175
127	0x3d928717	0.071546726
128	0xbec4471b	-0.383355
129	0x3dd4f8b3	0.10398998
130	0xbf09886b	-0.5372378
131	0xbf1a617f	-0.6030502
132	0xbdbfa111	-0.09356893
133	0x3d3cc858	0.0460895
134	0x3ca9525f	0.02066916
135	0x3cf57c75	0.029966572
136	0x3dc12bfd	0.09432218
137	0xbe32ae3c	-0.17449278
138	0x3fd7b9d7	1.6853589
139	0xbfb549e8	-1.4163179
140	0x3d2c9c00	0.04214096
141	0x3c7d38df	0.015455454
142	0xbddb968e	-0.107220754
143	0x3dca47d1	0.09876979
144	0x3d313375	0.043261964
145	0x3db4c471	0.08826531
146	0xbd7ddaa8	-0.061976105
147	0x3da24287	0.07922845
148	0x3de68256	0.11255328
149	0xbe6d8e0b	-0.23198716
150	0x3f361d5d	0.71138555
151	0x3e489b68	0.19590533
152	0xbd942cc7	-0.07235103
153	0x3d9c1f18	0.07623118
154	0xbf0e3e26	-0.5556358
155	0xbe8c87df	-0.2744741
156	0x3da66c63	0.08126142
157	0x3a7557b7	0.0009359079
158	0x3dcbef15	0.09957711
159	0xbad34322	-0.001611803
160	0x3de8054b	0.113291346
161	0x3c456f02	0.012050392
162	0xbefa9e30	-0.48948812
163	0xbe9f278e	-0.31084865
164	0xbe02b975	-0.12766059
165	0xbcff3746	-0.031154286
166	0xbfbd1a7b	-1.4773706
167	0xbea535df	-0.32267663
168	0xbab82d97	-0.0014051673
169	0xbb325203	-0.0027209527
170	0xbba18133	-0.004928732
171	0xbba73e5f	-0.0051038708
172	0xbc4823fb	-0.01221561
173	0x3c726272	0.014793979
174	0x3f96a71d	1.1769749
175	0x3f023a58	0.50870275
176	0x3d1788a4	0.036995545
177	0xbc98337a	-0.018579233
178	0xbf5c1808	-0.8597417
179	0xbeec8a77	-0.4619939
180	0xbd1c24d1	-0.03812105
181	0x3b73ddea	0.0037211129
182	0xbdbef765	-0.093245305
183	0x3b5bf3f8	0.0033562165
184	0xbdcd1a1a	-0.10014744
185	0x3bc27bf0	0.0059351847
186	0xbf93c0e1	-1.1543237
187	0x3cf49791	0.029857429
188	0x3e105472	0.14094713
189	0xbd685207	-0.056718852
190	0x3f956d2c	1.1673942
191	0x3e6cd483	0.23127942
192	0x3d4c9771	0.049949113
193	0xbbeb5f64	-0.0071830023
194	0xbc6ff957	-0.01464685
195	0xbbdabb4a	-0.0066751586
196	0x3bc10f6f	0.0058917324
197	0xbe2cc756	-0.16872916
198	0xbf72a7b6	-0.94787157
199	0xbf5fbdae	-0.87398803
200	0x3d7227f7	0.059120145
201	0x3e15f31c	0.1464352
202	0x3ec0baf0	0.37642622
203	0x40011366	2.016809
204	0xbd96200e	-0.07330333
205	0x3cd2b90e	0.025723007
206	0x3e02bf74	0.12768346
207	0x3bf03438	0.0073304437
208	0x3e4123d2	0.1886132
209	0x3b2d5966	0.002645099
210	0x3f63f0c6	0.89039266
211	0xbec4d089	-0.3844035
212	0xbe806548	-0.2507727
213	0xbcb5d5be	-0.022196647
214	0xbed270ea	-0.41101772
215	0x3e94cbcf	0.29061744
216	0x3e8bdb26	0.27315634
217	0x3ddeef21	0.10885454
218	0x3d27c195	0.0409561
219	0x3dfbbf12	0.12292303
220	0xbd1e6f1c	-0.03868018
221	0xbe93e178	-0.28882957
222	0xbec1a404	-0.37820446
223	0x3e1ebd73	0.15501957
224	0xbdd4ce81	-0.1039095
225	0x3db6db57	0.089285545
226	0xbe989b40	-0.29805946
227	0x3e176931	0.14786221
228	0xbaa6e1e6	-0.0012732118
229	0x3b48be1f	0.00306309
230	0x3d829963	0.063769124
231	0xbbe5c2cb	-0.0070117465
232	0x3cb48513	0.022036111
233	0xbded026b	-0.11572727
234	0x3f2e4933	0.68080443
235	0xbf26a90e	-0.65101707
236	0x3dafff89	0.08593661
237	0xbd758e12	-0.059949942
238	0x3f22b530	0.6355772
239	0xbf02fd1d	-0.5116747
240	0xbd546fa6	-0.05186429
241	0x3cdfd02b	0.027320942
242	0x3dd126f4	0.10212508
243	0x3cd40b7d	0.025884384
244	0x3d45598d	0.048181105
245	0xbca11c28	-0.019666746
246	0xbec7e5ed	-0.39042607
247	0xbd44bbd6	-0.048030697
248	0x3db6ff23	0.08935382
249	0xbda33344	-0.079687625
250	0x400f3c6c	2.2380629
251	0xbd9668a2	-0.07344176
252	0x3e7f3f04	0.24926382
253	0xbe08c686	-0.1335698
254	0x3dc8f099	0.09811515
255	0xbd97efce	-0.07418786

critic.0.bias f4 [128]
0	0x3d8c83e0	0.06861091
1	0x3bcec374	0.006309921
2	0x3c937eac	0.018004738
3	0xbd2ee5ac	-0.0426995
4	0xbc883283	-0.016625648
5	0xbc1bb7a3	-0.009504232
6	0xbd390bba	-0.0451772
7	0x3d430d3f	0.047620054
8	0x3d71cca6	0.05903306
9	0x3e2721b5	0.16321452
10	0x3dac7abf	0.084218495
11	0xbd0a3b38	-0.03374788
12	0xbd4d89b9	-0.05018017
13	0xbc8a6836	-0.016895395
14	0xbd0df806	-0.03466036
15	0x3d1cbc7d	0.038265694
16	0xbd901ec6	-0.070371196
17	0xbda2df3a	-0.07952733
18	0x3d29f575	0.04149385
19	0x3cda1c03	0.026624685
20	0x3c3a91ea	0.011387328
21	0x3daeb7b7	0.085311346
22	0xbdabe05a	-0.08392401
23	0xbc69edd2	-0.014277892
24	0x3d64cc94	0.055859163
25	0x3c6b3032	0.014354752
26	0x3daaf2e0	0.08347106
27	0xbbd74356	-0.0065693064
28	0xbdc2643f	-0.09491777
29	0xbc97675e	-0.018481907
30	0xbda0b9c2	-0.078479305
31	0x3d056920	0.03257096
32	0x3b0e7ca8	0.0021741781
33	0x3de0e091	0.10980333
34	0x3e1ea9f7	0.15494524
35	0xbcdd7858	-0.027034923
36	0x3c86f0f4	0.016472317
37	0xbd1d072f	-0.03833693
38	0x3cddbc55	0.027067343
39	0xbc8680b6	-0.016418796
40	0x3d51134e	0.0510438
41	0xbdb50f9b	-0.08840867
42	0x3d217921	0.03942216
43	0xbd9e4f34	-0.077299505
44	0x3dee6e78	0.11642164
45	0x3e826c6d	0.25473347
46	0xbd897c62	-0.06713177
47	0x3c032460	0.008004278
48	0x3cf697ca	0.030101676
49	0x3d732333	0.05935974
50	0xbd4d72e9	-0.050158415
51	0xbab56f17	-0.0013842311
52	0x3c8e17e7	0.017345382
53	0xbb8be32e	-0.0042690253
54	0x3d2d03c9	0.042239938
55	0x3dbd52a0	0.09244275
56	0x3d9434b9	0.072366185
57	0x3d7d98ca	0.06191329
58	0xbd4c5a16	-0.0498906
59	0xbe1f5a24	-0.1556173
60	0xbcb564da	-0.022142816
61	0xbd016325	-0.031588692
62	0xbe149e0e	-0.14513418
63	0x3e31f6d9	0.17379321
64	0xbda7ff36	-0.082029745
65	0x3e57d986	0.21079072
66	0xbd6f83f4	-0.05847545
67	0xbd181440	-0.037128687
68	0xbc7cddf2	-0.015433775
69	0xbdeed10b	-0.116609655
70	0xbd138c42	-0.036022432
71	0x3d995aec	0.07488045
72	0x3d0a6152	0.033784218
73	0xbd88190c	-0.06645402
74	0xbdbce8e9	-0.092241116
75	0x3d8f3bac	0.069938034
76	0x3d3341ba	0.043763854
77	0x3d6dd46f	0.05806392
78	0xbd54b35d	-0.051928867
79	0x3c2bf6fd	0.010495898
80	0x3d8c685f	0.06855845
81	0x3e0bb40c	0.13642901
82	0x3c96476d	0.018344605
83	0x3da8666e	0.08222662
84	0xbd177aa5	-0.036982197
85	0xbcba046d	-0.022707189
86	0x3c8a33ea	0.016870458
87	0x3e10446f	0.14088605
88	0x3cc82b1b	0.024434617
89	0x3d9e6479	0.077340074
90	0x3c7dace2	0.015483113
91	0xbd93947e	-0.07206057
92	0xbc36b799	-0.0111521715
93	0x3ca0cd07	0.019629015
94	0x3d011a00	0.031518936
95	0xbd23eb6a	-0.04001943
96	0x3d837522	0.06418826
97	0xbdc0e687	-0.094189696
98	0xbc2b5bc2	-0.0104588885
99	0x3e10a3b6	0.14124951
100	0xbccb3706	-0.02480651
101	0x3d226b12	0.03965289
102	0x3c02defe	0.007987736
103	0xbda81804	-0.082077056
104	0xbdae8137	-0.085207395
105	0xbd910c52	-0.07082428
106	0x3e5c44f2	0.21510676
107	0xbc4ac553	-0.012376147
108	0xbc63cf97	-0.013904474
109	0x3d415bf9	0.047206853
110	0x3c9b7381	0.018975975
111	0xbcae4970	-0.021275252
112	0xbd619e1e	-0.055082433
113	0xba9fe67a	-0.0012199425
114	0xbd986ba1	-0.074424036
115	0x3d8fd58a	0.07023151
116	0xbd22c9d6	-0.039743267
117	0xbcc3f53a	-0.023920644
118	0xbc899466	-0.016794395
119	0x3e0fd1e7	0.14044915
120	0xbd4d9015	-0.050186235
121	0xbcadfb8f	-0.021238117
122	0xbd1f1df2	-0.038846917
123	0xbd1b61e0	-0.037935138
124	0xbcb057ce	-0.021526244
125	0xbd96e4a0	-0.073678255
126	0x3d33f6c8	0.04393652
127	0xbcdffd08	-0.027342334

critic.2.weight f4 [64, 128]
0	0xbec06c68	-0.37582707
1	0x3ec66adf	0.3875341
2	0x3e5bb196	0.21454462
3	0x3d932420	0.07184625
4	0x3f2ba7c7	0.6705288
5	0x3d9c9860	0.07646251
6	0xbe636588	-0.222067
7	0xbe7af9ee	-0.24509403
8	0x3c547efb	0.012969728
9	0xbe881c31	-0.26584008
10	0x3c98812b	0.01861628
11	0x39eadebe	0.00044797914
12	0xbe813be4	-0.25241005
13	0xbd60e585	-0.054906387
14	0xbdbfe0d5	-0.09369055
15	0xbeb11ab6	-0.3459069
16	0xbe5e9627	-0.21736966
17	0x3edb2640	0.4280262
18	0x3e0b6ae7	0.13614999
19	0x3e60f1f6	0.21967301
20	0x3cb6a3f3	0.022294974
21	0xbd437424	-0.047718182
22	0x3e818ab4	0.25301135
23	0x3db9846b	0.0905846
24	0x3e5abeb0	0.21361804
25	0x3defc902	0.11708261
26	0x3e296532	0.16542509
27	0x3d2c35e0	0.042043567
28	0xbef55e8d	-0.479237
29	0x3f293603	0.6609804
30	0x3d92a410	0.07160199
31	0x3e4a09ea	0.19730344
32	0x3d7d68f1	0.061867658
33	0x3e82998e	0.25507778
34	0x3c1c014a	0.009521792
35	0x3e23443b	0.15943997
36	0x3c279151	0.010227517
37	0x3e1f998e	0.1558592
38	0xbdcb799d	-0.09935305
39	0xbdca9dcf	-0.09893381
40	0xbd9f9bb6	-0.077933714
41	0x3e56ecfb	0.20988838
42	0x3ea70e54	0.3262812
43	0x3eb22eff	0.3480148
44	0x3deb808e	0.11499129
45	0x3e48c362	0.19605783
46	0x3c812937	0.015766723
47	0xbd640ec4	-0.055678144
48	0xbbef4b7d	-0.0073027
49	0xbe059f82	-0.13049129
50	0xbdce0879	-0.1006021
51	0x3dee4288	0.116337836
52	0x3e1177f6	0.14205918
53	0x3e12d44c	0.14338797
54	0xbe00d76e	-0.1258218
55	0x3e65a74d	0.22427101
56	0x3df0d1af	0.11758744
57	0x3e1502d0	0.14551854
58	0xbe59ea32	-0.21280745
59	0xbcc56e60	-0.024100482
60	0x3e5162a3	0.20447783
61	0x3ed3bb4d	0.41353837
62	0x3d9c01ad	0.07617507
63	0xbeaeb4d5	-0.3412234
64	0xbe838974	-0.25690806
65	0x3ca0c4dc	0.01962512
66	0xbd7ee737	-0.062232222
67	0x3cf1c76b	0.029514035
68	0x3c61be93	0.013778347
69	0xbaa2012a	-0.0012359966
70	0x3cd7caba	0.026341785
71	0x3d45bd90	0.048276484
72	0x3ecbc992	0.39802223
73	0x3d033c9a	0.032040216
74	0xbcbeb5a7	-0.023279978
75	0x3be5d855	0.007014314
76	0xbe310bd3	-0.17289667
77	0x3e200522	0.15626958
78	0xbd1d3780	-0.038383007
79	0xbf056fff	-0.5212402
80	0xbdbe78db	-0.09300395
81	0x3c4117c1	0.0117854485
82	0x3e31ee02	0.17375949
83	0x3a81339e	0.0009857302
84	0x3d8bc46b	0.06824573
85	0xbc34a95a	-0.011026705
86	0xbe5b12c5	-0.21393879
87	0xbe982f3a	-0.2972353
88	0xbcec8d5a	-0.028875995
89	0x3e15b23b	0.14618771
90	0x3daf65b7	0.085643224
91	0x3d8ac5f6	0.06776039
92	0x3e8f001a	0.27929765
93	0x3dbf00a4	0.09326294
94	0xbe550301	-0.20801927
95	0x3e0de9a7	0.13858663
96	0xbe724b15	-0.23661454
97	0xbc993c1e	-0.018705424
98	0x3e3aef89	0.18255438
99	0xbbfe4533	-0.007759714
100	0x3e991664	0.29899895
101	0xbe318808	-0.17337048
102	0xbd9144bb	-0.070931874
103	0xbd40bfdd	-0.047057975
104	0xbe3f1bdf	-0.18662976
105	0xbe263ee9	-0.16234936
106	0xbc3aaefb	-0.011394258
107	0x3e4b68dd	0.19864221
108	0xbe50a51f	-0.20375489
109	0x3f19a529	0.6001764
110	0xbd9aa4b3	-0.07550945
111	0xbde1c56d	-0.11023984
112	0x3e352043	0.17688088
113	0x3e768374	0.24073583
114	0xbe9fdd4f	-0.31223533
115	0x3e93b6e4	0.28850472
116	0xbe4cd7ae	-0.2000415
117	0x3e937eae	0.28807586
118	0x3e03d5fb	0.12874596
119	0xbd5bfe5f	-0.053709384
120	0x3e68aed1	0.22722937
121	0x3c6da0c9	0.014503666
122	0xbd92552a	-0.0714515
123	0xbea92cc5	-0.3304197
124	0x3d11e572	0.035619207
125	0xbce9454d	-0.028475428
126	0x3e5a23ee	0.21302769
127	0xbdda2448	-0.10651451
128	0xbd8527e7	-0.065017514
129	0x3d018900	0.031624794
130	0xbe5ec61e	-0.21755263
131	0x3e3527e8	0.17691004
132	0xbdc6f14b	-0.09713992
133	0x3d328750	0.043586075
134	0x3ec64448	0.3872397
135	0x3e9f9143	0.31165513
136	0xbe94292d	-0.28937665
137	0x3e0cc4cc	0.13746947
138	0xbe393ffb	-0.18090813
139	0xbf2ec557	-0.68269867
140	0x3d8463fc	0.06464383
141	0xbf19ffca	-0.6015593
142	0xbd34121c	-0.043962583
143	0xbe91d765	-0.28484645
144	0x3d6290e4	0.05531396
145	0x3e17de89	0.14830984
146	0xbe499da5	-0.19689043
147	0x3e10c0d5	0.1413606
148	0x3eba03b4	0.3633095
149	0xbe69bac4	-0.22825152
150	0x3ea0ef7c	0.31432712
151	0x3e90b951	0.28266385
152	0xbe80f11d	-0.25183955
153	0xbdc8776f	-0.09788405
154	0x3e494a8d	0.19657345
155	0xbe0b627b	-0.13611786
156	0xbdc87279	-0.09787459
157	0x3d96d16b	0.07364162
158	0xbcc8aca9	-0.024496393
159	0x3cdc80f0	0.026916951
160	0xbe8cffb7	-0.27538845
161	0xbdb86a1a	-0.09004612
162	0x3e92b2b2	0.2865196
163	0xbdf4d0e7	-0.119539075
164	0xbdc2929a	-0.09500618
165	0xbe841db1	-0.25803903
166	0x3dcd0d54	0.10012308
167	0xbee9b0a9	-0.45642594
168	0xbddbd17c	-0.10733315
169	0x3d05681d	0.032569993
170	0x3c05b09d	0.008159784
171	0xbeb2f92d	-0.3495573
172	0xbe807787	-0.25091192
173	0x3bf8a864	0.007588433
174	0xbe0637c7	-0.13107215
175	0x3e2c710a	0.16839996
176	0xbe5b4be7	-0.21415673
177	0x3ceb0aa5	0.0286916
178	0xbc707478	-0.014676206
179	0xbe24f346	-0.16108426
180	0x3e3a4c3a	0.1819314
181	0x3e26ddfd	0.1629562
182	0x3dac5f7c	0.0841665
183	0xbd29effd	-0.041488636
184	0x3e90b206	0.2826082
185	0x3ddcc368	0.10779458
186	0xbdc3a3ef	-0.09552752
187	0x3db155fb	0.086589776
188	0x3db050e2	0.08609177
189	0x3ea9bc1b	0.33151326
190	0xbd58ab9b	-0.05289803
191	0x3d86d6c8	0.06583935
192	0xbe5f2587	-0.2179166
193	0xbe13cea4	-0.14434296
194	0x3e908334	0.282251
195	0xbdf574af	-0.11985146
196	0x3ccaea28	0.024769858
197	0x3e849cc0	0.2590084
198	0xbe2347fe	-0.15945432
199	0xbde0ab2a	-0.10970147
200	0x3dc606eb	0.09669288
201	0x3e215a81	0.15757181
202	0x3dfafcb8	0.122552335
203	0xbc1ce20b	-0.009575377
204	0x3deebeed	0.1165751
205	0x3eaf4fde	0.3424062
206	0x3d5d5194	0.054032877
207	0xbe3bfcb8	-0.18358123
208	0xbd91ca6f	-0.07118689
209	0x3e7dba35	0.24778064
210	0x3d00a3d8	0.031406254
211	0xbe0dea66	-0.13858947
212	0xbe0530c0	-0.13006878
213	0x3e0894d1	0.13338019
214	0x3e533be5	0.20628317
215	0x3d29de35	0.04147168
216	0xbe4f7a36	-0.20261464
217	0xbdc59f5c	-0.09649536
218	0xbe0ac5b6	-0.13551983
219	0xbec949c1	-0.39314082
220	0xbe09eaee	-0.13468525
221	0x3df9c1e2	0.12195183
222	0x3d6ab3ca	0.057300366
223	0xbe0b775c	-0.1361975
224	0xbe21f6b7	-0.1581677
225	0x3cdba104	0.026810177
226	0xbe147b31	-0.14500119
227	0xbd8d04eb	-0.06885704
228	0x3e14722e	0.14496681
229	0x3e8e8674	0.27836955
230	0xbc6ff8cf	-0.014646723
231	0x3d38cd7c	0.04511784
232	0x3ed06203	0.40699777
233	0xbea5c424	-0.32376206
234	0xbdb5cd92	-0.088771
235	0xbd59bebe	-0.05316042
236	0x3cde976c	0.027171813
237	0x3e1b2442	0.1515055
238	0x3e8f67bb	0.28008828
239	0x3f4c0e71	0.79709536
240	0xbdc68c89	-0.09694774
241	0xbe69ceab	-0.22832744
242	0xbeac3507	-0.33634207
243	0xbd15ee7d	-0.036604393
244	0x3e01ada3	0.12663893
245	0x3e3ad249	0.1824428
246	0xbe4f016c	-0.20215386
247	0xbd4dff41	-0.050292257
248	0xbd248a55	-0.040170986
249	0x3e0a31f0	0.13495612
250	0x3dd7fe8b	0.10546597
251	0xbe0feb34	-0.14054567
252	0x3dace3b1	0.08441866
253	0x3d1338e8	0.035942942
254	0x3f0fe98b	0.56215733
255	0x3e98776d	0.29778615

critic.2.bias f4 [64]
0	0x3dbaa92b	0.091142975
1	0xbd9bbceb	-0.076043926
2	0xbe37d1b2	-0.17951086
3	0x3e143151	0.14471938
4	0x3df1eddb	0.118129455
5	0xbde0db59	-0.10979337
6	0xbd5cda81	-0.05391932
7	0xbd5d788b	-0.054070037
8	0xbd118ddf	-0.03553569
9	0x3dbf40be	0.093385205
10	0x3c44b759	0.012006604
11	0x3e285f6e	0.16442654
12	0x3db5b09a	0.08871575
13	0xbe3777e8	-0.17916834
14	0x3d6a151a	0.05714903
15	0x3dfddc24	0.12395504
16	0x3e16d96b	0.14731376
17	0x3e3f72f3	0.18696193
18	0x3e55223d	0.20813842
19	0x3d869d5a	0.06572981
20	0xbddff606	-0.10935597
21	0x3b5c6e7e	0.0033635194
22	0x3e5e084c	0.21682853
23	0xbdbf6a56	-0.09346454
24	0xbe18c984	-0.14920622
25	0xbd53d618	-0.051717848
26	0x3df8743c	0.12131545
27	0x3de44464	0.11145857
28	0x3dbd7213	0.092502736
29	0x3e6108e8	0.21976054
30	0xbde810bf	-0.11331319
31	0x3e1f10d9	0.1553377
32	0x3c909602	0.017649654
33	0x3e67de1f	0.22643326
34	0xbdbc0e76	-0.09182446
35	0xbe3261d0	-0.17420125
36	0xbd9cb177	-0.07651036
37	0x3e0c86cd	0.13723297
38	0x3dcdbfdd	0.10046361
39	0xbce5304d	-0.027977133
40	0xbe43d598	-0.19124448
41	0x3db5d5db	0.0887868
42	0x3e24e43e	0.16102692
43	0x3e21ad92	0.15788868
44	0xbd938d6d	-0.07204709
45	0x3de2ff04	0.110837966
46	0xbe56674e	-0.20937845
47	0xbccf0bac	-0.02527412
48	0x3d613554	0.0549825
49	0x3e08d791	0.13363482
50	0xbd171433	-0.036884498
51	0x3d870a2c	0.06593737
52	0x3daa05e6	0.08301906
53	0xbb9109c8	-0.004426215
54	0x3e1360cd	0.14392395
55	0x3c440b2e	0.011965556
56	0x3e1ef1c2	0.15521911
57	0x3e0f3e61	0.1398864
58	0x3b2dc1dd	0.0026513257
59	0x3e1d09b9	0.1533574
60	0xbd5d6615	-0.05405243
61	0x3c37810e	0.011200203
62	0xbde78b09	-0.11305816
63	0xbe010913	-0.12601118

critic.4.weight f4 [1, 64]
0	0x3ec907d0	0.39263773
1	0xbf3bff05	-0.73436004
2	0xbf497baf	-0.7870435
3	0x3edbcac3	0.42928132
4	0x3ef0ea93	0.47053966
5	0xbf0940c1	-0.5361443
6	0xbf7009b0	-0.9376478
7	0xbed2ff9c	-0.4121064
8	0xbf28c48a	-0.65924895
9	0x3f037c61	0.5136166
10	0x3ed60f7d	0.41808692
11	0x3ef4f4cc	0.47843015
12	0x3f20bb41	0.62785727
13	0xbf1ab0c5	-0.6042598
14	0x3ed0b3bf	0.40762135
15	0x3eff05c1	0.49809077
16	0x3e90fd17	0.28318092
17	0x3f347bae	0.7050122
18	0x3f210807	0.62902874
19	0x3e97d93f	0.29657933
20	0x3f2642e2	0.64945805
21	0xbf8775ce	-1.0582826
22	0x3f452507	0.77009624
23	0xbedfeb6a	-0.43734294
24	0xbeba8c6e	-0.36435264
25	0xbeded662	-0.43522936
26	0x3ec7946c	0.38980424
27	0x3f3790f6	0.7170557
28	0x3eb55135	0.3541352
29	0x3ec603b5	0.38674703
30	0xbe8596c2	-0.26091582
31	0x3ef478c4	0.47748387
32	0x3f093cb8	0.53608274
33	0x3ee560ea	0.44800502
34	0xbf0e98b9	-0.55701786
35	0xbf144159	-0.5791221
36	0xbef7d291	-0.48402837
37	0x3f0bbb73	0.545829
38	0xbf6c43b3	-0.922908
39	0xbeea585f	-0.45770547
40	0xbf1b1098	-0.60572195
41	0x3ea148cd	0.31500855
42	0x3e7cf315	0.24702103
43	0xbf691973	-0.9105446
44	0xbec84c04	-0.39120495
45	0x3eec40d3	0.46143207
46	0xbef19d27	-0.4719021
47	0xbef11d31	-0.47092584
48	0x3eae66af	0.34062716
49	0x3eeb765d	0.45988742
50	0xbead9af1	-0.33907273
51	0x3ef2ce89	0.474232
52	0x3ef39b23	0.47579297
53	0x3edee694	0.43535292
54	0x3eefe24f	0.46852347
55	0xbed4fcf8	-0.4159925
56	0x3f5ede0d	0.8705757
57	0x3eeeaac8	0.4661467
58	0x3eeee686	0.4666025
59	0x3ea1cb78	0.31600547
60	0xbec276bb	-0.3798121
61	0xbf54138b	-0.8284232
62	0xbeeb53ee	-0.4596247
63	0xbec429de	-0.38313192

actor.0.weight f4 [128, 13]
0	0xbc8059cb	-0.015667817
1	0xbe0d6048	-0.1380626
2	0x3ea0de4e	0.31419605
3	0xbeb2f153	-0.3494974
4	0x3da33ed8	0.07970971
5	0xbed07a77	-0.40718433
6	0x3b27615d	0.002554021
7	0xbce7f082	-0.028312925
8	0x3e02d9fe	0.1277847
9	0xbea918c6	-0.33026713
10	0x3db8ce2a	0.09023698
11	0x3de790df	0.11306929
12	0x3d43122b	0.04762475
13	0x3d2ca4ba	0.042149283
14	0x3dab2303	0.08356287
15	0x3c9db979	0.01925348
16	0xbd0e2b31	-0.03470916
17	0xbd5eb861	-0.054375056
18	0xbd332b1d	-0.043742288
19	0xbe92a6fa	-0.28643018
20	0x3df0bff3	0.117553614
21	0xbf8ac6ad	-1.0841881
22	0xbf0176ba	-0.5057179
23	0xbca43d39	-0.020048724
24	0x3cbb8423	0.022890156
25	0x3dfb8e43	0.12282994
26	0xbc3ac3c5	-0.011399214
27	0xbe0b45c3	-0.1360083
28	0x3e084e71	0.13311173
29	0xbe9183de	-0.2842092
30	0x3e8d2aa4	0.27571595
31	0x3d45ef29	0.048323784
32	0xbb2128d1	-0.002459098
33	0xb9c72384	-0.000379827
34	0x3ee35774	0.4440266
35	0xbe9ab31f	-0.30214784
36	0x3c245486	0.010029918
37	0x3e4abddb	0.19798987
38	0xbd893f44	-0.0670152
39	0x3d37871f	0.044806596
40	0x3dff690a	0.124712065
41	0xbebe71e1	-0.37196258
42	0xbd87afaf	-0.06625306
43	0x3dca38e9	0.09874136
44	0x3f1733f7	0.5906367
45	0x3dc552c6	0.096349284
46	0xbe19bf61	-0.15014412
47	0x3ea6df0f	0.32592055
48	0xbdf50e01	-0.11965562
49	0xbc8ce1ec	-0.017197572
50	0xbe575611	-0.21028925
51	0x3e0b6e38	0.13616264
52	0x3e03a21f	0.12854813
53	0xbeac57a3	-0.33660612
54	0x3d6da849	0.058021817
55	0xbbad697a	-0.005292115
56	0xbe3e5de5	-0.18590505
57	0xbe8e25fd	-0.27763358
58	0x3ec4f7fd	0.3847045
59	0xbe3d8ad3	-0.18509988
60	0xbeabf2e9	-0.33583763
61	0xbe95c6d0	-0.29253244
62	0xbe104985	-0.14090545
63	0x3bac74b1	0.005262934
64	0x3cb99178	0.022652373
65	0x3e0d1129	0.13776077
66	0x3dedb28d	0.116063215
67	0xbe3f2f40	-0.18670368
68	0xbe083ad2	-0.13303688
69	0xbedd9962	-0.43281084
70	0xbea5341b	-0.32266316
71	0xbd85fb23	-0.06542041
72	0xbe05d27d	-0.13068576
73	0xbe94ae69	-0.29039314
74	0xbef6c73b	-0.48198876
75	0xbc268575	-0.010163655
76	0x3b225f5a	0.0024776072
77	0x3dd7b812	0.105331555
78	0xbe4a2096	-0.19738993
79	0x3df59ed9	0.119931884
80	0x3d807e29	0.06274063
81	0xbb06e39a	-0.0020582438
82	0x3ee7d0eb	0.4527658
83	0xbe2a3147	-0.1662036
84	0xbe867ef2	-0.26268727
85	0x3e1c8be9	0.15287746
86	0x3e18a268	0.14905703
87	0x3f00c040	0.5029335
88	0xbcc8f8f9	-0.024532782
89	0xbdc1165d	-0.094280936
90	0xbcd848f7	-0.02640198
91	0xbd4c3845	-0.04985835
92	0xbe953bc9	-0.29147175
93	0xbe2ca007	-0.1685792
94	0x3e1edd46	0.15514097
95	0x3e1a8d2e	0.15092918
96	0xbeb69c58	-0.35666156
97	0xbe0a4da8	-0.13506186
98	0xbe8a08b7	-0.26959774
99	0xbcd930cc	-0.026512526
100	0xbeb73aee	-0.35787147
101	0xbe4f053e	-0.20216843
102	0x3c7823b9	0.015145236
103	0xbdac31be	-0.08407925
104	0x3d8128cd	0.0630661
105	0xbdeb73cc	-0.11496696
106	0x3ed8050b	0.42191347
107	0xbdbeaf01	-0.09310723
108	0x3bab43f8	0.0052266084
109	0xbe00c7e6	-0.12576255
110	0x3e28c40c	0.16481036
111	0x3c9cae0d	0.019125963
112	0x3e9ed898	0.31024623
113	0xbd20cb65	-0.039256472
114	0x3d22e4ab	0.039768856
115	0xbd38fe21	-0.04516423
116	0x3cbeff9b	0.023315242
117	0xbda44e3b	-0.08022734
118	0x3e4eb4f0	0.2018621
119	0xbde31e45	-0.11089758
120	0xbe6f897a	-0.23392287
121	0xbea017a1	-0.31268027
122	0xbea81c22	-0.32833964
123	0x3e4c5cb6	0.19957241
124	0xba6b46b5	-0.0008975075
125	0x3e875f74	0.26440012
126	0xbc2490e4	-0.01004431
127	0xbe923918	-0.28559184
128	0x3e32d32c	0.17463368
129	0xbe8c51bf	-0.27406117
130	0x3d03d46c	0.032185003
131	0xbea5d802	-0.32391363
132	0xbea979f2	-0.3310085
133	0x3ead64be	0.33865923
134	0xbe9ad249	-0.3023856
135	0xbdaddc7e	-0.08489321
136	0x3df70a79	0.120625444
137	0x3d28ce19	0.041212175
138	0x3ea42f2c	0.3206724
139	0x3d9ecb2a	0.07753594
140	0x3ddce59e	0.107859835
141	0xbd19f910	-0.03759104
142	0xbc494cfe	-0.012286423
143	0x3da07fbd	0.07836864
144	0x3d6e452b	0.058171432
145	0x3d0fea15	0.035135347
146	0xbbe1e422	-0.0068936506
147	0x3edf8cb0	0.43662024
148	0x3dfc94ff	0.12333106
149	0xbe0d45e2	-0.1379619
150	0xbd8341d6	-0.064090416
151	0xbfacb7bf	-1.3493575
152	0x3dbfac27	0.09359007
153	0x3da77faf	0.081786506
154	0xbe374e41	-0.17900945
155	0xbd8841fe	-0.06653212
156	0xbc4e5b80	-0.0125950575
157	0x3ad19ae4	0.0015991596
158	0xbe506805	-0.2035218
159	0x3d2d25e4	0.042272463
160	0x3e407d41	0.1879778
161	0xbf5d0445	-0.8633464
162	0xbd13e0e7	-0.036103155
163	0x3c452489	0.012032636
164	0xbdca15a9	-0.098674126
165	0xbd92e03b	-0.07171675
166	0xbd23374d	-0.03984766
167	0x3d4b93f2	0.04970164
168	0xbe0e3c8c	-0.13890284
169	0xbcd281a2	-0.02569658
170	0xbe2bf2f2	-0.16791895
171	0x3e11e394	0.1424697
172	0xbd66a12c	-0.05630605
173	0x3f10b237	0.56521934
174	0xbeb37d10	-0.35056353
175	0xbe57f0ee	-0.21088001
176	0x3e727473	0.23677234
177	0xbf1bf98c	-0.60927653
178	0x3ed8a0e8	0.42310262
179	0x3cbe3ac1	0.023221375
180	0x3d8b3384	0.06796935
181	0x3d441959	0.047875736
182	0xbd00ef06	-0.03147795
183	0x3dc3fafd	0.095693566
184	0x3c3cf6ab	0.01153342
185	0xbb08c223	-0.0020867668
186	0x3e960cdb	0.29306683
187	0xbd9ab734	-0.075544745
188	0x3e99571c	0.29949272
189	0x3e32d4c9	0.17463984
190	0xbee186cb	-0.4404815
191	0x3ecae262	0.3962584
192	0xbe01b503	-0.12666707
193	0xbdaee2b0	-0.08539331
194	0xbe45acd3	-0.19304208
195	0x3d58ecf5	0.052960355
196	0x3deb5df6	0.11492531
197	0xbe2591d0	-0.16168904
198	0x3e457acd	0.19285126
199	0xbe2753e5	-0.16340597
200	0x3e021be4	0.12705952
201	0x3de47959	0.11155958
202	0xbe8a7452	-0.2704187
203	0x3f0230e4	0.5085585
204	0xbbcaa039	-0.006183651
205	0x3caec0b0	0.021332115
206	0xbd855f1f	-0.065122835
207	0x3e35f28a	0.17768303
208	0xbb339afa	-0.0027405606
209	0xbc7a53b7	-0.015278748
210	0x3cc1f712	0.023677383
211	0xbdb46c37	-0.08809703
212	0x3ece2ab5	0.40266958
213	0x3e658b62	0.22416452
214	0xbe2bffc2	-0.16796783
215	0xbdbb9f61	-0.091612585
216	0xbf406787	-0.7515797
217	0xbe63d4b8	-0.22249115
218	0x3ed76d29	0.4207547
219	0xbeeab469	-0.45840767
220	0x3e02cb7b	0.12772934
221	0x3e244f74	0.16045934
222	0xbd5d736f	-0.054065164
223	0x3e93d6bd	0.2887477
224	0xbec6ee0e	-0.38853496
225	0x3eb14cd4	0.34628928
226	0x3d0a3fef	0.033752378
227	0xbe160de3	-0.14653735
228	0x3e192d19	0.1495861
229	0xbe094e46	-0.13408765
230	0x3ec81531	0.39078668
231	0x3db9270d	0.090406515
232	0x3c7c9e36	0.01541858
233	0x3e3bc303	0.1833611
234	0xbd29635d	-0.041354526
235	0xbed28b67	-0.4112198
236	0xbc91aa50	-0.017781407
237	0x3c89d32e	0.016824331
238	0x3e9e9d45	0.30979362
239	0xbeaed266	-0.34144896
240	0xbd1e5d6c	-0.038663313
241	0xbb22c495	-0.002483641
242	0xbddaa7f0	-0.10676563
243	0xbc9c215f	-0.019058881
244	0xbe916415	-0.2839667
245	0x3e7365e4	0.23769337
246	0x3eb28f5e	0.34875005
247	0x3e4680d1	0.19385077
248	0xbd2b0d08	-0.041760474
249	0xbe83bf55	-0.25731912
250	0xbd62aecc	-0.05534248
251	0xbe61d6ce	-0.22054598
252	0x3dd3101e	0.103058085
253	0x3e28d710	0.1648829
254	0xbd95e9df	-0.07319998
255	0xbe07bc7d	-0.13255496

actor.0.bias f4 [128]
0	0x3be66364	0.0070308913
1	0x3e01ffc6	0.12695226
2	0x3c47db08	0.012198217
3	0xbd37b71d	-0.044852365
4	0x3d2f7679	0.042837594
5	0x3cacff3a	0.021117795
6	0xbd91fbda	-0.07128115
7	0x3d1f1e11	0.038847033
8	0x3c728692	0.014802592
9	0x3d0ed217	0.034868326
10	0x3db90d95	0.09035794
11	0xbd38887f	-0.045052048
12	0xbcb26cc3	-0.021780377
13	0x3c06631c	0.00820234
14	0xbdd02b30	-0.10164487
15	0x3dbaf0c0	0.09127951
16	0x3c9e4dd0	0.019324213
17	0xbda2a54a	-0.07941683
18	0x3d36c90b	0.044625323
19	0x3dfd1980	0.12358379
20	0x3de52407	0.11188512
21	0x3df5e3aa	0.12006314
22	0x3d4c42c0	0.049868345
23	0xbdc39fa6	-0.09551935
24	0x3c917721	0.017757
25	0xbd04f60d	-0.032461215
26	0xbd91c39c	-0.07117388
27	0x3d29a570	0.04141754
28	0xbe33a8e4	-0.17544895
29	0x3d08af56	0.03337034
30	0xbdb96ffd	-0.09054563
31	0xbd6f3ae5	-0.058405776
32	0xbe29d1e0	-0.16583967
33	0xbc000939	-0.007814699
34	0xbe4111ea	-0.1885449
35	0xbdaecc98	-0.08535117
36	0x3d79738c	0.06090121
37	0x3c935d71	0.017988892
38	0x3be23b8b	0.0069040707
39	0x3d403dbe	0.046933882
40	0xbc547650	-0.012967661
41	0x3dc0b132	0.09408797
42	0xbd5e5869	-0.054283533
43	0xbce2a33b	-0.027665725
44	0x3d4abd06	0.049496673
45	0x3c899056	0.016792458
46	0x3d15231b	0.036410432
47	0xbc91bceb	-0.017790278
48	0x3dd2e6e0	0.10297942
49	0xbdd92178	-0.10602087
50	0xbdb3ad53	-0.08773293
51	0x3dc944fe	0.09827612
52	0x3d8ca3b7	0.06867164
53	0xbd1509fa	-0.036386468
54	0x3c9fedc8	0.019522563
55	0x3d195686	0.03743603
56	0xbd76de02	-0.060270317
57	0x3da1f9d9	0.07908983
58	0x3da78e4a	0.08181436
59	0xbc011053	-0.007877427
60	0xbd3ad3a9	-0.04561201
61	0xbd21e58f	-0.039525565
62	0xbcc189ec	-0.023625337
63	0x3de91aa3	0.11382034
64	0x3da7ba4c	0.0818983
65	0xbaab2ea1	-0.0013060161
66	0x3d2b3079	0.041794274
67	0x3d820a5b	0.063496314
68	0xbd39461f	-0.04523289
69	0x3cee7afa	0.029111374
70	0x3d9caae5	0.07649783
71	0xbc8f3994	-0.01748351
72	0xbca62a6c	-0.0202839
73	0x3dd9cefb	0.106351815
74	0xbcb73c74	-0.022367693
75	0xbd9b9e33	-0.075985335
76	0xbd9914c9	-0.074746676
77	0xbcc6a53b	-0.02424871
78	0xbdaa2840	-0.08308458
79	0x3df403e1	0.11914802
80	0x3c227696	0.009915968
81	0xbd0130f1	-0.031540815
82	0xbe093a01	-0.13401033
83	0x3d123073	0.035690736
84	0x3dd807b8	0.10548347
85	0xbdae032c	-0.08496699
86	0x3d51e921	0.05124772
87	0x3d6bcbd2	0.057567425
88	0x3db714cc	0.089395136
89	0xbc13520c	-0.0089917295
90	0x3cfd26b1	0.030902239
91	0x3d2fbab0	0.04290265
92	0x3b82a923	0.003987448
93	0xbd616b55	-0.055034
94	0x3d7a3f35	0.061095435
95	0x3d0542e9	0.032534514
96	0xbe374976	-0.17899117
97	0x3e0b6027	0.13610898
98	0xbcf009c6	-0.029301535
99	0x3e0321e8	0.12805903
100	0xbd81b442	-0.063332096
101	0xbd4c6e70	-0.04991001
102	0x3d1e3ff0	0.038635194
103	0x3dd6acd7	0.10482185
104	0xbd50ec85	-0.051006813
105	0xbde11adf	-0.109914534
106	0xbcac6efa	-0.021049011
107	0xbd3ac50b	-0.04559807
108	0x3d213a83	0.03936244
109	0xbd63d8a5	-0.05562653
110	0x3c243f0a	0.010024795
111	0x3d2a8163	0.0416273
112	0xbb27986f	-0.0025573035
113	0xbde4e0c3	-0.111756824
114	0xbdfee571	-0.12446106
115	0x3d435e94	0.04769762
116	0xb9fe1742	-0.00048463984
117	0x3d691292	0.056902476
118	0x3da0d73c	0.07853553
119	0x3d15644a	0.036472596
120	0x3dc33b2f	0.09532773
121	0x3d96ccd5	0.07363287
122	0x3d8c42de	0.068486914
123	0xbd9cd94b	-0.07658633
124	0x3d227438	0.039661616
125	0xbda84d15	-0.08217827
126	0x3d5a0aab	0.05323283
127	0x3c2ec647	0.01066739

actor.2.weight f4 [64, 128]
0	0xbd8df53e	-0.06931542
1	0x3ed40e39	0.414171
2	0xbe9b2422	-0.30301005
3	0x3e42789a	0.18991318
4	0xbe51de79	-0.20495023
5	0xbd8d9a38	-0.069141805
6	0x3eb2e023	0.34936628
7	0x3d92e96e	0.071734294
8	0xbeb02ec2	-0.34410673
9	0xbe39877b	-0.18118088
10	0x3cc525f8	0.024065956
11	0x3ea82e19	0.3284767
12	0x3daad672	0.083416834
13	0x3d85ea59	0.06538839
14	0xbd86333d	-0.06552742
15	0x3ea1923d	0.31556883
16	0xbda9fe6e	-0.08300482
17	0xbea9be0c	-0.33152807
18	0xbe46e2ca	-0.1942245
19	0xbccffc3e	-0.025388833
20	0xbdd3cec7	-0.10342174
21	0xbe4fd8e0	-0.20297575
22	0x3d984fb9	0.07437081
23	0xbe607642	-0.21920112
24	0xbe714f46	-0.23565397
25	0x3e3df128	0.18549025
26	0x3e228cde	0.15874049
27	0x3e78c762	0.24294809
28	0x3e5f0ffb	0.2178344
29	0xbe4c17db	-0.19930975
30	0xbdbfe20d	-0.09369288
31	0x3e42e29d	0.19031759
32	0x3d02ede9	0.03196517
33	0x3e4150a0	0.18878412
34	0x3dbbef38	0.09176487
35	0xbe472a33	-0.19449691
36	0xbe1a546f	-0.15071271
37	0x3c8e1975	0.017346123
38	0x3e947428	0.2899487
39	0x3d977f8b	0.07397374
40	0xbc588571	-0.013215409
41	0xbdfc5b74	-0.12322131
42	0xbc470de0	-0.012149304
43	0xbc809d38	-0.015699968
44	0xbe34655b	-0.17616789
45	0xbc4f6220	-0.012657672
46	0x3cc03b16	0.023465674
47	0xbde52f95	-0.11190716
48	0xbeb51da7	-0.35374185
49	0x3e1e3055	0.15448125
50	0x3e665299	0.22492446
51	0xbddee842	-0.108841434
52	0xbeaae6e9	-0.33379295
53	0x3db4f2ab	0.08835348
54	0xbedd2b38	-0.43197036
55	0x3e890d0a	0.2676776
56	0x3e3845b0	0.17995334
57	0x3e405b0f	0.18784736
58	0x3e26fbeb	0.16307037
59	0xbc6645a7	-0.014054692
60	0x3cd1780c	0.025569938
61	0x3c9b5bde	0.018964704
62	0xbe693d2f	-0.22777246
63	0x3e8dd3ef	0.27700755
64	0xbe868082	-0.2626992
65	0xbcf7aee8	-0.030234769
66	0x3e75386f	0.23947309
67	0x3eead889	0.45868328
68	0x3d990a60	0.07472682
69	0xbd7b29a7	-0.06131902
70	0xbeac9f96	-0.33715504
71	0x3eecf8bb	0.46283516
72	0xbe0f7826	-0.14010677
73	0xbb276b01	-0.0025545957
74	0xbe096e53	-0.13420992
75	0x3e927253	0.28602847
76	0xbcc013e7	-0.02344699
77	0x3e4da19b	0.20081179
78	0x3b1a5333	0.0023548126
79	0xbe006c5c	-0.12541336
80	0x3df1c94b	0.11805972
81	0xbe0d1515	-0.13777573
82	0xbe32afa0	-0.17449808
83	0x3e4001f6	0.18750748
84	0xbc08fa9b	-0.00836053
85	0xbe1b1562	-0.15144876
86	0x3df98683	0.12183859
87	0x3e164440	0.14674473
88	0xbe6dcfee	-0.2322385
89	0xbcfad490	-0.030618936
90	0x3d883951	0.06651557
91	0xbd5cab35	-0.053874213
92	0xbcf59e81	-0.029982807
93	0x3d5d01ba	0.053956725
94	0x3e6ec81a	0.2331852
95	0x3e752a7c	0.23941988
96	0xbe192258	-0.14954507
97	0x3de34903	0.1109791
98	0xbe3a822d	-0.1821372
99	0x3dcd7e2d	0.10033832
100	0x3e2502ef	0.161144
101	0x3e07414c	0.13208503
102	0x3cfcc6f3	0.030856585
103	0x3db2498d	0.08705435
104	0xbe1c876b	-0.15286033
105	0x3e0de090	0.13855195
106	0x3dff4145	0.12463621
107	0x3e30b82b	0.17257755
108	0xbe1cd01e	-0.15313765
109	0xbe23a434	-0.15980607
110	0x3ddf1527	0.10892706
111	0x3e88cf52	0.26720673
112	0x3e10325f	0.14081715
113	0x3df21088	0.11819559
114	0xbdd7fa5a	-0.10545798
115	0x3d3eb3bb	0.046558123
116	0x3d6e8c13	0.058239054
117	0x3ec42209	0.38307217
118	0x3dc5f080	0.09665012
119	0xbd83307f	-0.06405734
120	0xbe02e1d4	-0.12781459
121	0x3ce3b68d	0.027797008
122	0x3e406bcf	0.18791126
123	0x3e574b45	0.21024807
124	0x3d4e64a6	0.050388955
125	0xbecad6f3	-0.39617118
126	0x3d813306	0.0630856
127	0xbe088f02	-0.13335803
128	0xbe131774	-0.14364415
129	0x3e6a7a9e	0.22898337
130	0x3dc0ae65	0.09408263
131	0xbd96b90d	-0.073595144
132	0xbeb7a26f	-0.35866114
133	0xbdd28860	-0.10279918
134	0xbe0f2b48	-0.13981354
135	0x3b562fe0	0.0032682344
136	0xbe39b125	-0.18133982
137	0xbd8e7163	-0.069552206
138	0xbe1eadd3	-0.15495996
139	0x3d6b802d	0.057495285
140	0x3b81889a	0.0039530518
141	0xbe452454	-0.1925214
142	0x3d6b6d7c	0.05747746
143	0xbd865680	-0.06559467
144	0xbe477c0f	-0.19480918
145	0x3e246df2	0.16057566
146	0x3cfe6f45	0.031058917
147	0x3e00be49	0.12572588
148	0xbe002ec1	-0.12517835
149	0xbaca3266	-0.0015426397
150	0xbe807c66	-0.25094908
151	0xbe3bd2d3	-0.18342142
152	0xbd3aa944	-0.04557158
153	0xbe083b03	-0.13303761
154	0xbe363db3	-0.17796974
155	0x3ef07e8d	0.4697155
156	0x3e48c182	0.19605067
157	0xbe3a4360	-0.18189764
158	0xbca46015	-0.020065347
159	0x3e724f57	0.23663078
160	0x3d345956	0.04403051
161	0x3dfb3212	0.122654095
162	0xbd94a2c6	-0.07257609
163	0x3e85aab9	0.26106814
164	0x3e5238d9	0.20529498
165	0x3c5718b9	0.013128453
166	0x3dddb030	0.10824621
167	0x3db3334b	0.08750018
168	0x3c81301c	0.01577001
169	0x3d37bc1d	0.044857133
170	0xbe868872	-0.26275975
171	0x3d64569c	0.05574666
172	0x3d70530d	0.058672953
173	0xbe1a16a2	-0.15047696
174	0xbb84ddab	-0.004054745
175	0xbe5956f3	-0.21224575
176	0x3e45dc17	0.19322239
177	0x3e5cb182	0.21552089
178	0xbc941045	-0.018074164
179	0x3dcc1013	0.099640034
180	0xbe438e27	-0.19097196
181	0x3e853374	0.26015818
182	0x3cefe69a	0.029284764
183	0xbe105233	-0.14093857
184	0x3ded5652	0.1158873
185	0x3c894db9	0.016760694
186	0xbcf3eb82	-0.029775385
187	0x3e92c9bc	0.28669536
188	0xbd69acc6	-0.057049535
189	0x3df52100	0.11969185
190	0x3bb1ba3c	0.005423812
191	0x3dce4c9c	0.10073206
192	0xbeaf3bb7	-0.34225246
193	0xbe2f71e9	-0.17133297
194	0xbe8bc4b1	-0.272985
195	0x3db51f88	0.08843905
196	0xbe3c7524	-0.1840406
197	0x3e471bee	0.19444248
198	0xbeb35d4c	-0.35032117
199	0x3e3b9510	0.18318582
200	0xbd3180b2	-0.043335624
201	0xbe318e4a	-0.17339435
202	0x3ea12852	0.31476074
203	0xbe49e126	-0.19714794
204	0x3e81751c	0.2528466
205	0xbe7947fc	-0.24343866
206	0xbe02a066	-0.127565
207	0x3d7c313f	0.061570402
208	0x3e8eb1a8	0.27869916
209	0x3dd6b811	0.10484327
210	0x3d2f2b09	0.04276565
211	0xbe7ba7d3	-0.24575739
212	0x3d38fa52	0.0451606
213	0xbe8c2955	-0.27375284
214	0xbeb8075d	-0.35943118
215	0xbe73bfb9	-0.23803605
216	0x3bf96ab5	0.0076115974
217	0x3dd64195	0.104617275
218	0xbcf84a8d	-0.030308986
219	0xbe51ce0e	-0.2048876
220	0xbc2d1c33	-0.010565805
221	0x3e065028	0.13116515
222	0xbdeed58f	-0.11661827
223	0xbe1f978e	-0.15585157
224	0x3eb8dd35	0.36106268
225	0xbb62ac40	-0.0034587532
226	0x3e228f63	0.1587501
227	0xbcf12ff3	-0.02944181
228	0x3be48d46	0.006974849
229	0x3da89bd2	0.08232845
230	0x3e1b58be	0.15170571
231	0x3dc80616	0.09766786
232	0xbe1d1782	-0.15340999
233	0x3c41d92b	0.011831562
234	0x3d96b689	0.073590346
235	0xbdde639c	-0.10858843
236	0x3da16244	0.07880071
237	0xbd645536	-0.055745326
238	0x3e2a8aaa	0.16654459
239	0xbc102f88	-0.008800395
240	0x3dbb39e4	0.09141901
241	0x3ca434a5	0.020044634
242	0x3dc44d79	0.09585089
243	0x3db343bc	0.08753154
244	0xbe13f3c6	-0.14448461
245	0x3d83f160	0.06442523
246	0xbe92b304	-0.28652203
247	0xbcb953b4	-0.02262292
248	0x3e849dd3	0.2590166
249	0x3d134eb9	0.035963748
250	0xbb43981e	-0.0029845308
251	0x3ed32a7d	0.41243353
252	0xbe1d1d67	-0.15343247
253	0x3da498d2	0.08036961
254	0xbe1d9778	-0.15389812
255	0xbe4b5845	-0.19857891

actor.2.bias f4 [64]
0	0x3d2ac646	0.041692995
1	0xbdc0a90a	-0.09407242
2	0xbcc8cdff	-0.02451229
3	0xbd99b973	-0.07506075
4	0xbde72bf1	-0.11287678
5	0x3e162bd7	0.14665161
6	0xbc75aec6	-0.0149952825
7	0xbcae7de6	-0.021300267
8	0x3d534511	0.05157954
9	0x3d75c442	0.06000162
10	0xbc26d177	-0.010181776
11	0x3cf1ec8b	0.029531738
12	0x3cb14d76	0.021643382
13	0x3c71c220	0.014755756
14	0x3dd71e6d	0.1050385
15	0xbac6a0d6	-0.0015154134
16	0x3e80d3f5	0.2516171
17	0xbcbd3759	-0.02309768
18	0xbd8f09f7	-0.069843225
19	0x3ae8263f	0.0017711594
20	0xbe0184ee	-0.12648365
21	0xbd9f243a	-0.077705815
22	0xbc944d7a	-0.01810335
23	0xbcba4081	-0.022735836
24	0xbd2386e5	-0.039923567
25	0xbd6fdacb	-0.058558267
26	0x3dd62ecc	0.104581445
27	0xbd7cc160	-0.061707854
28	0x3d66f951	0.05639011
29	0xbd96f8ec	-0.07371697
30	0xbbc39481	-0.005968631
31	0xbd39b907	-0.04534247
32	0xbb9d0835	-0.004792238
33	0xbd7611f5	-0.06007572
34	0x3d5f0e8f	0.054457244
35	0xbcc45b02	-0.023969177
36	0x3bad36c9	0.005286072
37	0x3e02cb10	0.12772775
38	0xbd09bbdf	-0.033626433
39	0x3e3999c3	0.18125062
40	0x3d3ab48c	0.04558234
41	0xbdbfbed8	-0.093625724
42	0xbc96b246	-0.018395554
43	0xbd084065	-0.033264536
44	0x3e0a1460	0.13484335
45	0x3e1f20f3	0.15539913
46	0x3d8faa23	0.07014873
47	0xbd3cacf1	-0.046063367
48	0x3bebdd86	0.0071980385
49	0x3d9b600c	0.07586679
50	0x3db86f07	0.09005552
51	0xbb33c6f8	-0.0027431827
52	0xbcd497d6	-0.025951307
53	0x3c66dfe1	0.014091463
54	0x3d542ad3	0.051798653
55	0x3e0f8617	0.14015995
56	0x3e4d58fa	0.20053473
57	0xbe110f42	-0.14165977
58	0x3da974b1	0.0827421
59	0xbd83a2c8	-0.064275324
60	0x3b34a350	0.0027563162
61	0x3caa8756	0.020816486
62	0x3d85bb7d	0.06529901
63	0xbdb804e1	-0.089853056

actor.4.weight f4 [6, 64]
0	0xbd6ec4c2	-0.05829311
1	0x3df40467	0.11914902
2	0x3dbe6970	0.09297454
3	0x3d72667c	0.059179768
4	0x3db06d36	0.0861458
5	0xbe9994ca	-0.2999633
6	0xbd4bc757	-0.049750652
7	0xbd2f56c5	-0.04280736
8	0xbb146587	-0.0022643523
9	0x3d206f49	0.03916863
10	0xbcb7bfd6	-0.022430342
11	0xbe1cc69b	-0.15310137
12	0xbe217879	-0.15768613
13	0xbdbff1e7	-0.09372311
14	0xbce51bd7	-0.027967377
15	0xbda49744	-0.08036664
16	0xbe1a1a9d	-0.15049215
17	0xbe157b3e	-0.14597794
18	0x3e002389	0.12513556
19	0xbd70b6f7	-0.05876824
20	0x3cd0e1a9	0.025498228
21	0xbd88517c	-0.06656167
22	0x3e771d5e	0.24132296
23	0x3d3a134e	0.045428567
24	0xbe3992a3	-0.18122344
25	0xbdcfbceb	-0.10143455
26	0x3c951af4	0.018201329
27	0x3dd581f5	0.10425178
28	0x3c450039	0.012023979
29	0xbd6e3af5	-0.058161695
30	0xbd476e11	-0.048688952
31	0x3cebddbd	0.028792256
32	0x3e2408d9	0.16019
33	0x3c3b3d72	0.011428224
34	0xbd4ad89d	-0.049522985
35	0x3d0aeb5d	0.033915866
36	0xbdc73da3	-0.09728553
37	0x3d988873	0.074479006
38	0x3d9ac46d	0.075569965
39	0xbc82a814	-0.015949287
40	0x3d9c6b59	0.076376624
41	0xbc141ba7	-0.009039796
42	0xbcbf3d17	-0.02334456
43	0x3d4cce94	0.050001696
44	0xbc3be7d3	-0.011468845
45	0x3e0d0921	0.13773014
46	0xbc6eeda2	-0.014583023
47	0xbc704913	-0.01466586
48	0x3d36f2fe	0.04466533
49	0xbcf6cdfc	-0.030127518
50	0x3dd596a3	0.10429122
51	0xbe490ef7	-0.19634615
52	0x3d2db8ca	0.042412557
53	0xbdb7f814	-0.08982864
54	0xbbb820ab	-0.0056191287
55	0xbac9fded	-0.0015410759
56	0x3d965956	0.07341258
57	0xbdbd8d23	-0.09255435
58	0x3e2819ca	0.16416088
59	0xbccbe91c	-0.024891429
60	0xbdc05979	-0.093920656
61	0x3d4d3b9b	0.050105672
62	0x3d7a08d0	0.06104356
63	0x3cb70c52	0.022344742
64	0x3e916c64	0.28403008
65	0xbdd38eab	-0.10329946
66	0xbdddc5f2	-0.10828771
67	0x3e90e0f8	0.28296638
68	0xbe02ccc2	-0.12773421
69	0x3e022f7f	0.12713431
70	0xbe999144	-0.2999364
71	0x3d97f78f	0.07420265
72	0x3f1158f0	0.5677633
73	0xbe03772c	-0.12838429
74	0x3e23ad59	0.15984096
75	0x3e7870ca	0.24261776
76	0xbeb51df1	-0.35374406
77	0xbcb6d10a	-0.022316474
78	0x3e81e988	0.25373483
79	0xbe9473ed	-0.28994694
80	0x3ea92d2b	0.33042273
81	0x3c579139	0.013157182
82	0xbcf1aafa	-0.029500473
83	0xbe6a5ba7	-0.22886525
84	0xbd492a73	-0.04911275
85	0xbd9eefe3	-0.077605985
86	0xbc71bedf	-0.01475498
87	0xbd12c6aa	-0.035833992
88	0xbdb4f1da	-0.08835192
89	0xbe8e6cc9	-0.2781737
90	0x3d7c693e	0.061623804
91	0x3eb10a19	0.34578016
92	0xbdeb02fe	-0.1147518
93	0xbe32946d	-0.17439432
94	0x3e7a27fe	0.24429318
95	0xbf14c77b	-0.58116883
96	0xbea40126	-0.32032126
97	0x3e27faba	0.16404238
98	0x3eb1dca9	0.34738663
99	0xbebfa2f2	-0.37429005
100	0x3e014e08	0.12627423
101	0xbf429377	-0.76006263
102	0xbdf8926e	-0.12137304
103	0xbf01fefd	-0.50779706
104	0xbf1a002b	-0.60156506
105	0xbea43803	-0.32073984
106	0x3e05fcb3	0.13084678
107	0x3d0bf334	0.034167483
108	0x3e15648d	0.14589138
109	0xbee66387	-0.44997808
110	0xbea00baf	-0.31258914
111	0x3e672f19	0.2257656
112	0x3f0ff678	0.56235456
113	0xbe61c576	-0.22047982
114	0xbeabed9c	-0.3357972
115	0xbf07b7f8	-0.5301509
116	0xbe2520c0	-0.16125774
117	0x3d119d29	0.03555027
118	0x3d9b3e3c	0.0758023
119	0xbe48e834	-0.19619828
120	0x3edbe479	0.42947748
121	0xbefa919f	-0.48939225
122	0xbeb28e3e	-0.34874147
123	0xbdfeb3fe	-0.124366745
124	0x3ebbe906	0.3670122
125	0xbe80d330	-0.25161123
126	0xbe9f46af	-0.31108615
127	0x3dae4e07	0.08510976
128	0xbe55119f	-0.20807503
129	0xbca41697	-0.020030303
130	0x3c3da990	0.011576071
131	0xbea99953	-0.3312479
132	0x3d00e2c1	0.03146625
133	0x3e35d029	0.17755188
134	0x3ea851d6	0.32874936
135	0xbcedab37	-0.029012306
136	0xbf080901	-0.5313874
137	0x3d9d2da0	0.07674718
138	0xbe08a9c1	-0.13346006
139	0xbdabde35	-0.08391992
140	0x3f067431	0.52521044
141	0x3de935d3	0.11387219
142	0xbe5bd2ad	-0.21467085
143	0x3ebd0c75	0.36923566
144	0xbe26456c	-0.1623742
145	0x3e08f3dd	0.13374276
146	0xbdca09ed	-0.098651744
147	0x3e92265b	0.28544888
148	0x3c5a6e1b	0.013331915
149	0x3e033faa	0.12817255
150	0xbe6f675e	-0.23379275
151	0xbc7d34c7	-0.015454478
152	0x3e8a9243	0.27064714
153	0x3ebdce88	0.37071633
154	0xbda99b86	-0.08281617
155	0xbedd977f	-0.43279645
156	0x3dbc48d5	0.09193579
157	0x3e7341f7	0.23755632
158	0xbe31ad2e	-0.17351219
159	0x3f0682c8	0.52543306
160	0x3e142c88	0.14470112
161	0xbe2a35fc	-0.16622156
162	0xbe8d931f	-0.27651307
163	0x3eaa8985	0.33308044
164	0xbcc84b32	-0.024449918
165	0x3f2521c4	0.6450465
166	0x3d1d700e	0.03843694
167	0x3f0041c0	0.50100327
168	0x3efae960	0.49006176
169	0x3ea33663	0.3187743
170	0xbdbd3488	-0.09238535
171	0xbdbacd38	-0.091211736
172	0xbe003eb6	-0.12523922
173	0x3e91a25b	0.2844418
174	0x3ea315de	0.3185262
175	0xbe50f5a9	-0.20406212
176	0xbf15d80d	-0.5853279
177	0x3e7ab5a5	0.24483354
178	0x3e5e8bf6	0.21733078
179	0x3f34df27	0.70653003
180	0x3df1f1b4	0.11813679
181	0x3d73112e	0.059342556
182	0xbd9a42ce	-0.07532273
183	0x3e4936d4	0.19649822
184	0xbefddfde	-0.4958486
185	0x3f12a532	0.5728332
186	0x3e3c9085	0.18414505
187	0x3e0b09ae	0.13577911
188	0xbe7c215c	-0.246221
189	0x3e44e51a	0.1922802
190	0x3e6c55f6	0.23079666
191	0xbdc9ff32	-0.09863128
192	0x3d285a58	0.041101784
193	0xbd90d8bb	-0.07072588
194	0xbcc01a24	-0.023449965
195	0x3cf52711	0.029925855
196	0xbc8d93c4	-0.017282374
197	0xbcc36926	-0.02385385
198	0xbcb5dafa	-0.022199143
199	0x3d33375d	0.04375397
200	0xbd62299c	-0.055215463
201	0xbd25be11	-0.040464465
202	0xbdc33e9a	-0.09533425
203	0xbda1208e	-0.078675374
204	0xbcdfb608	-0.027308479
205	0x3d43ae46	0.047773622
206	0x3d680280	0.05664301
207	0xbd129454	-0.035785988
208	0x3d103990	0.035211146
209	0xbe2aae35	-0.16668017
210	0x3e38c533	0.18043976
211	0xbda983fb	-0.082771264
212	0xbdf79e9f	-0.120908014
213	0x3d250cd3	0.040295433
214	0x3bba45b7	0.00568458
215	0x3d4fcfea	0.05073539
216	0xbd53d92f	-0.051720794
217	0x3cdfa414	0.027299918
218	0xbcdbfe6e	-0.02685472
219	0x3d860baf	0.06545197
220	0xbce0886f	-0.027408807
221	0xbd92d281	-0.07169057
222	0x3d0c3c40	0.034237146
223	0xbce2c469	-0.027681546
224	0xbd5f5e2e	-0.054533176
225	0x3dbad001	0.09121705
226	0xbdb5ddb1	-0.08880175
227	0xbb065935	-0.002049995
228	0x3d099cdb	0.033596855
229	0xbc2616a5	-0.010137235
230	0x3e31b5ed	0.17354555
231	0x3c82ff94	0.01599101
232	0x39df056a	0.00042537908
233	0xbd7ddff1	-0.061981145
234	0x3df3dd3d	0.11907432
235	0x3d7b6996	0.06137999
236	0xbddef060	-0.10885692
237	0x3d6558e8	0.05599299
238	0x3e1e82d1	0.1547959
239	0xbc12cdad	-0.00896017
240	0x3d5e3018	0.054245085
241	0x3db48c44	0.08815816
242	0xbcf32e72	-0.029685233
243	0xbd58dfb3	-0.05294771
244	0x3dca9ec4	0.098935634
245	0x3dac1bca	0.08403738
246	0x3c091ff6	0.0083694365
247	0x3e0f050e	0.13966772
248	0xbdbb8822	-0.09156825
249	0xbbbd8e14	-0.0057847593
250	0xbd6adacc	-0.057337567
251	0x3e16b629	0.14717926
252	0x3d0ec87b	0.03485916
253	0x3c4a0197	0.012329481
254	0x3d054b5c	0.03254257
255	0xbde382f6	-0.11108963

actor.4.bias f4 [6]
0	0xbe137fe8	-0.14404261
1	0x3cb5a1e1	0.022171916
2	0x3e067bdf	0.1313319
3	0xbcde4b3a	-0.02713548
4	0xbc60ae62	-0.013713451
5	0x3d4231bd	0.047410715
