Plotting/saliencies_live/Multi_Pong/Sequence_Length_1/multi_pong_1__1__1721853303_checkpoint_2584.pt (torch, 86706 bytes, 11 tensors)

critic.0.weight f4 [128, 12]
000000 3f dc 00 3f b2 e6 ea ba 4d 49 c2 3d 4d 78 d2 be
       0.5033607 -0.0017921536 0.09486637 -0.41107407
000010 98 6c 85 be c8 de b2 3e d0 57 14 c0 36 88 ee 3f
       -0.26059413 0.34935594 -2.3178596 1.8635318
000020 0f 82 78 bd 47 44 e6 bc 9c 49 13 3e 85 a7 8d 3e
       -0.06067091 -0.028108729 0.14383548 0.2766687
000030 d3 20 88 ba 64 1f f8 ba a6 57 77 bd a8 37 c6 bb
       -0.0010385759 -0.0018930254 -0.060386322 -0.006049115
000040 b4 d7 99 3c 5a 9f 8a be 70 1f 78 3d b0 69 6e c0
       0.018779613 -0.270747 0.060576856 -3.7252007
000050 e6 1c 93 3a 91 55 8b 3e de 83 07 3c 43 d5 79 40
       0.0011223822 0.2721372 0.008271186 3.9036415
000060 70 ca 65 3e d3 8c 1b bc e9 2e 99 bd 04 e5 eb bb
       0.22440505 -0.009494024 -0.074796505 -0.0071989316
000070 ee 6d f1 bb 46 aa 86 3c d4 7c d5 bc af 84 b6 bd
       -0.007367841 0.016438615 -0.0260605 -0.08912026
000080 36 87 5b 3e bc 89 46 3e 56 57 19 3e 53 7e 4b 40
       0.21438298 0.19388479 0.14974722 3.1795852
000090 6b 1d 9c be ed 4e 5f 3e 77 94 61 be da 75 0c bd
       -0.30491194 0.21807452 -0.22029291 -0.03429208
0000a0 49 57 90 3e 6a af e0 bd 57 bc 1b 40 cd 62 46 bf
       0.28191593 -0.109709576 2.4333704 -0.7749451
0000b0 c0 eb 3c 3d 32 48 22 3b 60 5e 2c bf d5 f6 9f bd
       0.046123266 0.002476227 -0.67331505 -0.07810751
0000c0 b9 70 08 3d ce 05 14 3b 35 61 4f bd 16 c9 6e bc
       0.033310626 0.0022586468 -0.050629813 -0.01457431
0000d0 c3 9b 20 3e b9 37 96 bd 72 e6 7d 40 c8 71 06 c0
       0.15684418 -0.07334847 3.9671903 -2.1006947
0000e0 cb 2f 89 3b 14 27 f4 bd 72 58 53 3e 74 79 21 c0
       0.0041866056 -0.11921516 0.20639208 -2.523038
0000f0 4f 20 a4 bd 97 54 d4 3b 1d 7d d5 bd ae 60 82 3b
       -0.08013975 0.0064798105 -0.10424254 0.0039788103
000100 a8 db 45 3c 11 3f 96 3c 3c e0 e4 3e 63 6a 4c 40
       0.012076296 0.01834062 0.44702327 3.1939933
000110 33 1f 6d 3c f3 e7 da 3b f8 f8 d8 3d ae a9 a3 3e
       0.0144727705 0.0066804825 0.10594362 0.31965393
000120 e8 18 00 3e 2e 47 20 3c fa c7 51 be 3e e8 8b 3c
       0.12509501 0.009782596 -0.20486441 0.017078515
000130 ab be ea bc e6 ad db bc 67 28 11 be be 45 cf bd
       -0.02865537 -0.02681632 -0.14175569 -0.10120724
000140 79 78 95 be f8 44 a7 3e 56 7c 3e c0 36 df 3e 40
       -0.29193476 0.32669806 -2.9763389 2.9823737
000150 9a 0a 75 3e 3d 29 f1 ba cb ed 28 bd a0 ab cd 3a
       0.23929825 -0.0018399131 -0.041242402 0.0015691407
000160 4b 6f ac bd bd 04 0e 3e ba ea 20 c0 1d 8c e0 3f
       -0.08419665 0.13868995 -2.5143266 1.7542759
000170 8e 96 e1 3d 9c 20 55 bd ba 23 ce 3e 97 74 a9 be
       0.11015044 -0.05203305 0.40261632 -0.33096763
000180 4a f9 27 be 84 07 5b 3a 9a 8e 2f 3d 68 29 10 38
       -0.1640369 0.0008355307 0.042860605 3.4370838e-05
000190 38 40 98 ba 9a f5 53 3c 8c 9d a5 3c ab 5d 5d 3d
       -0.0011615818 0.012936974 0.020216726 0.054044407
0001a0 4d fe ef bd 10 ea f0 bd d8 f5 91 c0 3c 20 94 c0
       -0.11718426 -0.11763394 -4.56126 -4.628935
0001b0 27 a4 23 3f 52 a1 d3 be ab 49 27 3f 3c 16 88 bd
       0.6392235 -0.41334015 0.65346783 -0.06644866
0001c0 56 18 98 bf 25 86 f2 3e 16 f9 64 bf 6c f9 d3 3e
       -1.1882427 0.4736797 -0.89442575 0.4140123
0001d0 d2 f2 12 3d c6 73 8e 3c c8 e7 e8 3d 3a 88 1e bd
       0.035876103 0.01738919 0.11372334 -0.038704135
0001e0 d6 7b 8a 3f 82 5f 3f 3c 80 72 60 3f e7 4d f5 ba
       1.0819042 0.011680486 0.87674713 -0.0018715233
0001f0 a8 bb a4 bc ef ae 0a 3c 72 6a b4 3e 6d 90 85 bd
       -0.020109013 0.008464559 0.3523746 -0.06521688
000200 47 1f e7 bf 84 31 6a 3c 26 a6 d2 bd 8f 0c 33 bc
       -1.805642 0.014294032 -0.102855965 -0.010928287
000210 e5 31 c5 bd 2e 8b 2b 3c ac 11 93 3c e2 62 48 3c
       -0.09628657 0.010470195 0.017952763 0.012230607
000220 be 99 ee 3d 41 e7 ec bd 7e 7b 81 40 67 99 79 c0
       0.11650418 -0.11567546 4.0463247 -3.899988
000230 94 e8 e2 3b 42 f2 b2 3a 14 43 33 3e 4f 14 03 3d
       0.006924698 0.0013652521 0.17506057 0.03200179
000240 95 97 43 3d bd 92 0d 3d 0b 72 6b bd b2 a1 73 3c
       0.04775198 0.03456377 -0.057481807 0.014870094
000250 26 c4 42 3d 4a 8e 5c be f2 4c ba 3e 98 3f 1e bf
       0.047550343 -0.21538654 0.3638683 -0.61815786
000260 b5 f7 3b bd e8 ce 24 bb 5b f6 13 be 8d 2d a0 bd
       -0.04589053 -0.002514774 -0.14449446 -0.07821188
000270 9a dc d5 3d a4 b1 05 ba c2 5f fb 3d cc 78 37 3c
       0.10442467 -0.0005100018 0.12274124 0.011198234
000280 84 1c 43 3b 88 39 09 bb 77 d2 1c bf 05 59 81 bd
       0.0029771635 -0.0020938832 -0.61258644 -0.06315807
000290 09 6f 4d bd 97 07 3a bc 95 d6 25 c0 a1 51 97 bc
       -0.05015472 -0.011354349 -2.591222 -0.01847154
0002a0 d7 a4 93 3c bb d4 9d bb fa 8f 6d 3c 2e 97 cc bb
       0.018022938 -0.004816619 0.014499659 -0.006243608
0002b0 24 38 06 bc f2 ab 55 3b 5a de f1 3f 78 59 c4 3f
       -0.008192096 0.0032603708 1.8895981 1.5339804
0002c0 74 a9 dd bb a7 d1 b1 3c 52 ab c3 bf d9 8b 89 3c
       -0.006764585 0.021706415 -1.5286658 0.016790317
0002d0 58 44 14 bd ef cd 92 bb a5 07 bb bd fd 60 7b bc
       -0.03619799 -0.0044801156 -0.091323175 -0.015342948
0002e0 78 c7 0f be 61 bb 19 3c d9 34 28 c0 ad c3 20 3e
       -0.14040935 0.0093830535 -2.6282256 0.15699644
0002f0 f4 a9 28 3e 15 39 c0 3c 79 83 4f 40 4c 2e 06 3d
       0.16471082 0.023464719 3.2423995 0.032758996
000300 01 75 ed 3c 98 c2 8d b9 e2 da 11 bd aa fa a6 ba
       0.028986456 -0.000270386 -0.035609134 -0.0012739499
000310 f5 53 b4 bd 5b c4 03 bd ea 45 4d c0 d6 45 33 bf
       -0.08805076 -0.03216968 -3.2073922 -0.70028436
000320 bf a5 85 3c 14 b0 91 3d 84 d7 89 3e bf 56 6b 40
       0.016314385 0.07113662 0.26922238 3.6771696
000330 14 80 71 bd 62 67 b4 bc 94 6e 11 3e 71 ea 5c bc
       -0.058960035 -0.022021953 0.14202338 -0.01348363
000340 6b 2c 89 3e 09 83 02 3d f0 6f 28 40 37 e9 23 bd
       0.267917 0.031863246 2.6318321 -0.040017333
000350 5d 76 8b be f4 23 93 3c 28 e8 0e c0 64 ba f0 3d
       -0.27238742 0.01796148 -2.2329197 0.11754301
000360 05 7e c1 3e cc e9 c9 bc 5d 31 15 3e 93 ab 13 3f
       0.37791458 -0.024647616 0.14569612 0.57683676
000370 fb f5 55 be 6e 8f 18 bf 43 08 30 be 68 8e 80 bf
       -0.20894615 -0.59593856 -0.17190652 -1.0043459
000380 b2 07 b7 bd 50 8f c2 3d b0 ca b1 3d 8e be 3d 3e
       -0.08937015 0.09499991 0.08681238 0.18529722
000390 29 bd 9f bb ad d0 39 bb ed 73 76 3d a0 ed c2 bb
       -0.0048748446 -0.002835314 0.06016915 -0.0059487373
0003a0 50 40 9e bc cb cf 30 bd 1a db ab 3e 0e 0a cf bf
       -0.019317776 -0.043166917 0.335656 -1.6174943
0003b0 90 0d 87 3d ed 0a 82 bc a9 bc 03 40 e0 76 64 be
       0.06594384 -0.01587435 2.05839 -0.22310972
0003c0 59 79 3c bd 54 a2 61 3a 54 21 dd 3d 4a 28 bf bb
       -0.046014164 0.00086072576 0.107973725 -0.0058336603
0003d0 c7 bb 9e 3d db b5 14 3b 92 6e 8d 3f 3c 10 8d 3d
       0.077506594 0.0022691402 1.1049368 0.06887862
0003e0 29 00 03 3e 79 d3 98 bc cf 8f 85 40 ad 6b b0 3c
       0.1279303 -0.018655526 4.1738048 0.021535719
0003f0 4f a6 97 3e 47 c2 20 3c fe 7f 14 3e df 92 87 be
       0.2961907 0.009811944 0.1450195 -0.2647924

critic.0.bias f4 [128]
000000 28 db 87 3e 42 b8 f3 3c a5 ab 83 3d aa 73 d3 bd
       0.2653439 0.029750947 0.06429223 -0.103247955
000010 30 2b 3d bd 77 be d8 3c 67 55 5d bb 75 86 4c 3d
       -0.046183765 0.026458008 -0.0033772828 0.049932916
000020 b2 41 85 3d 36 9b 0e 3f 57 e9 5b 3f ce c7 16 bd
       0.06506671 0.55705583 0.85902923 -0.036811642
000030 b2 71 3d bd 84 84 c6 3b 5f 32 84 bc 42 4e 21 3d
       -0.046251006 0.0060582776 -0.0161373 0.039381273
000040 d4 0d ba bd 36 ea 83 bd 6f fe 11 3e b5 63 ca 3c
       -0.09084669 -0.064411566 0.14257215 0.024705747
000050 f3 3a 84 3c f9 80 06 3e 8b 4f b5 bd 4c 6a 3a be
       0.01614139 0.13135137 -0.08853062 -0.18204612
000060 d5 82 6f 3d c0 2e 0c 3d 9e a6 2d 3e fd 12 97 bc
       0.05847438 0.03422427 0.1695809 -0.018441672
000070 23 24 a7 bd 97 98 58 bd 16 9d 6e bd f2 14 cc 3d
       -0.081611894 -0.052879896 -0.058255278 0.099649325
000080 15 88 e4 bc 71 c2 49 3e 96 1c 93 3e f6 24 30 bd
       -0.02789692 0.1970308 0.28732747 -0.043004
000090 8b d3 14 3d 64 ed ee bc c9 25 15 3d 16 61 0c 3b
       0.036334556 -0.029165931 0.036412988 0.0021420172
0000a0 19 fa 19 3e 56 83 02 be 64 67 dd 3c ea 12 b1 bd
       0.15036811 -0.12745413 0.02702684 -0.08646186
0000b0 09 e5 0b 3d 00 45 3b 3f fa a7 97 bd af ac dc 3c
       0.03415397 0.7315216 -0.07405086 0.02693781
0000c0 cb fa 08 3d b1 04 03 3d b2 fd 86 bd 2d 8f 62 3c
       0.0334423 0.031986896 -0.06591357 0.013828081
0000d0 96 e0 43 3e 92 02 1c 3c a5 e8 a7 3d f2 ab 5c 3e
       0.19128641 0.009522097 0.0819867 0.21549967
0000e0 89 a0 3c 3d cb fa 39 3a 80 e9 6a bd 41 99 aa be
       0.046051536 0.0007094561 -0.05735159 -0.33320048
0000f0 e2 39 84 bc 5b 76 10 bd 80 1a 61 be 1e 01 5e 3f
       -0.016140882 -0.035269123 -0.21982765 0.86720455
000100 e2 87 88 bd 78 06 a3 3e 1a 04 82 bd 20 e8 22 bd
       -0.066665426 0.31840873 -0.063484386 -0.039772153
000110 66 c7 da 3c cc e1 06 be 31 44 a6 bd 76 8b 9f 3c
       0.026706409 -0.13172072 -0.08118475 0.01947568
000120 d4 2b 49 3d 0f ce df bd dc c7 9f bd dc 0d 0c 3d
       0.049114063 -0.109279744 -0.07801792 0.034192905
000130 df b9 92 3d cb 2b 14 3d 89 fe b8 be 5c 32 bd 3b
       0.07164358 0.036174577 -0.36131695 0.0057738256
000140 69 01 d0 3d d7 12 6c 3e 63 8f 19 3d 9d be 84 3d
       0.10156519 0.23054062 0.03749026 0.06481669
000150 55 0c 9e bd 45 db 62 bd 84 06 5c bc 24 74 d9 3e
       -0.07717196 -0.055384893 -0.013429288 0.4247142
000160 0c e6 c6 3c e1 1d e6 bd 07 f4 b2 3c 32 28 aa bd
       0.024279617 -0.11236168 0.021844877 -0.08308448
000170 4c cc 0c bd 16 52 d5 3c 85 02 21 3d 41 03 27 be
       -0.03437452 0.026040118 0.039309043 -0.16309835
000180 26 8d 62 3d 4c 46 f4 bd c6 d6 03 3c 8c 04 40 3e
       0.05531039 -0.119274706 0.008046811 0.18751734
000190 64 80 23 bb 1f eb b0 3c a5 b9 6e bd 70 fc 91 bd
       -0.0024948353 0.02159649 -0.058282513 -0.07128227
0001a0 20 ae ba bd f8 86 0a be 08 8f f7 3e 57 82 55 3c
       -0.09115243 -0.13528049 0.48351312 0.013031564
0001b0 98 f5 59 3d 16 8e 4c 3d 0b a1 ab 3d 5c 3f 43 bc
       0.053212732 0.04994019 0.08380326 -0.0119169615
0001c0 34 dc 6a bd 85 c3 2f bc e5 7a 34 bd b0 f0 57 3d
       -0.05733891 -0.010727768 -0.044062514 0.05271977
0001d0 a5 68 fc bc 77 3b 92 bd 55 26 4a bc 2b 94 3f 3e
       -0.030811617 -0.07140248 -0.012338241 0.18708865
0001e0 f3 9a cc bd f9 9c 0e 3d 23 e5 30 3c 05 af 98 bd
       -0.09990492 0.03481767 0.010796818 -0.07455257
0001f0 8d a6 48 3d 43 45 76 bd 46 cc 2e 3d 7c aa 34 bd
       0.04898696 -0.060124647 0.04267528 -0.0441079

critic.2.weight f4 [64, 128]
000000 ba aa a6 be 6f df 8b 3e 0f ba 61 bd 1d b4 13 3f
       -0.3255213 0.27318904 -0.05510908 0.57696706
000010 76 30 07 3f c3 a1 f0 bd de 8e 6b be 30 e3 19 bd
       0.5280832 -0.117496036 -0.23003718 -0.03757018
000020 15 7f c6 3e e9 b8 48 bf b7 cc f7 3c cb a1 e6 3d
       0.3876883 -0.7840715 0.030248983 0.11261328
000030 ac 75 62 3d 11 8d fe be 00 a9 86 3e 32 c1 46 be
       0.055288002 -0.49717 0.26300812 -0.19409636
000040 5a 83 ca be 04 fd 9f 3d ac 0d e4 bc 7c 7a 8c 3e
       -0.39553338 0.07811931 -0.02783855 0.27437198
000050 e2 ef 82 be 33 c5 b3 3d 48 b6 ac bd fd 6c 37 3e
       -0.2557364 0.08777847 -0.08433205 0.1791267
000060 7d 59 c2 3d df 5d b2 3d e5 22 55 3d 23 03 b9 3e
       0.09489725 0.08709311 0.05203523 0.36135206
000070 87 03 a9 be 4b 5a 7c 3e 90 70 7e bc f1 b6 26 3f
       -0.33010504 0.24643819 -0.015529767 0.65122896
000080 7e 9b 5c be eb 23 b4 3d 81 4b 3a 3e 4b e6 e1 3e
       -0.2154369 0.08795913 0.18192865 0.44121012
000090 bb 55 d5 3e 80 52 9d 3e a1 b5 b2 3e a5 ec 37 be
       0.4166697 0.30727005 0.34904197 -0.17961366
0000a0 ec 3f d6 bd ca 4c 58 be 09 1a 13 3d 55 fc b8 3e
       -0.10461411 -0.21123043 0.0359135 0.36130014
0000b0 c1 b9 df 3e 5e fd db 3e 5e a9 7f 3d a2 7d ba be
       0.43696406 0.4296674 0.06241738 -0.36423975
0000c0 1c 7b f7 be 82 62 25 be b8 c2 e0 3d 16 8e 9a 3c
       -0.48336112 -0.16150859 0.1097464 0.01886658
0000d0 10 78 c0 3e 2a 25 66 be aa 6c 88 be ab c4 92 bd
       0.375916 -0.22475114 -0.26645404 -0.07166418
0000e0 c8 b1 63 be 81 34 d9 3d e1 26 93 be 59 a5 8a 3e
       -0.22235787 0.106057175 -0.287406 0.27079275
0000f0 e2 1a c2 3d b0 27 5a 3d 03 19 c7 be 88 50 ec be
       0.09477784 0.053260505 -0.3888627 -0.4615519
000100 84 e1 4a be 3c 17 93 3e fe 0c 37 3e f5 41 31 be
       -0.1981259 0.28728664 0.1787605 -0.17310317
000110 00 12 18 be f4 d2 27 be c8 67 c9 3e eb 66 e5 3e
       -0.14850616 -0.16389066 0.3933699 0.44805083
000120 cf c1 7f 3d 00 aa 0c 3e d5 1d 9d 39 34 1f 9f 3c
       0.06244069 0.13736725 0.000299676 0.019424058
000130 1f 66 94 3e e0 f6 58 bc 6e 96 fd 3c bf ce fd be
       0.28984162 -0.013242453 0.03095552 -0.49571797
000140 b7 85 c4 bd 0b 98 85 bc 29 0c 82 bc 77 90 bd 3e
       -0.095958166 -0.016307851 -0.015874939 0.3702428
000150 22 b5 c8 3c 62 b9 cc be ba d4 43 be 23 72 2b 3e
       0.024500433 -0.39985186 -0.19124117 0.16742758
000160 d4 92 c2 be d9 23 72 3e 23 7a 07 be 49 66 ee bd
       -0.38002646 0.23646487 -0.13230185 -0.11640603
000170 89 78 30 3e ec 11 9e 3e 64 67 09 3d a6 2f db 3d
       0.1723348 0.30873048 0.033545867 0.107024476
000180 74 cb 79 be ef 9e 4b be 54 df a3 3e 1d d8 08 3e
       -0.24394017 -0.19884847 0.32006323 0.1336369
000190 a3 79 44 3e 2e 2c 23 be 4d 35 3c be 3d c9 3d 3d
       0.19187026 -0.15934822 -0.18379708 0.046334494
0001a0 00 88 1a bd 11 30 b2 bd 12 24 00 bd 4a 13 25 3d
       -0.037727356 -0.08700574 -0.0312844 0.0403016
0001b0 c7 e2 b2 be ee 24 ae 3e 08 37 c9 be f4 6d 8b 3d
       -0.34938642 0.3401255 -0.39299798 0.06808081
0001c0 67 c5 c3 3e 68 11 b6 3e a1 a4 b0 bd 64 8c 0e 3c
       0.38236544 0.35560155 -0.086251505 0.008700464
0001d0 ed 26 65 be af 05 88 3e f9 7b 10 3d 3b 0e 85 3e
       -0.2237813 0.26566836 0.03527448 0.2598742
0001e0 cf ac 50 3f f4 24 69 3d 66 06 65 3e 15 af 4f bc
       0.81513685 0.056920007 0.22365722 -0.01267602
0001f0 82 11 75 bc 61 c2 95 3d b4 e0 80 bd dd 03 9a be
       -0.0149577875 0.073124655 -0.06292859 -0.30081072
000200 2e 5f 74 3e 15 76 8c be f0 f6 6b bc 46 63 9f 3e
       0.23864433 -0.2743384 -0.014402136 0.31130427
000210 3a 43 0a be 2a 16 a2 bb 7b 65 96 3d be b3 80 3e
       -0.13502207 -0.00494649 0.073435746 0.25137132
000220 0a 28 72 bf b2 af 20 bf 54 d2 a2 3c 1b ef 10 bf
       -0.94592345 -0.6276809 0.019875683 -0.56614846
000230 d5 37 58 3d a4 5b 35 bf 83 5d 00 3e c4 aa 1a bf
       0.05278762 -0.7084296 0.12535672 -0.6041682
000240 f1 e9 ee 3e 9e a0 53 3e 90 72 d9 bc ed 81 1f bc
       0.46662858 0.2066674 -0.026543885 -0.009735567
000250 a9 08 09 3f ab 03 40 be dc 8a e3 3d 2f 72 cb bc
       0.5352884 -0.18751399 0.1111047 -0.02483472
000260 22 c6 a7 3e 03 b8 a6 be a9 04 a9 3d 08 da 4f bf
       0.3276835 -0.32562265 0.08252842 -0.81192064
000270 00 3d f9 3d a8 8c f9 be a9 af b0 3d e0 2a ab 3d
       0.12169838 -0.48740125 0.086272545 0.08357787
000280 77 b0 dc be d9 52 8c bd 3d 5f 27 3e 64 86 eb be
       -0.43103382 -0.068517394 0.16344924 -0.4600097
000290 0d 85 da be a0 72 85 3e 5e ef 68 3e fc f5 a4 be
       -0.42679635 0.26064014 0.22747561 -0.3221892
0002a0 1a ed 68 3f 8b 41 a5 be ec 87 3e bf 5b 00 24 be
       0.9098679 -0.32276568 -0.7442615 -0.1601576
0002b0 0d ef 45 3d 10 50 fa be 25 42 d3 bd e3 ef 0e 3e
       0.04832368 -0.48889208 -0.103153504 0.13958697
0002c0 ba 4c cb be 20 43 29 bd a6 bc ff 3d 27 45 2b bf
       -0.39706975 -0.04132378 0.12487154 -0.66902393
0002d0 e9 f5 13 3d 7d 3c 8d 3e 4a 6a 73 be 3d a4 29 bf
       0.03612319 0.2758521 -0.23771015 -0.6626623
0002e0 8f c2 8a 3e ff e7 07 bd 67 52 d8 3d cc 48 54 3e
       0.2710156 -0.033180233 0.10562592 0.20730895
0002f0 99 1f 0c 3c 15 d7 60 3e 5a b4 e7 be 06 62 9e bc
       0.008552455 0.21957047 -0.45254785 -0.01933385
000300 c9 95 3a 3d fc 25 95 be 16 a3 6b be 27 0e fc bc
       0.045553003 -0.29130542 -0.23011431 -0.030768467
000310 cb 14 b6 3d fa 1e 9c 3f 0a 21 b2 3e c1 7a 12 be
       0.08890685 1.2196953 0.34790832 -0.1430464
000320 de c1 84 3e 6b 0e 2f 3d 83 f0 7f 3d 7b 26 9d 3d
       0.2592916 0.04273836 0.06248523 0.07673355
000330 2a d9 d4 3d 8a af fc 3e f4 28 8d 3e e7 ba e7 3e
       0.10392983 0.49352676 0.27570307 0.45259783
000340 2c e7 6c be 8c d5 a9 be ea fb f7 3d f7 f7 d0 be
       -0.2313506 -0.33170736 0.12108596 -0.40814182
000350 b4 f6 0c bf f5 98 b6 3e 67 eb 69 3e 57 6d 3d 3d
       -0.5506394 0.35663572 0.22843705 0.046246853
000360 c1 4d 1c bf 39 0f c5 3c 6a cc 63 be 32 b5 2f be
       -0.61056143 0.02405511 -0.22245947 -0.17158964
000370 b1 90 ee 3e 03 38 ed bd da 8b 9a b9 fd cd 2b 3d
       0.46594766 -0.11582949 -0.00029477366 0.041944493
000380 94 b8 19 3c 54 5a fc be 7d 48 2b bf 17 7c 7e 3e
       0.009382386 -0.49287665 -0.66907483 0.24852024
000390 29 d6 33 be 33 69 1d 3e 08 aa a1 3e a7 34 90 bd
       -0.17562164 0.15372162 0.31575036 -0.07041293
0003a0 11 fb c2 3d c2 8a fc be 5b 83 2d be 9d ae 0e be
       0.09520543 -0.49324614 -0.1694464 -0.13933797
0003b0 81 7b 17 be 11 af 2f bf f3 40 fb 3e 23 96 4d 3f
       -0.14793207 -0.68626505 0.4907299 0.80307215
0003c0 08 a9 02 be 0c 7e f0 be 08 1c 05 bf e5 a0 94 bd
       -0.12759793 -0.46971166 -0.519959 -0.07257251
0003d0 6f eb 33 be a1 cc 46 3f bf 72 7e 3d 86 46 fc bd
       -0.1757028 0.7765599 0.06212115 -0.12318139
0003e0 c4 52 40 3e fd 93 a6 3d 9b 27 bd 3e 78 8b da be
       0.18781573 0.08133695 0.3694428 -0.4268453
0003f0 3e 39 9c 3e 12 5d bc 3c ca d9 21 bf 96 32 b2 3e
       0.30512422 0.022993598 -0.63222945 0.3480422

critic.2.bias f4 [64]
000000 b1 3c ac 3e ad ca 78 be d9 a4 47 bf 04 f5 3d 3f
       0.33640054 -0.24296065 -0.7798591 0.7420199
000010 c4 2f 44 3f 25 eb de be 02 80 b4 3d ca ea c2 bd
       0.76635385 -0.43538776 0.08813478 -0.09517439
000020 21 82 73 be cb d3 7a 3d 06 89 fd 3d 16 b4 92 3e
       -0.23780109 0.061237138 0.12379651 0.2865302
000030 00 e2 3d 3e 17 ec 8b be 3f 40 31 3e 1b ca e0 3e
       0.18543243 -0.2732856 0.17309664 0.43904194
000040 69 f6 da 3e 93 da 14 3f 7c 96 e9 3e a0 64 a4 3e
       0.4276612 0.5814602 0.45622623 0.3210802
000050 5a a2 15 be 5b b2 26 3e de bf 15 3f b6 5e 00 bb
       -0.14612713 0.16278975 0.5849589 -0.0019587702
000060 5d b2 b6 be b8 75 9b be ef ff ec 3e 6f 8a 82 3c
       -0.35682955 -0.3036325 0.46289012 0.01593515
000070 48 e9 0a 3f 1c ca dc 3e e3 83 78 be d8 ad 80 3d
       0.5426221 0.43122947 -0.24269061 0.06283158
000080 63 39 bb 3d 6b 0e 1a 3f 1f f7 3a bc 76 f9 cb be
       0.09141805 0.6017825 -0.011411457 -0.3983876
000090 84 d7 0a bf cb 20 f5 3d f3 73 0f 3e 19 e8 33 be
       -0.542351 0.119691454 0.14009075 -0.17569007
0000a0 b0 ae 96 bf 8f 68 81 3e 11 c2 b8 3e 38 3b 9d 3c
       -1.177206 0.25275084 0.3608556 0.019193277
0000b0 cf ad cf 3d 23 c4 86 3e 46 95 e4 be d5 9a 67 3d
       0.10140573 0.26321515 -0.44645137 0.056544144
0000c0 d9 be d7 3c fa bb 39 3e af 6f 3d be 2f c7 c7 3e
       0.02633612 0.18138114 -0.18499635 0.39019153
0000d0 fc 53 98 3e ca 56 c7 3c 07 73 a3 3e a3 3f 7f be
       0.29751575 0.024333376 0.31923696 -0.24926619
0000e0 55 55 32 3f 7a a6 12 3f ad 5d 97 3e 7c 71 87 3e
       0.69661456 0.57285273 0.29563656 0.2645377
0000f0 e3 78 0e be 0a 4b ce 3d 15 41 06 be a9 ea 04 bf
       -0.13913302 0.10072906 -0.13110764 -0.51920563

critic.4.weight f4 [1, 64]
000000 70 3e 54 3e ea 45 88 be c5 5f 38 be 61 eb 47 3e
       0.20726943 -0.2661584 -0.18005283 0.19523384
000010 31 3d f9 3f cd 5a 3a be 0b 34 b6 be 02 0b 44 be
       1.9471799 -0.181987 -0.3558658 -0.19144824
000020 73 72 b5 be 8a cc 4d 3e f1 31 30 3e d1 05 f8 3d
       -0.3543888 0.20097557 0.17206551 0.121104844
000030 47 d9 89 3e 23 d5 11 be f9 29 03 3e d6 99 3a 3e
       0.26923582 -0.14241461 0.1280898 0.18222746
000040 24 73 73 3e 3d 11 87 3e 52 e1 84 3e 3e ff 5a 3e
       0.23774391 0.2638034 0.25953156 0.2138643
000050 33 01 db 3e f6 fe d3 be a6 07 91 3e cd 93 4a be
       0.42774352 -0.41405457 0.28326148 -0.19782944
000060 84 c8 64 be 0d 26 2f be ea f5 8d 3e 1d 96 af 3e
       -0.22342116 -0.17104359 0.2772668 0.34294215
000070 c2 c3 f9 3d 2f 6d 76 3e 37 89 d3 be b0 b7 3d 3e
       0.12195541 0.24065088 -0.41315624 0.18527102
000080 08 61 83 3e 8b c5 9e 3f e0 d4 a0 be 2a 0c 8d bf
       0.25659966 1.2404035 -0.3141241 -1.1019337
000090 46 a5 60 be 2e 3e 2f 3f 06 bc 03 bf 4f 2a 8d bf
       -0.21938047 0.68454254 -0.51458776 -1.1028537
0000a0 01 a9 b6 bf 68 15 43 3e 08 cd 1a 3e 6b 50 fc be
       -1.4270326 0.19051135 0.15117276 -0.49280104
0000b0 69 db 24 be a2 f2 2e 3e 75 58 44 be 1e da 3c be
       -0.16099323 0.17084745 -0.19174369 -0.1844258
0000c0 24 a7 3b 3e 07 4d 27 3e 1c 60 2d be 24 a2 cf 3e
       0.18325478 0.16337977 -0.16931194 0.4055339
0000d0 ad a1 9c 3e a2 9f 4d 3e 0c 83 5b 3f 1a 72 91 be
       0.305921 0.20080426 0.85746837 -0.28407365
0000e0 2a b4 15 3f 0d 44 3d 3e d8 37 99 3e ce 0e 25 3e
       0.58478034 0.1848299 0.29925418 0.16118929
0000f0 4e 5c 65 be 75 eb 49 be d3 72 06 be 78 2a 04 bf
       -0.22398493 -0.19718726 -0.1312974 -0.516273

actor.0.weight f4 [128, 13]
000000 25 2e b7 bc 45 98 96 be 29 ad 20 3f 7f f3 f9 be
       -0.02236087 -0.29413047 0.6276422 -0.48818585
000010 b5 65 26 3f c2 e0 2c bf 9e 61 57 be 40 4e 35 3d
       0.6499894 -0.67530453 -0.21033332 0.04426408
000020 36 5f 00 3f b5 b1 c3 bb 63 87 3e bf 5a 5d 83 3e
       0.5014528 -0.005972112 -0.74425334 0.2565716
000030 23 33 28 3f ba 8a fa 3d 91 a4 7d 3d 14 bc 98 3d
       0.6570303 0.12233491 0.06192452 0.07457748
000040 a8 5b 2e 3d db 40 65 3e 34 22 6d 3e dd 53 a5 be
       0.04256788 0.22388022 0.23157579 -0.32290545
000050 76 33 3c 3e c6 ec 37 c0 ab 01 c1 be 92 7b 86 bd
       0.18379006 -2.8738265 -0.37696585 -0.06566538
000060 de 16 98 3e 54 0a 01 3e f8 5a c1 3d 89 fd f7 be
       0.29704946 0.12601596 0.09441179 -0.4843562
000070 07 77 09 3f ed 03 00 bf 94 d8 4d 3f 43 05 13 3f
       0.53697246 -0.5000599 0.80408597 0.57429904
000080 34 c1 54 be d5 f0 67 3e 4b b4 d1 3e 0d fe 6e 3e
       -0.20776826 0.22650464 0.40957865 0.233391
000090 63 79 16 be 3a 66 c6 3e 57 18 17 3d 63 e6 c7 3d
       -0.14694743 0.38749868 0.036888447 0.0976074
0000a0 e7 d5 32 bd c7 44 1d bf 5b 04 c3 3a 81 8e 0d 3f
       -0.043661024 -0.6143307 0.0014878617 0.5529557
0000b0 db c7 ec 3f 08 c6 15 3d f6 f7 3f 3e fe 10 ee 3e
       1.8498491 0.03656581 0.18746933 0.4649734
0000c0 8e c5 ca be d1 73 32 3e 73 b7 f6 3e 1a 13 f9 be
       -0.39603847 0.17426993 0.48186836 -0.48647386
0000d0 34 8a f4 3c 93 d8 19 bf 92 c6 e7 bd 58 98 5c 3d
       0.029851057 -0.6009609 -0.11317171 0.053856224
0000e0 65 14 c6 3e 68 fa 21 bf 87 af 3e 3f 20 13 e0 be
       0.38687435 -0.63272715 0.74486583 -0.4376459
0000f0 82 87 1d be 70 06 ba be a8 33 dc 3d 1a 80 58 bf
       -0.15383723 -0.36333036 0.1075204 -0.8457047
000100 5f 93 8f 3e 22 3a 94 3d 86 3a a0 bd e3 5f 53 3d
       0.28042123 0.072376505 -0.078236625 0.051605117
000110 31 d5 2c be c8 8b b6 bf f2 b2 6a bf 6a 6b 5f 3e
       -0.16878201 -1.4261408 -0.916793 0.21818319
000120 68 91 fc 3d ee e8 9d bf cf af 81 bf fa 10 a0 be
       0.123324215 -1.233671 -1.0131778 -0.31262952
000130 a9 66 0b 3f 83 49 94 be 3a 57 2b be 0f f5 8c 3d
       0.5445352 -0.28962335 -0.16732493 0.06882679
000140 4a 8d 35 be 67 62 5e 3d 07 47 18 3f 30 a9 37 bf
       -0.17729679 0.054293063 0.5948338 -0.71742535
000150 93 32 16 bf 81 d4 02 3f 03 a0 5c 3d 35 d4 5f 3f
       -0.5867092 0.51105505 0.053863537 0.8743318
000160 18 a7 f6 3e 09 dc b7 be 7a df 6c be d8 a5 3b bd
       0.48174357 -0.3591006 -0.23132125 -0.045812458
000170 04 14 88 be 3c f1 73 be 80 ce 76 3e 36 1b 82 3f
       -0.2657777 -0.23822492 0.24102211 1.0164554
000180 97 ad ea be 40 3f 4a 3e a8 bc 79 bf a8 12 1e bf
       -0.45835564 0.1975069 -0.9755349 -0.6174722
000190 a0 60 aa be 9f 90 9c bd 2e b7 d0 3d 37 7b 54 be
       -0.33276844 -0.07644772 0.10191189 -0.20750128
0001a0 99 2f 8c be 9c 96 fc 3d 01 57 08 3f 55 f8 43 3d
       -0.27380064 0.12333414 0.5325776 0.04784425
0001b0 9e f3 bc 3e f3 12 14 3e e7 97 b4 3e b0 53 8e be
       0.36904615 0.14460354 0.35272142 -0.27798223
0001c0 56 4d 86 3f af db 0a be 9a 5f b3 be cf 7c 9e 3e
       1.0492351 -0.13560365 -0.35033876 0.30954596
0001d0 4b 2a f5 be 52 ba 3b 3c 79 42 d9 3e 79 08 9e be
       -0.4788383 0.011457996 0.42433527 -0.3086584
0001e0 11 94 e8 be 7c fd d4 be 24 77 7e bf 5e a4 bf 3e
       -0.45425466 -0.41599643 -0.99400544 0.3743009
0001f0 ce 42 56 be 5a 30 cf 3f 97 1c ef 3e f3 32 15 bf
       -0.20923921 1.6186631 0.467015 -0.5828087
000200 72 4f b1 3e cc 00 24 3d 0e b4 78 3e a8 5e 0a bf
       0.34630924 0.040039822 0.24287435 -0.54050684
000210 33 d4 0e bf 39 d3 00 3f b4 63 80 bf 5f 7e 50 3e
       -0.5579254 0.503223 -1.0030427 0.20360707
000220 15 d3 a0 3d f2 df a3 3c 61 0f 47 3f a1 12 2b be
       0.07852761 0.020004246 0.7775784 -0.16706325
000230 0d 73 71 3e 9b 5f f3 3b 3d 94 51 3e 29 ac f5 3d
       0.23579045 0.0074271685 0.20466705 0.119957276
000240 b7 ee b4 bb 8f 56 9e bd de 63 8a 3d 2f 9b 7f 3e
       -0.005521621 -0.077313535 0.067573294 0.24961542
000250 12 67 9d bd d1 e3 ac be 54 45 28 be 11 0c 54 c0
       -0.07685675 -0.3376756 -0.16432697 -3.3132365
000260 f5 0e 8b bd 5f 98 aa bd 9d c6 d5 be 3c 38 8a 3e
       -0.06789962 -0.08329844 -0.41753092 0.26996028
000270 de d3 ac bc 0e 47 28 be 66 cd c0 be 0f bb 67 3e
       -0.02109712 -0.16433355 -0.37656707 0.22629951
000280 87 c2 56 3f f8 75 06 c0 06 f0 cf bd 28 39 0b 3e
       0.83890575 -2.1009502 -0.10153203 0.13596022
000290 3f 9f ac bd 56 0b 0a bd 1f dd 1b bd 81 fb 56 be
       -0.08428811 -0.033702217 -0.038052674 -0.20994379
0002a0 e2 6f 03 3e 89 51 48 3d fb d7 5b be 7f 3c 38 3e
       0.12835649 0.048905883 -0.21469109 0.17991827
0002b0 22 47 dd bd 01 a8 d7 3f 3f 56 b7 bf 43 43 01 bf
       -0.10804583 1.6848146 -1.4323195 -0.5049326
0002c0 e0 b7 c7 3e ee 3a 88 bf c1 78 84 3f 96 26 a1 bd
       0.39007473 -1.0642984 1.0349351 -0.07868688
0002d0 a3 f8 a7 3e e7 d3 67 3d 58 3f 05 3e 8c f6 71 3e
       0.32806882 0.05659857 0.13012445 0.23629206
0002e0 ed f3 71 3c f4 71 78 bd 71 d8 a3 3f b5 ef 49 3e
       0.014767629 -0.06065555 1.2800428 0.19720347
0002f0 53 48 bf 3e b7 6e c4 3e 3c ff f6 be 97 e3 16 3f
       0.37359866 0.3836572 -0.48241603 0.58941025
000300 b4 f9 65 3f 77 01 b1 3e af 94 b1 bf 02 8a f0 bc
       0.8983414 0.3457143 -1.38735 -0.029362682
000310 11 58 57 3e 74 ea 41 be 1c f9 f2 3e e3 d3 81 bf
       0.21029688 -0.18937093 0.4745568 -1.0142788
000320 09 a9 3e 3f 9f 2a 1e be 34 64 ba 3c 3c 1c 5b 3f
       0.7447668 -0.15445946 0.022752859 0.8558996
000330 55 a6 ca bf de 64 53 be 25 06 48 3e af 35 ec 3c
       -1.583201 -0.20643947 0.19533594 0.028834192
000340 cf 3f a4 3b ae 20 56 be ad 4c 80 3e d3 45 37 3e
       0.0050124894 -0.20910904 0.250585 0.1789773
000350 dd 6b 19 3f 5a 40 0b 3e 50 29 c2 be 89 9a 69 3e
       0.5993021 0.13598767 -0.37922144 0.22812857
000360 84 39 e7 bf 4c 7f 27 bf ee d9 1a 3f 38 f4 e4 be
       -1.8064427 -0.65428615 0.60488784 -0.44717574
000370 1b ae e6 bc f4 09 8e 3e 97 d5 c0 3e cd ba 27 bd
       -0.028159192 0.2774197 0.37662956 -0.04094963
000380 c6 08 04 bf eb 47 8f 3f a8 83 35 bf 5a db ab be
       -0.5157589 1.1193823 -0.70904016 -0.3356579
000390 8e 90 5c 3e ef 30 1e bf 1c 4a 2c 3f d4 2b 55 be
       0.21539518 -0.61793417 0.6730058 -0.208175
0003a0 76 0e 87 3d 41 ad 28 3f 3f 93 e9 bc 2e f6 4c bf
       0.06594555 0.65889364 -0.028512595 -0.8006314
0003b0 04 b7 18 be 51 98 cc 3e a4 4c ac be 38 da 98 3e
       -0.14913565 0.39959958 -0.33652222 0.29853988
0003c0 37 e7 00 bd d1 d4 06 bd c9 a7 a6 bf a4 1f 7d be
       -0.031470504 -0.0329178 -1.3019954 -0.24719101
0003d0 43 00 ed 3e d2 85 3e bf af 26 1a 3f 26 97 c7 3e
       0.46289262 -0.74422944 0.60215276 0.38982505
0003e0 1d 6f c7 be 74 90 b1 be ce 37 84 bd ee 24 a2 3e
       -0.3895196 -0.3468052 -0.064559564 0.316688
0003f0 74 39 1c 3f dc 6d 12 3f 43 92 d1 3d 6c e8 05 3e
       0.61025167 0.5719888 0.10232975 0.13076943

actor.0.bias f4 [128]
000000 21 91 95 39 7e b3 53 3e 32 b9 f0 3d 26 7a f5 3b
       0.00028527624 0.2067394 0.11754073 0.007491368
000010 3b be 61 bd 9b a2 33 bd 3d de 2a bd 24 86 2f 3d
       -0.05511306 -0.043856245 -0.04171585 0.042852536
000020 5d 64 a3 be b1 cc 00 3e 8e c8 99 3e 73 14 73 bb
       -0.3191251 0.12578084 0.30035824 -0.0037091046
000030 22 e4 f7 bc 5f 00 a9 3d 33 b0 72 3d 8a 0a 16 3c
       -0.03026015 0.08252024 0.059250068 0.009157786
000040 b0 7a dc 3c d4 de 16 3d 46 44 6a 3d b6 a1 a2 3e
       0.02691397 0.0368336 0.057194017 0.31764
000050 95 ac 4f 3e d9 0c b2 bd 9f a2 42 be f4 7d 9e bc
       0.20280679 -0.08693857 -0.19007348 -0.019347169
000060 bb c6 af 3d ae 50 00 bf 2c 47 82 be 21 06 a4 3e
       0.08582827 -0.5012311 -0.25444925 0.32035926
000070 b9 ac a6 be ca e0 55 bd ac 75 b7 bd 92 92 0b 3c
       -0.32553652 -0.05221633 -0.08957991 0.008518832
000080 3f d5 91 be 5a e9 36 3e c2 7d 3e be be ee 48 3d
       -0.28483006 0.17862454 -0.1860266 0.049055807
000090 ca 47 d6 3e c5 0f 05 3e 1d 09 ba 3d f2 44 05 3e
       0.41851646 0.12994297 0.090837695 0.13014582
0000a0 32 ec 12 be cd 4a e9 3e dc 86 f0 bd d4 00 4b be
       -0.14347914 0.4556488 -0.117444724 -0.19824535
0000b0 0f 86 00 3e 8b 7b 15 3e 0c 0a de bd 9a 0e 0f be
       0.1255114 0.14597909 -0.1084176 -0.13970414
0000c0 ea c7 6f 3c 4a b6 94 3e 39 06 d9 be d3 43 6a 3e
       0.014635066 0.29045326 -0.4238756 0.22877435
0000d0 ef dc f9 3d 0e 11 69 be b7 c0 00 be ae 35 f7 3d
       0.12200343 -0.22760412 -0.12573515 0.120707855
0000e0 da ce c4 bd 3c 2f 84 3e 10 48 be 3e 11 b3 a0 3d
       -0.09609766 0.25817287 0.37164354 0.07846654
0000f0 7f 44 e1 bd a0 f6 59 be 58 f6 c5 3c 7d 4e 09 3f
       -0.10999393 -0.21285486 0.024165317 0.5363539
000100 da 4a 54 3e 37 a5 72 bc c3 8d 3f 3d 8b 8e 26 3e
       0.20731679 -0.014809898 0.046766054 0.16265313
000110 51 43 bb 3b d2 0c cb bd db bf b8 3e 60 32 bb 3d
       0.005714812 -0.09914555 0.36083874 0.09140468
000120 d4 fe c6 bd 18 1c 6f 3d 0c c9 3c be 93 83 63 be
       -0.09716573 0.0583764 -0.18436068 -0.2221816
000130 75 0a 47 bc 17 df 74 be ae 9b 1b be 4e 0f 3a 3e
       -0.012148489 -0.23913227 -0.15196106 0.18169901
000140 32 74 25 3e 20 ea 74 be cc 7a 76 be a8 c6 72 bc
       0.16157606 -0.23917437 -0.24070281 -0.014817871
000150 fd 69 8b 3e 66 94 dd 3d 39 f1 b0 3e 27 72 ff bc
       0.272293 0.108193204 0.34559038 -0.031182362
000160 4b f3 65 3d 84 db 4f 3d cc f5 17 be 03 ce 00 3e
       0.056140225 0.050746456 -0.14839858 0.12578587
000170 c8 af c9 be c6 88 b4 3b 51 a6 84 bb 15 d9 9c 3e
       -0.39391923 0.0055094687 -0.004048147 0.3063437
000180 93 90 c7 be ce 57 5f 3e b1 62 bd be b3 27 9e 3e
       -0.3897749 0.21810839 -0.36989358 0.30889663
000190 cd 34 a2 be eb 1c 07 3d ee 50 54 3d 3c a3 05 be
       -0.3168091 0.032986563 0.051834993 -0.1305055
0001a0 1f 1f 84 bd 30 56 1c 3d 3d 6a a4 bc 59 d8 d4 bc
       -0.064512484 0.038168132 -0.02007019 -0.025982069
0001b0 fb a7 20 3e e7 f1 02 be 02 4a dc bd a2 54 33 bc
       0.1568908 -0.12787591 -0.10756303 -0.010945471
0001c0 53 02 8d 3d 12 35 e3 be 50 a2 14 3e eb 1e 43 3e
       0.06885209 -0.44376427 0.14515042 0.19054763
0001d0 14 79 8f 3d 72 9a 30 3e 99 fc 9a bd 17 19 3e 3d
       0.07005516 0.17246416 -0.075677104 0.046410646
0001e0 6f 3c 95 bc 5a c6 27 be 99 64 76 3e 25 45 f1 bc
       -0.018217294 -0.16384259 0.24061812 -0.029451916
0001f0 c1 7d 1c 3e 28 ba 01 bd 19 25 e4 3c 87 7b 62 3d
       0.15282346 -0.031671673 0.02784972 0.055293586

actor.2.weight f4 [64, 128]
000000 20 d2 ef 3d 18 de 7c 3f 58 55 1e 3e 40 0e 74 bd
       0.1171 0.9877639 0.15462244 -0.059583902
000010 73 ef 07 be ef 43 65 3e 8a 02 0c 3f 9b c7 30 bd
       -0.13274936 0.22389196 0.54691374 -0.04315911
000020 af 8a e1 be 71 6e 02 bf a9 b5 58 3e f7 bc 75 3f
       -0.4405112 -0.5094977 0.21163048 0.9599146
000030 b3 8e 65 3d 08 62 88 3e 56 a9 01 be 72 ef 05 be
       0.05604429 0.26637292 -0.12662253 -0.13079622
000040 12 7d 5d 3c bd bc d4 be 36 4b 6c 3e cb 78 d4 bd
       0.013518589 -0.41550246 0.23075566 -0.10374602
000050 76 15 12 bf 63 46 1e 3e 56 7f a1 3e 05 44 9a 3c
       -0.57063997 0.15456538 0.31542462 0.018831262
000060 84 ca 06 bf a7 e4 53 3e 9a c9 02 3e a5 d1 94 3e
       -0.52652764 0.20692693 0.12772217 0.29066196
000070 f7 62 b9 3e 33 41 64 be c8 48 ee 3d 66 fd b3 3e
       0.36208317 -0.22290497 0.11634976 0.35154265
000080 8d 47 be 3e 9b 1f 4a be c6 2e de 3d 20 95 a1 be
       0.37163964 -0.19738619 0.10848765 -0.31559086
000090 1a 1a ad bd 54 7e 06 3f 18 5a 79 3d 58 6b 0f 3d
       -0.08452244 0.5253651 0.060876936 0.03501448
0000a0 2c 74 36 bd d1 91 0d bf dc 70 3c be 1d 3c 0c be
       -0.044544384 -0.55300623 -0.18402427 -0.13694806
0000b0 c2 3d 9c bf 58 10 13 3e 88 90 80 3e 24 a2 94 bd
       -1.2206347 0.14361703 0.2511027 -0.07257488
0000c0 23 cf 36 be b6 65 88 3e 9c f6 88 3e 56 09 a1 be
       -0.17852454 0.266401 0.26750648 -0.31452435
0000d0 ba 20 d2 be 65 98 58 be 6b 45 07 bf 4a 06 84 3e
       -0.41040593 -0.21151884 -0.528403 0.25786048
0000e0 fc ff 82 3e ef 1a d5 3e 3a e4 a0 bd 58 30 27 3d
       0.25585926 0.4162211 -0.07856031 0.04081759
0000f0 9e 83 ba be 72 49 a4 bd 6b 79 42 3e 02 72 14 3f
       -0.3642854 -0.08021821 0.1899163 0.5798646
000100 22 aa 4b be 4e ad 01 3e fd ef 19 3f 38 51 6d 3f
       -0.1988912 0.12663767 0.6013182 0.92702055
000110 0c ae 94 be 81 f5 71 3d 1b 54 04 bf 27 c9 10 3f
       -0.29039037 0.05907202 -0.51690835 0.56556934
000120 ae b6 78 bd 48 52 fb 3e 11 db 2b be 43 7a cc 3e
       -0.060721092 0.49086213 -0.16782786 0.39937028
000130 bf c0 55 bd c2 4a a1 3d ef 1e 53 3e 3d 43 0b be
       -0.05218577 0.07875587 0.20617269 -0.13599868
000140 4d 64 c7 3e 9e 9a f3 bd 25 2a d6 be c5 8f 37 3f
       0.3894371 -0.11894725 -0.4182903 0.7170375
000150 a1 b7 36 bf 30 f3 03 be 26 2c 3e 3e c3 76 d8 3d
       -0.71373945 -0.12885737 0.18571529 0.10569527
000160 12 a8 38 bf e4 df 9a 3d 3b f4 89 3e 4c 0b c0 bd
       -0.72131455 0.07562235 0.26944146 -0.09377155
000170 6c 12 6a be 20 be 32 bc a0 0c 6e 3e 98 1d aa 3e
       -0.2285859 -0.010909587 0.23247004 0.33225703
000180 e2 20 17 3e 25 d9 df be e8 ad 23 bf b9 35 9d 3e
       0.14758638 -0.43720356 -0.63937235 0.3070505
000190 ef 23 d5 3e f1 36 05 3f 68 0f ae bc 67 b1 5e bd
       0.41628978 0.5203696 -0.02124758 -0.054368403
0001a0 68 78 ee be 8d bd 24 3e 2b b2 c3 3e f0 5a 83 3e
       -0.46576238 0.16087933 0.3822187 0.25655317
0001b0 e2 e8 00 be 4d ae 38 be 5d 1d 2a be 79 40 d6 3e
       -0.12588838 -0.1803524 -0.16612764 0.41846064
0001c0 4c 02 8e bc 68 0c 95 3e 16 3b bc be 62 28 00 be
       -0.01733508 0.29111028 -0.3676383 -0.12515405
0001d0 8e 51 89 3d 2d 26 6b 3e d0 b8 10 bf 11 2c 90 be
       0.067050084 0.22963782 -0.56532 -0.2815862
0001e0 32 65 6c 3d 6e a0 40 3a 9e 71 e8 be c8 2a 84 bc
       0.057713695 0.00073481246 -0.45399183 -0.016133681
0001f0 13 13 84 3e 87 eb c4 be 9d 63 9d 3c 9f 1f d2 be
       0.25795802 -0.38460943 0.019212538 -0.4103975
000200 db e9 fa 3e 3c ab 27 3e 55 70 01 3f 90 9e a9 be
       0.49006543 0.16373914 0.5056203 -0.33128786
000210 0c 03 0b be 91 24 b8 be c8 f7 ce be 3f 9a 8e 3e
       -0.13575381 -0.35965398 -0.40423417 0.27852055
000220 e9 ef 16 bd 7c 25 e5 3e 97 33 2d bf af 6d 98 be
       -0.03684989 0.4475516 -0.67656845 -0.29771182
000230 16 dc fc 3d c9 aa d6 be 4e 9c 80 be 87 f1 1d be
       0.123466656 -0.41927174 -0.2511925 -0.15424167
000240 d3 79 b6 be b8 ae df be e3 f2 86 3c 39 21 00 3e
       -0.3563982 -0.43687987 0.01647324 0.12512673
000250 57 9b 24 bf 2a 94 cd 3e 3d b5 26 bf fa ac d8 3e
       -0.6429953 0.40152103 -0.651203 0.4231947
000260 be 1a 51 3d fa b8 a3 3d 32 b3 a9 be 2f 97 83 3e
       0.051050894 0.07994266 -0.33144528 0.2570128
000270 1d 4b 35 3e 84 3f e0 be 47 a7 1f bd 5e 54 e0 3d
       0.17704435 -0.4379846 -0.038977887 0.10953592
000280 5c f8 6a 3e 5b ed e5 3e bb b5 87 be 2f 85 dc 3e
       0.22946304 0.4490765 -0.26505837 0.4307036
000290 3b c3 17 3f 3d 59 8e be 6b e3 74 3e dc 4c 02 bf
       0.59282273 -0.27802458 0.23914878 -0.5089853
0002a0 31 b3 81 bd d9 f4 d7 be 41 c6 9a 3d f6 ca ec bd
       -0.06333006 -0.4217899 0.07557345 -0.11562149
0002b0 99 a0 01 be 46 3b 61 bf b9 04 46 3c a1 8f ef 3d
       -0.1265892 -0.8798107 0.012086087 0.11697317
0002c0 87 6c 11 3f da 74 88 3e d8 c2 25 3f 63 cc 9e be
       0.56806225 0.2665165 0.6475043 -0.3101531
0002d0 ff bc 77 bf fd 71 a9 3e ee 8e 2c 3e d8 cd 54 bf
       -0.9677276 0.3309478 0.16851398 -0.8312659
0002e0 96 31 2f 3d 33 c3 1c bf 51 ef 6e 3e 34 6a a9 3e
       0.0427719 -0.6123535 0.2333348 0.3308884
0002f0 33 22 97 3d 6c a6 1b 3f c0 a5 ad bd f7 81 e2 be
       0.0737957 0.60800815 -0.0847888 -0.4423978
000300 2e 83 1d 3e 6a 59 8b be 01 ef 53 3d cb 00 b7 3e
       0.15382072 -0.27216655 0.051741604 0.35742792
000310 35 51 30 3e f5 fa da 3e 73 f8 76 bf 0a d9 cd 3d
       0.17218478 0.4276959 -0.96472853 0.100511625
000320 0d 5e 2e be f6 18 5b 3e 8c 92 80 3e 8e 02 00 3f
       -0.17028065 0.2139624 0.25111806 0.500039
000330 22 9c 31 3e 85 7c a1 be 79 1f ef 3e ac 09 dd 3e
       0.17344716 -0.31540313 0.467037 0.43171442
000340 06 28 1b 3e 00 58 a4 3e 8b 69 a8 be d5 d7 22 bc
       0.15151986 0.3209839 -0.32893023 -0.009939154
000350 ba c5 da be bd 24 eb bd 84 26 0d bf 68 c6 ef be
       -0.42728978 -0.11481617 -0.55136895 -0.4683106
000360 14 40 27 3e e9 12 53 3e 0b d4 72 be e4 ab e5 be
       0.16333038 0.20612682 -0.237137 -0.44857705
000370 c7 76 fc 3e cb 02 9e be 3c 67 9c be da 5b d4 be
       0.4930937 -0.30861506 -0.30547512 -0.41476327
000380 87 a5 14 3f 58 79 fd be 67 d5 cf 3c 03 37 39 be
       0.58065075 -0.4950664 0.025370313 -0.18087392
000390 3e fa 18 bd 40 12 bb 3e c0 2f e7 3d bf 3d 34 3d
       -0.037348025 0.3653736 0.112884045 0.0440042
0003a0 4a 9a 03 bf d2 71 1b 3e 94 4e 04 bf a4 de 0d bc
       -0.514073 0.15180138 -0.516824 -0.008659039
0003b0 87 9e f4 bc 39 1d be 3e 3b 54 27 3f 58 67 a0 3e
       -0.029860748 0.3713167 0.653629 0.31328845
0003c0 5f 6c 08 3f 07 31 b2 3e 2c 75 a3 be ec 53 b3 bd
       0.5329036 0.3480303 -0.31925333 -0.08756241
0003d0 ab d5 02 3e ba 9f 64 be f2 97 65 bd 21 54 f6 bd
       0.1277682 -0.22326556 -0.05605311 -0.12027765
0003e0 28 12 13 3f 30 53 da 3d 98 6b c5 be 5e 7a 32 3e
       0.5744958 0.10660398 -0.3855865 0.17429492
0003f0 08 b6 0b bf 54 a6 83 bd 54 fa 96 3d 70 39 ba be
       -0.5457463 -0.06428209 0.07371965 -0.36371946

actor.2.bias f4 [64]
000000 29 88 11 be 6e 7c 6e be 59 94 59 3d 59 43 e1 bd
       -0.14212097 -0.23289654 0.05311999 -0.10999174
000010 f4 9f 8c be ed 72 83 3e 69 5e 22 bf cc 66 8e be
       -0.27465785 0.2567362 -0.6342531 -0.27812803
000020 9f 42 bb 3d 14 4e a2 3d 4f ae 2e 3e b3 84 9f 3e
       0.09143566 0.079250485 0.17058681 0.3115593
000030 8a a1 30 3e 01 9f 5b 3d c2 58 e2 3d 2a d1 2b 3e
       0.17249122 0.053618435 0.110520855 0.16779009
000040 bc 88 f7 3e a2 b0 a5 be 05 ac a5 be 59 68 ae 3e
       0.48346508 -0.32361323 -0.32357803 0.34063986
000050 2d b7 95 be 8d 1b 85 be 55 84 98 bd f7 cd 7b 3e
       -0.29241315 -0.25997582 -0.07447115 0.24590288
000060 1a f0 a6 be d6 9e 97 be 23 d1 ae 3e 02 04 bc be
       -0.32605058 -0.2961337 0.34143934 -0.36721808
000070 38 56 18 3d 5a 35 ed be b2 0e 0b bd ff 29 f3 bd
       0.0371916 -0.46329767 -0.03394956 -0.118732445
000080 a4 2c 9d 3c d5 37 89 bd c9 b3 99 bc c5 8a 17 3d
       0.019186325 -0.06700102 -0.018762486 0.036997575
000090 9f 1f bc 3e e7 34 f2 3e fe 22 10 bb a5 9c ed 3e
       0.36742875 0.47305986 -0.0021993513 0.46408573
0000a0 21 09 9e 3d 0e 6f 83 3d ba ba dd 3d a9 c4 60 be
       0.07716585 0.064176664 0.10826631 -0.2195002
0000b0 d6 cc 3f 3e 39 79 02 3f b3 15 56 3d bb 56 db bd
       0.18730482 0.5096622 0.052266788 -0.10709902
0000c0 11 7b 38 bc 0d dc 63 be 57 0b 22 3f ac 78 db bc
       -0.01125981 -0.22251911 0.63298553 -0.02679094
0000d0 13 c2 34 be 75 a2 12 3e 64 d2 ec 3e 23 d6 cb 3e
       -0.17652158 0.14319785 0.46254265 0.3981181
0000e0 62 45 1b 3f 10 be 00 bf 6a ec b4 3e ad 9f 8f 3e
       0.60652745 -0.5029001 0.3533662 0.2805151
0000f0 90 cb a4 bc 56 41 d4 bc c2 71 e4 bd 57 51 b8 be
       -0.020116597 -0.02591006 -0.1115451 -0.35999557

actor.4.weight f4 [6, 64]
000000 97 14 53 3c 9a 15 64 3e bd 3c 02 be 49 0d 88 bd
       0.012883327 0.22273865 -0.12718482 -0.06643159
000010 dc c7 d2 3e 3c cf 84 be af 87 f1 3d b9 16 3b bd
       0.41168106 -0.25939357 0.11793458 -0.045675967
000020 70 2c 1f bd 25 fa 40 3d 5e d1 ca bd 84 6d 12 be
       -0.03886074 0.047113556 -0.09903215 -0.1429959
000030 5d b6 b2 be d1 7a bd bd 61 b6 c0 bd 1d 98 87 bc
       -0.34904757 -0.09251941 -0.09409786 -0.016552025
000040 1a 4b aa be e4 5a 77 3d cc b8 bd 3d d3 70 2e bd
       -0.33260423 0.060389414 0.09263763 -0.042588066
000050 a6 ac 09 3c 6a 5f d8 bc 94 28 e8 3c 18 70 a2 bc
       0.008402979 -0.026412684 0.028339662 -0.019828841
000060 56 6b 76 bd ae 21 e1 bd bb 2c 20 be fe c0 4c 3d
       -0.060160957 -0.10992752 -0.15642063 0.04998874
000070 bd d6 3d bc 26 8e b4 3d e0 f1 d3 3c 51 fb e2 3c
       -0.011586842 0.08816175 0.02587217 0.027707728
000080 1e 00 93 bd 92 68 2d bd ca bc ea bc 80 9b 0b be
       -0.07177757 -0.042336054 -0.028654475 -0.13633537
000090 fa f2 08 be 16 c9 85 3d bb 3e 45 3e 7d f0 dd 3c
       -0.13373938 0.06532495 0.19262211 0.027092213
0000a0 ea 82 44 3d f0 8c 08 3c 1e 32 3d 3d 54 70 d0 3d
       0.047976412 0.008334383 0.046190374 0.10177675
0000b0 64 2a 17 3c f9 a4 ea 3e 77 4c f9 ba 63 1b ee 3d
       0.009226415 0.4582899 -0.0019019981 0.11626317
0000c0 db fa 86 3d 0a ef 62 bd 3c 95 19 3f 91 fd 50 bf
       0.06590816 -0.055403747 0.5999334 -0.8163691
0000d0 f0 84 ca bd 9a 85 ab 3d 14 fe 67 bd c9 a2 4a 3e
       -0.09888637 0.08375092 -0.056638792 0.1978866
0000e0 9f ea 9f 3d f9 f5 99 be 69 63 73 3e f8 31 c1 3c
       0.07808422 -0.30070475 0.2376839 0.023583397
0000f0 90 87 d5 bd 1e ad 8a 3d f0 72 78 3d 54 af 9e 3d
       -0.10426247 0.06771301 0.060656488 0.07748285
000100 fc 24 06 3e 08 c6 db bc f5 b4 77 bd a3 7a db 3e
       0.13100046 -0.026827827 -0.06047531 0.42867002
000110 df ff ce be 4c 2c b3 3d c4 d9 4c bf 77 21 68 bd
       -0.4042959 0.08748683 -0.80019784 -0.05667254
000120 07 d8 2a 3f 7f 14 95 3d 39 83 24 3e c6 f7 9e 3e
       0.6673588 0.072793 0.16065682 0.3104841
000130 54 f0 d1 be 41 4d 5e 3d 8a cd 08 3f e3 0f 4f bd
       -0.41003668 0.054272894 0.5343863 -0.05055226
000140 2f 09 2c 3f 94 02 94 bd a1 9a 1f 3e 89 ea c0 be
       0.67201513 -0.07227054 0.1558633 -0.37678936
000150 92 75 df bd 4b d5 21 3e 6d 7b b1 3d 90 82 b5 3c
       -0.10911097 0.15804021 0.0866612 0.022156984
000160 3c 16 ed bd 39 4c 10 bf ae f6 58 3e ac 7b f2 3e
       -0.115765065 -0.56366307 0.21187851 0.4735998
000170 86 a2 a1 be 56 67 03 be 7b 99 59 3d c6 cd 16 bf
       -0.31569308 -0.12832388 0.053124886 -0.58907735
000180 51 4e a6 be 24 1c 68 bd 79 ed 70 3e 10 11 fc bd
       -0.32481626 -0.056667462 0.23528089 -0.12307942
000190 1a ad c8 3e e1 70 a7 bf b9 cc d0 be 8a 11 8f bf
       0.39194566 -1.3081323 -0.4078119 -1.1177227
0001a0 7d 81 e2 be 82 1e 65 be 1c 22 14 bd f8 85 0c be
       -0.44239417 -0.22374919 -0.03616534 -0.1372298
0001b0 a2 70 e7 3d fd 80 6d bf d4 36 29 be 57 29 a5 3e
       0.1130078 -0.92774945 -0.16524822 0.32258102
0001c0 c3 08 9b 3e 6a ae 7d be 7a 40 8f bf f8 79 28 bf
       0.30280122 -0.24773565 -1.1191552 -0.6581111
0001d0 30 75 bb 3c ea b0 26 3c 2c f9 cc 3e 61 81 4a be
       0.022883028 0.010174016 0.40033853 -0.19775917
0001e0 da 95 89 3f 98 47 22 bf f2 80 96 bd 87 b2 eb be
       1.0748856 -0.63390493 -0.07348813 -0.46034643
0001f0 02 a8 88 3e c8 24 de bd 64 9c 59 be 04 93 92 bd
       0.2669068 -0.10846859 -0.21251065 -0.07156947
000200 5e eb 23 be 2e 62 82 be 26 d6 4d 3e 56 d5 b2 be
       -0.16007754 -0.2546553 0.20101222 -0.34928387
000210 d1 9e ce bd 8e e4 66 3e 30 2f 15 3f d8 fe 6b 3d
       -0.100888856 0.22548124 0.5827513 0.057616085
000220 6f c4 18 bf 6a 92 16 be c8 1f 12 bd ec fc fc bd
       -0.59674734 -0.1470429 -0.03567484 -0.123529285
000230 9c 0b 41 3f 49 26 a4 3c 1e b8 c7 be 37 e0 b4 3d
       0.7540834 0.020037787 -0.39007658 0.08831828
000240 ea 22 83 be 72 5c 4d bd 91 1c 91 be d1 1d ee 3e
       -0.25612575 -0.05013699 -0.28342107 0.46507123
000250 aa ba 89 3d 7a f0 4a be 65 48 fa bd 1c 03 10 3c
       0.067250565 -0.19818297 -0.122208394 0.008789804
000260 a7 5f 18 3e 36 e9 1f 3f c2 20 59 3c e4 35 09 bf
       0.14880238 0.62465227 0.013252439 -0.53597856
000270 6c d8 ac 3e b9 fb 86 bb 5d 4d c5 bd 3c 8b 06 3f
       0.33758867 -0.004119363 -0.096338965 0.52556205
000280 24 0b ce 3e ae 52 df 3d ec e2 51 be 56 ac 96 3e
       0.40242875 0.10904442 -0.2049672 0.29428357
000290 57 6c 70 be 81 5d a0 3f ca 65 58 3e cf 37 8e 3f
       -0.23478828 1.2528535 0.2113258 1.1110781
0002a0 53 ee d0 3e 04 d8 3e 3e 1d 12 1e 3c 5e 56 60 bc
       0.40806827 0.18637091 0.009647873 -0.013692467
0002b0 78 0f b1 bd 61 37 e4 3e cb ad 27 3e b6 09 fc be
       -0.086455286 0.445735 0.1637489 -0.4922616
0002c0 fc fc aa be 9c 55 a0 3e 4f 97 fe 3e 6f be bc 3f
       -0.33396137 0.31315315 0.49724814 1.4745616
0002d0 37 24 5d 3d 50 b9 dc bd 36 f0 98 be 68 ec a2 3c
       0.053989615 -0.10777533 -0.29870766 0.019888118
0002e0 96 fd 8c bf ff 5d 68 3f 26 5e 01 be b0 9b e8 3e
       -1.1014888 0.90768427 -0.12633571 0.4543128
0002f0 41 08 04 be 30 6e 74 3c 1b 9a 14 3e 6d c1 bd bc
       -0.12893774 0.014918849 0.14511912 -0.023163522
000300 38 f7 a7 3d b6 17 9e 3e 14 73 e7 bc 1e 06 32 3e
       0.0820145 0.30877465 -0.028253116 0.17385146
000310 a1 e0 6f be db a6 1a 3e d7 a0 d8 be bf 14 43 be
       -0.23425533 0.15102713 -0.4231021 -0.19050883
000320 dd 90 45 be 22 50 fe bd 33 6b 1a be 42 73 70 3d
       -0.19293542 -0.12417628 -0.15079956 0.05870367
000330 82 f4 34 3e f0 e5 ae bd 90 9a ec 3d 1e 3e 5a bd
       0.17671397 -0.08539951 0.11552918 -0.053281896
000340 d0 66 88 3d c5 20 5a be 5b 87 19 3f 36 6e 89 3c
       0.06660235 -0.21301563 0.5997216 0.016776185
000350 61 5c fe bd 27 6c 6e bd cf b8 91 bd 8e 74 9d bd
       -0.12419964 -0.05820861 -0.071153276 -0.07688247
000360 08 f5 52 be 16 89 09 3e ca ae 72 3e 2f 0f 34 3d
       -0.20601285 0.134312 0.23699489 0.043959793
000370 bb 7d b7 3d 21 12 76 3d a5 25 23 be 74 4c 31 3d
       0.08959528 0.060075883 -0.15932329 0.043285802
000380 26 2d 04 bc 43 5f b1 3d 03 f1 8e bd c5 34 3c 3e
       -0.008067405 0.08660748 -0.06979563 0.18379505
000390 2b 39 29 be 30 4b 8a 3e be d8 ed 3b 91 80 f9 be
       -0.16525714 0.2701049 0.0072585037 -0.487309
0003a0 3a ff a1 be 74 41 08 3e df 87 81 3e 9f e7 a3 3e
       -0.31640035 0.13306218 0.25298974 0.3201265
0003b0 5b 9e 99 be da 87 b7 3e f9 bc 35 be 98 d1 cb 3b
       -0.30003628 0.35845834 -0.17747869 0.006220054
0003c0 a7 f3 d6 bd a2 81 67 3e 2e b7 44 be 1d 28 83 bc
       -0.10495692 0.22608045 -0.19210503 -0.016010338
0003d0 cd 23 9e 3e f6 98 94 3d 24 20 8c be 54 f2 1e 3f
       0.3088669 0.072557375 -0.2736827 0.62088513
0003e0 30 3c 99 3d f2 cc 82 bd cf 44 2d 3e a4 95 0b 3f
       0.07482183 -0.063867465 0.1692078 0.5452521
0003f0 2a 52 f1 bd 5c ba 2b 3e 81 dc 2b 3c 42 6d 39 3e
       -0.1178325 0.16770309 0.010489584 0.18108085

actor.4.bias f4 [6]
000000 99 58 12 bf de bc be 3e f4 bb 9b 3e 76 cf 43 3d
       -0.5716644 0.3725347 0.30416834 0.047805272
000010 21 e7 04 3d 38 46 b8 bc
       0.032446984 -0.02249442
