Plotting/saliencies_live/Multi_Pong/Sequence_Length_1/multi_pong_1__1__1721853303_checkpoint_2888.pt (torch, 86706 bytes, 11 tensors)

critic.0.weight f4 [128, 12]
0.5081744 0.036976982 0.09968526 -0.4044345 -0.24776196 0.3286779 -2.2436748 2.0600088
-0.042238235 -0.029658474 0.08511742 0.19974512 0.005177746 -0.0016002195 -0.054170903 -0.015586554
-0.0057680123 -0.27186424 0.0008638185 -3.9213974 0.0012641232 0.28059217 0.040672027 4.01649
0.23590013 -0.010487072 -0.063301966 -0.014654738 -0.01042617 0.004004517 -0.010737402 -0.120082475
0.23237629 0.19725609 0.21222508 3.2542622 -0.30523032 0.19905448 -0.22061877 -0.03872338
0.2806303 -0.09818976 2.4305558 -0.757647 0.023114974 0.02573901 -0.7047715 -0.041525863
0.045549046 0.0064637302 -0.038391393 -0.0055314363 0.17329274 -0.08379131 3.972301 -2.0832171
0.01117797 -0.12362799 0.1638875 -2.5137653 -0.08711195 -0.0067862757 -0.11121483 0.008384342
0.00039493313 0.02582913 0.35929227 3.273781 0.026562441 0.00063953584 0.109342024 0.33396217
0.1185311 -0.011858513 -0.2114285 0.012145123 -0.030450102 -0.021785824 -0.113746665 -0.10294119
-0.28465617 0.31714442 -3.0969594 3.054361 0.2530397 -0.00062089134 -0.027500516 -0.020606693
-0.05406102 0.15413292 -2.5067399 1.7534527 0.11260733 -0.06361606 0.46825668 -0.33704522
-0.1624418 -0.00029008574 0.044454362 0.0012066531 0.006015387 0.002853475 0.05662693 0.070394434
-0.12928157 -0.12562704 -4.5388784 -4.627887 0.64200044 -0.41938722 0.65624475 -0.063038655
-1.2065824 0.46704507 -0.8202592 0.42358783 0.043817993 0.0040674135 0.1598263 -0.07760793
1.1049439 0.02811961 0.8997634 -0.02409777 0.009555783 0.0012441266 0.38314104 -0.005873482
-1.8512341 0.013968311 -0.14521702 -0.107219875 -0.09938706 0.0030569478 0.014853276 0.014729011
0.120965175 -0.11208907 4.035793 -3.9443564 0.020111402 -0.000966738 0.19238947 0.053013016
0.048158683 0.031038169 -0.05707504 0.03598239 0.048139714 -0.20071311 0.3708301 -0.6185326
-0.038440164 0.01514145 -0.17917986 -0.05582117 0.104590215 0.0016418514 0.12290823 0.006833235
0.00890325 0.00050911214 -0.63857925 -0.05727532 -0.06288567 -0.015104809 -2.6176612 0.024913345
0.019205697 -0.0012202398 0.015682552 -0.0007502611 -0.0059094126 0.010006955 1.9409299 1.6155162
-0.018573208 0.010932191 -1.524728 0.026727626 -0.031887624 -0.016365413 -0.08701333 -0.0098529225
-0.14267093 0.009643252 -2.6951642 0.14071774 0.16545631 0.01434931 3.3036532 -0.04098019
0.029856248 -0.008953367 -0.03473843 0.006593044 -0.08088532 -0.029963193 -3.2593856 -0.72133267
0.013009167 0.08653354 0.2914576 3.674934 -0.06476661 -0.03298403 0.13621472 0.0052509806
0.2868142 0.0176781 2.6594594 0.020906173 -0.2769029 0.02992939 -2.2965262 0.08250593
0.3824499 -0.052043553 0.15023266 0.6116543 -0.20105125 -0.59427994 -0.07910723 -1.155588
-0.02094515 0.054633196 0.08014415 0.18050456 0.0068953917 -0.001907523 0.071938716 -0.014748318
-0.0132257305 -0.05187884 0.37641317 -1.6670154 0.07849471 -0.01408241 2.1605806 -0.25535953
-0.048461746 -0.009031765 0.10552422 -0.0053248373 0.07977997 0.0061295326 1.1044605 0.062385313
0.13538975 -0.006018765 4.307815 -0.011694575 0.2935209 0.027556764 0.1423338 -0.26762974
00000000: b817 023f 2d75 173d c927 cc3d 0a12 cfbe
00000010: 50b5 7dbe 7848 a83e 5e98 0fc0 2fd7 0340
00000020: 0002 2dbd 54f6 f2bc 0b52 ae3d fc89 4c3e
00000030: 15aa a93b 75be d1ba 4fe2 5dbd bf5e 7fbc
00000040: 9801 bdbb ca31 8bbe e171 623a 2df8 7ac0
00000050: f0b0 a53a c7a9 8f3e b697 263d 1687 8040
00000060: ce8f 713e f8d1 2bbc 76a4 81bd 6d1a 70bc
00000070: 87d2 2abc 5338 833b eeeb 2fbc cded f5bd
00000080: 0df4 6d3e 80fd 493e 8851 593e d545 5040
00000090: 2647 9cbe f0d4 4b3e e3e9 61be 689c 1ebd
000000a0: c6ae 8f3e b717 c9bd 3a8e 1b40 27f5 41bf
000000b0: 9d5b bd3c 9eda d23c e86b 34bf 0617 2abd
000000c0: a391 3a3d b3cd d33b 4b40 1dbd 0d41 b5bb
000000d0: a773 313e c79a abbd 2e3a 7e40 6e53 05c0
000000e0: ce23 373c ac30 fdbd 20d2 273e 88e1 20c0
000000f0: c067 b2bd 685f debb 9ac4 e3bd 7b5e 093c
00000100: 070f cf39 9d97 d33c 28f5 b73e a185 5140
00000110: 7a99 d93c 86a6 273a b6ee df3d 17fd aa3e
00000120: 6fc0 f23d 354a 42bc b680 58be 57fc 463c
00000130: 7e72 f9bc 2f78 b2bc 03f4 e8bd d5d2 d2bd
00000140: 74be 91be c160 a23e 9534 46c0 a77a 4340
00000150: 6b8e 813e 50c3 22ba c348 e1bc 5ecf a8bc
00000160: 176f 5dbd 05d5 1d3e 6d6e 20c0 2371 e03f
00000170: ac9e e63d 2349 82bd 57bf ef3e 3191 acbe
00000180: 2557 26be a616 98b9 c715 363d 8f28 9e3a
00000190: b91c c53b 5e01 3b3b a4f1 673d f52a 903d
000001a0: 6362 04be 60a4 00be 7e3e 91c0 a617 94c0
000001b0: 245a 243f ecb9 d6be a8ff 273f 691a 81bd
000001c0: 4b71 9abf 8820 ef3e 82fc 51bf 81e0 d83e
000001d0: 7f7a 333d f047 853b 81a9 233e e8f0 9ebd
000001e0: cd6e 8d3f 195b e63c e556 663f b068 c5bc
000001f0: dc8f 1c3c f611 a33a 102b c43e 5776 c0bb
00000200: 3df5 ecbf 58db 643c c5b3 14be 1896 dbbd
00000210: 718b cbbd 1357 483b 285b 733c f351 713c
00000220: 97bc f73d f48e e5bd 3725 8140 5670 7cc0
00000230: abc0 a43c b06c 7dba bf01 453e 2d24 593d
00000240: 0a42 453d c243 fe3c 84c7 69bd 4562 133d
00000250: 262e 453d bd87 4dbe 71dd bd3e 2758 1ebf
00000260: 6f73 1dbd d813 783c ed7a 37be bda4 64bd
00000270: 6533 d63d 6433 d73a 4fb7 fb3d 54e9 df3b
00000280: f0de 113c f075 053a ee79 23bf 8799 6abd
00000290: 34ca 80bd 297a 77bc c387 27c0 1217 cc3c
000002a0: 4455 9d3c 74f0 9fba b278 803c 2cad 44ba
000002b0: bfa3 c1bb 36f4 233c 6470 f83f 3cc9 ce3f
000002c0: d726 98bc ef1c 333c 492a c3bf e5f3 da3c
000002d0: 999c 02bd c210 86bc 0b34 b2bd 276e 21bc
000002e0: 5418 12be bbfe 1d3c 927d 2cc0 5018 103e
000002f0: 616d 293e 5e19 6b3c 0e6f 5340 d8da 27bd
00000300: 1795 f43c 25b1 12bc e249 0ebd 760a d83b
00000310: 34a7 a5bd 5f75 f5bc c699 50c0 42a9 38bf
00000320: 6724 553c 7f38 b13d ee39 953e 1e32 6b40
00000330: 5ba4 84bd 431a 07bd df7b 0b3e 6b10 ac3b
00000340: 50d9 923e aad1 903c 9534 2a40 6c43 ab3c
00000350: 38c6 8dbe 7b2e f53c 49fa 12c0 def8 a83d
00000360: 79d0 c33e 9f2b 55bd 97d6 193e 6095 1c3f
00000370: 61e0 4dbe bb22 18bf f902 a2bd 4fea 93bf
00000380: 2a95 abbc 0fc7 5f3d 9e22 a43d 30d6 383e
00000390: bdf2 e13b da05 faba 9b54 933d eea2 71bc
000003a0: bcb0 58bc e87e 54bd 3ab9 c03e c360 d5bf
000003b0: d6c1 a03d e9b9 66bc f446 0a40 7cbe 82be
000003c0: d37f 46bd f8f9 13bc 151d d83d f97b aebb
000003d0: ae63 a33d 3fda c83b f65e 8d3f be87 7f3d
000003e0: 9ca3 0a3e 0f39 c5bb 9fd9 8940 9a9a 3fbc
000003f0: 5f48 963e b9be e13c f4bf 113e c406 89be

critic.0.bias f4 [128]
0.27000228 0.03588676 0.07562849 -0.10353763 -0.034095455 0.020177335 -0.009897831 0.0633743
0.06659446 0.5597962 0.8818427 -0.039903346 -0.045837518 0.006206254 -0.015330682 0.043616135
-0.09002608 -0.07000297 0.14636461 0.036352586 0.013643411 0.128634 -0.091009796 -0.18484512
0.05761292 0.030341147 0.182971 -0.013094645 -0.086960584 -0.048850555 -0.063369825 0.10202483
-0.025247147 0.20083186 0.28020984 -0.045607865 0.065402776 -0.02327035 0.029385475 0.0053489706
0.15872818 -0.12007204 0.025174787 -0.0852865 0.03033988 0.7477 -0.07529981 0.031094994
0.031996064 0.027155159 -0.0707493 0.010053841 0.22866908 0.004672192 0.08131177 0.22200996
0.04821471 0.0025132592 -0.054081295 -0.32344422 -0.024610667 -0.034011215 -0.22281064 0.88708776
-0.07804118 0.33061373 -0.053783868 -0.03861606 0.030711008 -0.1400659 -0.084457114 0.030792365
0.054043572 -0.11076338 -0.07417453 0.029552499 0.07605933 0.04176366 -0.36805052 0.01402765
0.09131895 0.23235925 0.0400534 0.064444676 -0.08037524 -0.06056536 -0.023482053 0.4220056
0.02886209 -0.11369713 0.019058809 -0.069105275 -0.036305636 0.019383615 0.049031645 -0.14986683
0.053323157 -0.11988761 0.008091268 0.19760925 -0.0057525598 0.022512902 -0.061336946 -0.071233116
-0.09954013 -0.13645607 0.47629088 0.019298742 0.04433159 0.04952935 0.08471371 -0.011289053
-0.056366567 -0.018880786 -0.042556934 0.033066314 -0.039771426 -0.07144198 -0.012131984 0.18639478
-0.09834452 0.049112342 0.004893523 -0.08029347 0.04572438 -0.057759915 0.045898117 -0.042211324
00000000: bd3d 8a3e fffd 123d 1ce3 9a3d 890b d4bd
00000010: ada7 0bbd f04a a53c 832a 22bc 63ca 813d
00000020: ad62 883d ce4e 0f3f 71c0 613f b171 23bd
00000030: 1fc0 3bbd d55d cb3b 8a2d 7bbc d5a6 323d
00000040: 985f b8bd b85d 8fbd 9be0 153e 73e6 143d
00000050: 9d88 5f3c a2b8 033e 5863 babd 0a48 3dbe
00000060: 86fb 6b3d ff8d f83c c05c 3b3e ec8a 56bc
00000070: 6418 b2bd 8517 48bd 0ac8 81bd 65f2 d03d
00000080: 1bd3 cebc dea6 4d3e aa77 8f3e 50cf 3abd
00000090: e4f1 853d 76a1 bebc cfb9 f03c 6b46 af3b
000000a0: a489 223e 54e8 f5bd 5b3b ce3c b0aa aebd
000000b0: 578b f83c 4469 3f3f c936 9abd eeba fe3c
000000c0: 4e0e 033d 7f74 de3c 02e5 90bd deb8 243c
000000d0: 3a28 6a3e 3019 993b c986 a63d 9456 633e
000000e0: ca7c 453d 7eb5 243b 5984 5dbd 7b9a a5be
000000f0: 4f9c c9bc 584f 0bbd 7928 64be 2f18 633f
00000100: 0ed4 9fbd 3446 a93e 794c 5cbd e02b 1ebd
00000110: a795 fb3c 6f6d 0fbe daf7 acbd 4540 fc3c
00000120: cb5c 5d3d e9d7 e2bd d1e8 97bd 1518 f23c
00000130: fec4 9b3d 5f10 2b3d 1e71 bcbe 3ad4 653c
00000140: 6e05 bb3d 95ef 6d3e 090f 243d 92fb 833d
00000150: c69b a4bd 6213 78bd 6f5d c0bc 1e11 d83e
00000160: 3170 ec3c 0ada e8bd 3821 9c3c 1187 8dbd
00000170: 38b5 14bd 63ca 9e3c 68d5 483d b176 19be
00000180: 6269 5a3d a387 f5bd 3d91 043c 145a 4a3e
00000190: f87f bcbb fa6c b83c 733c 7bbd abe2 91bd
000001a0: b2db cbbd 24bb 0bbe 66dc f33e 6518 9e3c
000001b0: 0b95 353d 4adf 4a3d 627e ad3d b8f5 38bc
000001c0: a1e0 66bd e1ab 9abc 2e50 2ebd 8b70 073d
000001d0: 5de7 22bd 2c50 92bd 3bc5 46bc 46de 3e3e
000001e0: da68 c9bd 062a 493d d959 a03b e770 a4bd
000001f0: 7d49 3b3d a995 6cbd aaff 3b3d c8e5 2cbd

critic.2.weight f4 [64, 128]
-0.3223369 0.25261337 -0.06556477 0.54884887 0.5395084 -0.1351163 -0.25056094 -0.036344275
0.4404264 -0.775408 0.061296187 0.07555109 0.06631013 -0.4819287 0.27545175 -0.22388817
-0.40358356 0.053583294 -0.041469853 0.2968123 -0.24146271 0.110520996 -0.064056024 0.1643284
0.040591992 0.108076416 0.038977046 0.42974022 -0.34071383 0.29317513 -0.018085085 0.64688885
-0.2093684 0.056839414 0.1478535 0.39808923 0.4237791 0.3069225 0.35523587 -0.18485466
-0.06441211 -0.23826636 0.022768179 0.38218594 0.37635756 0.43803996 0.078869574 -0.41689026
-0.47786438 -0.1797365 0.16279608 0.049102664 0.36858982 -0.19728656 -0.26543856 -0.08350879
-0.25994608 0.101592496 -0.3163757 0.2900328 0.11392706 0.04089324 -0.3487539 -0.43302318
-0.21767876 0.27964056 0.19051307 -0.113120675 -0.1757385 -0.16064894 0.3767627 0.4565024
0.08728551 0.14599778 -0.018865407 0.025756786 0.31496444 -0.020097328 0.049244177 -0.52333695
-0.14667776 0.017381249 0.0050582914 0.4236095 0.038360856 -0.4068176 -0.21332891 0.1734468
-0.3947951 0.19382536 -0.096484244 -0.14879213 0.1682607 0.3196092 0.06151796 0.064684026
-0.2334841 -0.18781823 0.28928295 0.13773447 0.19398525 -0.12015971 -0.23280242 0.07238087
-0.021933978 -0.13654527 -0.026989257 0.03223888 -0.33910578 0.34786442 -0.369348 0.033906914
0.41742057 0.401704 -0.096977875 -0.00069456396 -0.2595732 0.29773998 0.05428433 0.29702944
0.8245239 0.06471667 0.23724577 0.00519591 0.03737961 0.03129666 -0.05980989 -0.36137807
0.23058864 -0.30087426 -0.003600216 0.3208442 -0.16396646 0.00017679502 0.065660246 0.14910361
-0.88483024 -0.6314409 0.009238874 -0.5536547 0.0147750275 -0.7685326 0.15694778 -0.66813713
0.38194793 0.1475122 -0.047789373 -0.011457214 0.5024257 -0.178551 0.06756423 -0.046311677
0.33770996 -0.27723086 0.123384275 -0.8504113 0.137163 -0.5245235 0.12235203 0.12153583
-0.5171592 -0.099875055 0.192294 -0.42012456 -0.40861776 0.2574459 0.22169803 -0.32981667
0.9075262 -0.32332885 -0.7116305 -0.13473044 0.04512532 -0.5019992 -0.10857712 0.14145947
-0.40091473 -0.017630015 0.10130278 -0.64839005 0.048149966 0.29929 -0.24332407 -0.65115094
0.1917771 0.005849767 0.12028302 0.18521148 0.02009812 0.21251205 -0.47093266 -0.04507156
0.030671997 -0.27755165 -0.30738682 0.0034598634 0.07791253 1.3028874 0.2992565 -0.17221624
0.2734844 0.03651555 0.13485941 0.063811764 0.09894028 0.53684396 0.23999837 0.43492237
-0.2297766 -0.3421874 0.16416399 -0.45854887 -0.5637875 0.3759592 0.2365066 0.102841526
-0.59120506 0.011978868 -0.23258111 -0.15082005 0.53679407 -0.11620291 -0.0035844701 0.06295948
0.017757144 -0.561241 -0.6557964 0.23905152 -0.23264179 0.15032427 0.30600423 -0.11761908
0.07268471 -0.44352064 -0.15092307 -0.18556447 -0.10579475 -0.74664557 0.5393056 0.7793343
-0.080822416 -0.49553075 -0.44658017 -0.04599294 -0.1530834 0.79450315 0.058734387 -0.092896685
0.14246565 -0.0041294214 0.3919652 -0.45477137 0.28561425 0.044208486 -0.6238765 0.36477128
00000000: 5809 a5be 8a56 813e d246 86bd 5c81 0c3f
00000010: 391d 0a3f ed5b 0abe 8649 80be bcdd 14bd
00000020: 927f e13e 2481 46bf b611 7b3d 88ba 9a3d
00000030: 9bcd 873d 5cbf f6be 0308 8d3e f142 65be
00000040: 81a2 cebe 287a 5b3d 4bdc 29bd c8f7 973e
00000050: 0042 77be d558 e23d ce2f 83bd b445 283e
00000060: ca43 263d 2b57 dd3d 65a6 1f3d e906 dc3e
00000070: 0b72 aebe 0d1b 963e 2c27 94bc 829a 253f
00000080: ab64 56be 72d0 683d e866 173e 5ad2 cb3e
00000090: 93f9 d83e f224 9d3e 7ae1 b53e 8a4a 3dbe
000000a0: 7fea 83bd 19fc 73be 5584 ba3c e0ad c33e
000000b0: f0b1 c03e c646 e03e 5f86 a13d a472 d5be
000000c0: a4aa f4be d80c 38be 04b4 263e e01f 493d
000000d0: ceb7 bc3e 7d05 4abe 90e7 87be a806 abbd
000000e0: a717 85be ba0f d03d fffb a1be 2e7f 943e
000000f0: 9752 e93d ac7f 273d df8f b2be 37b5 ddbe
00000100: 2ee7 5ebe 0c2d 8f3e dc15 433e d0ab e7bd
00000110: cbf4 33be 2881 24be 0ae7 c03e afba e93e
00000120: bfc2 b23d 7180 153e a08b 9abc e5ff d23c
00000130: 0543 a13e 27a3 a4bc 43b4 493d 69f9 05bf
00000140: b232 16be 1f63 8e3c 06c0 a53b 58e3 d83e
00000150: 4620 1d3d 654a d0be e572 5abe 0a9c 313e
00000160: 9522 cabe 287a 463e 8899 c5bd f75c 18be
00000170: 884c 2c3e d1a3 a33e 42fa 7b3d 0f79 843d
00000180: 7516 6fbe 6c53 40be e51c 943e 440a 0d3e
00000190: 12a4 463e 4b16 f6bd c263 6ebe 6c3c 943d
000001a0: e3ae b3bc 86d2 0bbe 9318 ddbc ea0c 043d
000001b0: 469f adbe 491b b23e 2e1b bdbe fae1 0a3d
000001c0: 26b8 d53e 26ac cd3e 569c c6bd 6613 36ba
000001d0: c7e6 84be 6071 983e 3f59 5e3d 3e14 983e
000001e0: 0014 533f 2c8a 843d 8ef0 723e 7442 aa3b
000001f0: 5d1b 193d ed30 003d 37fb 74bd 8c06 b9be
00000200: 6e1f 6c3e 310c 9abe 9af1 6bbb b145 a43e
00000210: d3e6 27be 0d62 3939 e178 863d 9eae 183e
00000220: 3c84 62bf 1ca6 21bf a55e 173c 50bc 0dbf
00000230: f512 723c 8dbe 44bf ebb6 203e 090b 2bbf
00000240: ae8e c33e 700d 173e cabe 43bd 0ab7 3bbc
00000250: f89e 003f 13d6 36be 1d5f 8a3d 50b1 3dbd
00000260: 52e8 ac3e 34f1 8dbe e5b0 fc3d 8eb4 59bf
00000270: 7574 0c3e 2c47 06bf b393 fa3d c7e7 f83d
00000280: 8c64 04bf 4b8b ccbd b8e8 443e 911a d7be
00000290: 5936 d1be f3cf 833e cf04 633e bbdd a8be
000002a0: a353 683f 5c8b a5be 6b2d 36bf c7f6 09be
000002b0: 54d5 383d 0583 00bf ae5d debd c0da 103e
000002c0: b244 cdbe d26c 90bc d577 cf3d e4fc 25bf
000002d0: e638 453d 8a3c 993e f229 79be d4b1 26bf
000002e0: 3761 443e 67af bf3b f256 f63d 14a8 3d3e
000002f0: d0a4 a43c c29c 593e 161e f1be f59c 38bd
00000300: d743 fb3c 401b 8ebe ce61 9dbe e0be 623b
00000310: 9b90 9f3d 04c5 a63f 2638 993e 7459 30be
00000320: 2606 8c3e 5491 153d 9618 0a3e beaf 823d
00000330: 34a1 ca3d 9b6e 093f 22c2 753e 25ae de3e
00000340: 8f4a 6bbe 3033 afbe 9b1a 283e ebc6 eabe
00000350: 6154 10bf b97d c03e c92e 723e 949e d23d
00000360: 3759 17bf 0443 443c be29 6ebe 9270 1abe
00000370: 566b 093f cbfb edbd 6ee9 6abb e6f0 803d
00000380: 6e77 913c 7dad 0fbf 46e2 27bf ecc9 743e
00000390: a639 6ebe 9bee 193e 96ac 9c3e 46e2 f0bd
000003a0: b9db 943d 2315 e3be 948b 1abe 9d04 3ebe
000003b0: ebaa d8bd 2a24 3fbf ef0f 0a3f 7482 473f
000003c0: 3986 a5bd 35b6 fdbe 28a6 e4be 1863 3cbd
000003d0: e5c1 1cbe 8f64 4b3f 7893 703d 9e40 bebd
000003e0: 84e2 113e 1950 87bb aaaf c83e cbd7 e8be
000003f0: 083c 923e f513 353d 5fb6 1fbf 4dc3 ba3e

critic.2.bias f4 [64]
0.32919466 -0.22783464 -0.79698616 0.7738413 0.7878398 -0.44309962 0.09556413 -0.09795848
-0.25395012 0.041549463 0.11352641 0.26567262 0.19565046 -0.29237843 0.18155985 0.46598133
0.44185013 0.58960897 0.45967963 0.33157858 -0.13849431 0.15698673 0.614481 -0.02341282
-0.38950068 -0.34143317 0.48355547 0.00322715 0.55198836 0.43669942 -0.27295956 0.06933368
0.07372702 0.61515534 0.003958649 -0.39298108 -0.5481972 0.1355676 0.14298844 -0.17949796
-1.2126775 0.2537723 0.36619228 0.0116957575 0.10654584 0.27580065 -0.45598257 0.07064642
0.022264972 0.20356955 -0.19231807 0.41206434 0.29850036 0.037656847 0.32679653 -0.25546935
0.71214414 0.5786329 0.30333027 0.25703576 -0.14505175 0.118287556 -0.11686706 -0.5330999
00000000: 348c a83e 7c4d 69be 4907 4cbf 771a 463f
00000010: deaf 493f f4dd e2be 20b7 c33d 759e c8bd
00000020: c005 82be c52f 2a3d 8980 e83d 3e06 883e
00000030: 9858 483e a0b2 95be d3ea 393e 1b95 ee3e
00000040: 2e3a e23e 9df0 163f 215b eb3e abc4 a93e
00000050: 74d1 0dbe 21c1 203e a04e 1d3f 3ecc bfbc
00000060: a26c c7be 54d0 aebe 9594 f73e 987e 533b
00000070: 1c4f 0d3f 1197 df3e 5bc1 8bbe d1fe 8d3d
00000080: 31fe 963d d27a 1d3f 8eb7 813b d134 c9be
00000090: a756 0cbf 3cd2 0a3e 906b 123e 50ce 37be
000000a0: 0439 9bbf 71ee 813e 8e7d bb3e 909f 3f3c
000000b0: b534 da3d be35 8d3e 8c76 e9be 12af 903d
000000c0: 0865 b63c 8974 503e 07ef 44be 19fa d23e
000000d0: 0ad5 983e 113e 1a3d e051 a73e e1cc 82be
000000e0: 144f 363f 4921 143f 1b4e 9b3e 319a 833e
000000f0: 7288 14be bf40 f23d ff57 efbd 3c79 08bf

critic.4.weight f4 [1, 64]
0.19482698 -0.23578249 -0.1790392 0.18576396 1.9801172 -0.18461902 -0.35328606 -0.18728599
-0.35097936 0.19072269 0.17512228 0.12682621 0.25597236 -0.13745178 0.10893809 0.1826021
0.23476505 0.25813425 0.25494722 0.2089796 0.44629693 -0.41668865 0.27288315 -0.19384791
-0.2258725 -0.16320509 0.28791043 0.3442068 0.123366036 0.24298382 -0.42631254 0.19841933
0.25032333 1.2849232 -0.29628232 -1.1179637 -0.23344368 0.7026416 -0.5299331 -1.1504171
-1.4131775 0.19199395 0.15132518 -0.49759844 -0.16273715 0.17641973 -0.16737752 -0.17553793
0.20397322 0.17195773 -0.173766 0.38081837 0.29933226 0.19209725 0.8379676 -0.30275694
0.6105016 0.17750259 0.3058328 0.16166517 -0.21562107 -0.18295585 -0.13890578 -0.5428924
00000000: b980 473e f770 71be 0d56 37be e838 3e3e
00000010: 7b74 fd3f c50c 3dbe e9e1 b4be e6c7 3fbe
00000020: 91b3 b3be cf4c 433e 4153 333e bbde 013e
00000030: cf0e 833e 29c0 0cbe ef1a df3d 0bfc 3a3e
00000040: 4066 703e 2c2a 843e 7188 823e c0fe 553e
00000050: 0881 e43e 3758 d5be 57b7 8b3e 1180 46be
00000060: 1f4b 67be 3c1f 27be ff68 933e e03b b03e
00000070: 55a7 fc3d c0d0 783e a345 dabe 702e 4b3e
00000080: 612a 803e 5d78 a43f 51b2 97be 6f19 8fbf
00000090: dc0b 6fbe 52e0 333f b2a9 07bf de40 93bf
000000a0: 00e3 b4bf 109a 443e fdf4 1a3e 39c5 febe
000000b0: 91a4 26be 60a7 343e 0365 2bbe 37c0 33be
000000c0: 5bde 503e b015 303e b7ef 31be a0fa c23e
000000d0: 1442 993e 24b5 443e 0b85 563f f502 9bbe
000000e0: d549 1c3f 3dc3 353e 1e96 9c3e 8e8b 253e
000000f0: c5cb 5cbe c758 3bbe 513d 0ebe fffa 0abf

actor.0.weight f4 [128, 13]
-0.057763726 -0.2894771 0.6181671 -0.55499583 0.67988294 -0.5097619 -0.18323456 0.08011382
0.53268534 -0.10482754 -0.765884 0.12032145 0.7408989 0.111534946 0.016285231 0.11878996
0.021225587 0.15579036 0.21603873 -0.29598278 0.15387434 -2.9682543 -0.30887085 -0.16322704
0.3445693 0.1333905 0.07289254 -0.44077313 0.6599135 -0.41225046 0.8746841 0.731661
-0.22765955 0.19227584 0.4083161 0.20693481 -0.09064348 0.30881426 0.013847897 0.09385762
0.0011792226 -0.69861525 -0.031092774 0.49870172 1.7878295 -0.009182141 0.09764446 0.49644017
-0.37759745 0.25723895 0.30320844 -0.41246337 0.021171577 -0.609596 -0.14624876 0.028911347
0.3254843 -0.6151744 0.6656778 -0.53797346 -0.104237705 -0.38183132 0.17333858 -0.9107108
0.24924336 0.05472001 -0.05865387 0.110432595 -0.06626554 -1.5241045 -0.946686 0.23537028
0.122692086 -1.2594776 -1.1030585 -0.26454312 0.53082645 -0.3370031 -0.23416945 0.12918538
-0.17935538 0.0406582 0.6852153 -0.7335974 -0.6251065 0.38750523 0.06740866 0.8689468
0.46290806 -0.41924444 -0.2734647 -0.056875013 -0.18916415 -0.13474053 0.21624546 1.0070025
-0.47981092 0.11715783 -1.233438 -0.5194949 -0.22989549 -0.16005835 0.07489364 -0.10658565
-0.23130882 0.090298355 0.6107354 0.02273963 0.4554402 0.19300142 0.41370568 -0.27727824
1.0670455 -0.058901902 -0.24655232 0.17814966 -0.39886323 -0.07056699 0.5416144 -0.33636883
-0.35018826 -0.3788638 -1.00717 0.41708583 -0.15249093 1.5745435 0.44159442 -0.5882386
0.31145447 -0.0703915 0.25622562 -0.5561376 -0.58820486 0.49974617 -0.9296678 0.22461544
0.049509834 0.00780397 0.75775826 -0.26637396 0.28072724 0.09649478 0.1373066 0.081622474
-0.0068492624 -0.07683334 0.08399169 0.14345759 -0.054817878 -0.2385012 -0.14460783 -3.438249
-0.07766078 -0.08160145 -0.56274855 0.3171144 -0.04377804 -0.19095634 -0.4639744 0.28249815
0.8370021 -2.0038311 0.0068282806 0.07030581 -0.009546293 -0.067341775 0.020481337 -0.29408547
0.12678412 0.066332094 -0.23626773 0.08806242 -0.1423207 1.6374527 -1.5648507 -0.5370062
0.4109738 -1.0717866 0.9542091 -0.01806556 0.19551037 0.11916785 0.17165047 0.26949224
0.0565155 -0.03405941 1.2925848 0.08647169 0.36793405 0.36191094 -0.33826315 0.68134433
0.8750571 0.39592075 -1.3354896 -0.08310822 0.19142176 -0.32866937 0.31573567 -0.9461709
0.72743726 -0.2128026 0.05788769 0.83651465 -1.6442816 -0.41777468 0.32795197 0.035552956
0.041976925 -0.29453397 0.21291691 0.19290154 0.6342119 0.042578615 -0.40072846 0.15351205
-1.8063569 -0.5698647 0.5842891 -0.40665674 0.011394504 0.37493193 0.29869372 0.023703467
-0.53045225 1.0602291 -0.74830914 -0.22266237 0.18187694 -0.62032384 0.74376756 -0.0286335
-0.100083865 0.8106816 0.070931144 -0.8297789 -0.1719321 0.373125 -0.28997165 0.1969994
-0.06975321 0.022706384 -1.2844727 -0.14673007 0.5225142 -0.7581722 0.714424 0.3457715
-0.39649114 -0.2580978 -0.03605808 0.2695743 0.6075782 0.6973845 0.095862895 0.25561297
00000000: a899 6cbd 5836 94be 3340 1e3f 3514 0ebf
00000010: cf0c 2e3f c27f 02bf d7a1 3bbe b712 a43d
00000020: 115e 083f d2af d6bd f910 44bf 186b f63d
00000030: 8dab 3d3f 6f6c e43d 9b68 853c 2748 f33d
00000040: 48e1 ad3c 8287 1f3e 4239 5d3e 0e8b 97be
00000050: 3c91 1d3e e1f7 3dc0 5224 9ebe fd24 27be
00000060: 636b b03e 8597 083e af48 953d 04ad e1be
00000070: 17f0 283f 7e12 d3be 4ceb 5f3f 234e 3b3f
00000080: 961f 69be f5e3 443e cf0e d13e b8e6 533e
00000090: 4aa3 b9bd e71c 9e3e 4ae2 623c 6d38 c03d
000000a0: 2590 9a3a 73d8 32bf 46b6 febc d555 ff3e
000000b0: 99d7 e43f b170 16bc d2f9 c73d 682d fe3e
000000c0: 7454 c1be d3b4 833e 233e 9b3e 662e d3be
000000d0: 0470 ad3c 7c0e 1cbf 3cc2 15be 7dd7 ec3c
000000e0: e1a5 a63e 127c 1dbf dc69 2a3f a1b8 09bf
000000f0: 947a d5bd 657f c3be ab7f 313e 5824 69bf
00000100: a739 7f3e 1722 603d 0a3f 70bd 7c2a e23d
00000110: 3ab6 87bd db15 c3bf 045a 72bf e804 713e
00000120: fd45 fb3d 9036 a1bf 0531 8dbf 3272 87be
00000130: 3ee4 073f ac8b acbe 1eca 6fbe 2c49 043e
00000140: f0a8 37be 3689 263d 456a 2f3f 0acd 3bbf
00000150: fb06 20bf 1667 c63e 8d0d 8a3d 4c73 5e3f
00000160: 4902 ed3e 35a7 d6be 9103 8cbe c6f5 68bd
00000170: 3fb4 41be 6cf9 09be 736f 5d3e 75e5 803f
00000180: c7a9 f5be 72f0 ef3d 4ce1 9dbf 9efd 04bf
00000190: b969 6bbe 56e6 23be d661 993d 9449 dabd
000001a0: 38dc 6cbe 58ee b83d 2859 1c3f 7648 ba3c
000001b0: 752f e93e 2aa2 453e 3bd1 d33e 6af7 8dbe
000001c0: f294 883f 1f43 71bd 3678 7cbe dd6c 363e
000001d0: cd37 ccbe 6d85 90bd 3ea7 0a3f 8938 acbe
000001e0: e04b b3be 70fa c1be f2ea 80bf 468c d53e
000001f0: 9526 1cbe a48a c93f aa18 e23e ce96 16bf
00000200: f676 9f3e 6b29 90bd 0130 833e 095f 0ebf
00000210: 9894 16bf bbde ff3e b5fe 6dbf 9701 663e
00000220: d3ca 4a3d 72b8 ff3b 72fc 413f 2b62 88be
00000230: 7bbb 8f3e 0e9f c53d 1a9a 0c3e af29 a73d
00000240: c76f e0bb cc5a 9dbd d603 ac3d 8ce6 123e
00000250: b688 60bd a939 74be 1314 14be 460c 5cc0
00000260: 9d0c 9fbd a91e a7bd 4a10 10bf d25c a23e
00000270: 9a50 33bd 0f8a 43be 0d8e edbe 99a3 903e
00000280: c545 563f c53e 00c0 c5bf df3b 7efc 8f3d
00000290: 0e68 1cbc 7cea 89bd 7ac8 a73c 5f92 96be
000002a0: b2d3 013e 1fd9 873d 2bf0 71be 125a b43d
000002b0: 85bc 11be 0d98 d13f 074d c8bf 3d79 09bf
000002c0: 286b d23e 4e30 89bf 0c47 743f 3afe 93bc
000002d0: df33 483e 460e f43d 24c5 2f3e e3fa 893e
000002e0: cc7c 673d e181 0bbd 6b73 a53f 1218 b13d
000002f0: da61 bc3e 644c b93e d430 adbe 956c 2e3f
00000300: be03 603f 20b6 ca3e 53f1 aabf a434 aabd
00000310: 1104 443e 5a47 a8be 1ba8 a13e 4238 72bf
00000320: 5439 3a3f ede8 59be a41b 6d3d d325 563f
00000330: d277 d2bf 90e6 d5be 52e9 a73e fa9f 113d
00000340: ffef 2b3d 28cd 96be e406 5a3e fb87 453e
00000350: b65b 223f ea66 2e3d 482c cdbe 4332 1d3e
00000360: b436 e7bf a7e2 11bf f893 153f 5035 d0be
00000370: 04b0 3a3c 14f7 bf3e 62ee 983e c62d c23c
00000380: b8cb 07bf 96b5 873f 3091 3fbf 9b01 64be
00000390: f33d 3a3e 8bcd 1ebf 8d67 3e3f cd90 eabc
000003a0: c5f8 ccbd d488 4f3f 5944 913d 646c 54bf
000003b0: f80e 30be 3d0a bf3e 2a77 94be 36ba 493e
000003c0: c5da 8ebd bd02 ba3c 9a69 a4bf 6840 16be
000003d0: 7ec3 053f 9317 42bf 7ee4 363f f608 b13e
000003e0: e300 cbbe 6525 84be a3b1 13bd a505 8a3e
000003f0: 3f8a 1b3f ca87 323f c453 c43d b4df 823e

actor.0.bias f4 [128]
-0.034957144 0.19595784 0.096220635 0.0037713335 -0.063744605 -0.061443653 -0.10812518 0.03188558
-0.27693933 0.04417403 0.3136699 -0.041969117 -0.05284704 0.09990238 0.10060888 -0.044238847
0.063695 0.13364524 0.15609658 0.27410477 0.2163754 -0.095596105 -0.28251895 -0.05407353
0.15340161 -0.5011533 -0.25384068 0.22067225 -0.33483723 0.041118003 -0.11044259 -0.034019507
-0.3217136 0.12610534 -0.19221564 0.05506403 0.4246253 0.08987416 0.18683769 0.14016572
-0.13661718 0.4522186 -0.22497 -0.16207431 0.09528534 0.11074523 -0.060516175 -0.10979955
0.08142069 0.2981329 -0.42934257 0.22400543 0.118533626 -0.24372335 -0.097536735 0.1842087
-0.06567133 0.2804712 0.43573636 0.0109790135 -0.1361799 -0.21050975 0.014515201 0.55681676
0.35784924 0.051322073 -0.014082639 0.16206439 -0.014343815 -0.070224196 0.40470386 0.15133087
-0.102304384 0.023205142 -0.16856965 -0.23786907 0.08066172 -0.20687644 -0.1744627 0.23193641
0.15783525 -0.2299967 -0.16944468 -0.036149815 0.28866953 0.17282711 0.36442554 -0.06117436
-0.0024833996 0.049028408 -0.17648518 0.11015466 -0.25271657 0.026798472 -0.0016425647 0.3290838
-0.39470574 0.26825762 -0.38136426 0.2936004 -0.29418987 0.03993325 0.03710067 -0.037715774
-0.08838792 0.06340574 0.002153749 0.012162511 0.16098781 -0.16119358 -0.07589353 0.05390993
0.08884171 -0.45165658 0.06735087 0.2114545 0.07053827 0.23786472 -0.04281426 -0.04607131
0.104898065 -0.15098153 0.24791701 -0.013917367 0.09650905 -0.021776913 0.11662161 0.13127285
00000000: 392f 0fbd 2ca9 483e 530f c53d 7a28 773b
00000010: 888c 82bd 57ac 7bbd bc70 ddbd 749a 023d
00000020: feca 8dbe d4ef 343d 5799 a03e cfe7 2bbd
00000030: 2376 58bd 9e99 cc3d 070c ce3d cb33 35bd
00000040: 8672 823d 4cda 083e c8d7 1f3e 7657 8c3e
00000050: 8391 5d3e e4c7 c3bd 53a6 90be 357c 5dbd
00000060: 5015 1d3e 954b 00bf 68f7 81be e8f7 613e
00000070: c96f abbe 5a6b 283d ba2f e2bd 0a58 0bbd
00000080: a5b7 a4be c221 013e 2dd4 44be d28a 613d
00000090: 7d68 d93e f20f b83d 6152 3f3e 9a87 0f3e
000000a0: 60e5 0bbe 3289 e73e 895e 66be cff6 25be
000000b0: f624 c33d 65ce e23d cfdf 77bd 96de e0bd
000000c0: e4bf a63d e0a4 983e cad2 dbbe ae61 653e
000000d0: c2c1 f23d 9d92 79be 57c1 c7bd 35a1 3c3e
000000e0: b17e 86bd ec99 8f3e d618 df3e 52e1 333c
000000f0: be72 0bbe de8f 57be 2ad1 6d3c 8b8b 0e3f
00000100: 0438 b73e 1837 523d deba 66bc 35f4 253e
00000110: 5202 6bbc b4d1 8fbd 5835 cf3e 7bf6 1a3e
00000120: f684 d1bd b618 be3c 869d 2cbe f393 73be
00000130: f931 a53d 6bd7 53be 5aa6 32be bd80 6d3e
00000140: 909f 213e 4184 6bbe e882 2dbe d411 14bd
00000150: 7ecc 933e 97f9 303e fc95 ba3e f791 7abd
00000160: 88c0 22bb 03d2 483d 88b8 34be c498 e13d
00000170: 1164 81be 7888 db3c 534b d7ba ac7d a83e
00000180: df16 cabe 1059 893e 2d42 c3be cb52 963e
00000190: 0ea0 96be 0c91 233d dff6 173d db7b 1abd
000001a0: ba04 b5bd deda 813d ea25 0d3b 4545 473c
000001b0: fdd9 243e ee0f 25be 116e 9bbd a9d0 5c3d
000001c0: a4f2 b53d 883f e7be 41ef 893d 8787 583e
000001d0: 5e76 903d cf92 733e 015e 2fbd 45b5 3cbd
000001e0: ccd4 d63d e79a 1abe f5dd 7d3e ab05 64bc
000001f0: 89a6 c53d 7f65 b2bc 50d7 ee3d 646c 063e

actor.2.weight f4 [64, 128]
0.2528472 1.0535657 0.2106308 -0.08733723 -0.15676416 0.16368146 0.53446805 -0.108601525
-0.414697 -0.59103477 0.19413686 0.9390934 0.10299847 0.4362424 -0.12809111 -0.02254974
0.085489936 -0.3407834 0.3658002 -0.056545645 -0.59436214 0.16011326 0.3237127 0.08961024
-0.46927476 0.21883865 0.0103377355 0.38690972 0.4004007 -0.13171478 0.23863623 0.30816102
0.37497282 -0.26797545 0.026640354 -0.21701294 -0.05722685 0.5031454 -0.019120166 0.059366047
-0.06791274 -0.5609656 -0.086281635 -0.2416595 -1.1891761 0.12314891 0.30762598 -0.17772539
-0.13550282 0.2574436 0.30759168 -0.26680747 -0.4755215 -0.23768294 -0.5326801 0.1957942
0.21096745 0.37665308 -0.05648106 0.14674933 -0.2511637 -0.082805835 0.26839012 0.52605325
-0.09244519 0.08199946 0.6682594 0.7818494 -0.19528106 0.05386548 -0.55610305 0.5732575
-0.17197439 0.5840964 -0.13805507 0.47716942 0.021072216 0.0670738 0.18980254 -0.07120613
0.44181526 -0.066792995 -0.5756134 0.70971817 -0.62809557 -0.12331305 0.20426457 0.0356655
-0.6675049 0.1460854 0.24652351 -0.21131101 -0.31011456 -0.015454676 0.14625645 0.3302938
0.20760643 -0.48440343 -0.69904363 0.2886748 0.27401066 0.5446888 0.025123188 -0.063358895
-0.47872046 0.21057945 0.33162156 0.23042053 -0.045221686 -0.14320165 -0.2213538 0.5761067
-0.066793986 0.30474696 -0.4235186 -0.07127846 -0.067842424 0.16032197 -0.6149991 -0.34828556
0.15302597 0.049896803 -0.45790341 -0.07857866 0.26840755 -0.4051634 -0.012543099 -0.50390506
0.3750513 0.12152459 0.4201041 -0.21868783 -0.17147748 -0.44531697 -0.2858665 0.20625912
-0.09935649 0.377266 -0.6567828 -0.4104547 0.11888107 -0.41104785 -0.17850338 -0.13865416
-0.37316042 -0.4832094 0.0581992 0.17528813 -0.58104444 0.38348743 -0.6211362 0.3374821
-0.058946583 0.13964143 -0.39368886 0.27405432 0.25240472 -0.37670195 0.09868222 0.1919183
0.21388362 0.5402141 -0.34472 0.47527954 0.61180407 -0.28145 0.20233834 -0.46541953
-0.08388447 -0.41849902 0.06994258 -0.19376735 -0.18331984 -0.9226545 0.008490448 0.03477102
0.46818194 0.22812022 0.7233681 -0.3619936 -0.92992693 0.3501739 0.27317894 -0.72677034
0.14096764 -0.6643467 0.26423165 0.4100406 0.13576576 0.5582872 -0.055860743 -0.51413566
0.042008683 -0.25592113 0.07006561 0.28980574 0.23597349 0.45443058 -0.9854734 0.08332715
-0.29860273 0.20617695 0.28676254 0.47155446 0.2526259 -0.29991513 0.44898418 0.4025124
0.14938396 0.30374426 -0.29278713 -0.036795128 -0.39759403 -0.1246505 -0.6059449 -0.51854855
0.25760508 0.16868052 -0.24282807 -0.5152374 0.5648889 -0.2024349 -0.4048846 -0.4615282
0.59891677 -0.4966556 0.012857389 -0.11001221 0.045897044 0.34253326 0.1289205 0.036354885
-0.5714339 0.14179751 -0.4543849 0.09917376 0.01379045 0.31806877 0.735147 0.27568153
0.6260678 0.2739252 -0.40370673 -0.04733409 0.063362576 -0.268474 0.0013088112 -0.15997107
0.5226563 0.15845859 -0.37451193 0.3614342 -0.6133792 -0.042399578 0.063787006 -0.39693674
00000000: 3075 813e 3edb 863f 9aaf 573e dddd b2bd
00000010: c986 20be 1d9c 273e e6d2 083f 7a6a debd
00000020: 2a53 d4be 0e4e 17bf d0cb 463e 6d68 703f
00000030: ddf0 d23d 2a5b df3e 512a 03be 3bba b8bc
00000040: 5915 af3d 297b aebe 2a4a bb3e 689c 67bd
00000050: 1e28 18bf bbf4 233e acbd a53e 9385 b73d
00000060: c844 f0be 3d17 603e 9b5f 293c 0819 c63e
00000070: 5201 cd3e 3de0 06be 0e5d 743e 48c7 9d3e
00000080: 70fc bf3e 1434 89be df3c da3c a438 5ebe
00000090: b466 6abd 23ce 003f e5a1 9cbc d029 733d
000000a0: d615 8bbd 719b 0fbf 6db4 b0bd 9775 77be
000000b0: ec36 98bf 7f35 fc3d 2781 9d3e a5fd 35be
000000c0: 40c1 0abe a6cf 833e a87c 9d3e fd9a 88be
000000d0: 8e77 f3be 2863 73be b95d 08bf 467e 483e
000000e0: da07 583e acd8 c03e af58 67bd 7545 163e
000000f0: 8798 80be 1b96 a9bd 6e6a 893e 6dab 063f
00000100: e753 bdbd 55ef a73d 0c13 2b3f 4827 483f
00000110: c2f7 47be 0da2 5c3d c55c 0ebf 01c1 123f
00000120: 0e1a 30be 5787 153f 4f5e 0dbe 8d4f f43e
00000130: a49f ac3c fd5d 893d 995b 423e 85d4 91bd
00000140: 9c35 e23e c4ca 88bd 665b 13bf 17b0 353f
00000150: dfca 20bf 8d8b fcbd bb2a 513e fd15 123d
00000160: 9ae1 2abf 6997 153e a970 7c3e ea61 58be
00000170: 56c7 9ebe 9c35 7dbc 40c4 153e 451c a93e
00000180: c896 543e ba03 f8be 86f4 32bf 2fcd 933e
00000190: 204b 8c3e ba70 0b3f 25cf cd3c 4fc2 81bd
000001a0: d91a f5be 24a2 573e 4dca a93e 5cf3 6b3e
000001b0: 603a 39bd 74a3 12be 92aa 62be bb7b 133f
000001c0: 49cb 88bd cb07 9c3e 6ed7 d8be 71fa 91bd
000001d0: f8f0 8abd 712b 243e 9570 1dbf 7c52 b2be
000001e0: d7b2 1c3e 9760 4c3d 5172 eabe d9ed a0bd
000001f0: b76c 893e 9471 cfbe 9281 4dbc ecff 00bf
00000200: b906 c03e e2e1 f83d e217 d73e b4ef 5fbe
00000210: cb97 2fbe 9600 e4be 185d 92be 9735 533e
00000220: 6a7b cbbd 0229 c13e eb22 28bf 1e27 d2be
00000230: eb77 f33d dd74 d2be 97c9 36be 5bfb 0dbe
00000240: e20e bfbe 3967 f7be 4962 6e3d bb7e 333e
00000250: 54bf 14bf 7758 c43e c802 1fbf 74ca ac3e
00000260: f971 71bd 2afe 0e3e 9691 c9be d950 8c3e
00000270: 313b 813e 14df c0be e719 ca3d 3b86 443e
00000280: 4f04 5b3e 794b 0a3f 247f b0be d757 f33e
00000290: 319f 1c3f 371a 90be c831 4f3e 784b eebe
000002a0: 9fcb abbd 8145 d6be 0e3e 8f3d f36a 46be
000002b0: 32b8 3bbe 1633 6cbf 851b 0b3c 0f6c 0e3d
000002c0: 8bb5 ef3e 5998 693e a72e 393f 3a57 b9be
000002d0: b10f 6ebf fe49 b33e 1cde 8b3e 9f0d 3abf
000002e0: d259 103e a012 2abf 5f49 873e d7f0 d13e
000002f0: 2e06 0b3e e9eb 0e3f 3cce 64bd 659e 03bf
00000300: 4c11 2c3d 1808 83be 8f7e 8f3d 6b61 943e
00000310: 09a3 713e 20ab e83e fc47 7cbf 6da7 aa3d
00000320: 75e2 98be 0d20 533e 8ad2 923e 966f f13e
00000330: 2f58 813e 7a8e 99be 41e1 e53e 1b16 ce3e
00000340: 1cf8 183e 5e84 9b3e 32e8 95be 7db6 16bd
00000350: 7291 cbbe c348 ffbd 341f 1bbf 99bf 04bf
00000360: d0e4 833e 96ba 2c3e eca7 78be 99e6 03bf
00000370: 8f9c 103f 184b 4fbe 094d cfbe 6d4d ecbe
00000380: 9c52 193f a549 febe cca7 523c 154e e1bd
00000390: 8afe 3b3d 8560 af3e bc03 043e dce8 143d
000003a0: 7e49 12bf 5e33 113e 23a5 e8be 9d1b cb3d
000003b0: 57f1 613c e9d9 a23e 9832 3c3f 2126 8d3e
000003c0: fb45 203f ec3f 8c3e a6b2 cebe 64e1 41bd
000003d0: 3dc4 813d 6d75 89be 6b8c ab3a 75cf 23be
000003e0: cecc 053f f842 223e 07c0 bfbe e70d b93e
000003f0: 6b06 1dbf 2eab 2dbd c3a2 823d 4b3b cbbe

actor.2.bias f4 [64]
-0.15403135 -0.29259235 0.08832172 -0.11425421 -0.29764548 0.2353464 -0.65600544 -0.3206654
0.10832966 0.033030156 0.17829388 0.34561226 0.19882582 0.0053542266 0.11940721 0.17625464
0.48562366 -0.43322858 -0.3025771 0.3535939 -0.2802257 -0.14701949 -0.15614499 0.2327472
-0.33293617 -0.3008499 0.28965858 -0.32324934 0.014607385 -0.47162503 -0.04600511 -0.0490253
0.027131392 -0.015275087 -0.05705168 0.056113444 0.42684987 0.49628612 -0.0146337245 0.4982328
0.052589085 0.15550373 0.11327161 -0.214496 0.23454998 0.5224163 0.091380514 -0.0904445
0.0045134122 -0.2480864 0.66442096 0.0027359545 -0.21531136 0.07572188 0.5076354 0.38659737
0.60623854 -0.49779773 0.40031812 0.28338996 -0.03019144 -0.010244396 -0.1321474 -0.37140372
00000000: 65ba 1dbe aace 95be 05e2 b43d 1cfe e9bd
00000010: fd64 98be a6fe 703e f9ef 27bf 412e a4be
00000020: f1db dd3d a14a 073d ac92 363e 17f4 b03e
00000030: ff98 4b3e 8272 af3b c48b f43d 197c 343e
00000040: aaa3 f83e 23d0 ddbe 63eb 9abe 420a b53e
00000050: be79 8fbe 478c 16be 79e4 1fbe 4855 6e3e
00000060: 9c76 aabe 0009 9abe 214e 943e f080 a5be
00000070: d053 6f3c d678 f1be db6f 3cbd c1ce 48bd
00000080: a742 de3c 5c44 7abc 06af 69bd 36d7 653d
00000090: 118c da3e 3719 fe3e 4ac2 6fbc 5f18 ff3e
000000a0: a767 573d 5f3c 1f3e f2fa e73d d7a4 5bbe
000000b0: df2d 703e 13bd 053f b525 bb3d f73a b9bd
000000c0: 3fe5 933b 5c0a 7ebe 7e17 2a3f b34d 333b
000000d0: 957a 5cbe 1314 9b3d 65f4 013f 17f0 c53e
000000e0: 7332 1b3f 58df febe 7ff6 cc3e 7d18 913e
000000f0: 0a54 f7bc 1cd8 27bc a651 07be a128 bebe

actor.4.weight f4 [6, 64]
0.019231113 0.25241417 -0.094147496 -0.021899499 0.45536947 -0.15089343 0.09874618 -0.06791936
-0.033766467 0.030773023 -0.1048082 -0.12254431 -0.3704094 -0.036131527 -0.10507195 0.038499784
-0.33430585 -0.020947615 0.07608043 -0.045157835 -0.04346461 0.039895937 0.05529347 -0.05523366
-0.027155362 -0.060411964 -0.13898425 0.017951824 0.013566366 0.12527068 0.06720912 0.029760638
-0.037708923 -0.020684116 -0.005040202 -0.13229837 -0.09536579 0.032547526 0.17612106 0.034703687
0.033323575 0.021016214 0.036469977 0.038278926 0.023916133 0.49136767 0.01200746 0.0633047
0.022033976 -0.0539861 0.57227546 -0.8482771 -0.13057734 0.06452932 -0.007019093 0.20969594
0.058072366 -0.3516968 0.2768628 -0.004525558 -0.06977163 0.10396506 -0.009103538 0.09077471
0.10468836 -0.049023293 -0.13498107 0.3703357 -0.44430208 0.022729853 -0.8216125 -0.09866109
0.6620421 0.061782468 0.16568336 0.32045388 -0.3489981 0.007671017 0.53866094 -0.116368435
0.7170378 0.005595003 0.16809104 -0.37098253 -0.13604456 0.06715056 0.07821945 0.05036169
-0.11625541 -0.5973034 0.20403495 0.42634803 -0.38170302 -0.11876649 0.04363381 -0.5682351
-0.29437143 -0.028817447 0.24263625 -0.10571398 0.35547623 -1.2900368 -0.43461674 -1.1774622
-0.38239348 -0.18893327 -0.056816682 -0.08270336 0.084138654 -1.0041888 -0.16798276 0.35529467
0.3061905 -0.21766517 -1.1154237 -0.66378456 0.108049445 0.016805371 0.42908677 -0.18814795
1.1203871 -0.6417533 -0.09103172 -0.44096455 0.2537036 -0.13643537 -0.23038991 -0.13405776
-0.13955037 -0.27152056 0.23924945 -0.33685187 -0.11320062 0.17836082 0.61742234 0.11704448
-0.597565 -0.114216864 -0.029847562 -0.14971697 0.71021724 0.00412793 -0.3813312 0.097507514
-0.2934348 -0.04706604 -0.284503 0.46823436 0.14649314 -0.18355331 -0.14591928 0.023405308
0.10847445 0.59984934 0.008848655 -0.45899674 0.3768128 -0.05924465 -0.12927687 0.50101614
0.33502215 0.05774059 -0.2400161 0.27581054 -0.24111748 1.2768617 0.25862572 1.1700581
0.3700228 0.13781339 0.04579328 -0.005238255 -0.07172134 0.49368256 0.15153964 -0.47428676
-0.2860952 0.28199607 0.5294422 1.5083565 -0.002606119 -0.098320946 -0.37564385 0.0022722944
-1.1192706 0.96336806 -0.14369808 0.47248942 -0.14970244 0.0021415665 0.23455653 0.018488973
0.05318794 0.30472797 -0.055337247 0.10355991 -0.17206416 0.16556405 -0.42030153 -0.22740518
-0.1124659 -0.1248149 -0.19500346 0.018035991 0.15698266 -0.016025774 0.07546272 -0.0445754
0.062146097 -0.16086607 0.6681951 0.0076838443 -0.17593881 -0.123919256 -0.1169004 -0.09876183
-0.1774057 0.14847885 0.27779642 0.033501465 0.03847687 0.06416739 -0.17118934 -0.018609567
0.015275317 0.189914 -0.08757642 0.24098235 -0.116323955 0.3047998 0.004039045 -0.5287271
-0.2581454 0.15723376 0.28948656 0.29944852 -0.23285574 0.3478229 -0.19128498 0.050302155
-0.034227315 0.2665494 -0.17733635 -0.02180773 0.31461316 0.0021985108 -0.29085878 0.5997733
0.029263554 -0.096976794 0.17598088 0.61932176 -0.01663028 0.1702111 -0.098958194 0.24894804
00000000: 918a 9d3c 6e3c 813e 67d0 c0bd 9466 b3bc
00000010: 3026 e93e cf83 1abe 703b ca3d 4e19 8bbd
00000020: b54e 0abd b517 fc3c aea5 d6bd 83f8 fabd
00000030: 4da6 bdbe a7fe 13bd f62f d7bd f3b1 1d3d
00000040: 232a abbe 559a abbc 0ed0 9b3d 6cf7 38bd
00000050: f207 32bd ec69 233d 687b 623d b13c 62bd
00000060: ec74 debc 8972 77bd e351 0ebe b40f 933c
00000070: 7745 5e3c f546 003e efa4 893d 95cc f33c
00000080: ac74 1abd bc71 a9bc 4728 a5bb 3979 07be
00000090: 244f c3bd 8e50 053d 1459 343e 7425 0e3d
000000a0: 4d7e 083d 322a ac3c 8b61 153d 5dca 1c3d
000000b0: c4eb c33c 8b94 fb3e f0ba 443c e5a5 813d
000000c0: 9980 b43c 8720 5dbd a580 123f b028 59bf
000000d0: 11b6 05be f327 843d 6b00 e6bb 88ba 563e
000000e0: 4add 6d3d 9a11 b4be f6c0 8d3e 224b 94bb
000000f0: 6ee4 8ebd a2eb d43d 0127 15bc 17e8 b93d
00000100: da66 d63d a6cc 48bd 7a38 0abe a49c bd3e
00000110: 907b e3be f533 ba3c 3255 52bf d30e cabd
00000120: 977b 293f 9d0f 7d3d e6a8 293e 8812 a43e
00000130: e1af b2be 285d fb3b afe5 093f 9352 eebd
00000140: ca8f 373f 4956 b73b 0f20 2c3e 6cf1 bdbe
00000150: 444f 0bbe 3c86 893d 8531 a03d 0f48 4e3d
00000160: 5117 eebd e0e8 18bf 8aee 503e 4a4a da3e
00000170: 946e c3be d83b f3bd 5eb9 323d db77 11bf
00000180: dab7 96be 9112 ecbc a375 783e 9280 d8bd
00000190: fb00 b63e ed1f a5bf 1686 debe 15b7 96bf
000001a0: 14c9 c3be b977 41be 9cb8 68bd 6160 a9bd
000001b0: e350 ac3d 4289 80bf ac03 2cbe 2fe9 b53e
000001c0: 00c5 9c3e 9ee3 5ebe 34c6 8ebf c9ed 29bf
000001d0: 0749 dd3d 6bab 893c 43b1 db3e dba9 40be
000001e0: d868 8f3f f249 24bf d76e babd 1bc6 e1be
000001f0: 70e5 813e b7b5 0bbe 55eb 6bbe 7046 09be
00000200: 4be6 0ebe be04 8bbe cffd 743e d977 acbe
00000210: bad5 e7bd 38a4 363e 640f 1e3f 04b5 ef3d
00000220: 05fa 18bf 88ea e9bd e082 f4bc 684f 19be
00000230: ccd0 353f 9643 873b d83d c3be 05b2 c73d
00000240: 163d 96be 52c8 40bd 61aa 91be 6abc ef3e
00000250: 4c02 163e 66f5 3bbe dd6b 15be 7dbc bf3c
00000260: da27 de3d ba8f 193f f3f9 103c 9f01 ebbe
00000270: 9bed c03e 85aa 72bd 2861 04be 9842 003f
00000280: 0688 ab3e 6681 6c3d c8c6 75be 0a37 8d3e
00000290: 80e7 76be 3470 a33f 976a 843e 77c4 953f
000002a0: a173 bd3e f41e 0d3e bc91 3b3d aba5 abbb
000002b0: a3e2 92bd f6c3 fc3e 352d 1b3e b7d5 f2be
000002c0: 127b 92be ca61 903e 8689 073f d311 c13f
000002d0: 6ccb 2abb 7e5c c9bd 6454 c0be c6ea 143b
000002e0: 4244 8fbf 4a9f 763f 9725 13be 22ea f13e
000002f0: 994b 19be 8659 0c3b 962f 703e 3076 973c
00000300: 99db 593d 4e05 9c3e 4fa9 62bd 3817 d43d
00000310: 9631 30be 9f89 293e c331 d7be e7dc 68be
00000320: 8654 e6bd f49e ffbd fdae 47be 37c0 933c
00000330: 10c0 203e 7c48 83bc 338c 9a3d b294 36bd
00000340: e88c 7e3d 13ba 24be d60e 2b3f c2c8 fb3b
00000350: 4e29 34be 61c9 fdbd 7a69 efbd a443 cabd
00000360: d7a9 35be d70a 183e 553b 8e3e d538 093d
00000370: ec99 1d3d 316a 833d 424c 2fbe 1773 98bc
00000380: 5345 7a3c d178 423e 445b b3bd 14c4 763e
00000390: 413b eebd b80e 9c3e f759 843b a95a 07bf
000003a0: a22b 84be e301 213e 9537 943e 5151 993e
000003b0: bc71 6ebe d815 b23e 36e0 43be a209 4e3d
000003c0: f131 0cbd 2a79 883e a997 35be 20a6 b2bc
000003d0: fa14 a13e e414 103b 71eb 94be be8a 193f
000003e0: 1fba ef3c c59b c6bd 5534 343e df8b 1e3f
000003f0: 3a3c 88bc d24b 2e3e 98aa cabd 3cec 7e3e

actor.4.bias f4 [6]
-0.6096994 0.3900701 0.33475405 0.04426562 0.05164232 -0.033422455
00000000: 4315 1cbf 45b7 c73e e264 ab3e de4f 353d
00000010: e686 533d fce5 08bd
