Plotting/saliencies_live/Multi_Pong/Sequence_Length_1/multi_pong_1__1__1721853303_checkpoint_760.pt (torch, 86690 bytes, 11 tensors)

critic.0.weight f4 [128, 12]
000000 9d 9b d9 3e 5d 5d 18 be 07 68 87 3c 7e 7d 5c be
       0.42501536 -0.14879365 0.016529096 -0.21532246
000010 0e a9 76 be 17 bd bd 3e c4 d1 9d bf dd 66 7c 3f
       -0.24087927 0.37058327 -1.232964 0.98594457
000020 d3 aa 9e bd a0 d5 b6 bd cb 13 3c 3e fc 84 99 3d
       -0.07747426 -0.089274645 0.18366925 0.07496068
000030 32 fb 83 bc 1b 4e 97 bc 3d 88 9a bd bd 54 36 3d
       -0.01611099 -0.01846986 -0.07545517 0.044514406
000040 6f 52 db 3b d9 14 aa be c8 c1 0e bd ed d5 b4 bf
       0.0066931765 -0.3321903 -0.034852773 -1.4127785
000050 44 96 80 bc 57 22 a5 3e 4b de 6a 3c 44 92 c1 3f
       -0.015696652 0.32252762 0.014335225 1.5122762
000060 67 97 57 3e 97 13 90 3c 9a 91 b5 bd f2 86 98 bc
       0.21053849 0.017587466 -0.08865662 -0.018619034
000070 ed 7d 3f ba 4f 16 46 bb a8 06 a9 bc ad 13 ac 3d
       -0.0007304836 -0.00302257 -0.020633057 0.0840219
000080 14 3a f6 3d a1 bb 27 3e a0 94 a0 be a8 d9 00 40
       0.12022796 0.16380168 -0.31363392 2.0132847
000090 dd f7 a9 be 34 d7 91 3d eb 47 7d be 0f dc 34 3e
       -0.33196917 0.07121125 -0.24734466 0.1766207
0000a0 cb 42 b0 3e 19 8e 45 be be 33 ee 3f dd 20 5d bf
       0.3442596 -0.19292487 1.860954 -0.8637827
0000b0 7c 9b 1f 3d c8 9c 34 3d 37 b2 3e bf ac 1f 99 bc
       0.03896664 0.04409483 -0.74490684 -0.01869186
0000c0 15 ba 4d 3d 12 73 8f 3c 61 18 0a bd a0 5f e7 3b
       0.05022629 0.017510924 -0.033714656 0.00706096
0000d0 13 d6 21 3e 66 3e 96 bd b7 d0 38 40 02 b2 f1 bf
       0.15804319 -0.0733612 2.887739 -1.8882449
0000e0 93 8e 6e 3c 60 3f ce bd 23 43 f2 3e 9c 18 b1 bf
       0.0145603595 -0.100706816 0.47316846 -1.3835635
0000f0 ce 54 a5 bd fb ba ac 3c 6e b1 d6 bd c9 e1 96 bc
       -0.08072816 0.021085253 -0.10483061 -0.01841821
000100 f6 12 2c 3c 1d 4e 07 3d be 84 b0 3e b0 20 24 40
       0.0105025675 0.03303348 0.34476274 2.564495
000110 16 9e 89 bb 07 22 bc 3c a1 39 09 be 0d 1a 3e 3e
       -0.0041997535 0.022965444 -0.1340089 0.18564625
000120 e8 56 de 3d dd 8c 71 bc a6 b4 62 be ff de 91 3d
       0.1085642 -0.014743057 -0.22139224 0.07122611
000130 35 37 49 bb 03 7d e5 bc a1 d6 4e be 87 e1 94 bd
       -0.0030703072 -0.028013712 -0.20199062 -0.072695784
000140 55 b1 8a be 8c 00 8a 3e b3 29 b1 bf b1 27 f6 3f
       -0.2708842 0.26953542 -1.384085 1.9230863
000150 ad c9 71 3e 20 99 a6 bc 9a ec 35 bd 76 ab c0 3c
       0.2361209 -0.020336688 -0.044415094 0.023519259
000160 68 0a 59 bd 64 c1 fd 3c bc 44 14 c0 7f 16 69 3f
       -0.05298844 0.030976005 -2.3166952 0.9104995
000170 99 06 b6 3d 4b f0 15 bd e4 c4 9e 3e 1f 64 5e bf
       0.08887977 -0.036606114 0.3100959 -0.8687152
000180 9d 8b 31 be 97 3b ea bb f1 43 09 3d ee 62 3e ba
       -0.17338414 -0.007148217 0.03351206 -0.00072626665
000190 f8 9e a4 3b a9 b3 75 3b 0d 17 80 bc a6 ef fe 3d
       0.0050238334 0.003749112 -0.015635991 0.12448053
0001a0 6b 6d e7 bd 9d 5d f6 bd f4 50 74 c0 0d ed 82 c0
       -0.11300167 -0.12029574 -3.817441 -4.091437
0001b0 f9 57 06 3f d3 5f 73 be 7d fd 09 3f 5c c4 63 be
       0.52477986 -0.23767023 0.5390242 -0.22242874
0001c0 09 2b 74 bf 3f c3 c9 3e ba af 53 bf ad 88 96 3e
       -0.95378166 0.39406773 -0.8269001 0.2940115
0001d0 b6 3c 18 3d a3 d8 42 3d fd 13 c2 3e 62 21 35 be
       0.037167273 0.047569882 0.37905875 -0.17688516
0001e0 27 1d 2e 3f 0a 73 dc bc 73 33 f3 3e 7b 74 8c 3c
       0.6801323 -0.026910324 0.4750019 0.017145386
0001f0 ed 98 e7 bb 0c f9 6a 3c 83 fc 0f 3e 71 be 8c 3d
       -0.0070677907 0.014341604 0.1406117 0.06872261
000200 9d 04 85 bf f4 ee f9 3b e1 52 4b be 64 ac 28 bd
       -1.0392033 0.0076273624 -0.19855835 -0.04118003
000210 1a 55 af bd 22 c8 48 3a d8 83 ea 3c 50 8c dc 3c
       -0.08561154 0.00076592166 0.028627321 0.026922375
000220 ba 10 dd 3d 9a 66 c0 bd a2 39 45 40 36 d5 47 c0
       0.10794206 -0.0939457 3.0816426 -3.1223884
000230 05 f2 e9 3c 3f b2 40 bc 74 dd e6 3d 7b e2 b1 3d
       0.028557787 -0.011761247 0.112727076 0.08685776
000240 40 46 cb 3c 4a 97 6a bd 34 b4 a4 bd 98 e5 ff 3d
       0.024813771 -0.057273187 -0.080421835 0.124949634
000250 12 c3 9a 3d 17 63 fe bd b1 77 ef 3e 14 6f 30 3d
       0.07556738 -0.12421244 0.46771005 0.043074682
000260 72 d0 db bd d0 10 23 3c 27 e1 87 be 4d 30 29 be
       -0.10733117 0.009952739 -0.26538965 -0.16522332
000270 61 1c cb 3d b5 d8 88 3b 13 9f f0 3d 93 d4 1f bc
       0.09917522 0.004176224 0.11749091 -0.0097552715
000280 7b 1d 87 3d 53 79 41 3c 24 a1 95 be 2b b8 ea bd
       0.0659742 0.011808711 -0.29224503 -0.114609085
000290 4f a4 f3 bd 5f ff 38 bd 0e d8 03 c0 3b d2 e4 bd
       -0.11896574 -0.045165416 -2.060062 -0.11172911
0002a0 df f7 f8 3b 3f 3d 40 bb bb 83 85 3b bb 6c 08 bc
       0.007597908 -0.002933338 0.0040745414 -0.008326705
0002b0 b5 1f 59 3c 7f 38 98 3c 9f 07 bc 3f bf 2a 3f 3f
       0.013252188 0.018581627 1.4689826 0.746746
0002c0 6c 60 c9 3c ea dd 8e bb 3f 6d 5b bf 89 4c 03 bd
       0.02458211 -0.0043599503 -0.8571357 -0.03205541
0002d0 70 09 32 bd 69 4d ac 3c e1 ea c9 bd e8 48 10 bb
       -0.04346603 0.021033006 -0.09859253 -0.0022016112
0002e0 0e c9 00 be 2a 12 93 3c 69 9f e1 bf 62 dd 96 3d
       -0.12576696 0.017952997 -1.7626773 0.07366444
0002f0 9b 3a 21 3e 02 4f c6 3b c1 bb 0d 40 23 07 85 3d
       0.15745012 0.006051899 2.2145846 0.06495502
000300 01 5b 2b 3d 17 59 29 3c 1a 74 ba bc f7 c9 60 bb
       0.041834835 0.010336182 -0.02276044 -0.0034300068
000310 6d aa 89 bd e3 ce 3c bd 78 7a 13 c0 27 b5 54 bf
       -0.06721959 -0.04609574 -2.30435 -0.83088917
000320 67 6d c2 3c d9 71 b6 3d c3 dd 28 3f bc 30 2d 40
       0.023733808 0.089084335 0.6596338 2.7060995
000330 e6 7d a1 bd 01 10 c5 bc f2 20 fa 3d 3f 94 84 3c
       -0.07885341 -0.024055483 0.12213315 0.01618397
000340 84 18 58 3e 30 6c 6f 3b 84 43 cf 3f 5d 5c e9 be
       0.21103102 0.003653299 1.6192479 -0.4557828
000350 6e 92 54 be 17 98 1a 3d b0 bc ca bf e4 89 a4 3e
       -0.20758983 0.0377427 -1.5838833 0.32136452
000360 d3 de a4 3e 9b 36 de 3d b9 f0 b7 3d c0 36 2d 3e
       0.3220125 0.10850259 0.08981461 0.16915417
000370 0a be 3c be 20 a9 b8 be f2 a6 a8 be d1 2c 4c be
       -0.18431869 -0.36066532 -0.3293987 -0.19938971
000380 7d 8c d4 bd b7 7c 09 3e be 9e 70 bc 75 b2 90 bd
       -0.103783585 0.13426481 -0.014686285 -0.07065288
000390 ac 6f 90 bc 2d 30 1f bd 85 31 42 3d 4e 98 d6 3b
       -0.017631374 -0.038864303 0.047410507 0.006548918
0003a0 e1 a9 66 bd ec a4 a9 bc 62 b4 0b 3f 73 3b 87 bf
       -0.056314353 -0.020708524 0.5457212 -1.0565017
0003b0 36 db aa 3d af f1 c0 bc c5 3e ca 3f d3 b4 25 bf
       0.083425924 -0.023552744 1.5800406 -0.6472904
0003c0 ea d5 4d bd 54 d5 6e 3b 1a 75 d4 3d 9d 68 95 bb
       -0.050252832 0.0036443071 0.10373898 -0.00455959
0003d0 e0 06 89 3d 24 5b e1 39 53 e7 51 3e cc 36 ef bd
       0.066907644 0.0004298325 0.204984 -0.116803735
0003e0 08 a0 af 3d 73 7d a2 bc 25 e6 31 40 2c d4 ad bd
       0.085754454 -0.01983521 2.779672 -0.08487734
0003f0 62 10 a3 3e bc 5f c6 bb a7 59 2b 3e a6 94 9d be
       0.31848437 -0.006053893 0.16733418 -0.30777472

critic.0.bias f4 [128]
000000 13 40 42 3e 52 75 6a 3c 95 6c 52 3d 65 40 05 be
       0.18969755 0.014310198 0.051373083 -0.13012846
000010 e4 7a fe bc 17 d1 c1 3c dd b8 99 bc ea ac 42 3d
       -0.031064458 0.023659272 -0.018764907 0.047528185
000020 03 09 66 3d 75 36 e3 3e 04 58 eb 3e c1 f5 d3 bc
       0.056160938 0.44377485 0.45965588 -0.02587402
000030 ac 2a 8c bd eb 89 69 3a ad 88 d2 bc 76 a8 06 3d
       -0.068440765 0.0008908796 -0.025699938 0.0328755
000040 c1 7a a0 bd f9 03 ae bd 22 4f b7 3d 0d 0a 2e 3c
       -0.078359134 -0.084968515 0.0895064 0.0106225135
000050 72 f1 4f 3c 72 45 1d 3e 68 3c c9 bd a9 65 b3 bd
       0.012691842 0.15358523 -0.09825975 -0.087596245
000060 07 88 7c 3d b9 65 28 3d bf 86 2e 3e 77 13 22 bc
       0.061653163 0.041112635 0.17043589 -0.009892336
000070 c9 0e a8 bd 27 72 42 bc e6 4f eb bd 97 20 91 3d
       -0.08205945 -0.011868036 -0.11489849 0.07086294
000080 70 db 6e bc 80 8b 20 3e e1 dc 8b 3e 08 1e 36 bd
       -0.014578685 0.15678215 0.27316955 -0.044462234
000090 cf ef 1e 3d ca 59 3c bd 75 b6 3a 3d ed 1a 66 bc
       0.038802918 -0.045984067 0.04558416 -0.014044506
0000a0 1a 84 e7 3d 9e db e7 bd f0 d0 11 3d a5 e6 ba bd
       0.11304493 -0.113211855 0.03559965 -0.09126023
0000b0 25 5e 61 3e f5 cc 0b 3f 30 dd 93 bd 6b 62 cf 3c
       0.2200857 0.54609615 -0.072199225 0.025315484
0000c0 96 01 1f 3d 32 3d 4d 3d c6 2a 86 bd c2 40 d6 3b
       0.03881987 0.05010719 -0.06551127 0.0065384815
0000d0 fe 52 da bc ab 53 88 bc 2a 40 4c 3d f8 dd 50 3e
       -0.026650902 -0.016641458 0.04986588 0.20397174
0000e0 c8 d1 86 3d 37 69 f9 3c a7 2a 69 bd cc 2c a2 be
       0.06582981 0.030445678 -0.056925442 -0.31674802
0000f0 2f ac c5 bc 62 a9 16 bd 72 e8 33 be 7c 7b 20 3f
       -0.024129955 -0.03678263 -0.1756914 0.6268842
000100 65 cc bc bd 26 40 a9 3e 90 3a 48 bd 39 94 14 bd
       -0.09218673 0.33056754 -0.048883975 -0.03627417
000110 d3 e4 1b 3b 0f 3f fe bd f0 83 90 bd 34 de 50 3d
       0.0023787513 -0.12414371 -0.07056415 0.05099316
000120 74 91 2e 3d 00 cc c7 bd d3 7e b7 bd 2b f0 a1 3d
       0.042619184 -0.09755707 -0.08959737 0.079071365
000130 12 45 66 3d 7d e1 6c 3d 4a 6b 96 be f8 cd 21 3c
       0.056218214 0.05783223 -0.2937873 0.009875767
000140 f6 31 94 3d 2f 61 57 3e eb d1 20 3d c1 55 b2 3d
       0.07236092 0.21033166 0.039262693 0.087077625
000150 d9 ea 9c bd 9f de 09 bd ef 09 43 bc f0 15 c3 3e
       -0.07661981 -0.033659574 -0.011904224 0.38102674
000160 3a d5 9d 3c 57 50 1a 3d c1 ff d4 3c 44 47 90 bd
       0.019266713 0.037674274 0.02600086 -0.07044843
000170 4f eb 0f bd bb 8a 26 3d ae bb 10 3d 31 eb 03 be
       -0.035136517 0.040659647 0.035335235 -0.12882687
000180 1e 71 87 3d 08 76 ed bd b7 dd c5 3b 1f 74 26 3e
       0.06613372 -0.11594778 0.0060383934 0.16255234
000190 30 9d 7e bc 9d 78 d6 3c ec d9 9c bc 8e 8f aa bd
       -0.015540406 0.02618056 -0.019146882 -0.08328162
0001a0 d1 38 c6 bd 40 5b ad bd 25 82 e6 3e 84 cc 87 bc
       -0.096788056 -0.0846467 0.45021167 -0.016577013
0001b0 df 06 73 3d f0 4a 3b 3d 31 30 88 3d 57 d8 2b bc
       0.059332725 0.045725763 0.06649817 -0.010488591
0001c0 2d 95 58 bd f4 57 b9 3a 37 d0 80 bd 96 fa 0e 3d
       -0.05287664 0.0014140592 -0.06289714 0.034906946
0001d0 53 77 06 bd 64 5d 85 bd 5d 4f 99 bc 44 58 64 3e
       -0.03282864 -0.065119535 -0.018714601 0.22299296
0001e0 f7 2a 8f bd a6 70 50 bb d6 9c 05 3c 5e 58 3f bd
       -0.06990617 -0.0031805425 0.008155068 -0.046715133
0001f0 c6 12 8d 3c 98 7c 8c bd 1e b3 51 3d 8d 14 f0 bc
       0.017220866 -0.06859702 0.05119621 -0.029306674

critic.2.weight f4 [64, 128]
000000 26 27 aa be c0 73 28 3e 8a 3d 71 bd 16 ce d7 3e
       -0.33232993 0.16450405 -0.05889658 0.4214942
000010 cd 7e 01 3f 4c b2 29 3d ba 78 4b be 42 58 69 be
       0.5058411 0.041429803 -0.19870272 -0.22787574
000020 f0 03 1f 3e bf 78 95 be 59 db b3 bc 5c 03 6b 3e
       0.15528846 -0.29193684 -0.021955179 0.229505
000030 82 32 92 3d 91 47 74 3b ac 23 56 3c 77 ba a1 be
       0.0713854 0.0037274102 0.013070028 -0.31587574
000040 dc 2b fc be c9 31 47 3d 77 2d 12 3d 38 3d 81 3e
       -0.49252212 0.048631463 0.03568789 0.2524202
000050 69 ed af be d1 15 3b 3a 37 f7 6f 3e c8 b9 0a 3e
       -0.34360817 0.0007136735 0.23434149 0.13547432
000060 0b e4 e3 3d 75 9a 0f be ec 5d 24 3e 26 cc 2e 3e
       0.1112748 -0.14023764 0.16051453 0.17070064
000070 0d 87 0f bf 92 76 20 3e f5 30 a9 bd bf dd bf 3e
       -0.56065446 0.15670231 -0.08261291 0.37473866
000080 ee 20 18 be d0 19 93 3e f8 7a a8 3d 72 ad 49 3e
       -0.14856312 0.2873063 0.082265794 0.1969507
000090 37 a5 5a 3e ae 49 ad 3e 89 a4 99 3d 74 47 43 be
       0.21352087 0.33845276 0.07502086 -0.19070226
0000a0 c5 ad 33 3d 8e 33 6c be 02 7e 0e 3e ba 01 cf 3e
       0.04386689 -0.23066542 0.13915256 0.40431005
0000b0 59 f4 ae 3e a1 44 aa 3e 79 50 9a bd b3 c8 b9 bd
       0.34170797 0.33255485 -0.0753488 -0.090714835
0000c0 47 22 78 be 59 41 a3 bd 85 12 08 3d 82 2f 21 3e
       -0.24231826 -0.079714485 0.033220787 0.15740779
0000d0 fd 8c 85 3e ff 97 21 3e c4 65 b2 be 5e ac 89 3e
       0.26084128 0.15780638 -0.34843266 0.26889318
0000e0 41 8b 56 be 43 19 69 3e 41 8a b9 be 5f fe 9b 3c
       -0.20951559 0.22763543 -0.36238292 0.019042192
0000f0 81 da 16 3e 52 97 e1 3d f2 ab 00 be 1d a4 0f bf
       0.1473179 0.1101519 -0.12565592 -0.5610979
000100 b0 09 0d be 2c b5 20 3e e5 af 20 3e 48 77 2b be
       -0.13773227 0.15694112 0.15692098 -0.16744721
000110 37 58 8a 3d d2 39 9d bd 53 21 bf 3e 0d f9 3e 3e
       0.06755107 -0.07677044 0.37330112 0.18649693
000120 92 13 35 3d db 5b c3 3e d7 ed 06 3d f8 05 0b be
       0.044208117 0.38156018 0.032941666 -0.13576496
000130 2a f7 43 3d 15 5a 8d 3d 43 6b 62 3d f5 62 2d bf
       0.047843136 0.069019474 0.055278074 -0.6772912
000140 bc 83 05 be 78 62 0c be 14 75 66 bd 98 92 ae 3d
       -0.13038534 -0.13709438 -0.056264 0.08524054
000150 c7 39 12 bd 96 11 d2 be b2 c8 9a be a2 52 aa bd
       -0.035699632 -0.41029042 -0.30231243 -0.08316542
000160 93 78 ad be 6c 8e 5f 3e 03 3d 4f be 19 51 18 be
       -0.33881053 0.21831673 -0.20238118 -0.14874686
000170 af ae b4 3e 14 af c5 3e 40 c6 8b be b9 20 88 3d
       0.35289523 0.38610137 -0.2729969 0.06646866
000180 62 30 20 be bd b0 da be 04 69 84 3e a1 fd fb bc
       -0.15643457 -0.42712966 0.2586137 -0.030760588
000190 3a de f1 3e a9 27 e1 be ca 68 f9 bd b4 64 23 3e
       0.47239858 -0.4397557 -0.1217819 0.15956384
0001a0 31 d2 0e bd f0 4b 9e 3d b3 da 9e 3d dd 06 95 3d
       -0.034868423 0.07729328 0.07756557 0.072767
0001b0 d3 06 83 be ce a2 43 3f 87 99 67 be 60 f2 1a bd
       -0.25591144 0.76420295 -0.2261716 -0.037828803
0001c0 e3 84 0c 3e d3 26 79 3e d2 fa 32 be a1 83 0b 3e
       0.13722567 0.24331217 -0.17478493 0.13624431
0001d0 36 dc 98 bc 1c 56 81 3e ce 16 a1 bd c6 39 3d bc
       -0.018659692 0.2526101 -0.07865678 -0.011549419
0001e0 bb c8 23 3f 5d 3e cf bd 4b 18 12 3e 41 bd 6d be
       0.63978165 -0.10119317 0.1426708 -0.23216726
0001f0 c4 bb e8 bd 4b 80 ce bc a5 d9 89 3d ae d4 3f be
       -0.113639385 -0.02520766 0.067309655 -0.18733475
000200 3c d0 a5 3d 83 d6 60 3a e8 88 af 3c 4b d4 7b 3e
       0.08096358 0.00085768866 0.021427587 0.24592702
000210 a1 00 c4 be 75 85 9b bd f6 d9 d7 3d c9 2b f4 3e
       -0.3828173 -0.07593814 0.105396196 0.47689655
000220 b3 38 2d bf c5 cc b0 bd 0a 42 e2 bd 60 2d 3b bf
       -0.6766464 -0.08632807 -0.11047752 -0.7311611
000230 6d 51 66 3e c8 3b 26 bf 2d a8 5a be 6b 60 ce be
       0.22491999 -0.6493497 -0.21353216 -0.40307936
000240 43 1a 97 3e 55 c1 b9 3e 6f f7 e2 3d 71 90 ba 3d
       0.29512224 0.36280313 0.110823505 0.09109581
000250 cb f1 0e 3f 95 1c 64 bd 48 dd f6 3e cf 46 b3 3d
       0.55837697 -0.05569132 0.482157 0.0875374
000260 be 75 1f be 4a bb 9b be d6 25 a0 3e 1e 57 1e bf
       -0.15572259 -0.30416328 0.31278867 -0.6185168
000270 35 69 05 bd 52 8c 84 be 41 89 11 3e 06 c7 64 3d
       -0.032571036 -0.25888306 0.14212514 0.055853866
000280 ce 53 88 be 92 3c 47 be 86 81 06 3e e9 29 2e be
       -0.26626438 -0.194567 0.13135347 -0.17008175
000290 f1 57 a8 be da 8c fc bd 30 7c b9 3e 0b ac e3 be
       -0.32879594 -0.12331553 0.3622756 -0.44467196
0002a0 9c d3 14 3f ff 59 8c be c8 9d 3d bf a7 5e 81 bd
       0.5813539 -0.27412412 -0.7406888 -0.063168816
0002b0 04 a4 c0 be d9 f5 40 be 75 16 27 bd 25 c0 47 3e
       -0.37625134 -0.18843783 -0.0407929 0.19506891
0002c0 35 65 d3 be 92 b8 7d bd 82 52 c1 3d 1e 69 61 be
       -0.41288152 -0.061943598 0.09439565 -0.22012755
0002d0 c5 c0 d0 3d e6 ba dd 3e 64 34 57 be b7 38 87 be
       0.10193018 0.43306655 -0.21016079 -0.26410457
0002e0 b9 71 a4 3e 7c 3d c6 3e 62 9d 34 bc 1e b3 e0 bc
       0.32118014 0.38718784 -0.011023851 -0.02742916
0002f0 ee 14 80 bd 0b 80 d0 3e 82 b0 e8 be c6 56 41 3e
       -0.06253992 0.4072269 -0.45447165 0.18880758
000300 8c 9e 6c bd 96 39 54 be 92 eb c0 3e ab 43 27 be
       -0.05776839 -0.20725092 0.37679726 -0.16334407
000310 3b 94 1a bd b9 24 bf 3e 35 04 3d bd df 56 84 be
       -0.03773902 0.37332705 -0.04614659 -0.25847527
000320 dc 81 53 3e 49 e7 1f bb 8b f7 d3 be b9 cf 42 be
       0.20655006 -0.0024399331 -0.41399798 -0.19024552
000330 97 c0 ca 3d 48 dd 34 3f 82 f9 7c 3e 00 04 5d 3e
       0.09900015 0.7065015 0.24704555 0.21583557
000340 0c 7e a5 3b c4 be 50 3b ea 1b aa 3b ad 4e e6 bd
       0.0050504263 0.0031851986 0.005191316 -0.11245475
000350 b6 ff 19 be 1c 98 71 3e 66 d1 2c 3e 78 03 e7 bb
       -0.15038952 0.23593181 0.16876754 -0.007049974
000360 26 2c 01 bf c9 73 23 3c e8 7e ab be 77 b2 40 be
       -0.5045799 0.009976336 -0.3349526 -0.18818079
000370 31 0d 28 3c cd 7f c3 be 7c ba 65 3e b3 fc bc bd
       0.010257051 -0.38183442 0.2243442 -0.09227886
000380 fb 3e a1 be 5d b9 65 bd 7e 8b 00 be ec 99 8e 3e
       -0.31493363 -0.05608498 -0.12553212 0.27851808
000390 5b 1c b4 3d 2e d8 81 3e e4 e2 62 3e 36 4f f6 3d
       0.08794471 0.25360245 0.22156864 0.12026827
0003a0 08 e4 ee 3e e4 c6 a3 be 8b c4 72 be 38 64 1e 3c
       0.4665835 -0.3198768 -0.23707788 0.009667449
0003b0 c4 be 93 bd 89 6f 8e be 98 51 14 3f 67 59 f4 3e
       -0.0721412 -0.2781947 0.57937 0.4772446
0003c0 17 ab c4 3b de 2f bd be 72 6b 43 bf e3 97 6c 3d
       0.006001841 -0.36950582 -0.76335824 0.057762038
0003d0 1e 7d 7b 3c c7 74 e7 3e 51 82 28 3c 16 80 5a be
       0.0153496545 0.45206282 0.010284976 -0.21337923
0003e0 2d c6 6d bb 6c d7 08 3e 54 c0 98 3d 7e 77 02 be
       -0.0036281452 0.13363427 0.07458559 -0.12740895
0003f0 39 ea 0c 3e e3 77 8c bd f1 ca 82 bd 4b c2 07 3f
       0.13761224 -0.06858804 -0.06386364 0.5303084

critic.2.bias f4 [64]
000000 f8 58 56 3e be 4a 25 be e4 95 de be 6b e2 dd 3e
       0.20932376 -0.16141793 -0.43473732 0.43336806
000010 2a c3 b9 3e fb db 84 be dc b3 de 3d fe 56 15 be
       0.3628171 -0.25949082 0.10874149 -0.14583966
000020 c1 36 11 be 6a 9e a5 bb be a2 ce 3d 9d ad 5d 3e
       -0.14181043 -0.005054285 0.10089634 0.2164826
000030 72 45 f4 3d 7a f9 83 be a0 56 f7 3d 28 0d 1a 3e
       0.11927308 -0.25776273 0.12077069 0.15044081
000040 b8 7f 91 3e 63 98 d6 3e 3a a6 82 3e d2 77 1c 3d
       0.28417754 0.41913137 0.25517446 0.038200207
000050 fb df 26 be 84 39 20 3e 6b bb c1 3e e3 b7 1b bb
       -0.1629638 0.1564694 0.378383 -0.0023760728
000060 87 fa 64 be 1d 6c 0f be b2 21 8e 3e be 6b 16 3e
       -0.22361194 -0.14006086 0.27760082 0.14689538
000070 93 09 65 3e 3f 93 98 3e d7 f0 e5 bd 19 17 8d bd
       0.22366934 0.2979984 -0.11227577 -0.06889171
000080 e3 f7 26 3e 60 91 76 3e fa c3 2d bd 25 6b 8d be
       0.16305499 0.24078894 -0.042423226 -0.27620807
000090 6f 19 aa be 83 98 2b 3e c4 60 59 3e 85 2c 0b be
       -0.3322253 0.16757397 0.2122832 -0.13591202
0000a0 56 f7 1b bf 35 f7 0f 3e 63 2f 73 3e 08 3c 2f 3e
       -0.6092428 0.14059146 0.23748545 0.17112744
0000b0 f6 f7 02 3d ee c2 f3 3d e6 40 97 be 43 ba a5 bb
       0.031974755 0.11902414 -0.295417 -0.0050576045
0000c0 d0 41 c2 3d 45 d9 40 3e 4e 34 98 bd a1 0e e1 3d
       0.09485209 0.18832882 -0.07431851 0.10989118
0000d0 0a fb 65 3e 2b e6 b6 bd 6d fe 3f 3e 04 bd 94 bd
       0.22459045 -0.0893062 0.187494 -0.07262614
0000e0 54 bf c0 3e 0b 95 86 3e be 77 36 3e 42 eb 6b 3e
       0.37645972 0.26285586 0.17819116 0.23038962
0000f0 e7 75 c6 bc 8b 44 ea 3c 81 2b 98 bd ef 06 7b be
       -0.024226142 0.028597137 -0.07430173 -0.24514364

critic.4.weight f4 [1, 64]
000000 22 6c cc 3e 7e 6f bc be f3 85 c4 be 15 23 b5 3e
       0.3992625 -0.36803812 -0.38383445 0.35378328
000010 b6 04 a1 3f a8 de 90 be 19 62 fb be 0d 8d d5 be
       1.2579563 -0.28294873 -0.4909828 -0.41709176
000020 01 cc 2e bf 35 83 bd 3e ba 5b c2 3e 28 1b 7a 3e
       -0.68280035 0.37014166 0.37960607 0.24424422
000030 79 6f 0f 3f 3c 5e b5 be 79 97 6e 3e 98 a3 b2 3e
       0.5602947 -0.35423458 0.2329997 0.34890437
000040 95 6f cc 3e ea 43 e0 3e cc cf d4 3e 0a e7 96 3e
       0.3992888 0.43801814 0.41564786 0.29473144
000050 b8 97 20 3f e8 31 0e bf 6e e0 00 3f 74 48 9e be
       0.62731504 -0.555449 0.5034245 -0.30914652
000060 f7 b9 e7 be 90 09 a7 be 9a 0a a1 3e b7 ad 17 3f
       -0.45259067 -0.32624483 0.314534 0.5924944
000070 3e fe 5e 3e 62 bc cb 3e 40 2c 95 be ca bd b1 3e
       0.21776673 0.39792162 -0.29135323 0.3471511
000080 41 a2 d5 3e 3f 9a 00 3f c0 ec ec be d6 7f 90 bf
       0.41725352 0.5023536 -0.46274376 -1.1289012
000090 a1 f9 f5 be 59 0e 2b 3f 9f 5f 18 bf 84 6e 53 bf
       -0.48042014 0.6681877 -0.59520906 -0.8259051
0000a0 f9 68 a6 bf 9c ae 9b 3e 81 6b 8f 3e 23 df 27 bf
       -1.3000785 0.30406654 0.28011706 -0.65574855
0000b0 aa ab 96 be 2b 27 a6 3e 95 41 a3 be ed ed 8b be
       -0.29427844 0.32451758 -0.31885973 -0.2732996
0000c0 1f ba 77 3e c5 67 9f 3e 71 79 41 be 9a 80 10 3f
       0.24192093 0.31133857 -0.18893982 0.5644623
0000d0 5a f4 04 3f b5 bc ac 3e ac 24 64 3f 8e 50 df be
       0.5193535 0.33737722 0.89118457 -0.43616146
0000e0 4d 5b 60 3f a0 d5 b5 3e 93 74 06 3f 10 bc 87 3e
       0.87639314 0.35514545 0.5252163 0.26510668
0000f0 b9 e5 b9 be d1 f8 07 bf 86 aa 92 be 5a 51 d8 be
       -0.36308077 -0.5311404 -0.28645724 -0.42249566

actor.0.weight f4 [128, 13]
000000 37 08 4d bd 9d d3 6a be 15 00 c2 3e 67 ae c3 be
       -0.050056662 -0.22932287 0.37890688 -0.38218996
000010 a9 cc ee 3e 3a 03 27 bf f7 87 10 be b7 11 cd 3d
       0.46640518 -0.652393 -0.14114366 0.100131445
000020 97 98 4a 3e 70 d1 a1 be 7b c1 bc be eb bf b2 3e
       0.19784771 -0.316051 -0.36866364 0.34912047
000030 ac 51 4f 3e 14 6f d6 3d f6 fd 97 3d f1 a3 b4 3c
       0.20245999 0.10470405 0.07421486 0.02205083
000040 c9 b3 0f 3c 33 c3 91 be 3e c5 92 3e 40 9b 91 be
       0.008770891 -0.28469238 0.2866611 -0.2843876
000050 ca e5 4a 3e c6 5a f0 bf d6 79 2e bf b1 b7 a5 3c
       0.1981422 -1.8777702 -0.68154657 0.020229192
000060 4b fd 14 3e 29 a3 a2 3d d8 ef 43 bd 10 29 5f be
       0.14549749 0.079412766 -0.047836155 -0.21793008
000070 e4 06 dc 3e d5 6f b7 be 72 60 9a 3e 88 87 32 3e
       0.42974007 -0.3582751 0.30151707 0.17434514
000080 ad 66 e6 3d 8f ee c0 3d 21 0c 73 3f c4 62 11 be
       0.112500526 0.094205014 0.9494038 -0.14197832
000090 ea dc 4e be 43 4c 8f 3e 9e fd a2 bb 28 5b 62 3d
       -0.2020146 0.2798787 -0.004974081 0.055262715
0000a0 bd ed d4 3d 89 3c 02 bf f9 41 b0 3c 35 7d f9 3c
       0.103969075 -0.5087362 0.021515833 0.030455211
0000b0 b9 3c be 3f 86 e3 a3 bc a0 fa 84 bd 40 f3 a7 3e
       1.4862281 -0.020005953 -0.064931154 0.32802773
0000c0 00 5d bd be f9 c8 e1 3d 84 f3 18 bd 10 d0 ca bd
       -0.36985016 0.110246606 -0.03734161 -0.09902966
0000d0 35 6c 90 3e d1 cd 0a bf cb c1 c8 bd cd 38 d9 3d
       0.28207555 -0.542203 -0.09802588 0.10606537
0000e0 30 f0 82 bd 51 c3 c3 be f4 79 38 3e cb 5e 01 bf
       -0.063934684 -0.38234952 0.18015271 -0.5053527
0000f0 c5 54 e6 bd c2 f0 f6 be bd 11 a7 be 3f 6d 7f 3e
       -0.11246637 -0.4823056 -0.3263072 0.24944018
000100 7c 43 52 3e 48 7d db 3a 31 4e aa bc f3 83 7d be
       0.20533556 0.0016745711 -0.020789238 -0.24757366
000110 fa 58 ab be 89 e8 87 bf 6f c4 42 bf 3b 25 a3 bd
       -0.3346632 -1.0617839 -0.76080984 -0.079660855
000120 18 5d 06 3c 96 b4 35 bf b4 63 25 bf 09 3d 84 be
       0.008200906 -0.7097868 -0.6460526 -0.25827816
000130 2f d6 ee 3d e3 99 89 bc 86 6f 8a be 37 3c 49 3e
       0.11661946 -0.016797012 -0.2703821 0.19651876
000140 3d 03 c3 3c 1f 64 df bc dd 4e d0 3e a9 b7 d1 be
       0.023805255 -0.027269421 0.40685168 -0.40960434
000150 4f d5 fb be 64 ea 9f 3e 8b 46 52 be 3b 32 87 3e
       -0.4918618 0.31233513 -0.20534723 0.2640551
000160 e7 c3 72 3d 71 88 55 be 01 bb f4 bd bf f0 87 3d
       0.05926886 -0.2085283 -0.11949731 0.066377155
000170 46 a2 05 bf 0b 98 71 be d5 00 6b 39 72 35 fe 3e
       -0.52200735 -0.23593156 0.00022411656 0.4965015
000180 88 2e 1e bf d5 df 18 be 83 89 c6 be 63 66 de be
       -0.6178975 -0.14929135 -0.38776788 -0.4343749
000190 18 e1 9c be c5 2b f4 bd 87 32 24 3e 62 85 c3 bd
       -0.30640483 -0.11922411 0.160349 -0.09546925
0001a0 4b 07 5e 3c 9f 9b 59 be 68 05 29 3f 0a 85 2a 3d
       0.0135515435 -0.21250771 0.66023874 0.041630782
0001b0 67 54 e8 3e b2 e4 a1 3e c9 8d 14 3e ae 11 db 3d
       0.45376894 0.31619793 0.14507212 0.106967315
0001c0 b0 98 38 3f 6d cc 39 be 58 82 7b be d4 ed 80 3d
       0.7210798 -0.18144388 -0.24561441 0.06295362
0001d0 79 f8 24 3e c1 bd 47 bc 8f 3f 7b 3e eb 8e 7d be
       0.1611041 -0.012191237 0.24535964 -0.2476155
0001e0 e3 b2 f2 be 9a f3 3d bf 87 7d 28 bf b5 47 74 3e
       -0.47402105 -0.7419983 -0.6581654 0.23855479
0001f0 81 c4 e8 bd 81 6b 43 3f 99 db d6 3e 4b b8 dd be
       -0.11365605 0.7633591 0.41964415 -0.43304667
000200 ff 2e e8 3e a4 9e 9f be 22 04 26 3e 29 56 ea be
       0.45348355 -0.3117572 0.16212514 -0.4576886
000210 27 bc ed be 1f 58 d4 3e 25 cc 19 bf 53 ef 62 3e
       -0.4643261 0.4147348 -0.60077125 0.22161607
000220 6b 85 31 3d 33 72 8c 3c 53 e7 05 3f 25 c9 9d be
       0.043340128 0.017144298 0.523061 -0.30817524
000230 d2 fa 2e 3f bd 38 a1 be 3f 7d 07 bd 44 e5 2e 3e
       0.6835147 -0.314886 -0.03307843 0.17079645
000240 e0 f5 27 bd 37 3e 23 bd a0 1d 46 bd e3 ad 4a 3e
       -0.04100597 -0.039854255 -0.048368096 0.19792895
000250 6a e1 05 be 80 3d 82 be 17 6b 23 bd 30 62 12 c0
       -0.1307427 -0.25437546 -0.03989705 -2.287243
000260 17 b9 25 bd 86 f9 5c 3e 76 4a a7 3c df 21 6c be
       -0.04045972 0.2157956 0.020421248 -0.23059796
000270 ac 42 bf bb 9b 36 21 be 59 79 b8 be 75 48 5e 3e
       -0.0058368053 -0.15743487 -0.3603008 0.21707328
000280 85 ab 1e 3f 19 72 a3 bf f6 66 87 3c 28 c5 cb 3b
       0.6198047 -1.2769195 0.016528588 0.006218571
000290 4b 9c 02 be a9 24 7a 3e d8 31 09 3e 32 dc 87 bd
       -0.12754934 0.24428047 0.1339792 -0.06633796
0002a0 44 e1 3b be 33 23 73 bd 1a 65 86 be 59 12 0b 3e
       -0.18347651 -0.05935974 -0.2624901 0.13581218
0002b0 b3 fc 27 be 2a 51 63 3f e8 d7 5f bf 37 5d 98 be
       -0.16404991 0.8879572 -0.8743882 -0.29758617
0002c0 a0 6d e4 3e 20 47 53 bf 60 03 36 3f d9 86 9a 3d
       0.44614887 -0.82530403 0.710989 0.075452514
0002d0 4c 2f b1 3d a3 da 38 bd 35 68 e7 3d 5d a6 5a 3e
       0.08651599 -0.045130383 0.11299173 0.21352525
0002e0 cb d7 37 bc 8d ca 35 3c a1 31 b8 3e 4a ea 33 3e
       -0.011220883 0.011095655 0.35975364 0.17569843
0002f0 57 f7 15 3f 84 b7 7b 3e 6e e8 09 bf 33 ed e6 3e
       0.58580536 0.24581724 -0.53870285 0.45102844
000300 26 97 c9 bc 14 40 a7 3e 1e 66 ee be ee e6 72 3e
       -0.024608206 0.32666075 -0.46562284 0.23720905
000310 c0 e7 67 3e 16 78 34 be aa a1 93 3e 5b 4c a3 be
       0.22647 -0.17623934 0.28834277 -0.31894192
000320 17 ac 0e 3f 39 c0 86 3d 64 6c 6d be 05 1f 71 3f
       0.5573134 0.06579632 -0.23185879 0.9418796
000330 50 48 21 bf 94 d5 e8 3d 3f d0 8d 3e 43 1d 82 3d
       -0.63000965 0.11368862 0.27697942 0.063532375
000340 3a 64 16 bd 86 b3 33 bb d9 04 77 3e d1 9a 30 3d
       -0.036716677 -0.0027420237 0.24122943 0.043116394
000350 0c 42 d3 3e 38 9b 49 3e 52 8d 2f be 94 d3 f5 bd
       0.41261327 0.19688118 -0.17143753 -0.12003246
000360 4e a4 ba bf 37 f0 8b be fe af e2 3e 3c 4f c4 be
       -1.4581392 -0.27331707 0.44274896 -0.383417
000370 f0 85 da 3c 73 de 86 3e 0c 16 cb 3d 68 fa 43 3e
       0.026675195 0.2634159 0.099163145 0.19138491
000380 73 bc 0a bf da 52 a3 3e 8c 86 1e bd bf 79 1f be
       -0.541938 0.31899148 -0.038702533 -0.15573786
000390 7a da 94 3e 16 64 90 be 31 34 1c 3f 9b cd 59 3e
       0.29072934 -0.2820136 0.6101714 0.21269839
0003a0 c3 96 c2 3d 43 7b 1c 3e 86 99 92 3d 5b 07 13 bf
       0.09501412 0.15281396 0.071581885 -0.574331
0003b0 3d 38 1f be 71 15 94 3e 3d 86 97 3d 48 b6 20 bd
       -0.15548797 0.28922608 0.07398651 -0.039236337
0003c0 b7 d2 e0 3c f5 95 86 bd 48 de 59 bf f2 b8 59 bd
       0.027444227 -0.06571571 -0.851048 -0.053154893
0003d0 18 26 32 3e 65 fc 83 be 34 21 12 3f 7d 5f 3c 3e
       0.17397344 -0.257785 0.57081914 0.18395801
0003e0 22 a5 53 bd 21 9d dd be 40 49 e5 bd dc c4 4f 3e
       -0.051671155 -0.43283942 -0.11195612 0.2028994
0003f0 4a 6e c3 3e 8d 4d f1 3e e5 c6 09 3e d3 d8 a6 3d
       0.3817008 0.4712948 0.13454778 0.08146825

actor.0.bias f4 [128]
000000 22 dc de bc 4e c7 41 3e a6 0c c4 bc 38 4a 0d bd
       -0.027204577 0.18923685 -0.023931812 -0.03449461
000010 b6 c4 47 3e 9c f3 e9 bd 70 4e 13 be cb f5 1d 3e
       0.19508633 -0.11423418 -0.1438539 0.15425794
000020 54 50 0c bd bb 62 d1 3d 39 28 61 3e a6 ac 40 3d
       -0.034256294 0.102239095 0.21988 0.04703965
000030 5c 67 76 bc e4 e6 cf bc e6 6a 2c 3d a0 61 8c 3e
       -0.015039291 -0.025378652 0.042094134 0.27418232
000040 b2 84 6d bc 72 84 bb 3c d7 93 20 3e 4f bc e9 3d
       -0.014496969 0.022890303 0.15681396 0.1141287
000050 2a 24 06 3e 7c 81 6d 3e 14 e8 7c bd 51 c5 69 bd
       0.13099733 0.23193926 -0.061744764 -0.05707294
000060 eb 9b 68 3e 74 09 42 bd ab 9c 31 be bc c3 9c 3e
       0.22715728 -0.047372296 -0.1734492 0.30618083
000070 1d 91 8f be 8d 73 99 3d 33 80 13 be 32 cc aa 3d
       -0.280404 0.07492743 -0.14404373 0.083397284
000080 35 85 30 be 9d 3c 47 3d 93 15 3b be ff 51 ba 3c
       -0.17238314 0.04864179 -0.18269949 0.022744177
000090 2c b2 d9 3d 60 4d 9e 3c 82 df bc 3d df a9 1d 3e
       0.10629687 0.019324005 0.09222318 0.15396832
0000a0 3f 73 c5 bc ab ec 5b 3e e9 93 99 bd 17 20 12 bd
       -0.024102805 0.21477 -0.07498915 -0.035675135
0000b0 8e 41 e8 3d 1d 56 23 3d 5f 13 91 bd 44 ce 0a be
       0.113406286 0.039877046 -0.07083773 -0.13555247
0000c0 f5 76 30 3d 43 11 29 3e 26 86 49 be 29 7f 45 3e
       0.043082196 0.16510491 -0.1968008 0.19286789
0000d0 b6 de 51 3d a9 b5 4c bd db 90 31 3d 34 3b 56 3d
       0.051237784 -0.049977932 0.043351036 0.052302554
0000e0 ba a3 0d be aa a9 5c 3e 77 78 38 3e fd ab f9 3c
       -0.13831988 0.21549097 0.18014704 0.030477518
0000f0 57 b9 04 be d8 26 f4 bc 7b 20 15 bd 29 da 85 3e
       -0.12961327 -0.029803678 -0.03640793 0.26143005
000100 35 f4 75 3d 5f 56 a4 3c 93 a5 92 bd 6d 67 05 3e
       0.060047347 0.020060716 -0.07160487 0.13027735
000110 7c 89 ba bd cd b5 9b bd 82 ba 9c 3e 2a f6 97 3d
       -0.09108254 -0.07603035 0.30611044 0.07419999
000120 9d bf 8a bc 50 b7 71 3e bd 59 31 be 6c 28 44 be
       -0.016937071 0.23605084 -0.17319389 -0.19156045
000130 6d e8 c4 3d 41 d3 8c bd 3e d3 ba bd 22 11 86 3e
       0.09614644 -0.06876231 -0.091223225 0.26184946
000140 0c 7b 00 3e 93 eb 0b be c0 41 0e be 91 12 43 3d
       0.12546939 -0.13664083 -0.13892269 0.04762513
000150 e7 c5 64 3e 83 16 53 bd b2 1e 98 3d 26 5c bf 3d
       0.22341119 -0.05153514 0.0742773 0.09343748
000160 c7 f0 18 3d 82 83 b8 bd 2a 60 c1 bd 3c 39 74 3d
       0.037339 -0.09009458 -0.0944217 0.059624895
000170 8e b2 b5 bd 03 31 09 bc 33 3e a1 3d 90 24 25 3e
       -0.08871947 -0.008373502 0.07873192 0.16127229
000180 9a 79 37 be e9 bc 59 3e 96 8b 2a be 0a f2 4b 3e
       -0.17917481 0.2126347 -0.1665481 0.1991655
000190 08 37 1c be 4f 73 86 bd 66 13 0c 3e 14 9a 29 3e
       -0.15255368 -0.06564962 0.13679275 0.16562682
0001a0 3f 54 bf bc 97 a5 b9 bd 8d 6c 15 3b 58 de 93 3d
       -0.023355601 -0.09064787 0.0022800297 0.07220143
0001b0 6c 7e b5 3d db 1d 8e bd fd 15 98 3c 61 ca 0a 3d
       0.08862004 -0.06939288 0.018565172 0.03388441
0001c0 f4 9b 63 ba 64 23 5a be b0 16 82 3d 4b 2a f3 3d
       -0.00086826016 -0.21302563 0.063519835 0.11873301
0001d0 0e 30 60 bd db 5e 8e 3d 24 2b c6 3c 19 d8 ff 3d
       -0.05473333 0.06951686 0.024190493 0.12492389
0001e0 6f 0b b6 3d 96 76 6d be 0e 3e ad 3d 90 77 0d be
       0.088888995 -0.23189768 0.084591016 -0.1381514
0001f0 43 eb ae 3d ed 60 92 bd 79 27 c0 bd ac da 31 3d
       0.08540966 -0.071473934 -0.09382529 0.043421432

actor.2.weight f4 [64, 128]
000000 e7 a0 41 3d 47 e3 3b 3f c7 bd 1d be 56 6a b7 bc
       0.04727259 0.7339367 -0.15404426 -0.022389572
000010 c8 b7 fa bd 79 0b 6f 3d 53 90 c5 3e 20 ac 7e 3d
       -0.12242085 0.05836055 0.38586673 0.06217587
000020 43 b9 cb be 70 10 54 be 63 c7 c7 bd 53 8e 33 3f
       -0.3978978 -0.20709395 -0.09754827 0.70139045
000030 ca 2d 00 bd 24 04 93 3d 47 b4 8c 3e 1c fe 11 3e
       -0.031293668 0.07178524 0.2748129 0.14257091
000040 0d 63 91 be 19 5f 09 bf 9d 2c c4 bd 68 43 4c be
       -0.28395882 -0.5366073 -0.09578822 -0.19947588
000050 5a 35 a2 be 59 09 56 bd 39 b4 ed 3d cc 05 81 be
       -0.3168133 -0.05225501 0.1160664 -0.25199735
000060 87 30 db be 32 a9 7c 3e 75 2c b9 3d b4 92 a2 3e
       -0.4281046 0.24673918 0.09041683 0.3175255
000070 4e b3 a5 3e 09 d1 6d bd e3 eb 97 bd f4 0f d3 3e
       0.3236336 -0.05806068 -0.07418039 0.4122311
000080 90 fa 39 3e b1 25 8e 3e f9 ca 3e 3e 31 71 d8 bd
       0.18161988 0.2776313 0.18632115 -0.105684645
000090 35 6f ab be 4d 8c 87 bd 20 53 e4 3e be 5e 00 bd
       -0.33483282 -0.06618557 0.4459467 -0.031340353
0000a0 50 9f d8 3c 23 0d 2d be 47 a4 03 3e 3c 6a 1c be
       0.026443154 -0.16899543 0.12855636 -0.152749
0000b0 4a ac 04 bf 71 c5 4d bc f8 d6 9c bc 6e 3c 1a be
       -0.5182539 -0.012559281 -0.019145474 -0.15062115
0000c0 8d fb f0 be 96 7e 88 3e 26 82 af 3e 53 87 82 be
       -0.47066918 0.26659077 0.34278983 -0.2549387
0000d0 db 9f bd be 5d b2 1e bd e1 b1 03 bf 5d 59 46 3e
       -0.37036023 -0.03874432 -0.51443297 0.19370027
0000e0 11 6f d4 3e ac 4c 36 3e c1 20 ab 3d 96 ab 89 3e
       0.41490987 0.17802685 0.08355857 0.26888722
0000f0 c1 ba a3 3d c3 81 0f 3e 11 00 bb 3c 53 02 ba 3e
       0.07994605 0.14014344 0.02282718 0.36329898
000100 b8 14 a0 bd da 92 dd 3c 8c 19 9c 3e 25 bb 4b 3f
       -0.07816452 0.027047563 0.3048824 0.79582435
000110 3f 22 c5 ba fb 4b c5 3d fb 6b 81 be 67 2b f3 3e
       -0.0015040113 0.09633633 -0.25277695 0.4749405
000120 9d c7 13 be c6 f8 94 3e 0b aa 71 be 74 ca 11 3f
       -0.14431615 0.2909605 -0.23600022 0.56949544
000130 ea 5e c4 bc f4 9e 8b 3e 49 74 1c bd ea f5 aa bd
       -0.02397104 0.2726971 -0.038196836 -0.08347686
000140 54 34 ae 3c 40 d1 8f bd 98 2b ac be c1 d4 d2 3e
       0.021265186 -0.07022333 -0.3362701 0.41177943
000150 5c 22 83 be 99 77 30 be 8b 98 16 3e 82 aa 91 3d
       -0.25612152 -0.17233123 0.14706628 0.071126
000160 fa 4e b6 be 1d aa c6 3c cb 71 b9 3d e5 86 99 bd
       -0.3560713 0.024251038 0.090549074 -0.07496432
000170 c6 e1 21 3e 91 ff fa 3d b9 51 8d bc 27 76 98 3e
       0.15808782 0.12255777 -0.017250882 0.29777643
000180 e4 60 13 3c 5e d0 f0 bd 6d 00 dc be 73 8a 1b be
       0.0089952685 -0.11758493 -0.42969075 -0.15189533
000190 a3 d5 81 3e 97 c7 66 3e 2d 53 b8 bd 66 18 72 3c
       0.25358304 0.22537075 -0.090002395 0.014776325
0001a0 b7 3a 9f be a5 db 2e 3e fa 82 ba 3e fa fa ba 3e
       -0.31099483 0.17075975 0.36428052 0.36519605
0001b0 b9 55 6a be 65 12 fc bd 73 08 e3 3c 00 ac 5b 3e
       -0.22884263 -0.12308196 0.02771399 0.21452332
0001c0 ad 76 59 3e 93 f7 1d 3f b4 44 58 be 88 47 7f 3d
       0.21236677 0.61705893 -0.21119958 0.062324077
0001d0 26 8c 3c 3e c3 11 ed 3e 05 85 34 be d3 db 8c be
       0.18412837 0.46302614 -0.17628868 -0.27511463
0001e0 99 6b 87 bd e7 20 82 bd a4 1e 3f bd da ab 6d 3d
       -0.066123195 -0.06353932 -0.04666008 0.05802522
0001f0 bc a1 ac bd d9 f1 f2 be 95 db f9 3d 73 dc 44 be
       -0.08429286 -0.4745014 0.12200085 -0.1922472
000200 aa f9 65 3e df 42 a2 3e 74 c3 56 3e 22 4a 85 be
       0.2245852 0.31691644 0.20972997 -0.2603312
000210 60 df 56 be b6 18 7a bd e3 39 7f bd ee 30 a3 3d
       -0.20983648 -0.061058722 -0.062311064 0.07968317
000220 a1 85 57 be 2f c4 09 3e c0 b4 ee be aa c5 d0 3e
       -0.21047069 0.13453744 -0.46622276 0.40775806
000230 3f cb ff 3c be ed ab bd ab 4d 87 bd bd 0f e1 be
       0.031224845 -0.08394955 -0.06606611 -0.4395732
000240 cd a3 21 bd a2 32 41 bd 81 61 09 3e 4d 99 f6 bc
       -0.039462853 -0.047167428 0.13416101 -0.030102396
000250 b9 19 cf be f1 ed 64 3e 52 a8 b5 be bb a2 94 3d
       -0.40449312 0.22356392 -0.3547998 0.07257601
000260 5b bf 03 3d aa ef 23 be 0d b2 cf be 6b 7b 0a 3f
       0.032164913 -0.16009393 -0.4056553 0.5409457
000270 55 63 9e 3e bc 7a da be d2 28 d8 3d 61 f6 3f 3e
       0.3093516 -0.42671764 0.10554661 0.1874633
000280 89 ae cb 3d 77 83 ee 3e fc 40 83 bd 52 fb 81 3e
       0.09945399 0.46584675 -0.06408879 0.25387055
000290 ca 76 8f 3e a8 67 c4 bd 3a 54 b6 3e 2d 32 79 bd
       0.28020316 -0.09590083 0.35611135 -0.060838867
0002a0 b1 0c 81 be b3 26 c4 bd e6 b9 d3 bc 8d e3 25 bd
       -0.25204995 -0.09577694 -0.02584548 -0.040500212
0002b0 76 ac 3e be 66 29 d9 be 6e c8 70 3e 9c 96 83 be
       -0.18620476 -0.42414397 0.23513958 -0.25700843
0002c0 24 be b5 3e e4 95 4f 3e d0 30 4c 3e f4 b3 be 3d
       0.35496628 0.20272022 0.19940495 0.09311667
0002d0 33 e5 36 bf b9 5f 88 3e c5 1f 22 3e 34 85 62 be
       -0.7144348 0.2663553 0.15832432 -0.22121125
0002e0 11 01 4f 3e c0 df f7 bd 03 94 0e 3e fd d1 8d 3e
       0.2021525 -0.12103224 0.1392365 0.2769927
0002f0 d7 21 9f bd 9c dd af 3e 93 7b 92 bc a5 39 fc 3b
       -0.07770126 0.34348762 -0.01788119 0.0076973015
000300 87 8e 29 be cf 91 0a be 6d 58 99 bc 11 70 6d 3e
       -0.16558276 -0.13532184 -0.018718923 0.23187281
000310 2b c0 4d be 90 3d b1 3e dc 69 04 bf 01 2b ab 3e
       -0.20092838 0.3461728 -0.5172403 0.33431247
000320 73 c8 19 be 78 a6 b1 bd eb 6b bf 3e ed 13 c1 3e
       -0.15017872 -0.086743295 0.37387022 0.37710515
000330 d5 8e e0 3d 64 38 a5 be e1 7a 67 be d4 d9 52 3e
       0.10964743 -0.32269585 -0.22605468 0.20590907
000340 ee d5 50 3e a5 94 92 3d df 5b 5c be 27 dd a6 3d
       0.20394108 0.07157258 -0.21519421 0.0814765
000350 f7 78 1e be 70 b8 88 be 4d 89 cd be 24 8c b1 be
       -0.15475832 -0.26703215 -0.40143815 -0.3467723
000360 0a b1 cf bd 12 d9 bd 3d 6d 1c d5 3d 42 83 d9 be
       -0.101411894 0.092699185 0.104058124 -0.42482954
000370 55 06 ad 3d b9 93 b7 3d 79 c9 93 3d 50 db 7f be
       0.08448473 0.08963723 0.07216162 -0.24986005
000380 9c 4e c9 3e 51 81 d1 bd c2 26 f7 3c 67 1e 3c be
       0.39317787 -0.10229743 0.030169848 -0.18370973
000390 68 0f a1 3c 21 96 e6 3e ac 7e 8f 3e 8f 8a 35 bd
       0.019660667 0.45036414 0.2802633 -0.044321593
0003a0 b8 07 d2 be a7 0b a3 3e 20 71 0a 3c 9c ae 7f bd
       -0.41021514 0.31844828 0.008449823 -0.06242238
0003b0 ba 2c e5 3d 64 0a 8c 3e 75 ee 88 3e cc 59 22 bc
       0.111901715 0.27351677 0.26744428 -0.009909105
0003c0 b2 ef 13 3f 94 d8 81 3e aa 7c 8f be ad b9 99 bd
       0.5778762 0.25360548 -0.280248 -0.07506118
0003d0 07 7b 01 be 72 23 5a be b4 a6 d7 be d7 75 54 bd
       -0.12644587 -0.21302584 -0.42119372 -0.051870193
0003e0 0a 96 21 3f 54 65 dc 3d f2 be c0 3c ac c0 b1 3e
       0.63119566 0.10761514 0.02352855 0.3471731
0003f0 26 cc 6b be 0e be 76 be 9a fe 82 be fa 2c e6 be
       -0.23027095 -0.24095938 -0.2558487 -0.4495619

actor.2.bias f4 [64]
000000 e5 db d2 bd d7 25 93 bd 31 ee 58 3e 88 50 72 bd
       -0.10295848 -0.07184952 0.21184613 -0.05915883
000010 ab 71 03 be 62 53 8f 3e b7 3b 6d be b2 26 39 be
       -0.1283633 0.27993304 -0.2316731 -0.18081167
000020 42 98 b2 3d e8 3e fb 3c e3 9a 84 3c f5 ab f6 3c
       0.08720447 0.030669644 0.016187137 0.030111292
000030 c5 3c 05 3d fa 46 93 3d 24 50 95 3d 88 50 ce 3a
       0.032528657 0.07191272 0.07290676 0.0015740553
000040 27 e0 b9 3e 24 55 43 bd cc c2 04 be 30 6f 52 3e
       0.36303827 -0.04768862 -0.12964934 0.20550227
000050 5d 45 b2 bd 93 56 17 be 8a 84 b5 bd f7 e7 cc 3d
       -0.08704636 -0.14779119 -0.088631704 0.10005181
000060 c4 1e 8d be 0b e3 22 be c7 d2 50 3e 15 57 4f be
       -0.27562535 -0.15906923 0.20392905 -0.20248063
000070 f6 6e 73 bc a2 44 5b be ec ba 68 be a2 99 ca bd
       -0.014857998 -0.214129 -0.22727555 -0.098925844
000080 87 02 a0 3c 04 7d 4f bd 0e 44 d5 ba d1 cd 9a 3b
       0.019532455 -0.050656334 -0.0016270892 0.0047242423
000090 b0 f4 02 3e 9b 71 94 3e a1 a6 56 bd b1 e3 a8 3e
       0.12788653 0.28992924 -0.052405003 0.32986215
0000a0 94 d1 67 3b 79 0c c0 3b da f7 bc bd 60 3f 8e be
       0.003537272 0.005860862 -0.092269614 -0.27782726
0000b0 60 7c 4b 3e 9f f1 7b 3e ed 12 2c 3e 4f d5 cb bd
       0.19871664 0.2460389 0.16804095 -0.09952795
0000c0 08 a6 31 bd 97 29 30 3d 9c 07 a1 3e 1c 6a cb bd
       -0.04337123 0.043008413 0.31451118 -0.09932348
0000d0 2b af 30 bd 7b bf 2b 3c 9c 7f c5 3e f3 ba 90 3e
       -0.043135803 0.010482664 0.3857392 0.2826763
0000e0 6a 4a de 3e c9 00 ac be a0 d6 7f 3e 74 f4 71 3c
       0.43416148 -0.3359435 0.24984217 0.014767755
0000f0 5f 7c c2 bd 51 15 9f 3d 53 8c c5 bc 39 b7 26 be
       -0.09496378 0.07767738 -0.024114763 -0.16280831

actor.4.weight f4 [6, 64]
000000 56 76 af 3b 2c e3 17 3e 43 bb f4 3d 0b dd 05 3e
       0.005354683 0.14832753 0.1194978 0.13072602
000010 75 78 c4 3e 02 2d c9 be 2d f0 84 ba 1b 3c 41 bc
       0.3837315 -0.3929215 -0.0010142379 -0.011794115
000020 f6 9a 1b 3d 77 8d 4c 3e c2 f3 95 3d 9a da 60 bd
       0.03798958 0.1997584 0.07321884 -0.054895975
000030 33 38 a8 be 6a 9a 91 3c 07 67 35 be f8 39 92 bd
       -0.32855377 0.017773826 -0.17715083 -0.07139963
000040 f7 24 bd be 8e fb f7 3a b0 c8 82 bd 0b 4e 09 bc
       -0.36942264 0.0018919574 -0.06385934 -0.008380423
000050 95 6c 27 3e a0 77 19 bb d0 68 c8 3d 5e 1b 9c 3c
       0.16350015 -0.002341725 0.097856164 0.019056018
000060 b2 4b 17 be eb 0d 1c be 32 7d 2f 3d 2d 97 86 3e
       -0.14774969 -0.15239684 0.042844005 0.26287213
000070 e6 b4 9c 3d 39 4c 1d 3e 66 69 ba bc 6a e3 fd 3c
       0.07651691 0.15361108 -0.022755336 0.030992229
000080 ec 49 c2 3d 0c c8 e7 bd c5 ad 05 be 07 a9 f1 bc
       0.09486756 -0.11317453 -0.13054569 -0.029499544
000090 b4 bc a3 bd 49 5e 0d 3e 09 77 04 3e b8 dd 30 3d
       -0.07994977 0.13805498 0.12936033 0.043180197
0000a0 e4 a2 22 3d 14 cd 8e 3d fd 4d ab 3d b8 6b 1f 3e
       0.039706126 0.06972709 0.083644845 0.15568435
0000b0 a8 34 49 bd 4e df 5a 3e 82 3b 82 bd ce 1b 31 3e
       -0.049122483 0.21374246 -0.063590065 0.17295763
0000c0 a4 6b 0c be 6e a0 20 3c 9d 52 b3 3e c4 0b c9 be
       -0.13712937 0.009803874 0.35023966 -0.3926679
0000d0 2c 78 d6 3c 7c 8e c6 3d c0 98 61 3d 74 e4 cd 3d
       0.02618035 0.096951455 0.055077314 0.100533396
0000e0 fe 3e 52 3d 4b 90 70 be 74 31 99 3e a6 08 c0 3c
       0.051329605 -0.23492543 0.29920542 0.023441624
0000f0 f0 ad 7e bd 21 d6 3f 3e d3 05 71 bd ff 78 b0 bd
       -0.0621776 0.18734027 -0.058843445 -0.08616828
000100 6d ce 91 3e cb 6d 14 bc 9f 9a cb bd e5 59 a9 3e
       0.28477803 -0.00905938 -0.09941601 0.33076397
000110 ee be c2 be f0 7e 7f 3e 1b 09 f4 be 4e cf 9f bc
       -0.38036293 0.24950767 -0.47663197 -0.01950803
000120 b2 e5 4b 3f 44 c6 37 be 4c 64 e0 3c 26 5c a0 3e
       0.7964736 -0.17946726 0.027391575 0.31320304
000130 fa a7 f3 be 62 b9 e9 3c 8d e4 e7 3e 2f a4 50 be
       -0.47589093 0.02853078 0.45291558 -0.20375131
000140 ca 13 02 3f 02 38 4c 3d fe ee e5 3d 2c 1d c5 be
       0.50811446 0.0498581 0.11227225 -0.3849882
000150 86 bc 27 be 8d a0 d0 bd 90 ec d7 3d 2b d3 f2 bd
       -0.1638051 -0.10186873 0.105431676 -0.11856683
000160 70 5a 76 be b2 82 06 bf 22 1a 66 3d 54 50 dd 3e
       -0.24057937 -0.52543175 0.056177266 0.43225348
000170 5b 33 b6 be 08 99 85 be 26 04 93 3e 2f 2f 46 bf
       -0.35586056 -0.26093316 0.28714103 -0.77415746
000180 1c 1e ef be e1 1c 2b 3e 7d 15 0f 3f 37 e6 b6 be
       -0.4670266 0.16710235 0.55892164 -0.35722515
000190 7f 5a 68 3e d1 ab 89 bf a4 4b 74 be 15 ba 4c bf
       0.22690772 -1.0755559 -0.2385698 -0.7997144
0001a0 8f 01 19 bf eb 6a e5 be 13 66 ad 3d 6e 97 94 bd
       -0.59768003 -0.44808134 0.08466735 -0.072554454
0001b0 df 9d 6c 3e 6d c6 2d bf 3a 2c df be 36 8d 30 3e
       0.23107098 -0.678809 -0.4358843 0.17241368
0001c0 26 a7 fe 3e 18 0c ad be e4 aa 2e bf 37 77 2d bf
       0.497369 -0.3379829 -0.6822951 -0.6776003
0001d0 c4 25 3f be 95 21 26 bd a4 3a ef 3d c1 20 3d be
       -0.1866675 -0.04055937 0.11681107 -0.18469526
0001e0 95 92 55 3f a0 c0 14 bf 68 66 ca be 02 d5 9d bd
       0.8342679 -0.5810642 -0.39531255 -0.07706644
0001f0 b5 2c da 3e 2d 59 af be 22 60 9d be cf 17 1c 3e
       0.42612234 -0.34247723 -0.30737406 0.15243457
000200 65 bb 92 be 02 dc 1c be aa 81 06 bd c9 a7 ec be
       -0.28658596 -0.15318301 -0.0328385 -0.4622176
000210 b8 1d 7f bd 56 e2 2d 3e 36 5b df 3e 67 3f d5 3c
       -0.0622842 0.16980872 0.43624276 0.02603121
000220 f1 84 4e bf c3 8d 75 bd d9 8e e9 bd 87 0e 84 be
       -0.806716 -0.059949648 -0.11404199 -0.25792333
000230 f6 1c 55 3f c2 fb 6d bd 63 d8 6e be c5 02 8c 3e
       0.83247316 -0.058101423 -0.23324732 0.27345863
000240 27 74 a4 bd 8c 06 a1 bd 8d a2 f5 bc e8 b4 cb 3e
       -0.08029967 -0.07862577 -0.029984737 0.39786458
000250 14 fd 22 bd ac 58 7f 3d ea f8 48 be 04 c5 c5 3d
       -0.039792135 0.062340423 -0.19626203 0.096567184
000260 78 0f c4 3e df 07 2b 3f 92 f9 b2 bd 9b c6 35 bf
       0.38293052 0.66808885 -0.08739008 -0.7100617
000270 f3 d9 86 3e 7a 7b ad 3d a1 29 7d be 23 a0 37 3f
       0.26338157 0.08470817 -0.24722911 0.71728724
000280 a1 d3 b7 3e 36 4b 10 bd d9 e6 ca be ad 6f c8 3e
       0.35903648 -0.035227977 -0.39629248 0.39147702
000290 60 3f 0d be 7f 37 67 3f e6 36 d1 3d ec 5a 3c 3f
       -0.13793707 0.90319055 0.10215549 0.73576236
0002a0 59 f0 09 3f c8 2c b5 3e 8b 2a 29 be 8b 9f e4 bd
       0.53882366 0.35385728 -0.16520135 -0.11163243
0002b0 49 53 2b be 04 e5 da 3e 35 8f 00 3f ee 95 be be
       -0.1673099 0.4275285 0.50218517 -0.37223762
0002c0 6e ca 9c be 9a f5 a5 3e 87 d9 96 3e 0e b1 89 3f
       -0.30623192 0.32413942 0.29462835 1.0757158
0002d0 72 08 1c 3e 79 99 97 bd 34 67 33 be 35 b5 8f 3d
       0.15237597 -0.074023195 -0.17519838 0.070169844
0002e0 af 29 5e bf 0d d8 50 3f 56 98 b5 3d 4b 89 bd 3c
       -0.86782354 0.8157967 0.088669464 0.023136755
0002f0 d9 f4 ab be 15 e6 03 3e c9 d2 c1 3e 74 bf 3d bd
       -0.3358524 0.12880738 0.3785613 -0.046325162
000300 b7 32 2b 3e 34 1e f2 3d 54 74 51 3e e0 ca 43 3d
       0.16718565 0.11822167 0.20454532 0.0478009
000310 c6 37 50 be 75 01 89 3d cc ee f0 bd f5 00 d0 bd
       -0.20333776 0.06689731 -0.11764297 -0.101564325
000320 88 32 49 bb d7 f7 c6 bd 92 6f 4b be f0 e0 b0 3d
       -0.0030700285 -0.097152404 -0.1986678 0.086366534
000330 6f 9b 35 3e 59 58 61 3e 64 5e a7 3c 2d 33 93 be
       0.17735074 0.22006358 0.020430751 -0.28749982
000340 97 98 9c 3d 43 df 52 be bd b6 b9 3e b1 20 34 be
       0.07646292 -0.2059298 0.3627223 -0.17590596
000350 b4 6f b4 be 7b e0 dc 3d 93 64 e5 bd 7f 99 88 bb
       -0.35241473 0.10785004 -0.11200824 -0.004168689
000360 6d 33 0b 3d 5f 31 8b bc d6 c5 27 3e 13 46 db 3d
       0.03398459 -0.016991315 0.16384062 0.10706725
000370 6e fa 90 bd 6a bd 34 be 17 fa 72 be 06 de 23 bc
       -0.07079016 -0.1765038 -0.23728214 -0.010001665
000380 0d 43 3c be 88 4c 64 3e 87 56 46 be d3 ae 28 3c
       -0.18384953 0.2229482 -0.19368945 0.010295588
000390 8b 93 d5 bd 43 a3 b8 3c b1 7d 54 3e 17 81 e7 bd
       -0.10428532 0.022538787 0.20751072 -0.11303919
0003a0 71 d7 62 be 7f cf 05 3e 72 08 61 3e 81 cc dd 3d
       -0.22152497 0.13067435 0.21975878 0.10830022
0003b0 76 83 3d be 92 41 9e 3d e7 b3 16 3e f7 ec 52 3e
       -0.1850718 0.0772735 0.14717065 0.20598207
0003c0 40 d1 25 be bf 83 12 3e 3c 1a e6 bb e4 fa b4 3c
       -0.16193104 0.1430807 -0.0070221703 0.02209229
0003d0 42 eb 89 3e a1 ee f5 3d 2d 4e c2 bd 0a 9f bc 3e
       0.269373 0.120084055 -0.09487567 0.36840087
0003e0 55 dc c5 3d 7e 9c ef bd 66 7a aa 3d f8 1c 3f 3e
       0.096611656 -0.116997704 0.08324127 0.18663394
0003f0 79 94 36 be 75 e2 f4 3d 71 c0 bc 3d f4 d3 38 3e
       -0.17830075 0.11957256 0.09216393 0.18049604

actor.4.bias f4 [6]
000000 0b 21 76 be 41 4f 1f 3e ef bd ef 3d 8a 35 06 bc
       -0.24036042 0.15557577 0.11706149 -0.008191476
000010 d0 b2 3d 3c 4f b7 a7 3c
       0.011578277 0.02047315
